dl_experiments/best_checkpoints/alibaba_15min_GRU_cuda:0_checkpoint.pt (torch, 26558 bytes, 30 tensors)

gru.weight_ih_l0 f8 [12, 24]
0	0xbf3f0e04b1c9e74a	-0.00047385801898479753
1	0xbf35cbc8d935a2f2	-0.0003325810768815405
2	0xbf3773727d7b700f	-0.0003578333394054231
3	0xbf3d2549cd129f94	-0.0004447274378187535
4	0xbf425d9701324a3d	-0.0005604731872089274
5	0xbf3a09e981a1b0ae	-0.0003973193248672052
6	0xbf40fb3c346a4ba2	-0.0005182308166972081
7	0xbf42e1e4e3e1be46	-0.0005762450816870289
8	0xbf43afd7b4de7fc1	-0.0006007960562222013
9	0xbf34440230be3b00	-0.00030922940708759394
10	0xbf3c6ad4f05a8295	-0.0004336137647929309
11	0xbf3330b9df21919d	-0.00029282129174237355
12	0xbf31562d4768ec37	-0.0002645359558390322
13	0xbf2fb83782085c9b	-0.00024200131976279547
14	0xbf37854c20d23fef	-0.00035889729117233223
15	0xbf3f101a1e406259	-0.00047398221636422083
16	0xbf39115b4a6ec2aa	-0.0003825042608083621
17	0xbf3ec61b40ca0e93	-0.00046957173689341733
18	0xbf474ffffa8745c0	-0.0007114410300862947
19	0xbf48c18d80407af3	-0.0007554951594136147
20	0xbf461c779f451f70	-0.0006747802822610737
21	0xbf479103befbfd8c	-0.0007191913882422115
22	0xbf481f409c471132	-0.0007361474495657715
23	0xbf4627bc5b0329a2	-0.0006761235909150019
24	0x3f72d7867738b82a	0.004600072151829374
25	0xbf7cacd94ceddb83	-0.00700077898988283
26	0x3f56402040a536ff	0.0013580622640633753
27	0x3f60ace87351a7c6	0.0020355739639414698
28	0x3f8125670f1a34a2	0.008372120998752234
29	0xbf5f70c412bfb7f5	-0.001918975332042103
30	0x3f81456cbaa5d8f0	0.008433198400535663
31	0x3f749041158aa4da	0.005020384058903116
32	0x3f81de72bbbb45e9	0.008725067476379205
33	0x3f81a2add5b10b2b	0.00861106689820231
34	0x3f87b47ce418793a	0.011574722014355932
35	0x3f7987d97150ee02	0.006233071694676353
36	0x3f86efad601f88a0	0.011199335571238145
37	0x3f8161a25bee640a	0.00848700373698998
38	0x3f7cf96280eae455	0.007073769359231615
39	0x3f64fc8b5c72cb0a	0.002561828794193648
40	0x3f8030db41b50c9a	0.00790568632385762
41	0x3f60757d5168cb1d	0.002009148370484394
42	0x3f89249b08399262	0.012276850880149574
43	0x3f7869d8c393390b	0.005960318311919242
44	0x3f8324f72a0dbc2f	0.009347849818111069
45	0x3f6735993d3a92b2	0.002833174987090758
46	0x3f822f917c036f27	0.00887979182919414
47	0xbf38bbf8a9712b79	-0.00037741490217928876
48	0x3fa776883d90ca5a	0.045826203837709925
49	0x3fa59ac3ab1e4fa0	0.042196383131481996
50	0x3fb1f91385c4a42e	0.07020685211013308
51	0x3fa7824e9ac75ca6	0.0459160388888276
52	0x3f9a420783172af8	0.025642506958130945
53	0x3fa06f997006b75d	0.032101435589864315
54	0x3fa921e9cfb0d963	0.04908686313904089
55	0x3f9942575989a59a	0.024667134132334213
56	0x3fa25350623f809d	0.03579188536946385
57	0x3fa26f84186e1a43	0.03600704954356051
58	0x3fa44d1dce79b463	0.03965085168315665
59	0x3f9679a259de3c20	0.021948372588266207
60	0x3f8d65a64775a328	0.01435403733803893
61	0xbf869a6ad9fc60e8	-0.011036715295219726
62	0x3f6c5de02ca72f06	0.0034627321631200995
63	0xbf747f14537bde44	-0.00500400485883962
64	0xbf5e90788d7c0d3a	-0.0018654992363174709
65	0x3f7edb718b2e8e39	0.007533496408459289
66	0x3f93e3979b8b2d24	0.01942288290846962
67	0x3f97a202a7eeb9fc	0.023078958034313132
68	0x3fa6954debc41516	0.04410785201074867
69	0x3fae55abd4632989	0.05924736945742654
70	0x3fa874b9c589bc7e	0.04776554619172034
71	0xbf94add61dda3e81	-0.02019438321309375
72	0x3fb5dd2ef41db60f	0.08540624103417137
73	0x3fa972c4ee57e96d	0.04970374497857475
74	0x3fabd3ef662f9f68	0.05435131189716352
75	0x3faf030a379cf00e	0.06057006768102734
76	0x3fb1816f2f45bcc4	0.06838126091109858
77	0x3fb139b36e494886	0.06728669588599887
78	0x3fa2eb891526b235	0.03695324309532958
79	0x3fad05727b5e1ef3	0.05668218379929426
80	0x3fa2d12dfab24dd2	0.03675216374645242
81	0xbf50ae65ef29bafa	-0.0010181422664136673
82	0xbf92d516dd3c4678	-0.01839099622072246
83	0x3f62e4b12926e2ee	0.0023063144846812078
84	0x3fa68876a3e4e15d	0.04400988341007193
85	0x3faf423830b3fd36	0.06105208963890123
86	0x3fb25b845506c5ef	0.07170893741456273
87	0x3fb0afd75eb83b09	0.06518312513820147
88	0x3fa8ab8cdc63671a	0.04818382444655196
89	0x3f8e88ccc928bdf1	0.014909362687006019
90	0xbf8041eb47ab6cbd	-0.00793823063343379
91	0x3f81601b172d7364	0.008484088558981369
92	0x3f91d229eae67672	0.017403273546383997
93	0x3f966652d694cd3b	0.021874708506584666
94	0x3f9b107e489eab34	0.02643010442958911
95	0x3fb0e0d8a98d7d78	0.06593088283033477
96	0x3f5118fd6892e4d9	0.0010435557071970995
97	0x3f479fc72180dcda	0.0007209513014520233
98	0x3f5696fbaa43a850	0.0013787706057493306
99	0x3f62df572c188cce	0.0023037626822471685
100	0x3f535b123d3e59ad	0.0011813810460573435
101	0xbf367fa31ff84233	-0.00034330112973271764
102	0x3f2ad82e0e5be216	0.0002048069210827264
103	0x3f4bdd1df7528f2c	0.0008503338164200561
104	0x3f3c3663024a47f2	0.0004304877968844815
105	0x3f02583e638e8564	3.498974223893161e-05
106	0xbf25be6378bd5b35	-0.0001658913064328194
107	0x3f604e6d1f8fdfa4	0.0019905215563049295
108	0x3f6331c993aec6f1	0.002343076424460182
109	0x3f5722a69a1f3959	0.0014120699856792955
110	0x3f4b08b708ecc303	0.0008250135159411923
111	0x3f458e1b0d65789c	0.0006578094569638262
112	0x3f530c981f0af2ad	0.001162670665663483
113	0x3f4d95a12200acd5	0.0009028469830857597
114	0x3f53eb78d5dc05e5	0.0012158088715640222
115	0x3f6198aa2d0c925c	0.0021479915379976466
116	0x3f56d2e7124eb860	0.0013930565412283644
117	0x3f52e157b02e8c33	0.001152358658807595
118	0x3f6532b209a9fe3d	0.002587650041561833
119	0x3f60624eaed3731f	0.002000001599851933
120	0xbfb45df6e34cff3f	-0.07955878304801177
121	0xbfacc849c9e2d451	-0.05621557797841404
122	0xbfaeece2edb756b4	-0.06040105010803867
123	0xbfbede1c8863a61b	-0.12057665185752635
124	0xbfc37b111cb5e30e	-0.1521932020366638
125	0xbfbb1967d7a58069	-0.10585640921408558
126	0xbfbe6416c2eb3b2e	-0.11871473559152143
127	0xbfbacd74c9e75de9	-0.10469751290599273
128	0xbfb427334cc38db0	-0.0787231504833048
129	0xbfaf6b514f2e5a4e	-0.06136564342084637
130	0xbfb2b6b2833722db	-0.07310023978710538
131	0xbfb09dc685abcab4	-0.06490746272519737
132	0xbfaa5c0130e4a169	-0.05148318979110195
133	0xbf82197f6258c27c	-0.008837695301822317
134	0xbf9805649d0d06e2	-0.023458072744012244
135	0xbfaf6e1bd8d5d64f	-0.06138693830409336
136	0xbfabc20283cb11c8	-0.05421455248645973
137	0x3f8a07bc345cb28e	0.012710066173519576
138	0xbf9f82e71d7cd1c7	-0.03077279202916985
139	0xbfb3fce9d470a2f2	-0.07807790218852143
140	0xbfa157bc53c04bfc	-0.033872494910745815
141	0x3f8293fd381f2433	0.009071329379269332
142	0xbf9f1decb1cabe9c	-0.030387590743599632
143	0xbf9ba4b8fb351474	-0.026995554287414028
144	0x3fd49ca9e82bda2b	0.3220619933412389
145	0x3fbc6704ae61204b	0.11094693429288431
146	0x3f9ec0de25c581ba	0.030032607131376322
147	0x3fc4f470ef20cae6	0.1637097518556267
148	0x3fd348686e3a884a	0.3012944294406493
149	0x3fd2f984a8d88380	0.2964793824085561
150	0x3fc4bd0670c07123	0.16201859002547633
151	0x3fc816ee4308b3a1	0.1881997897447976
152	0xbfa967d425110c0f	-0.049620275044183974
153	0xbfcd7d07f797932e	-0.230378147024703
154	0xbfdfda43ec07a77a	-0.49769685792727325
155	0xbfd1c75816cbce3b	-0.277791998159248
156	0x3fc41988764ed0ca	0.15702920700790052
157	0x3fd2a83f9082f91b	0.2915190612074114
158	0x3fd766d2de3cc898	0.36565086081385223
159	0x3fcfd07a7ddaf6eb	0.24854975838928026
160	0x3fc5d7341fcc2b1a	0.17062999298681164
161	0xbfc6a51cfbe8819b	-0.17691385555464198
162	0xbfca1f70dc64c294	-0.2040844989910694
163	0xbf9504198b73ca4d	-0.020523451935284865
164	0x3fad9568bde11f48	0.057780526331554116
165	0xbfca0cbbfd9ae79a	-0.20351362116872168
166	0xbfccacc50b20ab4b	-0.22402251284924043
167	0xbfa346ef4e5297dc	-0.0376505644901923
168	0xbfc4be7d5c5be96d	-0.1620632840129689
169	0xbfa4b90bc47420de	-0.04047428868403967
170	0xbfb13cfecf0c74d0	-0.06733696513079512
171	0xbfbc0c82215e6305	-0.10956586184182633
172	0xbfbb75b8e9eef39d	-0.10726505004181637
173	0x3f836fde7d6fbf59	0.009490717127817726
174	0x3fb7c42e1f6b5dbd	0.09283722178530858
175	0x3facb456cd043bc5	0.05606337788241648
176	0x3f96f5f8d6eb9fce	0.022422683828068384
177	0x3fd3423c7a879883	0.30091773954189466
178	0x3fddeb863e32d531	0.4675002677352778
179	0xbfab1b5e6df5281b	-0.052943182871402615
180	0xbfd59d2003fc0a20	-0.3377151526366635
181	0xbfd0fe54e5a03d4e	-0.2655231707039619
182	0xbfd003fe60d1fbb4	-0.25024375395872345
183	0xbfd09447d9970172	-0.25905033349047024
184	0xbfd3f736cbbc5240	-0.311963747940613
185	0xbfba56b6db8a1b1f	-0.1028856550202417
186	0x3f9c83d103330f4b	0.027846589870719012
187	0xbfb34ec1887ce86c	-0.07542047102188726
188	0x3fad412b5e375dcc	0.057137828112611894
189	0x3fc9346af770d0b0	0.19691216547073997
190	0x3fd3e4e0da1a7f3c	0.3108446245114356
191	0x3fb1155a592005c6	0.06673206973939391
192	0xbf5769a19263c5a3	-0.0014289930200529286
193	0xbf711bb911d37a17	-0.004176829269651814
194	0x3f71c65dee8b79f2	0.004339568062930331
195	0x3f785983e97d2080	0.005944743424898147
196	0x3f778c68d16a2b70	0.005749139256873245
197	0x3f72bac49d38cf78	0.004572647117630051
198	0x3f7c5a42ac74c606	0.006922016567203487
199	0x3f8e87f970f2802d	0.014907788047196469
200	0x3f8cfe71bba89e52	0.01415718892992782
201	0x3f5d7d3540d23012	0.0017998714495517415
202	0x3f63163e9a7d7cc7	0.0023299429630437604
203	0xbf5f77d76cafea37	-0.0019206622844182405
204	0xbf7ed2f539ee5ec8	-0.007525403895577383
205	0xbf6656448998d694	-0.0027266825316257324
206	0xbf71f02e476c357d	-0.0043794448636281765
207	0x3f75e78a4dc448b6	0.005347767113805959
208	0xbf780e0bc25fe485	-0.005872770247145391
209	0xbf64c2a7a310e11d	-0.002534224906892159
210	0x3f5ffa060c4dd890	0.0019517001212228414
211	0x3f7960b024d06ad9	0.006195724546183634
212	0xbf721faacee57aab	-0.00442473146389825
213	0x3f6471a7f850cf44	0.002495601717351111
214	0xbf3c549bfb9095c8	-0.0004322892014577387
215	0xbf8294274a6de75e	-0.009071642836477597
216	0xbf9c82ebca040157	-0.027843174176269993
217	0x3fb320e04d2f1d38	0.0747204006612393
218	0xbfc0914b8ed7a568	-0.1294340560410021
219	0x3fb516ff712b6759	0.0823821688931309
220	0xbf9d2e7d3948af9a	-0.028497654553731523
221	0x3fbdc77eb665980a	0.11632530167625546
222	0xbfcb16e250dcf6b6	-0.21163586567302212
223	0x3fb22e33df45b5c9	0.07101749611839304
224	0x3f94828afa06eb23	0.020029231558264315
225	0x3f9924ae59effc0f	0.024553989638658232
226	0xbfa495c9efc64875	-0.04020529796538678
227	0x3fc300eca05da39a	0.14846570806846843
228	0xbfb503b1780de46e	-0.08208760434162496
229	0x3fbb49f29b9baa26	0.10659710215592408
230	0xbfcaa388a9f0dd01	-0.20811565683263925
231	0x3fc23174a1bb241e	0.1421342649175878
232	0xbfc61d2abdc91454	-0.17276510493153074
233	0x3fd0c865486d131a	0.26223117897852577
234	0xbfd569fd31827557	-0.3345940574161736
235	0x3fd92b36b7b0c4a4	0.39326255739713134
236	0xbfd1a4d3ac191bef	-0.2756852322240197
237	0x3fc7436cf76156d2	0.18174516753304332
238	0xbfd73c2e807f42fa	-0.3630481963019033
239	0x3fc833c8e6c9f252	0.1890803458117199
240	0x3fc3bbd98217db24	0.1541702161045687
241	0x3fc7141ad183dee7	0.1803010485671088
242	0x3fd1a5a44d9740c9	0.27573497369031635
243	0x3fd1df62e9f68e2a	0.2792594227596249
244	0x3fb4601e4bd42612	0.07959164954458967
245	0xbfc442d503a8c1ef	-0.15828955343887638
246	0xbfcf89072a741698	-0.24636926243708923
247	0xbfdbfa51a584e022	-0.43715325511903036
248	0xbfc4573c29e4d0de	-0.1589122013625745
249	0xbfc277a1897e6847	-0.14427584851802264
250	0xbfceb7436405f189	-0.2399677503962148
251	0xbfb9dceeb0adf496	-0.10102741063561135
252	0xbf92cf46c62550b6	-0.018368821948869317
253	0xbfcd6aecdbd5fcf2	-0.22982559904264793
254	0xbfdae2723d20b257	-0.4200711819601443
255	0xbfdb06de3fa0d327	-0.42229419912046

gru.weight_hh_l0 f8 [12, 4]
0	0xbf38c5b0921148cf	-0.00037799416356166805
1	0x3f16b29805bfbd8a	8.658459540788178e-05
2	0x3ef15ede271ca6d5	1.6565873415397656e-05
3	0xbf504df3e4b21231	-0.0009951478739661619
4	0xbf5dd320f2a26ce0	-0.001820356536461891
5	0x3f6fdca29dcf0439	0.003889386759027971
6	0x3f55d7fc0e6dfeec	0.0013332330215404765
7	0xbf6d190ad63a2f3b	-0.0035519801766152027
8	0xbf5743bcb869ba68	-0.0014199583980844203
9	0xbf435b1437971e98	-0.0005906914440680531
10	0xbf9c253347efefb2	-0.027485657945348137
11	0x3fb0d81a0d14056e	0.06579745120327171
12	0xbf8943fbc6ac7a34	-0.012336699486295101
13	0x3f8f26cdda25a928	0.015210731715985817
14	0x3fa91048d9ae2786	0.048952366421033
15	0xbfa5a5963b891abd	-0.042278952376866276
16	0x3f2d10bfad0c2ce0	0.00022175159258384144
17	0x3f1d94fa104e84a0	0.00011284614818275968
18	0x3f56ccacf3714599	0.0013915719007580928
19	0x3f5412904128b058	0.0012251290069214184
20	0xbf7fd2a2a973cdb2	-0.007769236944330004
21	0xbfa0883a05b337e0	-0.032289326854524125
22	0xbf7b3559fd645ad4	-0.006642676851945157
23	0x3f2fc759d79a0a7b	0.00024245235163185608
24	0x3f6bdcd689102ddd	0.0034012022156326553
25	0xbfadecdcbdb002e4	-0.05844774070283679
26	0xbfa0ad84ada74d5f	-0.03257383937639235
27	0x3f918abbd380f13d	0.017130789550934045
28	0x3f9309ae98d07591	0.018591621472400958
29	0xbfb472fecbfffa64	-0.07987968903032933
30	0x3faa9f2c9ab819bd	0.0519956530443326
31	0x3f88d24f083b3b21	0.012119882048322208
32	0xbfb4e63afd14bc2c	-0.08163803747878323
33	0x3f7fdfe404deefd0	0.007781878184626792
34	0xbf805ff3f41d637a	-0.007995515715877966
35	0xbf9592ff6e9f091e	-0.021068564535888894
36	0xbf6860a1b3cc5ac2	-0.002975765061261044
37	0xbfdeb04202485ecf	-0.47950792525214764
38	0x3f8f21a8413d8904	0.01520091485116782
39	0x3f9f5c5e7b4072a1	0.03062579753178574
40	0x3f763a56c428054f	0.0054267300897675305
41	0xbf7511b11bfcf10b	-0.005143825372041509
42	0xbfd3d49cc0932b19	-0.3098518257726695
43	0x3fe3a75da76d5870	0.6141803999005457
44	0x3f841764a04387a4	0.009810243740904508
45	0x3fa08e25cd8b7197	0.03233450063791848
46	0x3fe9023f3529c5c6	0.781524280390095
47	0xbfd91ecd922cc9bd	-0.39250506663224966

gru.bias_ih_l0 f8 [12]
0	0xbf73185540c55c48	-0.004661877650810338
1	0x3fad5450fd6a19f0	0.05728390782774173
2	0x3fc59effbcee33e4	0.16891476369019565
3	0x3fc9786f49d65ef1	0.19898787598935244
4	0xbf3fcfe2c74b9ad0	-0.00048541342338951927
5	0xbfd2fdf11ac9c77c	-0.296749378357269
6	0xbfcad563a6435f05	-0.20963712328261166
7	0xbfce38c11f94b919	-0.23610700647390884
8	0xbf73a6da6ccc9049	-0.004797795508043442
9	0x3f8ccff693822b2c	0.014068533302880569
10	0x3fd2caf53f1ca0fb	0.29363757289185316
11	0x3fa91cf7ed166bed	0.04904913682113219

gru.bias_hh_l0 f8 [12]
0	0xbf73192b52130da3	-0.004662675114733092
1	0x3fad52fcad835806	0.05727376573638314
2	0x3fc59f020e4fdf52	0.16891504000499907
3	0x3fc9786f8ee768ba	0.1989879081509736
4	0xbf428504bdebc8d7	-0.0005651734498697503
5	0xbfd2fdf3cf71b591	-0.29675002344341644
6	0xbfcad563a972fbe5	-0.2096371247662027
7	0xbfce38853a033719	-0.23609986622471338
8	0xbf671f7629ca343e	-0.0028226192355931537
9	0x3f71142224b5170f	0.004169591305361
10	0x3fc90c564242cf39	0.19568899379157204
11	0x3fcd1a2c080dfa79	0.2273612059907071

gru.weight_ih_l0_reverse f8 [12, 24]
0	0x3f90865c42fde40f	0.0161375442398573
1	0x3f9cffcfd68d7d4f	0.02831959483171192
2	0x3f870547773761b0	0.011240537954038426
3	0x3f823a4c96ad8497	0.008900259350129764
4	0x3f82d97346238648	0.009203816011395763
5	0x3f823e98adc4e65e	0.0089084556608327
6	0x3f56b1219223984b	0.0013850047912966786
7	0x3f76ee714eb13c52	0.0055984903402324804
8	0x3f7c608f1b0845c8	0.006928023344259633
9	0x3f6692ae0f05699c	0.00275548930964682
10	0xbf4f179eea576e03	-0.0009488607362828086
11	0x3f76db758077cf03	0.005580386153713371
12	0x3f94d7383186565f	0.0203522472598564
13	0x3f8e357256a8697c	0.014750378865802764
14	0x3f958afea3d6cf11	0.021038035154290095
15	0x3f79b8213be5d041	0.006279115505424982
16	0x3f76dccf866b3cab	0.005581675190753514
17	0x3f732e81c6ee36d3	0.004683024350823311
18	0x3f874e6b44669014	0.011380041146203758
19	0x3f8b3a2d0a96b963	0.013294555555003645
20	0x3f92689c7c58f321	0.01797718533474602
21	0x3f76afeb2c20f482	0.005538862840748783
22	0x3f994e8826116f7a	0.02471363766049659
23	0x3fa1e3bdd62664d3	0.034940655127863395
24	0xbeee605c495d4cde	-1.4484600153663625e-05
25	0xbef5a5fd41c656ce	-2.064551891719259e-05
26	0xbefdbeea47f65848	-2.8367769571234735e-05
27	0xbefe586ea0649674	-2.8939664866409244e-05
28	0xbf02691b8bcab341	-3.5115388049211753e-05
29	0xbf087e690701016e	-4.671819704116479e-05
30	0xbf12d2fca4d49e0c	-7.180850044063313e-05
31	0xbeed5cb943d5a75f	-1.4000988921753365e-05
32	0xbf0843ab25bb7670	-4.628053713216513e-05
33	0xbf0db449eddbec6f	-5.6656366480078355e-05
34	0xbf1300f261517464	-7.249335642840884e-05
35	0xbefcc015503432f7	-2.7418446745963516e-05
36	0xbef76b07543f9c3a	-2.2333221991657273e-05
37	0xbec46fcee8d0c82a	-2.436250559977923e-06
38	0xbf0cd119832b1c8f	-5.496367557138962e-05
39	0xbf0d8649ba604f68	-5.631363391969576e-05
40	0xbf1063197e0d8d13	-6.251185506083263e-05
41	0xbf18b034a0ca8f94	-9.417840210318294e-05
42	0xbf1a930edb5f9ba9	-0.00010137346438875032
43	0xbf2340cdde7bd251	-0.00014688981104140017
44	0xbf1bf48bcaea81d8	-0.00010664084650580748
45	0xbf178cbddcae67ab	-8.983525110153763e-05
46	0xbf21fa0e2f8c0694	-0.0001371519390645405
47	0xbf1ad8909149749a	-0.00010240919466171714
48	0xbf152f80b5f392c2	-8.081648910580454e-05
49	0xbf16e8bd295967b8	-8.739141989036372e-05
50	0xbf13d346ebb6d654	-7.56275211902466e-05
51	0xbf12ed802f73ad76	-7.22035873540939e-05
52	0xbf12034a5533a862	-6.871358100438285e-05
53	0xbf12e35a93c7d963	-7.205238666316764e-05
54	0xbf14e3705f6b78af	-7.968304985747869e-05
55	0xbf12866215c0f383	-7.06670156782174e-05
56	0xbf1772be12dd0e8d	-8.944783323011126e-05
57	0xbf168636aeb17a4d	-8.592327837806634e-05
58	0xbf15f7e261f5ba95	-8.380240659786938e-05
59	0xbf14e3783c69cfc6	-7.968350755921315e-05
60	0xbf13a6f9a3faac7c	-7.496737179717329e-05
61	0xbf0e5e59a97ad6cb	-5.7923423069023554e-05
62	0xbf13083f26e7180f	-7.260213326451568e-05
63	0xbf1184de43231f53	-6.682974415916686e-05
64	0xbf11e5fb328f773a	-6.827684104801233e-05
65	0xbf13ff03931a9619	-7.627925222183258e-05
66	0xbf12ffabd5e0bc67	-7.247434902589584e-05
67	0xbf11b9dd68bc1d6c	-6.761945604349056e-05
68	0xbf120f0a7e213dde	-6.888867895437449e-05
69	0xbf1094fdaaeb2740	-6.325529350728349e-05
70	0xbf10cf2b73b8bd72	-6.412222585860052e-05
71	0xbf0ea1c08ee340fb	-5.842560664037936e-05
72	0x3f97b83b5457a1de	0.02316372587475423
73	0x3fa14ee803d122e4	0.033805132356581585
74	0x3fa97c309adf2eea	0.049775618462801166
75	0x3faa1ccbbf859f26	0.05100094521441027
76	0x3fa77ccda0f6a10b	0.04587404813656989
77	0x3fa37b529b294673	0.03805025238092421
78	0x3fad10680d8ceac3	0.056765796331509154
79	0x3f9fa72e79fbc323	0.03091118449714537
80	0x3f9896e5061e7cd4	0.024013117311935187
81	0x3f9ba4846f5087f4	0.026994771284201094
82	0x3f9e5a2e62aeb0e0	0.029640888951392053
83	0x3f8d9cb22a7ddbb6	0.014459030076734308
84	0x3f9841f400485b6f	0.023689091222049038
85	0x3fa208b628f67726	0.03522271394761693
86	0x3fa3f2fd2a3bb837	0.03896323338072743
87	0x3f9d2f0effa4756d	0.0284998267680882
88	0x3f93d48dcb78bb4d	0.019365516227647196
89	0x3f9c9161143644d6	0.027898327692643964
90	0x3fa5499dd69382dd	0.04157727474535531
91	0x3fa0049b25efc655	0.031285141354498926
92	0x3f98225b0784d706	0.02356855615035782
93	0x3f9681aeb14ce58e	0.02197907406955362
94	0x3f9f818f48a4aa5e	0.03076766854170853
95	0x3f93846d7442a765	0.019059858532876634
96	0xbfa9ec3289fe66fc	-0.05063016829008224
97	0x3f9a60511d5619bd	0.025758044639155864
98	0xbfa1385c382166ae	-0.03363311944185675
99	0x3f8891b7eae29686	0.011996685844063448
100	0x3f9378db0b991b62	0.019015715201273216
101	0xbfafb3cf5c325022	-0.06191871643491732
102	0xbfb26b207343ff86	-0.07194712461568828
103	0xbfae99dd7edbb914	-0.059767648444777915
104	0xbf927420ba70cf7f	-0.018021117572245778
105	0xbfa501f43aae2553	-0.041030532992474854
106	0xbfabc4ae4ed56f33	-0.05423493110967428
107	0xbfb1a3bbdfa61ea3	-0.068904630758079
108	0xbfa204abc092ed32	-0.03519188619380954
109	0x3fa7ab8692e97f80	0.046230512078863306
110	0xbfa7d6fcff40dc97	-0.04656210533033194
111	0xbfa9025061ad701b	-0.048845779346010164
112	0xbfa01da6e8e3cb2d	-0.03147622673886583
113	0xbf90319a07645482	-0.01581421537510553
114	0xbf89dfe75f1714a3	-0.012634093846722932
115	0x3f69c6ecc87a0786	0.003146612612739244
116	0xbfb20e8e0a15906c	-0.07053458925435202
117	0xbfafbb04a38edf27	-0.06197371002730128
118	0xbfb477d5d318417b	-0.07995354083710098
119	0xbfc10242addd831f	-0.13288148393169139
120	0xbf190ef6568d7030	-9.559038666168205e-05
121	0xbf25a6e544775a5a	-0.00016519116091613905
122	0xbf1c033cca119782	-0.00010685976532584347
123	0xbf162303c3ec6596	-8.444509965634667e-05
124	0xbf26abb8e78897b4	-0.0001729644025242873
125	0xbf17d24a3d733931	-9.087160229912375e-05
126	0xbeefb97c297e51cd	-1.5127444654963133e-05
127	0xbf14cf627ada09cd	-7.938421796364129e-05
128	0xbf2111c446254278	-0.00013022919581341988
129	0xbf2d508ae7dd4a72	-0.00022365279795140723
130	0xbf222a831f66ee41	-0.00013859606378995203
131	0xbf2025e90ca1f885	-0.00012320012894301651
132	0xbf1972799ae689d8	-9.707324236399946e-05
133	0xbf236f327e62712c	-0.00014827243211791
134	0xbf21ba1d67b4fd69	-0.00013524636220017407
135	0xbf20b732e7020046	-0.00012753006331323225
136	0xbf22a0c33a265460	-0.00014212020057572088
137	0xbf1ad1400939d5e7	-0.000102300198983794
138	0xbf21bef509426e15	-0.00013539067424948927
139	0xbf1162e6c0ed940f	-6.632359894138982e-05
140	0xbf22dd674b4a8d0a	-0.00014392743982680922
141	0x3f0548bc1fd7bb5f	4.059623823226307e-05
142	0xbef2cafb1cbdcc39	-1.792230050008342e-05
143	0xbef4fcbb29ab538d	-2.0014983060107376e-05
144	0xbee9b52a8f9890ce	-1.2258377398551361e-05
145	0xbf0f351825d017ca	-5.952339117958024e-05
146	0xbf318e59f84f3235	-0.00026788422138393785
147	0xbf315ca9779d17cd	-0.0002649224985485893
148	0xbf266ef259655746	-0.00017115314831056045
149	0xbf1f070a1d448a5f	-0.00011836051209405386
150	0xbf2eb76f7807e54d	-0.00023434863761887873
151	0xbf21e0dd413d91b2	-0.00013640118470016404
152	0x3ee928cfc6e98dfb	1.1996946537701737e-05
153	0xbefae7bbb7251211	-2.565880590423188e-05
154	0xbf0ddf146dd05a86	-5.697518438567855e-05
155	0x3ef2e23945e397e1	1.800888673466467e-05
156	0x3f201d4bd1ddff33	0.00012294340643492218
157	0x3f27b630cd08baf6	0.00018090577806747333
158	0xbf00bde15d2f6142	-3.1932296813588185e-05
159	0xbf198e0875c15d33	-9.748388896590049e-05
160	0xbf1650f75e4ce706	-8.512983147293201e-05
161	0xbf26299fd18b12be	-0.00016908718023080598
162	0xbf26c793da230d97	-0.0001737945540921492
163	0xbf16c423c8264df4	-8.684605021463243e-05
164	0xbf17f4976de7bdca	-9.138273478703006e-05
165	0xbf0befaf85df01be	-5.3284210238316556e-05
166	0xbeca509eb3d26732	-3.1369831093420482e-06
167	0xbed6bf658da403ec	-5.423460800680642e-06
168	0x3f9144f9b9769a66	0.016864683098584264
169	0xbfaf313eafa9ea74	-0.06092258352596938
170	0xbfb0e21a073af512	-0.06595003773232502
171	0xbfac20c63f3b3503	-0.0549375488459223
172	0xbfac13cfe7c308e8	-0.0548386545574589
173	0xbfb7e20e0e84685c	-0.09329307417320493
174	0xbfb7e10f2d0d3409	-0.09327788209812139
175	0xbf9691cb2b14a8b8	-0.02204053354686472
176	0xbfb2cd41c74d0eec	-0.07344447246310509
177	0xbfbcab82b1602fd7	-0.11199204283201368
178	0xbfb7c646d9b4dfbb	-0.09286921324826285
179	0x3fa9e86df98e5073	0.050601422036522424
180	0x3fab7666f16993f3	0.05363771149567489
181	0xbfa0caafcd074c91	-0.03279637697019056
182	0x3f261c98d7e6e68d	0.00016869893802411544
183	0x3fac6a6968426674	0.055499357201551996
184	0x3fa8a2eaa031780b	0.04811795430644857
185	0xbfa6b0cf40c3cb59	-0.0443177000578518
186	0xbf95cc9b99da0acc	-0.021288329377521717
187	0xbf83dda2c12f5436	-0.00970008041432822
188	0xbf9d587c1e579649	-0.028657855369507854
189	0xbfc12f702521f066	-0.1342601949035071
190	0xbfc6c63a385c2b9f	-0.177924420852233
191	0xbfb496155824c9a1	-0.08041509057947006
192	0x3fa7354a8cfab7c7	0.04532845469417129
193	0xbfcd912d0aad6ecd	-0.2309929182182401
194	0x3faa62667adc02ba	0.05153198480366457
195	0x3fd0d427a9cd5bb2	0.2629489095901888
196	0x3f9d3a97129a098a	0.028543816099508436
197	0xbfd26aa71d45e3ef	-0.2877595697278243
198	0xbfa0a65e5d0bd41d	-0.03251929174249588
199	0x3fbe62d3d0d60b00	0.11869548653161743
200	0xbfc3c7ed08d91967	-0.15453875476869003
201	0x3faf13b8e5a4a67d	0.06069734385739609
202	0x3fbd2f91621467b0	0.11400707859539128
203	0x3fc9e0952631bba0	0.20216621746973562
204	0xbfb63be3eae18ac8	-0.08685135349655149
205	0xbfd81948d5c0d011	-0.37654324411710244
206	0xbfaafbb28374cde6	-0.05270154814425236
207	0x3fcfe748a828437d	0.24924572192005803
208	0x3fb1b54659fbb71f	0.06917228409630781
209	0xbfac9f4199e1b606	-0.05590252879560968
210	0x3fb969b88a53e07f	0.09926942231311563
211	0x3fc88e3eed7a9969	0.191840997654434
212	0xbfd035e462bc9915	-0.2532893146730129
213	0xbfd9504c6c7e483f	-0.3955260333542618
214	0x3f92a4e0d617e7c0	0.018207085673544787
215	0xbfc32392d8ea6cfb	-0.14952312079990535
216	0xbf3bd78ae24da512	-0.0004248346397646856
217	0xbf6705fde248aaf9	-0.0028104742689455367
218	0xbf71366f6462c3e1	-0.0042023040061147385
219	0xbf7511a18582a6e2	-0.005143767302948384
220	0xbf7b06723a74a77e	-0.006597944454634573
221	0xbf7c37b81160bdb6	-0.006889075293698912
222	0xbf7c2bded5099c6c	-0.006877775610155994
223	0xbf3d715d8e0b4898	-0.0004492619901103139
224	0xbf75f640cdac7ea4	-0.005361798418362849
225	0xbf6eaf3d846c76ab	-0.0037456704625487744
226	0xbf7a3c79ac552c3c	-0.006405329976881421
227	0xbf693cce544eedd1	-0.003080752360316665
228	0xbf7435ee9f2346a0	-0.004934246173620288
229	0xbf5fff53f9e37b90	-0.0019529647902840376
230	0xbf7ed740ef10b911	-0.007529500625464773
231	0xbf71bc817f2a4a65	-0.004330163809430053
232	0xbf79e9ff6ebcfd4e	-0.006326673301202247
233	0xbf751e66e5a12ba6	-0.0051559466756527
234	0xbf7cbb4d1eae62a3	-0.007014561890991064
235	0xbf7edff92988b63b	-0.007537816324242603
236	0xbf7eb61cd7344810	-0.007497894915347927
237	0xbf791cff5c3c6061	-0.006131169797093689
238	0xbf841b1672aaef4c	-0.009817290663128773
239	0xbf77a1d1ced0df8a	-0.005769557535181389
240	0xbf7c0877eb6dd863	-0.006844013630020826
241	0x3f6bd3909597f725	0.00339678038721915
242	0xbf6c62bddd042fe9	-0.0034650524395427496
243	0xbf5e8126e8f98f04	-0.001861846922019462
244	0xbf42184422468518	-0.0005522091565134694
245	0x3f7f9c4f3a38ff75	0.007717427713543991
246	0x3f715dec830b4340	0.004239963411877323
247	0x3f77de122059b1cc	0.00582701759922739
248	0x3f506233d0257c5a	0.000999975775435555
249	0x3f644f611b696c71	0.0024792572615246968
250	0x3f523f48b7739090	0.0011137209056011656
251	0xbf68dbc6b38dcdd4	-0.0030344849478127576
252	0x3f62c4716be395fd	0.0022909369719055204
253	0x3f8e4f95cd3b20d3	0.014800234151508473
254	0x3f5d21790606663e	0.0017780000563106936
255	0xbf69477a8ceca231	-0.0030858415188002243

gru.weight_hh_l0_reverse f8 [12, 4]
0	0xbf9363bbbc25b458	-0.01893513999805338
1	0xbf766400b2a2e4bc	-0.005466463781140959
2	0x3f5a29ce93df71cc	0.001596881614651757
3	0x3f93a0fa5e2ae7ac	0.019168769834074048
4	0xbf00694656fbd209	-3.130193624470776e-05
5	0xbf0de9631a92455e	-5.705197993067611e-05
6	0x3ee6998572dc3869	1.0776373155188018e-05
7	0xbef8ff1aa8b85268	-2.3838520560275778e-05
8	0xbed8bf2ff6602e5b	-5.900102996402372e-06
9	0xbee3604d6f598f87	-9.239283353674816e-06
10	0xbeda82127f273273	-6.320022281913588e-06
11	0xbee5f3432e956eb3	-1.0466691906677863e-05
12	0xbf62cef6549935e5	-0.002295952905831499
13	0x3f4a3d91b34be923	0.0008007966449377384
14	0x3f63ca81950b50bb	0.0024158984091205682
15	0x3f9fa61bb79fdb72	0.030907090265795252
16	0xbf4f6d00f03d92d6	-0.0009590391714309986
17	0xbf4791bd445dcb13	-0.0007192777782008851
18	0xbf6e16726255f3b0	-0.0036728128495142273
19	0xbf8d62577ac620fa	-0.014347728189719511
20	0xbf15ad68000b98ad	-8.269259707169531e-05
21	0xbed203bfff936f3f	-4.29502687745634e-06
22	0x3ec796159c906a2a	2.811702163996585e-06
23	0xbf0481ad6435a94e	-3.9113143908436386e-05
24	0xbef0f4437547563e	-1.6168741540164984e-05
25	0x3f0061c16f1c3c6d	3.124591411395807e-05
26	0x3eeea10087f2ab05	1.4605004478992272e-05
27	0x3f17a285cf6e63cc	9.01598140060765e-05
28	0x3f715b4d81ed7abd	0.004237463725842158
29	0xbf6adf508c5ecd27	-0.0032803128442197185
30	0xbf52125eec1d91da	-0.0011030127502290516
31	0xbfb8efa742cd510f	-0.09740682011517186
32	0xbfe0abd596c15b93	-0.5209758705558322
33	0xbf87992bae723e0f	-0.011522618542840339
34	0x3f9473a15b3a68b2	0.01997234458267689
35	0x3fabf5dd99866dcc	0.054610180846079354
36	0xbf60fde2bfc3f34a	-0.002074187154106265
37	0xbf80a42ebc700d7a	-0.008125653386747745
38	0xbf6229c9c8f10396	-0.0022171918022028765
39	0xbf0c7b882c97ecd7	-5.432614632280293e-05
40	0x3f67f5347c6cefd2	0.00292454005412244
41	0xbf6d9893126883cc	-0.003612792253321539
42	0xbf6614d4bc9ba8e5	-0.002695479871239847
43	0x3f6ef5e8e454a4bc	0.003779368273758436
44	0xbf90a422fecef994	-0.01625113182284961
45	0xbf6afb6793414687	-0.0032937071755803657
46	0x3f7b119c1be38a25	0.006608590889501308
47	0xbfe1896f2591fb7e	-0.5480266317170928

gru.bias_ih_l0_reverse f8 [12]
0	0x3fb4a90902a8499c	0.08070427241208339
1	0xbf4bbd0b5af4c789	-0.0008465104528225668
2	0xbeed406280c91ccf	-1.394820358159438e-05
3	0x3fbc8a67d4ce3ebc	0.1114869017167121
4	0xbfd87f2634ada455	-0.38276057381023537
5	0x3f395cd5f59c8fe7	0.0003870031701913565
6	0xbf33300a96b339a4	-0.00029278048050409623
7	0xbfdb3260b5fb059c	-0.42494981547869215
8	0x3fbb17e88125b6a0	0.10583356049547854
9	0xbf613d4a8e4527c4	-0.0021044212500429278
10	0xbf7bad35679b99bc	-0.006756981479816234
11	0xbfb49b218d1dba14	-0.08049211211412227

gru.bias_hh_l0_reverse f8 [12]
0	0x3fb4a931e597fe0a	0.08070670943561012
1	0xbf4bb6a049a60554	-0.0008457453398450867
2	0xbee6c8d0cd0ca4f1	-1.0864465737352924e-05
3	0x3fbc8a6aee8fa7ad	0.11148708652731783
4	0xbfd87f263a6ec348	-0.38276057916941797
5	0x3f3986354bfa07dd	0.0003894691580869062
6	0xbf33249d154bba93	-0.0002920993331788992
7	0xbfdb326008f9e5e5	-0.42494965435579807
8	0xbf4e9493b2e59bf3	-0.000933239096224335
9	0xbf70c474f9512319	-0.004093605927729249
10	0xbf4480d0f0d1af33	-0.0006257076471576139
11	0x3f714ce8eb2619e5	0.0042237375622619965

fc.weight f8 [4, 8]
0	0xbf818b617683928c	-0.008566628865488889
1	0xbfc0a891fbed2b79	-0.13014435578437736
2	0xbfd7c31f5257c38a	-0.3712843231324362
3	0x3fd6645da189efa1	0.3498758389975994
4	0xbfbd0bfcb2dfa26c	-0.11346415869741983
5	0x3f630a521c6b6e6e	0.0023242572527644645
6	0xbf31dae2ae2fe3ec	-0.00027244600477121963
7	0x3fdb50355dea2e4c	0.4267705361496368
8	0x3f4652c9eb6ff9af	0.0006812559066700553
9	0x3fc8e903a2f07c3d	0.19461102920556242
10	0xbfdccf17d42ef8ec	-0.45013995858233957
11	0x3fdb506e5b199ac9	0.42678412338720456
12	0xbfcb7a0ea732c676	-0.2146623913190983
13	0x3f829f2bdcb74b05	0.009092657731263562
14	0x3f6ba4fef6f207de	0.0033745746400777174
15	0xbfc750e460e49144	-0.18215613108726292
16	0x3f781e6e0e408391	0.005888395218819024
17	0xbfd152784ae7d431	-0.27065856280325123
18	0xbfdd1497eb8887f0	-0.4543819236879463
19	0x3fdc1a85cb8e7684	0.43911881331028035
20	0x3fc2f29b34abfdf9	0.14802875587336908
21	0x3f673d7b82794934	0.00283693430882539
22	0xbf533ab48b31aaff	-0.0011736643907861997
23	0xbfcc8ce34be1c20f	-0.22304955678147606
24	0x3f90fe614f19ee65	0.016595383122405844
25	0x3fd28b5104032a46	0.2897532023604622
26	0xbfd8a99f05b1008e	-0.38535285526087015
27	0x3fd93f8818da500b	0.39450266291646646
28	0x3fd2bf1e6c6a9974	0.29291496837176756
29	0xbf858e296dffc340	-0.01052505843105822
30	0x3f5f7b6078db52b4	0.0019215051756208803
31	0xbf95aeeec216ac7a	-0.021175127598024514

fc.bias f8 [4]
0	0x3fbb1ad47c9c3ab9	0.105878143713407
1	0x3fbc957425df5593	0.1116554825269616
2	0x3fbd1ebc88713e76	0.11375025111305512
3	0x3fbdf4f33ee34a5b	0.11701889310214979

exp_avg f8 [12, 24]
0	0x3eb0574489f1a1e4	9.739929181189542e-07
1	0x3eb06d433df860fd	9.79114012872024e-07
2	0x3eb12c11e6cd5941	1.0235397908862721e-06
3	0x3eb1e90f943dd32f	1.0675426702331366e-06
4	0x3eb2c43773537c1f	1.1185688440424453e-06
5	0x3eae2fe59442af26	8.99645592263605e-07
6	0x3eb01c816ab6ac62	9.603112783678393e-07
7	0x3eb07985f1c68e32	9.81968646043211e-07
8	0x3eb11a98cf170bfe	1.0194715368428814e-06
9	0x3eb108924d573248	1.015274667326377e-06
10	0x3eb2007765db886b	1.0729921976972546e-06
11	0x3eb2468390b85751	1.0893014089677505e-06
12	0x3eb1121747ff7b84	1.017491086933754e-06
13	0x3eaddec621160d57	8.902016494370121e-07
14	0x3eac721e3aec1885	8.477501206312062e-07
15	0x3eaf1a4c2c2ceaa3	9.269334316560945e-07
16	0x3eabbf7ee27b8ee9	8.269557314169329e-07
17	0x3eaa4ca32a0bc95b	7.837821450458925e-07
18	0x3eaf10f861ab4d4e	9.258475900060651e-07
19	0x3eae7645ddf6276a	9.078384514565466e-07
20	0x3eaf5b3737388b8f	9.344908975010915e-07
21	0x3eac55d48ee63ebb	8.444569894894632e-07
22	0x3eaa53f8a5566208	7.846359248330141e-07
23	0x3eab1d8182fb1854	8.080976438777298e-07
24	0x3eb8e66bac4e2956	1.4841604507343157e-06
25	0x3ea9bb245cb556a2	7.668442604617687e-07
26	0xbed68cc8b2d6dd10	-5.376324037901421e-06
27	0xbee3e4392f279276	-9.485005169681772e-06
28	0xbef05bd4dd9730df	-1.560088808165514e-05
29	0xbed228192ffcb1d9	-4.328878958220468e-06
30	0x3ee25cf555342b5a	8.756217232638235e-06
31	0x3edc9d8c7358a8e5	6.82244881526127e-06
32	0x3ee4813cdad78cca	9.777467165633653e-06
33	0x3ef98662a0b7c2e0	2.4342482033592734e-05
34	0x3edc094a5c25c3d1	6.684372637942021e-06
35	0x3edd1276482d9180	6.9313329074987195e-06
36	0xbeeff35e1d277a8b	-1.5235259444188319e-05
37	0xbed08edefb80cb4b	-3.947756276589615e-06
38	0x3ec1c66957f5e5fa	2.118950476134816e-06
39	0x3ecdee1193d6f61f	3.5679287566359577e-06
40	0x3ebdd3988ccbdfa9	1.7778007077011947e-06
41	0x3ed2f463cc02de14	4.5191401911097436e-06
42	0x3ed0c14248cda6b6	3.9946836637245306e-06
43	0x3edfdb4eef717119	7.595222761027742e-06
44	0x3ec0c550c608e381	1.9992308326857357e-06
45	0x3ee9555ccf0bc0cd	1.2079929065461973e-05
46	0x3ee27ecfef32ef96	8.81927505812906e-06
47	0x3ecfc2ee8a108323	3.7862601662972465e-06
48	0xbf18dd562feb8714	-9.485090775343221e-05
49	0x3ebcee8107a4ed2e	1.7244610988748977e-06
50	0x3f0c7e767fe38c3e	5.434798366523622e-05
51	0x3efbf91bfc0fb229	2.6677211057023684e-05
52	0x3f18763290702c81	9.331401462035935e-05
53	0x3f1e658097bbb7a8	0.00011595342033007708
54	0x3f2ae728ef67fe0c	0.00020525335976627512
55	0x3ef89e804f920ff3	2.347864662911865e-05
56	0xbf019555aab0176b	-3.353755649730571e-05
57	0x3ef2b11a1c3a690b	1.7825894032521622e-05
58	0x3efd8df7dbe487a3	2.8185427930378333e-05
59	0x3ea1747993bbd435	5.201989447799824e-07
60	0xbf0ce6504a146276	-5.51217319843576e-05
61	0x3eedfc45a60c196c	1.4298170925919263e-05
62	0x3f1a47f6a1683f9d	0.0001002544671353509
63	0xbf03f9677b39ed73	-3.809783029581461e-05
64	0xbf17577ebabd1dfc	-8.904181475798823e-05
65	0xbf13e118ba80ee44	-7.583344870536977e-05
66	0xbf0891d23d5c0fe0	-4.6862820154230716e-05
67	0xbf1db8e686470692	-0.00011338145265595904
68	0x3ead51c4a7a6e1c5	8.737864186014876e-07
69	0xbf012b8036987e8e	-3.274903322058902e-05
70	0x3ef4254cf94d3d29	1.9212442185887226e-05
71	0xbf1431cfc9e5f3c9	-7.703619710315504e-05
72	0x3f0ccc4b27e1478b	5.4927867481637567e-05
73	0x3f040fb3a08163ee	3.826395919821051e-05
74	0xbef5828ac877501d	-2.051346794280938e-05
75	0xbf0ed2c0b50b7e10	-5.879068942759799e-05
76	0x3efad96d133d8f50	2.560550747378261e-05
77	0xbefe063d1acfafe2	-2.863347042485188e-05
78	0xbf213e383ee834bd	-0.0001315539988841259
79	0x3eef56b6e91577f3	1.4943470236058304e-05
80	0x3eecc636efba5903	1.37206438844237e-05
81	0xbef00680aca65d9d	-1.5283013263448647e-05
82	0xbf0393c72caac0a3	-3.734065611149639e-05
83	0x3ee21bd672e5b05e	8.63492058719039e-06
84	0xbefbe133a61fe4b9	-2.6588148450888626e-05
85	0x3ee491a375822535	9.80801603158114e-06
86	0xbf118f268179ae64	-6.698296089673869e-05
87	0x3ee0efe0ac90646a	8.076201440986557e-06
88	0x3f0bc2f5ecf64dd9	5.2950983099677314e-05
89	0x3f1020469ccc1e2a	6.151610359605349e-05
90	0x3f0ca0cf1f1b1f0e	5.4603882643498606e-05
91	0x3f18e89fee6d176f	9.50191130018854e-05
92	0x3f0cc25f2b06455c	5.485394410976549e-05
93	0x3f10c4d9ff1b0bbe	6.396847291072116e-05
94	0x3ef56c72c3e47c26	2.04311620503017e-05
95	0x3f19f9185d00593c	9.90792389078164e-05
96	0xbea4c1e213796a93	-6.186174123610798e-07
97	0xbeb197bce87fce3c	-1.0486081993805408e-06
98	0xbeaf0dd173ab6612	-9.254806408689941e-07
99	0xbe943a603fb82dbf	-3.0142115267701544e-07
100	0xbeab447ab0f17864	-8.126347398431535e-07
101	0x3e74e61d9c38992c	7.785442961895921e-08
102	0xbe878dafe2f4741b	-1.754869898084695e-07
103	0x3e8d63519ab13457	2.1895739385700214e-07
104	0xbea0d8e3fa94d896	-5.020865404884309e-07
105	0xbeae2d6e69c3c974	-8.993585711976818e-07
106	0xbec0226ec71df0e1	-1.923382620226425e-06
107	0xbec19aa8ebb4a955	-2.0985770256182605e-06
108	0xbec798ed6478fb03	-2.813025989728005e-06
109	0xbebbfe230d42ffab	-1.6684962718532634e-06
110	0xbeb49bef08f5d730	-1.2283990463413188e-06
111	0xbe83be55ab8c6f47	-1.471004986924087e-07
112	0xbe98b1077fb32fdf	-3.6793232967009466e-07
113	0xbeaf56e26b2d2fe9	-9.339866749807021e-07
114	0xbeac95701950f12c	-8.518618864815508e-07
115	0xbe8d471dd084678c	-2.1813659879175384e-07
116	0xbeb3137513d0f6c4	-1.1370185142434698e-06
117	0xbeaad05710ac29ae	-7.991143616559366e-07
118	0xbea2776a8c90650a	-5.503436791870117e-07
119	0xbe64d8691d90b5a2	-3.882749739117747e-08
120	0xbf0433a6844de528	-3.8531798543803904e-05
121	0xbf0e3869ada0a6f0	-5.764076713916748e-05
122	0xbf1548095d537c49	-8.118207127293208e-05
123	0xbef696cca5124858	-2.1542606479637037e-05
124	0xbecb91f3c8449815	-3.286615141945117e-06
125	0xbeff53e1466777aa	-2.9876381086306178e-05
126	0xbf1a545c8f06528f	-0.00010043921407138833
127	0xbf0638ccc15c53ea	-4.238486159927736e-05
128	0xbf0aef96a7fa670d	-5.137613788726127e-05
129	0xbf17a97ceaa0555e	-9.02636044489333e-05
130	0xbf182951bf9469c0	-9.216844036467105e-05
131	0xbf12e27c63ce9ec1	-7.203945365452225e-05
132	0xbefbd50e5b529a4a	-2.6542902294446933e-05
133	0xbf0d9ce59d2d0223	-5.648208357067845e-05
134	0xbf197b0bcad6261d	-9.720096087142316e-05
135	0xbf066327dfb3dfa9	-4.270043788240304e-05
136	0xbf00b11cc1e39942	-3.18371678405421e-05
137	0xbf072b99fc567e38	-4.419387509390884e-05
138	0xbf0f03c034fafed7	-5.9155753317605905e-05
139	0xbf067156ea48c440	-4.280611509378156e-05
140	0xbf0bafb639557e9b	-5.2807568105659254e-05
141	0xbf1431606257a4f9	-7.702971250691031e-05
142	0xbf15e21202370cc9	-8.347735324947253e-05
143	0xbf026885c3000e5b	-3.511102875111408e-05
144	0x3f2cbf8e980e07cb	0.00021933189057326963
145	0x3f33cad6f8097e78	0.0003020071817782864
146	0x3f41610020491a32	0.00053036218793851
147	0x3f4645222a58eb7f	0.0006796280692421413
148	0x3f385dbae2e2306f	0.000371797682313219
149	0x3f3a7313b0ae055e	0.0004035876342457135
150	0x3f474ccf8060a41a	0.0007110608282846515
151	0x3f31fcc2e860a907	0.00027446516503694434
152	0x3f2409afb66f7fc7	0.00015287656716988908
153	0x3f316b9a4a47cca6	0.00026581303453028016
154	0x3f3174addab2fdd4	0.000266354031463548
155	0x3f272bfadc6922b5	0.00017678677814305312
156	0x3f31ae458224e37f	0.00026978680593319615
157	0x3f35048955aafd29	0.0003207049646043064
158	0x3f398a2f1976ab61	0.00038970613374072176
159	0x3f21b2d3ef1a7b75	0.00013502919278082404
160	0xbf1a4346e7d9c13e	-0.00010018463395922592
161	0xbf0a9d9a9ceaa9e0	-5.0765305436090624e-05
162	0xbf06a8d09b6e2f58	-4.321943872928499e-05
163	0xbf21d5194e7675e9	-0.00013605054776359642
164	0xbf1d30dc435d5b2c	-0.00011135429744278381
165	0xbf100ff5ce4a8aa7	-6.12729814500149e-05
166	0xbee4ed0701601b87	-9.978241035225325e-06
167	0xbf26fe2df2ee0507	-0.00017542181873512355
168	0xbf399322df9a356b	-0.0003902397289515444
169	0xbf450897f75d065b	-0.0006418935797471535
170	0xbf4793037807cab1	-0.000719429677756919
171	0xbf44e553c639c393	-0.000637689500264315
172	0xbf48b85d72de8d98	-0.0007543998997231903
173	0xbf49bbf4cf04d90f	-0.000785345588190352
174	0xbf50d052bbfa3a81	-0.0010262306167622417
175	0xbf43d8b85f700142	-0.0006056690461946695
176	0xbf3355edf7d983d2	-0.00029503879327391375
177	0xbf3ff0b0dfcc773b	-0.00048736875742060357
178	0xbf378b3349dbbd09	-0.00035924913559788656
179	0xbf357ac849333e01	-0.00032775296967899053
180	0xbf206213f805106b	-0.00012499326477144758
181	0xbf3f76d42cd27049	-0.00048010520988284573
182	0xbf433bcfd5984344	-0.0005869641128716037
183	0xbf2eeca5a900fb1e	-0.0002359344694031423
184	0xbf1910b9ed6cbe00	-9.56166726211391e-05
185	0xbf2c5d46516fd165	-0.00021640284896274755
186	0xbf303d8d5740fae1	-0.0002478094168089484
187	0xbf1f1ea73a67bf04	-0.00011871238402938125
188	0xbf2f978892d9c374	-0.00024102728041299935
189	0xbf32de0dd975c0f8	-0.0002878936588422
190	0xbf332a2e0a384cb3	-0.0002924311067726379
191	0xbf303946a4f7c580	-0.00024755453793464527
192	0xbf380400f557afcf	-0.0003664495792168294
193	0xbf37cdf19a7d46b6	-0.00036322735330883025
194	0xbf3a4cce925cd8f0	-0.0004013065648566091
195	0xbf3c678e3cde8473	-0.00043341848947348673
196	0xbf3de2a979495434	-0.00045601499121989135
197	0xbf3664eb87f8526a	-0.0003417086627177992
198	0xbf389fcafe9b4481	-0.00037573533937258074
199	0xbf379666cd5c9c20	-0.0003599167806548915
200	0xbf3ba067dc132926	-0.00042154822956476585
201	0xbf392681587abd56	-0.0003837648186885886
202	0xbf3ae15d78562a8d	-0.0004101613233948108
203	0xbf3da75e8ab6ea15	-0.000452480870730605
204	0xbf3b1fc7429617c5	-0.00041388144253351147
205	0xbf375113085056e7	-0.0003557845560079168
206	0xbf3c23119d6cfb9e	-0.00042933635761593393
207	0xbf3a2b2b5314d6f4	-0.0003993016026301165
208	0xbf38484dd125b96b	-0.00037052059010180574
209	0xbf37cba4984a81f0	-0.00036309021406036226
210	0xbf3acbf3cee6399c	-0.0004088850245346444
211	0xbf3a4026f1c388bb	-0.00040055228033798366
212	0xbf3a27ac3aa4adf1	-0.00039909319697770037
213	0xbf35d83b6eb11cf6	-0.0003333230112656094
214	0xbf3442b9aa553612	-0.0003091529163910821
215	0xbf3329040e8b12b3	-0.00029236172717287816
216	0xbf6e229b8ba6ce8b	-0.00367861156447608
217	0xbf6ff79ce2c2af24	-0.003902250688119129
218	0xbf7103a71269b299	-0.004153874039371752
219	0xbf6a33accb09cf8b	-0.00319846867233226
220	0xbf6b20866cce0224	-0.003311407612671029
221	0xbf61592f12d730d2	-0.0021177215009854167
222	0xbf5ddff32da6d40f	-0.0018234133518550998
223	0xbf6429e019df5d78	-0.0024613739942471145
224	0xbf659a88cf3dae2f	-0.0026371643124798653
225	0xbf63aa7b92f7bb68	-0.002400628429078667
226	0xbf70df76e19fffc7	-0.004119362240089636
227	0xbf700bc37bfbcb13	-0.003917468653287032
228	0xbf6f9bdf098a0058	-0.0038585048862956155
229	0xbf6efb1e0999342e	-0.0037818514509013945
230	0xbf6cce9a75142f28	-0.0035164849038035358
231	0xbf687225513c497c	-0.0029841164449717055
232	0xbf63575877cc155a	-0.0023609855546761595
233	0xbf5ebff773dc9a0e	-0.001876823094286831
234	0xbf5fd39f137966d6	-0.0019425443150766128
235	0xbf5f5394e45e3de7	-0.0019120172523548974
236	0xbf646fa8f0cdf1f2	-0.002494649851028757
237	0xbf5c445876840b62	-0.0017252792259234363
238	0xbf61c332e1da3786	-0.002168273333899631
239	0xbf5e9baaf19592f1	-0.0018681687709768936
240	0xbf5f0735fcb883ad	-0.0018938090532929317
241	0xbf4e33dd42f65d43	-0.0009217100504654092
242	0x3f1704935b2c8047	8.780621901083404e-05
243	0xbf215b049de1791e	-0.00013241225582567238
244	0x3ebee478fc9c3707	1.8413347668307788e-06
245	0x3f4221f473238617	0.000553364143595472
246	0x3f61639ab7d6388f	0.0021226903761038594
247	0xbf377baaed967cbf	-0.0003583233170391768
248	0xbf550c226504534c	-0.0012846313366640825
249	0xbf490afddcdccda8	-0.0007642497600727676
250	0xbf2a835fcf7396b1	-0.00020227951583888995
251	0xbf3feef4e99be54a	-0.00048726538953721267
252	0xbf512be6e53bb5dd	-0.0010480646932892114
253	0xbf2b4474ad4ab8bf	-0.00020803379324746925
254	0x3f55ad77f659f0df	0.0013230964190418732
255	0xbf485abe8418252d	-0.0007432394269823221
