dl_experiments/best_checkpoints/alibaba_1h_GRU_cuda:0_checkpoint.pt (torch, 15734 bytes, 18 tensors)

gru.weight_ih_l0 f8 [12, 24]
0.004265163602817489 0.0021904078457415438 0.0031121190325139976 0.004240147062519015 0.0005220630522856507 0.004618625849470687 0.0029508995007642455 0.0018605350525240333
0.0011768376398048148 0.0009742626110717234 0.003791097227910237 0.0021353708628952758 0.0035766876886432204 0.005933180902125657 0.007331305204768415 0.006337490693247886
0.00650420805434024 0.008074824366454398 0.004174884485213467 0.0014398294690419929 0.0045721148561310675 0.00093168293432357 0.002779385202448008 0.005492914283181527
-0.005862568097056936 0.0024657901967891655 -0.009151717637159114 -0.0033593917803668803 -0.010721684023378426 -0.012764798358977238 -0.01416706447032148 -0.011467459852926305
-0.0093693131126907 -0.0055721524931937804 -0.011382640328243605 -0.011561025810837214 -0.007207079889274387 -0.016944501798910203 -0.017939060352336937 -0.015476568939178927
-0.010396925367709624 -0.011908562374440334 -0.013682420813776196 -0.009257400591057502 -0.005437495780242396 -0.012178617246838644 0.0025669580048738147 0.005732373316617785
-0.0017008157958122376 -5.1538195575999806e-05 -0.0020815407926961537 0.000402340126595196 0.0007339193569487682 0.0014853235131645334 0.0028608143789288234 0.001273488631931005
0.001755555047864565 0.0008323149291585938 0.001969529745206756 0.002381257970012808 0.002212764627935124 0.002929769562324135 0.00473997791165185 0.004383481592859433
0.005517656578829522 0.005435473584785409 0.004421189354422667 0.0037724050018670976 0.004035199254743498 0.0025387433333877007 0.0005764248795074089 0.0015692059578808488
-6.615829596675367e-05 -0.0013497108060874122 0.0003110935790549119 -0.0009332022181065 -0.000647851440003297 -0.0005906784504935938 -0.0009820570904688231 -0.00042629399186317553
0.0006040038658125837 0.0005169827798089099 -0.00045810967977268503 -0.00014252240642932036 -0.0005675621118885345 -0.0016096531191692638 -0.0017598887844948532 -0.0019065642602670394
-0.001446304019763042 -0.001923892302298916 -0.0005458528082086349 1.6272134329349777e-05 -0.00012519707494406066 0.00014480927209426458 -0.0004392424587168992 8.553695202018723e-05
-0.05249870966071592 -0.0787860038007929 -0.09511975089543785 -0.07596783762977335 -0.09803172111016124 -0.0810520034372979 -0.057159654982860804 -0.08697570554945204
-0.06583643862839511 -0.07223657526393776 -0.051530561992284306 -0.05136717253992879 -0.05459325848681043 -0.03268652153674957 -0.05858120261021431 -0.0472138914048886
-0.03215382754108885 -0.036440829077513164 -0.05988094501857631 -0.05938370277564012 -0.06784312513299103 -0.06188940178418567 -0.07542753629963703 -0.05347888573734233
-0.04187838292477056 -0.04680023374184056 -0.02977273225934109 -0.0401230531131497 -0.0470842954087162 -0.04823495510365258 -0.05828996789360732 -0.06436326391945808
-0.062451918079023366 -0.059844770506389616 -0.062411733409117716 -0.05327802814991638 -0.053255669015431786 -0.06945032482828367 -0.06071170319875545 -0.07705328285483364
-0.07658020859722083 -0.08179583994614537 -0.070657191603622 -0.061162764213062944 -0.05869632421003694 -0.049448060215679185 -0.05274974426611926 -0.04532214733693868
-0.08495764917512244 -0.0831890390231903 -0.09589188297734218 -0.07283767526459917 -0.0707769036237713 -0.06182644844976033 -0.047024317909541535 -0.07100375498049626
-0.052517635288061075 -0.044211923662800634 -0.048798816064357466 -0.036031201571427564 -0.03949028963359518 -0.049989837074012895 -0.0572803583694758 -0.049846260993935174
-0.04074370121501993 -0.04323225711888982 -0.053007652252772694 -0.040235025910831786 -0.061795235889779206 -0.0785612653417701 -0.05067364188216103 -0.07793846585118365
-0.017689845723182444 -0.023499518053472526 -0.04303695141739525 -0.033159993709144055 -0.0308044924463991 -0.030027222907006983 -0.01809445521889904 -0.026116787352322982
-0.01984011654714283 -0.01344507334028089 -0.015152155377781851 -0.019757488073079598 -0.01821346047787468 -0.024283440057576215 -0.029468007022141755 -0.021160607659068343
-0.013657030626437144 -0.009181218411323811 -0.016366882398167238 -0.02301221458990313 -0.01919654733168925 -0.024101715049582802 -0.013678783345390395 -0.013268994657656127
-0.3005217674319986 -0.028943950524396595 0.28430692045393363 0.27719410333057193 0.3192845835580259 0.2799203826036943 0.15834873266183735 -0.02575575943473869
-0.07319271046794543 -0.21174003567661073 -0.2532364490360682 -0.24883962377297086 -0.11851807127582029 -0.12194744772275871 -0.09838930002452578 0.005442775026616937
0.11937377217852846 0.046387348978883455 0.038140709721131066 0.012181302208132086 0.013367860702442672 -0.09665953740375825 -0.15882570829395354 -0.19156100508140422
0.03869622989602144 -0.06091712560626444 -0.01629174611171255 -0.04329976216744241 -0.173519408619858 -0.20491101602259454 -0.17123453771641434 -0.22928671746644994
-0.17842998717983255 -0.13749044845051608 -0.06333590997722763 -0.0013038947799962665 0.08176959740449447 0.18036575569863417 0.17769309036472936 0.25267653696357956
0.26132826613279725 0.21050918702071408 0.20696665610905507 0.2196154069280596 0.2249155089022033 0.1759258313853775 0.06658598489987061 0.010211022039599706
0.40525088635332956 0.4155070457458527 0.34769024432010187 0.2833939209616157 0.07532890194810705 -0.08447955533966381 -0.14636070670584192 -0.1776095750342934
-0.22432175599169396 -0.28156442706925894 -0.2123047093164634 -0.07394708795043493 -0.0623404727028249 -0.0023078478208386054 0.06681733373603628 0.04157265188425198
00000000: 0ca3 fa22 5978 713f 0ede fe41 9ef1 613f
00000010: 56b5 e82e 967e 693f bd84 6bcf 1d5e 713f
00000020: 7bcc 35de 611b 413f ed6f 9def faea 723f
00000030: 47a3 2f1b 7c2c 683f eea3 084d a67b 5e3f
00000040: 2712 3ecb 0348 533f f6bc b006 b5ec 4f3f
00000050: babb 83d3 810e 6f3f f5c1 ab80 327e 613f
00000060: 7fc4 d294 db4c 6d3f da5e f91e 644d 783f
00000070: 69ae 7641 6e07 7e3f 2a5f 4234 57f5 793f
00000080: e28a 130e 28a4 7a3f 1d53 9994 8889 803f
00000090: 3cd2 4105 af19 713f 507a ce1e 1597 573f
000000a0: fc7e 7dbc 35ba 723f a438 d8dd 8587 4e3f
000000b0: d71f 8511 cbc4 663f 66c2 4bf3 bc7f 763f
000000c0: c67b f523 5903 78bf 04d3 2008 2333 643f
000000d0: e46e a1bf 22be 82bf 9497 98ba 2785 6bbf
000000e0: a45b e811 40f5 85bf b44a ef3b 6e24 8abf
000000f0: ce90 a434 9f03 8dbf 84c6 4a68 407c 87bf
00000100: ab6b 3deb 3730 83bf 171f a04b d3d2 76bf
00000110: 2491 9d1f c84f 87bf 9545 209e 4ead 87bf
00000120: 8615 c9c6 2b85 7dbf ac17 4b44 e659 91bf
00000130: 5e14 23f6 9d5e 92bf 01a2 95eb 2db2 8fbf
00000140: f653 77b3 fb4a 85bf e657 862f 8463 88bf
00000150: 66f8 666f 8705 8cbf fdc8 4646 8bf5 82bf
00000160: 4dc0 c5a8 a045 76bf 350f 4956 1af1 88bf
00000170: d9e2 cb15 4d07 653f 6efc c53e d47a 773f
00000180: 63d7 0c0e bddd 5bbf d2b5 7bea 5605 0bbf
00000190: c54d 28b4 4e0d 61bf 2b25 83af 255e 3a3f
000001a0: bb53 68d1 8f0c 483f b7f1 6efa e555 583f
000001b0: 0350 5106 906f 673f 2684 a901 66dd 543f
000001c0: fefc 14e1 54c3 5c3f 5a6c 4ab3 f645 4b3f
000001d0: 8260 033b 6722 603f 696d 5823 dc81 633f
000001e0: 7a46 bef6 8020 623f cb58 8f0e 2c00 683f
000001f0: a733 d421 3a6a 733f 2cdb 57e1 69f4 713f
00000200: 00f7 e7a8 ae99 763f be0d 8fd4 8143 763f
00000210: 5498 fcfa f31b 723f 8376 8783 4ee7 6e3f
00000220: 85bc 4f8d 3687 703f 5cf4 df72 21cc 643f
00000230: 3365 c700 67e3 423f 032f 4411 bab5 593f
00000240: afd5 c1de ce57 11bf ce64 5bf1 181d 56bf
00000250: e250 7fbf 4863 343f 08ee ef80 4494 4ebf
00000260: 4d72 ad5f 923a 45bf d915 4c50 f85a 43bf
00000270: c80f 87c5 0b17 50bf 7594 e7c0 06f0 3bbf
00000280: 215f d76c c0ca 433f f542 e110 c4f0 403f
00000290: 4ef1 b417 ce05 3ebf 13e1 2c26 42ae 22bf
000002a0: 87d6 c05a 0e99 42bf d099 4de0 5f5f 5abf
000002b0: 2542 8931 82d5 5cbf 2d02 51c9 b53c 5fbf
000002c0: 25d5 c11d 3db2 57bf 74d9 3da1 6385 5fbf
000002d0: 60fc d6fa f1e2 41bf ac2e 768e 0410 f13e
000002e0: 533e 54af ea68 20bf ba70 f42c fefa 223f
000002f0: a5ab c5fe 43c9 3cbf 7c21 67a5 496c 163f
00000300: 0263 2662 1ce1 aabf d6f9 b4cd 512b b4bf
00000310: c5b0 4c9b c459 b8bf 5aef 2ad2 a072 b3bf
00000320: 2984 235c 9b18 b9bf 70d9 09f8 d2bf b4bf
00000330: c1a3 9ac1 0744 adbf e3a4 e132 0a44 b6bf
00000340: 0c48 cb26 a8da b0bf 6e6a 55a0 187e b2bf
00000350: 7bb2 00bd 3662 aabf 6941 4b4c cc4c aabf
00000360: 94db 90c7 a5f3 abbf e269 0aaa 49bc a0bf
00000370: 9610 befa 5afe adbf ec74 004f 6b2c a8bf
00000380: dedc 756b 7776 a0bf 070c 4152 5fa8 a2bf
00000390: ae47 0419 b7a8 aebf a46b ac6a 8a67 aebf
000003a0: c562 b4c3 2a5e b1bf 30a0 43b9 f7af afbf
000003b0: 7ef2 9f11 384f b3bf 886c 89a2 9561 abbf
000003c0: 747b 245a 1571 a5bf a893 bb42 33f6 a7bf
000003d0: 853a 773d be7c 9ebf 7390 df41 028b a4bf
000003e0: 140c dfc9 6e1b a8bf 4c70 6385 40b2 a8bf
000003f0: 036c 93c3 2ed8 adbf 450f 9961 1c7a b0bf
00000400: cc99 71a3 b2f9 afbf 24b9 5248 f9a3 aebf
00000410: 29f6 c143 6ef4 afbf c79e fff8 4147 abbf
00000420: 22ea 7eb9 5344 abbf a484 d519 7fc7 b1bf
00000430: e63b 72b7 9a15 afbf e333 e991 c3b9 b3bf
00000440: e927 72b3 c29a b3bf d07d 8479 92f0 b4bf
00000450: dc2d 2af7 9616 b2bf 795e 0ed0 b950 afbf
00000460: 864a c1d1 710d aebf d436 f492 4151 a9bf
00000470: f59d fdb4 0302 abbf 787b 31e9 7634 a7bf
00000480: ac8f c0d4 c8bf b5bf 5882 fd79 e04b b5bf
00000490: 57ec 56d5 5e8c b8bf 6099 2d69 7da5 b2bf
000004a0: 5f51 6066 6f1e b2bf ba35 3d5c b7a7 afbf
000004b0: 608d 1347 9213 a8bf 4fd0 8855 4d2d b2bf
000004c0: 6f0b 0d6c 97e3 aabf 3830 73fc f1a2 a6bf
000004d0: 35ed 288e 28fc a8bf 0d0d c580 ae72 a2bf
000004e0: 87c2 f83c 1238 a4bf 8902 bb96 4498 a9bf
000004f0: 76d4 cce3 d953 adbf 5efa 97f9 7285 a9bf
00000500: 5317 79c0 5bdc a4bf 3571 ead4 8922 a6bf
00000510: 7e0f baa9 d123 abbf 09a8 e170 af99 a4bf
00000520: 31f2 630a a0a3 afbf 6812 6051 971c b4bf
00000530: cc62 4e45 e5f1 a9bf 2d66 ee79 c6f3 b3bf
00000540: 81cf 6873 491d 92bf 47b3 0bf6 4110 98bf
00000550: ece9 b675 f008 a6bf a55d 08c1 58fa a0bf
00000560: 1037 827e 368b 9fbf de4d 80d1 74bf 9ebf
00000570: 76ce 9d55 5a87 92bf 1121 38ee 5bbe 9abf
00000580: ea0e e0ae f750 94bf 0185 4f32 1789 8bbf
00000590: 1aeb 7dde 1708 8fbf 93fc 7f94 4e3b 94bf
000005a0: ebd8 65a4 8ca6 92bf 81d3 8613 c2dd 98bf
000005b0: 31eb c079 dc2c 9ebf 5dce 6f57 20ab 95bf
000005c0: e348 359f 37f8 8bbf 8736 8346 9acd 82bf
000005d0: ade8 8ce2 7ac2 90bf 68e6 4994 8390 97bf
000005e0: f360 f17b 42a8 93bf bf70 a9b7 1eae 98bf
000005f0: f7ae f038 9f03 8cbf 9eec d750 c62c 8bbf
00000600: bfd1 b6a6 bf3b d3bf a563 ada3 7ba3 9dbf
00000610: 5312 58a7 1532 d23f fab9 1c56 8cbd d13f
00000620: b6ea 1f9b 286f d43f 3111 312e 37ea d13f
00000630: 48a4 1272 c544 c43f 53c9 d2c1 b75f 9abf
00000640: baf2 c3e9 c1bc b2bf bd11 3e28 4c1a cbbf
00000650: 21f7 b0a6 0635 d0bf b0e4 060f fad9 cfbf
00000660: 6259 1d48 3357 bebf 73c7 ccab f237 bfbf
00000670: 24b5 e189 0a30 b9bf 7b25 d2cb 294b 763f
00000680: 74c6 818f 478f be3f 96f8 9f25 15c0 a73f
00000690: 8406 ccd9 2d87 a33f 885b dab4 82f2 883f
000006a0: c29a 46e4 9b60 8b3f a3e1 feef adbe b8bf
000006b0: 027b 719b 6654 c4bf 0ebb 012e 1285 c8bf
000006c0: a789 c303 fecf a33f c78e 7d8c 8730 afbf
000006d0: d868 fa92 c8ae 90bf 9813 deec 622b a6bf
000006e0: ab2c 9f4c e235 c6bf 541e 3430 863a cabf
000006f0: d605 b869 03eb c5bf e179 7664 4459 cdbf
00000700: 0213 c837 cbd6 c6bf 55bd cd79 4999 c1bf
00000710: 5abc 033e c836 b0bf 1526 005c ee5c 55bf
00000720: cccd a832 daee b43f 76a0 059f 3916 c73f
00000730: 58bc ebad a5be c63f 3168 ae35 da2b d03f
00000740: 4ee3 2331 9ab9 d03f 5079 e10c f7f1 ca3f
00000750: 50e9 ac25 e27d ca3f 6814 3a8f 5b1c cc3f
00000760: 8290 8c09 08ca cc3f f730 29d6 bc84 c63f
00000770: 2c53 8473 c70b b13f 9422 c02d 84e9 843f
00000780: 0901 e469 a1ef d93f d71a 2fdd aa97 da3f
00000790: be8e 1f95 8e40 d63f 1195 9a41 2023 d23f
000007a0: b98a 4f42 c148 b33f 724e 5dbf 73a0 b5bf
000007b0: 014b 5c98 f2bb c2bf 9f47 1d1a e9bb c6bf
000007c0: c2ff e146 93b6 ccbf 37af 7ecd 2605 d2bf
000007d0: 1087 a6fb cc2c cbbf 81ad 6144 32ee b2bf
000007e0: da9d f326 17eb afbf 1cc9 445d e8e7 62bf
000007f0: f1c2 33d7 f01a b13f 1270 80b8 0249 a53f

gru.weight_hh_l0 f8 [12, 4]
0.004242508622045387 -0.0031821161151324795 0.001141979044740977 -0.0026034089445562836 -0.003677702550393869 0.004582912224362297 0.0003060616191215428 0.0038218374045700357
0.0007921880139475836 -0.0014719273871716565 0.00024912812869203163 -0.0009637119348289057 0.00023257364246695108 -0.000353813907395761 1.1267034166272688e-05 -0.00011701128392337756
-0.0075507180700968195 0.011087097407402276 0.001188631903307429 0.009802460705401752 -0.009986285617639588 0.040248262260558484 0.005163300155529859 0.012671180724279628
0.005017638326573787 0.03689943044458751 0.01981793520170529 0.005990663853729624 -0.012993925742791746 0.010609251772559234 -0.004532928310043611 0.004594494442500379
-0.16161947629557247 0.029358973684671396 -0.04514253662992576 0.06292466764182411 0.01727429523607368 -0.20331970346275113 -0.05425475544414075 -0.07335352394199414
-0.08999003551182157 -0.052320747025045265 -0.19890534879475155 0.02983963788741632 0.06617374397007184 -0.04623504588878493 0.04136233513144763 -0.044259438357560875
00000000: b90f 8ebc 9760 713f 92b0 b094 6111 6abf
00000010: 84a1 97a9 ceb5 523f 64a9 cc88 be53 65bf
00000020: b41a b585 b320 6ebf bb35 fc21 88c5 723f
00000030: 0e43 0aa5 dc0e 343f 7968 3955 f94e 6f3f
00000040: b02d 5cce 5af5 493f cdfa 5bff b51d 58bf
00000050: 158f 4d2a ad53 303f addf 159f 3394 4fbf
00000060: 84cb 6960 e07b 2e3f c620 4029 0330 37bf
00000070: b897 7162 f1a0 e73e dbdd 048d 7eac 1ebf
00000080: b513 c272 80ed 7ebf a4ca 2d06 d5b4 863f
00000090: 1540 b5c9 7b79 533f a140 3301 5013 843f
000000a0: 7f18 1791 b073 84bf 2686 4294 6b9b a43f
000000b0: 4c3e ebd4 1c26 753f f9f8 7f16 59f3 893f
000000c0: a0ad 4008 608d 743f 7b45 006e 7be4 a23f
000000d0: 2525 431e 274b 943f a25e 5495 aa89 783f
000000e0: 6742 e530 8f9c 8abf c574 2fab 4dba 853f
000000f0: 9449 8cad 1e91 72bf 8680 f435 add1 723f
00000100: 5706 8b6e f2af c4bf 9376 475f 4710 9e3f
00000110: 94d0 f72c ec1c a7bf 3620 a2bd d41b b03f
00000120: 57cb 6654 5ab0 913f aea1 804a 6106 cabf
00000130: b5f3 9180 47c7 abbf 5991 60ea 4bc7 b2bf
00000140: 1539 7d43 9609 b7bf 7bed bff2 c8c9 aabf
00000150: cd55 0900 bb75 c9bf ab5b 6733 488e 9e3f
00000160: e290 3432 c3f0 b03f b3f3 0ab4 1eac a7bf
00000170: 24fd 59a9 712d a53f 53f2 9150 2ca9 a6bf

gru.bias_ih_l0 f8 [12]
0.009128324628127557 0.004681691878710151 0.01148814385628323 0.0018569533262055421 -0.26973012700476817 -0.24576966244108978 -0.28002979302193476 -0.10609240439229722
0.03928091691476975 -0.21855006721383696 -0.08866318741261597 -0.025466831757580202
00000000: 18ec f5fd deb1 823f 83e6 2418 1c2d 733f
00000010: e75f 3c91 1887 873f bb9e 9973 a06c 5e3f
00000020: 5acf 8e26 4243 d1bf c447 445b 6175 cfbf
00000030: bad4 bb14 02ec d1bf 5c0b 382f df28 bbbf
00000040: 0ffc 02db a01c a43f 886b 9cd7 72f9 cbbf
00000050: 9cda 4b72 a1b2 b6bf 544c 2026 fa13 9abf

gru.bias_hh_l0 f8 [12]
0.00937299538394673 0.004866498100647962 0.011488526731834368 0.00177923139370005 -0.2697202858128627 -0.245906956120815 -0.2802093641419567 -0.10589288405869632
-0.030426080337145278 -0.054053551044895794 -0.004179439521458789 -0.0037230148088554494
00000000: f0eb 1d25 2632 833f 6365 03a3 e4ee 733f
00000010: 9f56 bdf4 4b87 873f bc25 7829 a326 5d3f
00000020: c193 a8df 1843 d1bf 5beb 320f e179 cfbf
00000030: 3f73 c141 f3ee d1bf be45 e9c9 cb1b bbbf
00000040: 105a f9af 0328 9fbf 99e4 f033 e8ac abbf
00000050: 54e3 f6c0 751e 71bf 7b00 175b ba7f 6ebf

fc.weight f8 [12, 4]
-0.3494782355766046 0.01482241400753674 0.3227539644066154 -0.055502555257816916 -0.051623352384939716 -0.17375563860987367 0.36696161946588457 -0.17894477581352025
0.11752452236860296 -0.15825709327656404 0.4328409984113799 -0.16629799134554696 0.22260504160936462 -0.14192327179694822 0.3842369051897702 -0.14079704773436488
0.3583358196489142 -0.2673574009134002 0.13352540851220318 -0.11625799382592843 0.2820536455430158 -0.29706796939769187 0.008731372928434403 -0.16604824547492206
0.22892513389061633 -0.2379650932244213 -0.11702485411096662 -0.17854422500837855 0.11622318642565395 -0.2606225385608957 -0.24066685832956797 -0.07607135131749101
-0.0334104988661762 -0.24807278482027137 -0.30645766450714595 -0.04765140294891134 -0.17291985319124492 -0.2764228065279446 -0.22112175394001918 -0.0183318773649072
-0.29301064700213586 -0.24215636398977863 -0.18766909586497288 0.16059014106148425 -0.29639593432597283 -0.1759307575260202 -0.0910038247493095 0.17411195983977912
00000000: 7cc7 1df6 d95d d6bf d7f8 47bb 365b 8e3f
00000010: fef7 713e 00a8 d43f d47f 5ab7 d46a acbf
00000020: ca09 6844 606e aabf ad99 a9f0 9f3d c6bf
00000030: 1e90 9f96 4c7c d73f 165e f493 a9e7 c6bf
00000040: 7d19 0d4c 1616 be3f 7dce fdb7 c441 c4bf
00000050: 10df 22bb aab3 db3f 5a1c 1ca9 4049 c5bf
00000060: 4287 d16e 527e cc3f 0d61 74b1 8a2a c2bf
00000070: 4734 6d63 5697 d83f bd3b b23d a305 c2bf
00000080: fd27 985c f9ee d63f 3610 5137 621c d1bf
00000090: 9c5a 5f4f 5c17 c13f cb84 6179 15c3 bdbf
000000a0: 00ca d4bb 2a0d d23f 4c24 505f 2903 d3bf
000000b0: 0219 6a09 c1e1 813f 7dbd efa3 1141 c5bf
000000c0: 8574 a535 6b4d cd3f 8986 7ee2 a375 cebf
000000d0: 3fcc 3941 57f5 bdbf bd7b a683 89da c6bf
000000e0: 2d2f bc80 cdc0 bd3f 0a0d ee27 0aae d0bf
000000f0: f2d6 e0ee 2bce cebf ea36 127e 6979 b3bf
00000100: b050 f24f 2e1b a1bf bb54 ea58 d9c0 cfbf
00000110: bcab aa9b 009d d3bf cf55 8cc2 c365 a8bf
00000120: dc8b 24dd 3c22 c6bf d8fc 7948 e9b0 d1bf
00000130: 27a3 cdb6 b74d ccbf 6db7 0677 97c5 92bf
00000140: 1c41 90ba afc0 d2bf 0a5c edcf fafe cebf
00000150: 8edf 9a7a 8a05 c8bf 1fa5 f5bd 378e c43f
00000160: 153c 26a7 26f8 d2bf 4da6 f728 e684 c6bf
00000170: 83f4 1bd3 064c b7bf 405a adfa 4c49 c63f

fc.bias f8 [12]
0.2201329319451534 0.24917848375558604 0.22579098245762672 0.23277810730132567 0.19972269829670725 0.21481997906864458 0.21864213644776204 0.21254129677440145
0.2012050767026262 0.19408502251223633 0.2144228396197905 0.22602714907779195
00000000: 3d0f bddf 502d cc3f 146e 4c9f 14e5 cf3f
00000010: 4f90 b10a b8e6 cc3f 9dbf 0a4b accb cd3f
00000020: 8603 ba6c 8390 c93f 2c49 5098 387f cb3f
00000030: f20c c92c 77fc cb3f a305 599f 8d34 cb3f
00000040: bb0c 1d84 16c1 c93f 6faf 2a2c c7d7 c83f
00000050: a15a d725 3572 cb3f bb0b a626 75ee cc3f

exp_avg f8 [12, 24]
-2.535375118136305e-06 -4.08932347523448e-05 -5.2542147829335076e-05 -5.1227067676336475e-05 -3.348638233485498e-05 -3.9103330548692606e-05 -2.417138395017535e-05 -3.9657981656973045e-05
-2.454619820135326e-05 -2.6169275432257696e-05 -1.4906061378689897e-05 -3.965873309835281e-06 -9.145645617993711e-06 -4.114323245661659e-05 -3.4412921193808566e-05 -4.229697706661417e-05
-2.5859687936976476e-05 -2.2752625256285954e-05 -1.550679323571747e-05 -2.5805543221815808e-05 -1.0316227885811915e-05 -1.2225265696909622e-05 2.8038193112338785e-06 -1.2908556774219737e-05
3.867918816015397e-05 4.63211542100178e-05 2.0889229038396243e-05 6.0403597435377385e-05 2.2381008436306088e-05 2.075818673335239e-05 2.8189654206326814e-05 -4.3547598992262735e-06
-2.378670598165221e-06 4.3933182698846734e-06 1.320218033997855e-05 8.583731881255418e-06 1.5333757318792337e-05 4.711057214520556e-05 5.6938487705128374e-05 8.092750530901393e-05
9.95967497001253e-05 0.00010049295881735182 7.049913242958621e-05 0.00012112705582441777 9.052747522116805e-06 1.0761878603996034e-05 8.107127836218783e-05 -1.9908875821795672e-05
-9.790098800837669e-06 -1.65955479893069e-05 -2.1675012996595203e-05 -2.0901224375122345e-05 -2.5486936173228717e-05 -2.411226774458028e-05 -5.268455854837516e-06 -1.3590112965581063e-05
-1.3836870277532428e-05 -1.2456234454851467e-05 -4.607497552163591e-06 -1.4749373085173313e-05 -9.226474396028255e-06 -8.926692481397903e-06 -2.029238746926309e-05 -1.6422262001509748e-05
-7.148923050690362e-06 1.5716744229410012e-06 -1.5993600443563303e-05 -1.0072628786945784e-05 -4.996280906558363e-06 -7.0919748041068605e-06 -5.075162777916787e-06 7.185996616123551e-06
1.0653444509753477e-06 4.017882852790481e-06 9.78197633857717e-06 9.665085854946036e-06 4.978740076169928e-06 9.773562506790492e-06 7.688595426272318e-06 7.803798151011374e-06
4.11042171724507e-06 1.7317016186075912e-06 5.561705622271832e-07 1.4916279605181938e-07 -4.5909756553552793e-07 8.875141841307948e-06 1.2736829565979198e-05 9.162724021946261e-06
9.442490751154094e-06 8.012396977765392e-06 3.965288304179747e-06 9.766249155286234e-06 8.298579619676907e-06 6.773035862057284e-06 -1.775133055887995e-06 9.716004823821203e-07
-0.0004164653537826792 -0.0006568460433039017 -0.0005893745220752409 -0.0005976028061804395 -0.0006971904201639437 -0.0006064684917950748 -0.0004903207112863452 -0.0007246925995015134
-0.000500344422893245 -0.0006104137204215752 -0.00047679212842931246 -0.0005141074582359854 -0.0004648584666602411 -0.00044907462302173825 -0.0006004278918317132 -0.000481693340386056
-0.0003890537563314823 -0.0004444736978290213 -0.0005185418961749363 -0.00048160967349381825 -0.0005212383740279356 -0.0004515281901340944 -0.0004842541917156456 -0.0005194759709012862
0.0002325849194400396 9.151137567666241e-05 0.00013681762973143162 0.00011559138105902682 -5.688550974691544e-06 3.487582505276585e-05 3.6346811539111025e-05 2.258946254823151e-05
-9.925434034147544e-05 -8.959609275935902e-05 0.00019250620805968865 8.090999507389405e-05 5.7951088117568324e-05 0.0004262171706308633 0.0002639625337908051 0.0003377575485022575
0.00016661327607238983 0.00028845721780555494 0.00022625937771955293 0.00017060279449596005 0.00019458210506640125 8.253631031941445e-05 2.738461943170492e-05 0.0002500549222875886
-8.125183613630138e-05 -2.733436517222579e-05 -8.600451045224764e-05 -9.82128981520096e-06 2.9859318295417665e-05 -0.00011004469369920988 1.799426603209882e-05 -0.00026960710867439966
-0.00010718892834762314 -0.00023573681216442234 -0.00026542390986106364 1.2122128919645096e-05 -8.989519037043617e-06 -0.00016952827897266269 4.0690722165341455e-05 2.8057509907408194e-05
3.8592058546354396e-05 -0.00011483065704421959 -1.8607327829472216e-06 -0.0001433519865905779 -0.00021940922778384666 -4.994872994636621e-05 -1.6474646389218133e-05 -0.00018058865224210088
-6.568553698750322e-05 -0.00023511615598815897 -0.0002239993544337768 -0.00021738036879393962 -0.00017816407272778449 -0.00018504926124279317 -8.620290204247807e-05 -0.0001956248271940435
-0.00014158616109200784 -0.0001556394570546481 -6.24989597220205e-05 -8.836001368806356e-05 -0.00010493370548920497 -9.918500355848206e-05 -0.00011764556010564935 -0.0001362667287034381
-6.615960511391232e-05 -9.639340992409832e-05 -0.00012436106090772114 -0.00015681238368932891 -0.00013080995356144778 -9.873824697361788e-05 -0.00014326286098813136 -7.613945324919804e-05
0.0031010441935971356 0.004826353100098775 0.00535703741986288 0.006373368703270825 0.004120696517638738 0.00469185851568979 0.004069072120075796 0.0037818910330319274
-0.00024263985777466985 -0.0010064137732678552 0.003336329891105008 -0.00034658025353424083 0.001775621781770508 0.0087135842016789 0.006121989734401954 0.008268516304867746
0.006288168100184032 0.009553620791369994 0.0030713515521553396 0.0003668043484321348 0.0038838803965191076 -0.0014634292005971754 0.00016884402183451878 0.005988209052240457
-0.002212414736895519 0.0020306956523648226 -0.0023576824174435154 -0.0018467570834586004 -0.003209170932952339 -0.004416204135274417 -0.005172693212401276 -0.005823706629674207
-0.004589197495406618 -0.0027027407129803006 -0.00611441998153359 -0.0035325006546022813 -0.0016462567784540096 -0.007304456366865605 -0.0056338675419302904 -0.006810149007205278
-0.0044756733264140446 -0.0071280547228420145 -0.008095600676098193 -0.0075788783238538 -0.0014880046820400373 -0.004101535412830362 -0.0013712996400854743 0.003104918033703344
-0.000599829970283959 0.0009675661557746352 -0.002298881098387712 -0.00021140679942630882 -0.0013120331805961856 -0.002122363466609557 -0.0010462831869430915 -0.003174010139994524
-0.003938762742939791 -0.0046747750407342276 -0.002836630519168243 -0.0017655422244998967 -0.0010098021924464077 -0.000726094173618887 0.0008287462962497539 0.00025330905230484937
00000000: c543 2a36 ad44 c5be 2f51 dcd8 9870 05bf
00000010: 30b8 e473 168c 0bbf 5037 89a4 94db 0abf
00000020: 939e fe55 778e 01bf c804 fc34 5c80 04bf
00000030: f509 67db 7458 f9be 0d4e badf cdca 04bf
00000040: 15fa 70e5 11bd f9be 8a45 0dea c270 fbbe
00000050: 5642 ed79 a142 efbe b77d 61f4 52a2 d0be
00000060: a784 6af6 072e e3be d437 ecb3 2692 05bf
00000070: 5095 fcf7 d20a 02bf 0e0d d610 012d 06bf
00000080: 73e2 3c39 a81d fbbe f3e8 8180 9cdb f7be
00000090: aa16 8eb7 9242 f0be e7dc 556d 1f0f fbbe
000000a0: c5d2 7c90 7ba2 e5be 0837 2ab9 63a3 e9be
000000b0: f94b aaf7 2785 c73e a788 ac88 3a12 ebbe
000000c0: 0788 14c9 6e47 043f c1cd 53bd 1e49 083f
000000d0: d660 91e3 68e7 f53e cae6 eacd 3bab 0f3f
000000e0: 8dec 4530 db77 f73e 8736 f5ba 3bc4 f53e
000000f0: 0b51 5349 1a8f fd3e 11c6 4d49 e343 d2be
00000100: b945 9cfd 27f4 c3be c0b0 6c21 4a6d d23e
00000110: 0236 77d9 ddaf eb3e 84bd 6b20 5b00 e23e
00000120: 501a 83c7 1f14 f03e e82d ebee 12b3 083f
00000130: 88ed 658a 27da 0d3f bc6c 60f4 f336 153f
00000140: 0033 8921 d31b 1a3f cbcb eae2 f757 1a3f
00000150: f9f4 6adf 1d7b 123f 52d5 44f9 b2c0 1f3f
00000160: a091 3e25 28fc e23e af86 2d55 bd91 e63e
00000170: 8799 f3f4 9940 153f 8b67 6487 3fe0 f4be
00000180: e8be feee 0488 e4be d8a6 bc5f d566 f1be
00000190: 81b7 268d 57ba f6be 5c63 c333 a1ea f5be
000001a0: 8791 dcea 98b9 fabe a48c 1d6c 9648 f9be
000001b0: 16a8 421e f618 d6be 7a6d 4fe7 2280 ecbe
000001c0: e5bc 63f8 9c04 edbe 019e e2d3 631f eabe
000001d0: 3f23 8c48 4353 d3be 7fab b466 82ee eebe
000001e0: e4ca 37fc 6c59 e3be ccbf c945 7bb8 e2be
000001f0: ee07 a53f 3247 f5be 7894 6640 5138 f1be
00000200: 03c2 4c01 19fc ddbe cb13 984d 4a5e ba3e
00000210: bdf1 85da 3fc5 f0be 8c0f 278f b31f e5be
00000220: eb0e f43c b7f4 d4be ec62 b430 f3be ddbe
00000230: f3e1 2d1f 6a49 d5be 80a3 8ab5 e723 de3e
00000240: daf0 869c 9edf b13e 0295 9a3a 2bda d03e
00000250: efb9 4297 a883 e43e 7aad fd48 e744 e43e
00000260: f740 bfa6 e1e1 d43e ec53 df33 247f e43e
00000270: 6886 5182 c81f e03e 54f0 d9d9 a15d e03e
00000280: 627b 481e 883d d13e d272 c410 9a0d bd3e
00000290: 01a0 1900 78a9 a23e c4b6 5bd4 3105 843e
000002a0: eea3 4472 3ccf 9ebe e2bf e234 ce9c e23e
000002b0: 6c73 ae86 08b6 ea3e 2bdf 5533 3337 e33e
000002c0: a1b1 080c 66cd e33e 42d1 9674 9fcd e03e
000002d0: 637b 4426 b2a1 d03e e81b 3110 377b e43e
000002e0: 3bc3 2519 4467 e13e de1c e2eb 7d68 dc3e
000002f0: cc7b 906f 23c8 bdbe b88b 2607 fe4c b03e
00000300: 55c6 0c13 214b 3bbf e4b9 2223 0686 45bf
00000310: c17d 1126 0850 43bf 52ee 1741 0e95 43bf
00000320: ee44 df06 75d8 46bf f7e1 4d2b 6ddf 43bf
00000330: c409 b3b5 1b11 40bf 6089 db81 29bf 47bf
00000340: 6497 6e77 3165 40bf 8ec3 ad7b 8500 44bf
00000350: ff76 3d99 3e3f 3fbf d0df 205c a5d8 40bf
00000360: 50f1 5ce9 0777 3ebf f163 c0d1 386e 3dbf
00000370: 40e1 5a14 c1ac 43bf dcd7 c624 7991 3fbf
00000380: e398 ea28 3d7f 39bf 45ec 00ff 0721 3dbf
00000390: 78ab 2a3e d8fd 40bf 944c 0ecc 1190 3fbf
000003a0: 501b 8be2 7614 41bf ea32 52cf 6297 3dbf
000003b0: eb32 97ea 6fbc 3fbf ac97 2d27 ae05 41bf
000003c0: 1845 bd3e 417c 2e3f 0365 8576 39fd 173f
000003d0: 1486 8c7d d6ee 213f 262b 2ece 344d 1e3f
000003e0: 7c98 47fc 08dc d7be fcef 6339 f448 023f
000003f0: b2d2 5bef 620e 033f 18b7 ca0b d0af f73e
00000400: 7c31 4095 d804 1abf b539 2b27 b17c 17bf
00000410: df83 5cbc 6f3b 293f a055 8c21 c735 153f
00000420: 6cff d139 1062 0e3f 0201 11cf bcee 3b3f
00000430: ab40 3373 8e4c 313f 6d85 f29f a122 363f
00000440: f552 c424 9dd6 253f d6d6 1751 82e7 323f
00000450: 7c5b 6441 01a8 2d3f df0b 8fd8 7a5c 263f
00000460: 5dc0 278e 1781 293f 3cc3 a303 eba2 153f
00000470: 234f ccb7 00b7 fc3e ad48 a3b6 3963 303f
00000480: 64a7 70ea b74c 15bf 8e0b 8445 83a9 fcbe
00000490: 293b 223d aa8b 16bf c912 40cb c398 e4be
000004a0: b0c7 9cba 4c4f ff3e 2b77 3071 f9d8 1cbf
000004b0: 40f7 c48b 4cde f23e 6927 ebb6 41ab 31bf
000004c0: 4c26 59c4 5319 1cbf 6fa6 23cc 03e6 2ebf
000004d0: 1a98 2e03 1365 31bf cbe6 6ab6 046c e93e
000004e0: 71f0 b216 36da e2be 7241 efd3 6c38 26bf
000004f0: 53a2 4e91 6a55 053f 92f2 3b66 a16b fd3e
00000500: 3869 e408 bd3b 043f 9fc3 94aa 271a 1ebf
00000510: beac be54 c937 bfbe b404 3e30 18ca 22bf
00000520: 5d1f 61ea 26c2 2cbf ce0a f34a 0130 0abf
00000530: 218b 4b14 6146 f1be b31b f8b5 8cab 27bf
00000540: 3a23 c7ee 1438 11bf cc21 c666 30d1 2ebf
00000550: 0be6 a0cd 2b5c 2dbf 8541 4726 137e 2cbf
00000560: 2075 3bbb 315a 27bf 5347 e50c 3941 28bf
00000570: 9d30 9394 fa98 16bf 62f0 5c78 14a4 29bf
00000580: 23d9 e7dc d78e 22bf b46e 8bc1 6466 24bf
00000590: a6c8 c0f3 3b62 10bf f500 ec79 bd29 17bf
000005a0: 7df2 5255 fb81 1bbf 27ae da62 3100 1abf
000005b0: 2066 2b55 0fd7 1ebf 9c79 6049 5adc 21bf
000005c0: a97f 725c e557 11bf 01c9 352c da44 19bf
000005d0: 336d 0561 dd4c 20bf e9ca 7d1e c08d 24bf
000005e0: 0576 f0f1 4025 21bf 7f66 9d2a 36e2 19bf
000005f0: bf45 f89a 1ac7 22bf 0652 b8d8 a1f5 13bf
00000600: 006f a36c 5c67 693f 48fb 944b ccc4 733f
00000610: 4520 59c8 42f1 753f 4599 5522 f61a 7a3f
00000620: b9e0 7a0c dde0 703f a017 1e2e c537 733f
00000630: 0785 e43a bbaa 703f d19c b949 33fb 6e3f
00000640: 7767 f881 a4cd 2fbf 97f6 838f 347d 50bf
00000650: 20bb ab78 ca54 6b3f 77ec b7da a6b6 36bf
00000660: 62b2 e55e 7f17 5d3f 44cf 6a79 6dd8 813f
00000670: a49a 211b 5f13 793f a042 ed78 15ef 803f
00000680: d9ff 7845 9fc1 793f 77ca db46 d990 833f
00000690: 2aa5 124f 1729 693f 704d 38ae f409 383f
000006a0: 0ea6 1b69 16d1 6f3f 2bf2 9e23 11fa 57bf
000006b0: 9735 931a 7721 263f c1de a7a0 1787 783f
000006c0: 4ebf 151e c51f 62bf 34fa 476d ada2 603f
000006d0: 2ca1 121c 6b50 63bf e82f bc51 dc41 5ebf
000006e0: c3a8 8986 1e4a 6abf e8dd 55c5 b916 72bf
000006f0: 4840 df42 f62f 75bf d953 4158 99da 77bf
00000700: dcc2 8552 1fcc 72bf 4d22 19df 0e24 66bf
00000710: 64d5 ac1d 6f0b 79bf bc91 1bd9 30f0 6cbf
00000720: 86c6 8dc1 e6f8 5abf fc37 5f13 47eb 7dbf
00000730: fd3b 7bcd 8913 77bf 3ef3 4474 f5e4 7bbf
00000740: 5c4e 0869 1555 72bf cd03 b39e 4e32 7dbf
00000750: 149c 2921 6d94 80bf 4e3a a9a8 070b 7fbf
00000760: 43a4 85dc 2461 58bf b645 6287 c5cc 70bf
00000770: f318 dcc6 a577 56bf a024 2b2d 7c6f 693f
00000780: f303 820d bda7 43bf 9a57 757f 88b4 4f3f
00000790: f4a7 5164 1ad5 62bf 3cfd 5194 a2b5 2bbf
000007a0: d5fa 85e6 107f 55bf 1cef bc35 eb62 61bf
000007b0: b063 7f04 6e24 51bf 074b f3b7 6100 6abf
000007c0: 6f9c ae92 1722 70bf 9063 a85e db25 73bf
000007d0: c0f3 f069 d83c 67bf 72b2 4a87 38ed 5cbf
000007e0: 354e 16d9 6a8b 50bf 438f 605d ebca 47bf
000007f0: 90f8 991e 0728 4b3f 171b 6e18 d299 303f

exp_avg_sq f8 [12, 24]
1.2150039389212143e-07 1.0365488461809919e-07 7.761335479884763e-08 8.657359808717183e-08 1.6461392232035962e-07 5.5239346934453564e-08 1.0718724003885899e-07 1.4634254596529875e-07
1.3264001376219195e-07 7.912302684408383e-08 1.3595996137047683e-07 1.0242449049663395e-07 1.2200807483101264e-07 1.0518312655685493e-07 8.245323800198527e-08 1.9138285219871658e-07
9.467525946520203e-08 1.0347674294095412e-07 7.710512523796115e-08 1.459225808524488e-07 8.899659655983563e-08 1.3205320795210967e-07 1.6865672085972708e-07 1.9373825725684727e-07
2.3093593820948918e-07 2.2349592346410107e-07 1.9701630064326972e-07 2.3600764640604098e-07 1.6655331975857496e-07 1.4379996784882224e-07 1.4506365637307215e-07 1.4420968191802696e-07
1.466050429453205e-07 1.5217537776723248e-07 1.5290031529896264e-07 1.3912714250865566e-07 1.845461103920846e-07 2.038406877623969e-07 2.3360305511501322e-07 2.782351386538252e-07
2.810906879581993e-07 2.7746614117442593e-07 2.970547814521695e-07 4.778510416469134e-07 3.996682595872943e-07 3.1722403644810024e-07 4.301211422959769e-07 4.124153978614105e-07
1.211246687592685e-07 1.076382480273519e-07 1.9159916893988435e-07 1.5428141445185433e-07 8.805869370557883e-08 8.900222636424688e-08 1.7315606477281138e-07 1.118749395528126e-07
1.113601740316781e-07 9.110721832368625e-08 1.2802941154318052e-07 9.818204569206526e-08 1.780180633206877e-07 1.2275057036356757e-07 1.146922159590119e-07 1.5053041384199837e-07
1.1822832655731767e-07 1.7955516550972565e-07 1.350730175512581e-07 1.3907892580954985e-07 2.5126482603296067e-07 1.4031150384330454e-07 1.3380775097253954e-07 1.7711714601048194e-07
3.2448476417702684e-07 1.975161263614787e-07 3.528115838071753e-07 2.8223160758423696e-07 1.902762530359358e-07 2.200070087674644e-07 1.8604782805223828e-07 1.8697292118553997e-07
2.06103544458322e-07 1.8867616540125505e-07 2.902723376703059e-07 2.1951765028571363e-07 2.1803079370098625e-07 2.3396534480160773e-07 2.69344046280728e-07 3.3401452174276695e-07
2.4604673921272474e-07 3.850498708347507e-07 2.423862319594926e-07 3.44206430806509e-07 3.1052665055015757e-07 2.069594939961358e-07 2.773720775255197e-07 3.2963174977912463e-07
1.2157648618041119e-06 1.965816360561437e-06 2.519272781692755e-06 2.3818207091031104e-06 2.3108156377020877e-06 1.5562479399220586e-06 1.3327851119199448e-06 1.4302321141779425e-06
1.498176412268619e-06 1.418472299252539e-06 1.373574539952337e-06 1.069665201469773e-06 9.264122501446312e-07 7.356927392737681e-07 8.819349441821779e-07 1.0294704374216135e-06
9.944084919853252e-07 9.20678793732964e-07 8.894968021581104e-07 1.2650557663005932e-06 1.0001593705274292e-06 8.357671501969677e-07 1.6956316281223085e-06 1.5635382890946632e-06
5.49952449939574e-06 3.7407420362415836e-06 4.143805927354648e-06 4.362382898717298e-06 3.6204517003146283e-06 3.544450514333764e-06 5.857179544489071e-06 5.16110156757073e-06
5.705625170132657e-06 4.147654763359476e-06 3.6666714331731886e-06 2.699048317820459e-06 3.4267997131294885e-06 3.3244154587547917e-06 3.2931141890223667e-06 3.2346618451094075e-06
3.427943723385926e-06 2.7715198135473936e-06 2.945012640038039e-06 6.003090114813511e-06 3.938712769991789e-06 3.8139141554090295e-06 5.857308956478645e-06 5.573365065917594e-06
3.279237450392572e-06 3.425288477124819e-06 2.867696755433188e-06 2.6132773960938587e-06 2.153449780934615e-06 2.1360369909516365e-06 1.9608593294551763e-06 1.9238220829683526e-06
2.2231210698152904e-06 1.666607505118274e-06 1.7960787990916764e-06 1.540604933618803e-06 1.7446829770631044e-06 1.9939160859545344e-06 2.561663384162004e-06 4.0370683043458995e-06
2.8790785623055308e-06 3.1128678960150995e-06 2.6574827883746132e-06 3.3986018469141786e-06 2.357999932771082e-06 2.077704937958591e-06 2.427461537078977e-06 2.9715228714583985e-06
4.981396495442834e-07 8.573075359584963e-07 1.0486694791068947e-06 1.129590801171088e-06 8.405952585962992e-07 7.368590158410807e-07 4.5939592043303386e-07 4.007550978553268e-07
5.099352213838096e-07 3.6065803807617783e-07 3.80965066045714e-07 6.883897919000884e-07 6.118092445456931e-07 6.430488530072272e-07 6.003833338202872e-07 7.463889042891894e-07
4.741057204319685e-07 5.32250092982527e-07 3.5140668976853417e-07 4.1470979490336374e-07 4.969993589451063e-07 3.335833123848503e-07 4.966952844424706e-07 4.339032207286583e-07
0.00022355604549459312 0.0002816499197318043 0.0002863445346902085 0.0002691153501303709 0.0002517016829585834 0.00020135840361414453 0.00018564730275031692 0.00021418307541284283
0.00021576490614905023 0.00021110692085957348 0.00019750374326214806 0.00018540072450011212 0.00019026510945418636 0.0001896433166895066 0.0001883823733840252 0.00021195294026133587
0.00022312872683169136 0.0002265692576004584 0.00023194785552041905 0.0002636918264742302 0.0002407596774562534 0.0002214531053552629 0.0002684052489687316 0.0002475419323748157
0.00030636505934747004 0.0003500711829747065 0.0002904185617850931 0.00027527476932520743 0.0002471747367397678 0.00020660866396627952 0.00019457100735848819 0.0001994959951079774
0.0001898744157963982 0.000215034964626698 0.0002085110295105496 0.0001971071984992414 0.0002532438839777636 0.0002942686582793135 0.00031086628692561394 0.00033919693946156713
0.00037632130933721653 0.0004295060023889286 0.00039107197702698194 0.00047854142367146377 0.0005177560687669662 0.00039120688816203893 0.00044852447472280914 0.00045311885052629243
0.0002957209945263737 0.0003566891620101012 0.0003572282380993423 0.0002925001709258299 0.00028823012849501747 0.0002595519896765588 0.00023022790596479757 0.0002494906467241282
0.000239212262266361 0.000238887747715987 0.00023110132392997577 0.00022195199865646513 0.0002459999481125614 0.000245625748822001 0.00030625939301953117 0.000391842223078883
00000000: f036 54c4 b84e 803e 7fbf bd03 1cd3 7b3e
00000010: c045 c093 8cd5 743e fee3 15d8 4a3d 773e
00000020: 6d69 9c5f 1718 863e f356 8abc 09a8 6d3e
00000030: af41 4cde d9c5 7c3e 8a27 bda5 4aa4 833e
00000040: bee3 46e6 79cd 813e 0b21 3602 4b3d 753e
00000050: fcc4 ae77 8c3f 823e 0bf8 3bb1 8e7e 7b3e
00000060: 8d2d 2c60 2a60 803e 7d2e 9121 213c 7c3e
00000070: 8ff4 f0b3 2422 763e 7372 ec5e ddaf 893e
00000080: 13aa 3fc7 086a 793e fe4c f31c dec6 7b3e
00000090: e23f 4ab5 9fb2 743e 8142 6098 dc95 833e
000000a0: 7ca7 1aaf cce3 773e 5027 104d 50b9 813e
000000b0: a7d3 9b34 00a3 863e 833c 98bb cb00 8a3e
000000c0: 9923 a2fe e5fe 8e3e 33dd d0ee 42ff 8d3e
000000d0: 52db 14b5 6d71 8a3e 3596 3436 29ad 8f3e
000000e0: 28a9 667e ba5a 863e 1657 cfe4 ed4c 833e
000000f0: dcb4 646a 5978 833e 3ae7 dfc6 015b 833e
00000100: 34bc 6398 4fad 833e aac1 4dc7 b46c 843e
00000110: b0ab 8065 9d85 843e 815d 9449 5fac 823e
00000120: af4a ffc0 f4c4 883e fe8e b9a6 e95b 8b3e
00000130: 87fa fb33 8a5a 8f3e d2d0 b014 0bac 923e
00000140: 6aef 62eb 19dd 923e 9911 80fe d49e 923e
00000150: 939f c3be 5cef 933e 4630 a38d b508 a03e
00000160: edbe 3c98 3fd2 9a3e ddcc 1511 de49 953e
00000170: fbc5 0aca 6cdd 9c3e 2a5a 081a 3ead 9b3e
00000180: 8d78 8bda cf41 803e 85f0 b415 d8e4 7c3e
00000190: e5cb eb1c 4cb7 893e 2b5a 51ac 11b5 843e
000001a0: dbbf 28ec 58a3 773e 093a 7db9 2fe4 773e
000001b0: ced5 64da 983d 873e 5d07 15c0 fc07 7e3e
000001c0: f5e1 45e6 9ce4 7d3e f249 7e22 d774 783e
000001d0: 7e25 0f9d 0e2f 813e 90ac 64d0 045b 7a3e
000001e0: 2e71 d171 a7e4 873e dc74 796f ad79 803e
000001f0: 4d28 0ecd 96c9 7e3e 70e7 d785 2f34 843e
00000200: c29c 6db7 96bc 7f3e c1b3 3df0 7719 883e
00000210: e57d c1d3 1221 823e a2b9 392b b7aa 823e
00000220: b72c 3964 b2dc 903e 0656 360a 11d5 823e
00000230: c7a8 b56c 99f5 813e a809 63e4 b2c5 873e
00000240: 723e c215 9bc6 953e 6565 8a38 9a82 8a3e
00000250: 5e6c 57c1 41ad 973e 2ce8 afbc b3f0 923e
00000260: 7692 229f d789 893e 501e 5a1d 6287 8d3e
00000270: 4869 8b00 8ef8 883e 2efc 1635 5718 893e
00000280: add8 02f3 a9a9 8b3e c2ee 181a dd52 893e
00000290: 2226 f13d d77a 933e 1295 03ac 9176 8d3e
000002a0: dd2e a224 7b43 8d3e c143 d5ef fc66 8f3e
000002b0: e2b7 9da4 4b13 923e 440d ea66 536a 963e
000002c0: 8f2f c200 0d83 903e 43de b33d 1bd7 993e
000002d0: 3cae fbeb 2944 903e bf32 61e4 6b19 973e
000002e0: fc33 eda6 ced6 943e 2a59 05f6 12c7 8b3e
000002f0: 8c29 3f4c 379d 923e 4f62 5ec4 071f 963e
00000300: 5075 299a ab65 b43e fc39 27f9 8e7d c03e
00000310: 4d02 c7db 1822 c53e 3ed7 4fc8 ebfa c33e
00000320: 2c04 e754 7062 c33e ef43 a5b4 081c ba3e
00000330: 9085 56ba 445c b63e 0b71 07d7 ccfe b73e
00000340: 9673 c062 9e22 b93e ef95 65c9 4acc b73e
00000350: 19b8 a42d 750b b73e de01 ac53 2df2 b13e
00000360: d05e 1115 d215 af3e 0e7b 4e71 8daf a83e
00000370: e97b bf73 c397 ad3e 54c6 65b7 8a45 b13e
00000380: c058 1fb3 f3ae b03e 3a47 0c14 92e4 ae3e
00000390: 71e3 5727 b8d8 ad3e 906d 5b86 5f39 b53e
000003a0: eeb1 86db a6c7 b03e 1242 4666 2f0b ac3e
000003b0: ac1b 09b1 ae72 bc3e f356 8287 583b ba3e
000003c0: 37c6 98c8 1111 d73e d10d c4ae 2e61 cf3e
000003d0: f751 39b3 6061 d13e 4e71 34ae 124c d23e
000003e0: 4599 035f dc5e ce3e 91b1 fc46 a6bb cd3e
000003f0: 2503 f840 1991 d83e 9c21 e2cb b0a5 d53e
00000400: 2980 f84d 5eee d73e a7e8 faa8 8265 d13e
00000410: d007 21f0 1dc2 ce3e 2521 3381 29a4 c63e
00000420: 7efc b810 ffbe cc3e b02e eab9 20e3 cb3e
00000430: 978e d4ab e89f cb3e 2f6f c227 6222 cb3e
00000440: 984d dafd 73c1 cc3e fe55 7c21 cb3f c73e
00000450: b536 22d2 5db4 c83e 2295 90d8 c42d d93e
00000460: 8b04 4d1f 2985 d03e 3efc 087b 51fe cf3e
00000470: 152a 87d3 3c91 d83e ce43 88ec 5a60 d73e
00000480: cc2d 7dda 1b82 cb3e efb9 2941 c0bb cc3e
00000490: a371 b9f6 540e c83e c21c 1a71 f8eb c53e
000004a0: 5fd3 7789 7f10 c23e befe 23c1 1aeb c13e
000004b0: aeae 0bd1 e972 c03e 03de ff5f 6023 c03e
000004c0: 06f5 acbb 1da6 c23e 6260 b054 06f6 bb3e
000004d0: c013 2586 1922 be3e 5a88 cf09 d9d8 b93e
000004e0: c218 5638 5b45 bd3e fab3 edf5 e6b9 c03e
000004f0: 9ae2 b256 217d c53e 597c bce2 c4ee d03e
00000500: e2f4 a22d c626 c83e a160 4439 d51c ca3e
00000510: 44bd fb9c e64a c63e 3bbf da1f 7182 cc3e
00000520: 3d8a 142c c4c7 c33e 5b02 835e d66d c13e
00000530: c0c2 ce17 ef5c c43e cdfb 84f9 4bed c83e
00000540: 871d 82ac fcb6 a03e dc81 6f35 37c4 ac3e
00000550: 3173 3549 0098 b13e 98c3 7338 8ef3 b23e
00000560: 4347 ac85 a834 ac3e d153 a51c 92b9 a83e
00000570: a6f9 04a0 5cd4 9e3e 908e 578f ebe4 9a3e
00000580: 1e3b 2069 4f1c a13e cad5 78d3 0e34 983e
00000590: 9204 5f14 ee90 993e 372e 4929 3919 a73e
000005a0: f73f b8c1 6687 a43e 9619 d961 bf93 a53e
000005b0: bc1e cfe9 4025 a43e 575e e78e 6e0b a93e
000005c0: dac8 7702 13d1 9f3e 9391 0d55 fedb a13e
000005d0: 6536 46f7 1e95 973e b7cb 72f7 a8d4 9b3e
000005e0: 2cf4 f725 31ad a03e 8f9e 56ec ea62 963e
000005f0: 40d1 3d7b 94aa a03e 760f cc8b 661e 9d3e
00000600: e13b f6ce 4b4d 2d3f 5811 b531 4d75 323f
00000610: 6b26 7169 10c4 323f 1a6d aea0 01a3 313f
00000620: d9cc 247f da7e 303f 8992 3f84 7764 2a3f
00000630: 4715 1430 4a55 283f 114b c79b ca12 2c3f
00000640: c48f 5a6e de47 2c3f 41d0 60a4 92ab 2b3f
00000650: 05f6 7d3c 20e3 293f 999d c518 044d 283f
00000660: 5fef 68d8 3cf0 283f 5705 a9af 5fdb 283f
00000670: e6ee 0144 10b1 283f 10a1 b7e4 f5c7 2b3f
00000680: 78db 482b f53e 2d3f 1ae1 741a 67b2 2d3f
00000690: a364 5de8 e066 2e3f d19f 5bc5 0348 313f
000006a0: 5bba b9e1 8d8e 2f3f 0ac0 b0b0 bb06 2d3f
000006b0: d67d 32c4 1797 313f ae1c 0281 1039 303f
000006c0: b2c9 18e9 f313 343f 97e0 3a48 38f1 363f
000006d0: 21cd 9a39 6a08 333f 0ed8 b421 580a 323f
000006e0: e649 2369 e732 303f ae41 dce8 a214 2b3f
000006f0: 4399 093a b880 293f 30c6 a18c f925 2a3f
00000700: 307b f8cf 20e3 283f 998d f847 602f 2c3f
00000710: 31cb ee1a 7854 2b3f 3b27 56f1 d1d5 293f
00000720: d0c1 1833 ba98 303f 83d8 7743 0249 333f
00000730: ea83 2889 785f 343f 3945 0bc3 c73a 363f
00000740: a66a 65b7 9fa9 383f b982 d33b ea25 3c3f
00000750: 25dc 095a 19a1 393f 6a02 b3c3 975c 3f3f
00000760: c6fd fab0 40f7 403f 4775 66ca 5ca3 393f
00000770: 0dc3 4cf3 fd64 3d3f 210c eba4 12b2 3d3f
00000780: bf29 0f00 6061 333f 94bc 2149 4060 373f
00000790: ab66 8f99 4b69 373f fc35 0fab 562b 333f
000007a0: c671 c1f9 b2e3 323f f069 a94e 8f02 313f
000007b0: 432b 4ba7 2a2d 2e3f 5333 182b c259 303f
000007c0: 94a7 bcaf a15a 2f3f 13a3 b120 be4f 2f3f
000007d0: c0fb b541 794a 2e3f 956c a926 7917 2d3f
000007e0: 49ce 61bb 311f 303f ce35 e98e ea18 303f
000007f0: 9997 bd13 2e12 343f 5961 8788 05ae 393f

exp_avg f8 [12, 4]
-5.092242990628088e-06 -1.6287818784573604e-06 -3.428488993348956e-08 -2.4301650970223484e-07 4.023102727272794e-06 -1.7988192464401775e-05 -3.0570215287721593e-06 -6.202229930145765e-06
-6.27941058375794e-06 7.6034766319825825e-06 -3.4864261687113565e-05 5.915128016292122e-06 3.257991575998676e-07 -1.7745306172385506e-06 -1.7617350596053056e-06 -1.276679621054983e-06
1.827938417178309e-05 8.350250569387144e-05 9.821389716611964e-06 2.11389915723749e-05 -2.058161744701589e-05 0.00018385313530969817 4.0646920512125566e-05 7.052258442051198e-05
8.159091968762407e-06 -1.7223711743679596e-05 6.840387258323215e-05 -3.407383694517183e-05 -2.5190592747060515e-05 2.7684781464036224e-05 4.4047406526251984e-06 1.2224066574896253e-05
1.4280368352945543e-06 -0.000446883729299344 -0.00028540032242882105 -0.0002936092882453472 -3.2716322526392193e-05 0.00026017314292283984 -4.847343076444325e-05 0.00046262085186264933
0.00018607483365264891 0.0009145747355928721 -0.0001070726174420596 0.00027813321007994537 -6.501856110426759e-05 2.408866289491158e-05 2.9876340392818804e-05 0.00017135521967771096
00000000: 6c4a 4c18 c15b d5be d336 4e9d 9053 bbbe
00000010: 40cc 0e53 1468 62be 1f8d a2e9 fd4e 90be
00000020: 09ad 9d0e c6df d03e a4bf 6f2c abdc f2be
00000030: 2cbc ce5b e7a4 c9be 1915 49fb 9703 dabe
00000040: 7479 f43c 7756 dabe 7111 fabd 2be4 df3e
00000050: e950 f3e8 6647 02bf 8216 2802 52cf d83e
00000060: b0eb 30d9 2fdd 953e 63d9 280c 8dc5 bdbe
00000070: 846c df2e 988e bdbe c479 9a16 4c6b b5be
00000080: be9a 20b7 d52a f33e 04db d51f c2e3 153f
00000090: f6fc 3786 d198 e43e ed55 8870 742a f63e
000000a0: 1810 39fb d594 f5be eef4 2668 1619 283f
000000b0: 5c15 e48d 894f 053f 045b 5dc6 b07c 123f
000000c0: 6466 bc0f 611c e13e b3c5 5e75 740f f2be
000000d0: c422 2995 81ee 113f f0ad 641f 50dd 01bf
000000e0: 56e7 2c5a 0c6a fabe 6444 1db2 9307 fd3e
000000f0: 5b4e 27e4 8d79 d23e 4f4f cfea bea2 e93e
00000100: c3dc f41a 5ff5 b73e 69e7 a000 7749 3dbf
00000110: badd 140d 39b4 32bf 32e4 724a f23d 33bf
00000120: 7c65 4948 1c27 01bf ccf1 e023 fb0c 313f
00000130: de0e 1c66 fe69 09bf 2fe7 df6d 7d51 3e3f
00000140: 18a3 79a6 a263 283f 3b94 204a 02f8 4d3f
00000150: 2c69 938f 8511 1cbf 6eb6 8d0a 4d3a 323f
00000160: 1a56 d25f 520b 11bf 9660 354f 4042 f93e
00000170: f94a 847a de53 ff3e ea10 0821 ba75 263f

exp_avg_sq f8 [12, 4]
2.6435069574710046e-07 6.554307275498254e-08 3.6349956805884646e-07 2.2373657634484486e-07 2.9362838714001833e-09 2.8092775145641545e-07 3.409904182244945e-07 2.9460128877170002e-09
2.533806231088304e-08 1.0126475557904457e-07 3.763022530412506e-08 2.3517676716563508e-08 1.4859906217610358e-07 6.584152525855723e-07 4.1707767517489977e-07 2.671912525373231e-07
6.845089267162138e-08 9.27909311105216e-08 7.292427967656927e-08 3.1986149964777446e-08 6.356851501720768e-08 1.3574450795021907e-07 1.9753177233504255e-07 1.727534513679285e-07
1.579306340552588e-07 1.6400741906077833e-07 3.4698547603010806e-07 1.0261440885152214e-07 1.3646347613283273e-08 3.455939179581105e-08 7.720088959959069e-08 2.221299711742977e-07
2.006505346146962e-06 5.598529231105989e-06 1.4727888165829679e-06 2.226957356482938e-06 9.7347442935673e-07 8.837212852570698e-06 2.0105819700564872e-06 1.512921143598943e-06
1.1425049372456382e-06 9.318587603080015e-06 3.5000411684051386e-06 1.8531618921673736e-06 9.480968591484408e-07 5.1405456086311924e-06 1.6255550319933145e-06 1.1251390699928653e-06
00000000: 4a27 b7a7 82bd 913e 033b 09ee 1598 713e
00000010: 0896 d001 e064 983e a78a edbc 8707 8e3e
00000020: e6f5 5ede f438 293e babc 3151 4dda 923e
00000030: bef9 1cb8 2be2 963e 8e21 63d1 594e 293e
00000040: 2a24 ed9f df34 5b3e 30d6 7d6b dc2e 7b3e
00000050: 2ca7 50d9 db33 643e d7ab 6360 7d40 593e
00000060: b09e 852c d3f1 833e c461 c673 be17 a63e
00000070: 8f24 a003 57fd 9b3e 9747 578e 4fee 913e
00000080: c4a5 bad6 e85f 723e 17d0 c552 8be8 783e
00000090: ac14 c77e 5193 733e 63f1 1f9a 242c 613e
000000a0: 1443 8b24 6510 713e 950a b651 2538 823e
000000b0: 5316 24d8 2383 8a3e a691 9a6d c32f 873e
000000c0: 4c40 578c 7432 853e 7e1e af83 4003 863e
000000d0: bc56 2343 2a49 973e 6670 77c5 9b8b 7b3e
000000e0: 8e8e 35b0 284e 4d3e 4a0c 0780 ce8d 623e
000000f0: ae25 a269 34b9 743e ff45 b4e3 53d0 8d3e
00000100: 80cb c9fa efd4 c03e 8620 3cff 5f7b d73e
00000110: 91ef d86d 94b5 b83e c39c 06c1 5aae c23e
00000120: 0ce4 5474 0a55 b03e 8da9 3b49 7188 e23e
00000130: 6427 9920 b1dd c03e aed9 a863 f261 b93e
00000140: e15f 9a76 052b b33e 72b3 91ed e08a e33e
00000150: 797c 2efb 475c cd3e e15a 700c 4517 bf3e
00000160: 484e b20a 17d0 af3e c70c de6a 9e8f d53e
00000170: 6aaf c5a8 b445 bb3e f7c1 857d 6fe0 b23e

exp_avg f8 [12]
-8.970288668884812e-05 0.0002360585611188518 -2.2397941032731698e-05 3.720564666566665e-05 -0.0018632576254954112 0.00024383877883936 -0.0006659960710309389 -0.0005869570091082933
0.016401058753913508 -0.014635849280752915 -0.007098566477743969 -0.0029663963804568674
00000000: 127d d6db db83 17bf 3f8f 9299 cff0 2e3f
00000010: 77e0 a8c9 667c f7be 8fc9 0549 a881 033f
00000020: 7a91 31a4 1187 5ebf 64ed 4529 dff5 2f3f
00000030: 3569 13ac c7d2 45bf e274 4294 c03b 43bf
00000040: 9f0f df6b 70cb 903f c984 1470 66f9 8dbf
00000050: 6f20 eded 6213 7dbf 79f5 1cee fb4c 68bf

exp_avg_sq f8 [12]
9.124725980026968e-07 2.60522398601538e-06 1.2595264190422648e-06 3.2679568752136067e-06 1.4481534778283377e-05 4.377607374088675e-05 2.5887226373815246e-05 5.888157812705349e-06
0.00266339370525632 0.0036362572876371987 0.003456533615351775 0.0011788554363779112
00000000: 3639 8b76 149e ae3e 9815 6508 adda c53e
00000010: 8364 77f1 9f21 b53e 7ecc ab4a e269 cb3e
00000020: b575 0efc b65e ee3e b899 c570 86f3 063f
00000030: 20c5 8aa6 0c25 fb3e 40cb cc7e 5cb2 d83e
00000040: 93ca 889b 8ad1 653f 47f4 2ac4 c8c9 6d3f
00000050: b217 bc5a e050 6c3f faec f062 7a50 533f

exp_avg f8 [12]
-7.907802103020722e-05 0.00023632223516396558 -2.2364324975613614e-05 3.6845538156599745e-05 -0.0018627032052462586 0.0002420886024832522 -0.0006662828779025141 -0.0005865647830491512
0.007655305056776378 -0.007351440935204028 -0.0033050255003076144 -0.0014932522881724178
00000000: 9935 7f0e d6ba 14bf 8af9 ed8a a8f9 2e3f
00000010: ef90 bab5 6073 f7be fc29 140d 5351 033f
00000020: 84e3 5056 be84 5ebf 00c7 c342 25bb 2f3f
00000030: d528 d295 2fd5 45bf 8106 b447 7638 43bf
00000040: 9291 c14d 2b5b 7f3f 12a5 5266 8b1c 7ebf
00000050: b8e6 f50d 2413 6bbf c41d 836f 2777 58bf

exp_avg_sq f8 [12]
1.2311494991831044e-06 2.6809814781244298e-06 1.254243447461815e-06 3.078161623283001e-06 1.4555009957445723e-05 4.3525098778756504e-05 2.6556919974899627e-05 5.68360862383732e-06
0.0006794736352483868 0.0009379029981547516 0.000887245023148218 0.00027890747818900375
00000000: 6a22 9c30 bfa7 b43e 73f2 8e27 5d7d c63e
00000010: 46ef 2941 ef0a b53e f0d3 9c3f 4dd2 c93e
00000020: ed73 1956 2986 ee3e cba2 a801 d7d1 063f
00000030: e810 f7a4 d1d8 fb3e e5bb 4171 bad6 d73e
00000040: b085 5c85 d643 463f 483b 195a b3bb 4e3f
00000050: 22a5 d12d c012 4d3f 79ad 577f 4a47 323f
