dl_experiments/best_checkpoints/alibaba_5min_GRU_cuda:0_checkpoint.pt (torch, 282830 bytes, 54 tensors)

gru.weight_ih_l0 f8 [48, 48]
000000 2f 23 b7 63 b2 35 9a 3f cd 26 71 32 6b 85 8b 3f
       0.025595462165969692 0.0134380697983433
000010 9f cd e5 5b 91 87 99 3f b4 28 7e 12 2f 4a 99 3f
       0.024931212648380826 0.024697051528655492
000020 69 3c 94 01 67 ab 8b 3f 30 87 3d a9 50 38 a9 3f
       0.01351051782196873 0.049257774981710134
000030 17 55 ae 21 de da 98 3f db d4 7a a5 1a cc 99 3f
       0.02427241402218269 0.025192657804571233
000040 59 d2 96 26 90 83 96 3f 09 ed a1 15 b4 aa 97 3f
       0.02198624835519278 0.023112119503349713
000050 fa c5 2d e2 e9 66 84 3f 17 56 3c 0d 02 97 a0 3f
       0.009961917128495468 0.032402099719700476
000060 27 41 b3 a1 6a 85 86 3f bb 24 40 b5 9e 1f 8d 3f
       0.010996659335802917 0.014220466524437083
000070 d3 21 34 b5 07 49 9f 3f af 3b f4 ac a3 36 a3 3f
       0.03055202525595908 0.03752624021773642
000080 34 e7 96 5a 3a cd 81 3f 8e e5 cd bb 23 a1 a8 3f
       0.008692222489901626 0.04810439746411098
000090 96 10 c0 2d 2b bf a1 3f 4a 48 e8 48 2b 68 8c 3f
       0.03466162618136186 0.01387056175466141
0000a0 78 8d 07 f0 da cd 90 3f 97 d4 4b 33 b2 2c 9a 3f
       0.016410275364149268 0.025561127072212555
0000b0 43 10 cb 89 2b 77 56 3f 63 dd 7b 49 5f 35 a1 3f
       0.0013711857965725972 0.03361032268542876
0000c0 30 2a 1a fb 69 d1 99 3f f3 df 24 d8 3a 10 9a 3f
       0.025212913466513054 0.02545253700483836
0000d0 d7 61 c0 55 5a 6c 8e 3f 03 c1 11 ad 0b 75 a3 3f
       0.014855104200294384 0.03800236213362675
0000e0 26 a7 1d 38 4c 6c 89 3f 9e 93 ed 73 01 96 9b 3f
       0.012413592779654769 0.02693941373890462
0000f0 de 55 97 cf 88 39 a1 3f c5 c1 48 03 c8 47 a1 3f
       0.033642077770916975 0.03375077285852827
000100 34 0b a6 89 50 21 9d 3f 40 6d 1f d2 9d ee a1 3f
       0.02844739761486466 0.03502362432456119
000110 48 23 b8 65 c7 cf 8a 3f 97 42 f2 4f d4 b9 97 3f
       0.013091619292951898 0.023169820193802506
000120 f3 e2 66 f3 60 97 80 3f 42 61 9a 2d 71 29 8f 3f
       0.008101231983219636 0.0152157632867761
000130 53 64 ca c9 98 d3 96 3f ce b2 11 ab 73 58 a1 3f
       0.02229155284530677 0.03387795890089294
000140 2f e4 d2 fc ea d8 97 3f d8 5d cc bd bd d0 a1 3f
       0.02328841369737605 0.03479569379686226
000150 4d c2 f7 e7 34 97 8b 3f 9f 47 f4 cc 4d 68 93 3f
       0.013471997574897499 0.018952575334942542
000160 5d c9 f8 33 41 90 7d 3f 71 d2 b9 17 27 46 7c 3f
       0.007217650126721456 0.006902840333726888
000170 af 0c e7 c7 a6 d5 57 bf 6a 9d 36 f9 eb 6b a0 bf
       -0.0014547470778872131 -0.032073377772855974
000180 7a 2f be c0 7b ee b2 3f 93 f8 e6 dc 01 10 9b bf
       0.07395146804463862 -0.02642825041561332
000190 60 5b 4f d2 02 08 a2 bf 04 c2 3a c7 90 38 ae bf
       -0.035217369244199714 -0.05902531082154286
0001a0 ee 04 fc 00 3f 87 9b 3f dd 9e 27 53 58 ab 85 bf
       0.026883110461317132 -0.01058072093742573
0001b0 b7 7c 16 a3 2b ef a3 3f 74 a9 45 ce d7 29 ab bf
       0.03893410077875486 -0.05305361168832948
0001c0 f6 88 7a b1 65 b6 91 3f a3 cc f9 bd c2 5c a1 bf
       0.017297352750241544 -0.033910833063509636
0001d0 8d 2f 2f eb 49 35 83 bf 2e 3f 23 7d d5 ba a9 3f
       -0.009378983964687193 0.050253554845424694
0001e0 2f c0 8e d2 45 fc 80 bf e0 28 ec e7 a2 8e 88 bf
       -0.008293672073563211 -0.011990807249749158
0001f0 cd e6 5f e9 72 47 b0 bf 86 98 d7 1c b1 77 8e 3f
       -0.06359022328970383 0.014876731579488
000200 08 cc d2 72 82 49 80 3f ee 83 54 91 4b 52 aa bf
       0.007952708367474429 -0.051409112444396374
000210 45 e3 d5 ed 80 a0 ad 3f 3e 5e 48 40 d3 67 80 3f
       0.057865170509961796 0.008010530852558092
000220 8f 7c 26 13 d3 f2 a7 bf 85 95 22 09 5f 72 a3 bf
       -0.04677447899597908 -0.03798195826065424
000230 7b a5 0e e2 0a 85 99 3f 1a c1 d6 aa 3f 68 b4 3f
       0.024921579406201638 0.07971570893164817
000240 d6 ef fe 3b 75 91 73 bf 35 2c a0 fb 89 88 a0 bf
       -0.0047773913828983074 -0.032291709867500996
000250 37 63 d8 fc d0 e7 a7 3f 98 f0 d4 d5 b7 c5 95 3f
       0.04669049345483816 0.021262047220475283
000260 a2 78 7f 86 67 ba ac 3f e6 cc 9e ab 02 0a b1 bf
       0.05610965267963876 -0.06655899705838272
000270 29 92 63 91 4f 0e a1 bf 19 13 57 61 b1 16 92 3f
       -0.03331230783240741 0.01766469151131664
000280 8f c1 fd bf e8 0b b3 bf eb f7 d5 d3 c9 d1 b2 3f
       -0.07440046965871815 0.07351361676953132
000290 ba 0c 3f d4 9a a4 b1 bf 6e 47 04 3f d8 81 a7 3f
       -0.06891791993898524 0.04591251153227814
0002a0 ba 0a 6e 03 e9 f1 a7 bf a0 dc f3 25 38 ff b5 bf
       -0.04676750342243481 -0.08592558790756977
0002b0 ad 6a f3 61 d5 37 b4 3f b6 c5 7f 81 a5 d9 b1 3f
       0.0789769519937333 0.06972727214431171
0002c0 f7 ef f6 89 08 1e a6 bf fc 08 22 80 00 5c 75 3f
       -0.0431978863157098 0.005214693026689195
0002d0 64 56 ae ee e5 d1 a0 3f ae 3d 02 0f 0b 4b a0 bf
       0.03285139597498413 -0.0318225341626389
0002e0 5f 6f 06 cd 74 ed a3 bf 4d b6 34 13 18 d7 b5 3f
       -0.038921022441370516 0.08531332463163573
0002f0 2b 0b ba c3 54 2e a3 3f 48 e4 1b 96 27 cf c2 bf
       0.03746285332910867 -0.14694685773409533
000300 54 ea d4 88 c1 4f 94 bf 40 21 b3 c6 b2 ef 74 3f
       -0.019835494972748016 0.00511140665475579
000310 da b3 71 48 ba b9 af 3f 98 6d 54 20 29 45 a2 3f
       0.061963864653854464 0.0356839038815579
000320 a2 69 7c c4 6d f4 6e bf 8d ed 6e 11 86 0e 87 bf
       -0.0037786620995465406 -0.011258170516035526
000330 b0 a4 fc e2 79 63 85 bf e0 b9 b5 f8 29 45 a7 3f
       -0.010443641891088568 0.04544955407151341
000340 a7 5a 18 f4 b0 4b 88 bf 49 a1 8b 25 40 57 a1 3f
       -0.01186311955374937 0.03386879404371485
000350 88 9e ae 36 16 16 90 3f 95 2f 78 e7 76 97 a1 3f
       0.015709254348307528 0.034358707194854045
000360 75 45 41 79 fd 16 9c 3f 97 af 25 a8 8b c2 7a bf
       0.027431450391593743 -0.006533189329598252
000370 4b 77 09 65 17 28 a1 3f 1c 94 4f 71 d9 af 76 3f
       0.033508997996917055 0.005538796792255798
000380 82 92 36 de 08 47 8c 3f 1e 07 c2 66 e4 71 9f 3f
       0.013807362824828976 0.03070790173706605
000390 ab ee 54 51 f7 29 8a 3f 03 3d 6d 09 75 d2 62 bf
       0.012775356454418704 -0.002297619426293475
0003a0 85 63 3c cf 0e 4c a4 3f c4 d4 13 b7 9b d9 84 3f
       0.03964277534232167 0.010180679821568346
0003b0 87 38 e5 e5 97 cd f3 be 80 ff 17 a7 d8 95 96 3f
       -1.888570693014309e-05 0.022055993269531893
0003c0 5a dc 03 7d 8e 7b 86 3f f9 11 e7 19 7a a0 93 3f
       0.010977853002698424 0.019166858511896454
0003d0 b8 2d 4a 5e 91 21 93 bf 7a ed 6b 0e ea e3 9a 3f
       -0.018682738666525117 0.026260048990463393
0003e0 31 d8 b2 6f 14 b5 96 bf 46 cf 0b 30 45 51 9b 3f
       -0.022175139730016894 0.02667720895529093
0003f0 af 95 11 82 e8 59 8e 3f 9d 61 de d7 11 ee 7e 3f
       0.014819923848515907 0.007551259708542449
000400 27 1b 0e 43 b1 de af 3f d3 dd a3 c3 a0 82 63 3f
       0.06224588340324138 0.002381624214759384
000410 f6 2c 8e 86 17 7e a8 3f d3 80 74 c0 b6 1b 91 3f
       0.04783700482865953 0.016707282539869816
000420 1f 7c 44 12 ff 75 98 3f a3 a6 81 e2 34 1e 98 3f
       0.023887620439492104 0.023552728962761404
000430 cc 9f 26 de f1 f3 a3 3f 0c 39 88 26 8c 4b a1 3f
       0.038970526092554886 0.03377950640070723
000440 c1 e7 99 e1 bb e4 a7 3f 1e 1e bc d6 e7 90 94 3f
       0.04666697625084693 0.020084021073698215
000450 0e 36 42 00 f9 0b 94 bf 62 b4 c5 c7 51 ac a6 3f
       -0.019576922074113816 0.0442834431040431
000460 b5 61 a3 54 2c b2 a6 3f 98 1a d2 80 9e d9 96 bf
       0.04432810338193197 -0.02231452618846194
000470 65 bd df 43 33 e2 a6 bf 91 ad cc 78 b6 36 bb bf
       -0.044694520984075926 -0.10630360078055491
000480 f6 97 4c cf 44 ba 70 bf 12 95 e6 d1 0a 68 8b bf
       -0.004083889759192152 -0.013382038622533208
000490 24 b4 fe 0f 1d 2b 91 bf 63 2d 98 bf 2f 50 89 bf
       -0.01676602754712432 -0.012359974894045228
0004a0 17 06 85 d8 c0 6f 7f bf f1 e5 f4 a2 67 b4 7b bf
       -0.007674935630633615 -0.006763844328184985
0004b0 c0 f8 9d d6 cf 1c 6f 3f bd f3 bb aa be 35 58 bf
       0.003797918257020333 -0.001477657507108917
0004c0 e4 24 25 ea ee 35 80 3f 74 08 57 72 d0 a6 79 3f
       0.007915369530240253 0.006262602085771108
0004d0 d1 f2 d6 52 8f 74 76 bf bf 31 ae 30 1e 02 61 bf
       -0.0054822538926912615 -0.002076205220367749
0004e0 37 58 1f 15 77 98 8b bf 5d b0 67 e0 62 30 88 bf
       -0.01347439797602244 -0.011811039422319586
0004f0 3d 74 95 cc 23 c5 6e bf 09 33 e3 ad 2e 95 7b bf
       -0.0037561129762893317 -0.006734068241894383
000500 86 24 eb ae d3 41 6a bf 97 d1 1a fc f2 a4 83 bf
       -0.0032052168311094724 -0.009591959303499915
000510 0a 31 a5 58 3a 33 84 bf 87 cd 97 95 f9 f4 86 bf
       -0.009863334493865245 -0.011209440114703607
000520 66 de 7e 41 d9 3f 74 3f 48 6a 42 ea eb 64 52 3f
       0.004943703323014503 0.001122694383446048
000530 6b 07 48 d6 30 84 72 bf 6c d6 ee ef 72 76 8b 3f
       -0.004520598191904183 0.013409517237828093
000540 5d 0d 72 9e 93 0c 88 bf ed 39 c6 28 4a 7d 92 bf
       -0.011742738030312944 -0.018056067217509342
000550 94 c2 1b 76 36 2d 88 bf 6e 2a b7 8f 75 07 6b bf
       -0.011804986457236745 -0.003299455272757704
000560 4a ef 0b e9 ed 7b 41 3f 50 55 8e f8 46 1e 7a 3f
       0.0005335723563741704 0.006376530866778765
000570 10 28 3b 7b 54 02 85 3f a5 70 1b 61 0d 43 8b 3f
       0.010258350382532228 0.01331148579213732
000580 f2 0a f4 d3 7b 89 8f 3f eb 7c d2 d7 99 34 90 3f
       0.01539894810276141 0.015825656697981676
000590 9c 84 b6 9b 8b cf 6b 3f c6 18 d4 80 ad e2 94 3f
       0.003394863769884694 0.020395956981723605
0005a0 90 a4 3c 4e bc eb 74 3f 0d 38 2c f1 27 3f 6f 3f
       0.005107627457428113 0.00381429482639018
0005b0 76 9e b8 08 e1 03 90 3f b9 0d 38 d7 20 0b 9a 3f
       0.015639797360704276 0.02543307603447229
0005c0 b2 c0 11 d6 5a 24 99 3f 3e 33 56 7b 0e 95 98 3f
       0.024552745166545882 0.02400610568797678
0005d0 cc 92 9c 31 34 be 97 3f b4 e0 8b 7c 8a 65 88 3f
       0.02318650772862689 0.011912424016813673
0005e0 e9 04 f4 5f 9e 2f 85 3f 6f ad 06 7a de 17 77 3f
       0.010344731620082164 0.005637997674436831
0005f0 dd 77 9e bf 4e 21 5f 3f 0c d5 3a 4a 82 23 8c 3f
       0.0019000309971270925 0.01373960293799794
000600 9e 2e 6b 76 e5 ff 78 3f 3f 12 47 03 6a 2e 74 bf
       0.006103416765380535 -0.004927076447022004
000610 1b 9a df 60 02 79 5f 3f 98 a0 08 36 78 13 9a bf
       0.001920940706889979 -0.02546489553256545
000620 37 49 f1 0a 93 4a 95 bf 98 b8 1e 86 f3 33 89 3f
       -0.02079229120529044 0.012306120424764352
000630 ec 59 78 53 30 57 84 3f 13 66 2f 00 a5 fa 76 bf
       0.009931924388223622 -0.005610127004695114
000640 0b 4d eb 0a e4 5f 92 3f 69 52 d0 02 54 b4 67 bf
       0.017943919340564423 -0.002893604358641878
000650 9b f7 af cd 01 f0 90 bf 4a e0 7f e6 cd d0 99 3f
       -0.016540554217491992 0.025210587686132414
000660 76 99 7c 6d e7 8e 68 bf 67 0c 0f 83 9f d2 8f bf
       -0.0029978294441150256 -0.015538450419518136
000670 3e 73 aa e9 b7 34 72 bf 26 58 55 2c 2a 15 94 bf
       -0.004444807442862962 -0.0196119870718904
000680 44 d7 54 7a 20 76 9e bf aa 03 53 cf db 26 7f bf
       -0.029747493235127168 -0.00760541785456407
000690 de 35 14 bd 6d 61 70 bf 9b 09 87 b1 56 1a 88 bf
       -0.003999165216794746 -0.01176898698111444
0006a0 ef c7 9d f7 f0 2d 7f 3f 66 0c 48 87 7d b0 86 bf
       0.0076121723922017845 -0.011078816119157685
0006b0 d4 c2 3d b2 96 e9 98 bf d0 8c 33 ed 61 5b 8a 3f
       -0.02432857001207618 0.01286961083537222
0006c0 07 07 86 f1 ae df 73 3f 94 53 a6 70 22 6c 7b 3f
       0.004851992962700675 0.006694922000311094
0006d0 dc 22 48 9d 78 d8 84 3f da 16 a0 1b 29 e2 82 3f
       0.010178510951861446 0.009220429568823563
0006e0 32 a4 5c 40 08 3b 73 3f 09 89 d8 66 85 0e 84 3f
       0.004694969398578984 0.009793321801286685
0006f0 11 2f 5e 57 0d ea 92 3f ba ae 8a 2e 95 d1 94 3f
       0.0184709629607332 0.020330744710618666
000700 d2 42 3b f7 c2 8b 87 3f 68 84 5a c8 5d a7 99 3f
       0.011497042817980061 0.025052514413463817
000710 bb 64 5f ab b5 75 7c bf 33 ec 66 92 ee 77 8d 3f
       -0.006948194166363548 0.014388908236346953
000720 c5 52 0a 4b aa b5 92 3f 20 44 f3 16 2a 89 6c bf
       0.0182711227704029 -0.003483373838755202
000730 f2 67 ba 62 95 24 a1 3f 88 f8 a1 b3 fc 3f 94 3f
       0.03348223524262996 0.01977534147635443
000740 af 75 19 e2 84 9e 15 bf 7d 66 8e 7d 17 51 91 3f
       -8.247076086705692e-05 0.016910903013558787
000750 18 0f 90 71 68 fd 98 3f b4 73 15 68 e2 ca 85 3f
       0.024404174739188184 0.010640877534280203
000760 d1 86 f7 2a fe 44 96 3f f2 07 d2 40 98 21 88 3f
       0.021747561810008535 0.011782826879656459
000770 c2 39 22 32 5b d9 89 bf cb 95 04 f9 e9 d0 a3 bf
       -0.012621605365237158 -0.03870326199311654
000780 f0 cd 8d f2 84 f6 67 3f 80 eb 88 57 ad 6b 78 3f
       0.0029251667623897346 0.005962063900876724
000790 b8 3b 24 3c 48 c6 8f bf 1e 8c 14 33 3b 88 8a bf
       -0.015514911971448928 -0.012955152984949033
0007a0 ae 5f 7c 4d f1 51 85 bf e1 92 03 62 fc 37 96 3f
       -0.010410199334316275 0.02169794414739357
0007b0 11 08 5a e2 67 25 a1 3f a2 4d 71 c3 46 e2 87 3f
       0.033488508587666506 0.011662056769785437
0007c0 53 5b 05 fe 38 8c 94 3f 6d 54 e8 db 83 2e 96 3f
       0.020066156868178208 0.021661815926638562
0007d0 d1 16 78 9a b0 02 8c 3f cb e0 4f 09 2e 9a 95 3f
       0.013677005495093127 0.021095961874352292
0007e0 91 77 ea 4c 50 61 96 bf 02 99 2a 82 58 65 6d bf
       -0.021855597204755 -0.003588364475336837
0007f0 a7 73 d3 9d f8 8c 94 3f 7a 42 b8 4f 42 58 90 3f
       0.020069012291844903 0.015961681476314805

gru.weight_hh_l0 f8 [48, 16]
000000 3c 45 ae 34 ed 40 ab 3f 55 14 6c 11 d9 2e 83 bf
       0.05322972553325164 -0.009366699070151233
000010 4a b0 4c 9f 7a b5 98 bf 69 40 f9 ff 1a c2 66 bf
       -0.024129787419198835 -0.0027781035749186345
000020 2f 0b 0c be 35 63 8c 3f 4e d8 e0 60 d4 1e a1 bf
       0.01386110292651707 -0.03343833620640223
000030 46 a6 c1 9f b7 fe 90 bf 63 2f be f9 da 42 80 bf
       -0.01659666931701611 -0.007940016504811081
000040 d2 56 2e b5 51 2d 87 3f bf 86 5f 9a 82 8b 96 bf
       0.011316908208566376 -0.022016564056577034
000050 4b c0 da 6a 27 e9 87 3f fc 85 71 64 3e 0a 81 3f
       0.011675174663963747 0.008320319595614294
000060 64 d1 d6 a8 cb a4 81 bf bf dd 47 c0 22 a6 93 bf
       -0.008615103807507914 -0.019188445077785717
000070 6a 5f 14 f5 b2 81 91 bf 3a b5 76 21 20 aa 91 3f
       -0.017096325119467272 0.01725053982015832
000080 d4 21 99 75 e3 8a 73 bf 8b 6b 1f d3 ec f6 ad bf
       -0.0047711262828404495 -0.058524513980692104
000090 78 d5 75 a0 2a 55 2b 3f b5 72 9f e1 03 c9 88 bf
       0.00020853181215911196 -0.012102155993426103
0000a0 8c 19 67 d2 af 85 7e 3f 67 62 c2 eb e9 ed 83 bf
       0.007451712421647005 -0.009731128222754749
0000b0 49 bc 4d c3 d6 e1 83 3f 24 d7 26 bf 46 ab 8e bf
       0.009708097300714995 -0.014975121220099981
0000c0 b5 64 f0 8b b7 cb 6d bf 20 f3 68 a1 c1 0c 84 3f
       -0.003637178887868043 0.00978995584329706
0000d0 0e 71 40 84 37 d2 69 bf 86 3a 59 01 f9 14 79 bf
       -0.00315199702346381 -0.006123516728236416
0000e0 98 3f c5 74 d3 92 97 3f 4e ef 48 cb 80 86 88 3f
       0.023021034242730914 0.011975294307482589
0000f0 db c0 da 14 0c 67 90 3f bd 4c 9f b7 28 1a 83 3f
       0.01601809384618567 0.009327238181788261
000100 f0 5f 59 97 52 4d 82 3f 80 99 33 46 84 29 7d 3f
       0.008936543697174643 0.007119671531859217
000110 00 e5 64 09 37 9a b6 bf 83 73 10 16 97 9e 8a 3f
       -0.08829063395832648 0.012997799263809067
000120 e0 af fa e7 22 f9 86 3f 2d e2 0b d5 2f e0 8a bf
       0.011217377380795257 -0.01312291497150494
000130 cf 13 34 c1 61 21 69 bf 01 31 a6 b8 35 e2 79 3f
       -0.003067675521040126 0.006319246147892922
000140 8b 1c 4e 60 11 81 7f 3f 76 1c a6 f4 6e 2b 94 bf
       0.0076914480931754665 -0.01969693535059177
000150 56 1a e6 75 27 65 96 3f 21 10 19 01 30 11 55 3f
       0.02187024743173035 0.0012858361045724536
000160 82 1b c9 2b 10 9a 84 3f ce 75 63 d1 d5 e7 60 bf
       0.010059477173070656 -0.0020636726504636776
000170 be dd 32 1e 74 12 8a bf dd d7 ae a2 19 73 6e 3f
       -0.012730509921637597 0.0037169933979965667
000180 f1 5b 27 48 4c 21 81 bf dc bd ab da 48 42 84 3f
       -0.008364292098958588 0.009892052815728407
000190 7c ae 41 3f c5 1f 8b 3f 38 b7 47 73 0a 69 71 bf
       0.013244191163003231 -0.004250565358672458
0001a0 bb 39 86 f1 68 56 7b bf 52 36 ec f6 e6 3c 84 3f
       -0.0066742038110433844 0.009881786737902552
0001b0 6e a6 4a 4a a1 bb 82 3f b1 f1 b6 c3 e7 41 7e 3f
       0.009146938399982232 0.007387070970647989
0001c0 34 b2 25 17 0a 50 88 bf 7f a0 18 43 d2 0d 8b 3f
       -0.01187141307010462 0.013209955856908316
0001d0 c2 5d 23 02 45 3b 7f bf e7 79 2e 80 15 0d 8e bf
       -0.007624883235812731 -0.014673393224993126
0001e0 a5 55 cb 90 7b 23 8d bf c3 8c 23 a5 6a 32 a0 3f
       -0.014227834087629907 0.0316346479974299
0001f0 7c 6a 34 e0 89 d5 72 3f 04 c8 22 90 f4 38 53 bf
       0.004598177506773934 -0.001173247176251114
000200 75 ad b2 9b 09 b9 75 bf 4d 46 e2 00 29 60 84 3f
       -0.0053034186668513466 0.009949035968278919
000210 17 76 6d 2a 1a ce 75 3f 85 6b d5 7b 52 de 6f bf
       0.005323507509130041 -0.0038901911745318784
000220 07 8e f1 59 78 7a 7c 3f bc 64 4d c8 01 d2 78 bf
       0.006952734110288634 -0.006059653246517967
000230 49 bc 90 17 ff ae 80 3f f9 ed e2 de 7f 03 4c 3f
       0.008146279246004211 0.0008549093597802197
000240 18 48 3d 43 7a 5f 86 bf c9 54 b5 da 97 3c 76 3f
       -0.010924296547873566 0.005428879910444447
000250 f5 3f 1b 0e 43 4b 7d bf ac 7d dd b4 54 e4 89 bf
       -0.0071518534984562525 -0.012642537850921474
000260 0b 1e 9f 72 f8 a6 8f 3f 8b 44 c9 cc 20 29 98 3f
       0.015455189702961133 0.02359439134517464
000270 af 19 ea 34 3b d9 74 3f e3 bf 77 dd c6 36 81 3f
       0.00508998038879442 0.008405259736690545
000280 e9 dc ba 24 8a 17 7a 3f 32 5e a9 44 d8 83 9b 3f
       0.0063701053838294075 0.0268701354892455
000290 7b 0d 2b dc b0 d9 6c bf 5c 1a 1b cd d7 9a 75 3f
       -0.003521771840810648 0.005274622891823979
0002a0 b1 07 c3 18 c9 ad 74 bf 8b 69 65 03 bc 3f a4 bf
       -0.005048547300420412 -0.03954875508744057
0002b0 d0 30 ff 74 e8 f3 68 bf 3d d1 e8 60 87 35 84 3f
       -0.0030459919143820194 0.009867723126355638
0002c0 d5 4a 75 fc ae 55 84 bf 05 f8 29 10 e6 ad 64 bf
       -0.009929053382312794 -0.0025243276043616114
0002d0 c0 a1 f8 c1 14 65 55 3f cc 58 5b 43 10 3e 81 bf
       0.0013058378898539308 -0.008419158034865502
0002e0 f9 16 ec 61 2c da a4 3f 5f 50 b8 a4 45 c5 9d 3f
       0.04072703070964496 0.02907284562941503
0002f0 0d 1d d7 5e b6 4a 88 bf ad dd 8e 30 13 65 91 3f
       -0.0118612525647124 0.01698713287234248
000300 0a c2 e9 dc 43 6b 93 bf b8 b2 c3 75 6e 77 9c 3f
       -0.01896387134405767 0.027799344957133626
000310 c3 be 9f dd f7 7a 98 3f 1d d7 6e 01 d3 55 9f 3f
       0.023906586553436037 0.03060083099599985
000320 d9 4b 49 c4 83 97 9b bf ab 50 04 b3 0b 76 98 3f
       -0.026945170264592953 0.023887808610269328
000330 f9 3e d2 dc 44 5c 8d 3f 35 32 52 a2 fa 53 93 3f
       0.014336145390444243 0.01887504211167564
000340 01 f4 76 63 f6 12 a0 bf 8b 68 44 cb fa 20 97 3f
       -0.03139467205208036 0.02258674493450789
000350 2c 04 0a 60 11 48 99 bf c0 05 ee 29 a9 26 9f bf
       -0.024688979613078185 -0.03042091673296965
000360 b3 d1 98 4d 65 16 91 3f 81 4d cb b0 c0 7c a2 3f
       0.016686995373861268 0.036108037549321466
000370 7f 62 28 09 72 c0 91 3f cc 7d 5b 94 c9 13 98 bf
       0.017335683640427476 -0.023512983016983388
000380 04 0e 0f 79 34 11 65 bf 09 c2 d7 87 e1 9d 81 3f
       -0.002571680532555966 0.008601915319531821
000390 35 cd a4 5d b6 da 5b 3f 12 c8 60 be 95 a4 7a bf
       0.0017000943103767212 -0.006504616676510382
0003a0 07 f2 b4 84 35 7b 6e bf 45 87 ef eb c9 ec 82 bf
       -0.003720860031221077 -0.009240701210675115
0003b0 40 cd b7 52 13 82 57 3f 97 be c3 37 ec a8 7e 3f
       0.001434821005088363 0.007485316015148811
0003c0 1f 41 1c 02 e4 6f 7f bf fa b1 b9 00 85 ea 73 3f
       -0.007675066621019049 0.004862327139204309
0003d0 13 11 f7 03 63 50 79 bf b7 5a e8 d4 09 ab 78 bf
       -0.006180178431751909 -0.006022489933931999
0003e0 b3 62 4e 58 a5 8c 75 3f d1 f3 74 33 15 ad 8d 3f
       0.005261083487220364 0.0144902855232604
0003f0 d9 8e dd 6b a7 2c 70 bf dc 5a 42 32 e4 19 85 3f
       -0.003948835363050762 0.010303290160931615
000400 89 58 63 81 91 f6 84 bf 78 1e e1 e0 a2 6e 6a 3f
       -0.010235916863546872 0.003226583597129292
000410 1e 1d 87 a1 42 62 99 3f ef e7 53 4a 4c fd 8c 3f
       0.02478889571082476 0.01415500261144939
000420 75 19 49 9b 0e 51 96 bf 24 22 f8 10 4e 97 9a 3f
       -0.02179358313358067 0.025967807565424064
000430 58 b2 1a 81 cb 2b a0 3f 62 cb 9c 9d 51 b6 8f 3f
       0.0315841288660052 0.015484464285327074
000440 31 51 52 49 c3 cf 9f bf 02 fc a7 88 36 62 9d 3f
       -0.031065989828293176 0.028694965449172834
000450 ed c1 65 22 9e 1b a0 bf 6d 4f 9c 8f d4 9b 9b bf
       -0.03146070642367591 -0.02696163298158132
000460 eb 0c 85 7f fc 59 45 bf eb 4f ee 1a ae 73 a1 3f
       -0.0006515963459964557 0.03408569411035941
000470 26 f7 79 20 6b 5f 91 3f e8 8f a8 cc 91 0c 8f bf
       0.016965555054858993 -0.015160693224125013
000480 d1 4f 1f 23 43 a5 64 3f 0d 06 37 6d 3e f7 74 3f
       0.002520209433876965 0.00511860261343734
000490 16 15 8d 2e 8d b2 62 bf 23 39 5a b3 cc db 86 3f
       -0.00228240561083005 0.011161421988870551
0004a0 94 c9 53 ef 61 2b 83 bf 6b 3f 4a 51 8a 65 83 3f
       -0.009360089412869844 0.009471016507887694
0004b0 3c 02 a3 7f 9f 32 83 3f 87 7d af ae ae f1 7a 3f
       0.00937389953867395 0.006578142502774559
0004c0 b1 24 ae 4a 3b 89 89 bf ed db b5 f1 e3 de a2 bf
       -0.012468779770431789 -0.036856768851912004
0004d0 f7 47 66 72 00 43 74 bf d1 bf 22 41 9b 3a 87 bf
       -0.004946710343931563 -0.011342251706395164
0004e0 e9 ad 4b 42 e4 83 6d bf 4e f1 41 00 0d 7e 8c 3f
       -0.0036029298956827727 0.01391229779277894
0004f0 95 68 fa 3a 34 c3 5b bf 47 fa 4d b8 c0 24 5b bf
       -0.0016944894850099747 -0.001656711772028212
000500 8b 11 30 99 59 19 82 3f 85 11 74 61 fa ff 69 3f
       0.008837413775844257 0.0031738176581958565
000510 75 42 e8 57 56 72 57 bf 7c 92 1d e1 ef c4 4f bf
       -0.0014310687253137587 -0.0009695216451573586
000520 16 3d e4 f0 59 26 55 bf 3a e4 0a e1 1d 66 72 bf
       -0.0012908819513233797 -0.00449191733849213
000530 38 35 14 35 99 e9 69 bf f5 c9 8c cf ae c2 60 3f
       -0.0031631462412692567 0.0020459570190720596
000540 42 2f de 11 1f 5c 7f bf 7b d9 96 c6 11 df 64 bf
       -0.0076562131561209185 -0.002547774046173843
000550 9c fd 06 6b 1f e2 42 bf 29 3d d8 db 1e f5 38 bf
       -0.0005762723358699209 -0.00038082126033685493
000560 e3 d4 64 d4 5d aa 83 bf f8 f5 5b 45 af 8b 72 3f
       -0.00960229210304892 0.0045277449150922175
000570 5b 45 17 b0 a3 47 60 bf 14 79 72 59 1f e7 87 3f
       -0.001987285330621686 0.011671299855433172
000580 c5 7e 2b fc 6b db 85 3f 3e 5a c5 9f b3 68 79 bf
       0.010672420151819914 -0.006203366905842387
000590 83 72 e3 f8 95 2e 84 bf e3 a5 51 39 25 98 74 bf
       -0.009854480417226036 -0.005027909665935112
0005a0 94 67 72 50 ac b2 7a 3f 90 b5 ac 68 20 77 93 bf
       0.006518052198908015 -0.019009119404633845
0005b0 3b 27 f4 c4 21 65 ed 3e b7 de dd e1 99 52 8a bf
       1.4016650452325723e-05 -0.012852861600307504
0005c0 99 3f 61 ef c6 8e 4a bf 23 db d5 56 36 07 85 bf
       -0.000810477386730557 -0.010267662549023953
0005d0 bf 88 b0 50 02 96 7a 3f f5 f0 9e 3f d7 99 95 3f
       0.006490716022229558 0.021094668634518993
0005e0 e0 93 e5 4d 88 c8 92 3f 9e 2a b5 dd f0 31 75 bf
       0.018343095545237165 -0.005174580462446924
0005f0 cc 21 37 a0 05 06 6a bf d3 ec d4 ac 1d eb 83 3f
       -0.0031766996268951294 0.009725791775613868
000600 58 45 72 bd 4f eb 71 3f 70 37 69 a4 c9 93 93 bf
       0.0043748011440965726 -0.019118452701426703
000610 31 ca 03 64 95 df 6c bf c9 bd f5 15 4f fb 87 bf
       -0.0035245816981100066 -0.01170980249182109
000620 11 a1 e6 24 26 01 8a 3f 9d 7a c2 e2 77 ea 7a 3f
       0.012697504044652893 0.00657126264937227
000630 99 a3 bd 86 3b 02 74 3f 9b d5 1e a8 62 f1 71 bf
       0.0048849416014967945 -0.004380593660177646
000640 d8 53 7a c0 d7 62 5f 3f b7 a7 af 8f b7 5a 65 3f
       0.001915655799085805 0.0026067338162549486
000650 86 2a 82 2b a7 48 4f 3f 30 98 24 36 5a c4 83 3f
       0.0009547058352990668 0.009651856210052129
000660 3e 1a a4 30 be 62 93 bf 50 74 50 7c 36 2d 93 bf
       -0.018931361883938395 -0.018727160775700746
000670 e2 04 c1 80 c4 4f 41 3f dc 66 93 c4 13 2d 78 bf
       0.0005283078658139507 -0.005902363985308159
000680 ac c1 d2 ea 7d f4 90 bf 0d 51 27 04 88 59 8f 3f
       -0.01655766244647487 0.015307486178166596
000690 3f dd d4 5d 43 12 90 3f af 56 c0 e2 b1 14 87 bf
       0.015694668390293428 -0.011269941074753957
0006a0 d6 ab 94 b5 51 25 94 bf 81 2d a8 45 f4 28 84 3f
       -0.019673611362275377 0.009843738914262047
0006b0 72 29 9a 62 b7 e2 8e 3f a5 b1 76 3a 88 a6 98 3f
       0.015080864616966425 0.02407276970704832
0006c0 3a 03 7a 0a f1 18 8f bf b5 ca 03 d7 c1 ad 92 3f
       -0.01518429101202089 0.018240956066572795
0006d0 55 e8 01 05 ab d4 91 bf b9 4b 57 19 e2 24 99 bf
       -0.01741282671034868 -0.024554760739032597
0006e0 6e 28 a3 55 36 e4 8a 3f 10 c2 f4 32 47 c0 96 3f
       0.013130592812007982 0.022217857823479348
0006f0 8f e4 ed 6d 55 40 91 3f 62 ed 7a 04 ca 02 7a 3f
       0.01684697612242708 0.006350316172468369
000700 64 08 2f bc 2c aa 4a 3f 82 bd 70 fe 6f c9 a0 3f
       0.0008137434418744702 0.032786845979326365
000710 4d 88 bf e6 91 3d 83 3f 2d 17 a1 e4 18 a9 a2 3f
       0.009394779066443837 0.03644635954746742
000720 00 26 8a 59 81 12 91 bf 89 60 eb 36 75 1c 10 bf
       -0.016672154512468396 -6.145921154698994e-05
000730 cf 71 03 08 4b 62 8a 3f 6e 08 46 b5 0b b7 9d 3f
       0.01288279169278264 0.029018576563892777
000740 2f c0 46 6b 13 e2 92 bf 13 2f 44 ad b1 07 7b 3f
       -0.0184405359484005 0.006599134492954811
000750 38 0b 30 6c 91 47 85 bf 83 25 74 73 75 35 9b bf
       -0.010390411485791881 -0.026571116611227474
000760 fa d8 a9 49 33 c2 95 3f 02 f3 a2 f3 28 3d 99 3f
       0.021248628016530248 0.02464736926116285
000770 1e 58 2f 7a ff 7e 90 bf cd 4a 4b 4d 73 09 4b bf
       -0.01610945876367264 -0.0008251011846261647
000780 6e 4f 4d 99 fb dc 86 bf 80 e6 e7 2a 11 3f 95 3f
       -0.011163678756623798 0.020748394244924473
000790 89 72 46 d7 26 a0 99 3f ad 07 61 69 c2 34 9f 3f
       0.025024992837290348 0.030474698716950566
0007a0 5d cc b0 7f 03 83 97 bf ee f0 29 f1 21 4f 97 3f
       -0.02296071497785267 0.02276280435988636
0007b0 f0 b5 57 96 06 0a 9c 3f 85 c3 ac 9a 15 22 93 3f
       0.027381995130715653 0.01868470913467803
0007c0 7f aa 83 51 f0 35 9c bf fb 57 27 2c 89 65 93 3f
       -0.027549509978522565 0.018942015952994478
0007d0 35 b8 15 24 e6 9e 97 bf a3 87 aa d1 36 ac 98 bf
       -0.023067089035457584 -0.024094444796567093
0007e0 49 c0 bc ba 98 f0 77 3f d0 a4 0a 4b d6 0a 9c 3f
       0.005844685172448357 0.02738509018914642
0007f0 33 cd 55 d4 ea f4 8f 3f 1c 1e 6b 73 fc b5 82 bf
       0.015603861432032495 -0.009136173507967853

gru.bias_ih_l0 f8 [48]
000000 e5 b4 3f be 18 11 b0 3f 10 c3 eb e4 13 4b ac 3f
       0.06276087422130024 0.05526029748387462
000010 67 45 8d bd ff 5a c3 3f 85 1a 5e 6c 7d 22 4a 3f
       0.1512145686670394 0.0007975685518751418
000020 c5 7d f7 0d 37 a5 b8 3f 56 2d 34 30 45 b8 c0 3f
       0.09627098170266553 0.13062348226263037
000030 24 3e 96 29 d4 bb 90 bf f9 16 cf c7 21 b2 77 bf
       -0.01634150985552031 -0.005785114245502981
000040 cb fb c6 df 97 bc 80 3f 5d 08 a9 87 7b e4 90 bf
       0.00817221309341489 -0.016496591715857146
000050 6d 61 d3 c7 10 50 a3 3f 8a ab 41 4c 37 f6 95 3f
       0.037720226662432 0.021447052029923287
000060 a2 8d 2f 68 53 2b 70 bf e8 9e a9 98 2e 96 a3 bf
       -0.003947568710802514 -0.03825517285878083
000070 52 e8 13 3c 59 e2 b6 3f 5f 97 08 ac de fb af 3f
       0.0893913051294544 0.06246848917025604
000080 88 29 b4 df 9f 51 c2 bf 46 da d7 c2 17 04 dd bf
       -0.14311598227534383 -0.4533748057141661
000090 7e 97 ef 5e 54 36 d1 bf 7c ca a6 47 b1 ac d6 bf
       -0.2689410140140963 -0.35429031369418573
0000a0 5e a3 e9 42 e1 92 d2 bf d3 24 8f 22 51 bf c7 bf
       -0.2902148393100584 -0.18552602946718952
0000b0 cb f6 25 53 78 16 cc bf 9c 00 6e 44 93 e7 da bf
       -0.21943573055243912 -0.42038423235499933
0000c0 3a de 0a c1 93 31 ca bf 88 57 a6 6d 44 cc c5 bf
       -0.20463797498608632 -0.17029624322884396
0000d0 20 d2 3e 41 d1 46 d3 bf 30 6a 86 9c 4d 8b ce bf
       -0.3011973511850403 -0.23862619536233032
0000e0 ee a4 55 d6 8c 73 cf bf d1 48 6b b0 6e b1 df bf
       -0.2457138105922136 -0.4952046130030228
0000f0 85 15 9e 35 ae d2 d2 bf 3b c6 78 4a e3 00 c6 bf
       -0.2941089175804666 -0.17190209518735053
000100 14 ae c9 79 82 e4 b2 bf 21 88 dd 7c dd fa be bf
       -0.07379928086600557 -0.12101539896460213
000110 32 a3 73 1b d0 55 a1 bf 4d 12 63 7b 3c 9a b2 3f
       -0.03385782561401242 0.07266595852258569
000120 23 44 8d 15 5e a3 ae bf a6 98 a8 68 bc 8d c7 3f
       -0.05984014523586036 0.18401293859750928
000130 a9 1a fb 8f 68 59 c6 3f 2e 6c ea cd eb 70 ba 3f
       0.17460352926555814 0.10328553941001026
000140 e9 04 64 8e 81 f4 c9 bf fa e3 7d 6b 16 53 ba 3f
       -0.20277423336668868 0.1028303158217482
000150 59 bf 3e db eb 73 c9 bf a7 78 e5 94 e5 52 ba bf
       -0.1988501377613783 -0.10282740483441676
000160 3c 33 dc ec 07 a7 b4 bf 8b d5 07 40 69 2d b9 bf
       -0.08067369015425369 -0.09834916890380023
000170 aa 1a c5 a1 96 ed c7 3f f5 b7 f4 b7 74 77 c7 bf
       0.18693812273905525 -0.18333300573561898

gru.bias_hh_l0 f8 [48]
000000 16 be 90 b2 59 92 a5 3f 55 8d ff 54 7a bb be 3f
       0.04213218979600357 0.12004818511154743
000010 32 cd 37 31 f6 b4 aa 3f 19 d6 de 3a 3c b2 53 3f
       0.05216187811665875 0.0012021625693540204
000020 a6 a4 78 f8 e3 f5 b7 3f 39 1e 9e 03 a4 ce 96 3f
       0.09359574142640045 0.022272646637729408
000030 4b c2 02 db c9 1e 90 bf b8 13 48 6c 28 a6 84 bf
       -0.015742448799473768 -0.01008254604767865
000040 dc f1 d3 53 01 c6 8b 3f 1f 22 68 56 04 ab b1 3f
       0.01356125866959073 0.06901576146641063
000050 59 3b b4 02 9f e0 a1 3f 26 c8 5d 71 f7 49 94 3f
       0.03491684825905023 0.019813410085994708
000060 43 95 e4 0a f0 13 70 bf ea 67 dc b5 54 f1 a0 3f
       -0.003925264040195944 0.03309120864851407
000070 96 7c 4e 9e 60 e7 b5 3f 1f 97 57 2d b8 fe ad 3f
       0.08556178917796084 0.05858398011677778
000080 d7 6e fa f4 62 d2 c1 bf d3 56 8e d5 0c 16 df bf
       -0.139232987993515 -0.48572083334998445
000090 c6 f2 31 12 68 d1 c5 bf 8f 0b 8c 0b dc 54 d6 bf
       -0.17045308006699694 -0.34892941596643196
0000a0 80 f4 24 70 8e 2d d1 bf 99 d1 31 46 d6 0d cb bf
       -0.26840554191205257 -0.21135977199049874
0000b0 7a 5a 24 f4 6a fd c2 bf 91 28 b3 9f 9a 9a d9 bf
       -0.14835869713779798 -0.4000612792557457
0000c0 44 6a cb 04 ef 2f bc bf 32 0e 4b 80 06 d0 c8 bf
       -0.11010640971236635 -0.19384843124690715
0000d0 f2 ad 35 6b 63 d8 d0 bf 6b 38 87 62 7d 48 d2 bf
       -0.2632072970361313 -0.2856744253339289
0000e0 48 6d df 0b 37 7c cf bf 00 c1 86 e1 bd 80 db bf
       -0.24597824172711058 -0.42973277114926134
0000f0 11 65 2f 3c 4c 9b c5 bf 6c 4f 9d ca 85 6f c5 bf
       -0.16880181254126872 -0.16746590035711095
000100 56 e6 66 bf 35 ed c4 bf bf fc 09 f9 5b d8 d3 3f
       -0.16348907323645062 0.31008052177635287
000110 19 c3 29 5b 0f ee d3 3f b0 2d c5 68 11 c5 8b 3f
       0.31140502836847045 0.013559471139749174
000120 77 be 85 2f 52 cb b3 bf 34 24 19 ac c5 11 c0 3f
       -0.0773211828252388 0.1255423631976399
000130 4c f9 e9 03 6e 1d 95 3f eb f1 78 85 60 ac 85 bf
       0.020620078076256917 -0.010582689355140359
000140 a4 e2 76 02 86 57 a1 3f 9f 6c 6e 53 c9 96 c4 3f
       0.03387087612231213 0.1608516366366972
000150 c7 6b b6 31 bb e7 9b 3f df bf 69 1f 01 e9 bd bf
       0.027251171979155744 -0.11683661477013584
000160 50 1b 26 7c 38 47 a7 bf 1b 52 f3 22 c0 f3 c9 3f
       -0.045465245394601284 0.20275117594305034
000170 01 51 f2 44 05 ce b1 3f e7 ca 22 9e 34 dd aa bf
       0.06954987462296815 -0.052468914321613096

gru.weight_ih_l0_reverse f8 [48, 48]
000000 9a 3b 1e 00 b5 9f 94 3f 4b 9a 87 33 09 da 99 bf
       0.02014048398228461 -0.025245803613780187
000010 b3 86 55 46 51 82 89 bf f6 eb fb 52 36 aa af bf
       -0.012455592116285307 -0.06184549105633856
000020 ed fe 0b 21 cb 41 97 bf c0 1a 84 59 23 11 98 3f
       -0.022711919681568316 0.023502876604676315
000030 f9 ed d8 cf 14 40 78 3f 9b d1 2a fa 3f a6 9d bf
       0.0059204876866334405 -0.028954505580900052
000040 76 83 c8 ae d1 7a 7e bf 5d 12 47 d2 ed d0 91 bf
       -0.007441348145705065 -0.017398563346221575
000050 92 11 1d 29 ac 5c 92 bf 7f 9a 4c a8 2f cb 91 3f
       -0.01793164254128638 0.01737665619580264
000060 f3 a2 fc 68 79 4c a5 bf bb 61 38 76 ef cd 89 bf
       -0.04159907728746317 -0.012599821849151085
000070 43 b4 c5 05 b9 a9 89 3f e5 e4 93 ed b3 49 42 3f
       0.012530751694351255 0.0005581024699089747
000080 3b ef 29 38 5d da 95 3f 9b d5 73 52 33 33 91 3f
       0.02134080558106109 0.01679687681913365
000090 98 71 01 fe a5 60 82 3f 7a 6b 10 07 3d 98 86 3f
       0.008973404707085561 0.011032559183197444
0000a0 80 fc 7d fc c1 12 9f 3f 89 d2 fe 7b 8f bc 8c bf
       0.030344992671868187 -0.01403152558473521
0000b0 09 0e f4 ab 14 43 90 3f 9b da 13 0a f5 59 9f 3f
       0.01588089274902241 0.030616596927723987
0000c0 7f 7b a4 00 d1 b2 2a bf 3d a7 b8 06 fe 0f 7d bf
       -0.00020369340229195104 -0.007095329561289718
0000d0 ae 1d a4 f2 ed 91 78 bf a2 73 9f 18 4f 2b 8b bf
       -0.005998544200572038 -0.013266199053697584
0000e0 d4 c5 9c be 87 0b 57 bf c5 e5 81 f4 7d 9c 66 3f
       -0.0014065576201115386 0.0027601680813489093
0000f0 f3 7a 24 9f e8 c0 6a 3f 2a 6e d4 74 3b 22 ac 3f
       0.003265814150963714 0.054948671351862835
000100 22 16 c8 60 a3 d1 56 bf cf 51 3f 16 eb 57 a2 3f
       -0.001392755078201254 0.03582701345991134
000110 cd ca bc 11 52 21 8e 3f 86 cc f3 c8 7d a5 9f 3f
       0.014711991468720065 0.030904736890942995
000120 38 55 8f d6 fe a7 a3 bf d3 5e 3c cc 45 20 a6 bf
       -0.038391078654664346 -0.043214970761423686
000130 b3 2f 65 bc e7 18 8e 3f 9d be ff 67 65 5b 86 3f
       0.014695940434329069 0.010916511760995557
000140 93 0f e6 1e 29 dc a1 bf b2 c0 a2 5f da 3c 78 3f
       -0.034882817289172106 0.005917408963952807
000150 38 ae 77 81 c4 35 89 bf 17 4f c9 21 1e b7 83 3f
       -0.01230958480933629 0.009626613050535178
000160 ea fb ca f4 31 b2 89 bf c5 84 2c 3d 59 7f a3 3f
       -0.01254691150950112 0.038080967633740616
000170 59 3d 30 32 1e a4 7a bf be 47 8e b4 e5 9d be bf
       -0.006504171326937446 -0.11959682138538505
000180 f3 7d fc b2 34 b9 ac bf 67 c6 a9 2d 55 16 94 bf
       -0.05610050854579276 -0.019616442596492336
000190 01 bf 61 3b 26 bc 99 bf 4b 73 87 95 9c 09 8a bf
       -0.025131795286539752 -0.012713645280138094
0001a0 38 1b 3c 0d 8c 14 a7 bf 86 97 5b af 55 fc 94 bf
       -0.04507863675649165 -0.02049383051680522
0001b0 e5 4a 9e c7 b8 22 91 bf 49 36 1f 31 5f 94 b0 bf
       -0.016734015640007 -0.0647639746595924
0001c0 06 4a 23 a9 73 d4 8f bf 2f 51 0f 29 57 18 86 3f
       -0.015541938399484156 0.010788613262697836
0001d0 73 58 2f f9 e6 ff 58 bf af 05 ba 97 20 14 72 bf
       -0.001525855598392603 -0.004413726153531013
0001e0 5a c1 ca 20 3d 58 ac bf 03 41 12 9d 1e 5c 94 bf
       -0.055360708477908374 -0.019882658326026547
0001f0 d2 0e c1 cb eb d6 75 3f a4 1c fc f6 30 c9 9c bf
       0.005331917836943938 -0.02811123378253612
000200 d7 b9 2e 53 ab 4e 80 bf b3 cb a3 e0 38 ab 8e bf
       -0.007962549663571501 -0.014975017886603803
000210 f4 e5 8f c2 36 36 a3 bf 63 2c fa 3a 4b 1c 9f bf
       -0.03752299428010622 -0.030381370043454214
000220 4b e6 44 eb ce a9 7e 3f 0f 25 68 66 df de 66 bf
       0.007486160542890706 -0.002791820839097021
000230 24 3e 8e 99 2c 74 99 3f d5 e0 e4 24 2a 82 aa 3f
       0.024857231972019403 0.05177432728163615
000240 8d dd b8 21 07 91 ac bf 86 34 02 0c 53 e0 7b bf
       -0.05579397474906065 -0.0068057292957181045
000250 a8 a7 21 06 15 96 68 3f 7c b3 76 00 38 d0 99 bf
       0.0030012522338908783 -0.025208354023266363
000260 13 05 8e 0e 84 f2 a5 bf 86 5f 4f fd 59 26 8e bf
       -0.04286587407751532 -0.014721587222012788
000270 45 40 75 9a 7c 27 88 bf 12 6b 19 e4 3a 8d 8c 3f
       -0.011794064963993498 0.013941249929464248
000280 a3 ef 95 0f d9 5f a3 3f 1a b4 a9 cc 21 a5 8c bf
       0.03784063639883974 -0.013986839350048231
000290 4d dd a5 f5 0f 29 36 bf 18 58 7b 5d bf 93 b2 3f
       -0.0003381408656859167 0.07256694824477028
0002a0 ac 89 06 9f 91 09 a3 bf 25 f4 0f 9c ad 8a 8e 3f
       -0.037182379400536675 0.014912945103782669
0002b0 64 55 90 2d 34 f6 55 3f fb b0 df 99 16 4f 69 bf
       0.001340437846243014 -0.003089470045770535
0002c0 da f4 61 5c 77 57 97 bf 50 04 4e 2b 25 58 73 bf
       -0.022794594777668965 -0.004722733680751892
0002d0 cb 38 d1 b3 02 d4 72 3f bd 51 08 17 df 2c 5d bf
       0.004596720272344433 -0.0017807177174563448
0002e0 90 2c 7f 26 2f 39 93 3f e3 38 83 f0 b5 84 8b bf
       0.018772827839523887 -0.013436719324456841
0002f0 62 9e 6b c9 31 ff 67 3f 9d d9 43 be 35 e5 a2 3f
       0.0029293033979802966 0.036904983020508576
000300 de a0 03 18 6c be 7b 3f 65 28 07 85 ff 26 60 3f
       0.006773397675921637 0.001971720754430572
000310 aa 4d 05 b2 b1 fb 43 bf 6e 98 04 0e 09 90 7e bf
       -0.0006098382619178961 -0.007461581583163219
000320 4d 32 3e bc 4f 69 59 3f b0 a1 6e 47 ab 8b 80 3f
       0.0015509871163629397 0.00807889758819233
000330 1b 4e 76 25 7f 40 83 3f 3f 36 a4 9c b9 a1 75 bf
       0.009400361376527269 -0.005281186148079763
000340 3c f2 d3 e0 47 02 65 3f 10 64 97 e6 72 24 84 bf
       0.0025645641204603813 -0.009835145628061454
000350 4c cd d5 b1 20 6b 8a 3f 43 ae 17 ab a9 22 a3 3f
       0.012899642397974496 0.03737383092433479
000360 ff 88 87 6e 36 59 85 bf 7f 54 d4 66 90 89 81 bf
       -0.010424065826502458 -0.00856316388903111
000370 8f 05 02 6e 0c b5 75 3f 3f 0b b1 46 18 e0 6e 3f
       0.005299614480578709 0.0037689661162700057
000380 d9 e2 3c 0e 24 7d 3e 3f e2 69 46 47 42 58 4c bf
       0.00046522264732433216 -0.0008650134682739975
000390 76 74 6c 50 a9 a4 7c bf f5 89 ed 9b fe f6 80 3f
       -0.006992970832269232 0.00828360474924226
0003a0 b9 f2 12 6d d6 c9 99 3f 2f 4a a6 a3 76 ec 73 3f
       0.025184011847829455 0.004864180979341755
0003b0 1f 48 9c 07 3b 8c 88 3f 93 1b 28 b8 93 75 84 3f
       0.011986218614342957 0.009989885385051333
0003c0 e9 4e 17 57 46 84 21 3f de af 41 72 8a 5c 76 3f
       0.00013364180226337695 0.005459347539822771
0003d0 89 21 9a df d4 58 7f bf fe fd d5 a3 58 35 93 3f
       -0.007653075730225453 0.018758187293768096
0003e0 07 3d df d9 ba d7 64 bf 81 b1 16 4f 31 74 8a 3f
       -0.0025442742762390477 0.012916932321638043
0003f0 98 e5 2b a6 cc 45 75 3f f0 ad 10 86 fd e7 81 3f
       0.0051935190301660925 0.008743267682880224
000400 d0 78 54 71 cf 3f 87 3f 82 5e 5d 86 0d c7 8b 3f
       0.011352177282386938 0.013563256896005575
000410 21 39 0d 63 ac c6 91 3f ef 5e 1d 98 0f 73 75 bf
       0.01735944132388412 -0.005236683764301849
000420 ac 78 4e ff f6 fa 8d bf 06 7b 05 e9 a6 b7 92 bf
       -0.014638833681427897 -0.01827870175599868
000430 d5 db ca b9 1e 33 72 3f 93 fa 85 e4 f3 d4 53 3f
       0.004443283102481173 0.0012104398502682842
000440 93 f5 ef df 90 5e 78 3f 6b 34 86 99 3b b8 95 3f
       0.0059495600862623675 0.021210604901672186
000450 df 88 8e 4d 45 2e 87 3f 3b a2 80 f4 8d 44 93 3f
       0.011318723134369822 0.018816202209708015
000460 32 e8 06 88 13 36 47 bf cd b1 6a 57 b7 73 61 bf
       -0.0007083506935068372 -0.002130373085796422
000470 05 10 7a 98 a9 60 81 bf 88 44 00 e4 58 72 ab bf
       -0.008485150304530018 -0.05360677512374773
000480 cc 4e c8 f3 db 39 73 bf 96 91 66 03 81 04 33 bf
       -0.0046938506971121 -0.0002901854490125142
000490 10 d2 1e a1 9a 89 86 bf 3c e8 4b 67 55 5b 8b bf
       -0.011004646341327834 -0.013357798781260859
0004a0 18 3f 92 c5 88 ce 8a bf d2 b4 25 72 6d be 67 3f
       -0.013089245347401454 0.0028984201064107063
0004b0 3f 84 c0 ce 0b 95 51 3f d2 94 95 da 90 bb 8b bf
       0.001073133021243913 -0.013541347189582362
0004c0 12 8f 35 c4 2b 94 9a bf 97 f9 e2 84 60 1e 8e bf
       -0.02595585236612325 -0.014706377082231365
0004d0 d7 94 37 5e 89 17 8f bf c3 e8 82 98 38 87 5d 3f
       -0.015181611240175403 0.001802258748326
0004e0 02 65 73 81 a5 38 a0 bf c2 ef b7 7a 24 3b 95 bf
       -0.03168217854699586 -0.020733423223631815
0004f0 f2 02 1f d1 59 2f 79 bf 9d 78 0b 1e 08 6c 95 bf
       -0.0061486729118207396 -0.020919920762815115
000500 ae b0 d1 51 b6 4a 8e bf 37 cb 83 0d 39 3d 88 3f
       -0.014790939685746043 0.011835523343028604
000510 5a 2a 7a c8 5e 86 83 bf b1 c5 d4 4b dd 23 79 3f
       -0.00953363465602768 0.006137718618718522
000520 79 2d 6c 48 0d c3 7a 3f 23 03 2f ec 97 7a 50 3f
       0.006533672224360181 0.0010057910555902403
000530 67 a9 bb 89 61 9f 83 3f bb 0c 2f cd 3a 58 89 3f
       0.00958133889749453 0.0123753160349963
000540 b7 eb f3 b3 97 2e 92 bf fb cd cf 4e aa f9 7d 3f
       -0.017755861624191484 0.007318177475997607
000550 35 aa 4a 1c 42 71 66 3f 85 63 72 a8 ee aa 79 bf
       0.002739552614305719 -0.006266529329104102
000560 a2 cd 18 8d 20 6b 92 bf 20 75 3e ea f8 44 88 3f
       -0.017986782657499874 0.011850304268416212
000570 ef 6a ff 40 6b 9d 5c bf b2 cd c6 12 27 74 8e 3f
       -0.0017465159798947768 0.01486998106051982
000580 a0 96 43 67 b8 79 83 3f 6f 4a b2 86 8b 7e 92 3f
       0.009509506846778593 0.018060855957239882
000590 d7 00 f2 b4 8b 5c 8d 3f 11 f7 fd 4f 31 3b 6c 3f
       0.014336673221123792 0.0034461939939650706
0005a0 41 f1 da 9b 09 87 75 bf 6e b9 5d c2 81 4d 8a bf
       -0.005255734953319825 -0.012843145126421898
0005b0 bb dd a3 6c b9 f2 71 bf 82 2d b5 d4 77 dd 84 bf
       -0.004381870569197084 -0.01018804185755218
0005c0 51 8a f6 cb ee 2f 90 bf 3b e1 3e c7 4d 55 77 3f
       -0.01580784912006045 0.0056965864386529464
0005d0 87 75 ad b1 f2 d5 50 3f 47 a2 c2 33 2f ac 80 3f
       0.0010275716837989406 0.00814091564855447
0005e0 9a f9 2c 36 20 1b 84 bf 5f 21 69 b0 32 50 61 3f
       -0.00981736340838495 0.002113436700970236
0005f0 71 23 16 0b f7 4d fb 3e 60 bc d4 5f 7f 26 a2 bf
       2.6039648849205053e-05 -0.03544996304332737
000600 56 ef a8 fb 65 c2 8c 3f 83 67 4d 78 a8 2b 9b bf
       0.014042660467673034 -0.02653372988002146
000610 d1 d2 dd 22 23 2c 9d 3f c7 77 d9 a9 33 d6 8c bf
       0.02848868274982658 -0.014080432530302901
000620 e7 88 48 f3 a9 9d a0 bf b5 ff 70 50 cb 62 a1 3f
       -0.03245287985579797 0.03395686490011888
000630 ad 23 38 91 e5 69 a4 bf cf 76 21 25 09 bf a3 3f
       -0.03987042806335892 0.038566861898954856
000640 fd d3 a1 09 1b 77 a5 3f d0 6d 38 09 a5 87 a8 3f
       0.041924328733252005 0.047909886718311534
000650 a0 c8 69 92 99 cf 96 3f 4e d9 87 f0 d6 4a 5c bf
       0.022276305734017954 -0.0017268275279299253
000660 71 6b ef 59 05 94 68 3f 76 a5 5c 6f 08 61 9c bf
       0.0030002693670047533 -0.027713901326170874
000670 59 cc 59 27 d1 7b 76 3f 89 a2 bb f0 b3 15 32 3f
       0.00548917484921948 0.00027595179629583876
000680 7d 31 e8 31 ad 64 8f bf 2b 25 5a 80 e2 8a 8f 3f
       -0.015328744016209534 0.01540162042808165
000690 4e f3 f7 b3 a9 ff 9b 3f 57 b0 34 be 61 24 88 bf
       0.027342464074524835 -0.011788142792816965
0006a0 ec a8 03 bf 13 84 62 3f bf a5 47 9b 00 74 aa 3f
       0.0022602449099525714 0.05166627784258137
0006b0 33 3d 22 82 a1 67 9e 3f 87 f1 45 4e f8 84 9b 3f
       0.029692195480092564 0.02687442758313943
0006c0 44 ef 93 ee 45 63 91 3f b4 18 e6 06 33 c3 9d bf
       0.01698025959647899 -0.029064938827581613
0006d0 06 2a de 1c bb fd 75 bf c6 9f de ac 2b 13 91 bf
       -0.00536892977641879 -0.01667469256031475
0006e0 79 e4 7f 25 55 ba 81 bf fb 03 29 01 1c 83 89 bf
       -0.008656182486435281 -0.01245710257092191
0006f0 82 1f f6 9a a0 81 a2 bf cf 35 5d 77 01 36 97 3f
       -0.03614522830599666 0.022666953001410136
000700 b6 d2 bf 36 8d 26 90 bf 94 42 e7 9b ee 0f 8e 3f
       -0.015772062746651293 0.014678825505059202
000710 f1 68 60 fe 4b f0 82 bf 9c 86 90 a2 63 a0 a0 3f
       -0.009247392368753245 0.03247367247992125
000720 47 c8 6f db 7a 92 88 bf 28 35 ba 5e c2 08 90 bf
       -0.0119981382576705 -0.015658413917255448
000730 af aa f5 ff 50 8f 76 bf 13 43 19 b6 d0 c0 8f bf
       -0.005507770925172891 -0.015504484708033261
000740 fc 0e 91 ed b1 3d a3 bf b2 3b 61 1d ff 28 90 3f
       -0.03758007073386513 0.015781389396859864
000750 6b ac f9 6a 02 88 79 bf 8c af 27 b9 8f ac 90 bf
       -0.006233224339307157 -0.01628326957317898
000760 bb 4e b5 7e ec 04 94 bf c9 92 37 24 48 de 67 3f
       -0.019550032838494085 0.002913609410585803
000770 50 e9 7b 80 ce 5d 9a 3f 85 76 60 f8 25 ba 8f bf
       0.02574846896366384 -0.015491768495901734
000780 06 4b d9 4b 91 a9 56 3f 2a 7b 7f ea 3d 2d 55 3f
       0.001383201495077814 0.0012925247810852782
000790 e8 75 47 8e 31 7f 87 bf 91 2d 50 7a 47 40 88 bf
       -0.011473071245684488 -0.01184135286350488
0007a0 d1 b0 01 13 bc c7 5e 3f 02 6c 6e 91 cf 57 68 bf
       0.0018786751425308621 -0.002971558958461796
0007b0 44 a6 ec 61 07 9c 70 3f 9d 61 82 7e 69 1c 7b 3f
       0.004055050695379207 0.006618892752293351
0007c0 36 a6 2d 96 d3 cd 60 bf f8 8e a8 18 4a e7 65 3f
       -0.0020512707282492005 0.0026737639611996676
0007d0 22 b4 37 47 ed d0 8c 3f f9 35 3b a7 15 7a 7b 3f
       0.014070371375931204 0.006708225806233419
0007e0 12 e4 3a e3 ea 2d 85 3f d6 79 25 ec ac 7a 94 3f
       0.010341486987600877 0.019999219811660605
0007f0 53 fc 70 2a b8 cc 7e 3f 2c c7 a1 e9 bb 98 78 3f
       0.007519454381564722 0.006005033525171826
