dl_experiments/best_checkpoints/alibaba_1h_CNN_cuda:0_checkpoint.pt (torch, 978503 bytes, 24 tensors)

block_1.0.weight f8 [8, 1, 7]
-0.07717535908414572 0.1077796175917542 -0.20476924890071335 -0.06370519964134899 -0.26955337509834143 0.2960994769729833 0.29097890337808646 0.003200830316813228
0.0049501680121023 -1.2822789417505367e-05 0.0011531345647014428 -1.2083859190355335e-07 -0.00975860221251121 -0.04304400748926148 0.053802586855999264 -0.06660708280132287
0.13851354333386948 0.006286696919144508 -0.10913918995348827 -0.24793154242071724 -0.2265407061027863 -0.2491595393224643 -0.25963520902959464 0.009464249669566254
0.0644963525019866 -0.018497125890394192 -0.05276083065369574 0.21718016752041377 0.017144895420892828 0.12089838239286868 -0.028130151919220654 0.15863269937494365
0.23045223724922156 -0.020045432066602722 0.2900935227081199 -0.31087833666818804 0.11591874891007511 -0.0019615907690357513 0.2630846948327914 -0.1611340536458
-0.06054491872195004 0.18264087384765204 0.06486913511452724 -0.2343101475997494 -0.03446678474190186 -0.16707101299659272 -0.26085964736037526 0.2521811711971972
0.05797999401339022 4.519712926856283e-12 -4.088735771636521e-10 0.00800132701544247 0.0001008505507081099 -0.013003138550975296 -6.675580554945784e-09 2.330375832924793e-10
00000000: 6ece 52ab c3c1 b3bf 6c62 bbec 7197 bb3f
00000010: 68a5 a0f5 e035 cabf 6674 0be5 fb4e b0bf
00000020: 18b9 a4cc 5c40 d1bf f98b 7d38 4bf3 d23f
00000030: c76d 75fa 659f d23f 7bf8 fbb0 a038 6a3f
00000040: 4405 8c9b a046 743f 160e 15c2 2ee4 eabe
00000050: d4e5 91cf 98e4 523f 3d02 bc7e fb37 80be
00000060: 31f9 db6a 51fc 83bf 5b0a e938 dd09 a6bf
00000070: e132 f93d 038c ab3f 174b 506a 290d b1bf
00000080: ad05 56d1 cfba c13f 7472 ae5a 14c0 793f
00000090: f9e9 8fc3 8bf0 bbbf 3402 2c85 38bc cfbf
000000a0: ab4c f62d 49ff ccbf 352e 70b4 75e4 cfbf
000000b0: dd05 ebfe dc9d d0bf f6e7 7e16 fe61 833f
000000c0: f012 b53c d582 b03f 1cb3 131b e9f0 92bf
000000d0: bfb7 55b4 7703 abbf 6b84 6b4a 8fcc cb3f
000000e0: c419 8174 6e8e 913f b244 8446 32f3 be3f
000000f0: 6527 198a 26ce 9cbf 611f f287 134e c43f
00000100: 9b41 237b 757f cd3f 2718 a42c ca86 94bf
00000110: 0d05 346c e490 d23f 6d95 4140 6ee5 d3bf
00000120: c6df 8fe3 d9ac bd3f a1c5 6f06 c111 60bf
00000130: 80a3 1830 61d6 d03f 931e 5769 0aa0 c4bf
00000140: e512 b35b beff aebf dc54 0bb2 c660 c73f
00000150: f431 d67d 439b b03f ebea 87fa dffd cdbf
00000160: 0a8c 8762 a1a5 a1bf d208 773c 9562 c5bf
00000170: e491 90a9 ecb1 d0bf 425f bd7e bc23 d03f
00000180: f935 38c4 8daf ad3f 44ea 978e bee0 933d
00000190: 570a c7e3 fa18 fcbd 18f0 d8ee ff62 803f
000001a0: cc49 af44 f76f 1a3f a309 93b6 63a1 8abf
000001b0: 5184 98e1 e0ab 3cbe 8fd5 28f9 a303 f03d

block_1.0.bias f8 [8]
0.041273268357013095 -0.021093710854404188 0.1606826465595022 0.13698255660171288 -0.1609036089872765 0.04608862899659093 0.12270342087052316 -0.013394864129476904
00000000: d5b5 9513 c521 a53f ec72 15f9 9699 95bf
00000010: 3aff 00bc 3f91 c43f a008 5df8 a488 c13f
00000020: 1351 344d 7d98 c4bf fe02 84c4 ed98 a73f
00000030: 5408 bfcb 7d69 bf3f 4eb7 f63a c46e 8bbf

block_2.0.weight f8 [64, 8, 7]
-0.021531597524823504 -0.0205311604885365 -0.019209785800489595 -0.038443054474478204 -0.020359831506788235 0.019836327814198435 0.02834012302626283 -3.3537525553040764e-11
-6.300351106519662e-07 -8.298348700836212e-08 -3.789050226701491e-10 9.068974239815384e-12 4.669724803659139e-10 -3.173498872433483e-09 0.011953218281391266 -0.057717242590266456
-0.014452868423348397 0.008475022624545511 0.006189509007078522 0.00788646959537395 -0.026298479480487434 -0.004258148990725159 -0.006398594424832522 -0.014136799131635713
-0.010655884635185351 -0.006292833446083203 -0.021479995379241924 0.013721048260024484 -0.005170629340147914 -0.00930162441706154 0.0010384245770417007 -0.001098473891864559
-0.003062861528362051 0.0011401466710976838 -0.01342039042728253 0.030443432452209384 -0.023622694768396343 -0.012543927476325826 -0.01924325293470917 0.0178813529991136
0.009454531167194268 0.008311772750482846 -0.012922727222494443 -0.01312944243579189 0.006794841817123089 -0.0053701646938087285 -0.0002311873843659522 0.007877408035520398
-0.039813916014692585 -1.9288761107670794e-10 1.4320167957973583e-07 -2.710066975663611e-06 1.587938637077268e-07 -1.9721166156410602e-07 -8.165126763917098e-12 -2.3315269605909334e-10
0.05657921575968314 0.06023490503839756 0.01921174917858541 -0.02154758711162859 0.12352067153248925 0.012460590423290846 0.06018808383632834 -1.6044674686680852e-11
-9.190866807920465e-12 -4.7276974823531056e-09 -2.1341118758074834e-08 -2.9391764737113417e-10 -1.1080506379104827e-07 -2.213159165174978e-09 0.055205977832779494 0.0712609878482633
-0.021156563792544082 0.07969106932787749 -0.005717780193728837 -0.041236971205989174 -0.010933773271347638 -0.061705044511008354 -0.03469910754331842 -0.04910424669917721
0.031424740537716114 -0.0024115996828950968 0.10433952834107581 0.03542004375239534 0.019938967527814763 -0.06779793495117462 0.03426954267053954 0.07042574760018826
0.02323806167328895 -0.023541623603715228 -0.0199853305480039 -0.03977992058643499 -0.07333117122566529 -0.08397553392967745 -0.025806299844082423 0.022120101082723137
-0.04116909645951437 -0.048157447177782996 -0.036087629404454 0.07722413367172971 0.061648177995865444 -0.04233327884297811 0.07898485044665586 -0.021827241121541937
0.032132195349429946 6.797707319990635e-10 7.519047756720732e-07 -4.801313743986116e-10 -3.0401903672483043e-08 2.456478454399926e-07 -8.559870166984533e-11 -1.9062131133225245e-07
0.0001330409044453626 0.00013675244013984313 0.0018413288390258444 -4.449556488034123e-11 1.2254672178916867e-09 0.005387800734751904 -5.481339868046825e-06 2.094341916006465e-08
-3.722429441370801e-11 3.326423863409528e-12 2.611825352746514e-08 8.47232215533856e-09 1.0582367613339849e-10 9.110087715945974e-11 -2.3841286226291723e-06 0.0017225244327646037
0.005490971184438042 -2.9740868462958175e-07 0.0048324750718798095 -4.175721057994559e-06 -7.239738049006447e-07 7.691570924249329e-06 -2.086772572614926e-08 1.3694753016624413e-10
-5.920148918960016e-10 -3.320155728716479e-11 -4.996114436502104e-08 2.7119837606088217e-08 -3.9902409271838257e-10 1.5873073040914963e-08 -9.558812695820318e-11 -4.342399594736698e-09
-6.794731310558552e-08 6.060362232800564e-09 -2.2037914927520737e-10 0.00037443595046800357 2.2183071844177523e-09 5.552817045107116e-10 7.08864363385844e-05 0.00034795746115636123
-2.0352858157602396e-08 -5.639645562898142e-08 0.0016502080434494515 6.2545500996839e-09 -1.317840302452187e-08 2.395090611653411e-10 0.0002618736501192312 -2.090094681873827e-09
-2.1789259023453474e-09 9.292686159055651e-11 -2.90379379716855e-11 -3.5013295713664515e-08 -1.3344921157707251e-09 6.858801988312534e-11 4.476102354508254e-08 2.0091151638804952e-07
0.019118965741237712 -0.04085495519401734 -0.05269298314945693 0.0573234211367358 0.04231938356314929 -0.04841670063189445 -0.0009418511315160766 -6.127311030196894e-11
1.9881232276818434e-09 5.681879433751199e-11 6.192579425316373e-09 2.479230793045586e-10 2.1543964480539046e-07 3.679469678153077e-11 0.04055334709130561 -0.01534505111222037
0.105464217808583 -0.04859844743569979 0.0939846279221906 0.04736643386214354 -0.05749430089418252 -0.13952952453565223 -0.1213733595455393 -0.12779512984433922
-0.11794865635602104 -0.088078110071728 0.017962662220206108 0.01193379209112508 -0.02313143239435358 0.04617840391795539 -0.062363544561259025 -0.01804438268296564
-0.09988700012312035 -0.11858544833349517 -0.14402877688100912 -0.0913409504965166 0.05624301026068201 -0.05222962535335468 0.01261450953476154 -0.07431966452435734
-0.062205221266476624 0.00995813687069865 -0.12507373950238998 -0.05530127587471229 -0.08222571275997723 -0.02185540392758321 0.10017355197550624 -0.001905179483663621
0.017137103367254 6.2469907372443075e-09 4.931210169927332e-09 5.992644368863096e-10 -3.196430243434081e-11 -9.372594406629624e-10 5.77858919400814e-11 2.8387644709010905e-10
-0.1339415217263145 -0.11126174203957541 0.06966442850081953 -0.08616259980679444 0.02828485874674073 0.04731395620443363 0.03241577971658543 2.7917887267134918e-08
2.9903778076871366e-11 -1.3659534019935619e-10 -7.894542683845342e-10 3.034464950811199e-10 2.2747859437609002e-07 6.112247757088101e-06 -0.012275725798347679 0.04771400791991892
0.039664371139120226 0.054935254584871626 -0.10272337098078618 0.03676106361018987 -0.10276595827355742 0.028452989820843093 0.022826381566428522 -0.09097380921488513
-0.06641430598473635 -0.06879721165792514 0.05811852367892946 -0.013138372490199203 -0.14072961713713172 -0.10054969302562702 -0.015475347925403636 -0.06525699998331715
00000000: a88b cc0c 610c 96bf 3586 63db 1e06 95bf
00000010: ffe5 1ae7 baab 93bf 77d4 73db ceae a3bf
00000020: 6518 e529 35d9 94bf c559 f06c f94f 943f
00000030: d3e9 3f76 3105 9d3f 3008 5fb3 fc6f c2bd
00000040: 3300 32dc f523 a5be 1f34 2bf1 9446 76be
00000050: 9a07 d784 c409 fabd 8b39 a0ed 60f1 a33d
00000060: f633 568b 880b 003e fcf8 db0a 9942 2bbe
00000070: f4df cdcc ed7a 883f 1155 ae4a 1d8d adbf
00000080: 5381 b129 7799 8dbf d8d1 0a48 5a5b 813f
00000090: 291d 38ac 2b5a 793f 6fb9 f107 c826 803f
000000a0: 767f 3615 fded 9abf e1ad 812a fe70 71bf
000000b0: ae6a b89c 6935 7abf 1323 860f c1f3 8cbf
000000c0: df01 25a0 c0d2 85bf e804 9a9d 83c6 79bf
000000d0: 7a34 b016 dafe 95bf 6e61 59ec c719 8c3f
000000e0: 1999 a63e cc2d 75bf 541d 5ee5 ba0c 83bf
000000f0: 79a5 41e6 7703 513f c975 3a5c 55ff 51bf
00000100: 8675 1643 4917 69bf f67c 8f2a 1fae 523f
00000110: 16ba e04f 267c 8bbf 4378 0a2b 902c 9f3f
00000120: 2f05 e535 8c30 98bf c297 3172 a1b0 89bf
00000130: 1bca 17d8 80b4 93bf 1492 5b49 7d4f 923f
00000140: 6c01 4cb1 e55c 833f 65b3 1441 c305 813f
00000150: 45ae 5d16 3b77 8abf 5ef3 02ef 9be3 8abf
00000160: 0235 2d76 e8d4 7b3f 2fa3 be9b 06ff 75bf
00000170: 6268 9c82 5c4d 2ebf 8253 1ecf 0722 803f
00000180: 38e7 6a56 7d62 a4bf 1fae 9025 a182 eabd
00000190: f8a5 654b 5f38 833e 58fb 6d13 d3bb c6be
000001a0: 9d1f b698 1d50 853e b140 c41e 2478 8abe
000001b0: a59b 7cc7 8ef4 a1bd 7fc2 2465 aa05 f0bd
000001c0: fc6f a472 f3f7 ac3f 0f67 6f06 1cd7 ae3f
000001d0: 2c15 afa9 3eac 933f f401 cf17 9210 96bf
000001e0: 00ac 9cfc 0c9f bf3f 83e6 da22 f084 893f
000001f0: 1033 5ff7 f8d0 ae3f beed b0a7 2ca4 b1bd
00000200: 477c a47f ff35 a4bd 83e3 ea89 284e 34be
00000210: 5136 f2b9 33ea 56be 7fd5 3c68 a732 f4bd
00000220: 7508 004c 77be 7dbe 29bc 54d9 c902 23be
00000230: 33c5 ab3a f543 ac3f 41f8 49fc 283e b23f
00000240: 6abf 56f6 10aa 95bf 97e7 8b48 a266 b43f
00000250: 9827 01ef 866b 77bf 977f 6e25 031d a5bf
00000260: 5b81 fa34 7264 86bf 2394 58b8 cd97 afbf
00000270: 33a8 32d8 14c4 a1bf 6dda 551b 3124 a9bf
00000280: 1a20 ca51 e716 a03f 544a 9cb8 7dc1 63bf
00000290: 25ad e7cd feb5 ba3f ca2f 1473 9322 a23f
000002a0: bfb8 ca75 e16a 943f 7204 5a99 345b b1bf
000002b0: e6a5 090a c78b a13f 8739 bdfa 6b07 b23f
000002c0: 2e07 a3eb b7cb 973f 180b e49d 4b1b 98bf
000002d0: a3e8 69d4 0877 94bf 1195 e9a3 085e a4bf
000002e0: 440d 31e6 d4c5 b2bf dd60 e4ab 6b7f b5bf
000002f0: 39c5 7177 f76c 9abf 6823 f0da a6a6 963f
00000300: 1e89 cca5 1d14 a5bf 3bf6 5fc9 17a8 a8bf
00000310: f322 2ae8 137a a2bf b5fe 94f8 f5c4 b33f
00000320: 3451 b398 5990 af3f f179 5320 b5ac a5bf
00000330: 1b3f 8ce5 5938 b43f 8f9f 1d5b e159 96bf
00000340: 1656 5990 a173 a03f 22e1 8f9b 535b 073e
00000350: 741d 7116 d03a a93e 1f51 4abd 477f 00be
00000360: b0fb 19e4 6752 60be d006 4ca6 327c 903e
00000370: 79b5 af1f 7987 d7bd c5a7 57c9 b295 89be
00000380: 67a5 d0aa 1c70 213f b7f9 1e84 a6ec 213f
00000390: 5d5d 44c9 172b 5e3f 37a3 e1ac 3176 c8bd
000003a0: dbac 2c6d a90d 153e 29ff 3fbf 8411 763f
000003b0: 2be8 ec3a 8bfd d6be cf88 e61a e27c 563e
000003c0: 1ce2 2f8c da76 c4bd 3310 83cd 7042 8d3d
000003d0: 505a 6ab3 540b 5c3e 5dc6 3657 b531 423e
000003e0: 769a a4df ad16 dd3d e176 7681 a70a d93d
000003f0: 00cf 4392 e0ff c3be fafc bc86 ca38 5c3f
00000400: 4c29 915a b37d 763f f691 513a 71f5 93be
00000410: 1f83 47a6 37cb 733f 5426 e376 a583 d1be
00000420: d83f bf3b e34a a8be a0af 5875 6121 e03e
00000430: f9a8 37a7 1368 56be 3b1b 10b1 69d2 e23d
00000440: ff0a f505 6b57 04be e1fd 0f2b b440 c2bd
00000450: 6066 4a7e 9bd2 6abe b004 26ea a41e 5d3e
00000460: 27ec 59c1 b46b fbbd a543 5437 280b 513e
00000470: 41ed 9e9c 6a46 dabd 50e3 25d3 84a6 32be
00000480: 27af fbc5 4d3d 72be 6e72 7e51 7007 3a3e
00000490: 1992 bbe8 e649 eebd 189d 6529 fe89 383f
000004a0: a7a6 17ed 1b0e 233e e360 1f3d 4f14 033e
000004b0: 8d04 06b4 1b95 123f 2849 83ea c1cd 363f
000004c0: 6673 a811 8dda 55be 6084 1ce1 1147 6ebe
000004d0: fb6a 0165 7909 5b3f 3f10 f957 f3dc 3a3e
000004e0: 05c7 9a57 e74c 4cbe 856c 2aeb 7c75 f03d
000004f0: f171 50c3 8229 313f 1cb2 2cb4 2af4 21be
00000500: 5548 383c 82b7 22be af60 5584 258b d93d
00000510: a822 31f2 73ed bfbd 97e2 0ed3 30cc 62be
00000520: e205 808c 28ed 16be f29d 53ec 73da d23d
00000530: 9aad ea81 e807 683e 047a 2b63 44f7 8a3e
00000540: dc2a 5e12 ec93 933f da2d e0d0 f0ea a4bf
00000550: c210 b61e 93fa aabf ac7b 27d6 7e59 ad3f
00000560: 88fd c7e0 e2aa a53f 97a2 96e3 12ca a8bf
00000570: 4332 5ee7 d1dc 4ebf 58cc 153a b6d7 d0bd
00000580: b516 e0e0 ed13 213e de43 dcce 883c cf3d
00000590: 36ee 4626 d098 3a3e e35a 9e49 8209 f13d
000005a0: 6b7f 0828 73ea 8c3e ec39 66a9 643a c43d
000005b0: cb40 0087 68c3 a43f 70a0 75e5 396d 8fbf
000005c0: 74d6 62f6 b3ff ba3f 47d3 be4c e5e1 a8bf
000005d0: 45a6 4067 600f b83f 5c6b bbc8 6940 a83f
000005e0: f202 189c e46f adbf cf80 5a7c 1adc c1bf
000005f0: c08e da11 5312 bfbf 527f a23f 975b c0bf
00000600: 3100 a815 e231 bebf 3c66 407a 498c b6bf
00000610: 94b7 23db cd64 923f f139 fd75 be70 883f
00000620: 27d3 9226 c4af 97bf 85db 371d b2a4 a73f
00000630: afdc b450 1dee afbf acd7 ff05 3a7a 92bf
00000640: 9808 d3c6 3192 b9bf 41b5 5fae 9d5b bebf
00000650: 2883 31f3 886f c2bf 3108 2bdb 1e62 b7bf
00000660: 4f7d 6543 e2cb ac3f 98cb 8c69 d7bd aabf
00000670: d24a 41cf a2d5 893f 40f1 9410 9d06 b3bf
00000680: 6cbd f5dd 5cd9 afbf 6b8b 8281 ee64 843f
00000690: f026 6092 6a02 c0bf 6930 9ee6 7250 acbf
000006a0: aec3 318b be0c b5bf db79 7054 4361 96bf
000006b0: 4fb1 a851 f9a4 b93f 9775 d2e4 e636 5fbf
000006c0: b2c7 0a8a 638c 913f a7c7 8092 a3d4 3a3e
000006d0: c352 8a44 ec2d 353e 48bd 1d8c 2f97 043e
000006e0: ad1e 405d 9392 c1bd b34f 2251 1c1a 10be
000006f0: a648 d82b a4c4 cf3d 3067 80dc 0182 f33d
00000700: 190c b2eb fe24 c1bf 8120 5b47 a67b bcbf
00000710: 5605 1b2a 87d5 b13f 0afb 4e8c c00e b6bf
00000720: 2b2c 28bd b4f6 9c3f e8b7 15ed 8839 a83f
00000730: 479f 8313 cd98 a03f cbe0 c5aa 02fa 5d3e
00000740: d9b1 8226 9570 c03d b933 4a72 05c6 e2bd
00000750: 044c 76f9 1c20 0bbe 9735 ad85 49da f43d
00000760: 57f7 6ee0 1a88 8e3e 5bdf c4de f9a2 d93e
00000770: 7f62 b506 0424 89bf 787e 276f f86d a83f
00000780: 5dc5 b771 e34e a43f 66cd ad43 7920 ac3f
00000790: deb8 e52e 144c babf 46a2 f19b 58d2 a23f
000007a0: d251 edad de4e babf 5e09 04d3 c722 9d3f
000007b0: 105c 4189 cc5f 973f 74d7 5e3f 0f4a b7bf
000007c0: 0ce4 3028 8700 b1bf 8d74 20ae b19c b1bf
000007d0: c250 fc0c b6c1 ad3f f435 5881 4ae8 8abf
000007e0: d85e 9797 6d03 c2bf fafb 2aeb 9fbd b9bf
000007f0: 4ce2 de09 8ab1 8fbf 796f c3c8 aeb4 b0bf

block_2.0.bias f8 [64]
-0.010278423026238109 -0.05302507498223492 -0.05496450488696903 0.08354131837353283 0.1029686418912835 0.0012340259683673142 -0.00019285308989293225 0.040187402401638844
0.029469237060528144 0.03835227991679416 0.08788684476010802 -0.012615293793596657 -0.0006349684616604857 -0.026269802034750565 0.0038323327066656513 0.03478639224919316
0.02500518695733092 0.09942238377865313 -0.0548623991102627 -0.002758408031765141 -0.00596382092951828 0.050954893942342865 -0.0003910109293186756 0.04706383062738706
-0.016902723886774086 -0.02361445003400436 -0.10227713266893915 0.05550393051192326 -0.023162248035114633 0.07482944701739355 0.08745825547491533 -0.0006649996868037722
-0.03462562082562101 -0.04836783757520322 0.07505493721251684 0.05380297062502248 -0.05792356535120013 -0.004712200123069714 -0.005266624562502177 -0.009784894142321648
0.11202483569127958 -0.00599691808948863 -0.02954313294552711 0.07185204334600727 -0.021353319753935944 -8.55068748123666e-05 0.07511709829158689 0.09606300492168969
0.05476528839053036 -0.04703513105135392 -0.0519657600513231 -0.025923752741920988 -0.002256743437722924 -0.0757802003373409 -0.05158018286489487 -0.0024403963930565253
-0.04011740744116807 0.10916092778788775 0.1003310326539973 0.08803640270093353 -0.06798910146660556 0.04763291156345059 0.09950362106998466 -0.09475904603636416
00000000: 2365 0496 da0c 85bf b952 d545 1a26 abbf
00000010: b158 dcbd 4e24 acbf a76f 47be f662 b53f
00000020: e7c4 6f25 275c ba3f 35a2 4c4b e137 543f
00000030: df61 946d 1347 29bf 1c6e 0d76 7193 a43f
00000040: d7f3 a605 2f2d 9e3f 6478 f0f7 e8a2 a33f
00000050: 7248 fe93 c07f b63f 9ef5 2e12 0cd6 89bf
00000060: 72f1 6e63 80ce 44bf d653 7292 78e6 9abf
00000070: 6286 8ff4 fb64 6f3f c7ba 1ca2 85cf a13f
00000080: 4831 d9b0 f59a 993f 4bd6 d1ce be73 b93f
00000090: d1d7 eaa3 ec16 acbf 8b72 2209 cd98 66bf
000000a0: e4aa 9ffd 846d 78bf cf65 1b86 c216 aa3f
000000b0: 0f96 5f27 13a0 39bf 10fc bc1a c018 a83f
000000c0: 8a61 3a99 f24e 91bf 4fb1 6fea 622e 98bf
000000d0: 5216 f18b d52e babf f042 b2dc 026b ac3f
000000e0: 5129 4027 d8b7 97bf 1eac b7cb 0528 b33f
000000f0: 65ac 070b aa63 b63f b8d7 0df4 6bca 45bf
00000100: 5c77 190a 73ba a1bf 3da2 2051 abc3 a8bf
00000110: ed28 bbe4 cc36 b33f 9f34 861e 108c ab3f
00000120: 6fc6 b355 28a8 adbf f88f bb96 194d 73bf
00000130: 1ba1 19c4 7492 75bf c351 b042 1a0a 84bf
00000140: fc41 a2dd a8ad bc3f 6168 2371 3990 78bf
00000150: 3b28 4a17 8e40 9ebf 7166 5240 e564 b23f
00000160: 3e49 0408 a5dd 95bf c0a5 71ec 446a 16bf
00000170: 7a64 88c8 df3a b33f 3d80 7ec8 9597 b83f
00000180: c9c9 2f25 320a ac3f ffdc 411b fd14 a8bf
00000190: 6a4b dd8f 419b aabf 0f54 dd98 c18b 9abf
000001a0: 8cdf 55e8 bb7c 62bf e019 22ca 5466 b3bf
000001b0: 5387 0dbd b768 aabf 578b 51d6 e1fd 63bf
000001c0: 5c95 ebd1 448a a4bf 4e99 d976 f8f1 bb3f
000001d0: f5d7 0568 4baf b93f 333f 75be 8d89 b63f
000001e0: 3a93 48d7 bb67 b1bf fcad c14a 5763 a83f
000001f0: df43 54be 1179 b93f 95f1 b9fb 2042 b8bf

block_3.0.weight f8 [64, 64, 5]
-6.952459611147937e-10 -2.7518634096785536e-11 -2.5050173286351735e-08 4.3882745486164976e-10 -6.060317827155077e-10 1.412603859149985e-09 1.541356657888215e-09 -1.074449977142863e-09
-7.220726985842274e-09 -3.3410632370906664e-09 -9.147860193200268e-11 4.581345030765184e-10 -1.1449605699539087e-10 -1.9465372257808806e-07 6.026880320272068e-11 0.017223843786778124
-0.008306541762117477 -1.0984814662134084e-07 0.020697553174118158 -4.225236500810825e-05 -8.433653347211539e-05 -0.00011481877103355025 3.031476430388489e-05 -0.0002169690023222712
-0.001249366188637449 -2.0671143535801684e-09 -9.939556052696418e-11 1.2934208189978962e-07 -1.2029560230477875e-07 2.4948235574607325e-09 2.9442832749914276e-10 -8.640083088803864e-13
7.629055491451912e-11 4.661481831862859e-10 2.7865778225539435e-08 0.003275294444055139 -0.0009422951180069228 -0.0006104898805375398 6.220654664296574e-11 0.004310798525567504
4.934089986418716e-10 -2.8540173355107573e-05 2.539534902395197e-08 5.200922539475177e-06 -7.670944084815508e-07 -0.0007454388986256658 0.003907902417328626 9.06658422721556e-08
0.0007764832798641615 1.4534047011194005e-08 0.00942912778508997 0.00047466260304394436 1.3223727014709923e-07 -0.00011048762398349926 0.006379808552988204 -3.2367800810874906e-09
-4.3798973672625245e-11 -5.907436369111371e-11 3.25835270069126e-10 3.7701402071911245e-09 -0.00011190854109223917 0.005216318851966572 -0.003496707535276108 0.0010200958947918406
-0.0027867398308189 -5.222829132028842e-10 5.201590423428095e-10 0.00013397760594961082 4.483700547575591e-05 -6.912136985359292e-05 5.543260177593254e-06 -1.2913897427307295e-07
1.4749208651764764e-09 0.0001838492161428646 0.0030379465073912177 0.009115963854988711 0.0019009387417533103 -2.576739868208141e-05 -0.007283681034803414 -0.00233100169448468
-5.898350668167357e-05 -0.001480752300318173 0.004301083515844086 -0.002193674116289207 0.006209578784228281 -3.6806595829556856e-05 0.0016336218599582106 -0.002583377507993405
-0.0011018655916458227 -2.2298981837923064e-09 -2.2990706472354487e-11 -8.787809646975937e-08 -2.6692934814209344e-10 3.3798811812682634e-12 1.63921642778521e-07 2.9363049185436265e-10
-2.759223018418609e-08 1.5607844645146462e-08 1.5013809445780506e-09 -1.8292475727820057e-09 9.047789227455575e-09 -8.71017507016968e-11 3.360349605534002e-08 -6.195944633295695e-10
-5.928050846375714e-10 -0.004784169614805903 -0.0004013008465767586 0.004541465632157796 -0.002825634195934093 0.010170164105625332 -6.703468616897899e-09 -2.3924223621611025e-09
6.857253064819279e-10 -2.659513060974864e-10 -6.278515722012262e-10 -0.0005598477599838332 -0.0005557017241855101 -2.423614211687605e-09 0.0010352156928396838 0.003100664805920224
6.36360317573998e-09 -5.778783829694185e-09 -2.0252873673375622e-10 -1.1289869904092923e-11 4.579789664139481e-11 8.173369008654228e-10 -2.704617210784566e-12 9.365396188074786e-09
8.079062842181522e-10 5.841826529019471e-10 2.577916503535214e-10 1.2827479728119157e-11 6.8904095703460075e-09 -5.413780534076264e-08 1.9676178279855097e-10 -0.007086944896118914
0.0016532439371854434 0.0010052627577211933 -0.010653281398061855 0.006921247684516961 7.689378790071197e-10 -6.330373145777952e-10 3.6942504853732124e-10 -7.729752152315739e-11
-3.7194346950919886e-10 -0.006493397111722234 0.010028728699603768 0.018218807878894704 -0.017044409999043462 -0.0008268622520584839 0.013754213188888571 -0.0044146095530482165
-0.006281390012679779 0.012251786862764421 -3.555575655125287e-08 -1.3115391462146028e-07 0.0002695346606911404 -0.00021550314165185553 7.422488231056229e-11 -3.706133258925973e-10
-4.159418030124369e-09 3.0189250275393753e-10 2.769412129759187e-08 1.7857370240660653e-09 -2.7201476385504534e-09 -5.5641109885415145e-09 5.135940242160273e-09 6.637921018092489e-11
2.108953609913578e-07 -5.801993145063074e-07 -0.0019337635377869936 -0.008215908569467318 0.011835139912841122 -0.0032021887404388182 0.020141225110333925 -0.00274382308622505
-3.371228074160698e-09 0.0027417047768337243 0.00026779765825235606 -3.2071253565399986e-07 8.205718221361404e-10 2.592935932281619e-10 3.0869598945009627e-09 -2.5301010059338897e-11
-5.0440013321333395e-11 -2.1884707818246955e-11 1.3485749417460704e-11 1.911329379312294e-10 -1.642984185816082e-08 -2.0032775117201237e-09 -3.696654907996064e-10 2.6133134049146094e-09
2.1294721717153765e-11 -1.1476584722695962e-09 6.072287581980998e-11 -3.685815636991096e-10 -6.8298525262460404e-12 3.2465412471147226e-11 -2.2202764847461944e-08 1.0326032037303492e-12
-0.004494184950606271 -0.004576434432073981 -0.004628253159984032 -4.64457799773276e-05 0.014912653179640436 1.9114838357686746e-11 2.1613789109696954e-08 -5.801114372220602e-09
1.3273954759194927e-10 2.7191310514371865e-12 4.848039272463324e-09 2.6301781699461788e-08 1.0547994905204405e-09 1.6700104206951764e-09 8.779573262137803e-11 0.0025511280855816587
-5.928976677583575e-09 6.7964793607248415e-09 0.00017490696005245695 -0.0036090018499941806 3.9911714591402503e-10 3.8257502188960885e-12 -1.240256024503713e-09 3.3197670468976496e-11
-6.512377462653221e-09 -1.1867773883875736e-10 5.5287946036111003e-11 1.1178293654523868e-10 -5.671069997949405e-09 3.085206020745457e-11 6.73954295265123e-09 -1.5744173603202244e-06
-0.010020728850858533 -3.692465266186532e-09 -0.001754001130573314 -0.010895222018807542 -0.002630777418047273 0.00021590100427916237 0.002152299436362723 -0.0015304783547791419
-9.008059731295838e-10 -1.1506019944857189e-05 -0.0004719181021737926 1.4181441790882799e-08 2.596669650037999e-09 -6.535454629363158e-11 1.1354469755691115e-10 -2.355854419107959e-10
-1.3945655689793387e-10 -1.7042625022297586e-10 -1.8052631151178994e-11 -5.1924725471235134e-11 -1.5250026721698173e-09 -2.4091910177917136e-10 -6.595763762379794e-09 1.2144187543442571e-08
00000000: f5b7 c7b9 72e3 07be 8903 7190 ce41 bebd
00000010: ffd9 4f3c bde5 5abe 5a9a 8529 ef27 fe3d
00000020: a04b 6241 b6d2 04be cf18 ad8d b244 183e
00000030: 207d 4951 f57a 1a3e 0d6e 1121 7b75 12be
00000040: eaf5 cdf5 4503 3fbe d861 c964 13b3 2cbe
00000050: afdd 83fd 3b25 d9bd 0e6b 9960 967b ff3d
00000060: 0df1 3599 f178 dfbd cb06 3c40 4020 8abe
00000070: 79cc 133d 0a91 d03d 663d 1a97 20a3 913f
00000080: de70 b029 0503 81bf 27f3 3008 b57c 7dbe
00000090: e4d1 f547 bd31 953f ee04 0535 0427 06bf
000000a0: 3faf cb9c ba1b 16bf 7475 5a77 5b19 1ebf
000000b0: e7cc 86bd 8ec9 ff3e ec30 d789 4570 2cbf
000000c0: a673 f0ba 3878 54bf 7b2b d7ed a1c1 21be
000000d0: eaa4 c63c 5752 dbbd 9971 ecfb 285c 813e
000000e0: fd67 db4e 5325 80be 5a14 33ce 2c6e 253e
000000f0: 1ad5 564e a33b f43d 44e2 d884 4b66 6ebd
00000100: 7af6 6f75 78f8 d43d f84b 5d64 4804 003e
00000110: 8d51 bbd1 afeb 5d3e c21e b450 cad4 6a3f
00000120: 1fc8 855b 8be0 4ebf 9532 2509 2901 44bf
00000130: c173 6885 6519 d13d 18c7 fd2a 33a8 713f
00000140: 31e5 8c4a 12f4 003e de26 67c7 31ed fdbe
00000150: c9d7 9ad1 9e44 5b3e 8a0d abb3 72d0 d53e
00000160: 9041 8671 4abd a9be 2cf0 6ad8 316d 48bf
00000170: 7611 4191 bb01 703f 57dc 785d 8256 783e
00000180: 44fd 7d25 9d71 493f 2861 a145 2d36 4f3e
00000190: fdef bb1b 944f 833f ae36 515b 841b 3f3f
000001a0: 418c 4754 a3bf 813e e148 2eed b2f6 1cbf
000001b0: c7ec 6fd1 b621 7a3f 5167 2532 c1cd 2bbe
000001c0: 05d9 0355 2814 c8bd 15f1 1421 fd3c d0bd
000001d0: 8373 d299 2764 f63d 960e 8420 5031 303e
000001e0: 63a5 b618 0e56 1dbf 59ca feed b45d 753f
000001f0: 2cfa 3e90 20a5 6cbf d34a 71a0 97b6 503f
00000200: 094d f28d 37d4 66bf 8866 0f91 0cf2 01be
00000210: 0dca dd08 5edf 013e 12d5 34df 8a8f 213f
00000220: f882 00c7 eb81 073f adfe 8617 a81e 12bf
00000230: 21e8 58c1 0740 d73e e925 356e 2e55 81be
00000240: f789 c343 c556 193e 9c2b d0bd f418 283f
00000250: 2d05 ae1c 09e3 683f 0991 07f5 63ab 823f
00000260: 64d9 8f6e 1d25 5f3f c9ed 7e27 e204 fbbe
00000270: 3472 6c3d 7ed5 7dbf 6672 6e01 7718 63bf
00000280: 8d4b 8cdb a1ec 0ebf b793 03ad b942 58bf
00000290: cf4c 9b50 039e 713f c028 cdd2 77f8 61bf
000002a0: 399a cd1c 376f 793f 6562 bf00 194c 03bf
000002b0: 6070 9a1d e8c3 5a3f d728 1f3d bc29 65bf
000002c0: feb1 902b 8f0d 52bf 5eb1 2514 9927 23be
000002d0: 828a 5efe 4e47 b9bd 8fe6 83d2 ef96 77be
000002e0: 7007 afe9 de57 f2bd 5f06 34d9 d0ba 8d3d
000002f0: 55eb aa04 4e00 863e 2199 772c 9a2d f43d
00000300: 22a4 4d96 7ea0 5dbe 08cf 4f6d 40c2 503e
00000310: 381a 67aa 24cb 193e 9541 faab 1d6d 1fbe
00000320: a0de 8b21 136e 433e 7a3d e4a5 3df1 d7bd
00000330: 8258 a0e8 6d0a 623e 5139 74b2 024a 05be
00000340: 5d39 0f61 5e5e 04be 1db5 8bc0 9098 73bf
00000350: e028 0c03 b64c 3abf c43d db65 129a 723f
00000360: 3aac c8ce c825 67bf 8533 d451 18d4 843f
00000370: 2d0f 3eac 8aca 3cbe d402 ae0e fe8c 24be
00000380: 2c4e 0c1e b48f 073e ce62 fa33 aa46 f2bd
00000390: a760 a50d a492 05be 2f7b f1e8 5758 42bf
000003a0: 0b98 a85d 9035 42bf 2ad0 f081 95d1 24be
000003b0: 8f23 e262 02f6 503f 443e febd 9066 693f
000003c0: 5085 410e db54 3b3e e8a8 3b0b d7d1 38be
000003d0: 762d c3af d8d5 ebbd 2518 7eb9 a1d3 a8bd
000003e0: 26a0 3a1f 7b2d c93d 611b c214 5f15 0c3e
000003f0: 839c 09ac 41ca 87bd c127 4356 ae1c 443e
00000400: 7a1c 6438 6bc2 0b3e 3710 9363 8612 043e
00000410: ec91 6661 1eb7 f13d fc84 4fa7 3a35 ac3d
00000420: 3836 93df 1598 3d3e 582b ebaf a410 6dbe
00000430: bcb1 5895 f00a eb3d 610c eb48 3307 7dbf
00000440: 9413 1f29 3516 5b3f 6a6a c5aa 6078 503f
00000450: 341c 9939 63d1 85bf 7e81 3d47 7459 7c3f
00000460: c600 352c a66b 0a3e e7ff 984e 41c0 05be
00000470: 3492 cc82 fe62 f93d 9f76 445b 543f d5bd
00000480: d1c7 7e78 4c8f f9bd e8b0 c103 d298 7abf
00000490: aa33 482e f189 843f 363f 0c80 f3a7 923f
000004a0: 861e 1afe 1674 91bf 8a8a 5a2a 3918 4bbf
000004b0: 77be a03e 2b2b 8c3f 2eae 7aba 0d15 72bf
000004c0: 6899 d8ca 83ba 79bf 4b24 25ff 7617 893f
000004d0: ac02 e9f7 be16 63be d939 8208 6a9a 81be
000004e0: d9c0 848d 0aaa 313f f80e 23e4 153f 2cbf
000004f0: fa95 f89b 1c67 d43d bec0 5009 e677 f9bd
00000500: 0147 d917 54dd 31be 3a2d 81f6 f2be f43d
00000510: 90bc 6c89 80bc 5d3e e393 2726 c1ad 1e3e
00000520: 5a17 86fc aa5d 27be 2357 cb02 cee5 37be
00000530: 15ff f8a8 060f 363e 9770 818b 053f d23d
00000540: 5461 9636 4f4e 8c3e 248f 13c9 df77 a3be
00000550: a0a0 cac9 caae 5fbf 8afd e694 80d3 80bf
00000560: 7b32 f496 053d 883f 8544 4efd 793b 6abf
00000570: 49dd 99bc e69f 943f 66ab 7bcd 367a 66bf
00000580: 534b f4af 68f5 2cbe 8ad8 418b c575 663f
00000590: 09c0 232f e68c 313f 241f 04a6 cc85 95be
000005a0: da57 e879 d331 0c3e 1eb8 a387 8ad1 f13d
000005b0: 5354 c7ed 4b84 2a3e 41f8 5ee9 99d1 bbbd
000005c0: e514 6800 cdba cbbd e248 4064 ff0f b8bd
000005d0: 61ca 4a50 cda7 ad3d f25a c274 e444 ea3d
000005e0: d940 ae56 33a4 51be 3ba3 5efb 4035 21be
000005f0: e599 da5d 3967 f9bd 67b5 d9a8 bc72 263e
00000600: 8f1f a369 ee69 b73d 4bed 2791 74b7 13be
00000610: 48bb 6a15 feb0 d03d bc85 fdca 2754 f9bd
00000620: 298c 73f6 ba09 9ebd 5524 8dc1 19d9 c13d
00000630: aa78 f9ad 0cd7 57be 7866 7670 6e2a 723d
00000640: 7e14 2996 7e68 72bf e31d 7d43 bdbe 72bf
00000650: 6818 5b3f 13f5 72bf 8d69 2bd9 d859 08bf
00000660: 0e0b a06d 868a 8e3f 9acf 3143 5904 b53d
00000670: 766d 5232 2735 573e f4ab 6688 64ea 38be
00000680: 0b70 dc8d 5b3e e23d 50b2 de54 f0ea 873d
00000690: 8a6c c6bd 79d2 343e 2423 0b59 c73d 5c3e
000006a0: d3d6 eaa5 0e1f 123e bff7 bb93 c8b0 1c3e
000006b0: 918b 9b50 1322 d83d ee5f 4176 1ae6 643f
000006c0: 8060 7e92 fa76 39be 4e8a a9de ce30 3d3e
000006d0: 0b98 b658 e7ec 263f 727a 571d a090 6dbf
000006e0: c4af 61d4 576d fb3d 342f b66c 69d3 903d
000006f0: f395 7724 b44e 15be e405 7e21 2840 c23d
00000700: 3cf5 6c4b 6ff8 3bbe f55c 730a 9a4f e0bd
00000710: 71d1 712f 1665 ce3d b07e 905d 06ba de3d
00000720: e643 ac4b 685b 38be 7394 659d 0af6 c03d
00000730: 7e54 15b2 34f2 3c3e 8938 d431 126a babe
00000740: a279 9275 bf85 84bf 3ecf 4c26 d1b7 2fbe
00000750: 9fa5 8c5f d0bc 5cbf 3c0a 07f2 3b50 86bf
00000760: d478 27df 238d 65bf a691 4e81 6f4c 2c3f
00000770: c791 17f6 b2a1 613f d0e7 c89e 4a13 59bf
00000780: 5e1f f3b8 92f3 0ebe 485a 0057 3f21 e8be
00000790: 8bb4 b2d0 78ed 3ebf e74f b87f 5474 4e3e
000007a0: 9870 fc0e 234e 263e b20c 62d7 eaf6 d1bd
000007b0: 0095 306e ff35 df3d 39b9 2682 7630 f0bd
000007c0: 9ce6 cffe b02a e3bd 5fc4 a931 576c e7bd
000007d0: a7ef b32a 5dd9 b3bd c6c8 ee64 c18b ccbd
000007e0: 90f5 d45d 0833 1abe 50d0 4f2d 4b8e f0bd
000007f0: 8744 8f73 1e54 3cbe 2082 f673 5614 4a3e

block_3.0.bias f8 [64]
-0.04323236229660181 -0.003210120709582343 0.008486535732104773 -0.011938228642187044 -0.055160563553357356 -0.010625643496354156 0.04964501718547933 0.04836986712553743
-0.031749953989154214 0.027616569856549776 -0.0021562864484990776 0.03383260134262892 0.0026840534945993255 0.03711344417481716 0.005368057735008041 -0.01452928737464888
-0.01673690596064754 0.05039614397729893 -0.03500591311087233 0.0122520559792693 0.029343552048027115 -0.05787964598293355 -0.03983953165212163 -0.013406952862159803
0.041497060381273085 0.03547414293449396 -0.04015819494530343 0.034248142857235826 -0.05716828106302031 -0.011201268723025995 0.03878761066267197 0.04999207743812447
-0.005020342872249948 -0.02176622160166024 -0.029082926900038854 0.022185483308721072 -0.01147456217600583 0.04045955662144772 -0.0570955077974035 -0.04000411353366034
-0.036721489588255274 -0.04679248517674007 -0.04149952364423172 -0.04606223792359107 0.031757312362638845 -0.02696753651724367 0.024950465500871516 0.03327891808845151
0.05148240669208077 0.009404653391722712 0.012647190220788213 -0.04369112338487255 -0.016255397291478284 -0.05132142027897837 -0.016121805401302546 -0.018030478624900273
-0.043804632074669544 -0.02355026201057862 -0.0038416811090089265 -0.041173382584942825 -0.05757089120982771 0.04496257206327943 -0.0002809315447709069 0.016124649712803737
00000000: 46ad 625c 8d22 a6bf b402 d86e 1c4c 6abf
00000010: bae2 678b 6361 813f ad10 b9ec 1173 88bf
00000020: d82f fb60 013e acbf 28c0 86ba e5c2 85bf
00000030: d325 715a 126b a93f 5904 d56a efc3 a83f
00000040: 2adb 10ac 8741 a0bf 3642 72a1 8447 9c3f
00000050: fe18 de78 0faa 61bf c542 9cb8 8152 a13f
00000060: 0050 5c3f defc 653f c90d f289 8800 a33f
00000070: 866d a306 d1fc 753f c6cd ddf0 87c1 8dbf
00000080: d3e6 f2be 7a23 91bf 2a3a 74fc 85cd a93f
00000090: 13a4 f487 4bec a1bf d7f3 ea1d 9b17 893f
000000a0: 6b39 9471 3c0c 9e3f 7896 33a5 66a2 adbf
000000b0: c250 11db d865 a4bf 59ea a7c0 1a75 8bbf
000000c0: 0e77 6f4a 1a3f a53f 57ba 83b7 aa29 a23f
000000d0: 88b6 e96b 9d8f a4bf 5987 0afb f888 a13f
000000e0: c283 1133 2945 adbf 557c b6d6 b0f0 86bf
000000f0: 2c83 923e f8db a33f cbca 4fc3 8f98 a93f
00000100: fe60 3707 3690 74bf 2d19 bf67 e249 96bf
00000110: 9768 a12f eac7 9dbf a513 0795 cab7 963f
00000120: b941 41aa f97f 87bf eee2 ff70 1db7 a43f
00000130: 750a 7a55 9f3b adbf f742 aa4e 6b7b a4bf
00000140: 8015 afb9 28cd a2bf 41b9 1043 2ff5 a7bf
00000150: e2fe b3f1 6c3f a5bf fcbe ec3a 7895 a7bf
00000160: 9845 0394 7e42 a03f b5bb 94bd 609d 9bbf
00000170: 5887 6265 9d8c 993f 6f1d ac31 ef09 a13f
00000180: e9ab 1fea e65b aa3f 8a37 fb35 bf42 833f
00000190: ca9c 1323 c5e6 893f cc86 20d4 ae5e a6bf
000001a0: 3e65 003f 41a5 90bf 736e 5d1b cd46 aabf
000001b0: 73e5 cd0b 3c82 90bf 24c7 19f0 9476 92bf
000001c0: ee18 598c 8f6d a6bf db35 9754 8f1d 98bf
000001d0: c001 32d7 9678 6fbf 6c07 5677 ad14 a5bf
000001e0: ee43 e58d ee79 adbf 8a95 1c91 5505 a73f
000001f0: fcad 15cc 3f69 32bf ac2b b4ec fa82 903f

fc.weight f8 [12, 1344]
1.0809841084493684e-10 1.767127373124907e-11 -4.885595044803193e-11 2.1406169894409434e-09 9.437113730598974e-10 1.6318045397056295e-08 3.896346549987021e-09 -1.930925521673498e-10
-1.7825334817742853e-10 1.675068193880777e-10 1.6072498490318799e-10 0.01804181638721391 0.017373355296777655 -5.8160207647407686e-09 4.683245348267328e-10 -2.341405058302818e-10
9.002124463807836e-10 -3.09738140210474e-09 2.283438933627189e-10 3.027050277851475e-10 -1.8820283351758974e-10 0.01724133938403884 -0.01835170853126349 0.01982975822996185
0.034017858061573744 -0.0036477233400742477 -0.006111907125607719 -0.0015379784144208862 -0.005633507043127135 0.014885779415440557 0.012413408466621947 0.03879503642519595
0.04001741339371329 0.041094731773463435 0.013627687112725384 0.006072878087392121 0.04527891753543802 -0.02043766290578327 -0.012941952811420413 0.04196223874892601
-0.017775177446187153 -0.003283124544972588 -0.0003682750148306378 -0.008826802062012465 0.00047553309016895015 -0.012175113896862553 0.003732355326263855 -0.009652618416994321
-0.009590230013638039 -0.0033164724767463486 0.005875923346112112 0.01665019379569849 0.011580211486360275 -0.026189698259186774 0.018471720507184992 -0.01745224406632668
-0.01277910081529469 0.0027247499453097314 -0.004055201672939079 0.003723953509316833 0.0029072984596175814 -0.004535613294306825 -0.008301110797380986 -0.0011373113877811056
0.0016673055592762098 0.003300881679606821 0.0024975648987359935 0.0031297492316182765 0.003967966976420929 0.005349991067755722 0.0025000967807015813 0.00461930791897238
0.005116631394977908 0.003582535335650249 0.002754991003396158 0.0015505189505181484 -0.0020754659461820974 -0.003245804943679658 -0.002038063520481959 -7.2725721976319004e-06
0.00034963614220248293 0.001510826095946781 0.007871935781253059 0.008487900629163471 0.020029160840193946 -0.01694323171052786 -0.017309845313845558 0.012363475156387367
-0.031619132827562464 -0.008075327694113987 0.0025927945457624906 -0.014060992999475348 0.033598373051003105 -0.026035907643669823 0.0269087197798424 0.010221883098581037
0.01138847356335644 -0.001712921007434165 0.015677330326419815 -0.0022391485200257528 0.02229613468397141 -0.005569799083364434 0.03947877299024841 0.007367821977498855
3.258774681969396e-10 -8.068486171807439e-09 2.004652027775034e-10 6.989753370155121e-12 -4.713216352509531e-10 2.3472417918835565e-10 5.560211699779126e-10 1.0945190187695114e-09
-2.6586343327827044e-10 1.7202004256948115e-10 -2.858442757976049e-10 6.351841369584677e-11 1.783278710125642e-10 -9.215782017012068e-12 -4.723117914977998e-10 -9.97998953815678e-11
8.972488847502149e-11 -1.6919492806293674e-09 -1.2400307901327562e-09 1.3760514440455356e-10 7.843729235101276e-11 2.886107317378503e-11 0.022480923424719433 0.014713863614008142
-0.005052969769336125 -0.03322402829114232 -9.290711742301959e-05 0.020825277867038545 -0.008872786070941873 -0.016426409142848708 0.02288884804601565 -0.028212231487424088
0.019244208434770902 -0.02079224431241932 -0.04893766704069863 -0.012826318668739588 0.0027554066787422856 -0.030055870840103645 0.005765250049708918 0.02031781141373746
0.04370325843714579 0.04532275315541506 0.052245239583438595 0.04343639884480831 0.03295043755603664 0.04382101976064348 0.04626444679725264 0.031950649975707145
0.07119560527015235 0.03369360342482051 0.05495714346007488 0.001472257921312688 0.0019765867346267776 0.06697535303935004 -0.05024551945034802 0.011714451049134265
0.04694512087165433 0.028025099530740442 0.045473198171754596 -0.020342685395697262 -0.037803787456045665 0.0219402465609069 0.0029719005714553695 -0.037861202421090916
-0.008906837979656383 -0.0024898351801765977 -0.007349225366802249 -0.0023053063642714693 0.014724720464485972 0.023425268161529917 -0.030868559827275488 -0.011778653893135472
-0.001969347063290087 0.0018819318837021255 -0.00320433249193129 -0.004529775172342357 0.02435320719546407 -0.014301037691999354 0.020922180370192667 -0.01885342685645382
0.0026959706415139663 0.036378885055919706 -0.0046128834817525275 -0.017182132713550333 -0.01659280657975663 0.060484573840706664 0.062011026298731085 0.0600528654465798
-0.04637077601543583 -0.03770010356763408 0.059533127272291333 0.007949635019966962 -0.005196630756039486 0.010802486383833458 -0.028706784932696388 0.04591489374481603
0.04647571162227179 -0.009206120867413053 0.01205292344619002 0.038058690214515516 -0.04103674813762145 0.06402915070783602 0.04169997916252332 0.03174809379345425
-0.04452439432838347 -0.04905741142280461 -0.03651454077026785 -0.040220181031648254 0.04127485652486383 -0.013448610601252724 -0.017911408383121483 -0.04824782892468275
0.011144619037942382 -0.022405342602140135 -0.013287574348914543 0.021241581005225208 0.044790111706619236 0.04908697388334941 -0.04490354820784143 0.05563741895205132
-0.03805031339865421 0.005659667470319662 0.03236162240972311 0.013422501386157278 -0.025436663877770826 0.003655662267612528 -0.05923527569276139 0.017916134750735415
0.06800505108821427 0.04341396495579586 0.055744554435839956 -0.03883714084501987 -0.0439284740924179 -0.03129860905560439 0.05032428694172458 0.00971676127117635
-0.019938328647042702 0.006566712908220226 0.02051561580494105 -0.04506337240585426 -0.04198040297806435 -0.056106892389430195 -0.02967622619479864 0.05476007577519399
-0.000598173639952539 -0.013898153200639867 0.059934443774273684 0.04106124345632132 0.03466282904988589 0.07859942639439829 0.04845380441381038 0.002622001875617487
00000000: 8c66 e8d9 bfb6 dd3d c010 fa77 056e b33d
00000010: 5b43 321f dddb cabd 791a 083c 4463 223e
00000020: ce23 098c 7c36 103e fcaa ad5c 7885 513e
00000030: 7c17 ee0d 14bc 303e 3ddb 8b17 d789 eabd
00000040: 358c c36c bb7f e8bd 704b 7b4c 9f05 e73d
00000050: 6e51 d8f6 0117 e63d dec3 5fcd 8d79 923f
00000060: c529 4923 52ca 913f b08d 2e4f c8fa 38be
00000070: 3f1a ab19 6d17 003e 1571 4518 0b17 f0bd
00000080: 9ad5 1238 5aee 0e3e 6c96 4eb7 369b 2abe
00000090: 0e02 35f2 2262 ef3d 490b 1640 3ecd f43d
000000a0: f911 fb6b ccdd e9bd 65bb 2cb3 b6a7 913f
000000b0: 8db8 de4f caca 92bf ce51 578c 404e 943f
000000c0: be77 b5e7 c96a a13f 164a 6a8e d4e1 6dbf
000000d0: 01e2 8793 cc08 79bf 1427 7bbf bf32 59bf
000000e0: 6e38 3108 2913 77bf bf48 1e7e 6f7c 8e3f
000000f0: 2e12 2b7b 336c 893f 2afe 6269 f1dc a33f
00000100: 49d0 9793 297d a43f 8d84 0262 5e0a a53f
00000110: e013 c133 d5e8 8b3f 9b75 72cc dfdf 783f
00000120: 43a6 065c cc2e a73f 56e6 2557 9ced 94bf
00000130: c247 9280 4f81 8abf dfe9 2f16 137c a53f
00000140: 3a75 3ff7 a733 92bf f44a 9411 36e5 6abf
00000150: fd91 0625 a122 38bf 3b14 7a51 c913 82bf
00000160: 9773 0812 1f2a 3f3f c5c7 1820 44ef 88bf
00000170: 5e00 0702 5193 6e3f 9bc2 5f83 c0c4 83bf
00000180: cf54 28e2 0aa4 83bf b936 6c9a 252b 6bbf
00000190: 1b88 af29 5a11 783f 9160 4c97 bf0c 913f
000001a0: d6dd eaac 5db7 873f d2ae 0fe6 78d1 9abf
000001b0: 92b6 ea2d 40ea 923f f2d7 0646 00df 91bf
000001c0: 9581 97e0 ed2b 8abf 5fcd f4fc 3652 663f
000001d0: a6f8 05e9 2f9c 70bf ae50 1951 b281 6e3f
000001e0: 1d79 b8f9 0bd1 673f e3f8 426c ef93 72bf
000001f0: 1b6b 293b 2c00 81bf d61c d1cd 3aa2 52bf
00000200: 61b4 5eb6 2f51 5b3f c17e 945b 730a 6b3f
00000210: 1a22 e9f1 c575 643f 55fe 0553 8fa3 693f
00000220: bb4b 5306 b740 703f 27ec b74a dfe9 753f
00000230: a34b 1e3d 157b 643f 9801 1307 b2eb 723f
00000240: b026 1d48 2df5 743f 31e8 4e03 1f59 6d3f
00000250: 03e0 5488 a291 663f b4a1 cb0b 5967 593f
00000260: b22b 9c4b 9100 61bf 0b32 a242 f296 6abf
00000270: e74f 5d05 21b2 60bf c71e 7d6c dd80 debe
00000280: c2a5 d7cb ebe9 363f 2d9e 022b ddc0 583f
00000290: e0bf e455 291f 803f 3461 e9bc 1a62 813f
000002a0: 4c8e 193b 8682 943f 4f50 5708 9159 91bf
000002b0: f24e 160e acb9 91bf 4457 b18b 0552 893f
000002c0: 9132 d80a 6230 a0bf 333d ce22 cc89 80bf
000002d0: 6a00 f0f8 7b3d 653f 2a00 a888 02cc 8cbf
000002e0: 10de e752 ce33 a13f 04ab 672f 28a9 9abf
000002f0: d502 ba9d f58d 9b3f 2a41 e5ec 35ef 843f
00000300: 673d 0c0c d752 873f 67ae 48ed 8210 5cbf
00000310: 1d89 29d4 b70d 903f 5bbe 42b5 d557 62bf
00000320: 02f2 2d45 ccd4 963f 9890 888e 5bd0 76bf
00000330: e536 c2cd 8f36 a43f ff4b faa6 b82d 7e3f
00000340: 577a f3a4 e564 f63d 55cc 887a b253 41be
00000350: c444 6a06 3e8d eb3d 96fb 3a3e c3bd 9e3d
00000360: 4e03 6ff8 c931 00be df62 d6b9 4f21 f03d
00000370: 482d f15d d01a 033e 0d32 7cdc becd 123e
00000380: 46df 8375 1e45 f2bd ad7d 9acc 6aa4 e73d
00000390: 1a2c 892c a0a4 f3bd 2994 5a04 b675 d13d
000003a0: 82e7 b8aa 5a82 e83d 2624 9d28 0644 a4bd
000003b0: 9c0a a69a 7f3a 00be 06f4 2b16 cb6e dbbd
000003c0: 236a afe5 d3a9 d83d 21de 9589 4511 1dbe
000003d0: 2a65 148d b64d 15be 0ad0 41f4 8ce9 e23d
000003e0: 195e 75a4 888f d53d db87 877e abbb bf3d
000003f0: c67b 923b 3d05 973f afe5 2858 4d22 8e3f
00000400: 8ef8 823e 6cb2 74bf ec56 e765 bd02 a1bf
00000410: 3098 a31f e45a 18bf 75e6 79bd 3853 953f
00000420: f927 fe2f e52b 82bf 30ac 3ca8 15d2 90bf
00000430: fff7 3397 2c70 973f 53b9 57ce aae3 9cbf
00000440: 9980 75f7 c0b4 933f fe41 54e5 8f4a 95bf
00000450: f8f4 f69e 5b0e a9bf 6cb7 ae59 af44 8abf
00000460: deeb 50b2 8192 663f a282 3e59 f7c6 9ebf
00000470: d10e ab86 4d9d 773f 0275 313e 31ce 943f
00000480: c8ae 6e03 4660 a63f 8866 223d 8b34 a73f
00000490: 0bde c356 e3bf aa3f 5e2a fdb0 4b3d a63f
000004a0: ad56 6237 e1de a03f a4a8 7f6d b56f a63f
000004b0: 2468 ec3b f9af a73f fb94 76e9 d55b a03f
000004c0: 3115 410c e039 b23f dd86 96b9 4940 a13f
000004d0: 8469 afbb 5723 ac3f 5564 e4e7 181f 583f
000004e0: 3ef5 40ec 3331 603f 042b f1f6 4b25 b13f
000004f0: 0b9b 9edd c7b9 a9bf 7f49 2c01 bffd 873f
00000500: ab77 b3dd 3009 a83f ee83 ce97 9cb2 9c3f
00000510: 5703 fc55 4348 a73f 5b08 f381 b6d4 94bf
00000520: 16ca 939d 045b a3bf 48f5 c705 8177 963f
00000530: 2219 5df8 8658 683f ff23 5f24 8b62 a3bf
00000540: efca aa8e bf3d 82bf 8e32 7b15 9065 64bf
00000550: 6820 9fa9 381a 7ebf a547 23ee 93e2 62bf
00000560: dfa0 b386 fe27 8e3f 057e 9d22 cbfc 973f
00000570: 7027 bbfb 019c 9fbf 7a69 182a 681f 88bf
00000580: d5d8 6627 0522 60bf 3106 34f9 64d5 5e3f
00000590: dc71 44e8 f83f 6abf 2a39 9343 d08d 72bf
000005a0: 1e34 d411 0cf0 983f dbed 7cc9 dc49 8dbf
000005b0: 80d0 cdc1 9f6c 953f 9561 100f 504e 93bf
000005c0: 3198 8f37 dc15 663f 4305 29d3 40a0 a23f
000005d0: 3334 1c7b f5e4 72bf ec27 5268 3198 91bf
000005e0: ab85 6f66 b4fd 90bf b9dd 1d85 d5f7 ae3f
000005f0: 6b8e e3c3 e8bf af3f 6a90 3fca 3fbf ae3f
00000600: b1ef f30c e9bd a7bf 3ef2 c18f 6d4d a3bf
00000610: 7281 5345 207b ae3f 543b 68f3 e547 803f
00000620: 7d61 58f2 0f49 75bf 9c55 df2d 9d1f 863f
00000630: 1b42 d6b9 4f65 9dbf ac0c 112e 2882 a73f
00000640: 3cb4 f31a aacb a73f 9674 63a0 a8da 82bf
00000650: 3f3d 2e00 34af 883f a791 99bb 6d7c a33f
00000660: 1bdc 5ec6 c402 a5bf 3ae3 47e4 3664 b03f
00000670: 2f6c 7e1d b359 a53f 8440 1b41 4941 a03f
00000680: 9a7b 07c3 e6cb a6bf ffed 5f93 0d1e a9bf
00000690: e29e dfac 08b2 a2bf 1f1b 5754 bd97 a4bf
000006a0: 6ebf d75d fa21 a53f 5612 acf5 f18a 8bbf
000006b0: ac58 ec44 5e57 92bf 9545 ab7e f0b3 a8bf
000006c0: b9cf 5a72 fdd2 863f a76e ed16 6df1 96bf
000006d0: a68e 2c0a 8436 8bbf 1d5d ee5e 5ac0 953f
000006e0: a9a0 edc1 baee a63f b528 fa86 ed21 a93f
000006f0: f9d7 0d0e 99fd a6bf 5073 aafd 817c ac3f
00000700: b6ae 4ca7 547b a3bf 8c64 0f6b 972e 773f
00000710: b65f cadb b391 a03f f15a dfa3 417d 8b3f
00000720: 50c1 e59d 110c 9abf 54c8 4ebc 7af2 6d3f
00000730: 996a bd07 1654 aebf e7f0 4c73 9b58 923f
00000740: 15fe 626e c768 b13f c083 59ef 5a3a a63f
00000750: e5cb 76dc 8c8a ac3f df58 9933 76e2 a3bf
00000760: f823 2eff ca7d a6bf 58b4 9b0c 5f06 a0bf
00000770: 98ec 37dd 1ac4 a93f f0da 0f9f 61e6 833f
00000780: 005f e795 b66a 94bf a3ad ed92 b2e5 7a3f
00000790: 3112 c2ab 0b02 953f e412 76dd 8b12 a7bf
000007a0: 3c35 ba93 747e a5bf 4b1c c9e7 0aba acbf
000007b0: 6dc4 e6d3 7163 9ebf f970 293d 8309 ac3f
000007c0: dd48 471c d899 43bf e3b9 c58b a276 8cbf
000007d0: 9d33 d437 baaf ae3f 3d55 8eb3 fa05 a53f
000007e0: 2aec 4f8a 53bf a13f 2e2a d98d 171f b43f
000007f0: eaef a5e2 efce a83f 5057 c989 bc7a 653f

fc.bias f8 [12]
0.006748932287538666 0.04188083659506516 0.03505168545676668 0.011702194277286086 0.029065431773793976 0.007638277960195924 0.02110456384836032 0.02289665703659891
0.036941012552368646 0.0029801902125870124 -0.004576819312607824 0.0007535640563450361
00000000: d88b 53b7 c4a4 7b3f 8385 02af 6771 a53f
00000010: 48b9 6965 4bf2 a13f 62f5 b2ed 51f7 873f
00000020: 4877 a61b 54c3 9d3f a3ba 96a0 5049 7f3f
00000030: 18a7 194e 6f9c 953f 39c2 a3a4 3872 973f
00000040: 084c 96b1 eee9 a23f 2328 f76f e969 683f
00000050: b012 4794 24bf 72bf 6fda 1c7d 5ab1 483f

exp_avg f8 [8, 1, 7]
0.01036682815807232 0.01592458142864631 0.016723667872234137 0.019910854984030377 0.01907933388702898 0.022206745384947508 0.0186366721386153 3.766382113320133e-06
5.737324274314973e-06 -2.0303195277880847e-08 1.4282459098211014e-06 -8.753733105811847e-11 -1.1073589920376702e-05 -4.622954281091292e-05 -0.01786195212163491 -0.017219768414503595
-0.016390157956091486 -0.01357816046235064 -0.009978032761984326 -0.008718855209648836 -0.009131803988929503 0.0029599656651229257 0.010837846428847261 0.014812607798640246
0.018093745898270983 0.009759972216316963 0.002303239234692866 0.008962638969526373 0.04984396601924833 0.04382625776482589 0.03819419227865517 0.04060504363262088
0.02973429341757655 0.025568954818566143 0.03189516325726712 0.0004278833363017542 0.0011417095888498127 0.0011111591739228711 0.0036379966964721665 0.001579684452171767
0.003043627638141594 0.004047233018611268 -0.012081263547256712 -0.010044461897875563 -0.0059333386785811685 -0.005808055511738514 -0.0040138636061179045 -0.004338802196484987
-0.00581438941317005 -2.6991127650467343e-13 9.128298354645574e-14 9.155047694102314e-06 1.471912053810577e-07 -1.458501167911728e-05 -2.124815286267481e-11 4.8189198231356887e-14
00000000: 3ca6 371f 343b 853f a90c c191 884e 903f
00000010: 6657 525a 0220 913f cc9c f7db 8263 943f
00000020: 3f09 4c6c 8889 933f 453e b774 5dbd 963f
00000030: 7ed3 5de5 7d15 933f e9aa d076 3e98 cf3e
00000040: 6ca2 1fb0 6710 d83e 7167 c05a e6cc 55be
00000050: 4f38 34fc 44f6 b73e 402e bb5d e40f d8bd
00000060: d81f 1e9c 1639 e7be 2f5e f0fe d23c 08bf
00000070: 2810 d250 674a 92bf 286d bd18 0fa2 91bf
00000080: 4c3b 97e1 94c8 90bf 924d 01d9 ddce 8bbf
00000090: 9b0d 21e3 5c6f 84bf e73b dfef 30db 81bf
000000a0: a931 e3fb b1b3 82bf 24da 5377 7f3f 683f
000000b0: 988b c41f 2732 863f c252 8290 1256 8e3f
000000c0: 69b1 94bb 2a87 923f bce3 d44b 09fd 833f
000000d0: cc07 0326 3ede 623f a16b 140a 015b 823f
000000e0: 4e45 e9f7 2585 a93f 26ab 9c2f 6570 a63f
000000f0: 90c9 776d 308e a33f 44d6 e82c 2fca a43f
00000100: b050 31a7 aa72 9e3f e25e f482 bf2e 9a3f
00000110: ab5b 2e16 9054 a03f ff69 98ef b00a 3c3f
00000120: 5bf5 1e56 adb4 523f 6771 0214 8a34 523f
00000130: 4a9e b29a 6ecd 6d3f f24e d843 ade1 593f
00000140: 0d3a 5825 f3ee 683f 4683 44d7 d493 703f
00000150: 0b7b a3be 0fbe 88bf c4bc dbda 3092 84bf
00000160: 1a21 4a79 8e4d 78bf bacc 9e07 30ca 77bf
00000170: 97bc b34e d770 70bf 147c 9a58 90c5 71bf
00000180: 982b 0346 d4d0 77bf 29e9 600f 4afe 52bd
00000190: 89c4 f4d5 a1b1 393d c56f 8f2c 1433 e33e
000001a0: 8869 da88 73c1 833e a988 d6bd 4496 eebe
000001b0: 1396 e5c5 d25c b7bd 76d4 209d cb20 2b3d
