dl_experiments/best_checkpoints/avazu_1h_CNN_cuda:0_checkpoint.pt (torch, 220443 bytes, 12 tensors)

block_1.0.weight f8 [32, 1, 3]
-1.2367371313743874e-10 -1.5109451326711544e-10 -1.6910240024474248e-10 -3.3420714641803006e-31 7.726321430679733e-32 1.030623637799844e-31 4.631048647666421e-05 5.27675538725207e-05
4.013250531804454e-05 2.2200727295177752e-29 -2.727307317042432e-29 8.105113966679486e-30 -0.0420740466078621 -0.0592706799743508 -0.04519820968297887 4.5002262083870186e-32
1.7377457028620232e-32 -2.072108294497962e-31 -0.004170533323852 0.001924185212997248 0.006880172188570399 0.0396482603352964 0.3164870889254989 0.31312640285405324
-2.2472305878392516e-10 -2.658661551033693e-10 -1.773076713316017e-10 7.716344888394071e-26 8.340855062776021e-26 7.968686678573085e-26 0.15723045217085913 0.2868133450859183
0.24054988783503767 -3.2569439506198864e-20 -3.3033842834418795e-20 -3.205076930513334e-20 -0.4105794250339273 -0.43861107324367943 -0.3538943752278201 -1.7121114670069523e-19
-8.884494383925473e-20 -1.9320258094739016e-20 -0.19320146219208742 -0.22245885565416654 -0.19120906216391856 -5.451806405182086e-22 -5.75324656178892e-22 -5.256009672138765e-22
1.424827161400608e-15 9.840829220025722e-16 1.6912988704373509e-15 -0.15356803129294655 -0.19685891951200366 -0.15418053812795357 -1.6520018595675624e-32 -3.5837405700476895e-32
4.7690429526394167e-32 3.968181554675635e-07 -1.7768748405779216e-07 5.645624292713257e-07 0.038646571758937105 0.06756115130776978 0.057406591810840624 -3.6683093760483873e-28
-3.641674019842353e-28 -2.3626009120916745e-28 2.1531726194018997e-19 8.787992038419884e-19 -6.852956282317163e-20 -0.17064104580399955 -0.2118359941873217 -0.16965347575439685
-4.391114983488307e-16 -4.491757593986804e-16 -4.466902381282791e-16 1.0023544370293113e-31 1.0713318434754624e-31 4.0699444858992055e-32 -8.886290510254904e-29 -2.2680061658609964e-29
7.48632858564335e-29 -2.335624239624904e-28 1.2233889609579941e-27 6.888795927467392e-31 -4.731554930452975e-14 -4.703947849522415e-14 -4.641033647504725e-14 3.437780333306957e-28
9.535835925551846e-28 3.2213136650157293e-28 4.0444970119461086e-22 2.0301268126447262e-22 3.23322936694903e-22 -0.04210807590472313 -0.05784752476753307 -0.0439008890336466
00000000: d588 dcc6 61ff e0bd 20c4 2563 2ac4 e4bd
00000010: 8c12 7203 c33d e7bd 05d2 4cfb 351d 9bb9
00000020: a635 0bd7 c612 7939 a13d b308 0bb9 8039
00000030: 5fd3 f332 b047 083f b6c4 6a58 57aa 0b3f
00000040: 19e5 fd61 7e0a 053f f0e8 f543 8c24 fc39
00000050: 941e 1d23 4f49 01ba 61dc 970c 858c e439
00000060: 14de 61bc ba8a a5bf 46fa 3300 ba58 aebf
00000070: a62f da40 3824 a7bf 503c 4788 4835 6d39
00000080: 316b 5c8d a68e 5639 5dc0 fcbd 99cf 90b9
00000090: 1aa4 b903 1f15 71bf e6d8 eb23 9e86 5f3f
000000a0: 80f2 a628 622e 7c3f 297f f7da c64c a43f
000000b0: 08a4 2210 5341 d43f 086d f152 430a d43f
000000c0: e724 1b5e bde2 eebd 2ed9 90b7 2a45 f2bd
000000d0: bc80 6b86 755e e8bd 31da 3bad 84e1 b73a
000000e0: 2c43 6663 4ed0 b93a 02fa 13ac 71a9 b83a
000000f0: 3e2b 01a1 2020 c43f 0dd3 4c5c 265b d23f
00000100: 126b a7b6 56ca ce3f 8f42 c629 c139 e3bb
00000110: beca 91e5 ee7f e3bb 8adb e614 60eb e2bb
00000120: ce98 bbec ee46 dabf 20af cf2d 3412 dcbf
00000130: b4e0 f597 34a6 d6bf 2b73 589b 2c44 09bc
00000140: 1813 1125 ef38 fabb de70 0991 30cf d6bb
00000150: 3fc3 d354 d3ba c8bf dbbf de22 8879 ccbf
00000160: adaf 58de 8979 c8bf 99c5 17e3 a998 84bb
00000170: 539a ddda 32bc 85bb d3db c8f6 4cdb 83bb
00000180: 54f2 f901 dbaa d93c fa3e 430d 48ba d13c
00000190: 8908 4a46 bd77 de3c b6a1 0e04 1ea8 c3bf
000001a0: 116f 9d4e ac32 c9bf 1239 7818 30bc c3bf
000001b0: 9649 e0c1 b771 55b9 88d6 8da7 8242 67b9
000001c0: 2193 a387 eef3 6e39 883e 46b4 48a1 9a3e
000001d0: 81db 7ea3 4bd9 87be caff 42e9 8df1 a23e
000001e0: 0943 9dc3 7bc9 a33f 9bd3 5807 b04b b13f
000001f0: 0005 ce94 6564 ad3f 6a00 fc1f 3710 3dba
00000200: fba4 de41 31da 3cba c09c 8587 ecb7 32ba
00000210: 88fd 68c7 74c6 0f3c 3066 3b0c 0336 303c
00000220: f32b c686 f239 f4bb 61ad 8ad7 90d7 c5bf
00000230: 8539 931d 711d cbbf 5949 0281 34b7 c5bf
00000240: 4627 0b6c 2da4 bfbc 6081 8a46 ea2e c0bc
00000250: 5e1d 1f81 fd17 c0bc d3c5 4210 9e43 8039
00000260: b44e 5d6c 2362 8139 ed40 baed 5a6a 6a39
00000270: 8410 ff54 6a29 1cba 8aac 71ce 19c0 fcb9
00000280: f4d2 aa9d a1b9 173a 7abf b170 3581 32ba
00000290: f7ee 28aa 513b 583a 27d1 af14 bcf1 ab39
000002a0: 74fd 4ea8 e3a2 2abd cb2a 3c71 1a7b 2abd
000002b0: db5f db32 6f20 2abd c531 3d9a a53c 3b3a
000002c0: 9ae9 e245 3ee3 523a ada1 acae 9985 393a
000002d0: 0b42 7bea 318f 7e3b 1c88 8436 acad 6e3b
000002e0: 32d3 c4a2 f96d 783b f508 d191 308f a5bf
000002f0: efec 0fd6 309e adbf 8a65 5465 2d7a a6bf

block_1.0.bias f8 [32]
-3.486159302112825e-10 -8.845006850212657e-12 -0.024628810943083054 -3.478050451845833e-10 0.059864356826116356 -6.694012947278162e-13 -0.0006195954409154669 0.03177960513123843
-6.730171608550673e-05 -5.677594165687002e-25 -0.31976707356309686 -8.01419527648452e-20 0.5070149083683042 -1.317943424927698e-18 0.2550364093461373 -1.903294433251564e-21
-2.2371527517053308e-09 0.09927043434605716 -9.069896845711905e-13 -0.005270630773788848 -0.07712087295462829 -9.801149678368515e-12 -1.5953101495246385e-06 0.10533987727753356
-4.64904694495342e-16 -3.3639382554674546e-13 -3.896912278371846e-10 -4.4881481444566136e-10 -6.643278833039955e-14 -1.8935639807811685e-09 -5.2845239589913047e-08 0.058163497954679476
00000000: f102 ca92 eaf4 f7bd b164 64d3 4b73 a3bd
00000010: cfdd 2886 4b38 99bf 380a 01ac a6e6 f7bd
00000020: 014b 877d 8aa6 ae3f 6afd b94b 6e8d 67bd
00000030: d7da e613 8b4d 44bf 5dda 6f99 6a45 a03f
00000040: 5005 9fad 8aa4 11bf 0cb4 6121 d1f6 e5ba
00000050: d4a1 d250 1077 d4bf 84d1 9dd0 5aa7 f7bb
00000060: 7ad7 4054 7739 e03f 1ec7 ced5 cf4f 38bc
00000070: 5594 5b3b 8452 d03f d81d 5731 e2f9 a1bb
00000080: b401 9109 8d37 23be 25dd f984 c969 b93f
00000090: b247 d7d2 6fe9 6fbd edea d72c a896 75bf
000000a0: 75d9 2d8b 31be b3bf a26e 7d87 8e8d a5bd
000000b0: 5308 2f0f cec3 babe 1f25 dfdf 8df7 ba3f
000000c0: aff0 6a2c fdbf c0bc 9799 b3b3 eeab 57bd
000000d0: 39ea ba44 85c7 fabd ce18 293b a2d7 febd
000000e0: 0b9d f9a4 fcb2 32bd 6c54 39c1 fd43 20be
000000f0: ad9f a692 fe5e 6cbe 6397 1223 9bc7 ad3f

fc.weight f8 [12, 736]
4.2173286018585364e-11 -3.056737319261727e-11 -8.197118052833065e-12 1.364594824832886e-11 -5.6509342797951685e-12 4.436892358665458e-11 -1.6909379640910883e-11 1.2630502620322826e-11
-3.4139684875412263e-11 -6.297056809388003e-11 -3.247812669040131e-11 -5.024362323733269e-11 -6.344628300172762e-11 -2.3893170654216e-11 -3.5483542695352844e-11 -2.933434828178978e-11
3.1600358113516735e-11 -1.1383524605383252e-11 2.7283167427151617e-12 4.291295409644268e-12 -1.1892335337137473e-11 -2.9181590550661245e-11 1.6412001602729428e-11 1.7274126501336495e-38
6.185255085085583e-38 -4.229538704527947e-39 -7.062598069673587e-38 -3.194534985135809e-38 -2.7820176573671283e-38 -9.514315691283982e-38 -1.8846683402583712e-38 3.1396008938210095e-38
-4.648222694130203e-38 1.7720663230168748e-38 2.650771669692418e-38 -6.893885056199404e-38 8.831872473399469e-38 -9.890989366530963e-39 8.053439581647606e-38 -3.8490184984532646e-38
1.6820166806664268e-38 1.052512951716798e-37 -1.178993014030703e-37 -6.973171666418265e-39 -1.0746542304698735e-37 -1.4416721577774254e-37 2.1623648919480184e-06 -2.0567422016327326e-06
-2.1852094669711153e-06 -1.6991821241148201e-06 -1.994642277100732e-06 9.438290472081538e-07 9.199069940810229e-07 -1.8254072985210247e-06 1.1072535888491793e-06 9.289954037191763e-07
9.760172379952065e-09 -1.400475242321576e-06 -1.2108740582834905e-06 1.4310458862630627e-07 1.7075718828449594e-06 1.9203525188386903e-06 -1.8410585401493522e-06 -2.330926868091784e-06
-1.7063055060378502e-06 2.3604881749777032e-06 1.9816194524566317e-06 -1.6384629123211407e-06 6.197538941990916e-08 2.034823084693557e-38 5.137265250300466e-38 5.8136210581039213e-39
-1.9696121093087732e-37 -1.0251580381514538e-37 1.1371422073330113e-37 -1.6096867424729411e-37 -1.5341261343027678e-37 -1.3347573191528376e-37 1.0682311012219393e-37 2.4625476897805852e-37
-1.8068364600256948e-37 -2.4921593100309952e-37 -2.499063363605595e-37 3.9453804873542524e-38 1.588938571389647e-37 9.377574292791265e-38 4.723405009094992e-38 -1.4023501661234793e-37
-6.322290236075363e-38 -4.619928964463154e-38 -4.4701900587063797e-38 5.974239654288905e-37 -0.008433107078777853 -0.004566440915582582 -0.0005453639409662644 0.0018053138104470131
0.002326191199524239 0.001334641263070819 0.002373773055243182 0.006468538785111194 0.010411375813376351 0.010541503775936246 0.006534797478204833 0.0017695976965670024
0.0017688952029670199 0.004824640637926405 0.005038003247898629 0.0032675917369180264 0.0022050577505114697 0.004825201731748456 0.010029662539374687 0.007835340451764183
-0.0005666529803154529 -0.01343265025216929 -0.026648022164441225 7.080442809476702e-38 4.754693717291918e-38 1.038409202032245e-37 7.565318925159549e-39 4.292458267578209e-38
1.8362118495368543e-38 -2.813994140370794e-38 8.838891167051443e-39 -7.505402631754038e-39 -2.2255501049763372e-38 1.022927010000654e-37 -1.1532517913951375e-37 2.787450051133246e-38
-1.1276024262203245e-37 7.386318069043394e-39 6.356502077390347e-38 9.709053412659266e-38 -3.1274762462895204e-38 1.5432812976032838e-37 1.4107835733023751e-37 9.53142161058387e-39
1.0702323583236177e-37 -4.259777978251109e-38 0.0003459955339428287 1.7181099736624725e-06 -0.0001164503394673129 -0.00046852014853634733 -3.321830511310478e-05 0.0012383014598791424
0.0008791028354271855 -0.0005625666472435582 -0.0007361356848970705 0.00011739896686862634 0.0004273414421868962 -0.0001707216284472718 -0.00031648462025289843 -0.0001405061501707877
-0.00027790638872458027 -0.00039849855296935185 -0.0010347066046222022 -0.0009058718391992477 -4.1921399702127564e-05 9.560024237658371e-05 0.0005382722795481945 0.0022075086978517538
0.0016706854769714989 0.057358123304278336 0.04370218789487407 0.02816808869913815 -0.002755450905396849 -0.006804862149044453 0.046856527950570014 0.08002157797396539
0.04806399200387256 0.0071874936978724435 0.0024276785307366217 0.014939363279203614 0.012412212017626864 0.010487150250448494 0.017687638816594083 0.026633204855345198
0.037741412667250174 0.01914538784028498 -0.022988160183891198 -0.024012243883574577 0.016162603747190835 0.06268220175538562 0.15990838176915975 0.20696003202471436
2.8934501139157713e-37 9.004504881211605e-37 -9.748682885181107e-37 -1.0986272105141536e-36 -1.0203550093128492e-37 -7.716805550023569e-37 -1.0338184626593663e-36 1.0249412747541771e-36
-7.162876561196016e-37 -1.1399771101568426e-36 1.0056797448830448e-36 3.239639669995711e-37 1.1334659827032843e-36 2.134437949097028e-37 -3.996900518971212e-37 1.1171463978206351e-38
-7.072966309011757e-37 2.2925775733045764e-37 1.212872282721651e-36 -1.025613741116661e-36 -7.635482726429713e-37 1.0897935375589403e-36 5.553591796291807e-37 -1.2441581169085451e-26
-2.556464157049768e-26 -2.0144773530768974e-26 -2.925603455441045e-26 -1.1283778866873304e-26 -5.963401037302926e-27 1.1076401397259647e-27 -6.843039565080597e-27 2.3612143446534134e-27
8.131802862557213e-27 -5.894169305587964e-27 -5.788909243363187e-27 -3.326863138954612e-26 1.1686091238373003e-26 -5.222229592446811e-26 -1.4063099307662204e-26 -1.7641362029679467e-26
-3.1137801091512073e-26 -2.96630043524444e-26 -1.6493958818811777e-26 -9.068210649713119e-26 -7.273213260424141e-26 -1.071407030256978e-25 -0.028944158136873302 -0.024861462446026206
-0.015697496110620927 -0.010196629343182032 -0.0054200290098487085 0.019198719975980338 0.05448489447662161 0.05285455893937725 0.017809940688129716 -0.004806512110581128
-0.018880237465802086 -0.03263873181609112 -0.025473491459767555 -0.005681847665777137 0.01632683456330031 0.0333069897210099 0.01834031574442931 -0.005201067410705405
-0.007926310874873348 7.072892075640823e-05 0.015352247205296885 0.03451852759141435 0.0322435120093112 -1.0925202830027263e-21 1.7663541469079803e-21 1.0391047745329797e-22
00000000: 3f52 f7c2 5c2f c73d 8a17 25af f9cd c0bd
00000010: 2ca6 b935 9106 a2bd 90c3 f565 fc01 ae3d
00000020: 1d37 bfe9 62da 98bd 9f4f 1df1 5e64 c83d
00000030: 1d5b ae36 9197 b2bd fd04 b842 57c6 ab3d
00000040: 77b0 d3c6 bbc4 c2bd 2f73 73e8 284f d1bd
00000050: 9592 86d5 e3da c1bd 86f4 984d 299f cbbd
00000060: 5281 3da0 a270 d1bd 49f4 2a64 5445 babd
00000070: 1001 775b dd81 c3bd d95f a947 7120 c0bd
00000080: 82f9 60e3 5a5f c13d 7ec4 1aca 5a08 a9bd
00000090: f099 a385 9fff 873d c562 aab0 91df 923d
000000a0: e049 ce24 ca26 aabd 55a2 469a f10a c0bd
000000b0: 4888 4d59 910b b23d 60a8 1493 2783 1738
000000c0: 659e f5f9 1d0c 3538 ff26 ddd6 1d07 f7b7
000000d0: 5661 faff 6308 38b8 9abc f136 aabd 25b8
000000e0: c582 9a56 f5ee 22b8 2479 5ca6 1130 40b8
000000f0: 7288 6c56 1ca7 19b8 0eb3 89ca f45d 2538
00000100: c2ff 3a99 58a2 2fb8 b3ec 55fb bf1e 1838
00000110: b4ea f4ab 4b0a 2238 9210 9cbd 6b75 37b8
00000120: e7b5 6560 a50d 3e38 780f 1078 03ed 0ab8
00000130: 1b3c 730a 8967 3b38 aa20 b09d ef31 2ab8
00000140: 9579 4004 f9e4 1638 d94d 6028 57e8 4138
00000150: e160 cc23 3d0f 44b8 c7e0 7e65 97fb 02b8
00000160: a9d0 2d82 c748 42b8 dd4d 2a2c 5e87 48b8
00000170: daed ccab a423 c23e 79f6 a6fb d140 c1be
00000180: b76b e99b b354 c2be 44f8 cf80 ee81 bcbe
00000190: 3a1b 3f30 76bb c0be e3db 2906 6eab af3e
000001a0: 2748 78df f0dd ae3e e0b2 d68c 10a0 bebe
000001b0: 3b55 2232 9e93 b23e 4198 407f 022c af3e
000001c0: d821 8c25 b6f5 443e 7b60 37d0 fe7e b7be
000001d0: 9dd9 5a1b aa50 b4be ab97 0146 0935 833e
000001e0: 519f f423 f7a5 bc3e 6918 42f6 ec1b c03e
000001f0: 6c24 b645 49e3 bebe 3e87 f498 a08d c3be
00000200: b1c1 92be 86a0 bcbe b6ef 0919 1ccd c33e
00000210: f863 9dd0 7e9f c03e e53c 1606 257d bbbe
00000220: d198 b294 eaa2 703e 8755 6ed8 52b2 1b38
00000230: 3e2c 036f 307b 3138 42d8 734f 01a7 ff37
00000240: e489 da71 6fc1 50b8 7610 ec68 3171 41b8
00000250: 7fc3 56ee f358 4338 dab3 d5b1 2c63 4bb8
00000260: fcc7 19cd 0f1a 4ab8 5e10 d124 b0b5 46b8
00000270: d22e e67a cd2c 4238 737e d736 f4f2 5438
00000280: 16d6 bbf9 e1bd 4eb8 6b7e 823e 7133 55b8
00000290: ce94 f661 7a42 55b8 933b cb7f d2d9 2a38
000002a0: b235 f9b5 cd08 4b38 f110 e7f2 04e9 3f38
000002b0: 75b1 0984 aa12 3038 5409 cbaf 18dc 47b8
000002c0: a10d 15d6 7d83 35b8 a84e 662c 0d71 2fb8
000002d0: 0f98 c763 2b6c 2eb8 6ae1 1cf4 5e69 6938
000002e0: b72b db78 6045 81bf 1ac3 43a6 42b4 72bf
000002f0: ca27 3b25 d8de 41bf eabf 97f1 0894 5d3f
00000300: c8d3 0964 600e 633f 1dfc e924 e4dd 553f
00000310: a31e 7eb4 2972 633f 6032 8f28 c17e 7a3f
00000320: f79f ff34 8f52 853f 9417 bfaf c896 853f
00000330: f128 4757 3bc4 7a3f 5c1b f70e 3bfe 5c3f
00000340: eaae fec2 48fb 5c3f e9d9 139c 00c3 733f
00000350: 9d67 fdb2 baa2 743f df1d b2f4 a2c4 6a3f
00000360: c25b 935d 5710 623f d2c1 263a 97c3 733f
00000370: d5b1 c584 6e8a 843f 1363 f297 f90b 803f
00000380: 70a8 6202 6e91 42bf e8dd 40cc 9382 8bbf
00000390: 8e24 cc7e 9e49 9bbf bac7 8682 ef17 3838
000003a0: 7c4a 8021 ec2d 3038 e97a 89f3 e8aa 4138
000003b0: c068 60ff 4198 0438 6fcd ac5c 8436 2d38
000003c0: 7761 17b4 43fe 1838 63d4 8753 ab26 23b8
000003d0: c6ae c6e0 ce0f 0838 ed16 d992 806e 04b8
000003e0: 2b65 5f08 e94a 1eb8 4c4c f7ba 7967 4138
000003f0: 84f0 acb7 1e9f 43b8 dd2f 5244 6cf8 2238
00000400: 14f7 38b8 662f 43b8 b007 7e2d 831b 0438
00000410: 6408 f254 4ba1 3538 6dac a1a1 e384 4038
00000420: 1450 8504 d548 25b8 ce77 3d26 f041 4a38
00000430: 540c fb3f d400 4838 03ad 0f70 6ef2 0938
00000440: 5bb9 d0f4 8435 4238 369a 4577 94fd 2cb8
00000450: 778c ba80 d7ac 363f 7daf d2e4 39d3 bc3e
00000460: 1f0a 3699 d986 1ebf d0bd 29b7 76b4 3ebf
00000470: 0aa1 d045 7c6a 01bf 3010 7511 d049 543f
00000480: c111 c8f6 72ce 4c3f 4489 05ad 266f 42bf
00000490: 9324 9558 271f 48bf 84ce a4e4 82c6 1e3f
000004a0: 040e b784 9901 3c3f f666 2e9f 7760 26bf
000004b0: 24f7 fa17 bbbd 34bf 850d c6a3 9a6a 22bf
000004c0: 66fe d5d9 7e36 32bf 4747 a440 b21d 3abf
000004d0: 5d99 c7c1 dff3 50bf 43b9 3cf6 00af 4dbf
000004e0: f8ac 6653 98fa 05bf 89ed 71a8 9f0f 193f
000004f0: eee8 22eb 5aa3 413f 938c 3635 7b15 623f
00000500: 9158 12df 5c5f 5b3f 5ced 803f 0b5e ad3f
00000510: c854 8b17 2260 a63f 6ab6 036f 18d8 9c3f
00000520: e4fd c770 9992 66bf 3198 2446 6adf 7bbf
00000530: cbb9 4d2e 94fd a73f da5b 5f4c 4b7c b43f
00000540: 5f2e 8bf3 d79b a83f 200a f625 a270 7d3f
00000550: 9b81 a1fc 35e3 633f ef6e a865 8798 8e3f
00000560: f869 7ee5 926b 893f 1fd1 d47a 497a 853f
00000570: 42fd 0a59 b51c 923f ae91 5d1f bc45 9b3f
00000580: 00ab 38aa d752 a33f c4b2 923a d99a 933f
00000590: 6b76 bd50 358a 97bf fcee bb68 aa96 98bf
000005a0: 68b0 0cfa ed8c 903f cfa5 94d6 f00b b03f
000005b0: 7704 07bb e077 c43f 8c08 9094 aa7d ca3f
000005c0: 6694 e757 609d 5838 ca47 64ce 8426 7338
000005d0: 1ab3 de14 b0bb 74b8 7d6b d6d7 7e5d 77b8
000005e0: d479 8eda 455c 41b8 d585 e8b6 6d69 70b8
000005f0: 4b79 e0a1 a4fc 75b8 0b54 63a3 4fcc 7538
00000600: cd56 4190 ae77 6eb8 a05f 0d31 a03e 78b8
00000610: 8411 dffb 7063 7538 9e85 6b78 4f8f 5b38
00000620: b2bb 2401 2d1b 7838 bca9 ceeb 6428 5238
00000630: 8510 2f40 3d00 61b8 1841 fcc5 5f69 0e38
00000640: 6396 413e c715 6eb8 9451 2fb5 ca80 5338
00000650: 67ef c33b 81cb 7938 2a71 67eb f8cf 75b8
00000660: 2a8e 99f7 263d 70b8 7370 0080 662d 7738
00000670: 6ed9 df71 539f 6738 fe3a 8ef6 c9cd 8eba
00000680: 79d9 7620 c2a5 9fba 5961 4731 22f0 98ba
00000690: 1abf 9ec0 cd1b a2ba e7c0 80cc f1ef 8bba
000006a0: 8203 8e47 8287 7dba c7a5 be1a 67f0 553a
000006b0: 0a5a b1a6 4af1 80ba c1ca 5eba 6362 673a
000006c0: 73eb a873 2422 843a 7723 4e4c bf2f 7dba
000006d0: fd61 7574 50aa 7cba f8dd 8004 a097 a4ba
000006e0: dabc 9ab6 f0ee 8c3a b0f7 12ff 7929 b0ba
000006f0: 06fe 6c29 c668 91ba 0082 9652 c5d6 95ba
00000700: 380a 9445 fb45 a3ba c3b7 a068 4a5c a2ba
00000710: 0827 3dea 246b 94ba 6abc b0a0 9310 bcba
00000720: d4b2 a2e7 6e82 b6ba e6ea decf 4794 c0ba
00000730: d4b7 6e92 89a3 9dbf 4db0 8b80 4875 99bf
00000740: 8e62 b221 0113 90bf d59a 776c f8e1 84bf
00000750: ec63 73f5 4f33 76bf e305 b049 d4a8 933f
00000760: 3c63 ceaf 71e5 ab3f 6aa2 2db4 c00f ab3f
00000770: e865 32e3 c43c 923f f214 2a45 feaf 73bf
00000780: 3049 d349 5755 93bf 314f 771b 06b6 a0bf
00000790: ab44 f012 b915 9abf d661 7c5e d945 77bf
000007a0: c17e fc51 fbb7 903f a4ee 281f 9d0d a13f
000007b0: 4555 48c1 cdc7 923f b1ad eee6 b64d 75bf
000007c0: 2953 e26f ab3b 80bf 28b8 2a9b 898a 123f
000007d0: 65b9 55bd ff70 8f3f fbee 3896 69ac a13f
000007e0: 4125 2dbb 3882 a03f 8ca2 209a 1aa3 94bb
000007f0: 8b64 d142 c8ae a03b 3d67 740c af67 5f3b

fc.bias f8 [12]
0.1062085956614106 0.10870746494637754 0.1086889410153006 0.10791851265310243 0.09599248052379157 0.09034904279056798 0.08876199575287456 0.09020496395808374
0.10003782424719719 0.10356287109871098 0.1081771201077627 0.1029617815361645
00000000: 077b eb8c 7c30 bb3f 1298 c69e 40d4 bb3f
00000010: 9afb 18d7 09d3 bb3f a460 7a32 8ca0 bb3f
00000020: 55f8 8294 f692 b83f 2fa9 0268 1d21 b73f
00000030: b7e3 e22c 1bb9 b63f 2f07 232a ac17 b73f
00000040: 8734 812f 149c b93f 58e6 72a8 1883 ba3f
00000050: 58ce 09e9 7eb1 bb3f 8e8b 6f0c b45b ba3f

exp_avg f8 [32, 1, 3]
-1.8968882907376663e-12 -1.7349492471003474e-12 -1.5309788397296806e-12 -6.116072529963575e-33 3.582231330217404e-33 1.5064293955290049e-33 9.515852096436186e-07 9.720967825366207e-07
9.057155542433068e-07 -1.9912837673126413e-32 -4.2225532526371975e-31 4.366906855777872e-32 -0.0005664123491949959 -0.0005736249201088728 -0.0005703724831003414 -6.408071566382878e-34
-7.439737776948417e-34 -2.1390606390156576e-33 1.2417129524933754e-06 1.3916177253433302e-05 3.168757631352846e-05 -0.008743285950473122 -0.009351899194913603 -0.009061112547364683
-3.023378762606221e-12 -3.5181488402527885e-12 -2.350956475470395e-12 -1.3217097883217455e-27 -1.4266785245254493e-27 -1.3075434301728824e-27 0.0004365884297854741 0.00013237143629862028
9.739855330041107e-05 -3.711640969107863e-22 -3.5349034284166827e-22 -3.667572839758246e-22 -0.004236844604253708 -0.00418657734610868 -0.004136141763556642 -5.77553454597614e-21
-6.020286440742641e-21 -5.8449904592794874e-21 -0.0025458520505065286 -0.0025279011728123603 -0.0025896243216369528 -7.990841528791711e-24 -6.533058580907445e-24 -5.4962704685969e-24
-1.0735721295306255e-18 -8.377760928686822e-18 7.045907900552263e-18 6.853737919348642e-05 0.00012161795971096646 9.776676890025858e-05 3.9857417907912435e-34 -3.22683507171677e-34
3.0931571288227513e-34 -2.133016327896952e-08 -2.8743695705273438e-08 -1.8882933560032532e-08 0.0002520443483087094 0.00017963935418786905 0.00016636161610748213 -3.879003650046731e-30
1.106255031549308e-31 -4.751395338959064e-30 5.1115838446859e-21 1.6013713836003496e-20 -1.2074521727644746e-21 0.00011576141691456206 5.568621191229831e-05 5.120254557843311e-05
2.6377736054580706e-18 2.6905572928368903e-18 2.611404517333114e-18 1.2743557144157484e-33 -5.7250118769924576e-34 3.493693774294093e-34 1.414789840240277e-31 2.910623877512439e-30
8.706859271681826e-31 1.5485184767167228e-30 3.949622878391082e-29 -1.3041359118594704e-30 -2.2678823661607584e-16 -2.2472835840802624e-16 -2.244890427226879e-16 6.866177178535454e-30
7.020607511765337e-30 5.1294751016467374e-30 4.180023715035202e-24 -9.474192822468539e-24 3.635428202432789e-24 -0.0004952084227731324 -0.0004936221795732868 -0.0004862466315465226
00000000: 696b afa6 69af 80bd 24c9 df4b 8485 7ebd
00000010: bb8d 6b6d eaee 7abd 4373 02a3 a7c1 3fb9
00000020: 2a5f e927 9a99 3239 4c13 f570 8d49 1f39
00000030: 2afe 7101 0eee af3e 8899 39b7 1f4f b03e
00000040: 9000 1391 0964 ae3e fd05 46e2 2cd9 59b9
00000050: c529 0d33 f320 a1b9 0786 52c0 c457 6c39
00000060: 0c25 0742 698f 42bf 0026 d222 eacb 42bf
00000070: a888 aa94 a1b0 42bf d0ae 0c02 3b9e 0ab9
00000080: 6316 9643 49e7 0eb9 dec9 053c 9936 26b9
00000090: 9067 62d4 1dd5 b43e cef7 89d6 302f ed3e
000000a0: c2f0 e6d4 089d 003f 3920 bcf9 ffe7 81bf
000000b0: acc5 94a9 1627 83bf db50 73f0 a18e 82bf
000000c0: 8369 2c32 0b98 8abd e0a6 27ba 2af2 8ebd
000000d0: f092 7323 e2ad 84bd 8d2c 3c65 dd2d 5aba
000000e0: b132 f29a 1e42 5cba aec9 4569 08e6 59ba
000000f0: 1902 1a07 bd9c 3c3f d69e cafa a559 213f
00000100: 078a 8767 4e88 193f ac6c 3b96 5b0b 7cbb
00000110: 1833 4765 7fb5 7abb 0987 2b1b 1eb6 7bbb
00000120: b24f 3750 a75a 71bf d014 8acc f125 71bf
00000130: 3d91 b219 0ff1 70bf 4987 9d5d 3146 bbbb
00000140: d573 8268 146e bcbb ec8a 00ee 289a bbbb
00000150: 3b23 84e9 09db 64bf 5f06 ac9b 64b5 64bf
00000160: 82c3 a6f8 d536 65bf 5cfd ed61 1752 23bb
00000170: 3314 69e8 8897 1fbb 8303 bfa3 0d94 1abb
00000180: bc3c 0d11 cdcd 33bc eb74 e96f 5b51 63bc
00000190: cdaf 797f 2b3f 603c 182f 7135 77f7 113f
000001a0: 96f7 64a3 a4e1 1f3f 011b dd4c 04a1 193f
000001b0: 46db d21e 5e8e 0039 c142 131f b8ce fab8
000001c0: 493b 2eed 6ab2 f938 a365 94cd 30e7 56be
000001d0: ddf0 11c5 01dd 5ebe 01b2 2d52 8046 54be
000001e0: 173f ae3b 9a84 303f 09b2 784d b28b 273f
000001f0: 1fcd a666 2bce 253f 994d d50f 3cab d3b9
00000200: dc6a 7120 34f3 8139 088f 07ed a917 d8b9
00000210: fa53 8d93 8623 b83b 2a5f 9018 d9e7 d23b
00000220: 2250 e363 e1ce 96bb 5913 c8ff 9d58 1e3f
00000230: 59f3 08ac 1332 0d3f e1b9 e111 4ad8 0a3f
00000240: d588 184f 4454 483c fe68 1917 e6d0 483c
00000250: 41e0 582c 0116 483c 83e8 7d1d a377 1a39
00000260: 72e5 4579 e0c7 07b9 7e8f a3d1 4306 fd38
00000270: 9d16 6d9c cef4 8639 0ed6 205f 6984 cd39
00000280: 083c 241c dca8 b139 695c 7a1c 5e68 bf39
00000290: 1252 3828 a108 093a 71c7 dff6 7573 bab9
000002a0: e47d d42a 8157 b0bc f20a e1aa 8131 b0bc
000002b0: bfd0 f787 172d b0bc a256 c05d 6768 e139
000002c0: 1c72 aa81 a2cc e139 b79f 297a 7002 da39
000002d0: a4b6 9064 9e36 143b 6283 fac6 3de8 26bb
000002e0: c8ae 8b2f 7194 113b 7b7e 81fd 1b3a 40bf
000002f0: 88a0 158f cd2c 40bf 4031 5a61 dddd 3fbf

exp_avg_sq f8 [32, 1, 3]
3.742560654128954e-08 4.2323044910003225e-08 4.959038204785587e-08 1.9046386701883895e-06 1.7191528772018042e-06 1.7538002079546144e-06 6.27217243499061e-06 6.4964134034911146e-06
6.105164204646583e-06 2.62075490433189e-06 2.7740826512007393e-06 2.1474760076968397e-06 1.732513182554747e-05 1.89946787358888e-05 1.876549680349212e-05 1.5472537535539871e-06
1.8521960107336925e-06 1.6222331335885472e-06 3.6855693412665806e-05 3.9200695919621847e-05 3.795957338683793e-05 0.00135229650749126 0.0014156660999194185 0.00127896255490894
2.017962570799936e-05 2.1633287408928885e-05 2.1445390099754696e-05 3.1874479882723646e-07 3.4360084301582074e-07 3.47367972303842e-07 5.38499204360145e-05 5.565067928827502e-05
4.925736063424862e-05 4.2742802391471155e-07 4.4918152744907456e-07 4.2194695576128103e-07 0.0001967761595562922 0.00021348853720970406 0.0002206170203632696 1.0008060402739187e-06
8.173733677123548e-07 7.2519525804428e-07 6.63866045480611e-05 7.174774120240904e-05 7.272231211163044e-05 2.8355251502777647e-07 3.29882065530796e-07 3.8311365476071316e-07
1.665308155407327e-06 1.697588667016403e-06 1.6282021953823176e-06 2.459574440968136e-06 2.811019206010011e-06 2.753555718454015e-06 1.4264375197893617e-06 1.3712035690111485e-06
1.5031304927817383e-06 3.8981083031543025e-06 4.038819542792776e-06 3.854725203946065e-06 3.525752922660052e-05 3.725907795790363e-05 3.291530518450242e-05 1.9337028850522255e-06
1.9847120347115298e-06 1.899682702190898e-06 7.984501965083339e-06 8.25790438211731e-06 8.297795949716673e-06 3.686557046209979e-06 3.642640215400392e-06 3.275266095382213e-06
1.281464895998184e-07 1.325666321407041e-07 1.3031114081138166e-07 1.7606039681105525e-06 1.8283497411851805e-06 1.7788348375261621e-06 2.889028970967264e-06 2.948917062419104e-06
2.5442889551916757e-06 3.20691837902352e-06 3.3120792096863816e-06 2.6838036966931574e-06 1.34179461576485e-07 1.3345749059216233e-07 1.25708115925977e-07 3.0336887921018602e-06
3.133227393395503e-06 3.0580877767448644e-06 6.224805184734721e-06 6.493672783790311e-06 6.202401104838049e-06 1.9900329227160304e-05 2.0890745700088102e-05 2.1658955929860387e-05
00000000: 96d0 5877 bc17 643e 3f5e 92c2 d5b8 663e
00000010: e448 3974 a69f 6a3e b75f 555d 5cf4 bf3e
00000020: 1b8b 1294 b4d7 bc3e 5d6d b0b8 836c bd3e
00000030: dc1b 84a1 b14e da3e 41d4 dc84 783f db3e
00000040: 0354 14c2 5e9b d93e c4a0 d43e 07fc c53e
00000050: dcf0 d110 4c45 c73e 9067 a06b ab03 c23e
00000060: 29ae 51fe ad2a f23e 99f8 2c62 d8ea f33e
00000070: 1da1 fb1e 53ad f33e df40 3f7e 67f5 b93e
00000080: 371e fc0c 1f13 bf3e cfff 7e31 7037 bb3e
00000090: a9e1 a7fb af52 033f f422 d8a7 6d8d 043f
000000a0: 9b0d 9802 d9e6 033f 3f00 8c51 f127 563f
000000b0: 8c38 7ae6 bb31 573f e132 2796 5bf4 543f
000000c0: a205 c351 ed28 f53e a6a6 d930 24af f63e
000000d0: f711 6efc b37c f63e 4560 4e73 fe63 953e
000000e0: ca7e 247d 040f 973e 9b31 a87f bc4f 973e
000000f0: 6bc8 642d 9d3b 0c3f 91cb c4c7 4e2d 0d3f
00000100: ffd3 2a06 36d3 093f 5cb8 4e54 28af 9c3e
00000110: 150c e93f e124 9e3e ca24 2f56 fe50 9c3e
00000120: ada3 0057 b6ca 293f db2f 1e92 7cfb 2b3f
00000130: 8673 59c6 adea 2c3f a2c3 e0e0 6dca b03e
00000140: cc0f 480b 2f6d ab3e 2fc5 bc3c 6155 a83e
00000150: 9742 842e 2167 113f 06f6 dfce e8ce 123f
00000160: 6ddd 0fcf 4f10 133f 4c38 4126 6507 933e
00000170: 1ca5 d9aa 5423 963e 9289 34ac d7b5 993e
00000180: 4b64 42ae 71f0 bb3e 5441 837a 167b bc3e
00000190: a685 063f 1351 bb3e 39ac 3e59 e5a1 c43e
000001a0: 73be c526 9e94 c73e 5396 dc43 3719 c73e
000001b0: 5c73 a9a3 80ee b73e ca29 a744 4601 b73e
000001c0: a6e5 7274 e537 b93e 6824 f6d9 8f59 d03e
000001d0: bec0 2f43 a6f0 d03e bb6d c0cb fa2a d03e
000001e0: 1476 cf7a 2f7c 023f 08b1 a32b d488 033f
000001f0: 0adb 4146 d141 013f 1a88 4467 9838 c03e
00000200: 78b7 dffa 22a6 c03e 7f58 5b38 13df bf3e
00000210: 6b60 1598 a5be e03e 5454 74bc 6d51 e13e
00000220: e547 3664 d866 e13e 0fbb 5c2b d2ec ce3e
00000230: a2c6 e5a2 828e ce3e d59e f593 9479 cb3e
00000240: 10c1 6771 1433 813e 5729 8e6d f4ca 813e
00000250: 7ca5 99ea 747d 813e dbac eb88 bc89 bd3e
00000260: 1fac d1cc b3ac be3e d3fb 7696 09d8 bd3e
00000270: cae2 2879 243c c83e 4ba8 bb4c c0bc c83e
00000280: 5b31 34a5 d157 c53e 2e39 0606 cee6 ca3e
00000290: 7085 34cd a2c8 cb3e 25e7 82af 6c83 c63e
000002a0: 810c 9406 5f02 823e f348 7380 90e9 813e
000002b0: ad55 0548 4cdf 803e 0a58 0d0d cc72 c93e
000002c0: 76e7 caf9 8d48 ca3e f983 de88 31a7 c93e
000002d0: 6db3 996b d51b da3e 3b60 e52e 873c db3e
000002e0: 3734 a208 c703 da3e 45fd 1b36 f4dd f43e
000002f0: 9868 f61c d1e7 f53e 07f4 3e1e 08b6 f63e

exp_avg f8 [32]
-1.2194320407052341e-12 -1.2162873286583034e-13 -0.00028841665226189434 -4.528916306934825e-12 -0.0010463201112090332 -9.806943383733265e-15 1.8052058349775857e-05 -0.028742190851415963
-7.294170453971961e-07 -4.242286769478428e-27 -0.00012023906266945266 -6.291827064889659e-22 -0.0106150548656621 -1.5320290135194344e-20 -0.005867720760363164 -2.3110149802120193e-23
-3.841672407961479e-11 0.00042671006070778766 -1.2966614578673819e-14 -6.481700839411194e-05 0.00024077478459097254 -1.4641822213128233e-13 -1.8060448538298876e-08 0.00036849861314393426
7.144749467856582e-18 -5.1447502588984044e-15 -4.871409523034966e-12 -5.784798138699827e-12 -2.659022838871361e-16 -2.389405405482324e-11 -6.240272983151388e-10 -0.0008036331559529042
00000000: a49e 526c d573 75bd a141 b80d 231e 41bd
00000010: d061 ce16 d4e6 32bf f95c 2e40 1beb 93bd
00000020: 089d 29aa 9524 51bf 84c0 e065 5115 06bd
00000030: 2d52 f900 d0ed f23e 278e e3c6 976e 9dbf
00000040: eb26 bb0b a579 a8be 0538 42c4 bc01 75ba
00000050: 9561 125e 1b85 1fbf c958 c4ed 14c5 87bb
00000060: 9a34 f28b 58bd 85bf ed32 2609 4616 d2bb
00000070: abfd 484c c008 78bf 65d1 49b4 3ef0 3bbb
00000080: af9c 9f5a ac1e c5bd 59ed 6fc1 01f7 3b3f
00000090: b433 a990 be32 0dbd 8bbf a0b9 cbfd 10bf
000000a0: b183 aaa6 0f8f 2f3f e649 56bc 459b 44bd
000000b0: ac99 3a15 6b64 53be 1299 f87d 6126 383f
000000c0: 7061 6703 8479 603c a538 f742 7e2b f7bc
000000d0: 39a6 ff32 b86c 95bd 7b73 218b 1a71 99bd
000000e0: 1254 7c08 0829 b3bc 705f 080c 9445 babd
000000f0: df38 d88d 0071 05be 9ae0 b70f 5d55 4abf

exp_avg_sq f8 [32]
1.051517307720706e-06 1.8582264922204724e-05 4.86288399553787e-05 2.3300786056400672e-05 0.00015199946954888284 1.5356970836417676e-05 0.00034260042013872956 0.012901579327364372
0.0001511078205598695 2.5828898613076083e-06 0.00029279926625801444 3.1439778731507045e-06 0.00156585814387966 8.119980431989318e-06 0.0005560720152796176 6.484041072049585e-06
1.1677582481494968e-05 7.30243648328287e-05 1.6406720395808333e-05 3.244039420493993e-05 0.00029983079459874884 1.465217694785477e-05 7.17311576071342e-05 9.961589121174365e-05
9.906318380600627e-07 1.3929421031243422e-05 2.9141840549252618e-05 2.451731873121461e-05 9.464011787513062e-07 2.7539581514049267e-05 4.489612901677984e-05 0.00017659038683758986
00000000: f597 b381 3ba4 b13e 4e57 a385 237c f33e
00000010: 6240 cf37 da7e 093f b40b 49d3 c16e f83e
00000020: 949b 5e80 41ec 233f 236e 0800 5b1a f03e
00000030: 209c 9f99 e173 363f 8ae4 38aa 246c 8a3f
00000040: 46c6 814b 56ce 233f 4e64 c7b7 b6aa c53e
00000050: 2ddf da45 5b30 333f 5cdc 4f1d a45f ca3e
00000060: f92d 2961 afa7 593f 8f86 df9c 6107 e13e
00000070: 9323 578f ab38 423f 01c0 6fa3 2f32 db3e
00000080: 797f 20b7 5a7d e83e 0c86 fa08 9524 133f
00000090: 30ef 943d 2534 f13e 4b8f 1a75 1302 013f
000000a0: 00d2 0675 53a6 333f f60c a5dd 53ba ee3e
000000b0: 0396 73e7 cbcd 123f de58 cbfa 1b1d 1a3f
000000c0: 76fa 8b39 bb9e b03e d996 8b0c 4d36 ed3e
000000d0: 2781 9e08 b48e fe3e 9505 6e50 51b5 f93e
000000e0: c9f4 7e33 86c1 af3e 979c 94a1 99e0 fc3e
000000f0: 782c 2b3f db89 073f 68df 5cdf 6325 273f

exp_avg f8 [12, 736]
-3.531025082585876e-14 -6.317558020754297e-14 -4.5797905066101605e-14 -9.060872471683214e-14 5.4720661588051686e-14 -1.0287837750366171e-13 6.372480922574317e-14 8.713430373209635e-14
6.334314181427894e-14 7.872304939450384e-14 4.962389665365523e-14 7.139033534779263e-14 6.995393337271776e-15 -8.100417825778619e-14 2.252398008295636e-14 4.494952271581187e-14
-4.2956015806129044e-14 -1.4333483745618657e-14 -1.9300632931731075e-14 -5.8624337158155814e-15 5.0727191751109275e-15 -6.756018736550978e-15 3.783337185587823e-14 -6.555872973626241e-41
-3.54692969671183e-41 -3.390560618970007e-40 1.4886984237711745e-41 -1.7105205165826652e-41 -1.0547362063483848e-40 3.6100535526251976e-41 -1.9373330274326334e-41 2.8256047325237826e-40
-7.396740303830675e-42 -1.3706170830168046e-41 -2.2770897576969773e-41 1.9131290463937232e-41 2.0407148477223967e-40 1.9281610183460974e-40 2.502501041925575e-40 5.559431833902813e-41
-7.133891693381813e-41 -1.6755734068887284e-40 1.5463082245191293e-40 8.293908992880463e-41 5.816214109876423e-41 3.5758316446720962e-40 -2.56120416998362e-09 2.628328943617298e-09
-1.752529804725481e-10 -2.7754053010004747e-09 2.9560345881472223e-09 3.935021640326091e-09 -4.288984467873972e-09 1.824690227982173e-09 3.597824713739437e-09 -4.467330109697665e-09
-4.857015624229477e-09 -2.868415787844288e-09 -3.2270547000579558e-09 -4.543376374612094e-09 -2.1638000523969923e-09 -6.09476699736603e-10 3.2843144543865305e-09 -3.305288338422801e-10
-3.232554923461743e-09 -1.879838861300085e-09 -1.8194525236478777e-09 2.615755302689482e-09 -3.817765635271113e-09 2.767678842807975e-41 -1.4785364174497136e-40 2.2447295421799017e-40
7.651665069178872e-41 -7.071023157360754e-41 -3.813283797185564e-40 5.899138794181938e-40 -1.509696784287289e-40 1.0957870235333146e-39 -1.6070561047066597e-40 -1.660914218938403e-40
6.84173407305972e-40 2.1622866267612287e-40 -1.9150913766322863e-41 -4.263107105111871e-40 -3.055154380768427e-40 -1.844532048863123e-40 -4.127926436325859e-40 1.2303814217941212e-40
-5.435260674311123e-41 3.993456891327542e-40 1.8989526802513585e-40 2.593957784982794e-39 -0.00028577151922766047 -0.0002372658399755546 -0.00019148632792283924 -0.00013214119715752117
-7.74578224124707e-05 -5.270239194416516e-05 -4.725552324820565e-05 -3.733731960981518e-05 -2.4095891987692092e-05 -2.09315748600815e-05 -3.469473917550796e-05 -4.4899051316914996e-05
-3.8665842616680704e-05 -2.2865866110205008e-05 -8.454329211232108e-06 -3.1071129627827513e-06 -6.869252978736252e-06 -2.2769583877080472e-05 -6.536486694022746e-05 -0.0001457137288141486
-0.00022613276225164736 -0.00027571844262131204 -0.00031624296573031196 -2.096819104320794e-41 5.711585266681352e-41 -3.3458387740167374e-40 -1.6673024328593027e-40 -1.4227998633722167e-41
-1.0434075698349324e-40 5.650581367840679e-41 -1.1675124621038158e-40 -6.962971510249117e-41 -3.618114212948996e-40 1.2124317211138487e-40 2.2514703553026136e-40 -1.2736427583737204e-40
3.875220642215063e-40 3.1754101370596923e-40 -9.129282611484758e-41 -1.1068211381529188e-40 2.5379388613949585e-40 -1.990886076647913e-40 8.079712203733383e-41 -2.499843708553898e-40
-2.574022785279998e-40 4.794265260134635e-41 -3.0178890961546087e-06 -4.4807453780445186e-06 -6.750121381451393e-06 -8.764784746845639e-06 -1.0059354085171146e-05 -7.720704060283448e-06
-6.696207982006042e-06 -1.0240809831083061e-05 -1.2391700493761152e-05 -1.0223427579953315e-05 -8.159523990099897e-06 -9.619579076845337e-06 -1.1239708936372252e-05 -1.0797253493915056e-05
-1.0881744791805842e-05 -1.1024641226429386e-05 -1.0826160047302445e-05 -7.685203171115979e-06 -2.493785694685184e-06 5.753541936139154e-07 1.7115923814384863e-06 2.1170124527480746e-06
9.993875850364289e-07 -0.0008071674751544115 -0.0009702049391546773 -0.0011900517054770673 -0.0014605330634428616 -0.001725753730424097 -0.0018408053551725457 -0.001804904079782393
-0.001847665648469661 -0.001998632875188968 -0.0020691554422223126 -0.002041324970716909 -0.0020358763180929208 -0.0021001168468636855 -0.002174525187977008 -0.002219027176993565
-0.0021806337439251784 -0.0020147988990288483 -0.0017515353378515556 -0.0014087766744533487 -0.0010339503019160116 -0.0007721631185140829 -0.0006976972430797785 -0.0005738242933656394
7.297199167379562e-39 1.4224557722064987e-39 -1.8048851281568892e-39 1.237093986097156e-39 -4.304651613296013e-39 2.082483008125892e-39 -2.362161673012709e-39 2.3758655394841195e-39
3.374724863696766e-39 -1.3315998133851667e-39 2.277380587009521e-39 -4.811885987102527e-39 3.246410339222906e-41 -4.7048007062583507e-39 -4.633358062453958e-39 -4.90736592342672e-39
3.084636507009478e-39 5.0633793094667664e-39 8.810406511865059e-40 -2.0485373751956533e-39 -3.675115423824576e-39 2.3748101542699187e-39 3.313480129412946e-39 -1.5566382723750446e-29
4.7144601964569016e-29 -2.9264045012617915e-29 1.9957605501156078e-29 -3.061831100330116e-29 -3.520923994289202e-29 2.615953239517113e-29 -7.389376164248465e-30 -7.843936668897343e-30
-2.5764061051161347e-29 1.6361062779910134e-29 5.640241700306019e-29 5.207303098694685e-29 6.023021970937361e-29 -1.673380105486374e-29 6.627355990313088e-29 -7.598200475613593e-29
-7.854413593036126e-29 9.689368887893843e-29 -6.627732691118657e-29 -3.977939030478787e-29 -1.2618347733578518e-28 2.022218363868227e-28 -5.7063463226440197e-05 -4.6721057469184964e-05
-3.921280609100155e-05 -1.638520512519319e-05 -2.0488637591000905e-05 -3.912874332996662e-05 -5.7962296268190047e-05 -0.00010615572961624317 -0.00017470338076637523 -0.0002338311176279336
-0.00023712084313643492 -0.0001736736496314914 -0.00010983643146186417 -5.7276352533020976e-05 -3.376893487730477e-05 -5.8691957729527084e-05 -0.00011453167034496265 -0.00010799335354381165
-4.8834307950035454e-05 -1.5343340990007144e-05 1.293446540394516e-05 3.2642711102318776e-05 2.421721447586668e-05 -1.3438121610281058e-24 2.124397480747422e-26 1.0010565616227636e-26
00000000: 1de6 0052 bee0 23bd 9c08 82c2 47c8 31bd
00000010: f856 bd77 2cc8 29bd 5988 a8f4 0b81 39bd
00000020: 5a61 6814 14ce 2e3d ca3c bc19 2bf5 3cbd
00000030: 7704 373f dbef 313d e7df 7333 b086 383d
00000040: f9ca d2b9 5ad4 313d 41d0 e3f1 9728 363d
00000050: cefb 9ca4 8eef 2b3d b8e4 d83e 3718 343d
00000060: a49b 7cb0 2381 ff3c f280 6058 f7cc 36bd
00000070: 1f16 6b62 185c 193d 9fff fcae e84d 293d
00000080: 679b 8f42 9d2e 28bd 856b e46c 5823 10bd
00000090: df4b 3858 07bb 15bd b742 cd07 ed66 fabc
000000a0: 1822 2770 72d8 f63c bbaa 06c7 286d febc
000000b0: 264e 5f0e 5d4c 253d 864d 67bb 08d8 96b7
000000c0: 6546 bd1c efb7 88b7 e603 9ced 3389 bdb7
000000d0: 06d2 697d dabf 7437 8331 b555 57d7 77b7
000000e0: cc8d 81da 4760 a2b7 e1b9 3dfe 8c28 8937
000000f0: 3ce7 a99e a200 7bb7 0fa8 4d22 4f9d b837
00000100: 0527 1482 7d9e 64b7 a6da c171 861a 73b7
00000110: 0dcc 7981 edbc 7fb7 e991 65c5 45aa 7a37
00000120: a78e 2039 f2c6 b137 a9f8 8858 f1cb b037
00000130: e707 0589 c3cc b537 d479 1dcd 2d5f 9337
00000140: 95e3 9ddf a4db 98b7 86f6 869f 4e31 adb7
00000150: b1fd 63e0 c3f0 aa37 0332 ebfe 69e6 9c37
00000160: 353b c981 3c44 9437 88cd 59fc 5e26 bf37
00000170: 3c69 a8c4 2500 26be 05dd 08a8 c193 263e
00000180: 3ad2 dd83 2a16 e8bd c3be f048 2ed7 27be
00000190: a32b a188 6364 293e aa9a e31f 9ae6 303e
000001a0: 8cfc 9ecd c96b 32be 248b c58e 1259 1f3e
000001b0: 63d6 4841 b3e7 2e3e a15e 7aa3 e12f 33be
000001c0: 782b 165c 58dc 34be fcb3 be88 b6a3 28be
000001d0: 4ba9 074b 5eb8 2bbe f401 5dc2 7e83 33be
000001e0: 477e 8223 3f96 22be 2071 d784 03f1 04be
000001f0: 844e 4bab 4836 2c3e 61ec 6d88 b9b6 f6bd
00000200: f99d c2a4 76c4 2bbe b96e 0c33 cf25 20be
00000210: 50fd 476d 0942 1fbe b552 6853 1b78 263e
00000220: d83f 477e ad65 30be 6d60 d43c b449 8337
00000230: e8c0 fd26 7ec2 a9b7 ec47 2006 ea8d b337
00000240: c395 1369 83a9 9a37 fc2c e23c 90a3 98b7
00000250: 71e2 a819 f49b c0b7 7db3 5372 c2b1 c937
00000260: 07fc 6b00 794d aab7 56d5 4380 37dd d737
00000270: 438b a9b1 b5ff abb7 2ac4 16ca ecef acb7
00000280: fd7a 7fd5 c9cc cd37 8cfd 8970 0fd6 b237
00000290: f4bc 363d 46b1 7ab7 183f b6f4 8591 c2b7
000002a0: 20ab fad0 389d bab7 7dc8 f3a4 7111 b0b7
000002b0: df09 46b2 cafa c1b7 8aac 7f3c af6f a537
000002c0: cd37 fe1e 6af0 92b7 caa7 436d da64 c137
000002d0: 58df 2355 ce8a b037 546d bd21 e63e ec37
000002e0: ad2c 4754 73ba 32bf f9b4 da0b 5219 2fbf
000002f0: fdfa 3808 3719 29bf eadc 903d ec51 21bf
00000300: eb6e 9e41 1b4e 14bf 55a3 0866 98a1 0bbf
00000310: 8ce8 4d6a 87c6 08bf 6de3 7c88 5493 03bf
00000320: 09ee c016 3144 f9be 0424 24df c6f2 f5be
00000330: 6144 2b29 a630 02bf d612 fea7 3f8a 07bf
00000340: 8839 703c a445 04bf 456c ad5a 02fa f7be
00000350: aebe ba28 e2ba e1be 6c17 6b6a 7910 cabe
00000360: a966 8de1 cdcf dcbe 6c33 b8e3 29e0 f7be
00000370: 59c8 fedc 8f22 11bf 49c5 5066 5719 23bf
00000380: f698 08a3 c1a3 2dbf 3b88 a7b1 c911 32bf
00000390: 2dd9 0532 adb9 34bf 3d0c aa58 b339 7db7
000003a0: 34a9 c280 e7e6 9337 44a6 a544 7825 bdb7
000003b0: 9e24 1cd7 6a0c adb7 2e39 c934 b8d4 73b7
000003c0: d8eb 57d6 c02d a2b7 4abd d6ac 7cb0 9337
000003d0: 2969 fe92 4757 a4b7 7d46 849a 2d43 98b7
000003e0: f2a4 a010 aa84 bfb7 9aa9 1c4d a01f a537
000003f0: 3653 1159 f29c b337 37fa 58f3 a230 a6b7
00000400: 5848 aef1 03e1 c037 ff73 73b7 66a9 bb37
00000410: 39a8 5f9b 97cf 9fb7 33eb 2055 9648 a3b7
00000420: a82f 23f4 ca1b b637 3176 1306 d357 b1b7
00000430: c9c4 9818 5827 9c37 19f2 4f77 d6c6 b5b7
00000440: f478 853b 436c b6b7 6c73 19a5 a0b4 9037
00000450: 5a19 8713 de50 c9be 0c9d 3be9 29cb d2be
00000460: 27d7 a83c e34f dcbe d5c0 cfd7 8e61 e2be
00000470: 1a21 1b19 9318 e5be 5fdc 717c 0531 e0be
00000480: 233b 72a2 ff15 dcbe bf79 962f fe79 e5be
00000490: 0861 fc58 befc e9be d30d ff2f a970 e5be
000004a0: 46ab 2270 9c1c e1be 24e2 93e1 782c e4be
000004b0: a432 63d5 4592 e7be 2aa4 7738 bba4 e6be
000004c0: 0609 bb9d 17d2 e6be 497b 0e27 cf1e e7be
000004d0: f0c4 651b 40b4 e6be b168 f347 f61d e0be
000004e0: ca9b 2a2f 5deb c4be dde6 7e40 414e a33e
000004f0: d11a b4b9 3bb7 bc3e efad 6ae7 3fc2 c13e
00000500: a519 3945 56c4 b03e ef57 3ff4 0273 4abf
00000510: 2890 f63d abca 4fbf 93e8 f449 707f 53bf
00000520: 3e6e 806f ebed 57bf d4dc 51f5 5546 5cbf
00000530: c302 1fb3 e528 5ebf e46d afff 5092 5dbf
00000540: ed04 2fe2 ab45 5ebf eb9e bdda 6f5f 60bf
00000550: 15c8 8c5e 55f3 60bf 85ed abff f7b8 60bf
00000560: 649f 8ec6 8aad 60bf 9713 9aa5 4334 61bf
00000570: 0652 2252 4fd0 61bf 7292 ee24 a32d 62bf
00000580: edb9 abd3 1edd 61bf 9d99 23ec 5681 60bf
00000590: 166a 9bbf 78b2 5cbf 6411 a06f d614 57bf
000005a0: 3ff2 dfae b3f0 50bf 1c4a acab 5f4d 49bf
000005b0: 1a7c b76b b5dc 46bf 0e8d 6d49 96cd 42bf
000005c0: 8070 98d5 67dd 0338 ef13 07b8 74fa de37
000005d0: 0edb 3f11 49a7 e3b7 2ea5 8d89 07f1 da37
000005e0: 2e8a 4f05 cf6f f7b7 70df c288 1dad e637
000005f0: b9f2 17e6 beb8 e9b7 6d17 014e f2de e937
00000600: 9a58 9d11 ae5f f237 670b e2c2 eaff dcb7
00000610: 4fae 1718 69cc e837 afcc 0c4b ca32 fab7
00000620: 1b08 1922 ca9f 8637 d731 f8fc 889d f9b7
00000630: 69de a966 f539 f9b7 d71e 41ac deb7 fab7
00000640: 5c0a 9915 5bcb f037 d768 f31b 5291 fb37
00000650: 0de8 903c f72f d337 866c ff1e 7d4e e6b7
00000660: 76cb 9400 5d02 f4b7 e818 1a28 01dc e937
00000670: 2c68 a637 510a f237 fd28 5a7b 94bb f3b9
00000680: 7f64 4026 a6e1 0d3a 9898 34df 5c8c 02ba
00000690: ac1f 60ff 9c4c f939 0e99 5ae1 1a68 03ba
000006a0: 4f09 8a9b 0651 06ba 57ca 8776 a094 003a
000006b0: 13ab 67b5 fabb e2b9 5773 f586 01e3 e3b9
000006c0: c2e0 df39 7554 00ba 3070 01eb 77bd f439
000006d0: d273 d75e e8df 113a 4df1 738a aa80 103a
000006e0: c87e ebb8 7416 133a b487 68cd 6d36 f5b9
000006f0: b674 d0fc bf00 153a 8543 977f 6414 18ba
00000700: b292 88e1 41e4 18ba 69b4 7d2f f3b4 1e3a
00000710: 2120 aa39 0e01 15ba 2eae fc39 9336 09ba
00000720: 6a45 5c25 9cfe 23ba 8ace 48ce 8b05 303a
00000730: 7588 b5aa edea 0dbf d949 984f cb7e 08bf
00000740: 05cb 09c2 0d8f 04bf 8e35 f0b8 5e2e f1be
00000750: 2b29 4c74 e07b f5be 1f28 2c62 c583 04bf
00000760: c07a c155 9163 0ebf 2dbd 458c fdd3 1bbf
00000770: 07fa 209d 12e6 26bf 3a19 8901 12a6 2ebf
00000780: d6e0 6e88 7414 2fbf ae8e 6a4a 85c3 26bf
00000790: d1d6 2e86 ffca 1cbf 5e6d da7c 8007 0ebf
000007a0: 6c10 71c4 63b4 01bf ea2b d84f 80c5 0ebf
000007b0: 6fec 2b1d 1706 1ebf a099 c6af 4f4f 1cbf
000007c0: 7e56 670b 6e9a 09bf f236 3d5d b216 f0be
000007d0: 53e3 8a63 2320 eb3e ff61 5a03 3b1d 013f
000007e0: ee76 894e c264 f93e 92ac e24a 3cfe f9ba
000007f0: 7660 9ffe 7b4c 9a3a 6cda 3523 f3c8 883a
