dl_experiments/best_checkpoints/avazu_1h_GRU_cuda:0_checkpoint.pt (torch, 27958 bytes, 18 tensors)

gru.weight_ih_l0 f8 [24, 24]
0	0x3fa6161439b62b51	0.04313719944464956
1	0x3f7099092a90f0dd	0.004052196317442217
2	0x3f93abef1dd23e53	0.019210563845773198
3	0x3fa3e2b5ae1768c9	0.038839032651325996
4	0x3fab82a19b943c64	0.053731012574751685
5	0x3fa267adbe534904	0.0359472555952767
6	0x3fa3e25c7bd277b1	0.03883637439251631
7	0x3f73a471e69a128b	0.004795498776392858
8	0xbf911b6d9fdae828	-0.016706192857533747
9	0xbf8a6eefafb4c36d	-0.012906906652092787
10	0xbf918ee48097832a	-0.017146654461501466
11	0xbf821b662d8b3e8c	-0.008841322197809441
12	0xbf859b4ad2a9358f	-0.010550102762091366
13	0xbf9ae3c922050374	-0.026259558392897245
14	0xbfa32b157f636a28	-0.03743807964356832
15	0xbf9e44346ae377df	-0.029557055496176928
16	0xbf8b09936f1d939f	-0.013201858356930716
17	0xbfa40f6c7a45a07a	-0.039180173803118515
18	0xbf91a17531251f6a	-0.017217475056241417
19	0xbf7ce60e84514fd6	-0.00705533667231247
20	0x3f594f38a2af6014	0.0015447667199080016
21	0xbf7318b58e0372f3	-0.004662236402705788
22	0x3f30711556f5c797	0.00025088091839286494
23	0xbfbe6733f7e32329	-0.11876225282607024
24	0x3f50a0a6f7fa915a	0.0010148649743451838
25	0xbf5dda79484a3de2	-0.0018221077345151816
26	0xbf5aabfa215f39ef	-0.0016279165915765688
27	0x3f31ad89fb940403	0.0002697431442158506
28	0x3f403e7027074cec	0.0004957244510087866
29	0x3f609347982add1b	0.0020233534172252716
30	0x3f5f192f09726846	0.001898094114756181
31	0xbf79b288f5858f4a	-0.0062737798656121255
32	0xbf75ed6de4ba68df	-0.005353383323063648
33	0xbf720518659a5603	-0.004399390507065617
34	0xbf6c5936dbb5050a	-0.003460509438497743
35	0x3f6e38a2c42f21ff	0.0036891154318008375
36	0x3f75c942b88d1eb1	0.005318890217331494
37	0xbf5124751115f453	-0.0010462897519965166
38	0xbf74d64c93997f07	-0.005087184073630408
39	0xbf732afec32f3526	-0.004679675260331783
40	0x3f60424270877dd6	0.0019847200057794097
41	0xbf74053690f907b1	-0.00488778414688966
42	0xbf70d9102ba3eee2	-0.004113257566355806
43	0xbf6db1b406625ac1	-0.0036247745620799636
44	0xbf57d6b17b6c10e8	-0.0014549954627805454
45	0xbf603d3a255453c6	-0.001982320371676202
46	0x3f78d2417a47a27d	0.006059890529720333
47	0x3f804af683a97949	0.007955480473523695
48	0x3f931bf978b1132d	0.018661401740490625
49	0x3f87e98a91554b71	0.011675913391319988
50	0x3f80d3b0a2fac750	0.008216266607039252
51	0x3f7c5904e49e1088	0.006920832742142953
52	0xbf753b711d51551c	-0.005183641294100452
53	0xbf8685e06149f627	-0.01099753662969778
54	0xbf9cdce04a296abe	-0.028186325575328956
55	0xbfa0e784e9f039ab	-0.033016351277285715
56	0xbfa1b933d5e34b9a	-0.034616107806548516
57	0xbf7481398dc60cee	-0.005006050891441334
58	0x3f716884ef7c6612	0.004250067977204635
59	0xbf66a566ef30416a	-0.0027644167362341114
60	0xbf7e32d8a062f2cc	-0.007372709462455784
61	0xbf648bb3941e66e1	-0.0025080211061777468
62	0xbf48c23511e6052a	-0.0007555731897782904
63	0xbf6004b7510b0a60	-0.001955373802361479
64	0xbf83953db701e9f5	-0.009561998507924033
65	0x3f7712ea13059ad9	0.005633272507430142
66	0x3f85f7e8986b7d4e	0.010726754333005541
67	0x3f8db0e948f817ef	0.01449758771833484
68	0xbf85b1c0c3571231	-0.010592943154628194
69	0xbfa049583220e307	-0.031809574240872655
70	0xbf827e674dd0eefc	-0.009030158102283796
71	0x3fa581ccd7de3d94	0.04200592169865583
72	0x3fd94d2579930cce	0.39533364174367314
73	0x3fd43069ccc9af02	0.31545491217433164
74	0x3fc5c245e5041b4d	0.16999124224113374
75	0x3fc16185a87b2fda	0.13578863836880722
76	0x3fcc4878afd7720b	0.22096165262236442
77	0x3fd7469094cb2ac6	0.3636819317877492
78	0x3fdcf494ed13c630	0.4524280848700952
79	0x3fdea787153e2adb	0.4789750773858665
80	0x3fe0b4907fa2d8e4	0.5220415585415847
81	0x3fdeda3df5f9c065	0.4820704366784468
82	0x3fdac3a62b1d8d66	0.41819147310726235
83	0x3fd1334195a6ed19	0.26875342955072906
84	0xbfc31d89cc5a8b58	-0.1493389365978952
85	0xbfd55347630b2a45	-0.33320793792941955
86	0xbfdc70061ac3c9f7	-0.4443373929381375
87	0xbfdf5db5756f6b57	-0.49009453266414965
88	0xbfe526746a5570f0	-0.6609441830474037
89	0xbfed67df7b357a97	-0.9189298063682426
90	0xbff11bf33a86d559	-1.069323757762808
91	0xbff00c346218c6c0	-1.002979644003446
92	0xbfea05c6294d4da8	-0.8132048422507312
93	0xbfe080562f6fbc65	-0.5156660963529133
94	0xbfc7e970f79d2072	-0.18681156244770453
95	0x3fcc5199a79fb088	0.2212402409053349
96	0xbf81fe66aea68c57	-0.0087860128449561
97	0xbf83c7b56b6d4e6f	-0.009658257809554286
98	0xbf8851f99de31ff6	-0.011875105028948934
99	0xbf8e6970455769c6	-0.014849545589574197
100	0xbf8ed4d12c6e872a	-0.015054353874635124
101	0xbf894a4f243fff4d	-0.012348764699708826
102	0xbf84001164a068e1	-0.009765754588489663
103	0xbf7e9c40f655bdcf	-0.007473233946583459
104	0x3f15564e1c43f244	8.139468906515854e-05
105	0x3f6ab24957fd2461	0.003258841752459094
106	0x3f26164385b4f0f2	0.0001685101914094055
107	0xbf726a0f1273f28b	-0.004495676875418862
108	0xbf6b1c833356b8c7	-0.0033094942579828565
109	0xbf4f2da8915d42b3	-0.0009514878354171724
110	0x3f63a9186d3a61a2	0.002399966915458588
111	0x3f5a0d33b44e086b	0.001590061657424725
112	0x3f74feb584c64753	0.005125721986034853
113	0x3f574dd4a3de4137	0.0014223648608756142
114	0x3f3f09e4b6155892	0.00047361215373110347
115	0xbf5fb1d220fa3c01	-0.0019344856299630122
116	0x3f70403f2a512408	0.00396752046533156
117	0x3f6e0b23d166677e	0.003667421299906103
118	0x3f76cea916557919	0.005568180558240842
119	0x3f68eea461c1e7d4	0.003043480928735834
120	0xbf70f66125a51b9b	-0.0041412157828010455
121	0xbf7c2f8e1bb14b48	-0.0068812895870731874
122	0xbf75f63fa3380238	-0.005361794075270647
123	0xbf64b054546eeed3	-0.002525486666369628
124	0xbf42d3bfe13b6bcb	-0.0005745589173459185
125	0x3f59f397cae58c89	0.0015839559888142527
126	0x3f4f47aa176b7e8e	0.0009545879864524974
127	0xbf866b317685370b	-0.010946642331556974
128	0xbf69cfe2086144be	-0.0031508841230239717
129	0x3f75a39887ae0f2b	0.005282970257102264
130	0x3f79a634d46e4ec8	0.006262022367895255
131	0x3f7f1492375216ba	0.007587977558733245
132	0x3f7ab97030155033	0.0065245039307520345
133	0x3f8826150fc66025	0.011791386169349558
134	0x3f66e043e1bb244f	0.0027924848380718524
135	0xbf75a88930940c45	-0.005287681481834621
136	0x3f444c218ace5b52	0.0006194270878151309
137	0xbf6dc72b790e33aa	-0.00363501063151835
138	0x3f710bcd8d34549c	0.0041616467817863455
139	0xbf6c5ee3da5dc90a	-0.003463215852144268
140	0xbf8345e08aa5c5ac	-0.009410623770892489
141	0xbf761c21165779c7	-0.005397919890553777
142	0x3f7443e833079a26	0.00494757368912827
143	0xbf786179e98f3cf1	-0.005952335567555909
144	0x3f74669067a459c5	0.004980625230265938
145	0xbf60c6b6693162c9	-0.0020478785241205594
146	0xbf60d20d2ba22e32	-0.0020532853350852193
147	0x3f589a0412da54f1	0.0015015640050582391
148	0xbf49379774476751	-0.0007695664904148002
149	0x3f55e6fa154b31b8	0.0013368074625531422
150	0x3f8387497aa6ea3a	0.009535383277456611
151	0x3f8b382e6279fec2	0.013290750866189586
152	0x3f8e559c3d3a325e	0.014811726206312045
153	0x3f997267a6e54899	0.02485048252248898
154	0x3f973b14f2991dc2	0.022686316782964296
155	0x3f8c59d756033690	0.013843233406443362
156	0x3f461258678c5b12	0.0006735736525083932
157	0xbf815543012375dd	-0.008463405105824268
158	0xbf854d713bc3cafc	-0.010401615749719088
159	0xbf868343e1f129c0	-0.010992555935577353
160	0xbf838e4137155642	-0.00954867314673458
161	0xbf84be79ee117fe7	-0.010128929689187728
162	0xbf81c751d03073f7	-0.00868095318406324
163	0xbf633513b2a2a01c	-0.002344644996885149
164	0x3f8a0cec8fabe19d	0.012719963202003021
165	0x3f91a3d500dfdf00	0.017226532152533558
166	0x3f9173fd3ed9866a	0.017044026337663366
167	0x3f2042092d65e1c6	0.00012403833416009378
168	0x3f79da04dbd620b7	0.006311434726178947
169	0x3f769e056018eaa9	0.005521794316843889
170	0x3f7142b5b337c288	0.004214010015389243
171	0xbf57fa18163df3a1	-0.0014634356711831014
172	0x3f777114822fd5a4	0.005723075973027934
173	0x3f7763905372fefc	0.005710185788472929
174	0x3f88741b88428948	0.011940207572767605
175	0x3f6c8beeade262bd	0.003484693689710687
176	0xbf6457518ad46e01	-0.0024830429671405256
177	0xbf7eb1440a10ae98	-0.007493272570211616
178	0xbf8fb07cbae5cd3f	-0.015473341420806917
179	0xbf8dfa50cac0bbf1	-0.014637595355535967
180	0xbf6b59dd64ad2e8c	-0.003338749321675943
181	0x3f34a9ee859dd9fc	0.00031530450143382716
182	0xbf7956fa14f71f15	-0.006186463243871084
183	0xbf9017a66da4fca5	-0.01571521801201627
184	0xbf86ec3682f12811	-0.011192727919610264
185	0xbf814c99a9268afc	-0.008446884607854248
186	0xbf8aa4cb5f586f39	-0.013009632918560153
187	0xbf9363aa7c749f39	-0.018934882970966547
188	0xbf76f41ac7550964	-0.005603890041415791
189	0x3f7242dc341d1bc5	0.004458294077102691
190	0xbf69fc90dc45353d	-0.0031721905999463605
191	0xbfa0aaa09cfbcd26	-0.03255178371719074
192	0xbfb383014e5221a5	-0.07621772920732058
193	0xbfb73335079db250	-0.09062510906159926
194	0xbfb65794e1573b0c	-0.0872738886020949
195	0xbfb9c3a3134e3bb6	-0.10064143391922084
196	0xbfc1376ba98bb779	-0.13450380114175767
197	0xbfc227068bf36c6a	-0.141815965972316
198	0xbfc2a97cc8baa991	-0.14579734612682363
199	0xbfc2ca5161b6a863	-0.146799252235101
200	0xbfc3c2ac4d4eedcd	-0.1543784501535427
201	0xbfbe97cc0b1b7fb0	-0.11950373908211875
202	0xbfb1f15ea13085cc	-0.0700892585305361
203	0xbfb24c96075d31b5	-0.07148111038004042
204	0xbfb172446e56ef96	-0.06814983075940825
205	0xbfa5062f9ea2ab65	-0.0410628205439341
206	0xbfa090d2de3e9ff4	-0.03235491717288133
207	0xbf96f92069f83109	-0.022434717624535448
208	0xbfa08fd299b37848	-0.032347279798827844
209	0xbfa9d82abb2de4ae	-0.05047734770682531
210	0xbfb2c57aee5db3da	-0.07332580871089026
211	0xbfb4d1d0fd9b5479	-0.08132654372760041
212	0xbfb6c2b3929f2678	-0.0889084084475601
213	0xbfb97f8112e350e9	-0.09960180960780786
214	0xbfaff092b84e88e2	-0.062382302282701266
215	0xbf9d06d33ead5394	-0.028346348476890507
216	0xbfb45cdb67aa659f	-0.07954188614748724
217	0xbfb1d9e92e4d377b	-0.06973130588923297
218	0xbfb2e25d019c9eef	-0.07376652993536557
219	0xbfb55e14690decbb	-0.08346679272465256
220	0xbfba445f0c59cb9c	-0.10260576297313978
221	0xbfbb77b7d17d13b4	-0.10729550232379276
222	0xbfb8eb578aee8050	-0.09734103338132738
223	0xbfb6a8b7e4f67545	-0.08851193752203297
224	0xbfb43009540bd0a8	-0.07885797788532278
225	0xbfb0feca272ed981	-0.06638778168312422
226	0xbfb0ddd7ef5960e7	-0.06588506310925234
227	0xbfb1b6944f7c465f	-0.06919218960344996
228	0xbfaccde912ff18b9	-0.05625847203150287
229	0xbfae3547a8e5912f	-0.059000243537214885
230	0xbfade8070c05dc59	-0.05841085454715573
231	0xbfb251e8a8e83886	-0.0715623295184021
232	0xbfb0b5efbc56afb6	-0.06527613018141562
233	0xbfb51e55a01c8d4c	-0.08249411734555173
234	0xbfb6b37f0ae0b5c8	-0.08867639556475304
235	0xbfba9e569d439c86	-0.10397855128722897
236	0xbfb5af83de19a764	-0.08470939800613803
237	0xbfb67718271b9cf9	-0.08775473551542125
238	0xbfb407825bc02ba2	-0.07823958148962487
239	0xbfb33c6676d79d39	-0.07514038468763297
240	0xbf6c33b93cb09594	-0.0034426324759972513
241	0x3f7d150fd68e685c	0.007100164287203805
242	0xbf741ddf5e611a15	-0.004911301168311973
243	0xbf9c06d31f02d951	-0.027369784133690903
244	0xbfa34e726037e09e	-0.0377078764394707
245	0xbf9703188d5b495f	-0.022472747447701887
246	0x3f85cb039f18e29b	0.010641125004540888
247	0x3f650930f60d8b8f	0.0025678592941615406
248	0xbf8b454272e6b36e	-0.013315695888047787
249	0xbf969dee6f2ad8b8	-0.0220868354178598
250	0xbfa3217eefc66171	-0.03736492802562708
251	0xbfa70f057470218e	-0.04503647848474933
252	0xbfa1e29849a23860	-0.034931906689153136
253	0xbf94aba66f8bf386	-0.020186043318051648
254	0xbf9a2694a37a3a86	-0.025537798383590736
255	0xbfa6136f93728910	-0.04311703371901576

gru.weight_hh_l0 f8 [24, 8]
0	0xbf9e06561eee7ae3	-0.02932104648391033
1	0x3fa50ba28b41bc98	0.04110439252769388
2	0xbf808b548c70308a	-0.008078251396021825
3	0xbf8e941ae8b74268	-0.014930925585674618
4	0x3fa01a1fadd684e1	0.03144930836720917
5	0xbf814ffd52a2b448	-0.008453349193894635
6	0x3f966d5e328d8460	0.021901580653665653
7	0xbf7d6542bacfcb83	-0.007176647818584739
8	0x3f830bc12910dc32	0.009299763742189968
9	0xbf88575ae9a7ccdd	-0.011885366683577587
10	0xbf82d4112d073ed2	-0.009193548380522474
11	0x3f6c68ca8e1a743e	0.003467937102711121
12	0x3f45f49780d953c2	0.0006700267565046202
13	0x3f6c8f2a7ef8fa7d	0.0034862356185663677
14	0xbf5b61cb47d3a357	-0.0016712651407095513
15	0x3f647e77bef0bfad	0.0025017107759807895
16	0x3f8587454ad9a891	0.010511914583919231
17	0xbf8b3c96da4ea16e	-0.01329915860863259
18	0xbf9894f1606deb15	-0.02400567198808819
19	0xbf66ef8c83048aa0	-0.002799772679410964
20	0xbf8a5bfb462fb830	-0.012870753364008974
21	0xbf74df895eebe99a	-0.005095993618619588
22	0x3f8c62734c4895ab	0.013859654202927304
23	0x3f102b4cfd47f3c9	6.168038755301123e-05
24	0x3fa89ac042174af5	0.04805565649771452
25	0xbfc90a6086b020fc	-0.19562918259203588
26	0xbf9e98ac31f6cfcf	-0.029879274892394222
27	0xbfd3fa0dcc8af9c5	-0.31213707899942406
28	0x3fb5f47518443754	0.08576137392466637
29	0x3fc4377e8253d312	0.1579435478558016
30	0x3fcac6702fb772c9	0.20918085412895085
31	0x3fc54d010d9f9679	0.16641247906879977
32	0xbf6eeb650657a32d	-0.0037743542804843573
33	0x3f7d919e758d9e8a	0.00721895120737027
34	0xbf8130a8a2b7b13c	-0.008393590417619216
35	0xbf53624443792a84	-0.0011830965649034806
36	0xbf80d4e7b1d1b976	-0.00821858416949504
37	0xbf6d9d3db00bdc8d	-0.0036150173985976587
38	0x3f75bcf191761d0a	0.005307143808187984
39	0xbf73c61d61d9ac95	-0.004827608846976213
40	0xbf7320a0dcf98876	-0.004669788715178416
41	0xbf54fbf735f839f4	-0.001280776421370808
42	0xbf82c2a44b255c1b	-0.00916031221701812
43	0x3f3b07095f9acd08	0.0004124067196286806
44	0xbf5de7c0ef41e3a6	-0.0018252739073700646
45	0xbf791d050f5bf71b	-0.0061311910301336215
46	0x3f3b8c4a9c3a384d	0.0004203493265116973
47	0xbf7829da72d3f574	-0.00589928943122452
48	0x3f854ad5fcc700d4	0.010396644379284593
49	0x3f872ab18cef4d7b	0.011311900247085607
50	0xbf86a5426c58920f	-0.011057394916016454
51	0x3f508dab9d8b5bb4	0.0010103393489566516
52	0xbf85699bca856e3f	-0.010455338590580896
53	0xbf764781847ff841	-0.005439287117040393
54	0x3f89ebc43368fdc6	0.012656719988739417
55	0xbf80c2ff78cefe9a	-0.00818442904881005
56	0x3f8538275bff3143	0.010361011023541372
57	0xbf7641919a941c6d	-0.005433624997073766
58	0xbf7dabe38713b8ce	-0.007244004039632835
59	0xbf89105a4887c643	-0.012238221491290285
60	0x3f821e39b3e6e0c9	0.008846712877911849
61	0x3f64574a10fbb665	0.0024830290420741357
62	0x3f9a6225524e6ce6	0.025765021465855485
63	0xbf5e35dd761f145b	-0.0018438971242045385
64	0x3fab66f77ecddb28	0.05351994917776032
65	0xbfc540e1ea32a704	-0.16604255614702634
66	0xbf839f8895bbaf84	-0.00958162981938649
67	0xbfa9e6a4dfacb954	-0.0505877993622216
68	0x3fbc2c1a43c0a091	0.11004795221436071
69	0x3fb1ea11b840f52f	0.06997786281950334
70	0x3fb64e13db5e6f0c	0.08712886911092371
71	0x3fba8d7b165f2a06	0.10372132583794533
72	0xbf921b04cdff2d8c	-0.01768119342140788
73	0xbfaec4da5b9cfb85	-0.06009561889958718
74	0x3f880a2400eb2d2a	0.011738091733966078
75	0xbfa947b55cad4ebc	-0.04937521702109168
76	0x3fac81a6a853dec0	0.05567665867596139
77	0x3fa08e2ee0d860e4	0.03233477110569696
78	0x3fabeaf878c58dba	0.05452705835594025
79	0x3fa5fa3fee50a76c	0.04292487892264671
80	0x3f90e5763f37feda	0.016500327690663542
81	0xbfc26d57f4fe8e56	-0.1439619013082047
82	0x3f8b4d1f48921243	0.013330692674807248
83	0xbfbf451ddfac159d	-0.1221483870577544
84	0x3fc0a6f3fbca0d47	0.13009500307462415
85	0x3fb3413c6edc31aa	0.0752141733793851
86	0x3fbf9add7ede3eac	0.12345680568091194
87	0x3fbbbdb30265a093	0.10836333092231802
88	0x3f658fb3c6aba324	0.0026319991351225914
89	0xbfcb9e48ac9db439	-0.21576794079320097
90	0xbf9a8e781143da4d	-0.025934101156020174
91	0xbfc39889509461ee	-0.1530925410704777
92	0x3fc5b01187668502	0.16943568335867815
93	0x3fba7c6fdb0da6c9	0.103461256961647
94	0x3fc2f0001ae3cefd	0.1479492312715748
95	0x3fc07731c571b546	0.12863752499417042
96	0x3fa359b6fdc85469	0.037793844680131645
97	0xbfc58567944a420b	-0.16813368550039373
98	0x3f9853b8ef772bf1	0.023756875625433996
99	0xbfb6d821451ce6fc	-0.08923538148237847
100	0x3fb956abc35e0137	0.09897874374110392
101	0x3fb1d113bcf10cdf	0.06959651339370819
102	0x3fc1e838912f8f95	0.13989932145261422
103	0x3fb7d23a1309d46a	0.0930515572052443
104	0x3f831e16f90fcd30	0.009334735370407715
105	0xbfb2f3f6341b8e22	-0.07403506061705703
106	0x3f62aac75e935ef5	0.0022786992964077776
107	0xbfa74e8d62f94826	-0.045521181422955956
108	0x3faf86bb7110d4c0	0.06157480006405924
109	0x3fa3bf3d96e4c503	0.03856842486346503
110	0x3fb2058787136393	0.07039687202212823
111	0x3faa3aca9e91b9d4	0.051229793411824126
112	0x3fb0ecdc08417b7e	0.06611418916280162
113	0xbfc8c276ede45ef7	-0.19343458762954643
114	0xbfb3d814f4f30bfc	-0.07751589756212235
115	0xbfaf3330c5498649	-0.060937427599821854
116	0x3fbe07a478e2b1b0	0.11730411483103498
117	0x3fb421602fbf1eae	0.07863427320182367
118	0x3f8d86d7a56d0d1a	0.014417347656154923
119	0x3fb8dba14382d3c0	0.09710128687113606
120	0xbf4ab2295be0143e	-0.000814695544023032
121	0xbfc20de8b84f5b95	-0.14104947089682854
122	0x3f959b5712c81a4a	0.02110038807043172
123	0xbfb7a143e763c907	-0.0923044624248953
124	0x3fb7bc798e8508bb	0.09271964768871303
125	0x3faeaa42d4b3f54b	0.05989273878547382
126	0x3fbf7fbf3b1718e0	0.12304301445610433
127	0x3fb514bdefefdf61	0.08234774692379922
128	0xbfd13d95bfcca6d4	-0.26938384752666633
129	0x3fd287d3af8503c0	0.28954021587929546
130	0x3fb7859c309a6e6f	0.09188247858622288
131	0x3fa25222fd991f77	0.03578290315323234
132	0x3f66f242f5bfa1e5	0.0028010661899211414
133	0xbfb8a41c00ad9a9c	-0.09625411049419558
134	0x3f81432ebb778ddf	0.008428921791113929
135	0xbfb2969372d44b79	-0.07261010697793137
136	0x3fb33593018ee8cd	0.07503622806590045
137	0xbfbd10523b9f6d61	-0.11353029208787781
138	0xbfc1d13efd031200	-0.1391981826219677
139	0x3fb63a7fe8db2216	0.08683013377152124
140	0xbf9e40a9c4fa050a	-0.029543545386791194
141	0xbf7a9517180588de	-0.006489839754381969
142	0x3faa6ff93e5115f9	0.051635540825866806
143	0x3f6cf9333fe61357	0.003536796662219659
144	0x3fb501b5448a37ea	0.08205731318795953
145	0x3fa42c8f3424e8b7	0.039402461161857465
146	0xbfc9751900f2d707	-0.19888603731458707
147	0x3fae274bb28ec35c	0.058893552347746264
148	0xbfae348b73b826b1	-0.05899463450994114
149	0xbfaaf10379516959	-0.052620037612274025
150	0x3f8c44383abe3eac	0.013801993649195175
151	0xbf7c843ad2e32442	-0.006962041645416641
152	0xbfa4aedfc4f0120b	-0.04039668349290445
153	0x3fe18490c3344a53	0.5474323093970476
154	0x3f9870756fbda865	0.02386649603378323
155	0x3fc6e4817739ddd5	0.17884844132980385
156	0xbfd82b568521519c	-0.3776451397036682
157	0xbfd4861217865e91	-0.3206830243811761
158	0xbfd8c5198f370594	-0.3870300196250238
159	0xbfd48aa1f7b5f799	-0.320961467652404
160	0xbf9af4aabf49cbd0	-0.02632395546465799
161	0xbf9d6f6a98e4f2f0	-0.02874533231919235
162	0x3f744908aea11bca	0.0049524630686112545
163	0xbf6bbd73eb123264	-0.0033862365749597768
164	0xbfc7109ea9d03367	-0.1801946953932216
165	0xbfad2118e1d38cdb	-0.056893136564917866
166	0x3fc5b835c46fb65b	0.16968414394016204
167	0xbfb59fae2e483953	-0.0844677794450253
168	0xbfb67fa2d595fe5c	-0.08788507189273659
169	0xbfa5e793a2764ea4	-0.04278241499119176
170	0xbfaa0e2b0bddbf56	-0.050889344404707756
171	0x3fb8bd35817c8fe5	0.09663710032742719
172	0xbfb0b42c580ac30f	-0.0652492251345047
173	0xbfb86e115ac1087b	-0.09542950120615672
174	0x3f9a6deb5543e93d	0.02580993373792605
175	0xbf91f66a9003016b	-0.01754156593301685
176	0x3f89f351d4891d7a	0.012671126650402032
177	0xbfb2268920ea695b	-0.07090050748448588
178	0x3fc3cf0168a3de68	0.154754806608014
179	0x3f85c0cd50595683	0.010621646894985353
180	0x3fc6f7356c0c9e40	0.17941921020359253
181	0x3f9f9a654c36a4ae	0.0308624103323935
182	0xbfd374b7e663e388	-0.30399892329256106
183	0x3fbb6c7646c98857	0.10712374904827136
184	0xbfc042065021ea34	-0.12701491272658105
185	0x3fc583baa14f215b	0.16808255077763587
186	0x3f8a6d5c7f77a3ac	0.012903902664179366
187	0x3fb7686b27feb624	0.09143705107154482
188	0xbfbf7ecd298f3f40	-0.1230285860503928
189	0xbfb00748cb6d4af8	-0.06261115042188325
190	0x3fbd6be572ecb852	0.11492761665133003
191	0xbfc17c51e578064e	-0.13660644249471193

gru.bias_ih_l0 f8 [24]
0	0x3fa49630dbc50c7c	0.040208365275724994
1	0x3f89ce310b9106e3	0.012600310483438409
2	0xbfa01a406e82f55e	-0.03145028447168373
3	0x3fc47a885049acf1	0.15998939438154694
4	0x3f91e2975f23333f	0.017465939695102902
5	0xbf4efc3d92f0ea0f	-0.0009455967573395746
6	0x3f91c8030b75ade2	0.01736454732365001
7	0x3f7ea4b00410e495	0.007481277048151065
8	0xbfd16fb0ac625243	-0.27244202455884564
9	0xbfd0f0ccee540e49	-0.2646972968507027
10	0xbfca002321fcc655	-0.20312918815175132
11	0xbfdee87693ceaa69	-0.48293842729859776
12	0xbfc88b195f509bad	-0.19174496797606136
13	0xbfbbcd4c6eb904d5	-0.10860135749045992
14	0xbfd056adbd92bfb5	-0.2552904464055204
15	0xbfd2caca6da62e80	-0.29362736423420444
16	0xbfb0733024b358c4	-0.0642576303101548
17	0x3fda07d779f1c4db	0.40672861965783874
18	0xbfc06ce1736aa1da	-0.12832277427265987
19	0xbfd8d290baf03739	-0.3878518891877892
20	0x3fcf41a3b9a07586	0.2441906601315333
21	0xbfb7d7554138839e	-0.09312947122863455
22	0xbfb9d2b778fb1bcc	-0.10087153152117806
23	0xbfa181421c51b6d5	-0.03418928714459716

gru.bias_hh_l0 f8 [24]
0	0x3fa3a5ed105bebef	0.038375290152508394
1	0x3f89cb11f5ca1964	0.012594356835745564
2	0xbf9f529ffcd8245e	-0.030588626677886636
3	0x3fc3342fe607d9f0	0.15003012401548643
4	0x3f91b9bb32bff2ad	0.01731007096531083
5	0xbf548fcd32cd40bf	-0.0012549880877550793
6	0x3f91e64b868a0796	0.017480068289394156
7	0x3f7a4a0a9f87e530	0.00641826772379632
8	0xbfd16fb5d6a5d8cc	-0.2724432560129457
9	0xbfd0f018be497342	-0.264654336764398
10	0xbfca025e0dced702	-0.20319724725930405
11	0xbfdee97cdd2dd82b	-0.48300096129912856
12	0xbfc88b30b4de8fd0	-0.19174774962914265
13	0xbfbbcbf826ec2c17	-0.10858107519395364
14	0xbfd056b45f9f780e	-0.2552920278375276
15	0xbfd2cb494025a39f	-0.2936576010165996
16	0x3fb46523e85aa77f	0.07966827795703856
17	0x3fc1a3720c4c5577	0.1378004608201697
18	0x3fc0e4960ae7408d	0.1319758942831907
19	0x3ff310682b4f95cd	1.1915055934745056
20	0x3fa65d635ea97d94	0.04368124514143826
21	0x3fb2f30a59900190	0.07402100264153533
22	0xbfa99180f67429f3	-0.049938230595291254
23	0xbfbf98b1e704d332	-0.12342368974789222

fc.weight f8 [12, 8]
0	0xbfe24d9c55595395	-0.5719739596339531
1	0x3fd7cdb1d811c1e7	0.37192960835002825
2	0x3fbdeefe25ffeb97	0.1169279902241399
3	0x3fc8649b897749b7	0.19057029926496025
4	0x3fa3f2b61fbb91d0	0.03896111619340881
5	0xbfc8b8eed532ca59	-0.19314370546415452
6	0x3fd0a79536514ad4	0.2602284460491948
7	0xbfd2b1d9fc31ca4c	-0.2921051943623396
8	0xbfe113b7817a2e1e	-0.533656838307653
9	0xbfb145f287259d42	-0.06747356223569503
10	0x3fcc697e136bac36	0.22196937511702836
11	0x3fd4076075fe8544	0.3129502441680254
12	0xbfc244b05a47dbb1	-0.14272121818768604
13	0xbfb938879bbc9a99	-0.09851882507482869
14	0x3fd04ac7472a57d8	0.25456411313768745
15	0xbfbb535c588beb42	-0.10674073373585904
16	0xbfc7e0f3d9400692	-0.1865525065223222
17	0x3fcf4199b4555c1a	0.2441894655737265
18	0x3fc40f6658701369	0.1567199642014672
19	0x3fd94ae4e9c2f2c0	0.3951961787059126
20	0xbf75d5474ab1a3ee	-0.005330351336945134
21	0x3fc8bea18579d553	0.19331759469393237
22	0x3fd39249c0517876	0.3058037164790969
23	0xbfdb02433d65ae4c	-0.4220131015378896
24	0xbfaf0b9380a0a380	-0.060635194255445946
25	0xbfc434648ebdbc07	-0.1578489014604829
26	0x3fb53b52e3c63f90	0.08293645916842096
27	0x3fd74a4a25eb09b3	0.36390927985135163
28	0xbfbbb0aedac13009	-0.10816471901597437
29	0xbfa94308beec5ba4	-0.04933955507856716
30	0x3fcf32f283e54b6e	0.24374228897303446
31	0xbfd2e75fcac995cf	-0.29537195971928737
32	0xbf935efe6be1d33b	-0.018917060217478392
33	0x3f8e45d44b70c114	0.014781626274356564
34	0xbfb876f53ba15a90	-0.09556515413110334
35	0x3fd9aec4a7de6582	0.4012920035689477
36	0xbfb20fdd89fc1e46	-0.07055458658953126
37	0xbfb638ec04889e4b	-0.08680605993924322
38	0x3fcbd2ee85501480	0.2173746252957791
39	0xbfc75b550cbbb6db	-0.18247473832837255
40	0xbfc60de3c7ddb550	-0.17229888209423416
41	0x3fd55b1e52c18845	0.3336864288486406
42	0xbfcf4082f94f4e3e	-0.24415623830155825
43	0x3fe03bacbb9e2898	0.5072845138941089
44	0xbfa569875a9a319c	-0.04182074528680177
45	0x3fb01cfc73a3b160	0.06294229338863522
46	0x3fc558d70471e446	0.16677367894206635
47	0x3fb23d0ac3949ff0	0.0712439277164092
48	0xbfd186bfd01b5e19	-0.27384944270076655
49	0xbfc2374ed6442851	-0.1423128648969532
50	0xbfbd9454bef4d81d	-0.11554460203191792
51	0x3fe135cf4e2fb7df	0.5378185774877656
52	0x3fabc7e5ad1c8767	0.05425946939636966
53	0xbfbd839cce3e4bd6	-0.11528949771154315
54	0x3fb3c77de08a0d55	0.07726275188365624
55	0x3fb1fa12a60b12c6	0.07022205880918894
56	0xbfc281529f1622a6	-0.1445716168202768
57	0xbfd585970b7cf695	-0.33627868768585617
58	0x3fb583e9dce8b622	0.0840440906838116
59	0x3fde11c3032740f7	0.4698340922159469
60	0x3fcb066fcf30a8a7	0.21113393418028645
61	0xbfcbd4ea1a5405e0	-0.2174351337962852
62	0xbfbd3f8fc3a00ecb	-0.1142511227226876
63	0xbfc21aa8b03e56d1	-0.1414385662616753
64	0xbfba46444ab2bac2	-0.10263468574224091
65	0xbf84af28b9d54567	-0.010099714442420816
66	0x3fc026d5282f738c	0.12618507826018932
67	0x3fdbd848e1caf652	0.43507597017364674
68	0x3fd05257121e5d82	0.25502564210315637
69	0xbfa3ae19ec431b70	-0.038437662211029955
70	0xbfcdce5136e67644	-0.23285880261112102
71	0xbf9dbda9662f7c19	-0.029043814527423082
72	0xbfa6b54d22a3e3ce	-0.044351969221629525
73	0x3fd26aed6a729ba3	0.2877763309028813
74	0x3fc84547848fc8b4	0.1896142384790146
75	0x3fd8bb0823709079	0.38641551457317963
76	0x3fd7a274a7a4e404	0.36929050799841456
77	0x3fb04074893504bc	0.06348350858481216
78	0xbfd448244ab3c1c9	-0.31690318389067024
79	0x3fa893c61daad37e	0.04800242530965358
80	0xbfb671519cf5a465	-0.08766660768527997
81	0x3fbd4f9fb952b314	0.11449621462334064
82	0x3fd20f3c638f5ec5	0.2821799251810087
83	0x3fd41f1cd70dfa06	0.31439896584916516
84	0x3fd1296e93fcd430	0.26815380527415567
85	0x3fc4b1f6243d4f65	0.16168095368868332
86	0xbfd8ec9f69f055bf	-0.3894423040922809
87	0x3fcaf30693734bf3	0.21054155540204497
88	0xbfb65a5f3d7bbca8	-0.08731646777208601
89	0x3fcda118a82134cf	0.23147876939257236
90	0x3fd1ffe3c80304b3	0.2812432721367017
91	0x3fcedeb6d1cfaeb4	0.24117169613542944
92	0x3fd234c57d992121	0.2844709135574864
93	0x3fa87f6d82af2e70	0.04784719677226412
94	0xbfda2fdf0e58321e	-0.40917183304626004
95	0x3fd7d976338e9abb	0.37264781031482713

fc.bias f8 [12]
0	0xbfb886b5b3248bfd	-0.09580550788500371
1	0x3fc16b821e1052f5	0.1360933920665485
2	0xbf8d6f0cabb9433e	-0.014371966353026285
3	0x3fc474aadb7412d0	0.159810406832682
4	0x3fb4dcc879ee787c	0.08149388291210075
5	0xbfa6acf2ab2e6d96	-0.0442882379495259
6	0x3fc7d9b12fb70507	0.18633093671636677
7	0x3fca7047dcb00533	0.2065515353752204
8	0x3fb64f50f2b62219	0.08714776921818447
9	0x3f851f87b7df0b16	0.010314045237355834
10	0x3fc4cdb2bee4793c	0.16252741166040063
11	0x3fc44d3228fde390	0.15860583306837528

exp_avg f8 [24, 24]
0	0x3f26d208d6fedf25	0.00017410619648016673
1	0x3f27b0e53cdd0788	0.00018074796974515092
2	0x3f2d0dd0cf77d663	0.00022166418032980575
3	0x3f2cf59da2e3983e	0.00022094296713887242
4	0x3f2f2b4ab42894cc	0.000237801426991846
5	0x3f2d1d2b11c7a45e	0.00022212172269967222
6	0x3f3024f91e1f9e1c	0.00024634439443935326
7	0x3f2bac6cc3d9b9fd	0.0002111323137116843
8	0x3f2d54445b63c13a	0.00022376379428790967
9	0x3f319ee417e15b71	0.0002688700550427725
10	0x3f34782a4363873f	0.0003123381787998209
11	0x3f33944f4621feb3	0.0002987569370205098
12	0x3f3313550c0d2278	0.00029106928200354305
13	0x3f342eea8033c545	0.00030797219387953086
14	0x3f3345a03db039ff	0.00029406702168524585
15	0x3f33e32314f47a62	0.00030345541468249613
16	0x3f33c695c5b1e7f1	0.0003017535834214372
17	0x3f338c31f017cadb	0.00029827326952084975
18	0x3f334ee3571e0132	0.00029461908626872695
19	0x3f31707ca7e1aa92	0.00026610415796449974
20	0x3f2a97ea2d491ccc	0.00020289167027185415
21	0x3f26319dde7d2571	0.0001693253718662402
22	0x3f2a6e0bfade808c	0.0002016439079257675
23	0x3f26be50b9c0384b	0.0001735185186366193
24	0xbec8c25381ed8644	-2.9515131382697034e-06
25	0xbee0b80cb3fba40a	-7.972213665623593e-06
26	0xbee90df8c4287acc	-1.194695335465564e-05
27	0xbeef46e0a6212cc5	-1.4913971600935536e-05
28	0xbef24f6434d469e5	-1.7461893823436914e-05
29	0xbef3fade6e0faf03	-1.9054371367773468e-05
30	0xbef6b22ac3245890	-2.164455890704041e-05
31	0xbef89fb02aa53adb	-2.3483068312397638e-05
32	0xbef8a45d744c9318	-2.3500491141653553e-05
33	0xbef7e2ed4405c304	-2.277987755533712e-05
34	0xbef63a002e2d1df2	-2.119690442306354e-05
35	0xbef56226f3fc04c8	-2.0392805935469366e-05
36	0xbef2e32e4489dc54	-1.8012451877127557e-05
37	0xbef398cb17639ad8	-1.8689011505391675e-05
38	0xbef7489bce35d48f	-2.220499744739042e-05
39	0xbef58632f60b9aee	-2.0527091126344475e-05
40	0xbef0a01db03fd3cc	-1.5855267534409763e-05
41	0xbeee2aa2ee79031c	-1.438453132529684e-05
42	0xbef11f3fda7ab60b	-1.6328876567930607e-05
43	0xbee9b1afe9b2462e	-1.225189708112519e-05
44	0xbecf76e402fa7da8	-3.7508507587239127e-06
45	0xbed962ab676a5a82	-6.0523576538492355e-06
46	0xbeed076b984e4778	-1.3842098960190527e-05
47	0xbeec592a022092ee	-1.3517521498648704e-05
48	0xbf176bf04cd2c5f0	-8.934644866333947e-05
49	0xbf15c38b4e44ec80	-8.30224776721556e-05
50	0xbf15fc729b9744ac	-8.387040624959163e-05
51	0xbf1575de96706ef0	-8.186503474444016e-05
52	0xbf157e432b222cc6	-8.199009860925246e-05
53	0xbf149c3d04719db7	-7.8622078136462e-05
54	0xbf13961e8c73bf20	-7.471620039089773e-05
55	0xbf13d4c554a07e95	-7.564978037110711e-05
56	0xbf15ea30c4d67d23	-8.359835302095392e-05
57	0xbf143f732764723d	-7.723942130550498e-05
58	0xbf148b7c9af759c8	-7.837245970363567e-05
59	0xbf1388bdb0aea9e2	-7.451684739005025e-05
60	0xbf0fc58a7c3804e1	-6.059960244542986e-05
61	0xbf1428c0600a118e	-7.690118946796482e-05
62	0xbf14bced5b66911b	-7.910917961468195e-05
63	0xbf1623c5cb71a2ce	-8.445639365251974e-05
64	0xbf169b9cf3469d90	-8.624215553842116e-05
65	0xbf179b8db293ddf0	-9.005596497845664e-05
66	0xbf196b0b653342db	-9.696251918290702e-05
67	0xbf1a03d1ef4f2f43	-9.923905220360096e-05
68	0xbf18d87050c35f82	-9.477792281431359e-05
69	0xbf1ade38e2a4c798	-0.00010249349785309972
70	0xbf1d2f614a76460b	-0.00011133223835304449
71	0xbf1a3bf9e4bdc62d	-0.00010007584313400575
72	0xbf560390cbb096bb	-0.0013436235447072248
73	0xbf545a41efd1608f	-0.0012422222055388542
74	0xbf55213a0f56425f	-0.0012896601668651792
75	0xbf5332fa3b2ea237	-0.0011718219436521857
76	0xbf50f8129eb54aad	-0.0010357076488004921
77	0xbf4f600fa8ff3dc9	-0.0009574963059950033
78	0xbf4e94f221304911	-0.0009332830690047829
79	0xbf4d0a38ea68658e	-0.0008862283619379006
80	0xbf4d9d3720378090	-0.0009037512940573023
81	0xbf51895a05900571	-0.0010703448408551886
82	0xbf531df2f0fd4f62	-0.0011668083643216688
83	0xbf52833f93369a4a	-0.001129924855243341
84	0xbf506a1916a657ae	-0.0010018582348485339
85	0xbf52006a229fe5ea	-0.0010987316586564774
86	0xbf53575c33e291f0	-0.001180496255565374
87	0xbf5587e155137127	-0.0013141346465124855
88	0xbf53493e5bb26466	-0.001177130600615217
89	0xbf531cd2aa08cada	-0.0011665398852868576
90	0xbf538c2c2c0cb24f	-0.0011930877082689977
91	0xbf53d2cf922a8797	-0.001209929185883562
92	0xbf51e16f4c184067	-0.0010913454901846588
93	0xbf4f906c9fef6059	-0.0009632616419095282
94	0xbf529e1a343727f1	-0.001136327352343699
95	0xbf525fc71e181e05	-0.001121468020189088
96	0xbef2c7974fd5df3c	-1.790967234202512e-05
97	0xbef67ef93cd80a84	-2.145384842401145e-05
98	0xbef68a76b61095bc	-2.149665249730701e-05
99	0xbef4aef767a4003d	-1.9725287054406444e-05
100	0xbef25f21491f074f	-1.7520524643328217e-05
101	0xbeeed31569a53437	-1.4698288670312194e-05
102	0xbede3b67ea6eb809	-7.207883448252455e-06
103	0xbedd35f332ef47f8	-6.964383643075563e-06
104	0xbef1bd480e506b23	-1.6917591796876353e-05
105	0xbefa4d26ab57b4ae	-2.5082942292021966e-05
106	0xbefa51a7fe5d4d14	-2.5099725369526446e-05
107	0xbefe744ec2a74701	-2.904350928096319e-05
108	0xbefe529a9fd895d5	-2.8917953377801738e-05
109	0xbf03d9b538d09007	-3.7861674265365955e-05
110	0xbf010fabb997de6f	-3.254168332128277e-05
111	0xbf00b5a5ead32e30	-3.187096204157155e-05
112	0xbef92cb79ad16853	-2.400844248415968e-05
113	0xbef538420586a0f2	-2.023673764176086e-05
114	0xbee6e02c9c8418a2	-1.0907974584483806e-05
115	0xbee9f462a72041a3	-1.2376132165343322e-05
116	0xbeed64c3dcf7db68	-1.4015967194842222e-05
117	0xbef58d40eec5b3b2	-2.0553371471821332e-05
118	0xbef8a3800054a7ef	-2.349726857634593e-05
119	0xbefa4dbd59bda3e8	-2.5085134992695104e-05
120	0xbee55052d4600fa6	-1.0163194598795791e-05
121	0xbee6575b23c0dd9a	-1.065313073676695e-05
122	0xbed9552281a97a43	-6.039752430268973e-06
123	0xbee1a2745b54ab25	-8.408826810487439e-06
124	0xbee10a9fc89ff56f	-8.126020720306962e-06
125	0xbee50c0c79302f31	-1.0036022819924144e-05
126	0xbedb861f075a067f	-6.562211742557077e-06
127	0xbeed2535eef5f910	-1.3897587875841044e-05
128	0xbef258b21b42a21c	-1.749655503205566e-05
129	0xbeeec2d8907e73d7	-1.4668043618654425e-05
130	0xbee7c26f428ffe18	-1.1329417320737062e-05
131	0xbeeb6edc6b1ada56	-1.3081097992679078e-05
132	0xbef04b6a9fedd955	-1.5539737428815526e-05
133	0xbee6ae301e3e91bb	-1.0814867841998284e-05
134	0xbee5342fbca3ad51	-1.0110785201486674e-05
135	0xbeede6b4cd3865bb	-1.4258001477296099e-05
136	0xbeea8c234495fcf0	-1.2658793042018339e-05
137	0xbee9691d3bff235f	-1.211671940372507e-05
138	0xbeea4e257c228b0f	-1.2543325173480024e-05
139	0xbef7d069be5e32ff	-2.2710908431688815e-05
140	0xbefa4c285b70f31c	-2.5079241563685716e-05
141	0xbef4154e48f6382e	-1.9152856621178372e-05
142	0xbee177cf2b27f3a1	-8.329393812006777e-06
143	0xbee0291c8d637392	-7.705970727684025e-06
144	0xbef4abab7b7acd0d	-1.9713006365673853e-05
145	0xbef70ffd6ba1bbf9	-2.1994076384531495e-05
146	0xbef75fcb20ff3ff2	-2.2291367770155232e-05
147	0xbeee51d4337bb6db	-1.445753296943789e-05
148	0xbed81ecfc03ab724	-5.750741369032497e-06
149	0xbee23734979d22a7	-8.685896989783544e-06
150	0x3ecdabe9c04a950a	3.53712266794543e-06
151	0x3ed6519d86763914	5.321218942268167e-06
152	0xbecb2385b1a6fe60	-3.2351921508131835e-06
153	0xbedc284321641a71	-6.7132173369234986e-06
154	0xbedfca87043caf3c	-7.579594299571807e-06
155	0xbee5173c3283c0a8	-1.0056859153867732e-05
156	0xbee10e3789b92ca1	-8.132712813543811e-06
157	0xbeebf59a9d957413	-1.3332076309319587e-05
158	0xbee1ae576512e95e	-8.430967826424006e-06
159	0xbee766679908fbf1	-1.1157998217046677e-05
160	0xbee179ae95cb57c3	-8.332882026545232e-06
161	0xbee704b3b1113f2a	-1.0976012648239079e-05
162	0xbee19855cf2a24be	-8.38997809650616e-06
163	0xbeec2a8c23584b0f	-1.343069116458353e-05
164	0xbef9f13aad647e5b	-2.4740506739394336e-05
165	0xbf033ba2f6871fe8	-3.668395112615947e-05
166	0xbf01d0c020db44ac	-3.398023919277382e-05
167	0xbf02a14870f897c6	-3.5533927185845855e-05
168	0x3ed721d3d82188ae	5.515131649232669e-06
169	0xbea4260da0cf621e	-6.004764273549961e-07
170	0x3ed3a7d03ddebb4c	4.686241451708574e-06
171	0x3ef38a06811b2219	1.8633996723223677e-05
172	0x3f01cdaeae8843b1	3.395737968870468e-05
173	0x3f00dfb21d7874cf	3.218424143034694e-05
174	0x3f08d79d0a9eedfd	4.7382812524667646e-05
175	0x3f0a091f26e56a25	4.965902631922187e-05
176	0x3f0c188692ce66f9	5.358849225629669e-05
177	0x3f0fb7ef8fca37c1	6.049823602892425e-05
178	0x3f10a938bc8ca99b	6.355675499195581e-05
179	0x3f0dfc4b7c931224	5.719285361175202e-05
180	0x3f116e675eaf6096	6.649499816491414e-05
181	0x3f12f37de2b82a6a	7.22928604589918e-05
182	0x3f135623ffc8efd5	7.376284333643288e-05
183	0x3f1222006e895d7d	6.917121539494992e-05
184	0x3f129c135677f271	7.099025753371805e-05
185	0x3f10c1eedc52015c	6.392498387875395e-05
186	0x3f1035d56c718f1a	6.183734068226609e-05
187	0x3f06ec621c27d822	4.372286231905965e-05
188	0x3efbc1597393a749	2.6469489260806047e-05
189	0x3eeb7fcde4aa0b4a	1.3112657275776052e-05
190	0x3effab039681633c	3.0200980660619078e-05
191	0x3ef789d0bd31e76c	2.244791160108761e-05
192	0x3efa4a3de014673f	2.507210411293388e-05
193	0x3f026d77f0349982	3.5147879339714034e-05
194	0x3f0222bbac8460b5	3.459105716013944e-05
195	0x3f01284e162c0b61	3.272522260113517e-05
196	0xbee7c9c42306f33e	-1.134307339689113e-05
197	0xbef3596dd6425bd8	-1.8452961186267994e-05
198	0xbf0419de09339299	-3.8339699267618886e-05
199	0xbee110a643fda378	-8.137243753218842e-06
200	0xbf0092c2fda274e5	-3.161103787017466e-05
201	0xbf03b95c3109fd15	-3.7620664561361306e-05
202	0xbf037a79e295ccb7	-3.715214217949721e-05
203	0xbefd5632e901f463	-2.7977670982161004e-05
204	0xbf0c9685d9429f9c	-5.452724431736987e-05
205	0xbf0e734d5afffcd0	-5.807952709346311e-05
206	0xbf00eef346c3dd1c	-3.229789658292846e-05
207	0xbef149c45fddb88b	-1.6487267195435445e-05
208	0xbf07355b852699ea	-4.426656291238783e-05
209	0xbf03941632fd3629	-3.7342956032842684e-05
210	0xbefa95a62ecdaf86	-2.5353018759429888e-05
211	0x3ee48b11f028f1d0	9.795781356841069e-06
212	0x3f034a25c395cb05	3.679206606479159e-05
213	0x3f02a5b68b2444a3	3.556693390483728e-05
214	0x3f0b51cfd6237e5f	5.210795895193849e-05
215	0x3f1468ca77a7300b	7.785545123012453e-05
216	0xbefcaf3ea5471c95	-2.7355718275304064e-05
217	0xbf002388dbed487f	-3.0782331569626814e-05
218	0xbf038c56eb7a70d3	-3.728523500720758e-05
219	0xbf050b0872b22429	-4.0136523545682423e-05
220	0xbf07df6d3ce624c0	-4.553367726873583e-05
221	0xbf091c6943fb368a	-4.7895395707803453e-05
222	0xbf04013ecfd83488	-3.8156251303525046e-05
223	0xbefcaea823e9c0ef	-2.7353528134489135e-05
224	0xbf02a31d47abecc2	-3.554757218712227e-05
225	0xbf01f489e3ea5fb4	-3.424688155922954e-05
226	0xbefedc2b46743f59	-2.943042309505538e-05
227	0xbf04a29be3c57ab5	-3.9358503701283054e-05
228	0xbf0ef754ce0a7f32	-5.906322053772366e-05
229	0xbf145ebd4410b6a4	-7.770567118888877e-05
230	0xbf11429bef9d9ecf	-6.584240682416395e-05
231	0xbf126d91c4c55b2b	-7.029726220273969e-05
232	0xbf0ea2e44b0403ae	-5.8434097242716365e-05
233	0xbf10ec5e90364f77	-6.455733460192051e-05
234	0xbf08dff3aacf7cfd	-4.74449383103207e-05
235	0xbefe0a171f0ad17d	-2.8647818853770504e-05
236	0xbee6b1dd30e989f4	-1.082171504868544e-05
237	0xbef8b3ad36bfcc3f	-2.3557531150641483e-05
238	0xbef112ee00e863d5	-1.6282982011703855e-05
239	0xbeed589358a5f658	-1.3993262446328179e-05
240	0x3f04ba2e92dca5b4	3.9534136119744224e-05
241	0x3f029038a5546e6f	3.54068076069109e-05
242	0x3f0364870eac6dc8	3.6988612768431054e-05
243	0x3ef9fdd1aace1690	2.4787407415091808e-05
244	0x3ef172794d009a37	1.6638911631750553e-05
245	0x3ef565d5e8cacf7a	2.040652775532569e-05
246	0x3ee45556927485c4	9.695697896608127e-06
247	0xbee2d23355afcc76	-8.97459783819595e-06
248	0xbeedbd5c249040ba	-1.4180987948392602e-05
249	0xbf025a1aeb88d242	-3.5003611121107756e-05
250	0xbf090794e8a25056	-4.774020369882673e-05
251	0xbf032b9adeded57d	-3.6564506316431684e-05
252	0xbef77238ed3404b9	-2.2360020762061882e-05
253	0xbee3dbde6b30ac95	-9.469443602658128e-06
254	0xbee6ccdd039b5624	-1.0872005180055542e-05
255	0xbed2f7563dc9468e	-4.521884843970736e-06

exp_avg_sq f8 [24, 24]
0	0x3eb093c7df3345dd	9.880822034357265e-07
1	0x3eb0639224cc8870	9.768574670905994e-07
2	0x3eb022f7bf09585b	9.61815882179822e-07
3	0x3eb06a684d501391	9.784492267527816e-07
4	0x3eb1fb057f748b13	1.0717244530242706e-06
5	0x3eb459e87b1518ca	1.213026262840378e-06
6	0x3eb6cb4865729044	1.358632649752827e-06
7	0x3eb9594cc4ddd6f4	1.5109078676778195e-06
8	0x3ebcb3cbd8cc98c1	1.7107921365749442e-06
9	0x3ebff987b7b0eeb4	1.9058422526936963e-06
10	0x3ec15b92d3ff7555	2.0692001782967686e-06
11	0x3ec1ef05fe074b4c	2.1378618699578502e-06
12	0x3ec30aca218cdd8f	2.2700007885863422e-06
13	0x3ec4565a4162bc65	2.42439683536366e-06
14	0x3ec4654b16e23de4	2.4313541678378448e-06
15	0x3ec4374e0e0a7232	2.409939142756947e-06
16	0x3ec30301a900d834	2.2663765051568347e-06
17	0x3ec3994112cd8ab0	2.3363410463367803e-06
18	0x3ec273a043823712	2.1996097779368484e-06
19	0x3ec10f07192571df	2.0335557532737083e-06
20	0x3ebc6e820d1a862e	1.6946597053774678e-06
21	0x3eb5a865e0bc9e96	1.2909057458074174e-06
22	0x3eb0272802e441d0	9.627911015699525e-07
23	0x3eace146f4c7d4ce	8.606907413987679e-07
24	0x3e5c823170d2ba9c	2.655067192897986e-08
25	0x3e587d640f78c9fe	2.2807911085988683e-08
26	0x3e56c971a3cda218	2.1221945301256018e-08
27	0x3e567c4133e78f2f	2.0941132600456522e-08
28	0x3e5c4aed3f537d9c	2.6349614008832367e-08
29	0x3e5a09734673af2c	2.4248766908424128e-08
30	0x3e5adb52916d938a	2.501227766171968e-08
31	0x3e5b03d3e1c34967	2.515963447373919e-08
32	0x3e5cbd378373f88e	2.6765398977891064e-08
33	0x3e5b00847ce81a74	2.5147592281152467e-08
34	0x3e6057aa26f8be48	3.044016671745514e-08
35	0x3e5f5c6ea6c5ce48	2.920726631509434e-08
36	0x3e5f906628c0bbe5	2.9396320530720557e-08
37	0x3e5f0668f6af37ba	2.8894319308550246e-08
38	0x3e5ef8205c0ebc40	2.884235584019512e-08
39	0x3e630b28f1d7cbd4	3.5471457087482996e-08
40	0x3e600adf22774dc3	2.988142383153817e-08
41	0x3e60df67b5b3260c	3.142780854445962e-08
42	0x3e60e38abf717949	3.145790821648752e-08
43	0x3e60343ad9c82926	3.018234482142533e-08
44	0x3e5d0b121dba77eb	2.704862987636904e-08
45	0x3e5abbf1ac960bfc	2.4898123373369184e-08
46	0x3e585cdb0d9e53bd	2.2689548774183235e-08
47	0x3e59fd09173f00f5	2.420360219169184e-08
48	0x3e9e992949015bac	4.5594999509761984e-07
49	0x3e9e92d5ecc96522	4.5558179521050183e-07
50	0x3e9e09613f354b8c	4.4758081615031387e-07
51	0x3e9d910c8ea631e2	4.4057664063607995e-07
52	0x3e9db15bdff6df60	4.4245732052802994e-07
53	0x3e9cda7995b9596a	4.299494287032429e-07
54	0x3e9c03b5e922a39e	4.174484981114804e-07
55	0x3e9bee09be6cfd5f	4.161869910264048e-07
56	0x3e9c8ed47c8a204b	4.255463151099861e-07
57	0x3e9db9d41b7e0448	4.4295031952779314e-07
58	0x3e9da7ce7cf06cbe	4.4190130393953744e-07
59	0x3e9e6322ba6a3528	4.5280529052049587e-07
60	0x3e9e94db48dfc89e	4.556994291907967e-07
61	0x3e9f80eb314d80e3	4.6944005420956705e-07
62	0x3e9fe20d4235f69e	4.750939430405004e-07
63	0x3e9fd415120ef676	4.742808120092407e-07
64	0x3ea0299d952acd1d	4.816818467062807e-07
65	0x3ea04894c0ea3f36	4.852867066685232e-07
66	0x3ea0482ef09fd276	4.852404071874352e-07
67	0x3ea03776538c57e1	4.832938095024558e-07
68	0x3e9fe634e2e4de0f	4.753357839728641e-07
69	0x3e9e755822a82924	4.538651718072353e-07
70	0x3e9dad568b213564	4.422232776677157e-07
71	0x3e9d4064d144e97d	4.3588188815596473e-07
72	0x3ef0524be702f63f	1.5565367392103435e-05
73	0x3eedc7dcb6eb62b5	1.420054988214687e-05
74	0x3eea49b85dd1edbf	1.2535080651901864e-05
75	0x3ee7a74a5c7ecdf6	1.1278857428332293e-05
76	0x3ee551ab1036c24b	1.0165699228932174e-05
77	0x3ee334824e450cd8	9.157711652668673e-06
78	0x3ee2f99df5639eff	9.048016789539157e-06
79	0x3ee3cbc37c83f46c	9.439445321829917e-06
80	0x3ee5842068a2a5c5	1.025968528652305e-05
81	0x3ee7c6ed899213f4	1.1337786690166267e-05
82	0x3eea22ca575d06ad	1.2462568274809857e-05
83	0x3eec02fab5137e45	1.3356989855883099e-05
84	0x3eeda6660655bea9	1.4138219010389449e-05
85	0x3eef7c1de1ea8537	1.5013137326493938e-05
86	0x3ef06db5546da5b7	1.5667484400882464e-05
87	0x3ef032eb6d593fdc	1.5448479493251777e-05
88	0x3ef04d469f8a993e	1.5546664118426224e-05
89	0x3ef0cf3e948ea980	1.6030834817529118e-05
90	0x3ef0d0d112770eaa	1.6036691844480373e-05
91	0x3ef11a444c2affe9	1.6310314786549462e-05
92	0x3ef0ba5f25577621	1.595307761258745e-05
93	0x3eeef73f4d6dbb04	1.4765648683937652e-05
94	0x3eec5ac1d8e9d498	1.3520488917987455e-05
95	0x3eeb350ebe496a84	1.2973430736075828e-05
96	0x3e52c46adf5d28bd	1.7478368939055792e-08
97	0x3e522cd6aac7a436	1.692692801368575e-08
98	0x3e51e46ff3d73e84	1.6663533877236828e-08
99	0x3e515d42dd6fd41d	1.6171766006147245e-08
100	0x3e524a841dabcc55	1.7034894254701983e-08
101	0x3e50105d3030e97c	1.4960693139391006e-08
102	0x3e4e60ef05a11733	1.4146159955354405e-08
103	0x3e4e6cd5592662d9	1.4167805405250361e-08
104	0x3e520cc4b39c1002	1.681025738662463e-08
105	0x3e4df36145460fd7	1.394688290617061e-08
106	0x3e5280a0b6a93d03	1.723175150686802e-08
107	0x3e4efc361737077b	1.4428608286347563e-08
108	0x3e50cce84868d9da	1.5646609808327114e-08
109	0x3e51dbfcb7d9406c	1.6632792468254068e-08
110	0x3e5352551456e9d9	1.7994652231595783e-08
111	0x3e52aa3261fd29c2	1.7382978722497634e-08
112	0x3e53fad13837ed45	1.8607596808854165e-08
113	0x3e5443b8d9fd00ae	1.8872822970433335e-08
114	0x3e560ac283e21a0b	2.0528240656415002e-08
115	0x3e54ca0265357f9e	1.936135725127844e-08
116	0x3e564bb799ae38de	2.076455416946983e-08
117	0x3e54b8b114357549	1.9298356035913948e-08
118	0x3e55d1b6f2603247	2.032071146772325e-08
119	0x3e55059277377e2a	1.9578045363609012e-08
120	0x3e785d3404ca2f39	9.07632522006503e-08
121	0x3e77b2b00a5f5f49	8.828192452016108e-08
122	0x3e779fe11f31e351	8.800822808183169e-08
123	0x3e77d7d6a60fcc55	8.882254000346626e-08
124	0x3e774e12b9d30a50	8.681779069527631e-08
125	0x3e774dd0cf31ff0c	8.68140437749294e-08
126	0x3e75cc00094fea01	8.119968904200289e-08
127	0x3e7785a47fb218fe	8.762643226482988e-08
128	0x3e76a895373a5618	8.440959025698995e-08
129	0x3e76e36629e4c8fd	8.526547865399344e-08
130	0x3e77a9f24f8f6114	8.815472431146777e-08
131	0x3e766dd7b32d2b83	8.355480644627215e-08
132	0x3e7779bee5eee29b	8.745330991225436e-08
133	0x3e78875f23f8b203	9.137688383097725e-08
134	0x3e7b2b46d5880381	1.0121259686608563e-07
135	0x3e7af69b6fbc02c4	1.0044615444613596e-07
136	0x3e7be7daeeda1c3d	1.0395677537733258e-07
137	0x3e7bf77b659c3f01	1.0418417542242517e-07
138	0x3e7b6675dd5ca805	1.0207383324399605e-07
139	0x3e7c07a3ba35f89a	1.0441929858791546e-07
140	0x3e7bc34d120b508c	1.0342484247787227e-07
141	0x3e78b60d56694885	9.205617388624861e-08
142	0x3e77f6a1b0356173	8.927063892738967e-08
143	0x3e7779a1e8751efb	8.745166201362763e-08
144	0x3e80d735f5365701	1.2547274739749928e-07
145	0x3e80572400832809	1.2174541575419512e-07
146	0x3e7dc0e31955dee4	1.108402954609194e-07
147	0x3e7a73d5ca71678a	9.854317061086218e-08
148	0x3e76a0c2b70a64ec	8.429576126913806e-08
149	0x3e7250d46bf1554c	6.82314533634782e-08
150	0x3e6e41246e2f97fd	5.635332713648388e-08
151	0x3e6a1b9cc00cc9f5	4.862967984408735e-08
152	0x3e67634a40eb3a75	4.356326865005541e-08
153	0x3e670ede74c12c4e	4.294902442076668e-08
154	0x3e68d90743bd9188	4.6282572856493274e-08
155	0x3e6a75b53b5ca8c6	4.9285211840771645e-08
156	0x3e6d734961029181	5.485553000839446e-08
157	0x3e7110462e09fe6e	6.356675497954679e-08
158	0x3e73e8c8731e5287	7.416795424895967e-08
159	0x3e771648f344d2f6	8.600596574234043e-08
160	0x3e7b2588d6f91cff	1.0112903736050309e-07
161	0x3e7f4417fd058624	1.1647489306855842e-07
162	0x3e813426d4266dc3	1.281776836448644e-07
163	0x3e82ef1a2bc6eccb	1.4106924152248487e-07
164	0x3e8427f1e59c633f	1.5017416182189852e-07
165	0x3e845d0866115f1c	1.5171922299288876e-07
166	0x3e840c618252b529	1.4937194340228856e-07
167	0x3e8378c57d690ca7	1.4507594299677487e-07
168	0x3e7a31b371a2d256	9.758079181044143e-08
169	0x3e7854084c03bda0	9.062979966825417e-08
170	0x3e7808495c6b10d8	8.952755257545814e-08
171	0x3e7808bc002d3fd7	8.953406908690628e-08
172	0x3e783fbacb0603cc	9.0334355778653e-08
173	0x3e78c7409f1001d2	9.230647159131417e-08
174	0x3e79b1ad802f2f33	9.571780883106705e-08
175	0x3e7cc3ee826fdc2c	1.0715930952297577e-07
176	0x3e7f1e33b4cda5ec	1.1592349586993245e-07
177	0x3e810cd970cee270	1.270338362538504e-07
178	0x3e836c7a471cc7ff	1.447181464053434e-07
179	0x3e855855b65704fc	1.590330739719902e-07
180	0x3e877d5b9510d544	1.7501174423706541e-07
181	0x3e88c06e87e34cd1	1.844144356723602e-07
182	0x3e89ada9a2b3b082	1.9131876292184915e-07
183	0x3e8a3b86a2501f09	1.954475276346617e-07
184	0x3e88ae79e7e0cb8b	1.8389185990757265e-07
185	0x3e88d6c8f53855de	1.8506500031104e-07
186	0x3e86d43d55e741a6	1.700897582350016e-07
187	0x3e8572d3449be20e	1.598040475987075e-07
188	0x3e8394201aab7251	1.4587204807168822e-07
189	0x3e80a916e362c101	1.241304389879605e-07
190	0x3e7c90371fa3fda2	1.0640673756347782e-07
191	0x3e79d44a52c79203	9.622148828371462e-08
192	0x3e67cd108c4ea9aa	4.4332880067807375e-08
193	0x3e654e723c2d8793	3.968631958371493e-08
194	0x3e657586c4f0c63a	3.997066554856373e-08
195	0x3e682a91b091b267	4.5013214552317266e-08
196	0x3e6e5c02b49be7b0	5.654881947247992e-08
197	0x3e740f05414c1db8	7.472438341367759e-08
198	0x3e76d6452d3e5574	8.507442866700719e-08
199	0x3e7a784346489ea8	9.86076017025874e-08
200	0x3e7dc3d131ad2e66	1.1088293342986538e-07
201	0x3e8047dc7334b2f3	1.2130072377918546e-07
202	0x3e81c814132f0b27	1.324829184951088e-07
203	0x3e81192565f34f8c	1.2739171759720615e-07
204	0x3e812a80671445f4	1.2789682871847337e-07
205	0x3e82cdbd47f3554f	1.4009825475303848e-07
206	0x3e82a3073e2400b4	1.3885519851292637e-07
207	0x3e84af9ae8e9a272	1.5412239347540212e-07
208	0x3e84387a8dd9879c	1.506553592321882e-07
209	0x3e86c3d051cef217	1.6961170326385289e-07
210	0x3e86851540cea8be	1.6778599878686786e-07
211	0x3e8390f877f6a570	1.4578023053755634e-07
212	0x3e7e16df42150f9e	1.1209154184449889e-07
213	0x3e7254b826f1a53f	6.82880540878567e-08
214	0x3e66df870aa8673e	4.260456994507337e-08
215	0x3e635154a3fbf6dd	3.59820160316366e-08
216	0x3e5cbc4bb52e2901	2.6762047976598045e-08
217	0x3e5a1203b434e6c2	2.427992319457262e-08
218	0x3e58d3490632c4b7	2.31203930555376e-08
219	0x3e5abd1791a2f50e	2.4902299868653873e-08
220	0x3e5c53eeadd8b79b	2.6382376164066445e-08
221	0x3e5ea1f3ad33104f	2.8528854678603754e-08
222	0x3e5cfc5d1651a7dc	2.699512559706061e-08
223	0x3e633416c78bf214	3.576925506306312e-08
224	0x3e636bbb3d8fee25	3.617410699454954e-08
225	0x3e634aa92793ef90	3.5933486361758214e-08
226	0x3e64f8794455c9f5	3.906078708649928e-08
227	0x3e64c4787b7be7ab	3.868241499160915e-08
228	0x3e64d38791f327ab	3.8791983175670456e-08
229	0x3e637ad2a0739183	3.628391103698715e-08
230	0x3e6548dfd9b64714	3.964577929416425e-08
231	0x3e6a0c17095cac29	4.8516740110082996e-08
232	0x3e6a7e8bd9f9a8ee	4.934951935711517e-08
233	0x3e6e456e9f7875fe	5.6384539645132394e-08
234	0x3e6dd66a5e845851	5.557678745182455e-08
235	0x3e706cdf1aaa791a	6.118893362348174e-08
236	0x3e6ff64c82409a49	5.9534059710081766e-08
237	0x3e6687bd0e132657	4.1965820826695285e-08
238	0x3e5c1de8f8c73f34	2.6185844202903272e-08
239	0x3e584cd74166ec74	2.263128714441706e-08
240	0x3e5cb24fc941a977	2.6725726146397792e-08
241	0x3e5c3bc303ad19c0	2.6294444159589934e-08
242	0x3e5b0267f87cfd01	2.515446298413579e-08
243	0x3e5af938741bd17d	2.5121045916158007e-08
244	0x3e5a0c35ff373944	2.425881002830574e-08
245	0x3e5b484b9e3337b3	2.54087185847001e-08
246	0x3e61a29d85249d27	3.284814966064952e-08
247	0x3e6c545453c69bae	5.2767641342634007e-08
248	0x3e73064a4ac8655e	7.087205018025883e-08
249	0x3e7592cc20e258f4	8.036727925024186e-08
250	0x3e7521cfd039ddf3	7.872312229340993e-08
251	0x3e7506f1c974b141	7.833215175519596e-08
252	0x3e71a26690642126	6.569317543084337e-08
253	0x3e6fc4ee69a3ad54	5.9174863413709425e-08
254	0x3e6aa2c35899f900	4.961303108357914e-08
255	0x3e67766631e9d133	4.370230598664242e-08
