dl_experiments/best_checkpoints/avazu_5min_GRU_cuda:0_checkpoint.pt (torch, 16446 bytes, 30 tensors)

gru.weight_ih_l0 f8 [6, 48]
000000 5f 62 bd 8f 05 e1 95 bf 05 5d 68 0a 89 86 9f bf
       -0.0213662022573281 -0.030786648998483396
000010 66 84 49 42 73 b7 a9 bf b2 27 fb f3 05 4a a6 bf
       -0.05022773918313632 -0.04353350261005974
000020 5d be 72 14 81 71 98 bf 78 95 56 03 23 9b ae bf
       -0.023870484231052525 -0.05977734962224707
000030 47 14 45 b6 c8 21 96 bf 39 82 4d a2 f8 ab 90 bf
       -0.021613250851505474 -0.01628101816766245
000040 bd 61 48 bc 26 74 ac bf e5 a3 cd bb 27 2f 94 bf
       -0.05557366417287166 -0.019711132848360697
000050 40 2f 34 d2 27 9c b0 bf 34 65 d1 66 ea b6 9e bf
       -0.064882744616793 -0.029994642758855508
000060 c9 7b 23 e6 68 93 9e bf 93 76 fb 8b 21 69 a4 bf
       -0.029859198614641067 -0.03986458619850199
000070 74 10 b2 bc 37 63 a5 bf 7d b4 e5 21 66 de a7 bf
       -0.04177259615337983 -0.04661864436898442
000080 c1 42 96 3a 1a 61 8b bf 44 7e 90 e8 8f 04 a0 bf
       -0.01336880198758317 -0.031284806384289016
000090 71 36 ce e8 53 32 a6 bf 31 27 a4 cf 1d 29 a7 bf
       -0.043352720421450004 -0.045235568615750295
0000a0 56 fb 40 6c 77 a0 84 bf 20 d7 ce a7 3f 81 a1 bf
       -0.010071690550942296 -0.03418921397626051
0000b0 1f 19 54 7a e1 5e 9d bf 3d 3f 7a 68 71 66 a0 bf
       -0.028682253924693698 -0.03203157806740229
0000c0 75 47 bf b7 57 34 87 bf 54 d7 8f fb 7d 92 9d bf
       -0.011330304427165075 -0.028879135588759056
0000d0 ae 45 5f aa 44 e3 a1 bf 67 30 9a 1c c8 56 a3 bf
       -0.0349370439504456 -0.03777146672391112
0000e0 1c d7 9e 2d 3b 5b a1 bf 79 76 60 1d 5d 28 a9 bf
       -0.0338991635502863 -0.049136075817142584
0000f0 78 f4 6c 19 64 73 94 bf d6 e2 65 5d 82 a9 90 bf
       -0.01997143178163127 -0.016271626425324502
000100 98 4d 93 b3 2c b9 a9 bf 68 16 2b f0 ea 84 9c bf
       -0.05024089519579461 -0.02785079089041745
000110 20 56 58 31 32 ec a0 bf 3c 36 a0 e8 8d 3d 92 bf
       -0.03305203297001591 -0.017812936137536747
000120 b8 1b 7b 9b f5 39 85 3f e8 12 e7 c8 b4 20 8a bf
       0.01036445503940607 -0.012757694607793593
000130 6b e2 97 01 6e f5 80 bf 09 ac 3d 33 7e 53 94 bf
       -0.008280620025275817 -0.0198497504019706
000140 17 f1 05 1e 2e 81 91 bf 46 8c 83 d1 34 71 98 bf
       -0.01709434564826137 -0.023869347846709375
000150 9f 29 49 50 d6 4f 91 bf 1e 10 5a 47 48 f3 a2 bf
       -0.016906117105727977 -0.037012346944749405
000160 a8 09 e1 fb 1e 50 b1 bf f3 96 0d bf 8b c6 ab bf
       -0.06762879990950543 -0.054249159881505714
000170 08 e9 d9 80 46 85 b6 bf 23 13 92 55 95 a7 b7 bf
       -0.08797112127095741 -0.09240086878896796
000180 5f 9e 04 67 ec 07 78 3f be dc f3 dc 60 4a 5d 3f
       0.005866931387835088 0.0017877527168915076
000190 8d e5 f3 9b dd c2 68 3f ca 35 f4 ce 6a 2f 5e 3f
       0.003022606687974777 0.0018423598338047514
0001a0 eb 07 05 56 b0 e8 42 bf a4 ce 5b 23 8a 33 3d bf
       -0.000577055074281183 -0.0004455768824833484
0001b0 fb af 25 17 dd 48 4f bf 9e b4 89 06 d3 33 66 bf
       -0.0009547309439716928 -0.0027102586357644195
0001c0 95 fd 5b b2 46 2f 4b bf 12 33 56 63 fd a3 3a bf
       -0.0008296103667077443 -0.0004065030692224507
0001d0 59 92 71 5f 31 dd 72 bf 30 ac 11 27 ec 9a 61 bf
       -0.004605477202038155 -0.0021490681033831324
0001e0 f9 03 51 6c f4 82 5e bf a9 dd 34 05 0c 35 6c bf
       -0.0018622767395444202 -0.0034432635090088826
0001f0 41 fb 5f 90 d2 f7 73 bf b8 79 c1 00 56 ef 77 bf
       -0.004875013843046728 -0.005843482922584568
000200 5b 0e e5 98 fd 95 73 bf c6 5c 51 86 3a be 77 bf
       -0.004781714071501487 -0.005796650516536056
000210 28 b3 db 7a d8 43 6e bf ff 64 f3 8a 7b b8 77 bf
       -0.003694460689862917 -0.005791170681925139
000220 bc d1 f9 0f 2b c9 7a bf 81 a2 2c 93 13 42 80 bf
       -0.0065395052075598 -0.00793853085413443
000230 4b d9 30 a4 41 2b 72 bf 5a 91 ae 50 54 eb 75 bf
       -0.004435783778765699 -0.005351380687816787
000240 2d 7b 19 43 e3 e8 79 bf bb c7 00 1f 99 f0 7c bf
       -0.006325614683730757 -0.007065389756506886
000250 8d a3 06 d9 9f fd 77 bf 42 5f 35 4d 9d 07 7b bf
       -0.005857109456351217 -0.0065990585893230275
000260 ed 29 7b f7 1c c2 76 bf ee d7 38 2f 78 ea 7d bf
       -0.005556214476835281 -0.007303685637046071
000270 ce c8 58 c8 2a d6 78 bf 91 de ea 08 55 83 71 bf
       -0.006063620681333327 -0.0042756387398906895
000280 1b d2 dc f0 7a 01 75 bf f4 4e 82 2d 08 57 75 bf
       -0.005128364789744678 -0.005209953255093092
000290 05 fa 8c 36 ed 0b 73 bf 93 2a 57 97 af fb 70 bf
       -0.004650045980098221 -0.00414627638151423
0002a0 b9 0c 40 38 76 a7 66 bf 29 c1 1c 7d aa ba 67 bf
       -0.0027653988818215594 -0.0028966264589131052
0002b0 fa fd a6 9a 78 6c 56 bf d5 d0 a8 86 f6 4f 6a bf
       -0.0013686349653737593 -0.00321195745098111
0002c0 a5 c0 b0 3c af 64 61 bf 37 78 23 9f 6e 2e 74 bf
       -0.0021232054328024935 -0.004927093616258252
0002d0 0a f7 26 5e 6d 06 61 bf 5c 75 6d ac cb 7f 46 bf
       -0.0020782600488179525 -0.0006866211414081991
0002e0 6d 18 18 ae 3f 54 74 bf 4c 6f 9e b1 32 76 69 bf
       -0.0049631583692698435 -0.0031081190217729145
0002f0 54 9e 9c a9 44 93 70 bf e1 87 c2 9a 7b ac 54 bf
       -0.004046695912428417 -0.0012618262362953314
000300 a1 e9 a5 e8 f7 c9 89 bf f9 03 a0 ba 78 0f b5 bf
       -0.012592255389553499 -0.08226732784534353
000310 3a 72 b2 31 15 b9 a0 bf 62 cd d5 32 e0 06 b3 bf
       -0.0326620696225501 -0.07432366601078891
000320 88 69 67 d6 95 9c b8 bf 4a 81 db 86 fb d4 a9 bf
       -0.09613930210563215 -0.05045305272301677
000330 74 dd 89 14 ba 59 b4 bf df 09 6a 45 ae bc aa bf
       -0.07949412347249113 -0.05222076985684842
000340 1f a0 ac cd e6 f2 6d bf 67 74 f1 d5 5e cd a3 bf
       -0.0036558635596471013 -0.038676227203475126
000350 32 45 d4 26 c8 88 a0 bf 57 a2 b6 85 d5 b1 a2 bf
       -0.03229356264103912 -0.03651301629299002
000360 50 24 5d be df bf 77 3f 93 56 65 ae e0 f9 83 bf
       0.005798219679328545 -0.00975394756521134
000370 57 b8 b1 b2 d3 c3 6d bf 27 c9 67 bc 8f 51 a4 bf
       -0.003633416626647661 -0.03968476462240949
000380 3f 60 81 29 6b 31 82 bf 41 3f eb 75 7b ef 8e bf
       -0.008883321003097076 -0.01510521367654827
000390 63 66 d3 32 fb 4f 61 bf 81 43 95 ec d6 23 9a bf
       -0.0021133333417367325 -0.025527342023738967
0003a0 1c a8 99 13 2c 4f 97 bf 59 c9 95 3b eb d9 9c bf
       -0.022762955375959945 -0.028175044547830683
0003b0 f1 34 ea 34 c3 ab a1 bf be 6a a4 0a 94 2f ab bf
       -0.03451356907781101 -0.053097368525603525
0003c0 55 d5 ac 6c 78 75 9d bf 10 77 47 10 0b b1 9a bf
       -0.028768426545146514 -0.02606599127636061
0003d0 a0 3e a5 af e3 bb ad bf 95 c4 98 a1 a1 b5 ad bf
       -0.058074107352351634 -0.05802636239639828
0003e0 3b 3a b5 91 f8 4a a4 bf e1 93 a2 c5 11 2a b3 bf
       -0.03963448313389902 -0.0748606784350865
0003f0 a5 c9 fa d1 1b d1 a9 bf c1 41 cb 06 dd e1 97 bf
       -0.05042349756458301 -0.023322537936850688
000400 b1 06 74 97 50 cc a9 bf d6 2b ac a7 ae ac b1 bf
       -0.05038692330164219 -0.06904117196624723
000410 96 85 28 f1 47 97 65 bf 66 82 46 93 57 0d a1 bf
       -0.0026356129758517517 -0.03330491707607024
000420 7d b1 4e 01 3e 1c 84 bf cb 01 8d 3b f6 50 a5 bf
       -0.009819492735765984 -0.04163331486643392
000430 58 1c 90 d2 95 9d a3 bf 74 b1 ba 2e 6c 58 a3 bf
       -0.03831165500019357 -0.0377839858095709
000440 a6 70 3c c4 09 81 95 bf 8e c3 3a 5a ea 54 a8 bf
       -0.02100005398016038 -0.047522853388165406
000450 66 3d 3e 42 2c 99 95 3f d7 d0 a6 82 cf c7 a7 bf
       0.021092120688590475 -0.046446308802303875
000460 6f df e0 24 4e 43 ad bf 85 e9 e3 b8 be b5 af bf
       -0.05715412330795188 -0.06193347937547159
000470 88 32 d5 10 4a 8c ae bf 87 39 0f 8e 17 db a7 bf
       -0.059664072565827786 -0.046593414393657766
000480 83 8e 31 ee 88 74 64 bf 1e fd 2f f5 3f 56 ad bf
       -0.002496974413178256 -0.057298659019574524
000490 e8 4c 7e 19 71 82 88 bf 4f 90 13 10 43 4a a9 bf
       -0.011967547979827534 -0.04939469882245417
0004a0 93 ed 48 bf 17 f5 b0 bf a5 84 93 dc 43 00 a3 bf
       -0.06623981876412292 -0.03711139743405426
0004b0 de cd 8f 00 a9 64 ac bf 4a d6 a5 b0 0f d2 9f bf
       -0.055455476111003085 -0.031074757725454462
0004c0 ad ae f6 32 82 52 84 bf 6b 1a a8 1e 3d 26 93 bf
       -0.009922997646604282 -0.018700556751378643
0004d0 5a 09 25 b1 2c c2 93 bf b8 c6 82 52 df a8 9b bf
       -0.019295404731800893 -0.0270113844023345
0004e0 9b aa f5 17 3c 87 85 3f 5e 98 ef b6 d2 01 78 bf
       0.010511846047582643 -0.005861113647347064
0004f0 9a 20 a4 3e 95 7b 7c bf fc 86 c2 af dc 68 a0 bf
       -0.006953795420720743 -0.03205003400331738
000500 5a 12 8c 52 f3 2c 81 3f 88 45 41 ff 33 04 92 bf
       0.008386517483367207 -0.017594158606077964
000510 09 0c db ed 26 a6 84 3f 46 db 7b ae 0d 20 9b bf
       0.010082534917620138 -0.026489461683890235
000520 a2 a5 0c 0c d8 28 91 bf 52 46 0b a9 b6 20 84 bf
       -0.016757369742810398 -0.009828021081747771
000530 68 5f df 98 33 38 48 bf b7 06 69 29 df 9b 8e bf
       -0.0007391216220140441 -0.0149457392227562
000540 1a 15 e7 b0 1a db 71 3f de 0d e5 e1 82 6b 23 bf
       0.004359344732113324 -0.0001481625813061068
000550 70 11 15 82 25 cb 91 bf 35 01 e2 76 7e ce 8d bf
       -0.0173765049596723 -0.014554012301460343
000560 73 65 33 93 3c 78 83 3f ce a0 64 cd 28 66 9b bf
       0.009506676904879474 -0.026756894622992182
000570 16 f9 0d 54 2c 39 82 bf 5d 6f e1 a0 ed 71 96 3f
       -0.00889811164392688 0.0219189767307023
000580 07 9f d1 86 54 7e 59 3f 7e 08 8e 9c 58 eb 7c bf
       0.0015559983687811212 -0.00706038106807416
000590 7b c8 3c 61 76 99 9a 3f 27 56 60 c3 29 26 44 bf
       0.02597603767862509 -0.0006149009630031552
0005a0 53 4f d7 0c 94 e6 93 3f fd 2f f7 91 04 2f 6f bf
       0.019434273990398165 -0.003806599546555488
0005b0 57 fa b8 97 81 79 4b bf 92 b3 14 e7 e0 fe 84 bf
       -0.0008384592796984541 -0.010251767208126403
0005c0 6e 42 c1 33 ec 87 63 3f c4 3a 61 5b 99 f2 97 bf
       0.002384148914679244 -0.023386379434948493
0005d0 88 d1 0c a6 e7 61 9c 3f cb 2c 4e eb 06 e3 99 bf
       0.0277172274683877 -0.025280101882839284
0005e0 28 a1 ad 31 83 25 a7 bf a8 d2 a4 c8 dc 93 a0 bf
       -0.04520807248519737 -0.032378100865036175
0005f0 9d 7d 9e f2 d8 2b a2 bf a5 4a be ea 8f ba a9 bf
       -0.03549077951106059 -0.05025148144263384
000600 b7 80 d3 dc d5 ac 9e 3f 55 4a f8 f8 99 24 9c 3f
       0.029956189730797358 0.027483373471179757
000610 49 5b 2b 98 ac 51 a5 bf 58 89 b1 32 5a 4c bb 3f
       -0.04163874967132714 0.10663379418978047
000620 89 4d 0c 08 b5 ab ae 3f dc 58 2f fb a2 bf a5 bf
       0.059903771622113196 -0.04247769657347231
000630 b8 fa 76 31 a7 35 9c bf 83 f1 3b 2e 7c da 9d 3f
       -0.02754842032822566 0.02915376693907624
000640 4e 78 e7 fc 27 99 93 3f 64 52 ad 1b c7 21 aa 3f
       0.019138932047887906 0.05103895390371774
000650 ff 16 27 e9 a5 32 b3 bf 18 22 9b d2 5e 4e b4 bf
       -0.0749915785046049 -0.07932083741901186
000660 7d d8 2b 95 6b 82 85 bf c7 f0 e8 45 ee 1f 8d 3f
       -0.010502663125844908 0.01422105933044583
000670 8f 7a 53 c7 5c 0b 98 3f 6e 6f ce 56 f8 4f a9 bf
       0.0234808441790571 -0.04943824824951447
000680 08 88 c3 10 dc 33 61 bf 1f c4 09 65 d3 df bb 3f
       -0.002099923911473848 0.10888406006576233
000690 fd 63 fe f4 13 c7 a8 3f c2 41 2b 91 2f 8d ae bf
       0.048393844276866084 -0.05967091223795108
0006a0 f8 98 77 f9 49 45 89 3f 90 29 99 8f 99 e1 70 3f
       0.012339189458498087 0.00412139878023722
0006b0 b5 b9 c8 cd 61 59 ad bf ad 46 b8 97 0d 33 93 3f
       -0.05732255589497318 0.018749439606898722
0006c0 73 a3 83 5a 86 b2 94 bf 75 8c 73 55 0a b2 3f 3f
       -0.02021226813750183 0.000483634493731517
0006d0 66 98 52 3c 02 79 92 3f 0a dc 5c b7 7e a2 b0 3f
       0.018039736682702666 0.06497947670582974
0006e0 83 10 72 0a 61 4c b5 3f da e9 77 0e 9a 62 a0 3f
       0.0831967020513407 0.03200227190605505
0006f0 c2 62 c9 e9 66 cf 91 3f 53 39 f4 d0 d2 2e a8 3f
       0.017392738360600964 0.04723223496158604
000700 1a dd 60 2f 06 f0 7a bf 80 b4 76 2c c3 3c 94 bf
       -0.006576561127125369 -0.01976304015049779
000710 74 5e 9a 21 74 d3 b1 3f 19 75 c5 0b 5d 10 a8 3f
       0.06963277645479043 0.04699984329884383
000720 49 0b 36 31 a5 84 b6 3f 5f 32 7f c6 2c 51 a6 3f
       0.08796150638049229 0.04358806536729242
000730 13 ca e9 cd 07 2d c0 3f c4 9e f1 15 e7 b2 b6 3f
       0.1263742213664761 0.0886673382352639
000740 96 ec b7 2e 1b fc 8e bf d1 38 84 da 90 b9 b6 bf
       -0.015129291880830825 -0.08876900992274563
000750 e7 db b9 c7 c9 7c bb bf eb 2e bd 67 d7 cf c2 bf
       -0.10737286687968571 -0.14696781697636338
000760 84 88 1a 17 dc ae cb bf 12 b6 9e 8f 5f 9f d3 bf
       -0.2162737953959245 -0.30660237336528084
000770 2f f2 34 44 b8 5d de bf ea 1e 86 81 c6 e4 dc bf
       -0.4744702020723563 -0.4514633431322027
000780 42 c1 b9 33 81 64 bf 3f d5 dd 71 4d 09 c4 a0 bf
       0.12262732994873196 -0.03274563856478677
000790 32 72 ee 02 c0 04 b4 3f 6c 47 34 d4 79 07 96 bf
       0.0781974799305736 -0.02151289327327481
0007a0 26 3d aa 55 fd b3 c1 bf 12 ed 4a b1 73 06 7d 3f
       -0.13830534632550345 0.007086231159230809
0007b0 b6 dc 83 32 54 aa c1 bf 48 ea 26 f9 5e 5c b5 bf
       -0.1380105253844925 -0.08344071944058229
0007c0 d8 8f 56 67 f1 5e c3 3f be 70 cd a8 d6 4b b1 bf
       0.1513349299030995 -0.06756345387606452
0007d0 b5 fe 3e ec 33 19 b5 3f c5 83 98 5c 8f 59 a7 bf
       0.08241581456877152 -0.045605163624947966
0007e0 8e 98 93 68 08 90 c3 3f bc e3 5a e2 bc cb b7 3f
       0.1528330336215657 0.09295254255529434
0007f0 03 5b ae 60 ed c9 b1 3f 16 d9 b7 82 68 f7 b3 bf
       0.06948741541269148 -0.07799390021668659

gru.weight_hh_l0 f8 [6, 2]
000000 a9 f4 db bb f1 55 be 3f 17 b3 35 2d bd e5 bf 3f
       0.11849890552908228 0.12459928849939349
000010 57 ad 3d 34 b6 9d 99 3f ca 70 af 91 5b f4 98 3f
       0.025015685022862524 0.024369650618482543
000020 33 2a 04 04 74 2b 84 3f 9e 38 52 8d 3d 3c ce bf
       0.00984850537544899 -0.23621339226196353
000030 d0 10 2c 75 7a b1 ad 3f e3 5d 3a 6d 8d 27 bc bf
       0.05799467735599395 -0.10997852245997523
000040 b5 7b bc ad d4 c4 d5 bf 68 6b de 65 30 a0 dc 3f
       -0.34013859716827294 0.44727716396453454
000050 be c2 29 0a 95 92 d6 3f ef f7 93 3a a3 46 b8 bf
       0.35269666664593646 -0.09482784443022728

gru.bias_ih_l0 f8 [6]
000000 2c 6b d1 26 6b 2c ca 3f c0 ff 24 3b 5f d9 a9 3f
       0.20448054690754114 0.05048654171923728
000010 e1 45 61 49 98 f2 d5 bf 6c 5c 81 50 0d f4 c5 bf
       -0.34293181577694837 -0.17151037627147347
000020 72 46 9f 4e 84 e3 d2 3f 0f 78 da 0c 0d 0b c4 3f
       0.29513652494379194 0.15658724906546737

gru.bias_hh_l0 f8 [6]
000000 e6 0c 3e f9 d7 dc cd 3f 33 df 84 3d 5f d9 a9 3f
       0.23330211324728295 0.050486541995665844
000010 a5 87 eb a0 dc c7 d5 bf b0 aa 45 bb 20 fb c5 bf
       -0.3403235980496169 -0.17172631401202443
000020 3b 0b 81 bb 8e de d6 3f ca 69 65 e9 d2 f6 97 3f
       0.35733383475251274 0.02340249585663815

gru.weight_ih_l1 f8 [6, 2]
000000 5c 2a 28 6f 30 40 c3 3f d5 80 56 44 61 f3 a1 bf
       0.1503963988073619 -0.035059966651944365
000010 e9 28 1d 98 43 b8 50 bf e3 9b ba 42 5f c3 43 3f
       -0.0010204944705543512 0.0006031241550389334
000020 1c 5c 26 eb 43 ca b1 3f 69 d8 5f 79 5c ac d1 bf
       0.06949257365191425 -0.27614509442299223
000030 22 42 67 7f 16 59 a1 3f ab 74 07 32 07 38 ac bf
       0.033882811596076104 -0.05511496053416328
000040 dd 1f 2c 9a b7 ff e5 3f b1 88 8d ed b5 ec da bf
       0.6874654780558519 -0.4206976718761651
000050 d7 53 7d bf 20 f1 d4 bf e8 61 cf f1 48 c7 c5 3f
       -0.3272172803893318 0.17014419371731937

gru.weight_hh_l1 f8 [6, 2]
000000 4c ab d6 16 94 21 92 3f 6b 6b bc 77 ef 84 87 3f
       0.017706216711000963 0.011484022943070568
000010 c2 79 ab ac b7 ba 52 3f c8 ae 27 9b c7 45 5b bf
       0.0011431497284132151 -0.001664585998350997
000020 10 a6 38 82 5d 2e ae 3f f8 e5 65 ec 63 9d ae bf
       0.05894748892417223 -0.05979454289167657
000030 25 fc c5 ba a4 8d 87 3f 6c d7 7d 82 11 3e 8a bf
       0.011500632238265205 -0.012813698572909003
000040 7a 22 cc 08 37 2a e0 bf fb 1d bf 7d c6 69 d2 3f
       -0.5051531955551376 0.28770601539551394
000050 ac b2 a2 9e b2 64 ba 3f 59 d4 01 4e 23 cb a4 bf
       0.10309902546823463 -0.040612319252354374

gru.bias_ih_l1 f8 [6]
000000 7b 8b ce 3d 37 06 be 3f 87 f9 45 d6 68 23 6e 3f
       0.11728234538035835 0.00367899394967636
000010 8c e6 d8 08 80 ad e3 bf 03 b3 c4 c7 28 f5 b7 bf
       -0.6149292156980706 -0.09358458401829854
000020 63 cd 5f d5 4d 68 88 3f e4 da 7e e5 80 b0 95 3f
       0.01191769416252581 0.02118111992578066

gru.bias_hh_l1 f8 [6]
000000 d9 66 8f 15 3a f8 92 3f 96 b5 46 d6 68 23 6e 3f
       0.018525035444190905 0.0036789939496972386
000010 78 14 75 9e bf ce e3 bf 0f 0b 52 c7 28 f5 b7 bf
       -0.6189878554220192 -0.09358458391401946
000020 67 18 8c 60 2d 64 bc 3f cb a2 05 7b 8b fa b1 3f
       0.11090358359442264 0.07022926095454378

fc.weight f8 [1, 2]
000000 75 09 8c 0c 45 5c f3 bf c8 3f 9e 2c ac e1 d1 3f
       -1.2100267877691213 0.2793989597057558

fc.bias f8 [1]
000000 19 80 8e 2b fd c4 d1 3f
       0.27764825109079677

exp_avg f8 [6, 48]
000000 1a 7c 06 2a 5f 20 70 bf c0 e6 c4 6f b7 57 6f bf
       -0.00393712209225241 -0.0038260061975535498
000010 68 99 d9 24 ea 25 6e bf d5 d2 84 9c 0e 63 6e bf
       -0.0036801884769374522 -0.003709343469518659
000020 e8 7a e3 8f 2d 07 6f bf 64 44 de 39 f0 96 6d bf
       -0.0037876024135664495 -0.0036120120921130806
000030 ce 2d d6 83 3c 15 6f bf 23 19 9a f5 cc ec 6c bf
       -0.003794305985768998 -0.00353088408593573
000040 53 36 fd 4b 1f ca 6d bf b0 e6 7c 49 cc 4a 6c bf
       -0.003636418463350202 -0.0034536352140122836
000050 f8 72 01 be 64 cb 6c bf 01 7c fe 78 38 ab 6a bf
       -0.00351495434010329 -0.0032554724675288864
000060 25 83 58 52 e6 d5 6c bf dc f6 4d 7c 4b 8d 6a bf
       -0.0035199640722257835 -0.0032412027671274556
000070 cb d3 95 ce d4 d2 69 bf cd 21 be ce ec da 6a bf
       -0.00315228999959991 -0.0032782197139946457
000080 90 0d b9 e4 e0 bc 6a bf b1 47 70 e4 37 e6 6a bf
       -0.0032638924074334733 -0.0032836047789794533
000090 18 dd b1 a3 3b e8 68 bf 8e 60 c3 57 ef 0e 6a bf
       -0.0030404248078032096 -0.0031809496559667754
0000a0 46 18 01 37 88 7a 68 bf ed 6e 65 37 d8 d2 69 bf
       -0.002988115353249862 -0.003152296350135467
0000b0 ca dc b7 ed eb 5f 69 bf 11 b7 f3 22 59 d1 67 bf
       -0.003097496793767006 -0.0029074421832920934
0000c0 1a 1f a2 89 0a bf 67 bf c0 4f 03 8c c4 64 68 bf
       -0.0028987127125822522 -0.002977737312997747
0000d0 94 fb fc 20 c7 78 68 bf 50 15 c2 b3 2c 69 68 bf
       -0.002987278865389917 -0.002979838665910485
0000e0 d1 98 a8 06 ca 07 67 bf 7c 7a 1b 60 35 c5 67 bf
       -0.0028113313503751254 -0.0029016535271318405
0000f0 39 40 89 80 a0 34 68 bf 44 a2 67 09 29 1a 68 bf
       -0.0029547819906739184 -0.0029421617029934694
000100 3f d1 70 dc 87 bd 68 bf 72 48 ab 30 d9 7a 66 bf
       -0.0030200627839126744 -0.002744125556412285
000110 3e 4b 98 08 14 8c 67 bf 90 a0 9d fa 93 bc 66 bf
       -0.0028744117050875364 -0.0027754678930485624
000120 ac 73 37 34 86 11 67 bf fc 5a 64 e6 f2 15 67 bf
       -0.002815973393565282 -0.002818083204270903
000130 a6 2c 1a 38 2b ff 65 bf 34 ac eb 60 48 76 64 bf
       -0.0026851505397807616 -0.0024978078503088644
000140 c3 99 41 d2 ff a6 65 bf eb bc 2e f2 2f 39 66 bf
       -0.0026431080350903537 -0.0027128158994497074
000150 9d 8f a6 ba cb 41 65 bf ad 18 c8 bd d7 d2 65 bf
       -0.0025948504528105613 -0.0026640142152728114
000160 ce 8a ab 25 16 34 65 bf 1d 82 41 77 69 18 65 bf
       -0.0025883133470058 -0.002575117099738357
000170 76 ee 34 3d 25 26 64 bf b2 4b 72 f0 6c 69 64 bf
       -0.002459595425220058 -0.002491677066765751
000180 b4 0e b8 ad 7f 7a 24 3f b8 39 ad 1c c5 b4 23 3f
       0.00015623863770041423 0.00015034586098257112
000190 5f 12 db 09 bf c0 22 3f d1 65 be 50 d5 6f 23 3f
       0.00014307338726928223 0.00014829138706033568
0001a0 fa f5 7f 6f d4 9a 22 3f 17 4d 4e d9 90 76 21 3f
       0.00014194338996269246 0.00013323324369860702
0001b0 68 e1 f8 a2 ca 55 22 3f 8c bd f2 56 71 19 22 3f
       0.00013988588897163455 0.0001380873540930246
0001c0 50 55 09 2f 14 a0 21 3f dc 25 55 22 cd a6 21 3f
       0.00013447042830942247 0.0001346707733012449
0001d0 8c 15 78 1e 9c 03 21 3f 88 d8 01 c4 e2 cd 1e 3f
       0.00012980728864435095 0.00011750885551173502
0001e0 4f 0b 24 61 dd 86 1f 3f 80 a3 b7 52 17 07 1d 3f
       0.00012026525681467264 0.00011073188641542824
0001f0 c4 4a 4e 80 04 f4 1e 3f 1c 23 34 d7 d8 10 1d 3f
       0.00011807706330406025 0.00011087726106863118
000200 b7 b9 62 4e ee 75 1c 3f 89 30 24 0e d1 7f 1c 3f
       0.00010856883054331008 0.00010871613952562384
000210 10 d4 25 26 1b 8c 19 3f fb bc b5 34 29 ca 19 3f
       9.745517448840634e-05 9.837986470072675e-05
000220 5c d8 0b 29 9d 92 18 3f 7c 95 b6 59 ab ee 16 3f
       9.373745184490648e-05 8.747979011632616e-05
000230 fc dd c5 7c 9f fa 16 3f ce 99 5c fc f7 88 16 3f
       8.765791353037422e-05 8.596433243877115e-05
000240 c1 56 9b e2 f5 f1 14 3f c7 3a c8 19 a4 68 15 3f
       7.989943756156038e-05 8.166791526085646e-05
000250 cd df 59 f6 46 f1 13 3f 99 eb dd 73 9f 20 15 3f
       7.607455844460473e-05 8.059476109949087e-05
000260 5c db f9 c6 59 75 13 3f 9e 33 db 23 28 80 14 3f
       7.42279096302817e-05 7.820363040451784e-05
000270 b5 06 76 e6 ed 31 14 3f ee 75 42 18 04 0f 13 3f
       7.70379498274087e-05 7.27030038114235e-05
000280 91 d8 28 99 92 15 12 3f 14 55 21 e9 19 9e 11 3f
       6.898600830926501e-05 6.72057451834472e-05
000290 aa 31 cc 44 7d 18 12 3f 30 76 3c db 07 51 12 3f
       6.902947025028716e-05 6.987200214011373e-05
0002a0 e0 ed a4 b2 00 7b 12 3f 41 f6 47 c3 42 65 12 3f
       7.049743422709405e-05 7.017345416923065e-05
0002b0 66 9a f7 4f 50 b6 11 3f a6 7d 2a 2d 4c d8 10 3f
       6.756653964821446e-05 6.425824111965534e-05
0002c0 8d bb f1 a2 a1 ad 0d 3f 66 be de f8 f0 a0 12 3f
       5.6606765036152416e-05 7.106276299739255e-05
0002d0 29 11 28 35 43 81 0f 3f b0 dc 6b da 9f bd 0e 3f
       6.009088851402701e-05 5.8633271057867225e-05
0002e0 f1 db 52 a0 ad b8 11 3f bc 08 af 84 ff 19 11 3f
       6.760177355401277e-05 6.523725566779081e-05
0002f0 9a 01 69 4e ef 19 10 3f 36 0f 19 af d7 73 0c 3f
       6.142161473921549e-05 5.4268855717269656e-05
000300 6a 41 9f 27 fd 43 33 3f db a2 0a 52 d3 87 34 3f
       0.00029396944557637825 0.00031327161017684146
000310 70 df 13 6b 23 e6 33 3f 61 09 86 30 86 83 26 3f
       0.0003036343069449032 0.00017176640563938263
000320 3e 80 68 2e 9e f6 2f 3f 9f 72 0c ed 5e bf 27 3f
       0.00024386101650098081 0.00018117936863228532
000330 da c7 95 c7 5a 9b 2e 3f 5e ca 78 d7 6f e9 eb be
       0.00023351176404734394 -1.3309413346628329e-05
000340 75 66 24 35 a0 af 23 3f 1d 1b ea 04 0e c5 e5 be
       0.00015019255312935837 -1.0380623419748537e-05
000350 42 f2 ef 11 40 f7 f7 3e 31 96 18 f0 6f ef f3 be
       2.2855588323255365e-05 -1.9011785303521364e-05
000360 74 08 74 45 e1 ba 08 3f ba b4 8e 5e f0 c2 12 bf
       4.716873143630141e-05 -7.156936739134953e-05
000370 fc 48 48 b6 87 60 28 bf a9 af 45 6e 21 9d 14 bf
       -0.00018598229066008737 -7.863537354574228e-05
000380 00 3d fc 5f ad 4d 22 bf fd f7 31 cf 78 9b 12 bf
       -0.00013964406388609213 -7.098126279633794e-05
000390 61 2d 3d cd 87 78 1b bf 09 3d 84 7e a1 08 1f bf
       -0.00010479287021529983 -0.00011838422472386726
0003a0 b2 90 5d d0 5c e7 27 bf f2 d5 9a 23 b7 90 13 bf
       -0.0001823712156535699 -7.463567535633662e-05
0003b0 68 91 8d 59 87 e5 1c bf ea 9b c5 56 35 78 1b bf
       -0.00011023176774710918 -0.0001047880702508133
0003c0 94 b9 82 f2 8f fc 25 bf b9 cd 1a b1 bb 6d 22 bf
       -0.00016774422807004348 -0.0001405994049058343
0003d0 e1 31 32 cb 37 8d 1d bf 52 14 6e 30 f3 4e 29 bf
       -0.00011273053205424585 -0.00019308775537410727
0003e0 92 9f 38 1b 2c 69 20 bf cd 8e 60 f9 7a 2c 28 bf
       -0.0001252046910036301 -0.000184431087007933
0003f0 61 1d e3 c6 7d 5d 22 bf 41 f4 94 69 9d 5e 12 bf
       -0.00014011535990319637 -7.007442254276885e-05
000400 28 c9 7c 86 64 ba 10 bf 17 3c b0 8b 05 50 23 bf
       -6.381262357705155e-05 -0.0001473433274843123
000410 38 47 27 fa 62 b4 16 bf 62 52 29 7e 99 2e 24 bf
       -8.661131008771701e-05 -0.000153976666370642
000420 4b f8 f0 e4 eb 3f 1c bf dc 1f 9f 62 f9 16 25 bf
       -0.00010776402744824933 -0.0001609019685118164
000430 31 ab 17 5a 81 6f 27 bf 04 fc 1d d2 06 2b 25 bf
       -0.00017879919054960552 -0.0001614995790610586
000440 db df b0 53 23 fc 12 bf 18 b4 71 a2 ae 97 21 bf
       -7.24216996993427e-05 -0.0001342201878488387
000450 7f 31 48 79 ee bd 13 bf 9f 57 d2 e4 cb 3b 11 bf
       -7.530944851214491e-05 -6.574089020924691e-05
000460 0c 34 7f 0c 61 56 23 bf 8d fe 92 6a 84 7d 25 bf
       -0.0001475327937882357 -0.00016395799074152666
000470 e5 a8 1e b0 6a 65 26 bf 62 1f ca 43 b8 7a 17 bf
       -0.00017086913436276728 -8.956670439818967e-05
000480 58 ca cd c7 bb c7 19 bf 49 3f 78 86 fc 69 1c bf
       -9.834369298093151e-05 -0.00010839084426827768
000490 ad 89 a6 cf cf 04 25 bf d3 7b 87 7a 38 6e 28 bf
       -0.00016036068684595114 -0.00018639029919051298
0004a0 05 ee f6 7c 36 e1 28 bf 2a 6e 18 e6 85 1f 27 bf
       -0.00018981733454191698 -0.00017641553408585922
0004b0 95 ba 8b e3 d2 de 2a bf 0d 1d c7 7b 61 84 33 bf
       -0.00020500492407600894 -0.0002978075024455275
0004c0 28 42 b7 7a 93 3f 2b bf 4e ed ed fb 25 66 35 bf
       -0.00020788836751119253 -0.0003265230879418616
0004d0 bb b7 46 28 20 fb 33 bf c3 40 f3 82 a0 d8 35 bf
       -0.00030488524523774777 -0.0003333465455854884
0004e0 b3 d8 df 1e d0 5a 34 bf ea c7 b3 b2 62 f0 37 bf
       -0.00031058865613376867 -0.00036528024311543886
0004f0 cb dd af 38 57 4b 3c bf 03 ca 28 53 a4 26 3a bf
       -0.00043173674993065837 -0.00039903175198499635
000500 6c bc 65 75 46 d9 3b bf 08 7a ee c8 04 80 39 bf
       -0.0004249379175211346 -0.00038910023516250435
000510 80 3b 5c 93 aa 83 3b bf 79 40 04 56 4f 9e 3c bf
       -0.0004198352283858939 -0.0004366820994770103
000520 93 10 4c da da b1 40 bf ec 19 eb ca bd 1e 3a bf
       -0.0005094832054912838 -0.0003985608445130895
000530 e0 2b 22 5e d6 29 3e bf 80 38 4e 4a 65 d9 3b bf
       -0.00046025737368243606 -0.0004249450960792725
000540 bf cd ac 03 2f ac 3e bf 9a 5e 08 fa 92 b3 3f bf
       -0.0004680266171590251 -0.0004837259130296784
000550 e3 e4 ad 7b 3e 28 3e bf a8 3d 2e 09 db 1b 40 bf
       -0.0004601624056515664 -0.0004916018973392571
000560 9c 3c d0 14 43 f8 3e bf 57 df 11 49 db dc 3f bf
       -0.0004725612423621213 -0.00048618653915565496
000570 be 74 bd 8c 9b 59 3d bf f7 82 d2 b7 a3 3f 3c bf
       -0.00044784591294961737 -0.000431039304951183
000580 2c 5f ac 47 70 82 3b bf 1d df 24 8a 88 ec 3f bf
       -0.00041976205072690137 -0.00048712094771329197
000590 01 b4 88 a4 7e 72 3b bf db 0b b1 86 30 7b 3c bf
       -0.0004188117204957931 -0.0004345887634295533
0005a0 67 2f ac 10 ba 55 3d bf 76 03 fa 6d ff e0 3d bf
       -0.00044761459928176764 -0.0004559157950794682
0005b0 8c ed a1 11 1f 2a 3f bf dc 3d ab 95 c9 3f 3f bf
       -0.00047553308980471313 -0.0004768244886408071
0005c0 49 44 a7 0f a4 04 3c bf 03 36 29 82 f7 6a 3b bf
       -0.00042752271079133215 -0.00041836302458339597
0005d0 d0 a1 59 79 b2 f4 39 bf 2c a2 73 85 9b c0 39 bf
       -0.00039605481410956173 -0.00039295002848274935
0005e0 ea 58 bb 1d 10 e7 3c bf e6 6d e6 f1 91 d0 3b bf
       -0.00044101851902435144 -0.0004244190512509835
0005f0 15 02 ee 84 7d 62 3d bf 00 5e e8 96 6e 20 39 bf
       -0.0004483753627298204 -0.0003834028238158538
000600 1f b9 75 91 cb c1 9e bf 5e 9e 8d 36 32 e4 9d bf
       -0.03003614497486595 -0.02919081171003623
000610 f4 15 3f ec a3 ce 9c bf 53 ec 5f 0d 82 da 9c bf
       -0.028132020277345363 -0.02817729193337144
000620 d8 45 68 b3 93 81 9d bf 56 ea b6 4e fc e5 9b bf
       -0.02881460936084132 -0.027244512848236667
000630 9a 29 c9 1e 01 9e 9d bf 14 a5 03 6f f6 dd 9b bf
       -0.02892305136109883 -0.027213907743235913
000640 b5 6c 80 dc dc 19 9c bf eb d1 5f ac 46 26 9b bf
       -0.027442408521989054 -0.02651319911088194
000650 08 cd 60 b4 85 4d 9b bf fe f8 34 33 c7 96 99 bf
       -0.02666291154328085 -0.024989235401556613
000660 b4 a1 4b bf 4e 3d 9b bf de fd 9d db 51 37 99 bf
       -0.026601057458636126 -0.024625090627066963
000670 39 c2 ce 4d bc df 98 bf 82 bc 97 6d 46 a9 99 bf
       -0.02429098343754019 -0.025059795798310087
000680 86 aa 68 59 1b 99 99 bf 6d 04 8d 1e 56 77 99 bf
       -0.024998118717272998 -0.024869294752765492
000690 3d d2 47 65 64 a2 97 bf 46 b4 f7 b8 6e ae 98 bf
       -0.023080414468454647 -0.024102907218481094
0006a0 2e 25 fa 00 d1 ac 97 bf 3f f2 4c 1c e0 5c 98 bf
       -0.023120179829253455 -0.023791791655854985
0006b0 85 ef 40 20 60 0c 98 bf 0a 96 eb ea c7 af 96 bf
       -0.02348470875607191 -0.02215492602672068
0006c0 4e d1 d3 af 31 c8 96 bf 29 15 1b 4f 5f 39 97 bf
       -0.022248054844525904 -0.022679795459017136
0006d0 41 62 f5 45 67 04 97 bf 10 8f 37 50 59 00 97 bf
       -0.022477735180787887 -0.022462268372591743
0006e0 e5 6d e1 9f 8e d5 95 bf a2 43 4a 2d 52 5f 96 bf
       -0.02132246828874242 -0.021847995771682734
0006f0 16 a8 09 4c ea e9 96 bf 63 ba 34 46 76 bd 96 bf
       -0.022376690760587868 -0.02220711520674924
000700 b2 1a dc c1 a0 e2 96 bf 95 8a 2d 60 5a 46 95 bf
       -0.02234889205194674 -0.020776188011391545
000710 f2 58 ce eb d0 14 96 bf 4f eb 7f db c5 5d 95 bf
       -0.02156378211255911 -0.020865527651021506
000720 46 39 69 05 79 e5 95 bf 45 95 69 0e 59 bb 95 bf
       -0.02138318152929599 -0.021222487930932194
000730 06 97 47 cb 0a b0 94 bf 6c ac cf d9 c9 71 93 bf
       -0.02020279756279477 -0.0189887561026975
000740 92 67 76 1f b9 5d 94 bf 39 24 37 1f 3b 04 95 bf
       -0.019888775391883558 -0.02052395227454815
000750 04 65 24 4c 7f 0b 94 bf e4 92 d7 78 46 5d 94 bf
       -0.019575108549450895 -0.01988706696092181
000760 b7 c5 87 58 9c f9 93 bf 68 cc 9b a8 66 f3 93 bf
       -0.019506876853432078 -0.01948318866830015
000770 33 24 18 49 74 1f 93 bf 28 0d 3b d0 42 eb 92 bf
       -0.018674675904581228 -0.01847557445468087
000780 f8 6c 49 22 44 59 83 3f 2c 01 2c 5a a3 1e 83 3f
       0.00944760541567867 0.009335781277969156
000790 81 01 21 d2 81 ff 81 3f da d0 58 c3 7f b5 81 3f
       0.00878812239182092 0.008646963261619001
0007a0 0b f8 3e 6c 21 1d 82 3f 00 ca 1c b1 9b d2 80 3f
       0.008844624629883687 0.008214203207534077
0007b0 2d 01 ca 51 6e d9 81 3f c2 cb 8f b4 8e 90 7f 3f
       0.008715497847561504 0.007706220095303475
0007c0 8f 07 35 84 1b cb 80 3f 09 fe 62 2a 30 60 7e 3f
       0.008199896785871434 0.007415950915116828
0007d0 cc 8b f2 61 98 42 7f 3f da 55 10 6d fb df 7b 3f
       0.007631869549331104 0.006805402882510825
0007e0 94 1b 82 80 31 3d 7e 3f 84 fc 0c de c3 fb 7a 3f
       0.007382577292566323 0.00658775816628954
0007f0 c1 51 d7 ad a5 c0 79 3f bc 66 4e 13 40 1f 7b 3f
       0.006287238296370069 0.006621599478330683

exp_avg_sq f8 [6, 48]
000000 2d 6d 5b 0e c3 1d 14 3f 95 ac 92 c0 ee fb 13 3f
       7.673743274543418e-05 7.623333671584667e-05
000010 43 e5 0e e5 2c c5 13 3f 7b 70 00 b8 e7 d2 13 3f
       7.541739002094477e-05 7.562197970440055e-05
000020 60 0c 93 30 4c ac 13 3f 2b 2d eb 9d c3 54 13 3f
       7.50466825989878e-05 7.374233198758201e-05
000030 ef c6 61 91 a5 80 13 3f ad c0 47 0d cc 37 13 3f
       7.439623399976466e-05 7.33106892949499e-05
000040 3d ba 25 93 dc 30 13 3f f3 1f 3f d3 98 ee 12 3f
       7.320734292701969e-05 7.22199227417562e-05
000050 36 56 80 aa 35 e5 12 3f 94 30 d3 da b6 bb 12 3f
       7.20800404681803e-05 7.14617114738212e-05
000060 60 98 70 39 73 a5 12 3f 1c 04 39 71 1b c9 12 3f
       7.112994931954405e-05 7.16612815319238e-05
000070 0b 88 37 60 bc 54 12 3f a4 5d 2e f9 ca 68 12 3f
       6.992721323897958e-05 7.022608615014095e-05
000080 98 6e 38 ff 78 3b 12 3f 02 0e 85 74 02 38 12 3f
       6.955076224140556e-05 6.949915871694998e-05
000090 48 b1 11 39 40 11 12 3f 7e 9d e5 51 66 de 11 3f
       6.892160878785747e-05 6.816386710327933e-05
0000a0 ba f6 00 6f d4 a8 11 3f e7 89 fc 26 76 af 11 3f
       6.736561385963904e-05 6.74644340930352e-05
0000b0 ae 1a 3e c5 ef 9f 11 3f 19 e3 6c d7 88 86 11 3f
       6.723309462417878e-05 6.685457433953621e-05
0000c0 a2 80 ea ed b0 1b 11 3f 48 30 ad 58 b0 1d 11 3f
       6.526248351202077e-05 6.529225190127317e-05
0000d0 c8 fa 96 3c bf e7 10 3f 7d af 79 1a b9 cb 10 3f
       6.448845592553064e-05 6.407086640941406e-05
0000e0 c7 50 17 cb 41 82 10 3f 69 6c 6e 03 1a 6e 10 3f
       6.297613688072404e-05 6.267579816070377e-05
0000f0 d4 c9 aa 9b 8d 24 10 3f 7e bb 3a 92 4d 14 10 3f
       6.157984072777757e-05 6.133769471248875e-05
000100 0b dd 06 8a 65 16 10 3f a0 dc 7f 95 03 b6 0f 3f
       6.136889215368009e-05 6.048391759343988e-05
000110 56 54 68 0f 09 12 0f 3f d0 6f d1 99 95 23 0f 3f
       5.926218175404038e-05 5.939293189591267e-05
000120 e0 1f 43 5b 31 01 0f 3f 2a 54 ec f8 13 b6 0e 3f
       5.913669466078831e-05 5.8577045925080625e-05
000130 c1 7c 77 1a 17 99 0e 3f f7 78 35 d6 10 b5 0d 3f
       5.836107021272566e-05 5.666215545362286e-05
000140 49 29 18 71 be de 0d 3f 28 53 d7 64 4e 82 0d 3f
       5.697268182920879e-05 5.628396739224543e-05
000150 db 06 73 2e 5b 55 0d 3f 84 bb f9 a9 f5 23 0d 3f
       5.5949063431549275e-05 5.558103043489581e-05
000160 8d a9 4a 7f 25 bb 0c 3f c0 2b d8 91 e1 c9 0c 3f
       5.480011160348677e-05 5.490989336117509e-05
000170 12 0c 7b 8a f7 b6 0c 3f cb ee 77 42 00 82 0c 3f
       5.476897177694047e-05 5.437434475294224e-05
000180 73 2b 6b 47 4c a5 74 3e 90 33 90 1d d3 4e 74 3e
       7.69112079398741e-08 7.565285588279886e-08
000190 0e a6 04 89 85 e0 73 3e 6d 1e c6 7c 9b 86 73 3e
       7.404773528078197e-08 7.273931074667267e-08
0001a0 c7 16 14 d7 1a 16 73 3e 60 e5 50 5c 44 89 72 3e
       7.110218349170529e-08 6.905272360935299e-08
0001b0 52 e0 f7 f5 ab 7f 72 3e e5 49 4c 71 cc 11 72 3e
       6.891309344686882e-08 6.731422914585451e-08
0001c0 63 7c f2 0c e9 6e 71 3e 3a ac e7 71 d2 0b 71 3e
       6.49438931404257e-08 6.350196855130979e-08
0001d0 09 0f 27 b3 31 8b 70 3e da da 5b ec a9 40 70 3e
       6.163018609952013e-08 6.054562636999176e-08
0001e0 fd 80 82 2b bb 79 6f 3e ed 37 4e c9 34 1f 6f 3e
       5.862771018769538e-08 5.796905459049438e-08
0001f0 ef d8 67 bc 8f 27 6e 3e ae a8 8f 41 c0 dd 6d 3e
       5.6167202045559905e-08 5.563016020739471e-08
000200 9c fc 59 ea 16 b7 6c 3e 9f 05 05 75 36 4a 6c 3e
       5.348621571771414e-08 5.269403280601293e-08
000210 f0 d3 8b f2 68 7d 6b 3e 58 18 9c f2 23 da 6a 3e
       5.12038965168274e-08 5.0015954334819585e-08
000220 b0 7e 73 2c 35 74 6a 3e 49 a8 d3 c0 f1 81 69 3e
       4.92742962489192e-08 4.751159830305014e-08
000230 81 3a e0 e0 5d 0d 69 3e 7c 87 12 e0 8f 58 68 3e
       4.6663384364974714e-08 4.5347857033071185e-08
000240 5b fd 1c e7 e3 a2 67 3e a4 a6 55 97 85 36 67 3e
       4.402602095257456e-08 4.3237537032345006e-08
000250 5c c8 c2 f0 fb db 66 3e a6 7f dc 6d c9 4a 66 3e
       4.257878857948036e-08 4.1522339107183144e-08
000260 cb 65 86 0e fb 02 66 3e c1 74 49 5d 27 81 65 3e
       4.099988065997437e-08 4.0055265469678167e-08
000270 07 b5 c3 1a 40 1d 65 3e ef fb 28 44 42 8a 64 3e
       3.932837286551927e-08 3.8258868535489454e-08
000280 ac 25 c8 f9 c3 1a 64 3e c4 a6 9b f7 c9 e0 63 3e
       3.7447647847280144e-08 3.702581259457254e-08
000290 bc 4b 81 7a 84 83 63 3e 12 1a d5 11 2d 80 63 3e
       3.634717354928506e-08 3.632286136672536e-08
0002a0 72 a5 83 c7 87 38 63 3e 76 42 2e cf 2a 14 63 3e
       3.580157054308622e-08 3.553699370114645e-08
0002b0 c7 65 d0 ee 2b e1 62 3e 55 dd b1 15 bd 72 62 3e
       3.516595179654003e-08 3.43624459658613e-08
0002c0 e2 48 46 f9 e0 62 62 3e b5 d6 e3 7d a7 39 62 3e
       3.4247050670294055e-08 3.394710267223765e-08
0002d0 dd 08 22 b5 f8 e7 61 3e 84 48 f1 63 43 2d 62 3e
       3.335278243953829e-08 3.38569461291752e-08
0002e0 47 af ab 73 c5 e2 61 3e 36 3e 78 6b 41 2d 62 3e
       3.3314945876510657e-08 3.3856890121441914e-08
0002f0 3d 79 5d 21 b5 e6 61 3e 6c d6 2f 9b 8e 0f 62 3e
       3.334358582186905e-08 3.364080516231222e-08
000300 96 d6 61 6d 37 41 df 3e a5 c8 4c 4c 1b b6 de 3e
       7.45171356274711e-06 7.322157391341997e-06
000310 d8 85 ce d9 71 fc dd 3e 17 cc 76 59 24 7c dd 3e
       7.1492462695734075e-06 7.0297550317953276e-06
000320 09 f8 80 bf c9 8c dc 3e 63 63 c9 02 20 c7 db 3e
       6.8068393304626044e-06 6.6227512830134965e-06
000330 ed 9a ea 7d 7d 62 db 3e cc c7 41 6c 95 91 da 3e
       6.529027784785434e-06 6.334468427225984e-06
000340 30 1f 54 89 42 20 da 3e 19 e1 c6 4e a0 14 d9 3e
       6.228927437186384e-06 5.979674125127193e-06
000350 f3 d3 ca 94 02 8f d8 3e 33 f3 b3 73 62 03 d8 3e
       5.855234417030837e-06 5.725198032321965e-06
000360 f3 32 02 7c d2 4c d7 3e 19 31 60 05 89 dd d6 3e
       5.555173572824258e-06 5.451529508714958e-06
000370 50 e9 47 29 62 5c d6 3e 2a 6d 26 aa 69 f0 d5 3e
       5.331247525659021e-06 5.2306919847936685e-06
000380 09 c1 a0 f7 36 6e d5 3e 7e 30 df c3 cd 13 d5 3e
       5.109435614200855e-06 5.025233859212132e-06
000390 c0 8d 75 82 2b 66 d4 3e b2 6d 5c 92 d7 f8 d3 3e
       4.8635247716673886e-06 4.761705246793452e-06
0003a0 e7 0d 1d c3 7d 33 d3 3e 71 5d 9f bb 99 e9 d2 3e
       4.577907974315471e-06 4.509091860747383e-06
0003b0 88 df 66 26 0e 7c d2 3e 59 ed a2 48 0f 0f d2 3e
       4.407069900506831e-06 4.305559864355276e-06
0003c0 74 97 42 1e 4a 5f d1 3e 6f 52 8a 15 bf 44 d1 3e
       4.141861129768976e-06 4.117140939858932e-06
0003d0 a8 86 d2 64 fa c2 d0 3e 9c 50 cb b5 c8 69 d0 3e
       3.996284772574188e-06 3.91321631517199e-06
0003e0 42 aa 8c 5c b5 02 d0 3e 28 05 0b 36 3b 6e cf 3e
       3.817219700145428e-06 3.746818422051827e-06
0003f0 6e b3 5e a6 18 9f ce 3e 3a 6b 4b 99 1c 00 ce 3e
       3.6503636690804724e-06 3.576330707450416e-06
000400 a8 57 47 40 a5 9b cd 3e 90 89 44 87 60 12 cd 3e
       3.5295474864844414e-06 3.465626884261923e-06
000410 81 35 8e af aa 4b cc 3e 41 81 2a 92 60 cc cb 3e
       3.3730951795654385e-06 3.313821382036755e-06
000420 b2 9c 30 ca 4c 7e cb 3e 5f d4 a1 15 92 12 cb 3e
       3.277463819912121e-06 3.2272984472011983e-06
000430 5e 30 7c d2 06 c6 ca 3e ce c8 6c fe 37 74 ca 3e
       3.1916548727303466e-06 3.1535600898631276e-06
000440 f8 f5 db 63 ec fa c9 3e 5f 1a 43 cb b1 9c c9 3e
       3.0970775516381503e-06 3.0531988049782025e-06
000450 7b c6 26 8e 5f 51 c9 3e 1a a6 01 20 c5 46 c9 3e
       3.018124617081711e-06 3.0131870972130113e-06
000460 f4 77 67 b4 57 c7 c8 3e 93 2e a4 91 8e 03 c9 3e
       2.9538490793198526e-06 2.981888553970689e-06
000470 1d 6a a5 3d 11 a8 c8 3e 6d a9 46 2d f8 db c8 3e
       2.939285406328554e-06 2.963454202216715e-06
000480 e9 44 76 11 70 70 c8 3e db 21 29 b0 ce 19 c8 3e
       2.913380864285308e-06 2.873040444915438e-06
000490 8b b0 3c 49 6a 65 c7 3e 74 2b 1d 53 c6 0c c7 3e
       2.7890387829434987e-06 2.7477623455776573e-06
0004a0 23 b6 ad 61 4c 3d c6 3e 5b 83 e9 1f 7e 8c c5 3e
       2.6511486458855447e-06 2.5688170802038753e-06
0004b0 d9 dd ab 16 43 15 c5 3e 8c 40 07 6a 53 88 c4 3e
       2.5132960009795644e-06 2.447667455586559e-06
0004c0 ea c9 6b d5 34 d8 c3 3e 1a b6 87 0b 14 41 c3 3e
       2.365655443420065e-06 2.295280946854365e-06
0004d0 2f a1 48 6d a3 72 c2 3e 3b ab 8f 80 9c 50 c2 3e
       2.1991498704473817e-06 2.1833047907279487e-06
0004e0 f0 ed 6c 34 6f 90 c1 3e bf 54 00 a4 04 68 c1 3e
       2.0938154280650113e-06 2.074995137500175e-06
0004f0 e9 d5 8f 64 d0 da c0 3e 28 af f8 d1 c2 91 c0 3e
       2.0092418577765e-06 1.975223895353101e-06
000500 87 05 40 6a a2 0f c0 3e 35 0b bd 76 f1 b4 bf 3e
       1.9146289833577465e-06 1.8898731139616567e-06
000510 0e c9 25 7b 57 03 bf 3e 38 a5 51 2d 7b 63 be 3e
       1.848522043515285e-06 1.8113016058369428e-06
000520 08 47 16 30 7a ac bd 3e b8 7d 0e c5 03 1f bd 3e
       1.7686926983878285e-06 1.7357558770094024e-06
000530 d1 bd cc a3 25 b5 bc 3e 3e f2 80 22 fd 18 bc 3e
       1.7111066334499418e-06 1.6747482138999328e-06
000540 5e c8 e9 24 9f 73 bb 3e 1f 06 56 22 28 0b bb 3e
       1.6362456737554027e-06 1.611923047789897e-06
000550 bb 5c cc 55 c1 b0 ba 3e 92 31 22 92 29 bf ba 3e
       1.5908747947374378e-06 1.5942292255515471e-06
000560 dd c9 f8 bd 53 ef b9 3e c9 cd a1 55 75 dc b9 3e
       1.5458388061938073e-06 1.5414455760948665e-06
000570 33 09 3d 83 c5 2f b9 3e b4 4f b1 cd a9 19 b9 3e
       1.5012387963452824e-06 1.4960913208477053e-06
000580 41 39 ad 9c d7 a9 b8 3e 89 fe b0 c8 72 9d b8 3e
       1.470055951375055e-06 1.4671702810580594e-06
000590 7a 91 a5 1a 53 0c b8 3e 1a 95 c6 36 a9 dd b7 3e
       1.4333810250617455e-06 1.4225163012885126e-06
0005a0 ce de 62 a0 3e 79 b7 3e b4 1b 9d d2 81 79 b7 3e
       1.3991362961939026e-06 1.3991974107828183e-06
0005b0 c4 f2 ac 84 41 2d b7 3e a7 5c 2e 69 e8 00 b7 3e
       1.3814437973123692e-06 1.371118206283133e-06
0005c0 16 77 0a f8 d4 ba b6 3e 71 c6 1b 06 31 82 b6 3e
       1.3548023788732152e-06 1.3416147556757235e-06
0005d0 fe a0 ee 4d d1 19 b6 3e ca af 87 65 3d 3e b6 3e
       1.3173133124132052e-06 1.3257935248490543e-06
0005e0 ba 46 d6 ad 88 15 b6 3e 24 8e fa 59 db 03 b6 3e
       1.3163159374479132e-06 1.3122001759979135e-06
0005f0 48 62 7f 83 75 83 b5 3e 71 3d 6e 2d d8 ff b5 3e
       1.2823052326552663e-06 1.3112659666725258e-06
000600 a2 23 2f e0 fe 80 6d 3f fa 7d 4e 04 2d 49 6d 3f
       0.0036015489617721866 0.0035749320254152535
000610 a3 67 ff e2 c4 f8 6c 3f f8 f3 2d 2b 37 0a 6d 3f
       0.003536591095309087 0.0035449101937374793
000620 70 28 e9 96 71 d5 6c 3f c9 e4 f5 38 16 55 6c 3f
       0.0035197466416195186 0.003458541301082894
000630 73 d0 c8 fa ae 90 6c 3f 2c f9 4f 22 5c 30 6c 3f
       0.003486959225734104 0.003441028546603017
000640 2f f9 70 8c 6c 1a 6c 3f 52 fb 56 16 41 be 6b 3f
       0.0034305687036343606 0.0033866187320365304
000650 9e b1 97 49 2c ad 6b 3f 32 32 24 f4 d6 6f 6b 3f
       0.00337847375771201 0.0033492277444848945
000660 3f 48 dc f7 4e 52 6b 3f 5c c7 26 27 92 7d 6b 3f
       0.003335146174216624 0.0033557753133316836
000670 04 e2 f5 65 32 db 6a 3f 20 58 95 51 8a fa 6a 3f
       0.0032783493367640765 0.0032932950531785604
000680 62 ec a3 80 4a b1 6a 3f 99 a8 6a 94 f8 a7 6a 3f
       0.0032583670737245532 0.0032539229462900774
000690 8f ec 38 51 5b 72 6a 3f 4c 47 99 db 7b 28 6a 3f
       0.003228357652714182 0.003193132314472635
0006a0 d2 87 09 19 52 df 69 3f a4 06 35 4b 60 dd 69 3f
       0.0031582454178513486 0.0031573181856011257
0006b0 d9 d7 33 ba b0 c5 69 3f fb c3 b9 f8 0b 9f 69 3f
       0.0031460239130138676 0.003127597219468201
0006c0 19 a6 f7 8a 3b fe 68 3f c2 82 0a 65 26 05 69 3f
       0.003050915045368152 0.0030542135139771396
0006d0 2e 5a c0 f2 aa b2 68 3f 01 d6 aa 0f 03 85 68 3f
       0.0030148829300842483 0.0029931125439712773
0006e0 0f 5a d2 e8 67 1a 68 3f f0 0e 8b ce c9 fa 67 3f
       0.002942278812564376 0.002927202371525321
0006f0 94 95 5e b4 b4 90 67 3f 12 40 b0 ea 6a 74 67 3f
       0.0028766183267687293 0.002863129445820797
000700 cd 60 75 44 56 75 67 3f bf 7e e6 b6 1a 1b 67 3f
       0.0028635678205938043 0.002820541550320715
000710 07 df f5 17 61 a3 66 3f d5 90 8b b0 89 b4 66 3f
       0.0027634521827016897 0.0027716340303972444
000720 ab 1f 58 3d 6b 92 66 3f fe 5a fc 48 cc 5f 66 3f
       0.0027553648494666647 0.002731226915681061
000730 48 cf 0b 67 75 4a 66 3f dc 9e 0b df 5a 9e 65 3f
       0.002721051503948777 0.0026389860944283482
000740 41 c2 08 04 1f c0 65 3f 69 fa 12 b9 03 78 65 3f
       0.002655087068227397 0.002620703956011373
000750 b8 be 01 a6 a0 5a 65 3f 13 63 5b f9 a8 34 65 3f
       0.002606691137820718 0.0025885868334224542
000760 27 4f 69 f0 6f eb 64 3f 8d 01 ca ad 91 f7 64 3f
       0.0025536714850121936 0.002559456376104835
000770 2f 26 f7 9b f7 e1 64 3f a1 d4 ea de 63 c5 64 3f
       0.002549155818745395 0.0025355291939726664
000780 fb 23 89 84 2c b2 37 3f f1 85 62 5b 71 9b 37 3f
       0.00036157214029636204 0.00036021726135446105
000790 80 e3 3a 2c 22 ee 36 3f e4 37 2c 11 d7 e6 36 3f
       0.00034988722130040867 0.0003494525018802304
0007a0 c4 65 bb 23 6c 71 36 3f 0e 5d f3 c7 db c5 35 3f
       0.00034245386244221806 0.0003322278570982586
0007b0 53 0c fd 9f 61 de 35 3f eb 81 c9 86 d2 39 35 3f
       0.0003336895315337363 0.00032388105208805304
0007c0 64 2b 7f cd 7a d7 34 3f 0a 2d 95 62 30 70 34 3f
       0.0003180193721134454 0.0003118627669961993
0007d0 ad d2 73 50 39 ff 33 3f 97 b9 14 e1 43 c8 33 3f
       0.0003051295211229748 0.0003018537255056407
0007e0 bc 77 39 eb 9b 4c 33 3f e1 d2 84 14 be 36 33 3f
       0.0002944832478756173 0.0002931798994894441
0007f0 18 ef 18 2f 44 96 32 3f d8 b0 3a 97 87 76 32 3f
       0.00028361477515991126 0.00028172312088760093

exp_avg f8 [6, 2]
000000 04 04 a4 d2 ff 0e 60 bf 4e 20 d3 fd d6 c8 75 bf
       -0.001960277227340603 -0.005318488894040808
000010 6e ec 28 80 ea dc 21 3f 05 15 bc 31 2c f1 25 3f
       0.00013628351742220622 0.0001674047897425661
000020 42 81 ab d0 b7 6d 19 bf 43 0d 86 8b f1 b4 4c 3f
       -9.700235765875301e-05 0.0008760623377814042
000030 fb c2 99 0a 81 06 0e bf b0 be 45 d3 f5 8a 37 3f
       -5.7268918067237725e-05 0.00035923482507536474
000040 0f d4 52 b4 ae ee 80 bf 02 06 60 cc 7e 7e 93 bf
       -0.008267750623739216 -0.01903722879797521
000050 bb 1a 3f 6c 4e e5 68 3f 44 42 22 92 d1 6c 7c 3f
       0.0030390292831471133 0.006939715038371267

exp_avg_sq f8 [6, 2]
000000 c2 82 18 32 b5 5d f7 3e 37 a0 46 76 26 20 30 3f
       2.228359801937047e-05 0.00024605692876855954
000010 b6 5a 9f 3b a5 7f 74 3e ac 72 90 fe df 34 91 3e
       7.636329160620245e-08 2.5639746909100736e-07
000020 94 bc c8 ae 9c fc c7 3e 9f 7f 95 8c 92 db ff 3e
       2.8594453083323932e-06 3.038187495485423e-05
000030 69 4e a9 22 f0 48 af 3e 80 a1 f5 32 38 ce e3 3e
       9.323630981252377e-07 9.444019808583322e-06
000040 b8 72 20 24 5e 93 34 3f 7e fc 75 e6 08 d4 65 3f
       0.00031395958296957403 0.00266458261802388
000050 bc 31 5b 71 8d 48 04 3f c6 ad 44 40 1f 14 35 3f
       3.868753098643397e-05 0.0003216339394096181

exp_avg f8 [6]
000000 26 8c 43 81 7a 8d 81 bf 81 b7 d9 52 d0 15 35 3f
       -0.008570630140132773 0.00032173477197871425
000010 cf 89 f5 2e dc 68 4f 3f 44 fa 21 70 d4 99 e3 be
       0.0009585452188896562 -9.346436403709646e-06
000020 a3 7d 4f 90 97 c9 b0 bf 62 a4 6a 14 c3 37 96 3f
       -0.0655760505028327 0.021697090264443004

exp_avg_sq f8 [6]
000000 33 bc 1b 30 8f f4 40 3f 5e a8 ad 28 7b 71 a3 3e
       0.0005174349937230371 5.794550629160794e-07
000010 5f 08 fc 44 3b 43 0c 3f 4b 92 ed 8c 92 3e f5 3e
       5.390667558737081e-05 2.026026123348933e-05
000020 3e 86 54 d0 53 be 98 3f d1 46 6a 34 1d fa 65 3f
       0.02416354140325993 0.0026827402501304683

exp_avg f8 [6]
000000 2a 06 1f 6e 5c 7e 81 bf e1 8e 28 53 d0 15 35 3f
       -0.008541795836097672 0.00032173477225881485
000010 b8 2d f6 ee c4 7e 4f 3f 84 f8 7d cc 04 0e e4 be
       0.0009611569966393929 -9.562855111996478e-06
000020 43 05 68 bf d5 3a a0 bf 88 5d c1 13 f4 1f 87 3f
       -0.03169887506011062 0.011291415074238711

exp_avg_sq f8 [6]
000000 a9 55 98 53 8e f4 40 3f 04 ce b5 28 7b 71 a3 3e
       0.0005174345926117113 5.79455062972611e-07
000010 bb ef 67 94 34 43 0c 3f 28 7f 0f cb 93 3e f5 3e
       5.3906480889736684e-05 2.0260279317229447e-05
000020 5d 46 94 a5 01 a2 78 3f ff 95 9c 55 81 7a 47 3f
       0.006013876374042573 0.0007165080562329672

exp_avg f8 [6, 2]
000000 f8 80 13 33 ff 2f 51 bf 17 a2 c8 3f 41 5f 64 bf
       -0.001049041002538385 -0.002486827316051664
000010 3c 94 1c e5 b8 ad 17 3f 8e 4e ae c0 20 19 27 3f
       9.032670029947369e-05 0.0001762249451898634
000020 2a 95 81 b2 ba ba 43 3f f2 d5 1c a5 ad cc 0d bf
       0.0006020938499317386 -5.6838082527137834e-05
000030 d2 cd c4 c3 0d ad 22 3f cb 8b 7c 27 8a 32 01 3f
       0.00014248650576008257 3.2801476605357956e-05
000040 b6 28 8f 6c c8 93 a1 bf bd 1e cd b1 cc b9 b2 bf
       -0.034330619098527235 -0.07314757672167622
000050 59 c7 98 91 90 74 74 3f e9 e6 3b b3 61 1c 85 3f
       0.004993977281218275 0.010308039934432372

exp_avg_sq f8 [6, 2]
000000 36 c1 2b b1 47 e0 ea 3e 54 bd 33 e6 3e 8e 0f 3f
       1.2815520255199911e-05 6.018762067038866e-05
000010 57 25 31 3f f5 44 66 3e 51 f9 29 3d f1 02 86 3e
       4.147992873537465e-08 1.639984064833835e-07
000020 54 97 02 47 c1 76 e7 3e 02 cd d0 0e 8b 1b fe 3e
       1.1188453044329708e-05 2.8712835888633672e-05
000030 e5 22 47 9a 3c 86 90 3e f5 25 b4 c5 47 32 a6 3e
       2.46232185110774e-07 6.615044968748836e-07
000040 dc e8 84 5b f8 c6 7c 3f 76 2f e9 43 ce 7b a0 3f
       0.007025690218421778 0.03219456271162262
000050 fe 05 75 07 29 3e 25 3f 8d 0f 1e e5 e9 58 45 3f
       0.0001620698055635888 0.0006514684739475793

exp_avg f8 [6, 2]
000000 0b 25 a6 2c a9 ce 29 3f 1b 43 6d 0d 45 f7 3a bf
       0.0001968938361865197 -0.0004114669404105418
000010 af cb 24 1c 37 f3 e0 3e 59 6c 0b dd 3d ef f7 3e
       8.082418280074903e-06 2.2825753890437113e-05
000020 46 da 38 28 ac 5c 31 bf dc 93 b0 1c aa 28 27 3f
       -0.0002649231248343136 0.000176687970765559
000030 5e c7 66 93 3b fb da be d0 fe 28 dc 73 59 fc 3e
       -6.43286175831974e-06 2.703611768084432e-05
000040 17 f3 71 49 48 49 37 bf 36 fb a5 71 7c e0 76 bf
       -0.00035532011811039 -0.005585180386673374
000050 62 2c 17 10 7b 0b 25 3f 98 6b 27 36 81 31 47 3f
       0.00016055943710422115 0.0007078057208745768

exp_avg_sq f8 [6, 2]
000000 89 02 db bc 2d 3c cd 3e a6 e2 ed 96 a7 99 c3 3e
       3.4850922706333693e-06 2.3365275220700683e-06
000010 6e e8 19 a5 c4 b1 26 3e 5f 07 67 be 28 0c 2e 3e
       2.6419766728597225e-09 3.497988998474701e-09
000020 f6 ff cd ae 5e 9f d0 3e b3 1f 47 ef a6 87 bd 3e
       3.963122009120737e-06 1.7601186615857054e-06
000030 da b1 85 9d 7c 39 71 3e 87 ba d5 94 33 04 63 3e
       6.416647780277286e-08 3.542082769701665e-08
000040 28 7b cc 50 77 98 2b 3f c9 0e ca d8 fe a7 2f 3f
       0.00021053749551299653 0.00024151788638359362
000050 3a 16 83 0f 60 91 d3 3e 88 bf 68 ef e0 b8 d2 3e
       4.665344242654014e-06 4.46371608701913e-06

exp_avg f8 [6]
000000 22 e5 2c 19 fd 35 70 bf 68 aa d3 a4 af 76 33 3f
       -0.003957737603564911 0.00029699123554275406
000010 54 ee b4 69 ba 7e 38 3f 3b 07 38 7e 10 f9 22 3f
       0.00037376452538115845 0.00014475179987987773
000020 53 cd 94 e0 66 ad be bf 09 4a e1 3a af 78 91 3f
       -0.11983340247097844 0.01706193730235309

exp_avg_sq f8 [6]
000000 5c f6 cb e0 39 01 23 3f dc 63 84 bd d1 95 9c 3e
       0.00014499503631519833 4.259531443270503e-07
000010 05 92 45 7c 07 a2 15 3f 6e 88 1e b0 50 80 bf 3e
       8.252306640128139e-05 1.8776196957022835e-06
000020 26 ec 1b a5 1a 84 b4 3f b6 a8 11 34 2b 23 5b 3f
       0.08014074831946569 0.001656334105315111

exp_avg f8 [6]
000000 cf 84 8c 34 a1 9d 70 bf b5 ab d3 a4 af 76 33 3f
       -0.0040565774041009936 0.0002969912355427721
000010 73 75 ed 7a 8f 3a 38 3f 91 2a 73 7e 10 f9 22 3f
       0.00036970141348099185 0.00014475179998492798
000020 04 e5 52 e9 65 81 b0 bf 6c d4 ff 78 2a b0 81 3f
       -0.06447445818311698 0.008636791055304203
