dl_experiments/best_checkpoints/avazu_15min_GRU_cuda:0_checkpoint.pt (torch, 9846 bytes, 18 tensors)

gru.weight_ih_l0 f8 [6, 24]
0.4063106099882984 0.26889205024532525 0.08318268932557933 -0.05021317386973455 0.00012342686591494984 0.16037732196930032 -0.16151246011627934 -0.3404296073801989
-0.2964195774602888 -0.04889763213581822 -0.21269210315159848 -0.10877456433876134 -0.11361960571511638 -0.13314136472182822 -0.12264652235152526 0.010379024673431901
-0.1649126561085702 -0.08510184547878892 -0.0685056419873503 -0.18805924542928118 -0.4156977496773953 -0.16350999486522783 -0.576309364428366 -1.1662149591172217
-0.30327965713584426 -0.2774421621092793 -0.1490606823067747 -0.15681567599736113 -0.11834638030264144 -0.24391528472094404 -0.2831198662641937 -0.2537495858235514
-0.1787122771572188 -0.20394513752535245 -0.2804207350615409 -0.24173723204232148 -0.24297300867230087 -0.23472803808437281 -0.145648308246827 -0.17552589317258888
-0.14044748784781869 -0.13779942216125116 -0.08293245013730564 0.0034785429071451015 0.08022304030448081 0.046913167486724985 0.05430647601389852 0.048100158762553406
-0.012455749241462187 0.06764728604887793 0.2615885117676573 0.15424099848609607 0.07920811309203103 -0.2563399908532203 -0.45333264786526467 -0.08727051136216919
0.12536630636512824 -0.13425617969912698 -0.3936230893216853 -0.06614594503287882 0.027425990957160622 0.11159932703552265 0.22057766620669356 -0.09177161055104087
-0.2780944318434076 -0.35466800711087004 -0.154293791457486 0.11517669677477863 0.19123060640238143 -0.10873965438746835 -0.3392222302070004 -0.7985651323450811
-0.043044897766968064 -0.03478244303208647 0.08374194061143864 0.02330111601752663 0.018820563663240874 -0.09365303934313682 -0.17408230018518067 -0.13058398660763473
-0.06945990605121719 -0.13107946186340946 -0.20683853981093253 -0.16749144539216887 -0.14291375462458333 -0.09340046701327046 -0.01686678142874993 -0.08947523553145753
-0.14291268065718282 -0.17913711833450188 -0.14192858206104603 -0.09347111855049695 -0.0658453641784253 -0.11157908207538059 -0.19235900834683825 -0.291992543588874
-0.09973618088473651 -0.005570657692660873 -0.13165918985436453 0.1683529130357563 0.14755125639964017 -0.0459477456105629 0.12464369069851401 -0.02881199985820104
0.023752187070090868 -0.03175077173339217 -0.008243197861887357 -0.07941860773816237 0.10324581965399333 0.012161169231460756 -0.12128500778234506 0.004515644464484179
0.06762747690156405 -0.015256663917507055 -0.0013118672705748772 0.0916420483128525 0.4183938583275746 0.06572182258659862 -0.3473602038856714 -1.5887757072882902
0.053740582940575515 0.14246177487563394 -0.11784817483329726 -0.24523597358686725 -0.31396540004468937 0.16745176038600554 0.4353946561818034 0.07284188661950085
-0.33944138985224687 0.13637550062765447 0.30910550436067474 0.08895854391392714 -0.07301792420337751 -0.08045050415742605 -0.38783195459267183 0.05959642636681823
0.19165272520915413 0.2100963543351691 0.2907981977043756 -0.12694277984578786 -0.3821741444385396 0.12286772779740501 -0.564208359547695 -0.8223431439898735
00000000: 2eb9 7a37 fe00 da3f de50 7d00 8735 d13f
00000010: 2d27 3ff2 754b b53f 4e9f 3287 8ab5 a9bf
00000020: 71c2 81b4 842d 203f 1869 707c 3e87 c43f
00000030: 3e47 0cb7 70ac c4bf d06f 9243 99c9 d5bf
00000040: 5282 c5d1 89f8 d2bf 5117 c045 1c09 a9bf
00000050: 50a8 93ad 7e39 cbbf 9abc 785c a6d8 bbbf
00000060: 4d18 bbaa 2c16 bdbf c7ce 9cb7 c60a c1bf
00000070: 86ca 7732 c365 bfbf 8c4c 4b1c 9941 853f
00000080: 1c66 57a0 db1b c5bf f51f 290b 3cc9 b5bf
00000090: f759 edf3 9589 b1bf 3b23 6a4a 5312 c8bf
000000a0: 3da7 f8bb ca9a dabf bef4 4140 e5ed c4bf
000000b0: e925 1356 2071 e2bf 2a3b 5804 d1a8 f2bf
000000c0: e031 3c14 ef68 d3bf dc9d 32c5 9cc1 d1bf
000000d0: f342 d0a1 6b14 c3bf 8053 f43b 8912 c4bf
000000e0: 70f4 ffc8 f24b bebf 607c 6fb5 9d38 cfbf
000000f0: 7ef7 9cc9 a21e d2bf af15 1fe7 6e3d d0bf
00000100: 3b58 e43c 0be0 c6bf 0fc0 eccf df1a cabf
00000110: 116a 8dcf 69f2 d1bf 7175 ece0 3ef1 cebf
00000120: f474 0753 bd19 cfbf 6868 837f 910b cebf
00000130: 0aa5 5190 9aa4 c2bf c683 63e9 a177 c6bf
00000140: 744d 8eeb 2efa c1bf 038e cb55 69a3 c1bf
00000150: bfeb 1da1 0f3b b5bf ecf5 c380 087f 6c3f
00000160: c151 7e46 7f89 b43f 0aea 36b0 0005 a83f
00000170: c5a3 e1f4 0ece ab3f 2799 a281 95a0 a83f
00000180: b932 1d5d 6682 89bf 003b 3e21 5551 b13f
00000190: 204a c3bd ddbd d03f 1c9f 1946 2bbe c33f
000001a0: 71e2 4e9f fb46 b43f fdc6 57d9 df67 d0bf
000001b0: d995 32f0 6603 ddbf 9da9 3438 5c57 b6bf
000001c0: b8e4 edcc 000c c03f b5fc 8b76 4e2f c1bf
000001d0: 7693 e5e5 1e31 d9bf e6e1 adce f0ee b0bf
000001e0: cbb5 e218 8f15 9c3f 9f88 df03 c691 bc3f
000001f0: f6f9 4a93 e33b cc3f 9f99 0422 587e b7bf
00000200: 91e5 7d96 4ccc d1bf bba2 de70 e1b2 d6bf
00000210: 5893 2422 e6bf c3bf 1ab3 e851 387c bd3f
00000220: 7809 3f98 3e7a c83f 705d 5fab 5cd6 bbbf
00000230: 0e2d 3428 d1b5 d5bf b4bc e476 d88d e9bf
00000240: cf6b 5618 fb09 a6bf 8478 981e 01cf a1bf
00000250: d4cd 3aa0 1c70 b53f 68b6 056d 3fdc 973f
00000260: 9320 b4a5 b245 933f 9657 2645 a5f9 b7bf
00000270: 94cc 0d2d 5448 c6bf 4d38 eedf f9b6 c0bf
00000280: b68a dfd8 1fc8 b1bf 40b8 f038 36c7 c0bf
00000290: 2a2a 056e af79 cabf 6cd9 2814 5c70 c5bf
000002a0: 806d 2177 ff4a c2bf b2cc 40cf 17e9 b7bf
000002b0: 7244 808a 8645 91bf 78d5 685a d9e7 b6bf
000002c0: fa9a cd74 f64a c2bf f988 5f10 f7ed c6bf
000002d0: aef0 283d b72a c2bf 1880 4b25 b9ed b7bf
000002e0: ed52 bde5 3ddb b0bf 2074 6e5c 7290 bcbf
000002f0: 9767 f850 389f c8bf e1f6 587e 01b0 d2bf
00000300: fcbc 2073 4f88 b9bf 180c b709 42d1 76bf
00000310: 8c38 5255 35da c0bf 4d63 d697 968c c53f
00000320: 602e 5ca6 f5e2 c23f add0 7181 7686 a7bf
00000330: 71ee 331f a6e8 bf3f 3f4a 7e94 e480 9dbf
00000340: e3b3 b24a 7e52 983f d573 6f1c a341 a0bf
00000350: 96a0 d949 cfe1 80bf fae3 ed22 c754 b4bf
00000360: 5dd4 dc6a 516e ba3f 1abe 0a81 f4e7 883f
00000370: 4f97 ebc5 880c bfbf 97a4 b914 ff7e 723f
00000380: 2b6c 9ac9 0850 b13f d5f4 92c4 e23e 8fbf
00000390: 4422 86c1 5e7e 55bf f830 7170 da75 b73f
000003a0: e44e 9708 f7c6 da3f b698 a436 25d3 b03f
000003b0: 05bc e74a 263b d6bf 38b8 7713 a06b f9bf
000003c0: 243f 65bc e283 ab3f e4ae 02fc 2f3c c23f
000003d0: aa63 cd48 4c2b bebf 41dd 2d73 e463 cfbf
000003e0: af1e 5155 0218 d4bf a1fc 412d 0f6f c53f
000003f0: 4cdb 498c 81dd db3f 3f48 cf10 c4a5 b23f
00000400: 79bf 1461 68b9 d5bf 8cf0 959d c074 c13f
00000410: 2088 0f74 62c8 d33f 8362 cfb4 fcc5 b63f
00000420: 21ae 797c 4db1 b2bf 0888 4d7c 6798 b4bf
00000430: 206f 541e 3dd2 d8bf f96c 683c 6c83 ae3f
00000440: 3536 7b95 1388 c83f ba6e 70f5 6fe4 ca3f
00000450: f710 380b 709c d23f 8953 f337 a93f c0bf
00000460: 3461 ef8a 8a75 d8bf cca9 9f68 4274 bf3f
00000470: 9c63 8cb0 fe0d e2bf a9d7 b091 a250 eabf

gru.weight_hh_l0 f8 [6, 2]
0.08771008250091371 0.44520892751816216 0.17447038367695836 0.3215633192752121 0.2102486524933231 0.2983916874371629 0.04146601357885211 0.1332157301116634
-0.6952690009159608 -0.29187068588857723 -0.20790916390099745 -0.4059954612184085
00000000: 67f2 deff 2a74 b63f b5f9 e495 4d7e dc3f
00000010: 89ad 01a8 0b55 c63f e455 f850 7e94 d43f
00000020: 7752 3e87 6de9 ca3f 3137 bc72 d918 d33f
00000030: 49ee 6e88 083b a53f bf38 128a 360d c13f
00000040: a469 9bc6 a43f e6bf 9e5c a362 02ae d2bf
00000050: 9c2a bf79 c49c cabf e57a 1063 d4fb d9bf

gru.bias_ih_l0 f8 [6]
0.5898461301904078 0.0857248317035332 -0.44632610623171826 -0.5992087235521002 0.3944486408043249 -0.5045813902601787
00000000: f3e0 dafd 04e0 e23f ea2c 9f04 10f2 b53f
00000010: ab70 675f 9b90 dcbf 2a4b e4c5 b72c e3bf
00000020: d132 0d83 a53e d93f 47ce 2adf 8725 e0bf

gru.bias_hh_l0 f8 [6]
-0.17619211635752569 0.01612776539491226 -0.6480944802632553 -0.6624604185711 0.6170326946849094 -0.5686867777011354
00000000: dec7 c898 768d c6bf 69ff b603 cc83 903f
00000010: 905c aea2 30bd e4bf fa08 1531 e032 e5bf
00000020: 8680 8759 bbbe e33f a39b fc9c ae32 e2bf

fc.weight f8 [4, 2]
-0.5662247837180469 -0.2614098912865312 -0.49796368751971926 -0.4172803542959908 -0.5015952674705565 -0.37120567140342275 -0.407975537147746 -0.5245400800009592
00000000: 2f1e 0870 831e e2bf df4c 7b8d f0ba d0bf
00000010: 5789 1f16 a3de dfbf 93bb bda8 b8b4 dabf
00000020: 45a9 b384 110d e0bf 761d b16e d5c1 d7bf
00000030: cb86 676d 451c dabf 7473 2147 08c9 e0bf

fc.bias f8 [4]
0.23293113924819642 0.1087288884250512 0.14661152584735795 0.013919118702204728
00000000: 5440 a504 b0d0 cd3f cd80 ea0b a8d5 bb3f
00000010: 6993 5d9e 2ac4 c23f 75bf eb7c a081 8c3f

exp_avg f8 [6, 24]
0.0008342918675045646 0.0009264240661898201 0.0009449112419636619 0.0008973157873997741 0.0010211387810527127 0.0009208441758815132 0.00088662697244094 0.0008758463330702537
0.0007573276712092789 0.0006682545992125596 0.0006275956063855469 0.0006142662513924617 0.0005419082371438601 0.0005514633526895741 0.0005779472746620109 0.0005450516605129954
0.0005993457249684048 0.0006277817896186364 0.0007405109882235799 0.0007214555705678281 0.0005956254659749606 0.0006920804720015073 0.0005934991980752237 0.00048344876197434683
-0.00020726551007063746 -0.0002275150269306388 -0.0002308432383512474 -0.00022122895759884835 -0.00021944962103609097 -0.00019854436625564229 -0.0001920311228837273 -0.0001992486987574499
-0.00019301224361444868 -0.00017417186707745775 -0.00017639356055243008 -0.00016748620124121206 -0.00014419159798899337 -0.00014150023032224177 -0.00013529073877655923 -0.00011666629774095384
-0.0001011102956326644 -0.00010696975230840147 -0.00010853371253618703 -9.625061011721396e-05 -9.431094972802606e-05 -9.005524409648247e-05 -6.846487771936479e-05 -6.229996567572929e-05
-0.0001433776889279025 -0.0002036230575500839 -0.00015378090121929505 -0.00011986952960954895 -0.00013460892304283188 -9.13020566154331e-05 -5.0765367342278855e-05 -5.395458354361493e-05
4.4966032874343865e-06 6.466877688442684e-05 8.146192267016131e-05 9.649888401231029e-05 0.00011627370642338777 9.161415908379926e-05 4.185848568833547e-05 7.006377704734176e-05
-7.31410018998879e-06 -2.298030407853824e-05 -9.079687022141643e-05 -6.812462138145848e-05 -3.283864155570768e-06 -6.606849993349376e-05 -3.0985404352723006e-05 -4.760781700327366e-05
1.2681797336108651e-05 2.3038433185780224e-05 2.2335067293942597e-05 3.9866363169223685e-05 3.782497914846015e-05 5.951779041451604e-05 5.333380388351798e-05 4.209198298500579e-05
6.701182947967433e-05 8.602810030203192e-05 8.652057105939852e-05 9.987119877364828e-05 9.569917929072129e-05 7.581720763367938e-05 5.317818382663531e-05 5.668636192398735e-05
3.6978417188996007e-05 1.2669838375996911e-05 -2.786782441763386e-06 4.916667093490574e-06 1.72072936569107e-05 4.587781802873999e-06 3.8118611916911385e-05 3.061951648816294e-05
0.006958321845428021 0.007662585699747988 0.008021543400029654 0.007842588804976455 0.008482248352846776 0.007611621761560001 0.007789688411811091 0.007588260009515223
0.006856369459300115 0.006219712968498887 0.006113495281137856 0.006024899338425904 0.005560176614126544 0.005535428461892237 0.005454320627360301 0.005157261806025675
0.0051626333612300275 0.005129120784633313 0.005397523439553527 0.005206198824426877 0.004839560596284372 0.005153399137377971 0.004914795016782853 0.004710932195828573
0.004018292503077202 0.004479572187756603 0.004944591335053744 0.004507790155903342 0.0047219034109493 0.003935356323562197 0.003715601878434633 0.0038650751295783766
0.003656548473807631 0.0030611943030559308 0.0029139189331368644 0.002744123724426108 0.002434848679824672 0.00266924525383267 0.003082120569494183 0.002736894441373993
0.002660277504738949 0.002765073111515588 0.0029071828759292587 0.0027352509415686263 0.002475645130529033 0.002575829223228438 0.0019072508926186585 0.0016402024246564223
00000000: 57de a324 8c56 4b3f 457c 8388 685b 4e3f
00000010: ecad e070 7df6 4e3f 493a 04fb 3a67 4d3f
00000020: 3dca d56a f7ba 503f 3232 60cf 992c 4e3f
00000030: 306d d9ec 900d 4d3f 1488 adad 21b3 4c3f
00000040: cbfb 43ca ecd0 483f 6e12 13d3 b9e5 453f
00000050: 7a8a 614d a790 443f e56a faba d620 443f
00000060: bab0 f613 dbc1 413f 018a 4988 0212 423f
00000070: 02bd 5d52 2cf0 423f f87f 3c87 39dc 413f
00000080: 768e d424 ada3 433f cb23 b220 3792 443f
00000090: c71b 063d db43 483f 1dad 610a 02a4 473f
000000a0: afc9 d1f2 7784 433f 1543 297f 97ad 463f
000000b0: 2002 aed2 a172 433f 5686 399f ecae 3f3f
000000c0: 1e1c b82c ad2a 2bbf 6d40 3533 23d2 2dbf
000000d0: a575 8551 d041 2ebf 93b7 8f46 36ff 2cbf
000000e0: 8c97 14e4 81c3 2cbf 80ad a71e 0b06 2abf
000000f0: 26d6 02c9 7e2b 29bf 71c3 344a ad1d 2abf
00000100: 2f7f 508c 6a4c 29bf cb8e 2af2 3cd4 26bf
00000110: 55cf c825 c91e 27bf ec73 8383 e7f3 25bf
00000120: fba5 3b65 44e6 22bf cc02 25b9 f58b 22bf
00000130: 5299 d498 9abb 21bf b936 bebb 5795 1ebf
00000140: a3a5 f1a6 6581 1abf fe01 ef59 9e0a 1cbf
00000150: f1c6 c1fb 9273 1cbf 5584 04e4 443b 19bf
00000160: 2106 69c7 19b9 18bf 5ceb 1a50 819b 17bf
00000170: 7639 96a4 99f2 11bf 2f9a ae42 e154 10bf
00000180: 3a9e 47f8 f4ca 22bf 2a53 ebbe 74b0 2abf
00000190: 527d 0ae2 0728 24bf 0ba9 7cd6 4e6c 1fbf
000001a0: 200e 2dd8 b9a4 21bf 2adb 8d63 2def 17bf
000001b0: b701 73bd 9c9d 0abf 2dfa d25f a949 0cbf
000001c0: cae3 66e6 30dc d23e 78cd 8d20 d9f3 103f
000001d0: 408e c92c d15a 153f 99e0 2734 ee4b 193f
000001e0: c256 de10 ff7a 1e3f 38ea b944 1f04 183f
000001f0: f323 e29d 26f2 053f fca4 3286 e65d 123f
00000200: 68bc 288d 74ad debe 2bf7 b478 ba18 f8be
00000210: 03e5 4b5a 46cd 17bf b912 6315 c4db 11bf
00000220: 25e9 5a69 0b8c cbbe 405a a02f c851 11bf
00000230: 7a6c 0463 ca3e 00bf daee f122 d0f5 08bf
00000240: fb92 3af4 7c98 ea3e 0dae c612 5528 f83e
00000250: 7a4b 2623 866b f73e 2ec4 e4ce c5e6 043f
00000260: a526 2763 c8d4 033f 675d f6b4 5734 0f3f
00000270: 0608 308c 57f6 0b3f 5747 d385 7d11 063f
00000280: e684 d876 1691 113f d9e7 6382 3f8d 163f
00000290: 57bf af17 4cae 163f 0483 5321 3e2e 1a3f
000002a0: b356 9861 4316 193f d7d3 83b5 01e0 133f
000002b0: f0ef b07b 74e1 0b3f e3ed 9290 50b8 0d3f
000002c0: 7c8e 68bd 2863 033f dcf7 b953 1192 ea3e
000002d0: 4a4e 72d9 9160 c7be 8198 e828 3b9f d43e
000002e0: 5751 5537 0c0b f23e 9e85 07dc 173e d33e
000002f0: fb70 4c88 31fc 033f 7d2d 5393 ae0d 003f
00000300: 9eb1 2d4c 5480 7c3f 883f bbaf cd62 7f3f
00000310: e856 8854 996d 803f fe7f 7773 c60f 803f
00000320: 5f1c 2d1a 245f 813f c716 9128 5d2d 7f3f
00000330: b39c 988f 14e8 7f3f 32cb 3009 de14 7f3f
00000340: 7242 8da9 6c15 7c3f 07b3 a47c d779 793f
00000350: bc6f bfe4 760a 793f a677 ec99 90ad 783f
00000360: 7386 7b8b 44c6 763f eb29 6943 51ac 763f
00000370: 106b 760b 4557 763f 525d b3ec c71f 753f
00000380: 0bde 29d7 6925 753f db8c 6fe0 4502 753f
00000390: c8b8 6faa b61b 763f 9989 ff5a 1853 753f
000003a0: 3c0f cfa7 a5d2 733f dee2 210c bb1b 753f
000003b0: a169 d13d 8921 743f 3ca5 6f3b c54b 733f
000003c0: 2504 2f2e 7c75 703f e067 be00 2c59 723f
000003d0: 6ddf 37a1 c740 743f aed6 bfb4 c276 723f
000003e0: be2e 994b 4657 733f d62c 532b 851e 703f
000003f0: a8ce b091 2e70 6e3f 4c60 e668 a6a9 6f3f
00000400: 684c 8f83 56f4 6d3f c0ee 622d ca13 693f
00000410: 082e ac50 eede 673f eaff e134 d87a 663f
00000420: e0f3 6a6e 3ff2 633f 8e32 3f22 d0dd 653f
00000430: e3b9 8be1 ac3f 693f 9828 c903 af6b 663f
00000440: e348 329c 01cb 653f 8f63 b852 c7a6 663f
00000450: cbf9 04ec cdd0 673f 877a e4aa 3c68 663f
00000460: 4670 e8db cd47 643f 415b c3c8 e719 653f
00000470: bf4d 610d 973f 5f3f 643b 74f1 81df 5a3f

exp_avg_sq f8 [6, 24]
0.00010266349822639055 0.00010171347882230684 0.00010148927860739475 9.991874186228174e-05 9.986369821225657e-05 9.803054102512156e-05 9.509881864008046e-05 9.214968314825398e-05
8.942687090036583e-05 8.58658477143938e-05 8.232524037444063e-05 7.825147303143868e-05 7.370558736278542e-05 7.02442279694793e-05 6.670466170377194e-05 6.370954231815556e-05
6.047896066347763e-05 5.7492296550025656e-05 5.445108703707646e-05 5.160302508226975e-05 4.9062207845034246e-05 4.761085831167105e-05 4.5886801850210776e-05 4.4708349170451965e-05
2.3875476566752996e-06 2.3644794508669753e-06 2.405491544451124e-06 2.388959007936053e-06 2.396272637192906e-06 2.312733433093783e-06 2.1742812572639327e-06 2.001371088161933e-06
1.8667833266919386e-06 1.707159824779527e-06 1.5537462661312708e-06 1.4030524280570495e-06 1.2559225452639304e-06 1.1448118270773075e-06 1.0560986788681796e-06 9.813203238948212e-07
9.0878776140846e-07 8.352575172811848e-07 7.721607455990675e-07 7.174751184950684e-07 6.714139913249114e-07 6.455150009605112e-07 6.11535958434445e-07 5.907517025786098e-07
1.3066707930401263e-05 1.301381263242996e-05 1.3470975729054915e-05 1.3308520528236676e-05 1.3356932294126772e-05 1.264467925739655e-05 1.171870151700249e-05 1.0620996222649422e-05
9.745878294930251e-06 8.657883177467295e-06 7.4486364022442655e-06 6.347560954453977e-06 5.285887819999872e-06 4.496097896986312e-06 3.848548797116974e-06 3.3134542633334814e-06
2.811966057845592e-06 2.384215538291846e-06 2.03755857580528e-06 1.7946860238275655e-06 1.5871719888241036e-06 1.4399785308761112e-06 1.332603809822311e-06 1.2336612323578237e-06
8.748157179565811e-07 8.715901054636277e-07 9.038808316731447e-07 9.110589416937058e-07 9.363722305756948e-07 9.160177855554388e-07 8.551231910212685e-07 7.740498476813112e-07
7.00438129677977e-07 6.19084337153765e-07 5.284598156345581e-07 4.4249455543918276e-07 3.576132849210904e-07 2.8702673190183285e-07 2.361340708525731e-07 1.9520647677053964e-07
1.6187961438464245e-07 1.345771352194229e-07 1.1325453300992035e-07 9.979030367615508e-08 8.924983205534567e-08 8.380201165565607e-08 7.992328227779067e-08 7.631890601282497e-08
0.0041006919208510075 0.00408587868483866 0.004096891192386342 0.004057651533362054 0.00406995898292729 0.0040201172472135935 0.003926459912721571 0.003827703841686533
0.003739069515296043 0.0036205646591873706 0.003502111735332766 0.0033612661569887123 0.0032032915428554225 0.003084433956061758 0.002962626011202774 0.002848668915067984
0.0027315791654641585 0.0026159288005212305 0.0024921072344545893 0.0023763694391786003 0.0022705575979681454 0.0022075454102469362 0.0021297361281860986 0.0020717040112773607
0.0014074339840872798 0.0013983645750131404 0.0014237913734774464 0.0014205738157023764 0.0014408798038700885 0.001420120547885222 0.001356963911240886 0.0012916178975160757
0.0012354544045860918 0.0011624095889722788 0.0010836575359093722 0.0009931397525528736 0.0008930743571232247 0.0008134110880819884 0.000745042552149572 0.0006820889296627108
0.0006160180842313502 0.0005549590612480665 0.0004980070230779824 0.00045023005238446783 0.0004119118181636275 0.0003874196164189837 0.0003601385800450937 0.0003411271960277884
00000000: 243b 3178 a1e9 1a3f abac aa42 e0a9 1a3f
00000010: 4397 b187 d49a 1a3f 4193 0aea 6e31 1a3f
00000020: bc23 8245 bd2d 1a3f 99ea efde b7b2 193f
00000030: cfb5 8743 f9ed 183f 4c32 7880 0f28 183f
00000040: 02f3 8ff1 5571 173f 5399 f607 5c82 163f
00000050: 1c61 34dc c094 153f 1965 f411 5e83 143f
00000060: 7e8a 5959 4c52 133f 9c11 bfa5 026a 123f
00000070: de3e ae5c 797c 113f 60ff 509a 79b3 103f
00000080: 79e5 e143 59b5 0f3f 4faf 8344 7c24 0e3f
00000090: 490c bd1a 4d8c 0c3f a7d9 d970 0a0e 0b3f
000000a0: 5e6f 14a0 04b9 093f 999d 93a2 38f6 083f
000000b0: a1ea 9081 d20e 083f e132 2c2e a770 073f
000000c0: 1b75 8734 3807 c43e 32cc 2e53 aed5 c33e
000000d0: 1bdd 39f6 c02d c43e b88d 8f1a 400a c43e
000000e0: 4c85 5fd0 f419 c43e 58e8 9ba6 8e66 c33e
000000f0: 9a19 20c3 3b3d c23e 6302 3764 e9c9 c03e
00000100: 528a 67f9 c551 bf3e c7d2 eb13 32a4 bc3e
00000110: 5dd5 1216 4a11 ba3e 2ddd 8275 108a b73e
00000120: a0b5 2d71 2512 b53e ed5a 5dea ed34 b33e
00000130: 14e0 09c7 e8b7 b13e 8861 501b bd76 b03e
00000140: 8f6a f46b 6d7e ae3e 19c0 72b4 ce06 ac3e
00000150: 7fcd c46f cfe8 a93e eca9 8978 1013 a83e
00000160: f98c 24fb 6687 a63e da35 b97f eea8 a53e
00000170: c7ed 50cb 0d85 a43e 993f 73bb 84d2 a33e
00000180: e3a0 cca9 2267 eb3e 7c29 f4c9 bc4a eb3e
00000190: 9f60 73ce 2c40 ec3e 7aa3 3722 f5e8 eb3e
000001a0: d848 cdcb f202 ec3e 3da9 ef7b 8f84 ea3e
000001b0: 1a7a 9212 6e93 e83e 3841 0d9b 1a46 e63e
000001c0: 65e4 4250 4770 e43e ceb7 3767 2a28 e23e
000001d0: 2943 7695 e93d df3e 03c3 f444 a49f da3e
000001e0: 09e5 c1c7 ad2b d63e 8ff4 b5fa a5db d23e
000001f0: e473 c209 5924 d03e 4643 cdbe 96cb cb3e
00000200: cb55 52b0 a696 c73e ab93 8e5a 1000 c43e
00000210: 10f0 55ac 9f17 c13e 8182 c226 1e1c be3e
00000220: d60e 970e daa0 ba3e e433 7123 a928 b83e
00000230: 7c92 5562 7d5b b63e e891 a5de 88b2 b43e
00000240: 0f07 ad1b 9c5a ad3e 1df2 45e9 e63e ad3e
00000250: 7cbc 16f8 4654 ae3e ed60 cacc ef91 ae3e
00000260: c96c 964f 606b af3e ad26 b669 88bc ae3e
00000270: 5f0e 8ec8 73b1 ac3e 04ae b29d 09f9 a93e
00000280: d90a 7abc b780 a73e 3ebb c3da e4c5 a43e
00000290: dbb4 986c 6fbb a13e f351 bfa2 ffb1 9d3e
000002a0: b8a7 2ddc bfff 973e 6ca9 b5ea 1443 933e
000002b0: ea24 c040 81b1 8f3e 63a5 0554 3e33 8a3e
000002c0: 53c2 8225 24ba 853e 966d 0300 0910 823e
000002d0: db57 a9d0 ca66 7e3e a57c 7396 89c9 7a3e
000002e0: 5428 63a6 33f5 773e 991e 7794 d47e 763e
000002f0: 03d4 4840 4974 753e 3441 ae64 987c 743e
00000300: cd71 0e1b e3cb 703f 7198 3ab5 5abc 703f
00000310: 9930 fcda e6c7 703f ab50 268a c19e 703f
00000320: 8ccc a44b a9ab 703f d858 a501 6677 703f
00000330: 0f8a a00e 3115 703f 2cc0 33da 465b 6f3f
00000340: 482f 24a9 65a1 6e3f 0f86 bcd9 dfa8 6d3f
00000350: f99c d8eb 75b0 6c3f d916 f506 1689 6b3f
00000360: 7cd5 500d ca3d 6a3f 4781 f9de 8644 693f
00000370: e735 82ba 1345 683f 2da4 797a 1756 673f
00000380: caca d365 8960 663f 536e b314 006e 653f
00000390: 0352 3ee2 536a 643f c296 c8a0 9b77 633f
000003a0: 2d09 1054 b499 623f 1a1f edea 8e15 623f
000003b0: cb20 a160 6172 613f 5eb5 369f adf8 603f
000003c0: 2f30 b5bb 340f 573f 2035 8687 2ae9 563f
000003d0: 6b99 aa58 d053 573f 06a6 1e85 5146 573f
000003e0: 044c a5e8 7c9b 573f 4894 cfd3 6a44 573f
000003f0: a96e b8e7 843b 563f d999 3d28 7029 553f
00000400: a57c db10 df3d 543f c90d d4ca 7f0b 533f
00000410: b79a 506b 30c1 513f cb0f 7cb0 8745 503f
00000420: 6612 1094 a643 4d3f 9508 c102 63a7 4a3f
00000430: ce5f a3b2 de69 483f 33b4 abd2 c659 463f
00000440: 5d2e 44c3 882f 443f 6115 6482 552f 423f
00000450: 224f 4bf0 9551 403f 035b c559 9b81 3d3f
00000460: 7673 b0c9 bbfe 3a3f e3c8 1495 d263 393f
00000470: 2dcd 5e6c 1f9a 373f 0a4b 9526 2a5b 363f

exp_avg f8 [6, 2]
-0.0002054055373007487 -0.0014386776213073703 -0.0002074964784926251 0.0003901182777497462 0.00023112218648536388 0.0005219934804020208 -3.900896339796861e-05 6.822755969620341e-05
0.0006837242700283252 -0.0029026163449354016 0.000609888634832463 -0.0015229654836182824
00000000: a1ef 5721 44ec 2abf 94e8 4f55 4092 57bf
00000010: 7382 a62d 6d32 2bbf d402 983e 1991 393f
00000020: 4091 f476 2c4b 2e3f f4a2 a976 cc1a 413f
00000030: b299 bfc6 b173 04bf 140e e28c ace2 113f
00000040: d75d 8bb0 7e67 463f 2c55 c748 3ac7 67bf
00000050: d9c7 d2de 1dfc 433f b225 7cbc c7f3 58bf

exp_avg_sq f8 [6, 2]
1.6298493851225222e-05 0.0003874480426050913 8.323366909976466e-07 7.376554881298235e-06 4.31844592500099e-06 4.430144021542918e-05 2.2391958724406573e-07 2.4685031106153417e-06
0.00010861649391148864 0.0015841631425802017 1.31540953717626e-05 0.00018071485720014545
00000000: 0714 13f8 1717 f13e 7adb 00ac 4c64 393f
00000010: b68f 6dbd b7ed ab3e 5fc5 5af7 83f0 de3e
00000020: cb9d 8a60 e51c d23e 7217 27e5 093a 073f
00000030: ab2f d684 d10d 8e3e 930a c9ef 11b5 c43e
00000040: 7b84 1828 2179 1c3f 15e9 e338 76f4 593f
00000050: ff54 0d1a 0d96 eb3e 665c 9bcd c8af 273f

exp_avg f8 [6]
0.0020243488593773844 -0.0004851728426429965 -0.0003583054181838644 -0.00016534387347296492 0.013500340039315885 0.009488879423828245
00000000: c1ef b104 5e95 603f 8994 f77d d9cb 3fbf
00000010: e79a 960d 5e7b 37bf db1a ee0e 05ac 25bf
00000020: 0143 a1f7 10a6 8b3f 3a82 68d6 e76e 833f

exp_avg_sq f8 [6]
0.000703224994745345 1.5829976599752463e-05 7.114462075982836e-05 4.521198673890227e-06 0.027524038744683316 0.008385020947073602
00000000: 0a26 552d 140b 473f caed 6bb5 5399 f03e
00000010: 35d8 1d47 6fa6 123f 0200 dca0 99f6 d23e
00000020: b88b 0cf9 422f 9c3f 3d9f f375 2a2c 813f

exp_avg f8 [6]
0.0019477161579987468 -0.00049215013625349 -0.00037850620573145463 -0.00017169905955363227 0.0039725257469026085 0.001930661003402872
00000000: 9aea d44c 50e9 5f3f 740c b65e 7420 40bf
00000010: 9719 63c6 47ce 38bf 4b33 eab0 4381 26bf
00000020: 4abe a5c2 7e45 703f b03f a277 c7a1 5f3f

exp_avg_sq f8 [6]
0.0007032088590328595 1.58300761980876e-05 7.114293033689581e-05 4.521243693289903e-06 0.003082702115596411 0.00034879080961876566
00000000: 2480 a186 f10a 473f 31f4 928d 5a99 f03e
00000010: 81d2 8e3c 52a6 123f 0d68 d100 a6f6 d23e
00000020: 792c a218 e540 693f 3a55 d61e bddb 363f

exp_avg f8 [4, 2]
0.007388406088625824 -0.011519359358508313 0.0008109091954006808 0.008202548405155517 -0.01479037575014304 0.032367222875960444 -0.005364660070778935 0.0006494352581244276
00000000: 2acd 5228 4e43 7e3f 70ae b93d 7697 87bf
00000010: 85ee b43c 6692 4a3f 6ce9 2669 7fcc 803f
00000020: e8aa 23a1 6a4a 8ebf 28df 6dc7 6f92 a03f
00000030: 6431 eef8 40f9 75bf 79d3 e598 db47 453f

exp_avg_sq f8 [4, 2]
0.0031253675049546688 0.012009739521279665 0.0030049204487209756 0.009539720153370677 0.0014739420250360624 0.00653015975437102 0.0019750010994466485 0.006447463894072414
00000000: 68ab 18e7 5e9a 693f e9a9 d1f3 8f98 883f
00000010: 8a23 bd61 c69d 683f 7fe1 9290 8f89 833f
00000020: 8078 cc32 2926 583f 23a7 5269 5ebf 7a3f
00000030: 7ec8 36a4 e02d 603f 402d 13e9 a768 7a3f

exp_avg f8 [4]
0.01647675797794234 -0.010322690808302924 -0.04648792366553922 -0.004707435198023831
00000000: be31 a382 48df 903f f252 6d1b 1024 85bf
00000010: d0d8 9adf 43cd a7bf e2aa 9383 1a48 73bf

exp_avg_sq f8 [4]
0.027813426276636785 0.023127187816629667 0.014496598166464099 0.015784054583553815
00000000: 8ccf fd70 1f7b 9c3f 3693 484d a7ae 973f
00000010: c4c9 3978 64b0 8d3f 2246 f0f8 b129 903f
