dl_experiments/best_checkpoints/avazu_15min_CNN_cuda:0_checkpoint.pt (torch, 78939 bytes, 12 tensors)

block_1.0.weight f8 [16, 1, 3]
-0.3114077504393882 -0.379000745038491 -0.09896128578741818 -0.2032724035341277 -0.03295932759459384 0.6396492176229275 -0.09291111628112211 0.29746049188081103
0.3305824328424941 -2.8217252694967286e-11 -2.7705381464107777e-11 -1.7875002540128013e-11 -2.3119848759293234e-06 -2.3892515178756e-06 -2.060908508532325e-06 -8.77631969194252e-09
-1.6620661521485186e-08 -7.635322454182796e-09 0.23098044512217422 0.06276516289612875 -0.27066130183814513 -0.0017013561844780392 -0.0016595901010475393 -0.0017113187806474897
-0.005375281955783124 0.0760078073460984 -0.27688299533319916 0.15995383676032493 -0.0009153697767741256 -0.26044306484359636 -0.0034520539039200005 -0.1268310164916922
-0.20695814155400163 0.15045444969412267 0.28900528996883834 -0.3560027788284134 -3.867013334411993e-12 -5.0057266265733565e-12 -3.718851266290689e-12 -0.06003722689976732
0.04485436245511314 -0.018924734192737137 -1.571364343861409e-05 -1.4656111657294808e-05 -1.2092155411814106e-05 0.06895314107802665 -0.30656520615592137 -0.3069154746640317
00000000: 24eb f6c5 1aee d3bf a265 4657 8c41 d8bf
00000010: 1bee 06de 8655 b9bf d5df ad82 d404 cabf
00000020: 5ede 3b84 0be0 a0bf 5b47 d3a2 0178 e43f
00000030: e6bd dcdd 05c9 b7bf e4ba 1ebb 9709 d33f
00000040: 4233 6c38 4328 d53f 6e60 ed56 7306 bfbd
00000050: 7338 5521 5f76 bebd d6b5 2cad 5da7 b3bd
00000060: aec5 8d20 f364 c3be a3ca ace9 e00a c4be
00000070: 2191 386f c449 c1be 1a29 c130 d5d8 42be
00000080: b6a5 2314 a7d8 51be 6b47 e01a 9065 40be
00000090: 795a e868 c490 cd3f 5f8c f7b1 6011 b03f
000000a0: ef01 ecc7 8352 d1bf 259f f44a 01e0 5bbf
000000b0: d965 5c4d d330 5bbf aad0 898c ca09 5cbf
000000c0: 3a54 4f43 6404 76bf 13cb ca66 3f75 b33f
000000d0: 3a93 7174 73b8 d1bf 44ae e008 5e79 c43f
000000e0: 5491 a3a0 adfe 4dbf ca49 7e63 19ab d0bf
000000f0: f639 e253 7b47 6cbf f2a1 f9ad ff3b c0bf
00000100: a1c4 ceb8 9a7d cabf dfa9 7c66 1742 c33f
00000110: ca60 320b 107f d23f 1f9a 16e1 bfc8 d6bf
00000120: e0f2 3cb5 de01 91bd dff3 ee77 f203 96bd
00000130: 7ed5 3ae6 0d5b 90bd c170 270c 33bd aebf
00000140: 97c0 a7a7 26f7 a63f 2af0 c569 0161 93bf
00000150: 77c6 ce5a 197a f0be 8ffc eca5 70bc eebe
00000160: 1881 5d2f ed5b e9be 21f8 e2bd e9a6 b13f
00000170: dbfe a1ab c39e d3bf 905f 94cd 80a4 d3bf

block_1.0.bias f8 [16]
0.15332343837697346 -0.014790401785001602 -0.05215706461422342 -2.006705453934247e-05 -0.0007548625292469555 -0.00013168729684483188 -0.003111812892244575 -0.008550232461242929
0.16166041331492748 0.06560963452891724 0.08690201520833514 -0.027687214018844965 -4.531084616264211e-06 -0.010574620174462404 -0.001979174579042996 0.24355372799490893
00000000: 270a c538 1aa0 c33f 91b4 b01f 6e4a 8ebf
00000010: 6f01 8cad 54b4 aabf 61ce d17c b50a f5be
00000020: 50c4 23f0 3ebc 48bf 02fa 3844 b142 21bf
00000030: bf8e 4fd3 f17d 69bf 6398 5ac6 c882 81bf
00000040: 1e6b 1fd6 49b1 c43f a2ad 9a02 cbcb b03f
00000050: 35bb 46e1 353f b63f 57c5 e97a 095a 9cbf
00000060: 1791 350e 3701 d3be b516 897e 25a8 85bf
00000070: 64ce e142 a136 60bf 384c 47c0 c42c cf3f

fc.weight f8 [4, 752]
0.03660116114136171 -0.029162083400173525 0.02236832692346128 0.026071918291424516 0.012458741195112377 -4.218595800076464e-05 -0.03062654604265538 -0.053134708027477245
-0.08792372196254107 -0.03146027313059187 0.03277783452295781 0.03230374934522602 0.031002631394154236 -0.013710826477888075 -0.05503177635866685 -0.04216174769018045
-0.04243498344259443 0.015693787294750076 0.0038732361819511537 0.023853942796451283 0.029598770300807712 0.0035284861184625154 -0.02554422403429101 -0.022457693064697765
-0.052672825169927516 -0.06667495457558485 -0.038018199763021406 -0.008499579941500204 0.1013567729257283 0.07594477651808354 -0.00903691104445873 -0.0911482854794985
-0.054701607808531845 0.07618289149699761 -0.03665836961461613 -0.023214285745168376 -0.052762916564994856 0.002158537575400739 -0.002937350104230653 -0.04895655798685944
-0.005690105587212691 -0.009743426636208368 -0.08416912442466463 -0.03592288839205337 0.00886786351182214 0.00818850433589673 -2.1088463285101565e-05 0.02652025212111855
-0.010664742705126141 -0.03393784843759634 0.010930550964487579 0.005634121393173999 -0.02846118660926119 -0.037676765469280796 -0.044652505489028306 0.007488123121159629
-0.0005206794898519575 -0.0013316697287722177 -0.04414142641094693 -0.019860240277966564 0.04277612598122874 0.05570243919242965 -0.07378009987919085 0.02055874503628461
0.08518288268427089 -0.028911741341473625 -0.009745285166169194 0.02653142844111329 0.03621943426847322 0.05842934011442608 0.020271667544786567 -0.03392770981284817
-0.01323921638321162 0.009058108958778555 0.01334774668203169 -0.043073740593032026 0.005375388404064791 0.08247588508242813 0.012090639641350685 -0.004852186151316357
0.12121508904116737 0.03985987791167416 -0.027416591577998906 0.06030767615794036 0.031833954720239754 -0.04506017436573497 -0.0015105067677631727 -0.026895512651102984
-0.006853994875702595 0.07350770256807995 0.10985842307425119 0.18945863980175834 0.490954982568532 0.5240432727581825 -0.015769342502249487 0.004966554423365051
0.02155119807560699 -0.0028291784682612665 0.019981242978733715 0.04730348501922761 -0.06257662892899522 -0.04682781770322478 0.005438970766360326 0.03633228377252685
0.049810644603365144 -0.02954854142038225 0.06334357257273941 0.04097991295045196 -0.012403460311044303 -0.02423300979799214 -0.011049390027616452 -0.005776293498655045
-0.03029921327165913 0.0574835525569056 0.03947650580765929 0.03453306891480645 0.0003042279278167123 -0.028473442080925004 0.06842237802382038 -0.028551303699897
-0.05478727913311686 0.045147304621174056 -0.034975098918971374 -0.02462781190416927 -0.006409847490359286 0.03179890721494615 -0.05850134306127409 -0.03539310817937355
0.04412016662378151 0.026580915594130942 -0.03851024418600591 0.05357335990744912 -0.008417103745571603 -0.015955867369882547 -0.022534660316406205 0.0009234757461072154
0.02944248426586861 0.028550759751794153 0.11751533756848832 0.30466642448197573 0.507279972274436 1.3804666909601673e-138 5.939122137937966e-135 -3.199721970196996e-135
-6.863217499329315e-136 1.3642089197896048e-137 1.2974526801588845e-138 -1.7121918641642087e-138 1.0400417464785568e-139 -1.688953682071484e-138 -1.775331158931544e-138 -7.234873871766839e-139
-5.3304426896044895e-139 -4.835722471591339e-140 -3.0484652644153585e-140 -6.221564647247035e-140 2.3851108995886397e-139 2.847064694109257e-139 3.542709966090923e-138 -1.160240362738911e-137
-6.451766962287627e-137 2.2525421854453842e-135 1.0114904538383728e-134 -1.6614491067489434e-134 -1.828854914115108e-134 -9.041452886813526e-135 8.051186527411491e-135 -2.7224018436664185e-135
-7.275917924949522e-136 -1.742317090874439e-136 1.6989278141615773e-137 -1.441342906021666e-138 -1.9807261033030963e-139 8.468967015112846e-140 2.3328142944410697e-140 1.3816600975134265e-141
-5.679564011569464e-143 8.274079114460179e-144 -1.3727234705748075e-144 -6.4057371709910754e-145 9.629564307284778e-146 -3.3093677355660354e-147 -1.2096195549615834e-148 -2.0185610989005798e-151
-7.629636999946548e-151 5.3220227438653134e-152 -2.6529573179362766e-152 1.852003031330801e-154 5.764425671614195e-87 -8.171563561853719e-84 4.6868451194964215e-84 9.079066458144469e-85
-2.615425368487833e-85 -5.2949780664410506e-86 3.7658812342594507e-84 -1.4218086669516213e-83 1.2360021461777016e-82 -6.10748216279981e-82 -7.756939036077273e-82 -1.7316816553873787e-82
-5.42831474264607e-82 -7.883534544460023e-82 -8.15140422356489e-82 -2.096706483459413e-82 -1.0509590992959527e-81 -1.1650915917110821e-81 -1.252551210909631e-81 -9.756210256938605e-82
-1.0523699093273062e-81 -1.2325604695437209e-81 4.300289447497439e-82 7.836988696009839e-81 -5.125543631831605e-80 -1.5663646727060223e-81 9.938847433201966e-81 -3.503241606546223e-80
-5.5426069837932134e-80 -3.804825293568824e-80 7.939604404049723e-81 -1.2245462387098855e-81 -2.1454910401982114e-83 1.63753842519348e-85 1.4000798877324945e-88 -1.4605157139544412e-90
-7.25002358922993e-93 5.930879035010088e-95 -1.3940677331998719e-96 -1.4402670958097723e-98 -7.572440916392456e-99 -1.1031771687689302e-99 2.0670353145285737e-99 8.704356961442288e-101
-6.019023634057798e-100 1.0193532369524854e-101 -2.2801903070573678e-101 2.360006489073066e-97 -1.1017051606968736e-93 2.4094963951372505e-93 3.84844827423892e-93 9.279789810673484e-94
-6.520429297695231e-94 -1.6156132573888764e-94 2.1222402506141932e-98 5.495820421670138e-95 7.648188131935712e-95 1.676935768263475e-95 -8.663577426896882e-96 1.2620831731713693e-96
1.283733772694227e-96 1.4166991423505155e-96 1.8592366277802036e-96 1.5453012071477148e-96 1.372084117497154e-96 1.4736103183715427e-96 1.1188273017196102e-96 9.337853132137844e-97
00000000: 820f 322c 63bd a23f 34a8 f249 aadc 9dbf
00000010: 6af6 6802 b9e7 963f 5e63 9fd1 98b2 9a3f
00000020: c6d2 dbef f783 893f 6941 ce7a 1a1e 06bf
00000030: 0711 92b6 905c 9fbf 5463 85f2 7834 abbf
00000040: 7128 5f46 2b82 b6bf 7230 7098 8f1b a0bf
00000050: 929e 9e9e 41c8 a03f baac f3f5 1d8a a03f
00000060: 771a b65f 27bf 9f3f 22db 96fa 6b14 8cbf
00000070: 900b 67ff 1f2d acbf 316c f17e 3996 a5bf
00000080: ae3a 2fc4 09ba a5bf 11af b93c 0812 903f
00000090: 47b2 65d7 c3ba 6f3f c801 c400 2b6d 983f
000000a0: a16f c6d9 234f 9e3f 8143 768f c5e7 6c3f
000000b0: 5ddf 50db 4328 9abf 75a3 0645 26ff 96bf
000000c0: 9b4b fcba eef7 aabf cb4a 5d1d 9c11 b1bf
000000d0: 091b 4519 1f77 a3bf 0821 074f 3a68 81bf
000000e0: 9fb0 f178 84f2 b93f 8a7b 72eb 1d71 b33f
000000f0: 547a 24ab f181 82bf 118e 3879 7e55 b7bf
00000100: e10b 2761 d901 acbf d68b 7ed3 b880 b33f
00000110: 6429 3dc5 e2c4 a2bf 214f 4d58 7cc5 97bf
00000120: 6d2c 2db2 bd03 abbf f79f 6409 c8ae 613f
00000130: b66b 4ed4 1110 68bf 48e2 f47e d510 a9bf
00000140: da9d 8616 824e 77bf e325 0796 5cf4 83bf
00000150: c9a4 bc94 1b8c b5bf 6fb9 a41d 7c64 a2bf
00000160: 4e3b 267e 5029 823f 1a4d 9b72 22c5 803f
00000170: 8c99 8029 e41c f6be 47e2 2afe 1f28 9b3f
00000180: 2734 1c89 65d7 85bf 68ac 453a 4d60 a1bf
00000190: 3d9e 5bb7 c162 863f 908a 01f2 cd13 773f
000001a0: b6bd c4e6 ed24 9dbf 52ed 0477 5e4a a3bf
000001b0: 5d09 8575 b1dc a6bf e7ee 9ebe ddab 7e3f
000001c0: e3e5 b7b0 c60f 41bf 841c c97b 6dd1 55bf
000001d0: d8e8 aa7d b499 a6bf af32 f029 3e56 94bf
000001e0: e524 479c c0e6 a53f bc1f 47b5 0785 ac3f
000001f0: 1ea5 13ac 40e3 b2bf 1a82 4f06 5a0d 953f
00000200: b1d5 4e9f 8bce b53f 32cf 201e 0a9b 9dbf
00000210: 6791 a108 56f5 83bf 330b e205 0e2b 9b3f
00000220: 454f 538b 5a8b a23f 292e d651 73ea ad3f
00000230: d79b 8f94 18c2 943f ab12 2608 f95e a1bf
00000240: 9cde 1f8b 291d 8bbf 3ab6 eecd 0e8d 823f
00000250: d904 cc3b 1056 8b3f 0eb1 53e6 c20d a6bf
00000260: e14d 61d6 8004 763f 333f 23bd 231d b53f
00000270: f250 c72e fac2 883f a018 58cd e2df 73bf
00000280: aeaa 36bb f307 bf3f 273c 1b90 8368 a43f
00000290: 3dfb c750 1813 9cbf 189c 97d1 a5e0 ae3f
000002a0: 20ff d944 8a4c a03f b37a 818e 2012 a7bf
000002b0: 595b bf4a 86bf 58bf 7789 fb4c 7f8a 9bbf
000002c0: 7fd5 683d ef12 7cbf 22b4 889a 66d1 b23f
000002d0: 3f46 4b7e ae1f bc3f 3f54 f242 2e40 c83f
000002e0: 842a 7c72 ce6b df3f 2ced c565 f6c4 e03f
000002f0: 216c 4ea9 d625 90bf 228e 274d cf57 743f
00000300: d988 b26b 8411 963f 2404 dd9f 372d 67bf
00000310: 2024 8284 f675 943f eaef 4992 2938 a83f
00000320: 4b74 be9e 0505 b0bf 1424 28d3 d0f9 a7bf
00000330: 63f3 0b99 2c47 763f e119 2f25 259a a23f
00000340: efd5 20e3 c780 a93f cb1f 2e0c f941 9ebf
00000350: 9399 9ccc 4837 b03f 5a8a d4b3 51fb a43f
00000360: ee35 2543 fc66 89bf bf9b 43c2 89d0 98bf
00000370: 5d92 7906 10a1 86bf 7b7d b3fa e1a8 77bf
00000380: d09d 62c8 c106 9fbf 8c61 94f4 7b6e ad3f
00000390: f3f9 ceba 4336 a43f 403d 3d83 51ae a13f
000003a0: b3f0 2000 19f0 333f 5022 2b5a 2428 9dbf
000003b0: 8b46 ed03 2184 b13f 80cd 988e 8d3c 9dbf
000003c0: 8e24 3a08 140d acbf b873 b329 8c1d a73f
000003d0: b70c 1094 41e8 a1bf d941 cd7a 0838 99bf
000003e0: cabb 7e55 3641 7abf 8fce 1245 f247 a03f
000003f0: 71c4 7056 e3f3 adbf ccb5 44a4 0b1f a2bf
00000400: 5386 7c21 eb96 a63f aeb7 b20c 0738 9b3f
00000410: 6103 ae5e 9db7 a3bf aa89 7aa9 f76d ab3f
00000420: 8a9f 838a fc3c 81bf 06c0 2122 bc56 90bf
00000430: ec7b 5774 5313 97bf 2b31 6810 ad42 4e3f
00000440: e4bc 23ac 2b26 9e3f 2dbf a30d 693c 9d3f
00000450: 2193 a233 7c15 be3f bdb7 559a a77f d33f
00000460: 23b4 5a35 a33b e03f e979 0a79 7770 5023
00000470: a407 9103 6344 1124 7d03 ef13 ff9a 02a4
00000480: 5ad2 f985 14ed dfa3 2b1d 6a21 a14e 8423
00000490: 286e fe82 c8e6 4e23 3b7d 111e c263 54a3
000004a0: f991 9686 0bd1 1323 9c01 592d ea1c 54a3
000004b0: 8ebf 305e 3e24 55a3 d01b ded9 383b 41a3
000004c0: fa7f 832c 1e64 39a3 3e7f ecc4 786d 02a3
000004d0: 4059 22b9 d63b f7a2 e995 5dd5 6cb5 07a3
000004e0: 59cd 724c f7b8 2623 d21f 2c04 9c1f 2b23
000004f0: 2c3c 6d36 1f18 6523 d2c1 a155 5c45 81a3
00000500: adde 3a8b 7b02 a8a3 3209 df35 1d32 fa23
00000510: df22 8d9a 5968 1d24 a658 d8be f026 28a4
00000520: d78a f140 ed95 2aa4 52a4 a8fa 6549 1aa4
00000530: f614 792e 5c68 1724 db7d 8db3 f2a8 ffa3
00000540: 7e2c eed3 45ec e0a3 9ea3 a180 af35 c0a3
00000550: 25aa 46f3 264a 8923 3604 2788 0d2a 51a3
00000560: a716 b0c4 b9de 22a3 aca1 8a6b ef22 1023
00000570: 83e4 ed8a 89c7 f122 c815 2806 32d9 b022
00000580: 0c2c d995 a729 66a2 e4d4 cb4d 60d4 3922
00000590: 9e90 6907 2524 11a2 f758 3dfd cffe ffa1
000005a0: 40e8 b303 353d d321 7780 be37 6d28 85a1
000005b0: 5905 87aa 4abf 38a1 8eb8 d159 e524 a5a0
000005c0: af0a 0adb d5fa c3a0 40fe 045f 884c 8620
000005d0: 91fb 0f37 413b 76a0 5c58 684f 73dd 0320
000005e0: e6c7 40d6 2bef 062e 7b36 ab1e d1bf afae
000005f0: 172b f703 c135 a22e 8961 2c80 5e38 7c2e
00000600: c75b 221d 4742 60ae 5909 feba 4955 3aae
00000610: 1770 a2e3 7043 9d2e 8a96 f720 fc9e bbae
00000620: e7d6 b747 a803 ee2e 0ed8 421e ed89 12af
00000630: f66c 1169 aa8b 17af 6383 28d7 8806 f5ae
00000640: ef79 8ad2 2a7a 10af 7b8a 31f7 09ee 17af
00000650: afb2 8617 31be 18af eaaf dc5d 2175 f9ae
00000660: 1e01 bb85 a9e6 1faf 034a 013e c6ae 21af
00000670: 3360 daa4 9502 23af edd4 2606 3c9d 1daf
00000680: 978a 6d09 a0f1 1faf 33fc 6eec e9b4 22af
00000690: 5202 a917 3b1b 0a2f 9b30 7f4a 56bc 4d2f
000006a0: 8a21 9377 454f 78af e691 cb18 dbc5 27af
000006b0: a3ed 62f1 f8da 522f c943 9728 869d 70af
000006c0: 0cb2 ee06 a849 7aaf d2ab a284 b20b 72af
000006d0: da4d 07e1 0220 4e2f d7fc dd98 c695 22af
000006e0: 3deb dc42 03d7 c4ae f2e3 b7df 115c 542e
000006f0: e8ec f190 38d3 b12d 2cec bc50 0dcd 47ad
00000700: 6e24 356b fa3e ceac 6e00 681d b3ab 5f2c
00000710: 1f17 16f0 59d2 07ac 0c17 8b9e 9380 9fab
00000720: 12bf 2e6c 1590 90ab a053 a6a7 ab4d 63ab
00000730: 5548 84a8 a115 722b d19b 9773 925e 282b
00000740: 225d c83c 6e10 55ab e05d 6b8d b6d4 f62a
00000750: 53dd a242 0489 09ab 2022 d26c 8a21 e02b
00000760: 313b a3b4 7462 a2ac 67e1 242f a71a b42c
00000770: af28 de28 1e0e c02c 729d ecb2 9af8 9e2c
00000780: 3408 e85e 05c3 95ac 3cea dc81 7c91 75ac
00000790: 82e1 3476 9835 a72b e84d bcf3 f558 5d2c
000007a0: 9821 1d67 a86b 642c 9f54 9845 d9e8 412c
000007b0: 7c71 d89f 5a81 32ac 43da 5d13 fc90 052c
000007c0: 602a dffb b1ef 052c d52a 483a 5a35 082c
000007d0: 0d95 13bb 3bc5 0f2c bb31 7c20 ec67 0a2c
000007e0: c60d 1018 2f72 072c ca33 367b 4f2e 092c
000007f0: 9ed3 80c8 4f1e 032c fc35 dfbe b0e9 ff2b

fc.bias f8 [4]
0.014438401926465233 0.040600558528783984 0.025306446492528906 0.007880808995748551
00000000: 2337 a580 e191 8d3f 3232 29ae 98c9 a43f
00000010: 25e8 40e0 eee9 993f 9ddb 3847 d023 803f

exp_avg f8 [16, 1, 3]
0.0033320167028126906 0.0026250679128456194 0.0024635936901752716 -0.014174023302992632 -0.013420345117998177 -0.015509369638104571 -0.013174554970494504 -0.01317241963544178
-0.009097756286036353 -3.18250006563005e-14 -3.1250801824657205e-14 -2.021970094483899e-14 -2.4421181692418114e-09 -2.523269543917828e-09 -2.178395250784255e-09 -9.400102341467222e-12
-1.7806801417380208e-11 -8.190887822894295e-12 0.0010747028963605137 0.000608840075894717 -0.0001304205904865956 -1.723629462169e-06 -1.6812798741839937e-06 -1.73399779232721e-06
-0.0010299426655841855 -0.0009967380124865331 -0.0008203779546999036 0.008793777449963593 0.008643059554749326 0.007338439007258558 0.003934764101492256 0.0034501942163206417
0.0020990702512943033 -0.004877783373869659 -0.00525926702859145 -0.004565449530968332 -4.3984620570659925e-15 -5.685861453940174e-15 -4.234001053532665e-15 -6.015210751381385e-05
-0.00036536399091415174 -0.00042870842836466815 -1.6385624631571424e-08 -1.528468357595684e-08 -1.262169241702139e-08 0.009501167490023053 0.009612956889694851 0.007743592817484297
00000000: 01f7 95d8 be4b 6b3f 8e03 bc9a 2a81 653f
00000010: 51d3 8eca 872e 643f 2c11 5034 4507 8dbf
00000020: 060c 103b 207c 8bbf 8493 045b 60c3 8fbf
00000030: 95a9 e6d5 42fb 8abf b4e7 583c 24fa 8abf
00000040: 745a b92d d8a1 82bf f24e d548 77ea 21bd
00000050: e3f9 3216 b797 21bd 9f68 2498 eec3 16bd
00000060: 0585 434f 46fa 24be a846 e378 baac 25be
00000070: f633 4581 57b6 22be 50c7 5184 c9ab a4bd
00000080: 4f8d 8444 2b94 b3bd f18f cf56 0f03 a2bd
00000090: cffc bc72 a19b 513f 607d 731b 52f3 433f
000000a0: e79b 7b57 3018 21bf 2fc9 b8a2 eeea bcbe
000000b0: ba16 6ec5 0a35 bcbe 682d 36bc 7617 bdbe
000000c0: a727 3084 e4df 50bf 70d1 a44a 9f54 50bf
000000d0: a58b 2e3e d4e1 4abf 8e79 72d4 7802 823f
000000e0: 090f 00d1 73b3 813f c14a a338 e90e 7e3f
000000f0: 5457 2232 e61d 703f f7c2 5dea 9443 6c3f
00000100: 0923 9ac2 1132 613f 6679 1501 bafa 73bf
00000110: 643e 38be bd8a 75bf c92f d586 38b3 72bf
00000120: 1e1e b6dc 14cf f3bc b7b7 e618 5a9b f9bc
00000130: 4642 9e8a 7811 f3bc 8b61 2cad 7a89 0fbf
00000140: 2379 6164 caf1 37bf 5e9b e9ad 8818 3cbf
00000150: 0b9e f0d3 0b98 51be af53 07fd 6b69 50be
00000160: e3ef 204a d91a 4bbe 3fd2 251d 5975 833f
00000170: 303b ac3b f5af 833f 2163 79de beb7 7f3f

exp_avg_sq f8 [16, 1, 3]
0.0002665366818685181 0.0002480226276524012 0.00026300277730057864 0.018401127177437984 0.017651094512068338 0.017182133545185458 0.011683504426825827 0.01142066002715796
0.007710398738524999 9.561717394016725e-09 9.548519145191711e-09 9.18615036354713e-09 3.8481546808017406e-08 3.8721669393352503e-08 3.761153984488883e-08 2.5438402917867707e-08
2.5258138971826905e-08 2.4417730401663527e-08 0.00019854290358531934 0.0001679353895829933 0.0001431019431087037 6.073757888006621e-07 6.093839710666758e-07 5.930750179783663e-07
0.007119654627020076 0.0064973466661322555 0.005969846061276472 0.0009532714912719013 0.0009106909204862064 0.0009937420268214836 0.0003645403202220541 0.00031952410966028775
0.0003698800233586642 0.00033713303289387294 0.00032409551780019627 0.0003235431453087154 8.545474638181777e-09 8.697419710859654e-09 8.441900002560875e-09 2.726240930828179e-05
3.2758180493305307e-05 2.969630911002682e-05 6.349109036472652e-08 6.315330288490818e-08 6.077253651513511e-08 0.0015032573356996664 0.0017931278012123504 0.001986511944285984
00000000: 067a f154 be77 313f e32c 0e13 2141 303f
00000010: aa84 c753 743c 313f b41c bfbd bed7 923f
00000020: 18f8 abe6 2013 923f d5b9 9b76 3198 913f
00000030: 2bbd 536b 85ed 873f dbe4 850a b763 873f
00000040: 21c3 bc66 f094 7f3f 2348 2417 9c88 443e
00000050: 3a22 1d9a 5a81 443e e37b d5ba 23ba 433e
00000060: 19ff ba0f dda8 643e e8be b39f ddc9 643e
00000070: 6619 a969 4a31 643e f673 9b77 7450 5b3e
00000080: bcde 0b85 e71e 5b3e c014 2706 e537 5a3e
00000090: d17c 358e fe05 2a3f 3589 1f03 fa02 263f
000000a0: 438b cf54 b4c1 223f 8eba 037c 5161 a43e
000000b0: 97af 2086 9172 a43e 3b0b bfc1 79e6 a33e
000000c0: 3e86 82bc 7f29 7d3f 29aa 1137 f69c 7a3f
000000d0: f17f 8659 d673 783f 6a58 8af0 9e3c 4f3f
000000e0: fc3a 31dc 6dd7 4d3f 8afe 5f60 0e48 503f
000000f0: 0799 e0c0 f8e3 373f 621f ed99 b9f0 343f
00000100: ed9d 909a 8e3d 383f 1a32 c659 2718 363f
00000110: 97d6 54a6 6b3d 353f bea9 5a3a 2734 353f
00000120: 1e75 2ba3 ec59 423e b7ee 5901 75ad 423e
00000130: 538b a5cd fb20 423e f4ff 9180 3296 fc3e
00000140: 1c7e db82 ba2c 013f 2332 b2d2 8a23 ff3e
00000150: 066e e812 130b 713e d4f5 56a7 dcf3 703e
00000160: dbcd cdc4 4150 703e ee0b 0946 1ea1 583f
00000170: 795e e150 ec60 5d3f cbaa ae7a 0446 603f

exp_avg f8 [16]
0.04953613520623518 -0.04102093127240123 -0.02573099540656471 -2.0899855969903774e-08 -7.710730872855279e-07 -1.3467067344376234e-07 0.014491015210033263 -8.590170756351817e-06
-0.006997077798188972 0.009260521749951388 0.011133244449877662 -0.001114401822401381 -4.751299203412471e-09 -0.00040409420410705593 -2.00962984560325e-06 0.003247867991804072
00000000: e8ad 5ce1 cc5c a93f 1d69 880c b200 a5bf
00000010: 3113 0fdf 3959 9abf 298d 3b9e e870 56be
00000020: 7b62 92a6 77df a9be 9499 5ec5 3f13 82be
00000030: ffae 4d23 77ad 8d3f bfb5 3214 d003 e2be
00000040: 3afe f8c4 f7a8 7cbf b9c0 7a30 2ef7 823f
00000050: d71a 7cc6 06cd 863f 72af 6fd8 2342 52bf
00000060: 4cf8 26d5 1b68 34be d4f1 2164 937b 3abf
00000070: cc7d feb0 a5db c0be c20a cfd9 459b 6a3f

exp_avg_sq f8 [16]
0.01728704407542255 0.2672977068955977 0.11858726389922121 6.710652695469513e-08 2.328693621058594e-07 2.1015572287335774e-07 0.001499106182375828 4.622804719234882e-06
0.06234095368814218 0.0023814919529638896 0.008220124877741763 0.0017351501381161955 5.0206804965757365e-08 0.00025156952106447416 4.434018969517922e-07 0.00917052657865301
00000000: 9636 cbe3 b1b3 913f 8764 5ad7 671b d13f
00000010: b555 2b24 bc5b be3f 0b8c c981 8603 723e
00000020: 49f6 3392 5441 8f3e 1272 9c49 e534 8c3e
00000030: 58c2 b201 b58f 583f a7cf abe2 b263 d33e
00000040: cf83 954a 27eb af3f 04a4 b7c1 5982 633f
00000050: 60c8 267c b6d5 803f daef 3246 bf6d 5c3f
00000060: 3b3f 45e8 5ef4 6a3e d7bb 9add a27c 303f
00000070: 2fcc 782a 96c1 9d3e 7676 f03d ffc7 823f

exp_avg f8 [4, 752]
-0.0008124145559390836 -0.0007520277727750213 -0.0006730937073175979 -0.0005956060728567514 -0.0005357182209986942 -0.0004836813870884902 -0.0004926376698404109 -0.0005335133029930373
-0.0010969373752843926 -0.0018681853514057984 -0.0022888267613875614 -0.0025277578979493688 -0.0025579328139977335 -0.0025227698033362077 -0.002794051755308519 -0.0031049364988673103
-0.003088466864082045 -0.002992681551119459 -0.0031431449218489414 -0.0034020225481660835 -0.003745793768037266 -0.003922409701141714 -0.0037820687273847804 -0.0034879128015353695
-0.0033124166018659823 -0.0032254440846245435 -0.0030728214789976275 -0.002928300558358113 -0.0025486087871868833 -0.0020137408176759968 -0.0015587563613733326 -0.0013423020550060029
-0.0013645926001748289 -0.0011925322490988805 -0.0010623192707701014 -0.0011693745505086156 -0.001437713345259495 -0.0011816259748087079 -0.0006726616303719635 -0.0004094212810871214
-0.00045324927004650715 -0.0005016913759206173 -0.0002630055643075722 -6.976359753851832e-05 -0.0001599910056599492 -0.00011884726266060055 0.00016748093478605676 -0.005437919288454281
-0.004445284586790959 -0.004249110705208109 -0.0032215666412477783 -0.0020519151291538557 -0.001902677857693352 -0.0010684841291539093 -0.0001736522863886498 -0.0006400505636541874
-0.0008418938359431301 -0.0007891051283112063 -0.0007302525622581115 0.0002727547405757653 0.0014710187554094394 0.002030060789418125 0.0027971112935557298 0.0035434585063057627
0.0038026226859959643 0.0043395302467025484 0.004056507253793618 0.0031379293926699497 0.0023456247814304682 0.0023370834331003123 0.002946675910144647 0.003127907044703423
0.0024915089443065114 0.0016982157706755875 0.0009302517256533044 0.0006975759638828564 0.0006969150627292276 0.00010107513024922202 7.982199800904507e-05 -0.0005250924240974652
-0.0006082784643421594 0.0002841516863112639 0.0006608119630613155 -4.892660774684341e-05 -0.0007046826868551138 -0.0007694282741527471 -0.0010249750806601583 -0.002048994341194011
-0.0028601394523801883 -0.00229920020831092 -0.0019285263925808331 -0.0023821829443358604 -0.00234573559128099 -0.0008206867102229679 -0.0061385924083022375 -0.005731963510461522
-0.005643312804206038 -0.005088162908339779 -0.003971528181307953 -0.003189085937555131 -0.002559709601716817 -0.001424208677014157 -0.0011266046586730434 -0.001366992984361766
-0.001399983791378591 -0.0014512418801558514 -0.0006635851927202382 0.00040711706029715813 0.0010984812804172698 0.00201682984838513 0.0031003964976560085 0.0036542708884902734
0.0042038820812151665 0.004532347882585515 0.003959904286871097 0.0032507620529317735 0.002938482751708192 0.003367913087247604 0.0038517789901038385 0.0035310689758238
0.0028855630331155522 0.002146023820020994 0.001457056366717893 0.001207759982763849 0.0006973959079768911 0.0003867635618443357 -3.992062752036622e-05 -0.0005166805207859808
-5.570348417763318e-05 0.0003882539774778309 0.00011515409283356251 -0.000319059686381262 -0.000609768620767959 -0.0007121524294390266 -0.0013864678392470188 -0.0023896528433282314
-0.0026953426677838984 -0.0024711203643485013 -0.0025291127705851205 -0.0027182739153546152 -0.001531680973453958 8.80186528266647e-142 -2.734935221061159e-138 3.5615593722340826e-139
-1.8244995177765517e-140 -5.759602269574232e-140 -1.2448933602062462e-140 -3.5609235970732266e-141 1.6951390383235727e-141 1.0491990529317511e-141 1.0027004261676277e-141 -1.0437473298872317e-141
-1.304105280781458e-142 8.828316119266334e-143 -5.617619538404074e-143 -5.94079572209278e-143 8.94074661898961e-143 4.8963930816985615e-142 1.9345487218160532e-141 -1.96975118586603e-140
1.6382401669808489e-139 -3.217990643463081e-139 2.3830227271283595e-138 -7.089076347155969e-138 1.1016788830748956e-137 -8.781179309019678e-138 2.180725415031395e-138 -1.4505603089042776e-138
2.375595046243212e-139 -1.117742932055824e-140 -2.150174714921067e-142 6.031927821242654e-142 2.1647618812689693e-142 5.435556086159887e-143 1.2856419342065944e-143 -8.267794888447664e-145
-9.938909082784746e-146 1.257293484530764e-146 2.528353811851977e-147 4.613385049823876e-148 4.173537121303965e-149 -1.4319446473420822e-150 1.094153992145941e-152 -4.588725408064973e-153
-3.4330563878273135e-154 7.555220772728623e-155 -1.0733903487327355e-155 -1.276839493978425e-157 -3.4355213094889566e-91 -1.539830688465609e-86 1.2279224602135348e-87 2.385599983343784e-87
1.3585741503947012e-87 1.6490570890301024e-87 2.684486561770984e-87 -1.7285523529285764e-86 1.0500663108160525e-85 -6.76134354327446e-85 1.2614735667933274e-84 2.184309667231167e-84
1.7104713086360467e-84 1.3209522130676744e-84 1.2544769693780086e-84 2.22858717556823e-84 9.14218076241488e-85 5.804907192383284e-85 -2.874551285687852e-85 -7.313004020182391e-85
-6.70614175794985e-85 -4.539285122750213e-85 3.1703100277397414e-84 -4.441482922176264e-84 -2.134260073896881e-83 1.1611689133402364e-82 1.3026070516403179e-82 6.711336442450048e-83
9.82872634221017e-84 -3.397711846092746e-83 -5.140371702976093e-84 -6.624257777901949e-85 -2.3792784744640705e-86 1.2188568025634188e-88 -4.094805875908987e-91 -1.6999035135820131e-93
-1.4660621011933364e-96 5.6109544560362366e-98 -6.501331375588261e-100 -5.321033688048111e-101 3.52556660427891e-102 -3.990710987051703e-102 -9.171770716893781e-103 9.5717690932517e-103
7.844789615992769e-104 8.609108348005545e-103 -2.9139616745453254e-104 4.2007017589211744e-101 -8.881014935129688e-96 -4.8541290729740006e-96 1.0144305371113629e-96 1.9462580767490967e-96
3.6508588872496596e-98 -2.994123922826787e-97 -1.9621212960908483e-97 -1.1867661435428906e-97 -1.2833152500721322e-98 3.5014096844401725e-98 -4.207702642667891e-99 -1.4941498306857572e-99
8.141978160575208e-100 9.181620795088227e-100 6.816094470091133e-101 -9.846121975465635e-100 -8.151231299787511e-100 1.0728380046382048e-100 2.3780325339670097e-100 1.1856711939702538e-100
00000000: fe2c 6af9 069f 4abf cdce 4958 77a4 48bf
00000010: ada7 e3ba 510e 46bf 290a 574d 4e84 43bf
00000020: 6f8a 991e ee8d 41bf 4e1c 3ebd d3b2 3fbf
00000030: 8d8f 2257 8b24 40bf 2a65 1b18 6f7b 41bf
00000040: 3e4e c489 e3f8 51bf b188 2dbf bc9b 5ebf
00000050: 4889 c382 04c0 62bf 36ef 1fb0 17b5 64bf
00000060: eaed 01b9 5ff4 64bf f80c 9fb9 a1aa 64bf
00000070: a73a 321d 8de3 66bf be57 0017 866f 69bf
00000080: 0be4 a105 fc4c 69bf 4ff8 75ac 1b84 68bf
00000090: b874 ab14 a7bf 69bf 9945 b5f2 8ede 6bbf
000000a0: b7a6 66b7 7faf 6ebf 3ee8 34d6 f110 70bf
000000b0: 68d7 d9af 92fb 6ebf f29e 3eed ae92 6cbf
000000c0: f746 391f a422 6bbf ee26 791b 3f6c 6abf
000000d0: 8b9b 4778 2c2c 69bf d334 3164 17fd 67bf
000000e0: 0a40 85ec d1e0 64bf c194 8bde 1e7f 60bf
000000f0: 53c9 0ce6 e589 59bf bede 5ddb 05fe 55bf
00000100: 956f c425 845b 56bf 1274 98c0 d789 53bf
00000110: e7d2 a7a1 b067 51bf 929c e05c b628 53bf
00000120: 0161 21f3 348e 57bf 2fff be3a 195c 53bf
00000130: d78c 13da b10a 46bf 2dd8 3603 f3d4 3abf
00000140: 6276 b2ca 42b4 3dbf ab98 b006 7e70 40bf
00000150: 303f 204c 803c 31bf c49f c17a c149 12bf
00000160: e618 2046 68f8 24bf 2f12 e66c b427 1fbf
00000170: b9c4 7446 baf3 253f 8801 0958 1246 76bf
00000180: 9233 bffe 3735 72bf 3a57 41f8 8367 71bf
00000190: 6ea1 b66b 1d64 6abf 60da f68b 2dcf 60bf
000001a0: 7f87 1ccb 682c 5fbf 5753 0619 8c81 51bf
000001b0: a7fe 25c8 cdc2 26bf 321a 8d1e 22f9 44bf
000001c0: fc77 fc3e 5196 4bbf f8d3 0e5c 7edb 49bf
000001d0: d93f b56f cded 47bf d948 cbb0 10e0 313f
000001e0: d9f3 8f5c e619 583f d8d5 6196 58a1 603f
000001f0: c856 eeb0 f7e9 663f e532 c7cc 2b07 6d3f
00000200: 0a84 6982 ad26 6f3f 985c d5c7 53c6 713f
00000210: a742 db5f 8e9d 703f a02e cc03 b7b4 693f
00000220: 84a2 32b7 2137 633f a7d8 381d 3825 633f
00000230: 19ba 4f95 a023 683f c51f c84e b29f 693f
00000240: 2022 dfad 1269 643f 1a25 954c d5d2 5b3f
00000250: dca7 8e5e 847b 4e3f 93eb c5f9 b0db 463f
00000260: e281 85b3 25d6 463f 85b4 f383 097f 1a3f
00000270: 3f60 da7b c3ec 143f 51e3 f964 cb34 41bf
00000280: c626 3c0e 9cee 43bf b3c1 2633 469f 323f
00000290: 4067 94e2 4aa7 453f dc97 0071 d1a6 09bf
000002a0: 0b79 0b8c 4e17 47bf 16d5 15a3 6e36 49bf
000002b0: 8874 d79c 0ecb 50bf 357b ec75 0dc9 60bf
000002c0: 247e 1ead 256e 67bf 74ee 73b6 c5d5 62bf
000002d0: d464 4772 d398 5fbf aa2e d9ba cc83 63bf
000002e0: 8ea5 c934 5d37 63bf 9d60 534a 6be4 4abf
000002f0: 50b1 31da c724 79bf cad7 1b3d 667a 77bf
00000300: 766d f63e 711d 77bf 68cf 9b54 53d7 74bf
00000310: ec35 76fa 7244 70bf 8e33 ca79 ff1f 6abf
00000320: 1329 daa0 19f8 64bf 236b 306c 9055 57bf
00000330: 2287 878a 5275 52bf ed36 598a 9565 56bf
00000340: 6d65 5426 f5ef 56bf 6799 7c1a f3c6 57bf
00000350: 8c3b b559 8ebe 45bf 40a7 a975 4aae 3a3f
00000360: baa2 2d4b 5dff 513f ee71 b147 9985 603f
00000370: c870 fcb1 0066 693f 4b07 9ebe 8fef 6d3f
00000380: 2186 e100 1738 713f 9575 e0de 8290 723f
00000390: 81b7 84b6 4238 703f 5e9b 8a96 57a1 6a3f
000003a0: 49b7 30ea 7112 683f 0d91 1892 0697 6b3f
000003b0: 4ec2 6719 c48d 6f3f 2bb7 ac38 30ed 6c3f
000003c0: 8fea 72db 76a3 673f 841d f3c3 8994 613f
000003d0: 0c02 625c 56df 573f 1121 2768 b6c9 533f
000003e0: 7cf3 fd4e 2eda 463f 2daa 72d9 d058 393f
000003f0: 108f 2c51 0eee 04bf b28a 39f8 3aee 40bf
00000400: 45d0 7c24 6534 0dbf 5b64 c422 d271 393f
00000410: dbda 3940 dc2f 1e3f 9579 21eb eee8 34bf
00000420: 69c6 6424 1cfb 43bf c064 75b2 f755 47bf
00000430: 3488 b281 44b7 56bf bdcb f219 7793 63bf
00000440: ba36 8213 8b14 66bf 1c87 c7a4 503e 64bf
00000450: 39e2 6614 efb7 64bf f833 2d32 a244 66bf
00000460: e5c6 16ec 5518 59bf 6364 5a29 7177 a522
00000470: ea43 f881 d648 60a3 d7d8 dc47 15f7 3023
00000480: 1e04 2031 89cf eba2 3d35 2067 c2f2 05a3
00000490: bea0 f617 cef9 e2a2 10c3 106f 27b6 c5a2
000004a0: 1106 f23e ccab b422 31c5 b5d6 ab96 a922
000004b0: 489e b171 5b74 a822 e06c 5528 a274 a9a2
000004c0: a422 c8f5 bd71 79a2 46f6 aeb6 9039 7122
000004d0: ad04 b74c c6eb 65a2 480e 6752 9d2e 67a2
000004e0: 6b0f 1ad8 b871 7122 9ead 278a 1fe2 9722
000004f0: 9829 08b7 2c97 b722 7d1f 1abb 5506 eea2
00000500: 3cd5 e98b e536 1f23 149f 7586 3fa8 2ea3
00000510: 1724 9a6f d760 5c23 0aff f49c e81a 75a3
00000520: 6002 7ee4 3266 8023 f2ac 729c 8924 7aa3
00000530: bdf0 ca19 1ff8 5923 c168 a722 2746 51a3
00000540: d2b6 0e14 c2a1 2623 35ad fcf5 a309 e1a2
00000550: 99a0 db05 d8f9 84a2 7467 f094 106c 9d22
00000560: 6f1c 8618 461e 8522 ee93 d28c e635 6522
00000570: 0d9c 9a92 3711 4422 23c6 561b e2a5 04a2
00000580: 82b0 0944 6ddb d3a1 e10a 0b0f 8418 a421
00000590: c555 4e12 252a 8021 fcff 3084 9098 5721
000005a0: 82e0 a5ae b713 2121 adde 7648 cfbf d2a0
000005b0: 0aeb 8952 7756 6220 375f f1f8 2ac3 4ea0
000005c0: e414 d08e 7269 12a0 1f59 a477 3435 f01f
000005d0: 2ce1 65a9 e86b c29f 7311 640f 7d0c 5c9f
000005e0: a098 b5cb fd64 26ad 4607 23ed b9a1 1eae
000005f0: 253b 04fb a48a e32d 220c d590 8dfb f22d
00000600: 3392 92c8 ed9e e52d 3e2d 7592 603e ea2d
00000610: 5dbf e04c 655c f52d 0c52 2f77 6731 21ae
00000620: ee04 3a48 721c 4a2e e082 2d01 1e04 75ae
00000630: a9db f584 e19a 832e f6e9 0958 3bf9 902e
00000640: 288a cccb 4195 8a2e b53c 2c97 8587 842e
00000650: 3be6 ea5b 0b7f 832e 59a5 3110 5051 912e
00000660: f685 8c1c 976a 7c2e 97d7 a07a 100b 722e
00000670: eafc 7fe0 a8de 61ae 56ab 793a 15bb 76ae
00000680: fc2d cc33 31d8 74ae f5c9 9d6b f937 6cae
00000690: 98f8 49e5 aca2 982e 3e21 0690 b441 a1ae
000006a0: b544 45ec 15bb c4ae f20d 371a 7432 ec2e
000006b0: fb93 719d b5a1 ef2e 14af a623 214c e02e
000006c0: 45ef 91d2 0d18 b32e 8556 b512 6780 d0ae
000006d0: 40f7 e642 daf8 a3ae e93a 1924 0997 74ae
000006e0: c904 a645 58aa 27ae 57ad c8f1 2209 af2d
000006f0: fb12 ff73 2ab1 2aad 0e28 9898 f15d acac
00000700: 735b 0171 4a0d 09ac 920e 2ceb 70ae be2b
00000710: 6bdf 8173 87c0 56ab 6abb 0758 5dcb 1dab
00000720: c383 1bd3 e195 df2a d74a 0956 58e0 e1aa
00000730: e9c3 53b4 166f c0aa 08ca 8a5d 9126 c12a
00000740: a7dc 1acc 717d 862a 987a 68c1 fdd9 be2a
00000750: 8dce a417 3ab5 70aa 7499 5596 7085 172b
00000760: 773a 1968 40f8 32ac d39f 3542 99bc 24ac
00000770: 5641 1cbb a055 012c 0723 d652 f4a0 102c
00000780: 8b0a 34b8 9ef6 b32b bdc1 a7a9 1e77 e4ab
00000790: 26eb b257 a4d2 daab 7a9e c54a 3539 d0ab
000007a0: b8b2 fc17 bf11 9cab c171 9c3a 6a25 b32b
000007b0: eea4 ff05 1768 82ab 321d cd48 0725 6aab
000007c0: ba00 7490 617e 5c2b 2aab b3ba e510 602b
000007d0: 0370 3942 3815 232b ae9c 2e5b 8f3a 61ab
000007e0: 0b60 3dc5 ab86 5cab 1785 a9fb 3909 2e2b
000007f0: bd4f 76dd f2a4 402b 3e1c d218 f698 302b

exp_avg_sq f8 [4, 752]
7.849304585684827e-06 4.436293297082992e-06 5.215994216170057e-06 6.290087212413939e-06 7.14307627300158e-06 7.913772796270917e-06 8.619947538718954e-06 9.542324400504265e-06
1.0971237488364973e-05 1.1946675135631552e-05 1.1996915854875652e-05 1.2533335025522934e-05 1.3709123948848212e-05 1.515399578972177e-05 1.7188353365659608e-05 1.8565798386171054e-05
1.8924355576897127e-05 1.9665431038067756e-05 2.0814894949681506e-05 2.1764685824439896e-05 2.2039867632170614e-05 2.1387556022898632e-05 2.0826437210407703e-05 2.1004925412972765e-05
2.1395195879138048e-05 2.1773789449931187e-05 2.1883446063480332e-05 2.1743132992261194e-05 2.2393379215246102e-05 2.427092430870419e-05 2.602237667732667e-05 2.7721199203368367e-05
2.9138367593584445e-05 3.0862491228506125e-05 3.960321953625996e-05 6.261474602545885e-05 8.597552727708472e-05 0.0001087407510019966 0.00012190120778776017 0.00013067139138255753
0.0001514554686281665 0.00017488408220447897 0.00018441378207025065 0.0001933608694707365 0.00020036649285460644 0.0002105945921912479 0.00024186679178517844 0.0012955958185302651
0.0007785938937510646 0.000786495370749903 0.0007870777919952993 0.0008313955515956066 0.0008845240513396216 0.0008695475051314837 0.0008726366214845127 0.0008830788345081528
0.000853600539789215 0.000867296542738123 0.0008758603537483758 0.0008386774606342048 0.0008640155302621264 0.0008524273934568062 0.0008614623053200642 0.0008810287577972956
0.0008485825690067394 0.0008783506501585933 0.000913200443987615 0.0009431389913740236 0.0009822441688324816 0.0009596892162094662 0.0009337128022705449 0.0009754314411887971
0.0010007773382762798 0.0009783034527932344 0.0009314620596257793 0.0008398092923792646 0.0007298845882007918 0.0006555759876125276 0.000591809758956532 0.0005177898835987099
0.0004600370834390931 0.00040487282389687333 0.000359338680253529 0.00032608954359875927 0.00030466156775119335 0.00028177129788011434 0.00025827740387313357 0.0002379999653187651
0.00022048484450392213 0.00020804523800514464 0.00019982641775543214 0.00019375184104336143 0.00019088190586256262 4.8032253912180076e-05 0.0013325269741379655 0.0010839646624439586
0.0010767539575165714 0.0010745581347063342 0.0010972773704385787 0.0011514018913596975 0.0011763920986381654 0.0011827245415458397 0.0012027475776541622 0.0011934948288912072
0.0011890254149968086 0.0012026191770436365 0.0011827188899512756 0.0011814249303436551 0.0011895568198224283 0.0011852877045258473 0.0012061188675088455 0.001193945568245788
0.0011992087781418778 0.001240547642023705 0.0012787194141753225 0.0013302370330524444 0.0013503033432179876 0.0013335636259765799 0.0013552925626030656 0.0013959619472886005
0.001400250254523553 0.0013666202885380023 0.0012789980669495281 0.0011426300638199842 0.0010103390402820141 0.000897184402976977 0.000781982287189742 0.0006811925566192267
0.0005961368077698734 0.000520753477893684 0.00046147623317213085 0.0004166220002808764 0.0003778287379846864 0.00034300981209556643 0.0003121467678459068 0.00028336131223381274
0.00026064416340739247 0.0002443225849384725 0.00023122363484673903 0.00022301080863227737 7.620536679136343e-05 9.240327027028359e-12 1.1169545357053666e-11 1.0939134156655496e-11
1.0531333563652678e-11 1.0046872561059584e-11 9.696772990182997e-12 9.37623765210614e-12 9.199327806608515e-12 9.163559465203438e-12 9.16155497324268e-12 9.057753564489467e-12
8.792292680335529e-12 8.564426945290932e-12 8.445546983966713e-12 8.458107444186016e-12 8.631134523426693e-12 8.897460404442676e-12 9.245222179668484e-12 9.719403681786512e-12
1.0225238897877848e-11 1.0742384583196225e-11 1.1106651756299213e-11 1.1295948889755465e-11 1.1386471416048873e-11 1.1262961326677365e-11 1.110293034783706e-11 1.087619177192529e-11
1.0561314938224245e-11 1.0151482459870043e-11 9.625980162364487e-12 9.155344348174393e-12 8.85913325586976e-12 8.616098170839502e-12 8.328307514675921e-12 7.847448272141857e-12
7.37801153063107e-12 7.023590041707897e-12 6.776238114095368e-12 6.550446695519721e-12 6.1942289379588055e-12 5.726921044315361e-12 5.247103204793023e-12 4.897335433734187e-12
4.6353680863745715e-12 4.425452833692436e-12 4.249878692265047e-12 3.7705044489176114e-12 9.715403789322084e-11 1.1448288051431333e-10 1.1192786894272439e-10 1.100677744368963e-10
1.093157565642853e-10 1.0948671687887324e-10 1.1131218453677418e-10 1.1494363440041351e-10 1.198059753371552e-10 1.2414238916358337e-10 1.26713768475524e-10 1.272467849331988e-10
1.2696394206620315e-10 1.267264319974362e-10 1.266901593612918e-10 1.272265739607817e-10 1.2643882802776951e-10 1.26214385485693e-10 1.2544282109756053e-10 1.246360770014317e-10
1.248116808180104e-10 1.2523673162899225e-10 1.2758313674512969e-10 1.3127249563500192e-10 1.3536382420406413e-10 1.3774729822337379e-10 1.3790624978917225e-10 1.3712473392484208e-10
1.3620604236785605e-10 1.3454806477939055e-10 1.313270265658602e-10 1.249650636111788e-10 1.1505156099349003e-10 1.0341100767113736e-10 9.137929348824487e-11 8.080365571886636e-11
7.161435174547398e-11 6.465025127896701e-11 5.92656512959129e-11 5.5205644540946266e-11 5.3098369062239446e-11 5.208048438749952e-11 5.157738643647273e-11 5.052540605161381e-11
5.000864511231171e-11 5.049446153934378e-11 4.6679044351918794e-11 6.938914864053763e-11 8.569346864886039e-11 8.526132760362105e-11 8.434039173926703e-11 8.319607932627812e-11
8.182507112252563e-11 8.05242547533914e-11 8.004495803278364e-11 7.976612509329268e-11 7.922872092596117e-11 7.785360374981862e-11 7.614854111920074e-11 7.458395627438306e-11
7.35905198052139e-11 7.357933649021259e-11 7.408227608549205e-11 7.443672972252564e-11 7.442105057599827e-11 7.405569532476855e-11 7.394630971344367e-11 7.40144693652095e-11
00000000: 596a 2e35 1076 e03e c698 1e04 6f9b d23e
00000010: 933d a192 a1e0 d53e 44d2 e701 ee61 da3e
00000020: cd79 e5da d1f5 dd3e cdc2 b0a6 ac98 e03e
00000030: e3a7 9691 cc13 e23e 03b8 4c14 ff02 e43e
00000040: 94c9 1066 2302 e73e 134b 3287 d20d e93e
00000050: f339 5b8f cb28 e93e 314f 0d73 c848 ea3e
00000060: ae37 07a6 07c0 ec3e b287 7f52 bdc7 ef3e
00000070: 70b2 34a6 f605 f23e b4cb 45f3 b777 f33e
00000080: 3657 14d0 f7d7 f33e 441f 7721 e69e f43e
00000090: 4324 73b0 74d3 f53e 8fc8 38d2 69d2 f63e
000000a0: e489 c72b 481c f73e 8617 97a8 2d6d f63e
000000b0: 463f 0cde 8dd6 f53e 28cf b67b 7706 f63e
000000c0: 0dce 5caa 3a6f f63e 5b27 e56a dbd4 f63e
000000d0: 8712 71f6 4af2 f63e 8dd0 c9b8 a0cc f63e
000000e0: 3b59 514d 2d7b f73e 229e e837 2d73 f93e
000000f0: 964d d31b 5449 fb3e 968d c24d 5a11 fd3e
00000100: c5a6 bc5f c58d fe3e 7336 be1f 4b2e 003f
00000110: 0e16 0543 74c3 043f e709 4d25 016a 103f
00000120: e203 c84f b889 163f 1b25 8fe0 7781 1c3f
00000130: 163e 9ccd a6f4 1f3f 0d4f 7cb4 9a20 213f
00000140: 1ba1 b191 00da 233f ed23 cbd3 22ec 263f
00000150: 12b2 6a53 e62b 283f 350e ae38 1d58 293f
00000160: 3db1 6b11 2f43 2a3f dcd7 b8c5 619a 2b3f
00000170: dda0 e1eb b3b3 2f3f b3ce d76a 1f3a 553f
00000180: e851 bfa7 5183 493f 116f aaf2 99c5 493f
00000190: fbac 21b0 7cca 493f b25b 215a 403e 4b3f
000001a0: e46a bfef ecfb 4c3f c1d8 650c 4b7e 4c3f
000001b0: 009c 12e0 3498 4c3f 836d 645b cdef 4c3f
000001c0: b4af 7c33 85f8 4b3f 0b39 bc24 696b 4c3f
000001d0: 358e a0c9 3fb3 4c3f e9e1 f521 567b 4b3f
000001e0: ac16 0d39 e34f 4c3f ce63 78e3 adee 4b3f
000001f0: 5b89 cb36 783a 4c3f bb34 cdd9 9ade 4c3f
00000200: cc1e e030 6dce 4b3f fd96 8ea8 23c8 4c3f
00000210: 8ec9 5305 7bec 4d3f 1bf5 cf8f 9fe7 4e3f
00000220: 3a93 3ca5 d417 503f 7c03 23e6 7472 4f3f
00000230: 80c5 8cf9 8c98 4e3f a9ba d711 83f6 4f3f
00000240: 90f7 0f7c 9065 503f 85bb 7555 4d07 503f
00000250: 5103 b28a ab85 4e3f 4aec 0ab9 d484 4b3f
00000260: 6ea4 d437 b7ea 473f 98a6 a2b6 5e7b 453f
00000270: e2b6 b3c7 7564 433f e67a e14e 89f7 403f
00000280: 8d0e 733a 2426 3e3f 6326 a589 a388 3a3f
00000290: 9699 3fe1 b38c 373f 990c e2ec df5e 353f
000002a0: 2b66 4778 5ff7 333f 5889 6482 5677 323f
000002b0: 3714 c000 2ded 303f 0279 8e22 f431 2f3f
000002c0: 9396 8f64 3ee6 2c3f 9e85 94fc d644 2b3f
000002d0: a6c4 b7db 0f31 2a3f 5da7 42a4 3b65 293f
000002e0: 074d 0e16 ef04 293f 6254 7aad c72e 093f
000002f0: 81f3 98f1 05d5 553f 9725 9d31 7ac2 513f
00000300: 5ac5 22c2 3ba4 513f 872d f502 069b 513f
00000310: 0b55 ec9a 50fa 513f dfc4 f25d 54dd 523f
00000320: c0b1 d165 2546 533f 23af 78ce b460 533f
00000330: 3540 ba60 b0b4 533f 389c 8350 e18d 533f
00000340: b5a6 6051 227b 533f 5689 3c82 26b4 533f
00000350: 7212 f9bc ae60 533f 9977 105c 415b 533f
00000360: 48e1 d2e8 5c7d 533f bfb5 58fb 746b 533f
00000370: 7295 d345 d4c2 533f 8bf1 cd4a c58f 533f
00000380: c1ac ec9e d8a5 533f 39c5 4de3 3b53 543f
00000390: 9b1d 2384 56f3 543f b185 6223 6bcb 553f
000003a0: a826 b92c 951f 563f e4fb 480a 5fd9 553f
000003b0: afb4 e74e 8234 563f 5581 3eba 16df 563f
000003c0: dd46 2943 13f1 563f d422 805c 0564 563f
000003d0: ebe5 a0b7 81f4 543f 07a8 5ab0 89b8 523f
000003e0: c64f b248 ab8d 503f e08d aad5 2066 4d3f
000003f0: 6770 bd2c be9f 493f 3def 60e0 4152 463f
00000400: e9b1 f10b c288 433f 150f 1394 6510 413f
00000410: 94a5 5054 493e 3e3f e434 b2dd c14d 3b3f
00000420: 2ddb b812 eac2 383f 4520 d7ec bf7a 363f
00000430: b0bb d128 f474 343f 9fb6 a991 0392 323f
00000440: 3ddd 6028 e214 313f 9e71 1183 0d03 303f
00000450: d1e0 42e6 934e 2e3f 5bfd 6b42 003b 2d3f
00000460: d84d 8b3b 0efa 133f f062 a677 d751 a43d
00000470: c215 3e21 e58f a83d 4302 5a60 2f0e a83d
00000480: bcd3 011e 9d28 a73d 5f05 c0ed e217 a63d
00000490: f5ab 6143 cc52 a53d ec73 af40 5a9e a43d
000004a0: b2b7 65db c23a a43d eb84 8418 a026 a43d
000004b0: c737 d137 7f25 a43d 8413 c6db 0feb a33d
000004c0: ab64 cae9 9e55 a33d e9da feff 57d5 a23d
000004d0: a32b 8d97 6b92 a23d 5ade bdbe 7d99 a23d
000004e0: 7923 3d93 e5fa a23d 2533 f92d d390 a33d
000004f0: 24e6 e7ee 9854 a43d 68b2 88b0 895f a53d
00000500: bb58 153a 4c7c a63d 1b90 4bc6 6c9f a73d
00000510: 93b4 ed34 7d6c a83d 2c61 7acc 0dd7 a83d
00000520: dd9a 3a78 030a a93d 9cea 35ca 7bc4 a83d
00000530: 1d86 30e5 646a a83d 5601 3a6c c0ea a73d
00000540: f299 7ee3 7d39 a73d d9db cfcd c652 a63d
00000550: 4c09 07f1 f12a a53d c8e5 312c 0022 a43d
00000560: 2397 c5a7 3f7b a33d 812c be9b 6ef2 a23d
00000570: 87ac 949a 6b50 a23d 00d5 d07b b841 a13d
00000580: b4f4 f484 7339 a03d 7883 e9ff dbe3 9e3d
00000590: 87ca 17a9 5dcd 9d3d 79fc 0ab7 25cf 9c3d
000005a0: 035a cfef 143e 9b3d dddc 569b f02f 993d
000005b0: d0e3 c987 b613 973d 788b 8ed5 e889 953d
000005c0: 7f6f 1be3 f562 943d 0c66 55ef 9d76 933d
000005d0: 1575 5222 f0b0 923d 5151 64ea 3595 903d
000005e0: 3099 2f8e 9bb4 da3d 7aca 6a3b 0478 df3d
000005f0: 7889 463c 39c4 de3d bf36 73c0 5441 de3d
00000600: f92d 249a 690c de3d ac0e 6f59 7118 de3d
00000610: a5dd 1b0d e698 de3d 0cef ab6f 7098 df3d
00000620: 0d76 b14a 4c77 e03d e92e 333c df0f e13d
00000630: 67dd 3529 586a e13d baae 7b25 197d e13d
00000640: 1e4e 3c86 2573 e13d 44cb 4d39 ca6a e13d
00000650: b6a5 4c82 8369 e13d 6857 271a 637c e13d
00000660: 0d75 b3b7 ab60 e13d 0534 6f1e c658 e13d
00000670: 7577 157c a03d e13d 7b7d d9fa 3d21 e13d
00000680: 17b3 aead 6b27 e13d 9a9c 1f32 6036 e13d
00000690: 6712 f5bb ee88 e13d 51ac 5c86 bd0a e23d
000006a0: 9aca bdef b09a e23d 1d7d a55c 8dee e23d
000006b0: 5bd4 0012 25f4 e23d f562 1ccd a5d8 e23d
000006c0: 2949 9bf6 52b8 e23d 5e25 933a fd7d e23d
000006d0: 97b1 20b2 a80c e23d 53e3 523a d12c e13d
000006e0: 5c5f 3bab 08a0 df3d 1c7d 3a1a e76c dc3d
000006f0: 8b4c 2702 3f1e d93d 3507 5141 0d36 d63d
00000700: dfd0 a978 69af d33d 3b39 e963 5bc5 d13d
00000710: 9450 740f 734a d03d acb0 22f6 8059 ce3d
00000720: f247 695c ee30 cd3d 6192 5d33 ada1 cc3d
00000730: a0ce ca2f df5a cc3d 96c2 5399 d1c6 cb3d
00000740: 470d ee52 177e cb3d 46f9 93b4 76c2 cb3d
00000750: 87f1 61d0 7da9 c93d d2bb 9dc6 d312 d33d
00000760: 050e 3d4b 248e d73d bf13 6c88 bb6f d73d
00000770: 1367 5f6d ed2e d73d 1f25 d153 67de d63d
00000780: 28dc 7370 ed7d d63d 395e ca03 6422 d63d
00000790: 642e cec5 a900 d63d f93c d6c3 0aed d53d
000007a0: 1559 8dc0 39c7 d53d 83b0 e5d7 7566 d53d
000007b0: 032f 672a 7aee d43d 8d7d 591c 6180 d43d
000007c0: 3446 46f3 783a d43d b64a 567d af39 d43d
000007d0: ae34 d6a4 135d d43d 3c05 b8e9 0476 d43d
000007e0: 9f02 6b76 ea74 d43d c5d2 b6ce 345b d43d
000007f0: 87aa 9e4a 8253 d43d 7069 8825 4e58 d43d

exp_avg f8 [4]
-0.004866549661165693 -0.027514347189679583 0.04286052669353989 -0.044839417273735575
00000000: d49d 397a f2ee 73bf dbdf 6695 b82c 9cbf
00000010: 2e4d e0a0 d0f1 a53f 3758 862d 31f5 a6bf

exp_avg_sq f8 [4]
0.04240918219533588 0.03670053433863364 0.03543418687277266 0.03444815268837713
00000000: 457c 2805 a8b6 a53f 12d7 7595 69ca a23f
00000010: 6fcd 8e03 6e24 a23f 268c 6832 30a3 a13f
