dl_experiments/best_checkpoints/avazu_5min_CNN_cuda:0_checkpoint.pt (torch, 92763 bytes, 12 tensors)

block_1.0.weight f8 [64, 1, 9]
0	0xbed16fa8f67a762a	-4.157107333616715e-06
1	0x3ee2fbac07440462	9.051844451326243e-06
2	0x3ee5e11b251e8118	1.0432872986688077e-05
3	0x3ee45c78909257c0	9.70898374167892e-06
4	0x3ee1819911cb5e28	8.34762664096631e-06
5	0x3ee34c8f445598fa	9.202509441319236e-06
6	0x3ee30cb1bebfc923	9.083551013565138e-06
7	0x3ef0605b33544c17	1.561774407317023e-05
8	0x3eed39fc3265be53	1.3936283335096828e-05
9	0xad0a03d5d8d89523	-9.977341964061412e-92
10	0x2bafa06eda099003	2.8919127655996953e-98
11	0x2c3f6146a826ceae	1.4691093091920879e-95
12	0xabe2968e7556b659	-2.719485027498878e-97
13	0xac48ae4f62e63ad8	-2.310959610160252e-95
14	0xabc46f22369c48aa	-7.47389974906285e-98
15	0xab502768d6cfc3e8	-4.615938425804261e-100
16	0x2b8d4aebc308b6a2	6.696228193791128e-99
17	0x2b860f6c9bfaf2cf	5.042917747473987e-99
18	0x391ec93b626fbdb2	1.4822949854659251e-33
19	0xb90b511533e7a67d	-6.576263482855539e-34
20	0xba26800169aad701	-1.4199509898391614e-28
21	0xba597e605c3ff1f4	-1.2871008001820461e-27
22	0xba20bb26181e16cc	-1.0558777012207763e-28
23	0xba564f2391cf3f15	-1.126323559228194e-27
24	0xbabae86d246b8586	-8.694416377175213e-26
25	0xba21f60f3066ec3a	-1.1335091397322706e-28
26	0xba2b0f9649128156	-1.7077820603838281e-28
27	0xbe44700d5ca1fd6e	-9.517047500983513e-09
28	0xbe3d60f73ecba071	-6.840278549072555e-09
29	0xbe45743a2b22f969	-9.990303116342253e-09
30	0xbe414e354d1705f3	-8.058501785033604e-09
31	0xbe46ffac54ace0ec	-1.0709615102391852e-08
32	0xbe33475d5ba0ca64	-4.488688027216695e-09
33	0xbe2f4fd1f2c4e1b1	-3.645172960483256e-09
34	0xbe27a208b8125b0c	-2.7512369609718324e-09
35	0xbe219f7704d54e95	-2.0515767198500007e-09
36	0xbce984ea88b9978d	-2.833200752459388e-15
37	0xbd10598a804c10c1	-1.4521512534666956e-14
38	0xbd340225da368ba0	-7.108408113405928e-14
39	0xbd3e58b3b0c95f31	-1.0781239673656701e-13
40	0xbd407f4f8bbc9eec	-1.172204202028003e-13
41	0xbd38dd37f352fcc8	-8.833515247861049e-14
42	0xbd3c57a757c13201	-1.0069242221660817e-13
43	0xbd280aa297d48f9d	-4.2706360179103694e-14
44	0xbd228b82a757f995	-3.294247073710654e-14
45	0xbfaef83b04eb7b1e	-0.06048759875351649
46	0xbfb6103136b7e9c2	-0.08618457399271676
47	0xbf88ca633f5df6e7	-0.012104773875531062
48	0xbf998b610218a137	-0.024945750954573156
49	0xbf9218793b044890	-0.017671484210105393
50	0xbf903f3e03a87d02	-0.015866250012661183
51	0xbf8131c30701898d	-0.008395694400125797
52	0xbfa6321090dd32f0	-0.043350713428116694
53	0xbfc462fd399e5a4e	-0.1592709094372417
54	0xbfa60d63ce53cde6	-0.04307090657848871
55	0x3fb16c9fd8470182	0.0680637267132678
56	0xbfc28824549eb01a	-0.14477972156362356
57	0x3fd1006de28e32ea	0.26565119862134046
58	0x3fc01d92ed8d6af9	0.1259025249408621
59	0xbfc810adcd9afe80	-0.18800900019958888
60	0xbfbeed949ba5b837	-0.12081269073471011
61	0xbfb788acb35713bb	-0.09192923906728272
62	0xbf88ccb8b93c8d12	-0.012109225419016077
63	0xbc00ef9f479e2713	-1.1476296371422298e-19
64	0xbbef2a90c1400cca	-5.2797717241623983e-20
65	0xbbb07348f99b9bc2	-3.483493354502014e-21
66	0xbb99b709525cc812	-1.3613400231412453e-21
67	0xbb879284e895bead	-6.239546583478734e-22
68	0xbb63dddde523ad43	-1.3146657489033391e-22
69	0xbb27ee7e732d8741	-9.897884793371825e-24
70	0xbb09dfb41e9168c8	-2.6752925752584816e-24
71	0xbab1f6788fe9bb48	-5.804086324872685e-26
72	0xba6eaf4d34576c72	-3.0983701575590334e-27
73	0xba460c305481e628	-5.565599847135205e-28
74	0xba6e02be4cc05d4d	-3.0303079402362816e-27
75	0xba8a246ef4671ea4	-1.0558798166602106e-26
76	0xba825f53f670bec1	-7.420543134339147e-27
77	0xba406e9258763de8	-4.147999911769697e-28
78	0xba300b480fa23df5	-2.0250461206605027e-28
79	0xb9e50395f0afdb03	-8.288564156340171e-30
80	0xb9cb9d0cb1f8d981	-2.7228988569937103e-30
81	0xbf66d394784e0313	-0.002786436062195094
82	0xbf67233cf1c3f8a5	-0.0028244200058216867
83	0xbf676122305c5928	-0.002853934073651438
84	0xbf68bfa8c5969895	-0.003021077759245714
85	0xbf68bceeeefc35b8	-0.0030197779341338514
86	0xbf68312d35272b0f	-0.002953136726522649
87	0xbf6731c7cd2f39a3	-0.0028313543675501803
88	0xbf66333b4988d69a	-0.002709976001166248
89	0xbf663612644798ce	-0.0027113303387863224
90	0xbf604bb233a5ba57	-0.0019892197134859057
91	0xbf606708ec1b601f	-0.0020022558463601704
92	0xbf5a40adde4acf77	-0.0016023347790623235
93	0xbf62bc2cb1f409de	-0.002286994261909244
94	0xbf607ca0638cdf30	-0.0020125515551646864
95	0xbf65a2eb42020f44	-0.0026411623840107163
96	0xbf60830a1d0878d4	-0.002015609505419661
97	0xbf61ae6212342b71	-0.0021583476497019573
98	0xbf60700788c71861	-0.002006544795423657
99	0xbf13bf2594df6b76	-7.532755736809428e-05
100	0xbf14ed25de8bee68	-7.982772480013558e-05
101	0xbf1734b3df7961b0	-8.852336747489672e-05
102	0xbf19a40bcd0803ad	-9.781190897940771e-05
103	0xbf152734b443e516	-8.06928556506169e-05
104	0xbf13717e917c37ac	-7.41704465065651e-05
105	0xbf10b3ed6bdee736	-6.371628384629628e-05
106	0xbf03eef6fdcdfb57	-3.8020050602041964e-05
107	0xbf0103971df203ef	-3.2451676582396945e-05
108	0xbf9c8cc4625cc66d	-0.02788073397022688
109	0xbf9c8e88be680a01	-0.027887474652752434
110	0xbf9c345b2a80d4f7	-0.02754347273749588
111	0xbf9c6e8f44788549	-0.027765501550793634
112	0xbf9c1e8e660f7055	-0.027460312823550066
113	0xbf9c37a1397553a7	-0.027555960781075275
114	0xbf9bfc2349d2b06b	-0.027329017048643694
115	0xbf9bd5c113d24d01	-0.02718259509545096
116	0xbf9bb7b3a21b87fa	-0.027067953843364002
117	0xbf1a819ec1ab6e22	-0.00010111361954606065
118	0xbf179b6538b5ed37	-9.005360896268277e-05
119	0xbf1957c0cfc2559b	-9.667505577433957e-05
120	0xbf1cc3c1a5ebfe11	-0.00010972852167511644
121	0xbf1d32ea11f891ad	-0.00011138490344159728
122	0xbf19dac19df397df	-9.86271547734614e-05
123	0xbf17fc9d8d23b1fb	-9.150230042438e-05
124	0xbf13b4c3bd92b87f	-7.517285065958451e-05
125	0xbf131965326411f3	-7.285766750803734e-05
126	0xbfb05be40273c515	-0.06390214023464964
127	0xbfa452630fd9b48c	-0.0396910626267096
128	0xbfaaab0f0f34a7bf	-0.05208632526985423
129	0x3f4932836293854f	0.0007689610985403358
130	0x3f9f1513d448b390	0.03035384162119531
131	0xbf4726a1d671a1df	-0.0007065096114163247
132	0xbfb5dee4b9b14025	-0.08543233426576131
133	0x3f89f3a564a97bb9	0.012671749243222995
134	0xbfc116c895154589	-0.13350779799888482
135	0xbea607ddef328bbd	-6.565669238466483e-07
136	0xbeb3c6043e5e3dc3	-1.1785925777308034e-06
137	0xbec18fca083cf45d	-2.0935149808430515e-06
138	0xbec410a99fec516d	-2.391944917143842e-06
139	0xbec23f7140a9a2b2	-2.1753098782727334e-06
140	0xbeb6e7f9f785602d	-1.3653134072946172e-06
141	0xbeb624743bac5fda	-1.3197898016178214e-06
142	0xbea213656f897e70	-5.386998217053317e-07
143	0xbea78ecccbc4a1a3	-7.020775210408405e-07
144	0xbf70041d3ccdfbe9	-0.00391017361550803
145	0x3fd048684a0b1743	0.2544193957404454
146	0x3fb6ce26c9813416	0.0890831224398457
147	0x3fb28f2dff08bc77	0.07249724842471204
148	0xbfbc11418b5a3536	-0.10963830616147593
149	0x3fadaf8f7e1390ba	0.057980045452298026
150	0xbfc2ac637f8b2b53	-0.14588588454929638
151	0xbfcc1e005995a24a	-0.21966556905978712
152	0xbfbd759c55149c33	-0.115075846454247
153	0xbea9dd98320c474b	-7.708550563165112e-07
154	0xbead906310dcd9cf	-8.810762055281502e-07
155	0xbeafdb1ba29bc8d5	-9.493795165279074e-07
156	0xbeb51dfd7fa48949	-1.2586801845867505e-06
157	0xbebe937a4b9adf39	-1.82247667483526e-06
158	0xbea381c7492d89a7	-5.813523265947425e-07
159	0xbe9c8d2f82c90364	-4.2545059633987846e-07
160	0xbe9857794655aa83	-3.627195098362473e-07
161	0xbe91205035bb2bf9	-2.5520062306151534e-07
162	0xbf6dbaf8773d30b2	-0.003629193577500877
163	0xbf6de5adbd91ba2e	-0.0036495583886371396
164	0xbf6b05ccb04547c5	-0.003298663885439065
165	0xbf66c58242556ec9	-0.002779726421676763
166	0xbf66030cbe231301	-0.0026870011216452165
167	0xbf65799fd9de160b	-0.002621471604416175
168	0xbf63058a248e58b4	-0.0023219774343018144
169	0xbf5e3fd4e8f381f9	-0.0018462733458407528
170	0xbf5cee0a962c327b	-0.001765737856376819
171	0xb962f9efb139062f	-2.9237640575488677e-32
172	0xb97a6680fb6502c3	-8.135253073102284e-32
173	0xb9eb031fca972121	-1.0654435789689773e-29
174	0xba26e74daebd3c21	-1.4454158953832926e-28
175	0xba175f770ee9847e	-7.375190113277402e-29
176	0xba58d57b5512e44e	-1.2537922053853998e-27
177	0xba52fbad6dad6bbd	-9.584023890178717e-28
178	0xba1274141806b4dd	-5.822876305042359e-29
179	0xba41e6204f9cd7c2	-4.518325292048065e-28
180	0xbf353c6d6828a52b	-0.0003240363222710314
181	0xbf3307cb0f5a0333	-0.0002903815032837986
182	0xbf30765cd0210ec6	-0.0002511955827950548
183	0xbf12a7f486eec88c	-7.11672780500402e-05
184	0xbf1d3b3d20059de6	-0.00011150894716182406
185	0xbf140040b2ba75de	-7.629771124092281e-05
186	0xbf02162e533f01af	-3.4497536403946406e-05
187	0xbf139c0d74ca3f34	-7.480461244768478e-05
188	0xbf2d4a730e49cbc6	-0.00022347120752250047
189	0xbfb543ddf2688bd0	-0.08306681793378279
190	0xbfb160c924aa4a22	-0.0678830828203805
191	0xbfb0b4d75d8cbfb5	-0.06525941881113691
192	0xbf87edb4102b6a6a	-0.011683851951081087
193	0x3fb0ff894a939ded	0.06639917441099615
194	0x3fb5c947a2345880	0.08510253629751396
195	0x3fc5ca125d0b04ee	0.17022923987500554
196	0x3fb18295886fc657	0.06839880543682263
197	0x3faa79f8042f7d8d	0.051711798201490834
198	0xbd00062391cf9eb5	-7.116076727267536e-15
199	0xbcf218e217a93eaf	-4.018385601298823e-15
200	0xbd27d57270f0c1f9	-4.23372936419659e-14
201	0xbd1a01f845aaacdd	-2.3099473074014314e-14
202	0xbd1e9213a3d02639	-2.7152158016197368e-14
203	0xbd105c0026413383	-1.4530045859968282e-14
204	0xbd1ba67f9ea04467	-2.4558475094469336e-14
205	0xbce8776e96dbfc9f	-2.7163306280623422e-15
206	0xbcee7b55ecdfa29a	-3.3841573838606196e-15
207	0xbe059f9a5c30a397	-6.293251964516123e-10
208	0xbe0bea0e447af922	-8.124124784021011e-10
209	0xbe21be76c88ec6a2	-2.065673469482099e-09
210	0xbe24647bdc331121	-2.374001191459419e-09
211	0xbe2227b610208384	-2.1135343484177586e-09
212	0xbe1d0d4ef11883d4	-1.6910481386570084e-09
213	0xbe1253816f1536d7	-1.0667248719164608e-09
214	0xbe0192cb7d08dd73	-5.114537630819348e-10
215	0xbdfa5ba60364ce70	-3.835594094019198e-10
216	0x3faf18e84da08b6b	0.06073690364453096
217	0xbfb69a128098e951	-0.08828845634062545
218	0x3fc191907a8ef4c6	0.13725477203653308
219	0xbfc998d85b93b5f8	-0.19997696372540452
220	0xbfc79eaede4086cb	-0.1845301232543107
221	0x3fc9156b77a23e57	0.19596618024341936
222	0x3f759dd78ea7823b	0.005277483005983681
223	0xbf8d00ff167b1f9d	-0.014162056802334006
224	0xbfa33ac88e763f2d	-0.03755785693203815
225	0x3fcd8794008bedde	0.2307000162762582
226	0x3fc488a73559170f	0.1604203234184571
227	0x3fc5e998ff27d72d	0.17119133433123448
228	0x3fc06eb60579adc1	0.128378632234087
229	0xbf9cfe8d465c8a17	-0.028314788264774373
230	0xbfc2005501924724	-0.14063513352135104
231	0xbfb61b91d5268a72	-0.08635817960615969
232	0xbfd76d1dda9cd63b	-0.3660349497689343
233	0xbfc3a126b70cd0b0	-0.1533554452704542
234	0xbd7902430af59196	-1.4215877110978882e-12
235	0xbd7985e52f498a14	-1.4508161900287084e-12
236	0xbd6ffba60fb8a1a3	-9.090116079176452e-13
237	0xbd735ae9c5bb3070	-1.1002117380229474e-12
238	0xbd7024bd518cdaf8	-9.17652515221589e-13
239	0xbd71079fb19d44a7	-9.680309451653052e-13
240	0xbd5bec7e170ce890	-3.9682105042024584e-13
241	0xbd41e27a52b348af	-1.270782874598047e-13
242	0xbd30799bbd95f314	-5.853107389873242e-14
243	0xbfb21be5e7440687	-0.07073819061408858
244	0xbf9ca6ca147ebf2b	-0.027980000973627
245	0x3faab19c7d01a6de	0.05213631654699012
246	0xbfc618138f5a65eb	-0.17260975360549877
247	0x3fd76659e2f31c08	0.3656220165543691
248	0x3f8fe314e918549a	0.015569842685218927
249	0xbfc7f25e26403a7b	-0.18708397739142754
250	0x3fb33fb2e0037a6f	0.07519071549493515
251	0xbf852c89cbe16900	-0.01033885625308928
252	0xbf76d62e05eeacca	-0.0055753515033913435
253	0xbf9578bacb5cd6df	-0.020968359625121443
254	0xbf9f22eea9fed6e6	-0.030406693578433862
255	0xbfb3b6fa63cbcf11	-0.07701077400616564

block_1.0.bias f8 [64]
0	0xbf80746a876fb273	-0.008034546144665122
1	0xbce9a8e0def3b37b	-2.8487968936865807e-15
2	0xbdf192dd76d10196	-2.557308729504285e-10
3	0xbf38efa73e5af857	-0.0003804953870306707
4	0xbea14255d7827802	-5.143619281782529e-07
5	0x3fb2568ccd7f590b	0.07163314835574768
6	0x3f95238a411a7888	0.020643387054058354
7	0xbdca699a54189cf4	-4.804407784110748e-11
8	0xbe44d4577a5bd41c	-9.699473068022915e-09
9	0xbf8b7909e7c4d820	-0.01341445673515912
10	0xbf752ce94f4cb84e	-0.005169783941523743
11	0xbf54506be8ce13f2	-0.0012398771097832354
12	0xbfa30e8f37989a1b	-0.037220454727776985
13	0xbf723c8b49edf692	-0.004452270600152313
14	0x3fa20b89b22cb7b0	0.03524427700027333
15	0xbf0a093afd841d17	-4.965983652210399e-05
16	0x3f47a9faa80bb686	0.0007221673878043545
17	0xbf5073e3dc33fc0d	-0.0010041928479152002
18	0xbf88690a87c882c1	-0.011919100064063827
19	0xbe239bcfa63360f9	-2.2827458132139325e-09
20	0xbf71883de0925337	-0.004280320842686084
21	0xbfab1c931e9a42e2	-0.052952382550875546
22	0xbf049628ed130a67	-3.9265750851243124e-05
23	0xbf1c96bf09e9c701	-0.0001090578175338107
24	0x3f946874f483f818	0.019929721282999052
25	0xbfa1f08d0b2353b9	-0.035038383111590084
26	0xbf09345b8cd887a4	-4.807381047223995e-05
27	0xbf96d440f5f168a6	-0.022294058810395832
28	0x3fad13d8b01dbd0b	0.056792041300349615
29	0xbfa5ef12a0ceb3bb	-0.04283960545522044
30	0x3f94b5651fe315a4	0.020223217078429237
31	0xbb0546c081113f3f	-2.1999256008215124e-24
32	0xbef0d9f860da31c1	-1.607079143765996e-05
33	0x3f8418c8e7b23ab6	0.00981289822655405
34	0xbfa8b73ef699f5d5	-0.04827305565138899
35	0x3fa1f8767f9a0578	0.03509874637257843
36	0xbef9be8fcee88bf5	-2.4551755752121697e-05
37	0xbdf1a83665c69b82	-2.5694433193596194e-10
38	0xbf54125b4c53a688	-0.0012250796874532528
39	0xba7a8b47760cf00f	-5.360530057600121e-27
40	0x3fb2b1bafc08b8cc	0.07302445080924541
41	0xbd8efa3ca5189228	-3.5217326362534324e-12
42	0x3f94d233ef5f8895	0.020333110318354903
43	0x3faf6109a5a08ed3	0.061287213771974124
44	0x3fad7011ef0d6a2d	0.05749565165634283
45	0x3fb3901a1a9b522d	0.07641757154062452
46	0x3fa15b988ef9a91d	0.033901946499854875
47	0xbfb0352514b95290	-0.0633109260173319
48	0xbed36f92ab7fbb4b	-4.633863390764526e-06
49	0xbfa4a2aec4d24a9b	-0.04030367043119051
50	0xbfb18bdf571aa2eb	-0.06854053379596407
51	0xbf508dead9771104	-0.0010103982402692177
52	0xbf5178717d4a0166	-0.0010663135809921508
53	0xbf8d865836a54284	-0.014416398208284116
54	0xbe0861ffa7fa0e26	-7.096330883623783e-10
55	0x3f5e594254be973a	0.0018523357166286406
56	0xbf27f154b101085e	-0.00018266829329333356
57	0x3f9b1c20b3cf3dae	0.02647448632688814
58	0xbf8742fbae2db96d	-0.011358228924760206
59	0xbb93c375778fd21f	-1.0462715688442934e-21
60	0xbf07260300eff118	-4.415222803541753e-05
61	0xbfa45861d1e568ad	-0.03973680197914695
62	0x3f8e1ac160c05657	0.01469946934234227
63	0x3fa62eeac3fd7082	0.04332669870811491

fc.weight f8 [1, 3008]
0	0x3edfdff6d2305ec6	7.59955881603881e-06
1	0xbec4dd5c108f2f48	-2.487264400196773e-06
2	0xbee0a2d46cb71f36	-7.932688638314857e-06
3	0x3ec912570e3b83de	2.988772495147038e-06
4	0x3ebd95453082864e	1.7632893918668267e-06
5	0x3ed17f22a7df5c23	4.1715198885938725e-06
6	0xbe976c32835d1209	-3.490246201951987e-07
7	0x3e415a7890d11bb6	8.080807601308057e-09
8	0xbec209b421e5b900	-2.1502858224476578e-06
9	0x3ee47b81e7e5bf6b	9.766793706872137e-06
10	0xbef8354ff3150f6f	-2.308678739849863e-05
11	0x3eed0748f3a54c88	1.3841846897710725e-05
12	0xbee4027e82f11450	-9.541388946607759e-06
13	0x3ec1b9d7be43f4fa	2.1130976951543573e-06
14	0x3ed51c85e8919555	5.033354349403181e-06
15	0xbedfae7c2d81bd71	-7.553477836194089e-06
16	0x3ec601a11d3d8eff	2.6233630964644533e-06
17	0xbee0e9df39f3a9fe	-8.065015036658355e-06
18	0x3ea5c59871830b68	6.488519117764696e-07
19	0xbed601a4ea72fdd2	-5.246740023056667e-06
20	0xbec5d95f63d2b92b	-2.6046170931915778e-06
21	0x3ece3ba5734e6399	3.6040536550260586e-06
22	0x3ec503ddebe19e3d	2.505195737124103e-06
23	0x3edc7eb83f681cb8	6.793737148409039e-06
24	0xbed06fb99e8a2e5d	-3.918749350472267e-06
25	0x3ec0f26707c4ecf9	2.020226075453315e-06
26	0x3e9b72bace48e1dd	4.090095002992701e-07
27	0xbee2a3637141d7ff	-8.887403545747989e-06
28	0xbedc61593b340f7d	-6.766383126025649e-06
29	0xbec9a950d584c691	-3.0590760326181146e-06
30	0xbed4c6b9ed96f794	-4.953449854237352e-06
31	0xbec781531bf730d8	-2.802035140558623e-06
32	0xbeb9398b4f81c550	-1.5035141683018942e-06
33	0xbec04c6391238072	-1.9429200018711773e-06
34	0xbe93f8756a183c0f	-2.975842595406654e-07
35	0x3ed98ade03f6c336	6.08979468046181e-06
36	0x3eeb31d39060cca0	1.2967412214326326e-05
37	0x3ee5918c7bc841e9	1.0284686021073404e-05
38	0x3ed7c81860697450	5.669980515846348e-06
39	0xbec75d1f62a4c8a6	-2.7851772489646482e-06
40	0xbea81ecb6b487b59	-7.18840701244851e-07
41	0x3ee224d99867ceed	8.651707287455713e-06
42	0x3ecab11c64df0756	3.181915224610106e-06
43	0x3ed73c2002291da9	5.539623119838791e-06
44	0xbeb6e8bb7092fb55	-1.3654893698392368e-06
45	0x3ea52d74c5a63f08	6.311405614123787e-07
46	0x3ec2b831de422219	2.2315395984998985e-06
47	0x2991223b8180c9c0	1.8238673436467204e-108
48	0x2991c49e0878d978	1.891389634998751e-108
49	0x29547f96a6ad4513	1.363770813481386e-109
50	0x298249a3da176c4f	9.733513331853262e-109
51	0x298720c8f7e2c5cc	1.2309797309297198e-108
52	0x29a07095dc78ceca	3.4999975774982744e-108
53	0x2963ef292c1082c9	2.652472395675082e-109
54	0xa98d0327d3397058	-1.5441665101969817e-108
55	0xa98639f678596f33	-1.1829898917160828e-108
56	0x2b36bc4a03a329c4	1.6241496766341107e-100
57	0xa9933c74b900f061	-2.0476694980647937e-108
58	0xacab0756eb3776bb	-1.6197054125935093e-93
59	0xab33ee9fa18e281e	-1.4238853491868033e-100
60	0x29d44e9d28ee0672	3.458670192899585e-107
61	0xa985fa480d542149	-1.1697500232944146e-108
62	0xaa19738897df090e	-6.935720066522788e-106
63	0xa98e5620b9fff46d	-1.6146416233952968e-108
64	0x2b00958478c6a29d	1.480887736594177e-101
65	0x2c9180c7f1cae565	5.244391653435138e-94
66	0x29979b93ee234f7d	2.513018729070289e-108
67	0xa974d0f7c22d0b1e	-5.539680397795144e-109
68	0xa9f70142c7d2aa5f	-1.5672647647397393e-106
69	0xa989a8cd8c3c4a52	-1.3657079606865987e-108
70	0x296f1c69fe55e62f	4.1396673729466857e-109
71	0x2bb789a775a5ff5e	4.304529190635201e-98
72	0xabbd22be9f3ceb82	-5.328281907714967e-98
73	0xa988e6c1cfd6a83a	-1.3253642395648291e-108
74	0x29626b81d346ef03	2.4509814435013713e-109
75	0x297372eed92dbd93	5.175804874507448e-109
76	0x2970d1dde2c15999	4.476124917166899e-109
77	0xa98e28c1d3a613b5	-1.6052086825436794e-108
78	0x29c64dafd0eb19e1	1.89934507930007e-107
79	0x2987eeee9e30e7aa	1.2738393959867003e-108
80	0x2a67ae5719b20049	2.065056100850177e-104
81	0xa9904dec17074def	-1.7355852749292476e-108
82	0x2b2a2c5d153e78ca	9.348670798325435e-101
83	0x2b8fc8c103f08759	7.265786866811675e-99
84	0x29aa608f20be2189	5.615649499379982e-108
85	0x2994b8317b39ce3a	2.2055705075850423e-108
86	0xa989c2fa29a1693e	-1.3711498073100076e-108
87	0x2a23f5170ae9003f	1.0877150041264208e-105
88	0xa983bf4d176a3236	-1.0510385364754123e-108
89	0x29904526e0d52c43	1.731938416232755e-108
90	0xa9754fa098f552cd	-5.671348166514992e-109
91	0xaa184e77e7d95cf1	-6.623755118522105e-106
92	0xa9a5128e14f2cf49	-4.4862887842094984e-108
93	0x29ed064478ff19f7	9.886806404107389e-107
94	0xb01d886e62059cae	-6.37628496555384e-77
95	0xadf219edd9b1c5d9	-2.2748391078206523e-87
96	0x2ebd4ca63edb755e	1.5082040909195015e-83
97	0x2c672a359483ae20	8.676037701878506e-95
98	0x2c513573cd6ee33b	3.2226409554200306e-95
99	0x2c0206dedc5751d4	1.0549477701272844e-96
100	0xabc03c4a3a35e3c5	-5.938233760235369e-98
101	0x2ddec309710a5f9f	9.664823023010732e-88
102	0x2b650fb1e0af9161	1.2036404714228339e-99
103	0xaba8d471e6b44871	-2.270417626371666e-98
104	0x2bee4c2e9208c776	4.4326090671292037e-97
105	0x2cb3726df5aed6da	2.3307395814451425e-93
106	0x2f626d19a6d39899	1.9425235955332274e-80
107	0xac4177e1dcf53917	-1.635617618823708e-95
108	0xabc0dedc34cb1dce	-6.170503413869268e-98
109	0xab51c0f1a2422acb	-5.07306010873637e-100
110	0xae75f279754b1668	-7.060893744081904e-85
111	0xac6127ba7989e9c7	-6.425203464455211e-95
112	0xab870159de900b48	-5.258948434061631e-99
113	0xb3453a76f1224371	-1.0320665386361501e-61
114	0xabb0d216fe0dcc2c	-3.0761289769960593e-98
115	0xb0bda638d2b91579	-6.5550436263580854e-74
116	0xab8c0069103b7508	-6.401095865026459e-99
117	0xacd4a03c005e2a52	-9.888139378778895e-93
118	0x2ee40c63c2507b3f	8.256022333970554e-83
119	0x2d33b5825d7cd108	6.047088973219899e-91
120	0x2b6bacad771bd383	1.5815814778553115e-99
121	0x2e0d9f610beadff7	7.445503345249808e-87
122	0x2f7ace71493c1379	5.6519708952440715e-80
123	0xafb4f576b90d00c9	-7.070472628410523e-79
124	0x2ffbe2547732762d	1.505073745033353e-77
125	0xac377ed6989d8229	-1.0999814878234189e-95
126	0x2d2332376780ac59	2.944866666207916e-91
127	0x307078512f70e7f0	2.275801588602836e-75
128	0x2cd8ebe0c2b004d5	1.1947409536492806e-92
129	0x2bfdbf0dd4bdb29e	8.703910737274535e-97
130	0xab827460488642be	-4.218673688718342e-99
131	0xac8c7e754975a8f1	-4.268786531404289e-94
132	0x2cac7a50804a5b96	1.7065446407107802e-93
133	0x2b348c31073117d7	1.467854633423813e-100
134	0x2df509e0b3096998	2.643977717848561e-87
135	0xac4b5a3263857582	-2.561095260542498e-95
136	0xaea43e7511c89c7d	-5.210351058618658e-84
137	0xad8fbe9c7a06dcd6	-3.116741728006252e-89
138	0x2d6155a476a5843c	4.254844039250607e-90
139	0x2e5435ba790fb2de	1.6254922449615973e-85
140	0xb021a7891ebf2c0e	-7.62333426792603e-77
141	0x3676d89d104da903	2.5011148553606323e-46
142	0xbb64c9be12c6b044	-1.3756381873417442e-22
143	0xbb3c2388921297ed	-2.327587201412375e-23
144	0x3326ce9d9bc8b419	2.772048526254028e-62
145	0x30b7d3e95c33b4f8	5.2679864430451554e-74
146	0xba0d85a4acf48dfe	-4.6577572708173346e-29
147	0x387e9ee1c459e45e	1.4397752176488648e-36
148	0xbb3783817f56d04e	-1.9450072405011026e-23
149	0x373398ee7e1e8f91	8.7877732042734e-43
150	0xbae076e069f51991	-4.255937770636133e-25
151	0xbadd24f7f4a245dd	-3.766826512087021e-25
152	0x37d306a5c2882ad3	8.736295502613434e-40
153	0x351419045e31edd8	5.245750441338912e-53
154	0x3556be7bd5588531	9.498369765008381e-52
155	0x3589a860eed135f8	8.572134102720424e-51
156	0xba75964bc13c48b3	-4.359478799832172e-27
157	0xbb14b13b433cb30b	-4.279069524049598e-24
158	0x347eb9b74ca7c2dd	7.831755347650077e-56
159	0x371e6b21000f9c28	3.410028680978539e-43
160	0xb77a35ba6fb50141	-1.8804663833207962e-41
161	0x34c145d71b40d1db	1.4088795899779915e-54
162	0x371e64922e036d6f	3.4071569419816255e-43
163	0xb924b0ca0066190e	-1.992430600838243e-33
164	0xbb31d1e00d4e00be	-1.47402137688252e-23
165	0xba2815f09436153c	-1.520021506816984e-28
166	0x37b72d79ab2112ec	2.6606623297347212e-40
167	0xba7e77eff5264dbb	-6.15306562631066e-27
168	0x36efa797a9d7661d	4.43576235747418e-44
169	0xba7483d5e75b8635	-4.142967755105387e-27
170	0x363a5f641119f8a4	1.8044879303998352e-47
171	0xb8384b46d5d3301c	-7.139379518845076e-38
172	0xbae419bd96df9827	-5.195870175551958e-25
173	0xb844467f6926a6c5	-1.191679828558891e-37
174	0x3693710fc9a80793	8.51360946791583e-46
175	0xb82b69d85ea1ce8f	-4.028045595926658e-38
176	0x372d6c0febe494d5	6.596666990322549e-43
177	0xb73892f4c59696db	-1.101938397257112e-42
178	0xb91a0124561e79ee	-1.2520692387202753e-33
179	0x39c66c65df2bbce0	2.2111208557465927e-30
180	0xb691962d9cc720ea	-7.701288282017042e-46
181	0x37d4c64ecd18ae3b	9.539246818304985e-40
182	0xb6b2de55474e7c35	-3.305048038210617e-45
183	0xb3b69c2d299d90f4	-1.4070277448942162e-59
184	0x368227e88adaa04b	3.975284948390788e-46
185	0x3443690a0bee8c00	6.184481427044142e-57
186	0x3675cc560dfd186f	2.3863880855537067e-46
187	0x35843d975103734e	6.76229188502549e-51
188	0x3200d7ab63be7f74	7.809019040394172e-68
189	0x3246df30b9bd4b63	1.6967271875708894e-66
190	0x33e4958df814e282	1.0247662054980774e-58
191	0xb5a2d637101acdf0	-2.5173137335270297e-50
192	0xb321b8f120c54e40	-2.154041961488417e-62
193	0x3484e686132b7f91	1.065484509325085e-55
194	0xb3da1f1351062fce	-6.5021519876839486e-59
195	0xb42621b527ff8897	-1.7628892606704063e-57
196	0x349b8b9cf21baf3d	2.8084669352753e-55
197	0xb3c9b22f3e1388a4	-3.1981361639827526e-59
198	0xb37cf873e8cf8ea1	-1.12677487554851e-60
199	0xb3d14a3f0f76a98a	-4.303843520832639e-59
200	0xb4122fea2e720e5c	-7.243457188403238e-58
201	0x346bcd6ce0d733fb	3.5433477133602473e-56
202	0x3266fd03acbc844e	6.821478575183899e-66
203	0x346140717217cefd	2.1986874542920485e-56
204	0xb4b07a014d2b2111	-6.719669780033635e-55
205	0x34b1816ee4e1c506	7.139334949276173e-55
206	0xb3c4422f408258d1	-2.521383270563342e-59
207	0x31226e5648de8b36	5.215789319467957e-72
208	0xb3c14fd47ce2ff50	-2.1546364054243505e-59
209	0xb3b2813dbd515d60	-1.1515595381207151e-59
210	0x32f0ffe32ce82497	2.5827276041468286e-63
211	0x33ff623321dcec46	3.1248092311964706e-58
212	0x31e4f4b75b2c75b8	2.4290574286338536e-68
213	0x3332238e676956ca	4.409320309967562e-62
214	0x34708fa5336d639d	4.221340411837347e-56
215	0xb207355fd23f9e25	-1.076063579301647e-67
216	0x3416c75e2cd3eb3d	9.072172838821388e-58
217	0x347b2bbbe40f17a9	6.925702180993287e-56
218	0x3423033061c15c29	1.514429572756835e-57
219	0xb3d5b6a6eb6626be	-5.404933828639954e-59
220	0xb32f96a4ed6172f7	-3.8393639142295076e-62
221	0x31ed9a573dfc83c7	3.431351107024189e-68
222	0xb148dace51675d53	-2.813453541968791e-71
223	0x3416191c86fc9199	8.801072721725057e-58
224	0x341b1e398111df61	1.0800392477017301e-57
225	0x34164776a5d5ce28	8.873185074434576e-58
226	0x325e260ee9a77495	4.473104553526808e-66
227	0x322a7f7223d1d433	4.9142966998626505e-67
228	0xb2244e3a83fc88bd	-3.765879181339984e-67
229	0x32d72bc13410e524	8.800840408103041e-64
230	0x34c0b30b0794da98	1.362107311510877e-54
231	0x34adc614a8fb1a51	6.0713375573272605e-55
232	0xb29cf36f7d62c3d1	-6.8726355419834225e-65
233	0xb0d32027a8992950	-1.691360765180084e-73
234	0xb2c0155cdd1c721d	-3.05442944655724e-64
235	0x3fa4a322a0aa16af	0.04030712329135377
236	0x3f8987e7c9a99d6d	0.012466250268700485
237	0x3fa3117284d7c01f	0.037242487636717884
238	0xbfba53a58e887e29	-0.10283884744466633
239	0xbfb5c0f609bb933f	-0.08497560250868917
240	0xbfae27b931500d81	-0.05889681555711502
241	0xbfa3c06a71fdf0ec	-0.038577391066583505
242	0xbfa480ce543738d1	-0.04004521158241093
243	0xbf9224233b7fd1a2	-0.017715979105518927
244	0xbf74b1b0e4c9d953	-0.0050522718344068905
245	0x3f9590b85e8e7002	0.02105987622381634
246	0x3f82c2af55ce9000	0.009160394483679113
247	0x3fa438f47148efae	0.03949703104851153
248	0x3fab35c111403ee8	0.05314448676665312
249	0xbf9e64fc7cb25dc2	-0.02968210707748909
250	0x3fa021f4fe766869	0.03150907140953125
251	0x3f88844ef52d603d	0.011971108300414918
252	0x3fab6e96328c50c7	0.053578084631369864
253	0x3f5dd079a8ce665f	0.0018197238998482119
254	0x3fa326747cd50400	0.03740276359395267
255	0x3f95f540029f503d	0.021443367157033533

fc.bias f8 [1]
0	0x3fcf31e2c6e2c29f	0.24370989524097283

exp_avg f8 [64, 1, 9]
0	0x3e400f1ba5fa1165	7.478061891298069e-09
1	0x3e5afdabfceb739e	2.5137239674218488e-08
2	0x3e5c3ea612a126d2	2.6304946811300722e-08
3	0x3e5b95a75b6d18cc	2.5690146644783397e-08
4	0x3e5a211b37abbbb2	2.4334827024065795e-08
5	0x3e5b196ea913539c	2.523823156438923e-08
6	0x3e5aed3c7b1fbc77	2.507744740331938e-08
7	0x3e603dedb97fa157	3.0252912341772253e-08
8	0x3e5f431c77a768e2	2.9115148939215193e-08
9	0xac4c556f89874323	-2.652987372715926e-95
10	0xab05494a8ddb0252	-1.9007785534471166e-101
11	0xabc369d5aace0f79	-7.100572909313095e-98
12	0xab46510490e82d28	-3.188431324627976e-100
13	0xab86cb27abff4cee	-5.2105535584793854e-99
14	0xab16b3b2fda97bbf	-4.054381645618251e-101
15	0xaaa50e89bc034101	-2.9379448866427984e-103
16	0xaab2d45db6fc8c85	-5.254380839599735e-103
17	0xaae13e1c46f9f35f	-3.8492375162022454e-102
18	0x3891afd50960a65c	3.326525714004953e-36
19	0xb8f4c10fc0455dc9	-2.4981895244928743e-34
20	0xb996bec1ac61a3cc	-2.8035552931697086e-31
21	0xb9c7de08d2ebd76a	-2.3534996687870774e-30
22	0xb9911c913280b3db	-2.109166374828981e-31
23	0xb9c4f2b401cc1539	-2.0656381168222866e-30
24	0xba26c45f7e937404	-1.4368048814320782e-28
25	0xb99245ee66332b8a	-2.2523419665697264e-31
26	0xb99b1f6e1a4dd0d3	-3.343139981226923e-31
27	0xbda7298e84d0f6b1	-1.0533008623730495e-11
28	0xbda0b088ae25af52	-7.58954482775829e-12
29	0xbda84e78b4afa8cf	-1.1053329819525267e-11
30	0xbda3a2e528613a00	-8.929559576026089e-12
31	0xbdaa0a6b446d0714	-1.1841939007777232e-11
32	0xbd95f7526384ac98	-4.994513097347766e-12
33	0xbd91dd9f1f9b5d5e	-4.062191983707315e-12
34	0xbd8b04f2589bf627	-3.0717413788436817e-12
35	0xbd8430b3a2d996f5	-2.295364655521574e-12
36	0xbc4f3b9ebde946f9	-3.386276822995251e-18
37	0xbc73c2347e880648	-1.713786534463591e-17
38	0xbc97e81711392311	-8.294268736667525e-17
39	0xbca2143906ea3f17	-1.2544822932630943e-16
40	0xbca3a5afc5b38b91	-1.3632992874882245e-16
41	0xbc9dab681b5265a3	-1.0293695511452865e-16
42	0xbca0e5e0da945ad7	-1.1725316722488523e-16
43	0xbc8cd384cfe79a82	-5.000556445006556e-17
44	0xbc86478d16e30b7d	-3.864876579090342e-17
45	0x3f5a174ccaeacfb2	0.0015924692085435952
46	0x3f5f2f232a0bb794	0.001903328266219505
47	0x3f5ea1d4c0fa932d	0.0018696382211739846
48	0x3f5ee1c47ea27359	0.0018848818677163674
49	0x3f5dac7febe0fddd	0.0018111466629447883
50	0x3f52a9861972e85d	0.001139050442175569
51	0x3f5425d002963fb1	0.0012297183369333992
52	0x3f4f8c85786ed150	0.0009627963744294563
53	0x3f4dc4d0a6ac8aae	0.0009084719471029368
54	0xbf2a4c5d93fd3c31	-0.00020064012823659127
55	0x3f397f200996ab2d	0.00038904697575030644
56	0x3f4d1afb91a2e44b	0.0008882263530473137
57	0x3f59f83a12bc52f6	0.0015850607987363797
58	0x3f551c390b56ff7d	0.0012884671281056797
59	0x3f24c0c1f1d593be	0.00015833251465405084
60	0x3f6070b71ace67ab	0.002006871820822339
61	0x3f62543c26538a3d	0.002237431983858755
62	0x3f60ac6d6e17fcec	0.0020353448205693205
63	0xbb66b99a0b521240	-1.503814802170046e-22
64	0xbb550e7fd6446b44	-6.967057133165445e-23
65	0xbb16dadfdc688db3	-4.7262987473068365e-24
66	0xbb0207e39afc8841	-1.864342753757364e-24
67	0xbaf0ab33913a1c96	-8.617544669613898e-25
68	0xbacc949f4e77cd5d	-1.8469751307835823e-25
69	0xba91bcfd7f72e93f	-1.432883864101948e-26
70	0xba737ec1f2fbb6fa	-3.937013569024287e-27
71	0xba1c95ed098ccc62	-9.020040111079566e-29
72	0xb9d94acf7733afde	-4.988012503163201e-30
73	0xb9b2becf9a301c80	-9.242173699262087e-31
74	0xb9d8bf68231f98d9	-4.880619855567107e-30
75	0xb9f51db62ab7adca	-1.6657634912939545e-29
76	0xb9edd985d5a526ac	-1.1773630051456095e-29
77	0xb9ac19720ebd465a	-6.9270360819032265e-31
78	0xb99bd3ba0a6a249f	-3.429949652100928e-31
79	0xb953ac2f51450cdf	-1.515521746396483e-32
80	0xb93abc68ec26464c	-5.1491616750923936e-33
81	0xbec7e4c4e24709a2	-2.8483425628955014e-06
82	0xbec837c3505f45a3	-2.8869895940328854e-06
83	0xbec877f95fdaeb9f	-2.9168902518617144e-06
84	0xbec9e3017e5df159	-3.085940067869074e-06
85	0xbec9e04d40859a05	-3.084680887766079e-06
86	0xbec94f2d27df22f4	-3.017101618294952e-06
87	0xbec846a25323f38d	-2.893914506361988e-06
88	0xbec73e5cbd9834fa	-2.7708533536565366e-06
89	0xbec741883dbf3cef	-2.7723294646408442e-06
90	0xbec0eb35f1abe389	-2.0168771589470727e-06
91	0xbec10799fa6e6b37	-2.030097636174755e-06
92	0xbebb3e8683207485	-1.623883246988022e-06
93	0xbec36e7dfecbdfeb	-2.3164284271813462e-06
94	0xbec11a395b0877b4	-2.038769445058197e-06
95	0xbec672c98254324f	-2.676056299782862e-06
96	0xbec121a41c0b586d	-2.0422232583734827e-06
97	0xbec2594796b8123e	-2.1873412856552104e-06
98	0xbec10dc3c4edc6c5	-2.0329676212953574e-06
99	0xbe74c67b0a9f4cfa	-7.739407928359217e-08
100	0xbe75ffff2b1f01de	-8.19563392975558e-08
101	0xbe7863df24aab79a	-9.086029099477956e-08
102	0xbe7aebdd1f3600e6	-1.0028981716446754e-07
103	0xbe7638db21487262	-8.278374991799072e-08
104	0xbe746dd0bac0f116	-7.610382962790012e-08
105	0xbe718ee93917f8a3	-6.540956423020941e-08
106	0xbe64f7490112612c	-3.905213941910404e-08
107	0xbe61e6385953b4f7	-3.334003932120356e-08
108	0xbefd62756c7cb79b	-2.8023342365894257e-05
109	0xbefd6442db267371	-2.803005708927907e-05
110	0xbefd068d09a30078	-2.7680959285403668e-05
111	0xbefd41b9382d8e3c	-2.7901394342845354e-05
112	0xbefcef7f5191a1ce	-2.759507797059514e-05
113	0xbefd09b205da232c	-2.769267336203138e-05
114	0xbefccd2a51d4c04f	-2.746718120255647e-05
115	0xbefca6f763086e27	-2.732487900135145e-05
116	0xbefc87fb95d50765	-2.7209456097361003e-05
117	0xbe7bea3ed6da1a48	-1.0399155822059825e-07
118	0xbe78e20fb6ece8b6	-9.269659327358368e-08
119	0xbe7ab29ea51acce8	-9.945680659144454e-08
120	0xbe7e4857a7d4d3fc	-1.1281142949378867e-07
121	0xbe7ebccd0e65fc88	-1.1450612511474047e-07
122	0xbe7b3a11dec63f23	-1.0142786494569142e-07
123	0xbe794643a45d5570	-9.415473653286653e-08
124	0xbe74c96b72d0871c	-7.74368486699121e-08
125	0xbe74274537f6d115	-7.507726528557864e-08
126	0x3f2bca4201d1c633	0.00021202140570468624
127	0x3f4077dce70adb9a	0.0005025700212034523
128	0x3f2923043d7ca602	0.0001917784381871152
129	0xbf02b31192bdc8c7	-3.566644076515159e-05
130	0x3f1d8c1286d6974d	0.00011271346166682774
131	0xbf23e42d8728163c	-0.00015175872574972767
132	0xbf352b8281f87746	-0.00032302795622906157
133	0xbf438c9188442f10	-0.0005965910536658032
134	0xbf40169b17b2cb45	-0.0004909760749768141
135	0xbe089a64d8f78563	-7.160444892692614e-10
136	0xbe15f5de19d336dd	-1.2782646948742423e-09
137	0xbe236987e3b3870b	-2.2598809747231784e-09
138	0xbe2621f4128d3d8e	-2.576577302569053e-09
139	0xbe24266183d29363	-2.3457600571885717e-09
140	0xbe195cb0c8efb2fe	-1.47626691751725e-09
141	0xbe188496305a24af	-1.4271305815998026e-09
142	0xbe042b408a310f41	-5.869938045904143e-10
143	0xbe0a3440702e2acc	-7.62639923747901e-10
144	0x3f0ebb6a8192fc3c	5.861681729290482e-05
145	0xbf22d92da1e0fe2c	-0.0001438015178241032
146	0xbf4ba41e72957df4	-0.0008435391111269439
147	0x3f26912ccbc297f2	0.000172173231367256
148	0xbf4e66ff81ad4092	-0.0009278056707931073
149	0xbf2e9816d9fe0480	-0.00023341444920891088
150	0xbf3ab069337cc418	-0.00040724342715054004
151	0xbf2d252f49627fd8	-0.00022236063222624727
152	0xbf12de13c3831a11	-7.197375896615006e-05
153	0xbe0c67d2335e7ff8	-8.26710344919192e-10
154	0xbe10378a39b390b7	-9.439508955788147e-10
155	0xbe1177d8b23f22f3	-1.0167801678625626e-09
156	0xbe171d25e6597c79	-1.3454036993846964e-09
157	0xbe20b1c7a8642d1e	-1.94349009379836e-09
158	0xbe057888712f6d38	-6.248834525956695e-10
159	0xbdff7f1820877f5d	-4.5833384355987227e-10
160	0xbdfae17fe7535758	-3.9116796548897783e-10
161	0xbdf2f5d4e7422004	-2.759083857723473e-10
162	0xbecf2fe9c6f29871	-3.7177992947167025e-06
163	0xbecf5bdff4d9a2b7	-3.7382705276210905e-06
164	0xbecc5cc9424ae597	-3.38106703376131e-06
165	0xbec7ed72dcfaabe8	-2.852384319703458e-06
166	0xbec7211b0697533d	-2.7572296416957007e-06
167	0xbec692defb576544	-2.6909965195996857e-06
168	0xbec406e234f3da96	-2.3873912265951994e-06
169	0xbebfe6fe87bfebc4	-1.9015265300115347e-06
170	0xbebe85125a574440	-1.8191225107276138e-06
171	0xb8d79473d9d1f552	-7.095815862623561e-35
172	0xb8ee4e7286cdf971	-1.8240022107892224e-34
173	0xb9594612ef9e587d	-1.947017062326651e-32
174	0xb9941985f167b45c	-2.477479309730477e-31
175	0xb984d51c7ef0305a	-1.2838998465480415e-31
176	0xb9c4e43d1ceac0d3	-2.0600666210743784e-30
177	0xb9c00cf889bde422	-1.582718000808595e-30
178	0xb9808947c1ff844d	-1.0191251625395395e-31
179	0xb9aeb79863e829c3	-7.572366804810427e-31
180	0xbe98f32715276005	-3.7178121661601517e-07
181	0xbe966e185b6517d8	-3.3423392710831397e-07
182	0xbe937b31f26e1c21	-2.9029296160675663e-07
183	0xbe770237813c1f76	-8.571393577902043e-08
184	0xbe81be082c9545db	-1.3219052722805865e-07
185	0xbe78979eab9243fa	-9.161332571924191e-08
186	0xbe66ce880c514a6e	-4.2480907271607244e-08
187	0xbe7815d73bafb9f6	-8.972479197098677e-08
188	0xbe91598f7f66fce6	-2.5853284970826744e-07
189	0xbf7e1ba9a47b75ee	-0.0073505999241354324
190	0xbf815af920f52f30	-0.008474298780718564
191	0xbf805363b3bc97ab	-0.007971552775028664
192	0xbf8130366b8f4640	-0.008392739446125508
193	0xbf822dacb60e2803	-0.008876179986845761
194	0xbf822ffe687e785c	-0.008880603374390166
195	0xbf843bf963b59441	-0.009880016665826942
196	0xbf845ae622e49b9d	-0.009939001026010358
197	0xbf83407351ae4e15	-0.009400273256495098
198	0xbc65c7d24f10ed69	-9.445809069125904e-18
199	0xbc58c89e28b78f5b	-5.3741003217837085e-18
200	0xbc8fab720c34e59e	-5.493818764413532e-17
201	0xbc81692d2d301b14	-3.020300257970212e-17
202	0xbc846c877b11a372	-3.542989213123612e-17
203	0xbc76083c8726299d	-1.910986437048835e-17
204	0xbc827ef5a99f9830	-3.2085334413067416e-17
205	0xbc50d7515612e348	-3.651828154609295e-18
206	0xbc54eb85268b513b	-4.536301990804872e-18
207	0xbd688d7fc15528bb	-6.978305759655265e-13
208	0xbd6fa4f243bdae9b	-8.993857154742989e-13
209	0xbd83fd4ddc69b69c	-2.272539554086616e-12
210	0xbd86f59850bf5b3d	-2.6101765114234144e-12
211	0xbd8475422cd55075	-2.325809987536172e-12
212	0xbd8064c87fed35fd	-1.8637461360904525e-12
213	0xbd74bf1e9b98edae	-1.1793054447933992e-12
214	0xbd63fd0f5d98def6	-5.681077854734707e-13
215	0xbd5e0b07330059b8	-4.269378252024853e-13
216	0xbf61f06dd24a2e6c	-0.0021898407888494755
217	0xbf61e68f54159cc1	-0.0021851348289377574
218	0xbf61b5f812e26226	-0.002161964911533215
219	0xbf64ce78967876b2	-0.0025398593168251766
220	0xbf5b84d72097d574	-0.0016796208241179585
221	0xbf6231a33a2139d0	-0.0022209346798611543
222	0xbf5998bdc51407ea	-0.0015622952672065212
223	0xbf530c4f4db01d43	-0.0011626028488097163
224	0xbf573e65d476bcb5	-0.0014186853821731963
225	0xbf741c209e2086b0	-0.004909636891200428
226	0xbf6cda114451ea38	-0.003521951412549098
227	0xbf6db9e97fe53975	-0.0036286888636489164
228	0xbf71ec8d5f18a786	-0.0043759844134373446
229	0xbf66bb099419c642	-0.002774733264964608
230	0xbf6e5e2ca37b6190	-0.003707015213745453
231	0xbf687f3df6b31b11	-0.002990361235421964
232	0xbf6792260270c205	-0.002877306210870014
233	0xbf6448aa4523645f	-0.002476055678112973
234	0xbcdd7a71ca66e374	-1.6363743031299005e-15
235	0xbcde14729ccc17cd	-1.6697684261822059e-15
236	0xbcd2e9d574336a14	-1.04990534589455e-15
237	0xbcd6d6cdb7705b5b	-1.2678234287726256e-15
238	0xbcd311317866a4cc	-1.0584400637680981e-15
239	0xbcd417e42de8d889	-1.115403630032536e-15
240	0xbcc09420ddceabfc	-4.601493214794202e-16
241	0xbca565f335f1ac7d	-1.4848013340408183e-16
242	0xbc93cc69de3d3fc7	-6.868981223867371e-17
243	0xbf8488b51ec83c04	-0.010026373865029477
244	0xbf8176e5117c08b4	-0.008527555080494721
245	0xbf84798bc8ee1ef5	-0.009997455663110591
246	0xbf827b7466cc7b9e	-0.0090245336410229
247	0xbf83a26287460bea	-0.009587068322394605
248	0xbf7f4e05aae1ed3f	-0.007642767084799217
249	0xbf7e563ea068eba3	-0.007406468043479916
250	0xbf805d67165bd55a	-0.007990651483377565
251	0xbf75ca853bb9d6e6	-0.005320091669650506
252	0x3f71b72d69278192	0.004325082193162537
253	0x3f6d6b21f4ef8321	0.0035911238878586636
254	0x3f712306a0f53f8c	0.004183793920063194
255	0x3f6fcb40c8e312a0	0.003881098301550104

exp_avg_sq f8 [64, 1, 9]
0	0x3e020027383780f0	5.238863652210129e-10
1	0x3e0640d165e2f4cf	6.476532190521702e-10
2	0x3e06be58e682e231	6.619242489390163e-10
3	0x3e067d12c34d3256	6.545034571633033e-10
4	0x3e0609adc7ad7def	6.413846254065388e-10
5	0x3e065123241f4db7	6.495085096881035e-10
6	0x3e06483bcbf32c44	6.484962774241484e-10
7	0x3e08ac4892877c7a	7.18078295660554e-10
8	0x3e08051d5ca51ea7	6.990734044507573e-10
9	0x3dcfb45ceab4f7b9	5.767022739421999e-11
10	0x3dc4fd00191af24d	3.8177463914307896e-11
11	0x3dca342057255259	4.7664104341572464e-11
12	0x3dc6666533c9ec9d	4.074532939657066e-11
13	0x3dc9308a527c7e0b	4.5819634814428594e-11
14	0x3dc55576fcef46c5	3.880604138101398e-11
15	0x3dc24099103cfdd0	3.3200804978335434e-11
16	0x3dc3d92fe94c176a	3.610400621016123e-11
17	0x3dc3ee2a40df245b	3.625306314605439e-11
18	0x3e1268ea549b5c45	1.0715928859777897e-09
19	0x3e14817fd3013af8	1.1935979531308082e-09
20	0x3e1707dc50353b4a	1.3405634942673659e-09
21	0x3e18272ef57fad51	1.4058931432176595e-09
22	0x3e16e6e77b658a2f	1.3330700827812728e-09
23	0x3e18195217a83e9a	1.4027411165171325e-09
24	0x3e1ac7fcdad1b927	1.5588711253068358e-09
25	0x3e16f583eb050c13	1.336392257341291e-09
26	0x3e17218fb86668af	1.346407181579533e-09
27	0x3e4b6b875a7a650f	1.2768448367453515e-08
28	0x3e4a4ae45e7b78ff	1.2243421345712186e-08
29	0x3e4b90de086db7a6	1.2836366870233137e-08
30	0x3e4ade0bb383fa51	1.2511092259846431e-08
31	0x3e4bdadf1f485987	1.2970979825849718e-08
32	0x3e491c74cca04e86	1.1693293795084163e-08
33	0x3e4881c4eb134156	1.1411919716853172e-08
34	0x3e47cdb09572100c	1.1084357138967309e-08
35	0x3e470f28b691f0c2	1.0737783733563153e-08
36	0x3e35f4cf549c0a9b	5.112096809888567e-09
37	0x3e3890b4b5d76e1e	5.719544696768442e-09
38	0x3e3b712e952d0695	6.389365775015278e-09
39	0x3e3c3de99e8a8fa7	6.575567181605547e-09
40	0x3e3c622d440e19a5	6.6085493196515855e-09
41	0x3e3bcff902634b17	6.475577440765775e-09
42	0x3e3c04ae0907f796	6.523514298627542e-09
43	0x3e3a7e69d5f4911f	6.1685690715870735e-09
44	0x3e39fca6db20850e	6.050551547662628e-09
45	0x3f1ed9ea6b0188bc	0.00011768811487081454
46	0x3f1fbd9a92de65fb	0.00012108093207387892
47	0x3f2018f67d463890	0.00012281426337463043
48	0x3f1c0967b82302e3	0.00010695167114517126
49	0x3f1a3c05327eda68	0.00010007650109753743
50	0x3f10959d8bb876aa	6.326459963942413e-05
51	0x3f03463fb4d9b12f	3.6763018766846455e-05
52	0x3ef2eee3d7bf1a75	1.8056072334871797e-05
53	0x3ee98d582796d745	1.218420333058311e-05
54	0x3f2914e5d4cf3600	0.00019135766561222123
55	0x3f2d1657f5e3d6af	0.00022191833244960188
56	0x3f266c8b8550b87d	0.0001710815728598914
57	0x3f2ee41fbb0b8cca	0.00023568045937514263
58	0x3f2a0e8216a31952	0.00019879663461192882
59	0x3f26770bd368b824	0.00017139453275788572
60	0x3f295d971aa55cff	0.00019352407009407682
61	0x3f254b750414ccb3	0.00016246608178391783
62	0x3f2377ecee8d8ed2	0.00014853255495516374
63	0x3e28a3041ce048cc	2.868098847836556e-09
64	0x3e27dd179502ab50	2.7780934567402557e-09
65	0x3e25474ff834b4c5	2.4771508747431734e-09
66	0x3e248dcb81a90b58	2.392787313151355e-09
67	0x3e23f2e1b44fdca1	2.322340905080713e-09
68	0x3e22db4667ee1c53	2.1951905288677943e-09
69	0x3e2148482fd681be	2.011930509956386e-09
70	0x3e2091c4120226f2	1.9289318060084407e-09
71	0x3e1d7f41126ba2e9	1.7169564187779157e-09
72	0x3e1bcc9934181892	1.6181271464900563e-09
73	0x3e1a9c9140db6edc	1.5489984880086305e-09
74	0x3e1bc7bfad676d4c	1.617024449771005e-09
75	0x3e1cb8f899d92604	1.6718720638750223e-09
76	0x3e1c730a4a04fef5	1.655971616844038e-09
77	0x3e1a6bd56a8dc59e	1.5379177187087195e-09
78	0x3e19f93391f05cfd	1.511853371448792e-09
79	0x3e182762f344ab8d	1.4059393207568974e-09
80	0x3e17985d85272aa4	1.3734200622374043e-09
81	0x3e8d4894bfdc24e1	2.181792239585868e-07
82	0x3e8d722ecccf7883	2.1938999453149704e-07
83	0x3e8dafae45eee669	2.2117982020706396e-07
84	0x3e8f4541e8bdfb88	2.3298365580886907e-07
85	0x3e8f3506fcc0e7b0	2.3251129588498965e-07
86	0x3e8ebeec957df6e4	2.2907404217600225e-07
87	0x3e8d97ea9bd26305	2.204881876285751e-07
88	0x3e8cab4a2393fad8	2.1360144034778653e-07
89	0x3e8c963c81da6999	2.1298871015903389e-07
90	0x3ea21fdad1356383	5.401501845066819e-07
91	0x3ea21ed9a7b15c72	5.400332406907482e-07
92	0x3ea35710bf1432cb	5.763798737470794e-07
93	0x3ea5120c28da7876	6.279497754729146e-07
94	0x3ea493f18328f3d6	6.132693271609402e-07
95	0x3ea40574083b0128	5.966812896760245e-07
96	0x3ea40b52ff003468	5.973647585491897e-07
97	0x3ea361c9c737b283	5.776281696824406e-07
98	0x3ea42658cbd5e55c	6.005106098348474e-07
99	0x3e8394354a9a7a3e	1.4587445678212586e-07
100	0x3e84aa5b4f7c434f	1.5396964391696335e-07
101	0x3e8510473b1e5032	1.5693595184203487e-07
102	0x3e86c875d44e5a2c	1.6974693486651634e-07
103	0x3e85d2e7e7277704	1.6260036124389633e-07
104	0x3e8593d1d9ee7f78	1.6076431294271055e-07
105	0x3e84cc67160568c9	1.5496051287528185e-07
106	0x3e83f9a9a6d52252	1.4882717228939188e-07
107	0x3e83a8b28677ba79	1.4647077083104825e-07
108	0x3ed0327f5cd9d766	3.861726737155535e-06
109	0x3ed035fa9079860c	3.864968909890388e-06
110	0x3ed0ffe3b347d92e	4.053012891072536e-06
111	0x3ed1ad02ae50521a	4.21424440324007e-06
112	0x3ed194b041b979ce	4.191592804041233e-06
113	0x3ed134ca8033951e	4.102281312178407e-06
114	0x3ed0937cce3d1fc1	3.952055724294692e-06
115	0x3ecef2703c097b03	3.689172871453886e-06
116	0x3ecf0694ef034d8e	3.6985528525186037e-06
117	0x3e824224696c7335	1.3603544309842915e-07
118	0x3e813a5e06212f44	1.2835858159904288e-07
119	0x3e81e2a32210d6c4	1.3325588191371954e-07
120	0x3e82b67730176e8e	1.3942089797837317e-07
121	0x3e82ce6eec576b5a	1.4011845032756734e-07
122	0x3e825697364b1211	1.3663057098744798e-07
123	0x3e81a302e071c576	1.3140412155917292e-07
124	0x3e806814ac744de8	1.2223843824013592e-07
125	0x3e800e0591c8fba5	1.1961737635294946e-07
126	0x3f0261063a1d7c0d	3.505516293843972e-05
127	0x3f04f22a9744df76	3.9951252718882954e-05
128	0x3f03397f8b0b1dc2	3.666801911133721e-05
129	0x3f007cb3a4db6cf8	3.1446678446756264e-05
130	0x3efe23c38e0bc566	2.8743460350482383e-05
131	0x3ef6158373fa8e7e	2.106097895072803e-05
132	0x3edd1ed3abeebd13	6.9428485280208824e-06
133	0x3ee1bbef99a12bfe	8.456289652644316e-06
134	0x3ede88659df357b5	7.279586923666515e-06
135	0x3e520189741c52aa	1.6769397654416782e-08
136	0x3e543b57ad697a67	1.884233821258929e-08
137	0x3e5681cc7a3e110c	2.0961301707836256e-08
138	0x3e57aa3868b33096	2.2039677233240968e-08
139	0x3e570f367ef0920a	2.1475763330987462e-08
140	0x3e55a87044920e5b	2.0170549928673706e-08
141	0x3e55a0c0917a5966	2.0142587235812227e-08
142	0x3e5253505301ea09	1.706690006028507e-08
143	0x3e538f8e10ad9ff1	1.8217378754305056e-08
144	0x3f3b940a33bd15b0	0.000420811167476688
145	0x3f3d81f9e1e95882	0.0004502520622841137
146	0x3f359833c0125ec5	0.0003295065253694325
147	0x3f379ef06127345d	0.00036042565002675724
148	0x3f300211c641137c	0.00024426397272164064
149	0x3f3374b796d49bb2	0.00029687387616877524
150	0x3f2f4ede22b9bff8	0.0002388616716078038
151	0x3f3100a4f600c44b	0.00025943782202648
152	0x3f20a936cea7c93f	0.00012711328538690146
153	0x3e5a6959a3bd88f4	2.459764857023322e-08
154	0x3e5b1ff4b9b71755	2.5261964615452813e-08
155	0x3e5b5ecd38a88a19	2.5490595892871793e-08
156	0x3e5cd83b0e2d4bf4	2.6863674738971677e-08
157	0x3e5ec87c907304d1	2.866904316441389e-08
158	0x3e58f1a4bb7b3d51	2.323083567076247e-08
159	0x3e579c856e63db63	2.19898400816191e-08
160	0x3e5705936ee0a142	2.1440704260770083e-08
161	0x3e55b6d9be4639f3	2.022298052763559e-08
162	0x3e8872651ebba97b	1.8214326701706743e-07
163	0x3e88a7282a001929	1.8367884013787257e-07
164	0x3e87667d6037f063	1.7434619802015295e-07
165	0x3e8576fe17d4dbde	1.5992533156937934e-07
166	0x3e8577d68757f58a	1.5994993744765224e-07
167	0x3e84e10a23144826	1.5556112623792457e-07
168	0x3e829e0c4ff3a59e	1.3871025570455314e-07
169	0x3e809ab5be5d28f4	1.2371194129730252e-07
170	0x3e8049965071d0e3	1.2135095792435707e-07
171	0x3e15a53150683e01	1.2599213353420156e-09
172	0x3e160135fe4ff00a	1.2808438695508533e-09
173	0x3e182a08fed6ed12	1.4065415458715081e-09
174	0x3e19a0cbb041be69	1.4917522226404595e-09
175	0x3e19374af56579e1	1.4677636515788814e-09
176	0x3e1afd7788a02086	1.5710308908841462e-09
177	0x3e1ace54009437e8	1.5603127698874469e-09
178	0x3e19153456e73f0e	1.4600128568052272e-09
179	0x3e1a4dfabae5cfc2	1.5311296497958669e-09
180	0x3e408014f5928902	7.683560165128252e-09
181	0x3e3fcc6835450678	7.403657093918852e-09
182	0x3e3e650f380e4a8c	7.076832343131181e-09
183	0x3e349e1b39c8d4d6	4.800409761147839e-09
184	0x3e37944863b42bc7	5.489967198954351e-09
185	0x3e3521aa6009d779	4.9200621360163136e-09
186	0x3e317f98a00a64b2	4.074169002729597e-09
187	0x3e3551285fc9995e	4.963256025440572e-09
188	0x3e3e0905aa4096fb	6.993124888225785e-09
189	0x3f72476a900fbe59	0.0044626391036071906
190	0x3f730f9f8fbbfedc	0.004653571402513736
191	0x3f72836f9a37034e	0.004519878336794415
192	0x3f727d377c12beaf	0.004513947236020207
193	0x3f7315f64754eb3e	0.0046596164950710155
194	0x3f72538670a76541	0.004474187046491552
195	0x3f73dbb1d4705011	0.004848189018066066
196	0x3f70f05d7b688ebb	0.004135480083764238
197	0x3f6c70eeded8da4a	0.0034718194426901815
198	0x3e2740ed78d6495c	2.7070780675226896e-09
199	0x3e2687881a78f752	2.622769740782431e-09
200	0x3e29d08e1ee5a6fc	3.0052229517205044e-09
201	0x3e28e37b77c31a90	2.8974146954055817e-09
202	0x3e2921129523c50f	2.925422717540466e-09
203	0x3e28393d71189ade	2.819997465376097e-09
204	0x3e28fb408e003451	2.9082239810851332e-09
205	0x3e260dedb8bca7e0	2.567471074195031e-09
206	0x3e26516dfafa602f	2.5981669800197875e-09
207	0x3e4a8fa287b6f34e	1.236846380077844e-08
208	0x3e4b4b0341d0380f	1.2709302105544534e-08
209	0x3e4e7546a08f6e11	1.418316221580488e-08
210	0x3e4ecb3130b6e33f	1.433944298618886e-08
211	0x3e4e4fd80635ae43	1.411507372677507e-08
212	0x3e4d7d1f906b8520	1.3731775284075989e-08
213	0x3e4bf0087902921c	1.3009472416282196e-08
214	0x3e49d1a4c81b3a26	1.2022871812188308e-08
215	0x3e48f7430d5a72ed	1.1625637712323504e-08
216	0x3f22eb3bf269c63f	0.00014433962606434818
217	0x3f1fe82d6b02c82a	0.00012171532830754285
218	0x3f2b677fa6bda0bd	0.00020907815212046167
219	0x3f24f12fce6c2d9f	0.00015977581571067782
220	0x3f240bb33f603199	0.00015293658333382919
221	0x3f29c84f36395136	0.0001967045492273862
222	0x3f23d0e9cc6130b7	0.00015118459686148052
223	0x3f21a2d0962e0c1d	0.00013455196593889574
224	0x3f1f11e1a9e0ad8b	0.00011852207032408115
225	0x3f6564393b372804	0.0026112668799429545
226	0x3f61a23c0d2f1f09	0.002152554786764575
227	0x3f6182a9e98df1d6	0.0021375006294290606
228	0x3f5d96fbbdc1a8da	0.0018060167704115255
229	0x3f5bb8cd79fad4bd	0.0016920096021924424
230	0x3f5758abb26701e8	0.0014249493338952483
231	0x3f578500ace79a31	0.0014355188937941294
232	0x3f522a37257c19cf	0.001108697751932664
233	0x3f4decc68fa9b5ad	0.0009132356202152158
234	0x3e3fc68714c978f3	7.398309809045236e-09
235	0x3e3fd48265e520d8	7.411026096901702e-09
236	0x3e3e959c69f047df	7.120989713707513e-09
237	0x3e3f6227f361e0f7	7.307022367485635e-09
238	0x3e3f0dee1a228fc7	7.230419292944634e-09
239	0x3e3f6a7bea716789	7.314596628990395e-09
240	0x3e3d498df51f7b1d	6.81898611358495e-09
241	0x3e3b10e83617203b	6.301804274110528e-09
242	0x3e39e9d38224368c	6.0334297855215896e-09
243	0x3f505d1b6d34aac9	0.0009987609708540948
244	0x3f4a15afc1a6956a	0.0007960422693044482
245	0x3f4afe082bb66ea6	0.0008237399955990001
246	0x3f47bc2a4c47df07	0.0007243353398384841
247	0x3f4cba0e691b1322	0.0008766718258007326
248	0x3f461c33b327ccd4	0.0006747486534649746
249	0x3f3bba6cdb6c3c5d	0.00042309911388910775
250	0x3f3f04d7ecbb0ba1	0.0004733111534102556
251	0x3f3ae5ef187ec071	0.00041043364808058316
252	0x3f2146646291eaaf	0.00013179755595501194
253	0x3f20f2cec7646542	0.00012930654674717974
254	0x3f2189554dfb541f	0.00013379255596271484
255	0x3f20e39c514586cb	0.0001288536374302512
