dl_experiments/best_checkpoints/google_5min_CNN_cuda:0_checkpoint.pt (torch, 158811 bytes, 12 tensors)

block_1.0.weight f8 [64, 1, 5]
000000 7c b5 37 02 21 c7 87 bf ee 92 6f 2a 3a 89 89 bf
       -0.011610277061630418 -0.012468771381415302
000010 71 2c e2 72 5e ed 85 bf f0 18 e2 85 34 a4 86 bf
       -0.010706651574102307 -0.01105538400248604
000020 ab 48 31 21 15 ac 8b bf 2f f7 8a e7 8a 5a 81 bf
       -0.013511815143065617 -0.008473477545858891
000030 0a 36 06 f6 6f 2a 72 bf 4c 24 e8 ec 40 2d 76 bf
       -0.0044350026586363975 -0.005414250960265109
000040 19 d9 eb 2e de 36 72 bf 56 be cc 86 50 9e b7 be
       -0.004446857360326705 -1.4077673100124574e-06
000050 d9 5b 4e 8a 2e 01 55 bf 7d a3 3a ee 43 9a 7c bf
       -0.0012820200438221545 -0.006983056405865604
000060 52 3d 5a 9b 4f 12 80 bf 51 00 8c 63 61 00 50 bf
       -0.00784742539261055 -0.0009766532004391768
000070 0a cb ca 38 91 80 47 bf f6 94 8c 52 b4 b6 98 bf
       -0.000717230710128498 -0.024134461916351456
000080 62 33 a9 af a8 79 9a bf ec e6 3d fe 09 32 9a bf
       -0.02585471698903364 -0.02558150877255276
000090 a0 5c 24 9b 84 34 98 bf 53 e7 50 ff 19 27 98 bf
       -0.02363784024154525 -0.023586660583738105
0000a0 45 99 db b0 8a e1 c9 bf 7b 04 de 0f e8 39 c4 bf
       -0.2021954883159173 -0.15801716589706757
0000b0 65 3e dd 12 7e e4 b0 bf 76 b2 f7 2c d8 4d c7 bf
       -0.06598651848366328 -0.18206312366182303
0000c0 b8 64 55 ff 3f c9 73 3f 43 3f f3 97 a0 61 b8 3f
       0.004830598821478897 0.09523967466088572
0000d0 e6 f8 97 f5 fe 09 bd bf 64 25 79 1e 38 9c c3 bf
       -0.11343377586306111 -0.15320493209791686
0000e0 7b 67 29 df 3a c1 a9 bf 98 1b 52 17 83 7d bd 3f
       -0.05030235265867496 0.11519641227105948
0000f0 1e af 6a ae 5f 0f 5a 3f ef 54 ea 9a 2b 6d a4 3f
       0.001590579451355496 0.039895403538290235
000100 c3 c6 ac 0f 51 8e a5 bf 04 c3 4b 1a 45 6a ba bf
       -0.04210141483635035 -0.10318405048361617
000110 72 4a 78 ca 15 00 b8 3f 34 d9 44 a5 be 8b 66 af
       0.09375129883873415 -2.3768310626279315e-80
000120 00 7a 9c 8f df e2 e2 af 04 36 b8 e9 69 5f c3 2f
       -5.097019120178817e-78 1.3070780286315142e-78
000130 2a 5f aa 78 80 9f e4 af 49 84 56 dd 69 47 61 b0
       -5.565755345168197e-78 -1.1937920270327644e-75
000140 ae 64 7d 2a be 3e 99 3f cf 36 b5 80 b1 e0 a3 3f
       0.02465340742432847 0.038823649369630446
000150 b4 eb 29 12 50 b9 b7 3f 4d 48 16 0e b8 30 cc bf
       0.09267139857722279 -0.22023678481906686
000160 b7 5e 44 c0 02 e3 bf bf 41 2b 0c 23 cc 5a d3 bf
       -0.12455765909214277 -0.30241683409319725
000170 39 d4 98 77 90 e3 cf bf 67 28 ce eb 60 56 c3 bf
       -0.24913221206375782 -0.15107356561594829
000180 57 a9 50 0a 04 d0 d4 bf 11 3a 1c ad d6 66 d4 bf
       -0.3251962757809869 -0.3187767687349217
000190 8a 5e c0 b2 c5 69 9c bf 8b 2b 9b 77 4d b6 9d bf
       -0.02774723914634917 -0.02901574175374892
0001a0 7c 52 51 d2 1c 69 9a bf 52 29 06 4e ba 6a 9b bf
       -0.025791597687503373 -0.0267743215677368
0001b0 5b 25 dd 87 80 50 9f bf 1b 49 5c 19 d3 dc 83 bf
       -0.030580528538199796 -0.009698533259812117
0001c0 6f 7b 98 b7 a0 bd 82 bf fb b7 2a 6b 23 03 83 bf
       -0.009150748827833259 -0.00928332968518574
0001d0 9e 50 cb 82 ff c3 83 bf 41 09 98 37 f9 7f 83 bf
       -0.009651180438062842 -0.009521433838931006
0001e0 39 9f 6f 6e d8 bd 9f 3f 3f ac bd 32 2f 93 8e bf
       0.030997640362243593 -0.01492916940306632
0001f0 6e 53 97 76 be 0f ab 3f 6c 23 a2 8e c8 ac 90 3f
       0.05285449216504544 0.016284116464280116
000200 b8 16 6e 5d 4b e7 a9 3f 90 9e e7 4d 99 c3 92 bf
       0.05059276118758532 -0.018324275379113575
000210 9b 9d 5a df cb 52 93 bf 49 77 b1 d4 ba f5 93 bf
       -0.018870530612415597 -0.01949207232643538
000220 35 b7 e4 67 61 e6 93 bf 12 4a f9 81 48 a6 93 bf
       -0.019433519331122546 -0.019189007695169798
000230 b4 1f f1 2c 74 35 84 3f e7 2a 5f ef 0e fa c3 bf
       0.009867580052869453 -0.1560686749274602
000240 f3 c9 ac 08 93 7a b4 bf 23 15 f6 23 ba c6 ca bf
       -0.07999533616820269 -0.20918967014237308
000250 6b 3a 99 98 50 95 d4 bf b7 8b c3 20 e6 e3 a2 bf
       -0.3216134538860504 -0.036894980906957135
000260 0a b2 39 05 f2 d0 a2 bf 62 4f f6 1a 73 9f a2 bf
       -0.03675037683283129 -0.03637275413635056
000270 ea e3 44 df 99 a7 a2 bf a8 72 39 6e f0 ca a2 bf
       -0.03643494463398851 -0.03670455308449522
000280 80 c8 ee 03 5e 87 c7 bf 83 81 18 26 6b cc c5 bf
       -0.18381858055142075 -0.17030085907118683
000290 81 31 80 90 17 b9 a8 3f ea 35 9b 18 64 10 b1 bf
       0.04828714026379811 -0.0666563568185762
0002a0 33 bc 87 f5 33 9f ca bf 0c 47 e1 da c7 45 c4 bf
       -0.20798348892955829 -0.15837953746318367
0002b0 c0 fb 03 ca 3c 7a b0 3f 50 d1 30 8f 09 67 c5 bf
       0.06436519557972442 -0.1672069501088438
0002c0 55 ea 04 e8 ec 21 bf bf 78 46 50 69 a3 43 ba bf
       -0.12161141075640931 -0.1025945789445134
0002d0 b4 a2 80 32 3b f6 9e 3f 40 3d 85 d1 d2 b7 90 bf
       0.030236172635485573 -0.016326231039156314
0002e0 1b 67 cf 7b ea cb a3 3f bd 79 93 4b 29 4c 60 bf
       0.03866513024668291 -0.001989441542362884
0002f0 62 46 4b 2a a5 11 80 bf 5b d9 1f 8b 62 32 c1 bf
       -0.007846155503474953 -0.134350126201478
000300 ce 36 03 b5 6e 50 c4 bf 87 3a cc 24 01 36 b6 bf
       -0.15870460356238997 -0.0867615427816678
000310 3a 43 51 55 b4 09 c1 bf 94 48 9d 69 8e 22 cd bf
       -0.13310865560426938 -0.2276170745558984
000320 a2 79 90 d0 67 87 3c be 56 c5 8f ef 09 0c 21 be
       -6.642408630968488e-09 -1.9845350887726436e-09
000330 12 9b f3 29 56 83 22 be 65 d5 5c db fa 09 86 be
       -2.155200753636739e-09 -1.6420322673244276e-07
000340 c9 1d e7 f3 6f 61 2c be 4d 1b 84 b8 08 44 7b b8
       -3.303938372214975e-09 -1.2820297832081586e-36
000350 08 16 a2 b2 6c 86 00 39 30 d6 0e 11 c9 b6 e6 3d
       3.978272175785998e-34 1.6526614150887293e-10
000360 36 c8 82 a8 4c 40 e0 32 74 5a d2 66 5c db a8 b1
       1.2345126635850212e-63 -1.8007673303440885e-69
000370 e7 8d 08 1e a4 4a c6 bf f7 62 fd 2e f6 28 b8 bf
       -0.17415286509013514 -0.09437502524577811
000380 05 4f a4 66 0b 5c ac 3f 80 ea 24 63 a7 29 86 bf
       0.05538974407150302 -0.010821635926381079
000390 2a 16 a4 0e 60 22 a1 bf 6a c1 e2 87 ae 06 a1 3f
       -0.03346538714144416 0.03325410279046788
0003a0 f5 74 db bf 51 18 b5 3f 25 74 b3 09 92 07 bb 3f
       0.0824023335839746 0.10558426606026268
0003b0 1c 99 5f 96 26 f9 cc bf 70 55 a6 44 6e 92 c7 bf
       -0.22635347692921293 -0.18415621139562743
0003c0 13 30 17 bc 28 cd bf 3f dd c7 39 f2 59 8e bc 3f
       0.1242242297368537 0.11154710925782703
0003d0 00 b4 7b 3d 9d 4d d6 bf a2 24 e2 ec 62 3f c9 bf
       -0.34848719600887534 -0.19724690023966668
0003e0 94 43 29 86 f5 72 d4 bf 91 96 45 89 4b de a6 3f
       -0.31951654531172236 0.044664726740660694
0003f0 f8 b0 06 12 1e a0 77 bf 36 a2 4b ef d0 18 9f 3f
       -0.0057679342866487834 0.030368103604731377
000400 37 4a 92 06 33 63 d3 3f c4 bc 8f 09 9e ec d8 bf
       0.3029296459364192 -0.3894419759153147
000410 b8 8e c2 0a fb 49 b7 bf 63 6c b8 b7 9b f2 8e bf
       -0.09097260487265657 -0.015111176056100633
000420 ff 26 2b 46 e4 b4 c8 bf bc 02 4c 83 1c 10 d0 bf
       -0.19302037645530132 -0.25098336049999737
000430 da a9 8e ee 3b 75 c6 bf 29 1c 48 1e af 58 8d bf
       -0.17545270107559824 -0.014329307662604833
000440 75 0e 4c 9d 2c ea 8d bf d8 40 1b 94 61 04 8f bf
       -0.014606808233572391 -0.0151450751613144
000450 50 38 21 a7 02 7c 8c bf 07 51 4a 2a 11 e4 89 bf
       -0.013908405995746304 -0.012642034628961086
000460 b3 f6 db fd aa 0b 96 bf 14 c8 8b f1 45 e7 b0 3f
       -0.021528884643876988 0.0660289492332427
000470 ab b4 4c 65 00 5c c1 bf e0 01 9a 32 6d cc a5 bf
       -0.13562016435881694 -0.04257527582831577
000480 43 10 5a 7a e9 c6 b6 bf 8d 33 74 b3 bf 31 bb 3f
       -0.08897265660385849 0.10622785693358434
000490 58 ff c0 7c 33 49 8b bf d9 28 b4 16 e8 15 c3 3f
       -0.013323213810622 0.14910603626805743
0004a0 f7 36 11 f1 4e 72 ca bf bc 12 dc b0 08 62 cd bf
       -0.20661341448651857 -0.22955425868726376
0004b0 fb a5 e1 28 31 15 c2 bf 93 97 ad 80 8f 73 b8 bf
       -0.14127172943271646 -0.09551331416659385
0004c0 b0 b3 c6 f5 87 11 ac bf a4 6b 20 23 39 36 9d bf
       -0.0548212516326666 -0.028527157563171493
0004d0 f5 0b f2 bd c3 b6 a2 bf 34 57 5d 1c 15 07 95 3f
       -0.036550633370119025 0.020534829956282155
0004e0 20 18 cd 82 41 cd 66 bf 3e e6 34 ac c2 2f cd bf
       -0.0027834205160699593 -0.2280200329640127
0004f0 c9 42 4e 94 fa b4 cd bf 40 ea 06 0d fc dd cc bf
       -0.23208553544511393 -0.22552443157276691
000500 dc 0d 4e f6 02 43 c9 bf a3 55 e1 58 30 21 c1 bf
       -0.19735753084761043 -0.13382534351209782
000510 94 e3 29 d9 28 18 c2 bf db 45 30 3c 29 57 bb bf
       -0.14136229137127698 -0.10679872245261583
000520 e1 2b db 17 97 d5 cc bf 29 60 56 83 04 c9 8d bf
       -0.22526825585222723 -0.014543566949939262
000530 13 f0 cf dc ee 43 7c bf e6 97 de d5 29 a1 8d bf
       -0.006900723511531498 -0.014467551078109108
000540 03 e2 bf a2 12 65 90 bf d4 b7 75 36 c1 70 8e bf
       -0.016010562117999793 -0.014863500093920047
000550 6a 14 88 a2 f0 10 19 bf 95 96 de ce 89 71 e6 be
       -9.561985701374431e-05 -1.070189906810939e-05
000560 0b 4b ab 3a 12 fc c9 be 96 85 6e 07 9b 26 ec be
       -3.0976120418494717e-06 -1.3423348930010828e-05
000570 16 b4 b8 ba 21 ba 06 bf 5e 7e bc 42 21 ad 95 bf
       -4.3348459567084534e-05 -0.02116825074983663
000580 af 93 7d aa 33 ac 96 bf a6 7d be 82 6f 9a 96 bf
       -0.02214127281276362 -0.022073500018107282
000590 39 3e 2b 5b c0 d5 95 bf 6a aa 63 f6 0b d3 96 bf
       -0.02132320934725682 -0.022289454377565944
0005a0 a7 b7 8f 88 1e 7e 84 bf 91 57 71 59 67 51 79 bf
       -0.010006178419612 -0.006181148251092853
0005b0 3a 81 cf 9c 25 a1 82 bf 7f ca 4e 68 d7 c5 82 bf
       -0.009096425865153013 -0.009166415091248268
0005c0 d9 08 f2 5f 6b 8c 83 bf 51 5d 08 cd 8a ad b7 bf
       -0.009545172563097658 -0.09249179368668094
0005d0 98 0f 14 d3 e7 4a c8 bf ee 3e 32 e6 d4 ef 64 3f
       -0.18978593641815844 0.002555766886480507
0005e0 93 99 90 75 f3 c4 b6 bf 60 b7 f7 06 16 3b c4 bf
       -0.08894273395762857 -0.15805316295830618
0005f0 7a 77 61 38 6b 51 b0 bf d9 a3 98 e8 e1 49 b0 3f
       -0.06374235273821496 0.06362735680217159
000600 92 65 61 22 2a f2 b3 3f 54 00 c6 9f 15 c3 a6 3f
       0.07791388835302929 0.04445712638244062
000610 c5 7c 94 05 24 8a c1 3f 9f 14 a6 ea 64 ba ac 3f
       0.13702821991407724 0.05610957493176127
000620 d5 4c cd e6 4d 24 c1 3f 4a 2a cb 95 40 9e a7 bf
       0.13392041940333024 -0.0461292441228421
000630 d0 90 8d 29 c3 8d b8 bf f8 52 02 9e d5 8e b4 bf
       -0.09591312183835332 -0.08030448062556761
000640 36 3a fd 31 45 2b ac 3f 56 93 45 41 47 c9 bc bf
       0.055017626144593754 -0.11244626372861197
000650 de 8c 65 4e ce 68 c3 bf c8 4e 03 30 e4 1c c4 bf
       -0.15163592174494672 -0.1571316942632761
000660 c4 be 77 65 9d 90 b9 bf 6c 1c 54 18 36 d6 59 3c
       -0.09986289717903235 5.602454898591505e-18
000670 4f 20 4b 84 d8 1e 7e bd ca ed 45 07 7f f1 6a bc
       -1.71215170233508e-12 -1.1684813077934943e-17
000680 9f 93 70 b5 da e1 a3 bd b8 7f 63 f4 71 d5 37 be
       -9.041397552513273e-12 -5.549232023736411e-09
000690 37 54 c7 1b 8d ba 80 bf b0 60 f6 d7 df 71 74 bf
       -0.008168318186031793 -0.004991411580157187
0006a0 88 13 62 5c 76 ac 6b bf 6c 30 f6 6d 40 f3 7f bf
       -0.003378134893014143 -0.007800342252618813
0006b0 1f 14 10 ea 62 5c 87 bf e9 02 7e 8c 89 37 c2 bf
       -0.0114066817932415 -0.14231986389133702
0006c0 d0 ee e7 2a b5 64 99 3f 0a 8c 5f 1d 9d 76 c4 bf
       0.024798231834195772 -0.15986980375518584
0006d0 44 99 c9 e5 ba 3f cb bf 81 bf 28 04 f1 a3 d4 bf
       -0.21288238735287213 -0.32250619321984436
0006e0 b6 b0 3b bb 90 a0 cb bf f7 a4 88 aa 9e 1f b0 bf
       -0.21583756582493202 -0.06298247970029879
0006f0 ac df 52 e1 35 92 ce bf b7 ad dd 31 39 38 c4 bf
       -0.23883698942313225 -0.15796580252513845
000700 c3 4a 72 85 de 8c ca bf c3 c9 b8 68 6c 64 cb bf
       -0.2074239875406275 -0.21400218118067302
000710 45 4d 3b 24 79 d4 cf bf 4a 78 62 ea c6 3f c6 bf
       -0.2486716677582114 -0.17382132000506295
000720 18 a8 ae a1 9c 78 d5 bf 37 0d 57 fe 5a ac d7 bf
       -0.3354865626266714 -0.36989474141974504
000730 68 ad f6 8a ae b0 95 3f c8 4d e9 cc e9 b0 c2 bf
       0.021181800109542875 -0.14602396493374514
000740 b6 55 e0 34 40 ef d2 bf 50 75 7e 57 04 61 d5 bf
       -0.29585271037771166 -0.33404644531568284
000750 dd 7a 48 9e 91 61 d0 bf 47 e7 6d d1 fe 60 cb bf
       -0.255955128262867 -0.21389756418266812
000760 ce 44 f1 76 9b b4 c4 bf 96 1d c0 bb 96 0b bd bf
       -0.1617616968892776 -0.11345808109046226
000770 7c da 34 6b 03 8e c1 bf b7 e5 da 95 c3 95 cd bf
       -0.13714640364351627 -0.23113293473379112
000780 ab 9a 62 a2 55 00 b1 3f e3 40 2c f8 ea 5d ba bf
       0.06641135420305015 -0.10299557265193786
000790 c4 80 60 82 65 da b7 bf 1f bc 29 b9 fd 0d 95 3f
       -0.09317621644049995 0.020561184336141843
0007a0 e4 84 98 05 4c 2f c7 bf 91 1e b2 a7 30 4c 44 b0
       -0.18113088868361793 -3.505872905656329e-76
0007b0 fe 61 59 bf b1 d9 71 b0 4b 40 d3 87 cd 21 36 30
       -2.466540652790591e-75 1.9113604861391625e-76
0007c0 52 55 b5 a6 d6 47 ec af 8a 80 eb 4e d6 e5 f3 30
       -7.632381034653722e-78 7.038597783698654e-73
0007d0 d6 a9 3d 08 e4 44 94 bf fe f5 34 f8 a6 a4 ce bf
       -0.019794047358496623 -0.2393997871349
0007e0 62 b3 b0 e6 44 d6 b4 bf 05 b1 0d d8 68 b4 b5 bf
       -0.08139448768697613 -0.084784081218178
0007f0 09 bf d5 5d 30 13 b3 bf fa 06 3e 3e 7c 6b 9a bf
       -0.07451154986278764 -0.025800648974388253

block_1.0.bias f8 [64]
000000 84 c3 65 68 1b b5 96 bf a2 4c 26 fd d0 90 99 bf
       -0.022175243613165488 -0.024966493083024795
000010 21 b2 06 24 21 8d 84 3f 72 88 62 e2 4f 5d 9c bf
       0.010034808074885384 -0.027699707214772613
000020 d2 74 be 25 9b 08 c4 3f 8b 02 f4 da 64 01 8a bf
       0.15651263564078605 -0.012697971279068262
000030 38 74 16 37 de 37 55 3f 68 43 8e fe 29 1a f1 ba
       0.0012950582571200752 -8.841631867302187e-25
000040 e0 5c 4e 2e 94 96 87 3f b4 35 d2 07 1f 2d bf 3f
       0.011517675078535239 0.12178224507279972
000050 68 3d b0 76 43 0c a0 bf 11 94 f5 fb bf 84 91 bf
       -0.031343563307127564 -0.017107963326811474
000060 b6 e4 f4 af 71 34 bf bf dc 41 37 25 28 72 98 bf
       -0.12189398332420151 -0.023872973700976505
000070 3e 80 5b b4 d9 1a a5 3f 0e ac 29 f1 85 46 a3 bf
       0.04122047735813837 -0.037647424401107896
000080 a4 56 70 27 c5 a5 ab 3f 54 05 1d c0 56 ca a0 3f
       0.053999100746449785 0.03279372305997677
000090 d0 6a 28 3a 94 ef a7 3f eb b0 24 90 da 85 bc 3f
       0.046749717807150426 0.11141744631885657
0000a0 3b 00 71 a8 df 80 65 bf b8 7d e4 35 e9 6a 14 be
       -0.0026249283141908364 -1.188461960415441e-09
0000b0 22 87 a1 81 f1 47 89 3f 1f 0d 20 b1 f4 6c 69 3f
       0.012344252365611267 0.003103711999757799
0000c0 91 01 b6 be 55 33 a2 3f e4 ca e8 4d d1 0d a1 bf
       0.03554790452017465 -0.03330854488412685
0000d0 e8 da 68 3f 6f e2 a5 3f 9a 99 89 a1 12 8d 8f bf
       0.04274318360369539 -0.01540579371903732
0000e0 b6 5f 99 6d 8e a7 94 3f 52 f6 e7 87 fc 66 89 bf
       0.02017042678775712 -0.01240346231224546
0000f0 15 99 ee 4d e1 c6 54 3f c1 55 16 de e8 50 a5 3f
       0.0012681198347564472 0.04163291655565216
000100 08 4a 02 63 63 32 b3 3f 1b 93 f8 b6 e2 c1 80 bf
       0.07498761336527349 -0.008182307442504524
000110 16 9a 74 f3 34 76 8b bf 4b 44 46 45 63 ca 93 bf
       -0.013409055404349817 -0.019326735594919858
000120 9e 6c 3a cc da 66 97 bf d9 c4 1c 0e e0 f2 92 3f
       -0.02285329696188098 0.018504620419837223
000130 e7 10 74 30 a8 ce a2 bf 5a 60 89 e1 96 b4 96 bf
       -0.0367329177043148 -0.022173268809951054
000140 22 09 db 67 11 8b a1 3f ea 87 39 72 c8 1b e2 be
       0.03426412956970838 -8.634818704670412e-06
000150 8d 4b 2b ae b7 d6 6b bf 60 28 a0 43 ca 65 ab 3f
       -0.003398283720664924 0.05351097178943642
000160 cb 90 82 af 5b b9 b5 3f 1f c1 26 90 12 25 b4 3f
       0.08485959086334842 0.07869068164177805
000170 30 84 a4 ee 23 d2 b0 3f c6 b8 4b 43 1d 64 b0 3f
       0.06570648742901208 0.06402762310947016
000180 b8 9e 22 fe ed 7b 91 3f 0b bc 0d 2a a1 4a 56 bb
       0.017074316631492364 -7.375645820431848e-23
000190 f9 0e c2 ed 71 c6 b0 3f 4d 80 3c ee 5f 76 9b bf
       0.06552803091659233 -0.026818751254836837
0001a0 0d 6e c7 37 ed 93 a4 3f 2e 05 bc 99 1f 3c 36 be
       0.04019109064003255 -5.176956110109682e-09
0001b0 00 19 22 92 7a 77 32 3f 73 45 0a ea 45 d3 78 3f
       0.0002817796940991629 0.006060860731524331
0001c0 20 8e 8d 6f 21 72 a0 3f 5e e7 6d b0 a1 f5 9c 3f
       0.03212074743967386 0.02828076018656788
0001d0 26 06 cc 27 7e f3 70 3f 44 80 01 3c 57 72 a8 3f
       0.0041384628245864415 0.04774735076421213
0001e0 79 c6 4b c4 7e 20 8b bf ce 01 49 cf a3 90 9c bf
       -0.013245573392370634 -0.027895507361110287
0001f0 dc c3 3b b8 15 c1 9c bf 7b 7a 16 8b 1d 2b 9e bf
       -0.02808031022044931 -0.02946134721207237

fc.weight f8 [1, 6016]
000000 4f 4a 52 9e 14 73 0d 34 f7 fd fc d3 c5 e8 19 34
       5.864476673297991e-58 1.0318961564247136e-57
000010 6f 76 d9 a1 59 ce 20 34 ee de 69 40 ad a8 1c 34
       1.3386795282019635e-57 1.1414062897966401e-57
000020 b3 b3 0e 4c dd 42 24 34 51 3b eb c7 80 4c 24 b4
       1.6138968332740233e-57 -1.6168958937418763e-57
000030 93 34 b9 c0 87 1a dc b3 ba f9 e2 8f e5 33 11 b4
       -6.995573730833211e-59 -6.851379153227412e-58
000040 40 de ff b5 a6 74 ee 33 11 d1 b3 d4 67 8d 1e b4
       1.5162087382674717e-58 -1.216818161918913e-57
000050 41 82 43 71 bd c1 22 b4 0b 98 c6 4b c9 4f ee 33
       -1.4940650719770705e-57 1.5090396492375701e-58
000060 61 dc b8 83 d2 e6 1e b4 a8 0d 92 e5 35 d4 f1 33
       -1.230729204321605e-57 1.7751969928633956e-58
000070 ea 93 92 fb 7e 5b 25 b4 a5 5d bb 16 d3 ba 26 34
       -1.701215565132135e-57 1.8105317085496207e-57
000080 8d e3 04 e0 f6 07 25 34 21 21 05 c5 65 fe f0 33
       1.6752246220677614e-57 1.6920368963039608e-58
000090 34 1a 97 9e b3 c3 21 34 19 d8 11 5c 71 d4 06 b4
       1.4150208388221223e-57 -4.546257113024886e-58
0000a0 5f a9 f3 92 f1 e3 15 34 80 94 df 45 48 c1 ec 33
       8.718356735310106e-58 1.4315428849454677e-58
0000b0 e9 52 b7 1f fa 97 24 34 4b f9 50 9f 87 4a 20 34
       1.6403796852293984e-57 1.2976635252440732e-57
0000c0 e3 95 84 08 4d 33 28 b4 b2 fe 6a 54 23 fb 1f b4
       -1.9276726110743965e-57 -1.2737171224670677e-57
0000d0 d1 2d 94 50 cf 18 23 b4 54 cb 07 21 9f b3 1d 34
       -1.5211569110430963e-57 1.1829363342475475e-57
0000e0 f7 25 86 5b 28 37 18 34 ef 59 0d 2c 17 b0 1d b4
       9.64436318608085e-58 -1.1823869848443907e-57
0000f0 d6 5e 63 0b 61 b3 ed b3 35 24 c7 ad c8 60 24 b4
       -1.4786232555728715e-58 -1.6232062960603704e-57
000100 53 7d e6 e9 ae 8c 1c b4 83 cf 90 4a d7 be 23 b4
       -1.1370511891618017e-57 -1.572817632761542e-57
000110 ac 9b c7 3f f2 39 20 b4 2b aa 42 b8 22 16 e7 33
       -1.2925035599666806e-57 1.1493395088421222e-58
000120 98 f0 85 4c bb 5e 15 34 b1 d5 9b 08 20 3b 09 34
       8.511111638601056e-58 5.024404296757823e-58
000130 2b f3 07 e7 b5 95 28 34 4d 92 2c 61 cb 13 1a 34
       1.9582928473780553e-57 1.0385892715900609e-57
000140 fe d5 b4 e5 df 19 19 34 5b 54 67 1c 80 2a 23 b4
       9.99707895047461e-58 -1.5266613578955854e-57
000150 69 4b 0f 6f 13 a5 20 b4 59 35 f3 43 2e be 1d 34
       -1.3258370254567374e-57 1.1845790743983467e-57
000160 cf fc ef c3 ff bf 8c 33 e5 d9 f5 14 5b df 1c 34
       2.236395837000879e-60 1.149912999910964e-57
000170 dc b7 f6 fd 0f c4 0b b4 9c 66 c5 00 b6 90 24 b4
       -5.529197667517212e-58 -1.6381188335402594e-57
000180 5d 97 ff b3 60 fd 22 34 d9 76 98 02 ae 21 1a 34
       1.512621399414127e-57 1.0407494786443334e-57
000190 a9 2c 63 33 7a 3f 1e b4 a5 5f 32 bd a2 a3 24 34
       -1.2046944457930644e-57 1.6440072840051792e-57
0001a0 6d b1 13 ce 55 c4 0e 34 eb d4 49 26 91 32 25 b4
       6.126819266518744e-58 -1.6884804644061614e-57
0001b0 08 c9 c3 f6 55 9d 21 b4 08 31 f8 d4 23 77 04 b4
       -1.4030832777567408e-57 -4.0754060082809396e-58
0001c0 f3 5f 43 d1 7f 74 1c b4 34 8b 49 c3 76 07 22 b4
       -1.1332887588413337e-57 -1.4361051236034905e-57
0001d0 53 83 d3 58 62 97 f4 b3 22 bd e6 1b 81 2e 23 b4
       -2.0502440132622673e-58 -1.5279071739989817e-57
0001e0 c4 a9 d6 a2 dd 33 24 34 ef 3a 66 14 6b d2 15 34
       1.609229983833527e-57 8.691091576270524e-58
0001f0 2f 4d dd d5 8f 31 0c b4 52 a4 91 77 7b a7 00 34
       -5.614374713176102e-58 3.316464430955128e-58
000200 dd 79 da ac 4c c0 0a 34 b9 bd ae 71 6f 79 20 b4
       5.3271340617334374e-58 -1.312258224103885e-57
000210 48 0a de 9f 7e c8 14 34 b7 0c 83 a2 5f 60 1a 34
       8.277379837216334e-58 1.0505030977405742e-57
000220 84 3a cf e6 4f 60 13 34 ba 11 10 85 47 51 11 34
       7.717024519620833e-58 6.897091319054357e-58
000230 7b 47 94 60 c2 bd 21 b4 59 12 be a8 02 43 19 34
       -1.4131718713138777e-57 1.0061076110572544e-57
000240 7c 2a b2 1c 75 49 1d b4 d3 33 e9 9d 62 2b 0f b4
       -1.1664198093855146e-57 -6.206979518078882e-58
000250 f3 f7 3f 47 20 7b 27 b4 6c e9 ba 48 28 57 14 34
       -1.8703664738856705e-57 8.101054951024587e-58
000260 83 c7 9c 3b da 57 1f 34 22 ba 0c 3b 47 c7 1f b4
       1.2483139130316288e-57 -1.2656490201724891e-57
000270 19 90 aa a2 00 c4 1c b4 3a 5c 93 3d 5e 1f 25 34
       -1.1456574988063621e-57 1.6825067233886408e-57
000280 81 71 10 c5 f3 7a 1d b4 30 5f 5f 76 c7 6a 1f b4
       -1.1741199750472776e-57 -1.2512584381684254e-57
000290 dc f0 03 f6 b2 7b 1a b4 a0 69 da 93 34 2e 24 34
       -1.0547542717372367e-57 1.6074687507453647e-57
0002a0 ef d1 cf d2 bc 9a 1f b4 8e 39 54 f9 be 6a 0e 34
       -1.2587195910629581e-57 6.0571299090978496e-58
0002b0 5b 3f c1 a6 85 88 0b b4 3f 9d 90 fc 11 4e 0d 34
       -5.482882570449167e-58 5.835687230511713e-58
0002c0 58 f3 b0 14 d3 85 24 34 d7 97 5e 19 dc d1 1c b4
       1.6347315172613144e-57 -1.1478133504378633e-57
0002d0 52 2d 44 91 44 d9 23 34 25 bf 64 2e 04 40 0c 34
       1.581040370455357e-57 5.6256185161794586e-58
0002e0 fc 94 34 dc bd 2e 23 b4 43 34 9b 0f 8d 06 25 b4
       -1.5279810129774546e-57 -1.6747848613742877e-57
0002f0 10 47 d9 cf af 48 47 bf 20 42 3a 00 af 56 8d be
       -0.0007105692345225918 -2.1858966202773344e-07
000300 3f f9 5b d6 ba 5d 28 bf 20 f3 6c a3 18 1b d1 be
       -0.00018589883546122653 -4.078351188149793e-06
000310 32 2f d9 7d c9 8e d3 be d1 17 8d 1d ba 70 42 bf
       -4.662933830678304e-06 -0.0005627545134323457
000320 30 5d f6 20 68 06 0f bf 51 8e 32 16 e9 01 19 be
       -5.917554164652295e-05 -1.455625919096912e-09
000330 ad 09 fd 74 d8 ff 0d bf ed 3e 0b 5d cf a0 04 bf
       -5.721930813120126e-05 -3.9345100622532405e-05
000340 5b 0e 3b 31 b5 e5 68 bf fe ce 83 50 88 c6 3d bf
       -0.003039220706200924 -0.0004543383406734185
000350 99 40 f9 ea 40 63 25 bf 30 6a 72 9a 13 b9 63 bf
       -0.00016317527250686996 -0.00240758732577475
000360 6b cd 23 08 ca e4 01 bf 25 7a 90 88 dc 0b 1f bd
       -3.412953903305756e-05 -2.7574683712806928e-14
000370 0f d2 88 51 0d f0 38 be 1c b1 a5 00 df 2c 15 bf
       -5.806261492914067e-09 -8.077727412620191e-05
000380 9c b1 52 c7 b7 f2 8b be c8 ac 3b ef a7 14 97 be
       -2.0822969629597958e-07 -3.4392904456224576e-07
000390 60 7a ec 4b 36 6d 66 bf 14 50 e8 72 0b e4 a3 bd
       -0.00273762326050013 -9.045288468632285e-12
0003a0 f9 c0 7f e8 c7 13 60 bf 75 b5 be 30 5a cf f9 be
       -0.001962557264043704 -2.461430544513839e-05
0003b0 82 40 74 fa 1d 69 54 bf 93 21 ce 5b 3e a2 14 bf
       -0.0012457649953070697 -7.871156317496566e-05
0003c0 7d 6c 0b 55 cd a4 4a bf c5 09 51 bb 5c e0 90 bc
       -0.0008131029699954964 -5.85518264898197e-17
0003d0 05 c0 59 1d ce 92 32 bf c7 f4 c0 73 59 46 e4 be
       -0.0002834084710690024 -9.667779174655351e-06
0003e0 eb 68 1e b4 8d af c0 be 13 61 19 19 be d2 94 be
       -1.989097115418221e-06 -3.1029005595962776e-07
0003f0 67 c1 32 e7 47 29 75 be 72 e1 f8 ec 7c 71 54 bf
       -7.883181201112945e-08 -0.001247760770537534
000400 3d 28 98 d2 03 f0 20 bf 79 1d dd d8 74 2c 39 bf
       -0.0001292233148862415 -0.00038411953652369536
000410 94 63 c1 91 a7 ad 43 bf 7a fd 8b 6b c2 53 3b be
       -0.0006005352220298404 -6.362606157867497e-09
000420 a9 f1 cc 63 30 b5 d7 3e b7 36 9b a6 b1 24 8f 39
       5.652372746575373e-06 1.9193562515968592e-31
000430 67 a6 4a 10 3a 67 d3 be 9d 2f 19 37 3a b0 0c be
       -4.6260904624034765e-06 -8.349419889821775e-10
000440 bc 0f f9 be 59 5f 7d 3e ba 90 5c 16 69 8d b8 bd
       1.0942095207087029e-07 -2.233026385120483e-11
000450 ed ce 0c 22 d0 d6 60 be 18 a2 56 f2 ed c0 40 bf
       -3.136529281300509e-08 -0.0005112802361298434
000460 a5 4c 1c da 04 72 56 bf 74 2e c8 3d f2 3d 55 bf
       -0.001369957674289415 -0.001296507419399709
000470 c5 35 e5 d8 bf 7c 62 bf 9e 97 9b 70 5a 5d 14 bf
       -0.0022567507759620764 -7.768501759705538e-05
000480 4b 3b e8 53 ab 96 a5 bc 71 1d f8 77 02 73 66 39
       -1.4980067016130583e-16 3.458855613218448e-32
000490 b1 87 5c fb 7e 00 4c bf 8f 1c 5e f4 50 a1 39 bf
       -0.0008545513180460066 -0.00039108492307388885
0004a0 7b 24 92 15 c2 85 aa be 3b f7 2a 42 b6 a6 7b b9
       -7.904318791866934e-07 -8.520689566681623e-32
0004b0 64 f4 39 35 7a 16 af be 14 71 f6 aa 97 b7 98 be
       -9.264887048246091e-07 -3.68314355869848e-07
0004c0 51 41 b8 23 f7 fd 23 bf a7 c6 39 ab 8b c5 d2 3d
       -0.00015252725448578833 6.829091008521924e-11
0004d0 70 7d 93 a6 59 04 72 be 10 fd 58 2a f7 83 d1 3d
       -6.711852908483812e-08 6.372098212527917e-11
0004e0 63 8e 0e 09 92 28 aa 39 dd 0c 69 57 f0 20 0c bf
       6.448562777847769e-31 -5.365117515456774e-05
0004f0 ee c6 bd 6b 78 ef 26 bf f6 d7 e5 87 02 80 ed be
       -0.00017498345357185675 -1.4066714581355954e-05
000500 5d b5 61 a7 da d8 01 3e dd e0 23 ae b9 40 e4 ba
       5.19418576521008e-10 -5.235234693203291e-25
000510 0e 6f 14 f0 9d 47 af be bf 0c 3f 9c 62 9c e3 be
       -9.322093036697857e-07 -9.351196133772198e-06
000520 98 01 8c 8e ef f8 b3 bd 0d 90 19 9f 20 2d 07 bf
       -1.8164796844797125e-11 -4.4205244091683004e-05
000530 0a 0d ad fb b1 c5 af be 54 78 e6 b7 d4 65 84 bd
       -9.468867497659165e-07 -2.3189587721608097e-12
000540 90 78 05 a5 2d d3 da be ca 2c b1 90 73 25 11 bf
       -6.395558174025537e-06 -6.540792325997465e-05
000550 42 47 b7 77 52 6f 19 be 5b 21 ef 37 32 53 e6 be
       -1.4805032467893715e-09 -1.0645382415478443e-05
000560 52 2c 4a 03 33 bb 1d bf d7 7a 7e d7 3b a1 c0 bd
       -0.0001134157071850811 -3.024946520418179e-11
000570 3d 5b 57 f6 3b a4 86 be 35 e3 c2 83 b2 ee f2 be
       -1.6869261824813894e-07 -1.805535451701868e-05
000580 b7 43 bc 41 00 a9 aa be 84 3f 4e f2 cc 7c 15 bf
       -7.945346882383721e-07 -8.19683160229162e-05
000590 23 77 b8 ee 4d f3 6a bb f2 36 77 c6 bc 34 47 3e
       -1.783428393593478e-22 1.0806138385934864e-08
0005a0 cd b3 e0 20 2f da 56 be 57 fa 31 c9 0f 40 0f bd
       -2.128284575673953e-08 -1.387789477736142e-14
0005b0 ee e3 4a f8 e7 a5 fe be c8 f8 a1 ae dd ed 97 be
       -2.9228277997648344e-05 -3.565723277822584e-07
0005c0 58 be bd 05 97 01 12 bf 17 f3 ab f2 83 50 09 bf
       -6.868824260463627e-05 -4.8283602458431916e-05
0005d0 57 4a d3 a5 ad 3e fa be 42 4d b6 a6 0d ad da ba
       -2.502902713248165e-05 -3.447790840205593e-25
0005e0 b8 05 64 a7 39 98 6f bf 46 b6 22 24 ed 8e 6f bf
       -0.0038567663242481086 -0.00385233227378626
0005f0 da 2c 21 ad 44 75 83 bf e4 db 02 5d 68 55 84 bf
       -0.009501015218253906 -0.0099285272011524
000600 78 91 b0 cc 25 7b 88 bf 5a fa e0 ae a2 c2 88 bf
       -0.011953635510572921 -0.012089987718465856
000610 11 cb 52 da 27 3e 89 bf e1 d4 7a e3 e1 57 6a bf
       -0.012325583791925195 -0.00321573370805571
000620 73 22 bf 45 86 f5 4a bf 91 c0 ae d0 7c 41 94 bf
       -0.0008227258326708023 -0.019781065213181185
000630 37 bc ca a1 56 37 7f bf 10 9b 7e 6a ba 33 69 bf
       -0.007621134191750526 -0.0030764237344159742
000640 f0 ff cd 3f a4 e7 91 bf 4f 3e 07 b3 1d 02 71 bf
       -0.017485205072716725 -0.004152408612256033
000650 6d ac 2c c8 03 f4 96 bf a0 d6 22 d9 8e de 76 bf
       -0.02241521748798585 -0.005583341599210506
000660 84 2e eb 96 2a 31 8a bf b0 d3 54 c7 40 c4 68 bf
       -0.012789089899704516 -0.003023268242623854
000670 17 04 8c ac 60 dd 55 bf 03 db fd 51 32 67 61 bf
       -0.00133451882192071 -0.002124403268619958
000680 fe 77 cb 0a 30 f3 5a 3f a2 de 21 d8 a5 54 6d bf
       0.0016448945199765137 -0.003580402292808164
000690 22 6f ff c3 51 1b 74 bf f6 d3 f1 cb 50 83 6b bf
       -0.004908866307200362 -0.003358514600729108
0006a0 8d ed 80 7a 75 25 87 bf 30 46 37 0b 5a 16 70 bf
       -0.011301915932668627 -0.003927566274300839
0006b0 77 5e 2c 42 ac 22 85 bf 55 62 9c 59 3a e7 8c bf
       -0.010320039529275278 -0.014112907275874035
0006c0 22 7e 06 6d cd ca 73 bf f5 e4 55 c1 78 59 8f bf
       -0.004832079357953075 -0.01530737247479628
0006d0 bc 10 77 f6 54 78 77 bf d2 55 60 73 bc 20 88 bf
       -0.00572999180389305 -0.011781189223294773
0006e0 4f e5 2a 0a 3a 8f 84 bf c4 80 63 8a 24 9f 83 bf
       -0.010038808284081794 -0.00958088443115946
0006f0 1c 27 6f 19 1f bd 74 bf 61 80 ca f2 ec d3 7b bf
       -0.005063172799916218 -0.0067939048573465175
000700 31 c3 d2 66 25 57 97 bf d1 18 72 04 51 84 90 bf
       -0.022793373490176797 -0.016129747291892486
000710 c7 d7 37 5e da d6 84 bf 13 2f a6 5a 91 3b 83 bf
       -0.010175424576100668 -0.009390960291760153
000720 04 76 43 fd 10 0c 8d bf 00 01 ba 35 be 60 93 bf
       -0.014183171013821834 -0.01892373278542525
000730 98 2e 06 f6 80 0f 94 bf 5e 95 14 5b 36 cf 92 bf
       -0.019590392128107398 -0.018368577298266124
000740 70 fc ff 6d 67 65 8c bf 7c a4 28 ba 64 34 73 bf
       -0.013865287823135314 -0.004688638177449463
000750 1f 60 f7 71 cf 64 80 bf 44 87 de 4a dc 19 7d bf
       -0.00800478045032099 -0.007104740636266819
000760 14 ab ad 28 f2 f5 82 bf e8 ed 71 85 23 d6 76 bf
       -0.009258167139440533 -0.005575312380752241
000770 99 56 71 f3 77 1b 75 bf a2 3a 53 0d 61 c6 92 bf
       -0.005153149183646421 -0.018334881246853237
000780 a2 a2 a9 77 da d4 6e bf 9d eb d2 8d a4 bb 86 bf
       -0.0037636057798418757 -0.011100087717172797
000790 44 f7 f0 88 87 f9 78 bf 92 4a b6 79 e8 16 95 bf
       -0.006097344811733244 -0.020595199993815934
0007a0 ca 83 30 65 de 54 8e bf 0e 22 5b 09 8f 64 86 bf
       -0.014810311759051138 -0.01093398806860171
0007b0 c2 2a 6c 30 81 6b 82 bf a5 89 ca 6e c6 0b 97 bf
       -0.00899411133788897 -0.022505856048732693
0007c0 56 36 de 3e de c2 7d bf ab 63 cb 91 b7 ea 79 bf
       -0.007265918871679119 -0.006327359264752734
0007d0 88 6c 2d cf f5 40 75 bf 28 c4 e9 7f ee 42 68 bf
       -0.005188903992201628 -0.0029616029926775762
0007e0 6e e4 00 43 03 58 91 bf d2 b8 32 07 d0 d8 77 bf
       -0.01693730446297475 -0.005822002992472446
0007f0 6a ce 7a 2c 77 59 78 bf ac c3 18 d9 b9 7f 8d bf
       -0.0059446959709706735 -0.014403774202124207

fc.bias f8 [1]
000000 00 86 7e b5 56 e9 af 3f
       0.06232710805421604

exp_avg f8 [64, 1, 5]
000000 2a 8c 31 d6 4d 97 b3 be f2 95 2c c0 3f 07 b5 be
       -1.1677164699845299e-06 -1.2533853356947695e-06
000010 d2 93 5f da c9 13 b2 be aa 64 0b 5f 5e a9 b2 be
       -1.0774909724394963e-06 -1.112317814902414e-06
000020 7e b6 2d ca 06 c6 b6 be 21 65 27 d3 78 d2 ac be
       -1.357408827752827e-06 -8.589671892058825e-07
000030 78 78 06 d9 93 63 9e be ec e3 2a 7e a7 7c a2 be
       -4.5283101093331953e-07 -5.509534698112267e-07
000040 84 36 b0 ca 3f 7a 9e be a3 4b 2e fc 84 c3 e5 bd
       -4.541506750118279e-07 -1.5835210754671232e-10
000050 54 35 98 fd 77 83 a7 3f ed 78 4b f9 e2 2a a2 3f
       0.045924901682250635 0.03548344891690811
000060 05 7d f0 54 95 8a a2 3f d1 22 20 c5 a4 70 a7 3f
       0.036213556879596744 0.045781277716803744
000070 97 b1 17 61 50 ff a7 3f d1 c7 0d c4 fa 48 c4 be
       0.046869766094320635 -2.4181695440989174e-06
000080 6b bd ea b9 da bd c5 be 6c 42 6c 23 3c 82 c5 be
       -2.5918029245769446e-06 -2.5640404389753863e-06
000090 9f e3 d9 6b 33 dd c3 be 88 9b 26 11 d8 d2 c3 be
       -2.367981180747801e-06 -2.3631583953744746e-06
0000a0 4f 4e 0d 55 05 96 10 3f d5 39 d9 ad cd 0c 31 3f
       6.327064080596214e-05 0.0002601625581960786
0000b0 f3 be f4 46 5e f8 53 3f 79 c6 b0 0b f7 40 36 bf
       0.0012188835788257662 -0.0003395655764420812
0000c0 f7 a6 56 74 cb 35 4d bf e3 11 c6 04 fe db 6c bf
       -0.0008914225988309866 -0.003522869234247704
0000d0 a1 05 a1 05 0a b4 50 3f ea 4a d4 97 cf 7b 71 bf
       0.0010194871779421815 -0.004268465910416389
0000e0 f3 e0 e2 fa ed b1 80 bf 9b df 86 a3 d4 62 91 bf
       -0.00815187379736002 -0.01697857139671975
0000f0 81 56 f4 1a 34 0c 8a bf ff 6c eb 99 22 0c 45 bf
       -0.012718588898262386 -0.0006423157645615573
000100 00 3c a5 09 4d d2 6e bf 58 13 34 47 51 35 70 bf
       -0.003762388672079009 -0.003957097523429841
000110 e3 9c cd af a3 9a 92 bf ec ea 1d a1 68 e4 8a 2e
       -0.018168027501272454 1.730365737117807e-84
000120 72 69 97 00 0a 41 d8 2e d3 e6 5b 37 c1 0f 0f 2f
       4.993966593114262e-83 5.1165144397373245e-82
000130 88 f3 46 f4 bd 6f 20 af a0 16 71 aa 2e d6 95 af
       -1.0829797155506822e-81 -1.841650256915997e-79
000140 4b 3a fa ef 0a 67 83 bf e7 3c 71 73 f6 79 14 bf
       -0.009473882149248733 -7.811133115008841e-05
000150 81 6c 33 5a a5 1f 51 bf 3b 91 4e 36 13 c3 30 3f
       -0.0010451426285758294 0.00025576800390527164
000160 3b e7 3c 8c 90 8f 67 3f 76 25 4a b1 68 aa 40 bf
       0.0028760741423895764 -0.0005085955804854786
000170 f3 98 e6 07 e2 c3 3d bf ba 7b 42 c1 23 07 0f bf
       -0.0004541804154548766 -5.918100228651615e-05
000180 04 2d c8 46 ad ff 48 bf 77 ce e6 d2 55 39 52 bf
       -0.0007629009319897466 -0.0011123026011831386
000190 6b b4 a1 ab 9a 51 c7 be 38 9e fa cd a2 5e c8 be
       -2.7798135678243285e-06 -2.9050912500777082e-06
0001a0 ab 8c 42 c2 88 aa c5 be 35 76 6e 09 0f 7f c6 be
       -2.5828062622676308e-06 -2.681770705461099e-06
0001b0 8b fc 3d 12 52 b0 c9 be 6b aa 82 96 4f 5a b0 be
       -3.0623379120849474e-06 -9.74701459136941e-07
0001c0 02 d0 60 c2 75 e0 ae be 03 bf c2 cb 19 4c af be
       -9.202002544451452e-07 -9.327312891129351e-07
0001d0 3d 87 53 75 db 48 b0 be 8b ba 8e 69 ca 10 b0 be
       -9.70637718915705e-07 -9.575836996501647e-07
0001e0 15 b9 79 bd 6e 2d ca 3e eb 51 32 3f c6 44 b9 be
       3.1205977213878127e-06 -1.5061289076234717e-06
0001f0 70 25 c4 3e b8 46 d6 3e 06 e6 07 42 ae 82 bb 3e
       5.311071600519259e-06 1.6397518792773753e-06
000200 f1 92 a4 a4 24 53 d5 3e 45 5a 6e c9 bf ca be be
       5.0842232417788175e-06 -1.8353455623947387e-06
000210 7f 89 4a 88 aa b7 bf be e5 7f db a2 d1 62 c0 be
       -1.8905070941285392e-06 -1.953364764925569e-06
000220 78 dc 45 1c 76 55 c0 be f7 b2 7b 59 2f 20 c0 be
       -1.9471446838742802e-06 -1.9223359223246883e-06
000230 2a 88 11 a1 cb 6f 60 bf 06 e5 ef db fa 9c 3a bf
       -0.002006433213453303 -0.000406085247902491
000240 ee 5b 68 d8 7f a3 45 3f c1 cf 72 dd 17 17 33 3f
       0.0006603597874484926 0.00029129345552835964
000250 93 f9 50 44 0c 14 11 bf cf a4 51 19 62 f7 ce be
       -6.5148590764763e-05 -3.6914754653517507e-06
000260 e6 2e 88 3e 5f d8 ce be 64 03 e3 99 31 87 ce be
       -3.6770347728915852e-06 -3.639233184222025e-06
000270 14 99 d6 0f b1 94 ce be 43 c6 08 90 82 ce ce be
       -3.645518630707111e-06 -3.6724424037563724e-06
000280 3c 13 f2 f5 c7 4f 3c bf 6c 3c a7 14 34 cd 50 bf
       -0.00043200141767156855 -0.0010254868126258433
000290 3b 7a bd 6a c2 85 55 bf ff 54 ff a5 1d 14 5c bf
       -0.0013136290171683735 -0.0017137803588316845
0002a0 78 a8 b3 1a af bc 59 bf 9d 3f e5 9b 72 94 34 bf
       -0.0015708646777121953 -0.00031402395315626737
0002b0 8a 7a 3e 4b 4c bd 69 bf ce a4 f8 ee 4a da 3e bf
       -0.003142022143904304 -0.0004707749312467647
0002c0 3f e3 b3 a5 8c d6 3d bf e4 eb f1 df 63 45 50 bf
       -0.00045529302379026035 -0.0009931063976000793
0002d0 d3 ad df 06 a0 9a 1a 3f f7 80 50 ad 72 a7 25 bf
       0.00010148622251875761 -0.0001652076231559785
0002e0 0d 62 e1 ae f9 5e 71 3f 9f 9b 80 1e 41 98 50 bf
       0.004240966152871295 -0.0010128627709577798
0002f0 25 bb d0 99 03 f2 54 3f 69 2f 13 ee b8 a0 5a 3f
       0.0012784037746873058 0.0016252332646215734
000300 f5 c0 3b 89 12 3b 5f 3f cd de e4 f8 84 d5 65 3f
       0.0019061738029755835 0.002665290557299338
000310 59 8c c1 17 20 1f 5c 3f ae 30 4d ee eb 30 52 3f
       0.0017164052396985345 0.0011102966320378038
000320 c4 af 46 4b 0c d7 6e bd 38 13 18 e8 c7 f4 52 bd
       -8.765264096346957e-13 -2.693834536118294e-13
000330 a6 ff c1 5c 87 8b 54 bd 41 87 18 7e 63 39 b6 bd
       -2.919624963527608e-13 -2.0212768855356787e-11
000340 82 a5 30 66 c9 2d 5f bd e7 24 4a a9 f5 52 c0 b7
       -4.4307816946232107e-13 -3.7478206016900595e-40
000350 29 25 9f 3b b0 fc 3e 38 a8 47 86 66 73 a7 15 3d
       9.106279699706707e-38 1.9232708422905304e-14
000360 66 03 ca 3c 54 eb 46 b2 84 29 d4 cc 5a 8e a9 b0
       -1.7002447663979094e-66 -2.825043891612598e-74
000370 cb 5a a8 4e a5 de 40 3f c5 10 79 b9 f9 03 48 bf
       0.0005148226894700845 -0.0007328957899024538
000380 37 a7 27 18 9d 15 6a bf d0 f4 27 05 b4 dd 61 bf
       -0.003184134316360689 -0.0021809116381051666
000390 00 2c 4a 48 59 58 61 bf a9 a6 94 e9 21 d7 6c bf
       -0.0021173232838171963 -0.0035205519058266366
0003a0 6c b0 5f 91 a2 b2 53 bf 0b f3 6f 4a 12 fa 85 bf
       -0.0012022578789539174 -0.010730879685064495
0003b0 72 49 3e 1d 3c c8 3c bf 1c 7c fb 6d 84 ef 2e 3f
       -0.0004391810191403312 0.00023602000782482833
0003c0 70 19 f9 01 1e 65 5e bf 38 2b 8c 42 e0 dc 4a bf
       -0.00185516291084439 -0.0008197875041287888
0003d0 e3 b5 c2 66 6f 6f 50 3f 92 02 b6 b2 d9 f7 5a 3f
       0.0010031307129268966 0.0016460061986835234
0003e0 4c 7b 34 cd b2 03 38 3f 96 14 3f b0 1f c3 53 bf
       0.0003664313819217626 -0.0012061891038553144
0003f0 6b 35 5e eb f9 1d 76 3f 8f 4b 4c 8f 74 9c 5f bf
       0.0053996813275153195 -0.0019293916968236879
000400 6e ab 6f 3c ae a4 73 bf 22 94 1c c8 84 89 76 bf
       -0.004795723542865156 -0.005502241781674607
000410 61 c0 db 34 e8 24 63 3f 46 22 b7 3a 4a 87 6a 3f
       0.0023369345934654427 0.0032383394043089845
000420 bd 8c ed 30 5c 7d 64 3f 43 81 80 be ed 2b 68 3f
       0.0025011826141266556 0.0029506343307873785
000430 90 15 80 93 ab ff 64 3f c0 96 51 e1 f4 0e b8 be
       0.0025633193108684574 -1.4339938208206125e-06
000440 48 24 1f c3 6e 86 b8 be fa ea 75 e5 f5 6d b9 be
       -1.4618115184875342e-06 -1.5157183009528435e-06
000450 9a 67 bf e8 60 5a b7 be 27 b2 0d 07 ab 39 b5 be
       -1.39194972614005e-06 -1.2651244356245415e-06
000460 b3 e9 3e a5 0f b0 3d 3f 2f c9 c2 c4 3b c8 51 bf
       0.0004529989430427608 -0.0010853370359141348
000470 7d 18 07 8c 2c a4 59 3f 4c 59 f5 e5 44 af 62 3f
       0.0015650210408338077 0.002280840460723221
000480 7f 50 73 0f e0 db 5a 3f d0 8c da ea e3 2f 75 3f
       0.0016393364037883549 0.00517262487634014
000490 96 b1 ee 99 f7 e7 54 3f 22 5c ee 4d fd f4 5a 3f
       0.0012760084134511899 0.001645324103923825
0004a0 30 60 5f 0a 6e 78 6b 3f 25 e6 7c 71 4d 67 67 3f
       0.003353323862921108 0.002856875664204466
0004b0 1d f0 e0 c7 72 a6 ed be 40 2e b2 07 5d 0b e4 be
       -1.4138311822724286e-05 -9.557909143496153e-06
0004c0 26 49 80 dd 98 00 d7 be b6 5a 65 41 0b e4 c7 be
       -5.484183439834796e-06 -2.8480049067234986e-06
0004d0 82 cd 28 18 20 a8 ce be 4f c4 d4 bf c3 fd 3d bf
       -3.654568162114812e-06 -0.000457630434385574
0004e0 52 cf 2f d6 3d 78 41 3f da 6d 8e 43 6e d6 56 3f
       0.0005331327378130613 0.0013938977046795615
0004f0 ff 15 49 18 91 56 42 3f 09 5b 03 2e ca f2 23 bf
       0.0005596359702130792 -0.0001521941949309202
000500 44 59 85 3f 2e 02 50 3f eb 87 d8 c1 69 3c 60 3f
       0.0009770824090842992 0.0019819322176468555
000510 8e 19 d4 e5 49 93 4f 3f 32 ec 03 b8 fe 0b 1a 3f
       0.0009636030987685716 9.936086826549463e-05
000520 11 a5 83 7c 88 d0 42 3f f8 12 dc ee 75 65 b8 be
       0.0005741754949017149 -1.4541346290985204e-06
000530 6c f7 d3 a5 e5 25 a7 be 96 2b 0b 60 fc 44 b8 be
       -6.898652135376333e-07 -1.4465734922582165e-06
000540 0b b1 97 3e a7 db ba be 4d ab 50 9f f8 ee b8 be
       -1.6008627831089413e-06 -1.4861512884860198e-06
000550 5a 6e 38 d3 01 e0 45 be 61 b8 9d 6a 25 20 14 be
       -1.0186353627828877e-08 -1.171462408383945e-09
000560 22 9a d9 2e e7 a8 f7 bd 85 4f 40 64 8d 2c 19 be
       -3.442950775606955e-10 -1.4653215455296318e-09
000570 87 60 cf 0d 0f 05 34 be 82 af 5b 71 f5 c3 c1 be
       -4.661213828944614e-09 -2.1178083312502365e-06
000580 33 c0 a2 4c 19 95 c2 be 38 f5 94 7a c0 86 c2 be
       -2.215196762987725e-06 -2.20851594137533e-06
000590 39 37 80 39 5f e5 c1 be 3b e1 15 32 e8 b4 c2 be
       -2.1333675697181507e-06 -2.2300086050497327e-06
0005a0 7c 88 2e 27 73 08 b1 be cc a2 e6 93 02 2e a5 be
       -1.015246337423186e-06 -6.312050471651559e-07
0005b0 02 f0 27 55 07 02 af be c2 2d 86 61 78 3e af be
       -9.241081591611184e-07 -9.311444868915965e-07
0005c0 3f 0f 9f 25 0c 42 b0 be 48 93 cf 64 60 43 3c bf
       -9.690521864816275e-07 -0.0004312620483786678
0005d0 88 fe 0f 00 fb ea 29 bf 37 58 6b d5 f6 ab 96 3e
       -0.00019773782699416078 3.3783517975944015e-07
0005e0 da 7d 11 a6 8f e8 01 3f d9 f2 2e 06 c6 9f 0f 3f
       3.415764218383704e-05 6.0318213193499225e-05
0005f0 63 b7 89 1f 9e 66 76 3f e3 12 5a be 65 63 72 3f
       0.005468957585078235 0.004489324031628358
000600 9a 66 4a 67 55 c2 49 bf 77 40 61 31 e4 2a 45 3f
       -0.0007861058243918307 0.0006459821913811355
000610 df 35 12 af 38 53 74 bf 7c 12 fc ef 2c 77 76 bf
       -0.004962178632138741 -0.0054847483986618616
000620 b3 02 47 cf 3f c5 90 bf 3f c6 9d d1 09 c1 63 bf
       -0.016377446199615075 -0.0024113837979989057
000630 1f dc 24 c4 3b 0f 69 bf 5b a9 62 d6 f1 17 71 bf
       -0.0030590216930721638 -0.0041732260489573915
000640 cd 78 8c 49 a7 cd 54 3f a7 3e 9d 95 06 58 73 3f
       0.0012697347321544595 0.004722619743759238
000650 f6 a2 82 6f fc 11 6c 3f ff 70 3f 76 ec 8e 60 3f
       0.003426545179611269 0.0020212763210861735
000660 62 fc 24 2d 16 d5 5f 3f ee df ad 1c af 14 93 3b
       0.0019428936544299215 1.0101289822970552e-21
000670 72 6c 3e 94 26 c7 b2 bc e3 b6 4c 64 d3 a4 c1 bb
       -2.6059616159432214e-16 -7.472461380039472e-21
000680 67 8b 1f 9c ef ba d7 bc 9e 7f 9b 25 db cc 68 bd
       -1.3172917565781904e-15 -7.048646158518e-13
000690 38 58 de 1e 9f 69 ab be fa 5d 05 de 47 c0 a0 be
       -8.169586729219233e-07 -4.992215814442695e-07
0006a0 9e 74 38 2d 90 ac 96 be 40 30 b1 a7 92 2d aa be
       -3.3787004591492703e-07 -7.801657625566038e-07
0006b0 d9 e8 02 a7 ec 23 b3 be 3a 05 c3 a1 f7 ae 52 3f
       -1.1408525573534884e-06 0.0011403482704255966
0006c0 da a1 b9 86 fa 59 64 3f 99 55 ea 8b 9d 34 6b 3f
       0.0024843113986216915 0.0033209874230332834
0006d0 32 26 72 10 cb ad 5e 3f ed 32 e8 20 01 0a 5a 3f
       0.0018724902199970359 0.0015892992993286573
0006e0 d6 bd 57 1c 15 ec 3d bf a0 af 8e 36 8a 5f 19 3f
       -0.00045657649420058116 9.679108701615572e-05
0006f0 f5 da 86 64 59 19 32 3f fa 77 52 b3 63 9d 35 bf
       0.0002761691326002424 -0.0003298157128684972
000700 aa 04 8b 39 a3 1a 41 bf 1f 85 4c fc 49 01 47 bf
       -0.0005219742771133313 -0.0007020579583675613
000710 62 57 b0 b9 20 fb 38 bf 78 89 61 d7 c1 bf 37 3f
       -0.0003811793228022301 0.0003623817677917067
000720 a1 25 93 99 51 71 41 3f 76 29 cf 23 fa ca 18 bf
       0.0005323074757594312 -9.457732899346101e-05
000730 a0 de 84 67 3a a5 29 3f ec ae 9a e7 f1 2b 54 3f
       0.0001956590456388867 0.0012311804152131357
000740 24 72 ce f8 8e fa 54 3f 56 fa 17 4f 07 19 3b 3f
       0.0012804409227335023 0.0004134791225566583
000750 08 39 a5 8d 8c 2c 3e bf cc a5 ea a9 45 78 53 bf
       -0.0004604190013609709 -0.001188343077652798
000760 93 7e b0 a8 32 61 51 bf 04 bb 4d 76 9d f1 50 bf
       -0.0010607714382401586 -0.0010341680255938077
000770 72 62 bd 18 60 f1 5b bf 98 1f 90 f3 a1 49 50 bf
       -0.0017054975932834474 -0.0009941178852858942
000780 3a 12 98 10 b0 7e 60 3f da 2e 6f 3c 7f 09 65 3f
       0.0020135344282173036 0.0025680050925752486
000790 82 57 ac 30 a2 e8 57 3f 3b f0 43 f3 3b 12 64 3f
       0.0014592727554307576 0.0024501009849000866
0007a0 73 42 04 b0 4b a5 30 3f 8a 1e 41 84 7d 93 42 af
       0.00025399301377241403 -4.89583203635198e-81
0007b0 ef b5 32 fb fb 67 85 2f 7a 67 bc 47 9e e0 42 2f
       9.026731130409265e-80 4.975236183009062e-81
0007c0 53 25 84 94 12 b6 b8 2e c7 00 84 04 64 53 02 30
       1.2720243325740563e-83 1.9783027729662644e-77
0007d0 dd ed 8b c1 47 aa 4c 3f 69 c4 1f 16 8b 9e 4d 3f
       0.000874791180734243 0.0009039096005364458
0007e0 90 65 3f a6 f2 de 42 3f ba 57 46 67 33 a3 51 bf
       0.0005758938609645037 -0.0010765077578063068
0007f0 4f 57 b8 6c c4 31 53 bf 43 76 25 75 af ad c5 be
       -0.0011715334138719562 -2.5842736387910448e-06
