dl_experiments/best_checkpoints/google_15min_CNN_cuda:0_checkpoint.pt (torch, 467089 bytes, 18 tensors)

block_1.0.weight f8 [32, 1, 5]
-3.838764845317441e-30 -4.144931206913935e-30 -4.441426908536804e-30 -4.30649043612311e-30 -4.210279715317014e-30 0.648201912364537 -0.12805549605736521 -0.8405424280171852
-0.04183807075583729 -0.2964913193655403 -7.984737152032337e-35 -9.883922872842433e-35 -1.082590587808514e-34 -9.829527890914077e-35 -5.310469052538609e-35 1.2845225750597713e-53
1.709294381316748e-54 -5.436317625587167e-55 2.904538411395412e-56 6.063782015520191e-59 1.3362905223712355e-49 7.512115960912803e-48 1.3250199319624732e-47 1.460908404124411e-50
-2.7544209146822588e-52 -8.955619385920533e-13 -1.4072293654545465e-12 -1.7561283700378006e-12 -6.46067590827411e-13 -4.206343371639078e-14 -1.3572347287103228e-05 -2.428062858020009e-05
-3.366989465476749e-05 -3.0137009003757957e-05 -1.5144389210274716e-05 -0.08103635174380494 0.2354381719569993 0.0034129017266239787 0.06621222784777149 0.6598650993098337
3.17416040621833e-59 -5.502507853300016e-59 -1.5499696250169588e-60 7.38195029448278e-62 -4.243932394152765e-63 -0.338489265586336 -0.157218154605887 -0.2660237402813462
-0.24448884178778782 -0.2635442541770329 -2.111785717272907e-60 -1.3419048834252379e-57 4.2538051566814443e-54 -1.1078105864800333e-52 -4.99460218967084e-53 -3.3319314299236548e-46
4.566460149439035e-45 1.4305075338061447e-44 3.629567559712234e-46 -4.18135774292418e-47 -1.3060830031287666e-48 -2.30817833048617e-48 -7.823341165537498e-47 1.8107021974449028e-46
-7.196723297286921e-48 8.246354938032957e-63 -4.6834254853172774e-62 4.099418377637331e-62 -3.3770208961973283e-62 1.1911297573363815e-64 -0.002256147304902362 -0.004170689026349518
-0.005352366496433024 -0.004716392676887041 -0.0031754516007311 -0.11894119450177414 -0.12096827373661997 -0.12152316843525478 -0.11834178186384073 -0.11212944415936536
-0.08341586268513641 -0.08494827322756941 -0.08770408812149359 -0.087282260618267 -0.08225996229646582 -5.062002400458349e-23 -1.1311192070459322e-21 -1.4019555498574958e-20
-8.846596125312471e-21 -3.9158215879905525e-22 4.664155410389969e-61 -7.145162124762834e-61 -1.6981710523624147e-61 3.7909637708022926e-61 -3.0436674085523464e-60 -5.062189615356608e-34
-2.3131309721053926e-34 -9.679466360457795e-35 5.88782897471759e-39 3.1330150624887114e-38 -2.638961672720626e-29 -1.138406700244266e-27 -4.0192709552813246e-26 -3.001075945406352e-26
-3.977723312657008e-28 -2.893695275147294e-60 -4.2177889326150453e-60 2.1742847139708994e-58 4.050823318608989e-57 -8.412519472603067e-59 -7.719210375983921e-17 -8.90718798464889e-17
-7.553571314334798e-17 3.8482748835382055e-17 -2.150530716471802e-17 -1.0479967681376652e-23 -7.294964804075756e-24 8.776867601168626e-24 -6.21334861253402e-23 -5.850309899568614e-23
0.18938848925478524 0.10627920658166667 -0.5566739534843242 -0.44611889971208357 -0.4646047667450427 -5.733274604156087e-19 -1.0606978483661477e-16 -1.5453475847992907e-15
-2.457521468204349e-17 -2.178834409209242e-21 0.03007868000469909 -0.06386904898134375 -0.399571069839778 -0.31831300118088657 -0.5231365802844676 -3.5272114855977496e-25
-1.3753177129235574e-24 -3.6495141578404794e-24 -1.0792430942435738e-24 -3.0473272014814777e-26 -9.72540407152641e-19 -8.698871876518052e-19 -6.216648532228472e-19 -1.1498548498722102e-18
-2.1470296294635146e-18 -6.11200460388653e-25 -4.7311474429692276e-24 -2.0707823556327147e-23 -7.595655653075329e-24 -2.1297637688117517e-25 -2.2796469138315806e-07 -5.993139280439456e-07
-1.1466487510437432e-06 -8.682605210231371e-07 -3.34711909694014e-07 -0.16135203454563032 -0.16066647238474221 -0.15944021295819769 -0.15779332469836946 -0.1546059644541145
00000000: 4585 e76c 0077 d3b9 6b0a 74a6 6d04 d5b9
00000010: 365e 3c3f 4d85 d6b9 a07c aee9 24d6 d5b9
00000020: b258 bb6a 4159 d5b9 57ee d9ef 11be e43f
00000030: 30d9 d15b 1f64 c0bf ee7e e73b b9e5 eabf
00000040: 2884 3fb3 cc6b a5bf c843 0eba b6f9 d2bf
00000050: 6104 c3c3 a988 dab8 79bd efe4 276c e0b8
00000060: 99be a9c2 d4fc e1b8 e07a 25ce 0455 e0b8
00000070: aa38 10bf a5a5 d1b8 86b6 219f 6caf f334
00000080: e353 c815 b5f4 c434 34c0 651f dda8 aab4
00000090: 71e3 6d3f 44ca 6634 8360 59f3 3c5c d833
000000a0: 8a0d d969 8fff c835 ee57 cd86 3bf5 2536
000000b0: 926f f7f5 7c5d 3336 af9b 26cb 16dd 9535
000000c0: 3643 c507 d261 3ab5 0e82 443c 8182 6fbd
000000d0: 981e 52ff 98c1 78bd 3787 a429 e6e4 7ebd
000000e0: 41ef 1270 42bb 66bd 65c9 12cb faad 27bd
000000f0: 6c7b 1135 9976 ecbe 4c1c 4217 c875 f9be
00000100: 4968 6ec5 18a7 01bf b862 377d d799 ffbe
00000110: 404b 0801 95c2 efbe 06dc 8660 ccbe b4bf
00000120: e685 6488 d622 ce3f bf27 9ca9 5ff5 6b3f
00000130: 2194 33d9 48f3 b03f 45d7 a969 9d1d e53f
00000140: 1ab9 5288 de80 c933 dbbf a647 001b d6b3
00000150: efc6 68d3 f6ec 83b3 e277 c5dc 195e 3e33
00000160: 9fa0 5b0e 03ef fbb2 3f62 6fe1 cea9 d5bf
00000170: 2e54 2f78 b91f c4bf 61f3 1d70 8806 d1bf
00000180: 6b94 db0d 694b cfbf e34c 2fb8 e8dd d0bf
00000190: 6824 7bf2 e725 8bb3 1b11 f34c b7d8 20b4
000001a0: 8769 b455 6413 da34 2214 73f3 af38 25b5
000001b0: 3219 fb0a b122 13b5 1e05 e2ad 656f 7eb6
000001c0: e3e9 8894 e311 ba36 ae51 9d06 b96a d436
000001d0: 4bca 06f5 b193 8036 d7e8 a987 288e 4eb6
000001e0: 62fa d760 9e8a feb5 6b03 df7f bcfc 0ab6
000001f0: 31cb 080a a695 5cb6 cd8f 5798 268a 7036
00000200: b7fe 944b 3a09 25b6 fa12 8b50 8a23 0b33
00000210: 3f69 5603 3944 33b3 5645 1e02 31dd 3033
00000220: 93d4 aa10 d6c8 2bb3 6a9f 1a17 8f16 a932
00000230: 74e6 76dc 7b7b 62bf e8f1 84cf 4815 71bf
00000240: 1826 eff0 5cec 75bf 6a51 d604 7f51 73bf
00000250: 4133 ce98 6703 6abf 7b44 881c ee72 bebf
00000260: 5e67 8ddb c6f7 bebf 77be 2272 241c bfbf
00000270: 1a06 dba2 a54b bebf 2b48 95e7 83b4 bcbf
00000280: 0d46 33f2 bd5a b5bf 8b34 5d87 2bbf b5bf
00000290: bb12 356e c673 b6bf 1c5c e056 2158 b6bf
000002a0: 2861 d527 fd0e b5bf 6cfa 80be 1199 4ebb
000002b0: ff73 6fc1 c15d 95bb 5bce 5a91 268d d0bb
000002c0: 29d5 c171 70e3 c4bb eee9 a3ee 4c96 7dbb
000002d0: c278 8e43 e9fb 6733 a3e4 b26f f55e 72b3
000002e0: 2df4 6b06 f576 51b3 530a 7343 707e 6333
000002f0: 6149 075c 5e90 93b3 edf8 5e17 0b07 05b9
00000300: 579a 9f4a 7c37 f3b8 14f1 338d 3015 e0b8
00000310: 22fe 36ca 3707 0038 5231 8869 7b52 2538
00000320: a38f d0ca f5b9 00ba 8b71 2362 688c 56ba
00000330: 361a 18ff c9e0 a8ba 5537 1208 6593 a2ba
00000340: 96c0 aa06 c883 3fba 4de4 27b9 9699 92b3
00000350: 97d6 b412 641c 9bb3 f491 8c29 4ed6 f533
00000360: 9ebf d30e 6c6d 3934 aaad 6521 e3e5 e0b3
00000370: fcf9 389d c53f 96bc 9962 643d 58ac 99bc
00000380: 1b20 b047 8dc5 95bc 212a 6a25 0d2f 863c
00000390: 3e57 7111 3fcb 78bc f51d 4b2a c956 29bb
000003a0: 3da6 6650 5da3 21bb dfa5 722f 9e38 253b
000003b0: f59a ec7b 58c7 52bb 9a76 3a42 75ae 51bb
000003c0: 8048 cbcb e13d c83f a059 8334 1d35 bb3f
000003d0: 9f01 18e5 45d0 e1bf 8d04 1949 368d dcbf
000003e0: 2a15 afa1 15bc ddbf 8865 6fbd ec26 25bc
000003f0: 77a1 4796 9192 9ebc 06c0 e268 a8d6 dbbc
00000400: 07be d3b8 5255 7cbc 7839 542d 1994 a4bb
00000410: cd47 b50b f2cc 9e3f 7bfb 99d4 b859 b0bf
00000420: dbee 5889 9292 d9bf 44aa 7d7e 3d5f d4bf
00000430: d837 f5ec 88bd e0bf 0cc4 e6b3 5c4a dbba
00000440: fecd 0453 3e9a faba e7bb 0334 e1a5 11bb
00000450: 8c61 fd27 27e0 f4ba 8985 1ac5 aedc a2ba
00000460: 0894 7535 b1f0 31bc 845a d014 ed0b 30bc
00000470: 9017 6962 75ef 26bc 917d 8137 0936 35bc
00000480: bd09 fbc6 87cd 43bc 4427 cd42 09a5 e7ba
00000490: aa93 5579 e0e0 16bb 679c 5ecf c208 39bb
000004a0: 5ff3 53ae 7b5d 22bb 08d3 2787 6e7a d0ba
000004b0: 625a 95a1 ce98 8ebe 7e88 e043 111c a4be
000004c0: a1ce 7ea2 d13c b3be 0b17 de13 4d22 adbe
000004d0: 3d90 f18b 4e76 96be 211e c2f7 2ea7 c4bf
000004e0: 4963 3a0e b890 c4bf 5d4f 2972 8968 c4bf
000004f0: 43a5 8d58 9232 c4bf 3269 8cd4 20ca c3bf

block_1.0.bias f8 [32]
-8.038293001870704e-30 0.18067646548433755 -7.674010388892092e-34 -9.307830871337898e-18 -7.53825551529196e-21 -1.5061660898301999e-05 -0.012424370205925288 -0.34264578571833465
-1.1299637721623734e-16 0.2948626182572044 -5.3509521828544713e-20 -3.7765221934883734e-13 -9.730214378445624e-11 -2.1277429821187314e-27 -0.08512039086043227 -0.20442442446852382
-0.17661251717962392 -2.540251441432514e-07 -1.1357230227573653e-16 -3.2120616593352907e-12 -3.1095385529095727e-07 -1.5993491660058603e-16 -5.390672970575969e-05 -0.000712666596968166
0.13305695085879693 -3.7608579386968144e-08 0.19194605203941187 -1.900705405761808e-07 -4.474331356982729e-18 -7.653420907921723e-09 -0.0016371666965049824 -0.20233914996408994
00000000: 4dc7 1583 2661 e4b9 c7bf 340b 6820 c73f
00000010: f9d8 ca55 68e0 0fb9 a934 14a2 5f76 65bc
00000020: a411 858a 98cc c1bb e958 52e9 2a96 efbe
00000030: 1cab a9bd f271 89bf 2b70 f196 e8ed d5bf
00000040: 5616 e19b d448 a0bc 6a91 8e75 07df d23f
00000050: b0c2 6f5c 2196 efbb ec64 b575 2d93 5abd
00000060: 10c5 0d98 07bf dabd e558 7526 7812 65ba
00000070: 1ce2 f72e 73ca b5bf 8047 cc5c 942a cabf
00000080: 7de4 ac2c 3d9b c6bf f366 2066 1e0c 91be
00000090: 6a7a 3a11 145e a0bc 23a5 077b eb40 8cbd
000000a0: 6a56 b484 25de 94be 16d1 4594 8e0c a7bc
000000b0: 8acf 0321 3d43 0cbf db09 0cdd 475a 47bf
000000c0: 62d5 389a 0208 c13f 13e6 3940 e230 64be
000000d0: e983 0d30 b091 c83f 7943 db27 c682 89be
000000e0: 946c fdac 5ba2 54bc a867 643c 836f 40be
000000f0: e68c da5a c6d2 5abf 13ea e5cf 3fe6 c9bf

block_2.0.weight f8 [32, 32, 7]
3.7285477536789034e-43 6.908748559429868e-19 -1.7522551326627975e-110 7.808840124595418e-111 -7.93928677893248e-111 6.533092388949475e-111 1.1475906484529489e-110 2.0593356681393116e-50
-1.2042151334997103e-49 -2.6245077137806263e-49 -4.163277637697007e-49 -4.2230115468729195e-49 -3.3124590311772876e-49 1.928380653486898e-50 0.00044193390111464 -5.1249420006976494e-08
0.00020547771361596428 7.427936080884219e-05 -7.48970774731288e-14 6.369426850587826e-11 -9.849724232559337e-06 6.10621233272045e-14 7.269976920988617e-10 4.6035714937076157e-05
2.181024142657326e-06 4.56754547274912e-11 3.5227408451791357e-12 -7.616414870009678e-08 -6.302882816149774e-08 -1.2973053317486401e-06 -5.054943932707476e-05 -2.028052390607776e-07
1.631824797898953e-06 6.738633901958115e-05 8.97729978816019e-05 0.00015049139909921187 -2.130119891934934e-06 0.0003037043467671646 2.4867522389221718e-05 -1.991528021656635e-11
2.00753382559906e-10 1.139004748322217e-10 -8.307579642774337e-09 2.7609480618594293e-09 2.9763162563903534e-08 1.2688789014022746e-07 -1.3141631823057945e-11 1.6141072672522523e-06
-8.458085677994727e-10 -9.998927837016156e-75 -9.419701090093212e-75 -1.0167157156679854e-74 -7.108761945037348e-75 1.182674495021055e-75 4.748132005238448e-75 4.886658320409645e-75
-7.706791767766162e-23 1.7425743451625435e-23 -7.527730749304606e-14 -2.1813409353279472e-24 3.088480455499667e-28 -8.199271913144456e-122 1.446364158886342e-299 4.773006840216084e-43
2.097203093441622e-42 2.5265654044655177e-42 9.847066699433435e-43 2.639637373993347e-42 1.1651782859636803e-42 -6.354695587208506e-44 -5.323564199941805e-09 -2.0470772709173528e-09
6.05539860403181e-07 1.3854512830901166e-12 3.1940623241989696e-12 1.0161341821102073e-08 -2.3835690074864468e-11 -1.5414052978134715e-294 6.534625263139873e-297 -2.6222856384562064e-290
-1.414267296132151e-287 4.9386074056559754e-281 -5.5681309519916564e-269 3.942419939792437e-257 -1.4071799771448956e-15 -1.0530230710672954e-28 -4.002476035139036e-09 -5.199367923348089e-07
6.820417279002438e-14 8.930818281276439e-17 -0.0018183737518034648 -5.301161092307667e-22 1.7095997742031307e-299 5.942726453344197e-298 4.321969239911186e-298 -1.0454680201235546e-296
5.289358704244518e-295 -5.595960978436871e-292 -5.646107237253463e-07 1.3092404504155236e-11 -3.7411830589547543e-10 -1.7211170928778504e-13 6.164559627996922e-07 3.1400544628348857e-11
-0.00015423579470955865 -3.530749609374336e-292 1.559912004515367e-289 -2.0814785394855396e-272 -3.9920315815698546e-267 -2.7254397827406634e-271 3.517748916598086e-269 2.1888482090376926e-262
-5.123754369578429e-11 -1.3977885814610006e-06 4.083731825271595e-06 6.56709126454165e-11 -9.451768734036776e-10 0.00017544464463716694 -5.564055981009526e-06 2.5366410741106328e-93
-8.389236931608357e-94 -1.045546653566208e-93 7.138770651829299e-94 7.965426902849723e-94 -2.9118430442550207e-94 -1.4550450948859873e-94 1.668790421382349e-17 -1.914022508729535e-162
1.0819711310441413e-297 1.6864712532589128e-290 2.0605088755439972e-290 1.5587780090013752e-285 -5.898119332326437e-283 -9.677509853623789e-12 1.6102350240649445e-08 3.5771728229238457e-10
-3.645409247112064e-06 0.0006724371619019636 -0.00021497221926567418 -6.041670833988608e-08 6.363963592869455e-299 -6.084302082145222e-298 -2.4853443710890954e-298 4.990557274966873e-297
1.4177420406748935e-296 2.5715717728653075e-294 -5.209226968428008e-290 5.184775481726348e-06 8.950294838009459e-09 -2.0809396202559686e-08 7.520438190032271e-14 -2.7651207577790036e-08
-0.0008714615589397863 -2.2317743826494535e-08 1.4277099860181696e-226 8.500353514024123e-227 9.668981143173026e-227 -2.0081510603839245e-227 -1.3736523710414235e-226 -1.6855786367522043e-226
1.246051616524965e-226 -2.6483686292670257e-09 -1.5665939811874433e-08 -3.277064988171488e-13 -2.92167976643805e-05 2.860609031915408e-11 -3.558229263463715e-11 -6.664787172257359e-08
-1.029507061083734e-78 -2.2919534711537467e-78 -1.5431371963687487e-78 -2.1165056423415555e-78 2.0750654793431776e-79 -7.14075599067699e-79 -8.727339361750544e-79 1.857005316062433e-85
-1.9411262474933684e-85 -6.309080565877627e-85 -1.464149627989582e-84 -2.6959525080019583e-84 5.444824152999826e-84 -3.534513370388448e-84 -3.254817562358946e-78 4.0401494181931255e-78
6.134051595308237e-78 -1.981818571553359e-78 6.739565905577739e-78 1.9757878133412493e-78 3.527663355785298e-78 6.027139009327722e-08 4.6097502271793e-06 -1.4531569262782331e-08
1.0072285880890357e-06 1.028752545134608e-07 -0.0001675380154224628 4.068729666959762e-11 1.8781230777900462e-08 0.00043752714902818633 6.287826722210769e-08 -0.0006710610601186599
1.4767002477762898e-14 6.186813933641224e-10 2.6973492837689102e-16 1.567704156617006e-05 6.334301143645315e-10 5.312568291352566e-10 1.1709536964025216e-07 -3.0688887210906106e-09
0.0004995756502281186 3.4178942645217027e-13 -4.543749975494404e-19 -1.808285453041035e-85 2.1130196733906457e-299 -1.276564828071936e-299 3.007208554890053e-296 -8.181641701932143e-296
-4.2905193449187686e-294 -1.330706846094395e-11 2.2793714045989583e-11 1.281826363165984e-07 2.5945691034097946e-12 -3.116412887555693e-07 -2.2604142617945874e-07 4.037723767999429e-05
-1.9863450034576822e-129 -2.183095960087125e-23 -1.020135861367392e-24 -2.131003612153531e-25 -1.3250366482466543e-126 -5.782849994805513e-162 -2.944638436017005e-135 -2.6848004573562544e-18
4.91080028086856e-18 1.4272287068543354e-18 -2.766004890352972e-18 -3.0104566964183523e-18 -8.785882764296464e-19 3.342405982962109e-18 1.8665099365750444e-13 -7.445801358696958e-12
-7.521684283302243e-17 3.988316944508772e-15 -9.967654410411897e-19 -8.889544150185652e-07 4.297054023804436e-08 -0.0006595139016866762 3.451218700167713e-06 3.8540241457950226e-13
3.226905177698386e-08 0.00023806885197826387 0.0012813262500523056 -3.2154775026782794e-11 8.622790505093049e-09 -3.759655056918883e-09 2.3352759997868565e-05 8.567908754705718e-10
00000000: 073b b8ba 3fa1 2037 0057 27e7 207d 293c
00000010: d3e9 155a ef11 25a9 5cf2 2ede 8fc7 1229
00000020: 4bfb b34e df17 13a9 8f29 0793 476c 0f29
00000030: c073 22f4 3699 1b29 7b4d d98b ced1 9e35
00000040: b9a7 3675 0b87 c6b5 c021 1e8c 728c d8b5
00000050: a859 0ee2 8878 e3b5 5430 de45 0dc0 e3b5
00000060: 9633 537a c3fb deb5 5c0b dc3d 16dc 9c35
00000070: 84e4 fba6 6bf6 3c3f da57 b1a9 aa83 6bbe
00000080: 8b39 bd1e b0ee 2a3f 4d01 a7b3 cd78 133f
00000090: 4ff1 5238 e714 35bd c9c3 85ef 1582 d13d
000000a0: aae9 5eca 07a8 e4be 12c0 925c fd2f 313d
000000b0: 029a 8244 bdfa 083e df2c ee1e cf22 083f
000000c0: be42 e1b3 b64b c23e 9877 e7af 3f1c c93d
000000d0: f2e0 78d6 81fc 8e3d 4b6a b4df f571 74be
000000e0: 758f 05df 4eeb 70be 0862 0a4c e2c3 b5be
000000f0: c799 8a82 a180 0abf 2f0d 88bf 5538 8bbe
00000100: cc06 fc56 a260 bb3e a59c 387d 38aa 113f
00000110: f0e0 1f5c 9088 173f 9b35 6146 a7b9 233f
00000120: ca94 7ccb 65de c1be 7036 ad3c 50e7 333f
00000130: f5b9 5520 5313 fa3e 7cab 4f2d a7e5 b5bd
00000140: 7273 c0b7 6197 eb3d c4a7 468b 084f df3d
00000150: db1b abe4 23d7 41be c1d9 3395 63b7 273e
00000160: a822 545f 3cf5 5f3e ff6d 60af d507 813e
00000170: 0ad8 e6bd 14e6 acbd 0155 75b5 8914 bb3e
00000180: a961 4c93 cf0f 0dbe 2153 c2dd 2f17 92b0
00000190: ce27 6750 e80a 91b0 cc9b 6a00 1b65 92b0
000001a0: a1e5 2670 1bb9 89b0 cc65 e31e 381e 6130
000001b0: 9a10 b676 5e2e 8130 7ff7 0fe6 b0ae 8130
000001c0: c3e2 6860 d74a 57bb 3382 55a2 0111 353b
000001d0: c669 d339 4d30 35bd 7d2c af12 bd18 05bb
000001e0: 03a6 96bc 2e78 383a 95d9 f2ce d319 cba6
000001f0: bb1b de50 555f e301 506b 5f76 cf49 2537
00000200: 78eb 9fe0 7462 4737 6a8b dbbc 112c 4c37
00000210: 29d1 1069 aef5 3537 fedd 092c d56e 4d37
00000220: 9811 04f9 fdfb 3937 5f92 4dae 9fac f6b6
00000230: f049 f41b 52dd 36be be70 e70d 9295 21be
00000240: 946e 353c 8c51 a43e be9d ee93 845f 783d
00000250: 93f3 ff91 6318 8c3d 04ad e9b9 41d2 453e
00000260: cf9b a17a 2635 babd 049c 014e 9880 ef82
00000270: 0c47 7e27 3118 7102 46ab a242 ee5a d083
00000280: 9ec9 d5ab 643a 6184 9faf 78ef caaf bc05
00000290: 4871 cd94 876a 3d88 6e85 420a 4df1 b20a
000002a0: a4c5 cde3 7859 d9bc e806 41ad 91af 20ba
000002b0: 925d 49d9 c430 31be 61e3 0619 3972 a1be
000002c0: 6951 93eb a032 333d 4ebd 6be0 c7bd 993c
000002d0: 8009 f0f2 cfca 5dbf ec4c 07ea f706 84bb
000002e0: eb4e 2e3c ece5 e601 596a 43bb aedf 3802
000002f0: 91be 3cf9 0617 3202 63e3 77c5 6c59 7b82
00000300: 83af 3258 c29e d502 3dfa 1d92 5856 7683
00000310: c952 9f1c f8f1 a2be 4330 6556 5eca ac3d
00000320: 434c 2210 8fb5 f9bd 5201 a053 fa38 48bd
00000330: 475c 8bff 50af a43e 3162 44d9 3b43 c13d
00000340: 24a5 6763 4b37 24bf ef73 8896 ef2f 6c83
00000350: 63b6 eda6 ab52 f803 1b05 5268 3f85 8687
00000360: 0d11 07d9 ef79 a088 e97a 4315 0d6e c287
00000370: 3535 e0f2 8595 3208 610a 5417 d791 9b09
00000380: 33c5 c20f 0b2b ccbd 98c4 69cc 7473 b7be
00000390: f94b 1aa8 df20 d13e 370b aafd 2d0d d23d
000003a0: 3644 c08d ee3c 10be 0383 9e05 f2fe 263f
000003b0: eaf8 ea0f 5c56 d7be 3881 c881 3b2a b52c
000003c0: 7f1a b674 b8ff 9bac 31d9 8056 8c72 a1ac
000003d0: a981 d320 54d3 972c 7919 9f93 9e95 9a2c
000003e0: 76bd 6b29 ba6f 83ac 961a 1760 bb6c 73ac
000003f0: 8c34 7864 663d 733c 9e28 ce41 268e 5b9e
00000400: 08dd 47f7 b4a4 4602 f2f4 4dd3 7b09 c503
00000410: 5b74 2628 eab3 c903 e8de 6ffd 63ab cd04
00000420: 9239 cf9f 2fed 5585 94c9 1427 f447 a5bd
00000430: ba9f 2c2a 2e4a 513e 6b0c 536b 0795 f83d
00000440: 3c41 77ed 7494 cebe 0fde 3acf cf08 463f
00000450: c37c 764d 452d 2cbf 509d 2af9 cd37 70be
00000460: 3452 ebc0 3b4f 0502 7502 03ce 6177 3982
00000470: e782 e1c1 22ce 2482 6e50 2006 481c 6a02
00000480: 92b7 4e3d 428b 8202 7df9 2d4e 3347 fa02
00000490: cc37 08cd b63e e083 8602 7e3b 1cbf d53e
000004a0: 8980 fa03 7a38 433e af42 ef13 0b58 56be
000004b0: 8f75 73fc 0b2b 353d b420 93c0 b4b0 5dbe
000004c0: 7767 9b72 598e 4cbf 2f7d 1f9b a7f6 57be
000004d0: 88a3 9277 b40e 0b11 5313 b035 0c1c 0011
000004e0: 47e2 e473 0553 0211 7b63 6825 3a72 de90
000004f0: 84d2 7920 7008 0a91 26e3 4a10 c9f1 0f91
00000500: f08c 9324 5e9d 0711 0edc 19ff d2bf 26be
00000510: 41f2 cb82 38d2 50be fae3 8e7a 6f0f 57bd
00000520: 6143 220c d3a2 febe 751d 110b e673 bf3d
00000530: 26bc e432 c38f c3bd d23b 41c2 01e4 71be
00000540: 395f 8657 7784 beaf 8c63 7ead 26fc d0af
00000550: 9b78 5c50 16df c6af 6fe5 f6d5 9a5e cfaf
00000560: a3cb fa0f b29a 982f 0d38 f873 cc2a b5af
00000570: 75c9 a911 c9de b9af a4a3 a2a7 9a16 572e
00000580: 7d4a ad99 5922 58ae 4618 b668 3e9c 73ae
00000590: 5d11 c5bb 3ec1 86ae 965a f40f 0af3 94ae
000005a0: 5b39 e7d5 ac27 a52e 637b 3cb9 2e77 9bae
000005b0: f349 0235 d61e d8af f508 0f26 b8f0 dd2f
000005c0: a7dd f5e6 91ba e62f 1bb0 fda4 905f cdaf
000005d0: 5416 0521 f1f8 e82f f81a e5c2 ae48 cd2f
000005e0: fa0d 4477 7624 da2f 5f16 f781 d12d 703e
000005f0: 4195 757e ae55 d33e 05f7 558f d034 4fbe
00000600: 42ea 5f8b 03e6 b03e b878 e49d 889d 7b3e
00000610: de5f 1a98 a4f5 25bf 708a 5b5a 3a5e c63d
00000620: 3c4d bb9f 8b2a 543e 0cfd d2cb 7cac 3c3f
00000630: a6c8 d42c f6e0 703e f929 46a7 44fd 45bf
00000640: 1cb9 3676 4ca0 103d 946e 74a5 fa41 053e
00000650: c6e1 5d2f bb6f b33c deac db17 4670 f03e
00000660: cc1a 42d0 b5c3 053e 89bf 6307 fc40 023e
00000670: 6a22 1487 bb6e 7f3e fb4d 39c3 8e5c 2abe
00000680: d395 308a be5e 403f 7453 eb84 210d 583d
00000690: f387 2855 73c3 20bc 2180 6302 897b 56ae
000006a0: 39de 1518 2e4d ec01 2a36 74e2 1e19 e181
000006b0: 4c44 a8f0 c3aa 9302 4cd5 a1e6 fbc0 aa82
000006c0: 9922 9720 f9eb 0583 4b6d 8aac 3643 adbd
000006d0: 71e5 7e31 dc0f b93d 6d4d 9364 5234 813e
000006e0: d673 db41 73d2 863d 056c fae1 f4e9 94be
000006f0: 4926 5b69 b956 8ebe a5ef 9c52 572b 053f
00000700: 2a17 e477 a807 36a5 8f67 aad0 5a64 3abb
00000710: 281b 44d6 77bb f3ba d4d4 0534 e37c d0ba
00000720: 363c 8725 c7b3 cca5 cf9f 6b29 30d0 749e
00000730: 08ba 06ad 491f 01a4 72e5 f44b 4ec3 48bc
00000740: f3ef 4950 a6a5 563c baad 5ba2 e553 3a3c
00000750: 4d11 545d 0b83 49bc 89fe 206a 3dc4 4bbc
00000760: 6e18 5c0d 0435 30bc be62 3b72 08d4 4e3c
00000770: 4aa4 388e cf44 4a3d e1d4 2c10 9d5f a0bd
00000780: 52a2 7bfd 05ae 95bc f35e 3064 37f6 f13c
00000790: eb69 4f7a 1763 32bc 5143 876e 0fd4 adbe
000007a0: c407 027a d311 673e 37ce ca51 679c 45bf
000007b0: 2c65 a08b 6ff3 cc3e d7be 41ed ca1e 5b3d
000007c0: b8e9 1d53 0653 613e 973a ecdd 4334 2f3f
000007d0: 650e ba95 45fe 543f b358 d5dc 61ad c1bd
000007e0: 0455 d8e0 6d84 423e 1a69 d0d1 c825 30be
000007f0: 3779 8872 b57c f83e 26f6 a388 6970 0d3e

block_2.0.bias f8 [32]
-0.008399946718714016 -0.0021534009669476975 -0.1792185304389564 -0.04827400942822846 -0.21285279163565052 -0.0036695986051245807 -0.017230434038511655 -0.0466530720743635
-0.03967812137759529 -0.09575752412294813 -0.22331169998140427 0.07409199656367103 -0.0038011444939779317 -0.11502308142748977 -0.2431669700545006 -1.1598942856586488e-06
-0.00013817622695959028 -0.0014860277447191898 -0.00264054073108979 -2.1825225488137025e-08 -0.07401067385615206 -7.747244841691663e-05 -0.00015466642287282768 -0.0005027742826196175
-0.2894450686379231 -3.446119772740467e-06 -0.0001558345286841306 -1.374939205937822e-06 -0.0418730152358278 -0.2661233567920669 -0.00026006214817963423 -0.30133977518012334
00000000: 3b66 8fc3 fd33 81bf d589 4d57 02a4 61bf
00000010: a047 89ff a1f0 c6bf 3069 7bf7 5eb7 a8bf
00000020: 6cfd 77a1 c23e cbbf b55c f3bf b40f 6ebf
00000030: 40e2 c3da daa4 91bf 0b78 a255 e9e2 a7bf
00000040: 6ff2 5dd3 b050 a4bf e838 74aa 9083 b8bf
00000050: 62fd 1d50 7a95 ccbf 4fe5 226e b1f7 b23f
00000060: da88 3fe9 9323 6fbf 9226 0415 2772 bdbf
00000070: acfd ec63 1820 cfbf 41e7 0a41 b575 b3be
00000080: 80d5 72c0 6c1c 22bf 3f0e 2124 da58 58bf
00000090: 3161 ae82 9da1 65bf a5aa 80b5 456f 57be
000000a0: 5c60 c40f 5df2 b2bf f779 7787 164f 14bf
000000b0: 6b19 c074 be45 24bf 6c89 f18c 9379 40bf
000000c0: 6874 f29b 4486 d2bf c21a 6361 7ce8 ccbe
000000d0: d729 9868 f06c 24bf 6f4c f8a4 5111 b7be
000000e0: 26ab 0b3e 6170 a5bf 28ea 8742 2a08 d1bf
000000f0: 8b2f de6b 1e0b 31bf e27c d89f 2649 d3bf

fc.weight f8 [4, 2944]
6.552458377010238e-78 -1.5416631378527797e-77 9.882618288668226e-77 -4.8377692706273194e-76 -1.8145048342635338e-75 1.9763317940434058e-76 1.415203098004976e-75 -1.564060508975704e-75
1.135879476972525e-75 -5.289793004004522e-76 3.1053383592322334e-76 -1.8160207262195464e-76 -1.6799293334556654e-76 1.5831922159968488e-76 2.3605976374643262e-76 3.1572393369458224e-76
2.8340991877854804e-76 3.153811384135431e-77 -1.4864414550969517e-76 3.0928623206036003e-77 -6.709154520900768e-77 3.584457143726716e-77 5.056791567922667e-78 3.899228071748235e-77
2.161307171078248e-77 -1.052210274565598e-77 9.738070004393177e-78 1.5069203763084444e-77 3.8159824400753486e-77 1.2297070541606008e-77 -1.5408485725066175e-77 -4.601294494947384e-78
1.2537984861039146e-77 7.354861150161532e-78 5.57674477963191e-78 1.805001957718788e-78 -5.709453487585378e-78 6.555665916261927e-79 4.797941741028949e-78 -3.14653438083932e-78
-3.5193991015268715e-78 1.3418151150323167e-78 4.1580551085066966e-78 6.15189061209439e-79 -2.9364201946811083e-78 -3.088030305968808e-78 -3.176612517153867e-79 4.710132666884764e-78
-1.5901297970212555e-78 -2.497341380313098e-78 4.967728334956783e-78 2.2054106136372704e-78 -3.310201803636098e-79 -1.20710595727824e-78 -1.4291784222630203e-78 -3.937931420935094e-78
-2.60473672240362e-78 4.2976573122971846e-78 1.102103295627786e-78 -4.208159328552039e-78 -3.724438920172838e-78 -4.2976955077003723e-78 -3.9057546017654764e-78 4.738036986202727e-78
-4.515077698152702e-78 2.984610625427482e-78 3.3584815430289206e-78 3.582651835442241e-78 3.7828163321275486e-78 -5.964643235215259e-79 3.313286864528983e-80 5.995317795974846e-79
1.51871317719768e-78 3.740348108076017e-78 7.74819901158628e-79 -2.328986999719662e-78 -1.4970158989307822e-78 3.955133771910729e-78 -1.6353753728724148e-78 -3.6721034945739544e-78
4.247899070675165e-78 3.4831004847735257e-78 -3.3841761568705522e-78 4.654583181037092e-78 -4.861415272196876e-78 -4.107682717182967e-78 4.2161048618470637e-78 -4.579891572389934e-78
3.283626559005267e-78 -1.8381642260118462e-78 3.9731489055307485e-78 9.288882147206906e-79 -8.061057553786727e-21 -1.2722715214697915e-19 1.4206052689106525e-19 -2.4826024927335935e-19
-1.5757741787116857e-19 3.6613738253893016e-19 4.974596574554969e-19 -4.75254986220781e-19 -1.0861283902854503e-18 2.2494768932087145e-18 -2.2806591722593105e-18 -1.4674809109337409e-18
2.1180442650408682e-18 -2.391744928451466e-18 4.701453638145585e-19 -1.408839928633263e-18 -2.3897859376426516e-19 1.670131530858295e-18 -2.1839376282039135e-19 -2.1120444026461806e-18
-5.390648353409895e-19 -2.901628731732633e-18 1.2814710482037524e-18 -3.722612458764454e-18 -3.316255855554339e-18 4.477781431452283e-20 3.347250798827389e-18 -2.5733201118596855e-18
2.6856439607327813e-19 -1.1978987614246182e-18 6.504431225037576e-19 2.6271518059744666e-18 2.2903886009144955e-18 7.451929870030569e-20 -1.3258849888137398e-18 3.0990720450456e-18
-1.748947719717552e-18 -1.457671876474333e-18 1.7428066434080312e-18 -1.54957829210181e-18 3.535042703973675e-18 -3.0954905659967064e-18 1.1301067635974011e-18 6.711617441155522e-19
-1.2962235888357951e-18 3.1090151811603486e-18 -2.1456319684331837e-18 -3.3757119637086066e-18 2.372618792251831e-18 -3.36775339171265e-18 2.2443819396782676e-18 -1.551688063962649e-18
2.291510901108496e-19 3.2102083048455407e-19 3.0706674476365566e-18 -2.7886030677931123e-18 -1.5668589247354336e-18 2.108374338257628e-18 1.4653631416368953e-18 -8.85076031726372e-19
-9.567593386478819e-20 -2.6520593949158335e-18 2.766881087860583e-18 1.7592134181948085e-18 1.6439734602926714e-18 1.135030904916348e-18 8.408868822547572e-19 -4.0724499775551217e-19
2.1153050926210441e-19 1.376195564268713e-19 1.689601996511569e-19 1.2580453007476829e-19 2.473746555897211e-19 -8.449472452732846e-20 -3.720242506870704e-20 6.861593526614394e-20
5.817725000634233e-21 1.356918088273523e-20 -7.403227555983425e-20 -4.567179723155139e-19 8.054633674554523e-19 -9.537556988545365e-19 1.7437583025686151e-19 8.87466485066834e-19
1.18963379573638e-19 1.2120874966181691e-18 1.158781159623814e-18 4.223558137667269e-19 -9.15944476152792e-19 7.202250767109389e-19 -7.543019575185009e-19 -1.2370393961741045e-18
1.7229075422083312e-34 -1.1483237399000946e-35 2.3594122581874248e-34 -8.346987046089143e-35 9.627885519126747e-35 -1.1976132179760309e-34 -2.982477389422745e-34 -1.2400662673856453e-34
2.8021870845768107e-34 -2.1500283918759823e-34 8.920228524253728e-35 4.6822371464191314e-35 1.5719092546925762e-34 -2.4996608294007576e-34 -2.4622922297879483e-34 -1.6271618786261242e-34
2.4793288109272267e-34 -2.4906004834391967e-34 2.486715089389482e-34 -2.454051077125816e-34 2.407564090282848e-34 5.3413392651538044e-36 -9.572260597565982e-35 2.7755690272739333e-34
-2.676565882553275e-34 1.6340759723406389e-34 -2.6579608447013853e-34 -1.936021603897896e-34 -2.208585095253801e-34 -1.6030647612826155e-34 -2.6011385208960217e-34 -2.5866913081287063e-34
-1.8786012564858406e-34 -6.447915305938178e-35 2.336927563722415e-34 1.894428695686266e-34 -2.889097686536235e-34 1.6228973736360762e-34 3.2122164772976752e-34 -2.3515783478173374e-34
1.7857597531259332e-34 -3.2152882546315323e-34 -1.9692296317229424e-34 3.896448671406525e-34 -2.3281663082343548e-34 -1.0158603496672818e-34 3.0875424864260818e-34 -2.7318017527676267e-34
4.2880909019306867e-35 2.9006802642610764e-34 3.3179765843418018e-34 3.536682158731927e-34 4.809518625231873e-35 -2.8727479405763428e-34 1.2310362976255006e-34 -3.062860594104385e-34
-3.0854002248205814e-34 2.9269186084577764e-34 2.5810329380738396e-34 2.545296879702803e-34 -1.6254905996934196e-34 -1.8609578642696355e-34 2.6101510134712196e-34 3.1513367195242768e-34
-3.965477151710986e-34 -2.744418394217691e-34 -4.007000964942804e-34 4.4992401293675246e-35 1.4785774249279096e-34 -2.4415521703568357e-34 -2.7242685607531758e-34 -1.4479837851909656e-34
00000000: 44d8 cf21 7547 e82f 3f4c 3b23 de8f fcaf
00000010: e975 76ee f6e2 2630 0d9c 7dc9 3e02 4cb0
00000020: 9d24 0aaa 5e43 6ab0 9952 b355 65e2 3630
00000030: b79f 557f d17b 6430 2111 0bfe 62a3 66b0
00000040: d26d a7d3 d370 6030 0478 c207 35a0 4eb0
00000050: a30a 84d3 8afa 4130 5a13 3f79 3007 35b0
00000060: 0664 b9d5 c673 33b0 5fd5 d762 0555 3230
00000070: 6881 bc67 7755 3b30 5f82 427c 7747 4230
00000080: 88ca 7a38 8768 4030 acbd 6e85 0437 0d30
00000090: b53f 7e95 3936 31b0 7f32 7451 7ba6 0c30
000000a0: 114f 3c47 1e13 1fb0 309d 8b57 219a 1030
000000b0: b216 8df5 b6bc e22f 41ab 258b 5b0f 1230
000000c0: 86b4 9f10 5f05 0430 1be5 f41a 787e f3af
000000d0: a184 af5a 9d0a f22f 0836 1996 16eb fb2f
000000e0: 5b3f 2fff a6ac 1130 71c6 8106 4fc8 f62f
000000f0: 2b6c 4f1e 018c fcaf 48db bcf5 a40c e1af
00000100: e261 9212 923a f72f c15f d17e 9740 eb2f
00000110: 7903 4e13 eda9 e42f cd5a ab93 acc0 ca2f
00000120: a277 d235 cf27 e5af 8698 07d3 cc6e b32f
00000130: c721 5885 2dc7 e12f 353c 709d 6851 d7af
00000140: 04e6 d8c9 c814 daaf cff1 d53d 37e3 c32f
00000150: 25e6 ee13 67d0 de2f 0cb1 eca6 643c b22f
00000160: 2262 ab0a cbc2 d5af 9c56 791a 6be2 d6af
00000170: 02f6 9143 2dd5 a2af 2011 ba86 e273 e12f
00000180: 03ae 7bd8 6391 c7af 6b5a 6bda cc81 d2af
00000190: 5da6 a469 3b68 e22f 2424 ffa5 f757 d02f
000001a0: eaac d436 ed9f a3af a27b ae98 17e4 c1af
000001b0: dbf5 2e3b b22e c5af 143b c137 cc2e ddaf
000001c0: fdfe 3140 8b4d d3af 5b09 e24a 3fd9 df2f
000001d0: d074 ebe4 ae55 c02f 50a0 260e 752f dfaf
000001e0: bfd1 65e8 c599 dbaf 0d93 bfd7 51d9 dfaf
000001f0: ff08 cbfd c0f1 dcaf c2a4 06a2 5a8e e12f
00000200: 1b95 af9f dcba e0af cf47 ea8d 371e d62f
00000210: 13b5 9967 80e3 d82f 7fd2 6e91 c88c da2f
00000220: ec65 42e7 8508 dc2f c4d5 c6af 4cae b1af
00000230: 913d eb2e c66d 6f2f a0be f5bc 93c5 b12f
00000240: 6727 3b6c 6a82 c62f e915 9a7a f4b7 db2f
00000250: e500 e184 c2f7 b62f 1271 10a6 6842 d1af
00000260: b715 e81b 1730 c6af af56 f8d5 6e4f dd2f
00000270: 4544 976e 103d c8af ef9a 964e 7c36 dbaf
00000280: 904c 7158 d97a df2f 0bff 74bd ebcf d92f
00000290: c79a ba6f 3f14 d9af f16b 773e 313f e12f
000002a0: e46d 1607 6303 e2af 6674 c3db d670 deaf
000002b0: d4f4 bbf0 873e df2f d4fa 659c 57f8 e0af
000002c0: 9214 dfca 7d55 d82f 5469 f73a 803e cbaf
000002d0: 7ef0 1b32 9c71 dd2f 8e32 353d ea88 bb2f
000002e0: a241 f43c 9c08 c3bb 2339 7483 81c6 02bc
000002f0: 4419 7b1c e5f6 043c c40b bde6 8051 12bc
00000300: 9366 bd45 1b41 07bc ee5d b9bd 2304 1b3c
00000310: 4859 f2a5 5f5a 223c 6c07 280c a888 21bc
00000320: 59e4 88a7 1809 34bc 7a9c 3159 6dbf 443c
00000330: 41b4 29e1 0d09 45bc 020a 2290 fb11 3bbc
00000340: 2088 1533 1789 433c 9802 5619 590f 46bc
00000350: 6b41 13bd 6558 213c 3a57 26f7 0efd 39bc
00000360: 03be c091 2da2 11bc c009 3b21 f9ce 3e3c
00000370: b957 536f 571d 10bc d318 5981 ec7a 43bc
00000380: fc3d b8cb 52e3 23bc c9e2 44f2 46c3 4abc
00000390: 5c69 f06f 93a3 373c 6127 5794 e22a 51bc
000003a0: b55e 03aa 4996 4ebc 176d b1c9 a16e ea3b
000003b0: aebf 2cf5 78df 4e3c 70d2 0b90 14bc 47bc
000003c0: 458e 06bb 09d1 133c 1ec9 f1bd ea18 36bc
000003d0: c906 50f8 42ff 273c adb1 3cd3 2f3b 483c
000003e0: 3d09 53f5 0620 453c 7b07 3ede 84fe f53b
000003f0: 62f5 c898 5075 38bc a624 261b 7a95 4c3c
00000400: fc5d 1b07 9621 40bc f7c7 012b a9e3 3abc
00000410: 7e6f 93f9 1513 403c e837 f334 ad95 3cbc
00000420: 9c52 7d19 714d 503c 5f14 1c3c 058d 4cbc
00000430: a3c3 d43e c7d8 343c c349 f085 f1c2 283c
00000440: f71a 1f2a 3ee9 37bc bf24 f05c f4ac 4c3c
00000450: 9f69 69f1 3aca 43bc a406 1fad ac22 4fbc
00000460: 7b76 1c0f 30e2 453c 9249 c103 e20f 4fbc
00000470: 6e74 52a3 65b3 443c b313 b7c3 a39f 3cbc
00000480: 2e7e 7ead 8ae8 103c 9e60 807b e9af 173c
00000490: 214e 9894 6852 4c3c c471 e91f 67b8 49bc
000004a0: 4add b535 48e7 3cbc a030 6416 4272 433c
000004b0: 5905 4856 fb07 3b3c e118 5f44 a753 30bc
000004c0: 5a18 4fb5 113d fcbb c5ef f089 ff75 48bc
000004d0: d654 53fe 1c85 493c a201 0143 d339 403c
000004e0: 8c34 81f6 7153 3e3c c86c c12a 08f0 343c
000004f0: 33c9 06ba f305 2f3c 032e 85f8 a30c 1ebc
00000500: 4858 e48d 6537 0f3c 42d5 2dae 1e4f 043c
00000510: 3a3c 63c8 22ef 083c ed5a cec1 c290 023c
00000520: efe3 db6e c640 123c d32f 67aa 3df0 f8bb
00000530: 9c95 681c dff5 e5bb 4459 6536 7940 f43b
00000540: a844 d0ad 3279 bb3b 3e6b 0a85 0805 d03b
00000550: 81af 7578 b8d9 f5bb fe98 4b4c 94d9 20bc
00000560: 2918 60ec 62b7 2d3c c3c0 d3e3 fb97 31bc
00000570: 0334 518c bbbb 093c 8cd6 d825 f15e 303c
00000580: b7d9 9035 4f8e 013c 7792 cbde eb5b 363c
00000590: aa24 9176 3060 353c 83d1 af64 132a 1f3c
000005a0: 16ad 32ed 6ce5 30bc 6b01 e161 5592 2a3c
000005b0: fe34 7639 2ed4 2bbc 1fa1 acdd c0d1 36bc
000005c0: 7920 3e2e 70a0 ec38 af26 941e 1687 aeb8
000005d0: 0701 6d38 ea99 f338 ccc5 39ce d4bc dbb8
000005e0: 941b 68ca 7ffe df38 c285 4150 15e6 e3b8
000005f0: 5e08 0325 07c7 f8b8 c66e 3a97 a89a e4b8
00000600: 3dd1 12c4 9747 f738 baee dacc 9adc f1b8
00000610: 9e82 94be 7da4 dd38 ad93 cee7 691e cf38
00000620: fe27 0d9b 291e ea38 10be 3ece 30c4 f4b8
00000630: 0a51 a167 b774 f4b8 5b69 a662 2e09 ebb8
00000640: e461 7900 f398 f438 0706 54e2 ebb0 f4b8
00000650: b1b4 6f79 a8a8 f438 8a42 987e 3063 f4b8
00000660: ad72 4a92 5200 f438 8268 e217 4166 9c38
00000670: ed8f 66c1 2dcf dfb8 3812 5d84 fb0e f738
00000680: c73d f613 6d3c f6b8 a378 ad2a 9726 eb38
00000690: 2792 2888 db14 f6b8 d9cd 0b6c 7615 f0b8
000006a0: dda4 1d1a 2459 f2b8 32f1 b9f2 aea2 eab8
000006b0: 9eef 2084 029c f5b8 3fbb 8fb4 487d f5b8
000006c0: 58b2 619f af36 efb8 18a3 bf9a 476d d5b8
000006d0: 2c98 6963 186a f338 8fb5 7d2d 027a ef38
000006e0: 32c6 0166 6e00 f8b8 5808 29c0 0af7 ea38
000006f0: 1c61 6400 a1af fa38 5d7d ae08 4189 f3b8
00000700: c1ce 802d c8ab ed38 892f aa6f 29b6 fab8
00000710: 921e 9797 165c f0b8 ee26 a038 6a2f 0039
00000720: b594 9f4e 7657 f3b8 73b4 30f7 fde0 e0b8
00000730: c914 3f06 7aa6 f938 3b31 a258 e6b1 f6b8
00000740: 3ce1 f500 cf7f cc38 bf1b b98d 1019 f838
00000750: 205b e347 8e90 fb38 a61c f0eb b061 fd38
00000760: 47c5 f1ce f8f6 cf38 a7d5 03c0 a8dd f7b8
00000770: 062a 0bd3 3f74 e438 2163 8cec fb71 f9b8
00000780: 99bd 8eaa eba1 f9b8 cd7c 2611 de50 f838
00000790: 6c99 e1fe 3f71 f538 0830 4e6f 3f25 f538
000007a0: 0d62 1486 1202 ebb8 a817 74ab a3eb eeb8
000007b0: e5c5 4162 2daf f538 cb03 9be8 262e fa38
000007c0: a9b8 988f d178 00b9 c42c cc7f bbcc f6b8
000007d0: 8d90 076b f9a4 00b9 b465 8f76 0fe7 cd38
000007e0: 20c6 1e3e 2c91 e838 5813 4071 9b48 f4b8
000007f0: ae28 e9e2 e0a1 f6b8 ef78 10b8 0a0f e8b8

fc.bias f8 [4]
0.11824436793881722 0.1280532056286382 0.13979268146802473 0.13547924012805668
00000000: d1c0 3b4d 4345 be3f e456 2925 0c64 c03f
00000010: 350a 9001 bae4 c13f 1087 d13c 6257 c13f

exp_avg f8 [32, 1, 5]
-2.4044659986203267e-33 -2.5641394792691904e-33 -2.6974583065324737e-33 -2.5107193775655382e-33 -2.4365973478909564e-33 -0.0012108140142207248 -0.0012473583162986334 -0.0014269809302755601
-0.001410366480816429 -0.0014407447711314704 -3.875289201203096e-37 -4.154547536180629e-37 -4.24740402709077e-37 -4.30451841073531e-37 -4.106438991036644e-37 1.2464585981049288e-56
5.256862846715955e-57 8.632753599780917e-58 -2.8952351521919076e-60 -6.880709679553278e-62 -4.404341564706236e-53 1.1259073176106882e-50 -6.649019585086193e-51 -3.449594560396207e-52
5.6700036714312715e-56 -1.0783466011229406e-15 -1.688086837734166e-15 -2.1025923945394497e-15 -7.800748656491277e-16 -5.202443014798994e-17 -2.352882823878741e-08 -3.998667209212672e-08
-5.401123310296289e-08 -4.878836111792518e-08 -2.602672288746487e-08 -0.00683690277034713 -0.0057699251089766805 -0.0056396922853808465 -0.006690703446424394 -0.00573981803620694
2.6572946227355705e-62 -2.053442038130544e-61 -8.837036638765724e-64 -1.5193050571866853e-64 -4.614522627324023e-66 -0.00042155233096289376 8.953971469778794e-05 0.00045315201092829566
0.0011980064516896565 0.0017012662196663356 -5.162927448349595e-63 -1.2193436793613727e-60 5.184872975590176e-57 -9.68837136649102e-56 -8.304318761136762e-56 2.6801177694714696e-49
9.690305523703639e-48 2.0087936324574193e-47 2.3190473270973375e-48 -9.497771830802068e-50 -2.2794802836715978e-51 1.0702241191901756e-51 -5.485623417930434e-50 3.870359839582913e-49
1.7211111253162162e-49 5.081982326023938e-66 -5.2485065007103636e-65 2.2596234041072432e-64 -4.490749079730859e-65 -4.8972648255508786e-68 -3.0227441417309422e-06 -5.3497426787404514e-06
-6.750039235539252e-06 -5.999490075339148e-06 -4.153033063092378e-06 -0.0001255028126680478 -0.00012753399031552906 -0.00012811671282911472 -0.00012498929621159816 -0.00011886730660222601
-8.56293241558685e-05 -8.715012217979291e-05 -8.992950881395753e-05 -8.952739145270776e-05 -8.449566122852614e-05 -8.648835760816955e-26 -1.8068711269868926e-24 -2.140863442686811e-23
-1.3613450388151662e-23 -6.3879930188667195e-25 -2.391648183294326e-64 -1.98667831051806e-63 -1.4176673958346812e-63 -5.100291555417031e-64 -2.5115754471787206e-63 -1.2222940803312504e-37
-3.251736151621233e-37 -1.7438882745677645e-37 -6.450635472674951e-39 1.1491617329268677e-40 -2.043800785726317e-31 -2.917496810058188e-30 -8.008366684363057e-29 -6.060051699331396e-29
-1.185701804603277e-30 -5.218653142498229e-63 1.180108658081069e-62 1.4656245294637835e-60 1.3560939662220002e-60 -2.5675938854532933e-61 -1.34402837667375e-19 -1.0294230663016096e-19
-1.3386445264035077e-19 2.2249900832950323e-20 2.4606203910284432e-23 -1.2213162534917858e-26 1.0862381485351342e-27 -1.7491985864660383e-26 -7.658333463637844e-26 -8.159226140678929e-26
-0.000505442966058125 5.1527280901911706e-05 0.0006029953134432634 0.001574988564655598 0.00109381739942624 -7.65390425740032e-22 -1.3452169894444592e-19 -1.9163593934428547e-18
-3.160340499096943e-20 -3.1102142448276293e-24 0.0031693166271679037 0.0028730072724221707 0.0020513391319513493 0.0017208015283109563 0.0017480465465463334 -5.561978883355202e-28
-2.1226641980453967e-27 -5.551525495767791e-27 -1.671089677329227e-27 -5.0111395544994233e-29 -4.0709278914128947e-22 -1.554628134797746e-22 3.716010860541963e-22 -1.557522272061794e-22
-1.2885086038382767e-21 -9.275110173484703e-28 -6.98841405744879e-27 -3.003681268739491e-26 -1.1157378593971624e-26 -3.28089985372954e-28 -2.669495034452088e-10 -6.933574114097074e-10
-1.3161169899158547e-09 -9.99937258592489e-10 -3.900542456839481e-10 -0.00016504634258789956 -0.0001643128457706276 -0.00016302651425967606 -0.00016137708176132672 -0.00015826799295240337
00000000: 5886 2bc3 2af8 28b9 b559 f9e6 a6a0 2ab9
00000010: fe47 93fe 1203 2cb9 7734 a010 a312 2ab9
00000020: a176 bd39 964d 29b9 b96d eda5 85d6 53bf
00000030: 0f80 31cb cc6f 54bf 44f7 5c1b 3161 57bf
00000040: d452 457a 811b 57bf b90e 21eb eb9a 57bf
00000050: 189d 8cf6 d07b 60b8 9636 43d3 e6ab 61b8
00000060: e6fc e16f 0311 62b8 2622 7f9a 344f 62b8
00000070: 747e c21e 8477 61b8 f34c 9750 748f 5334
00000080: 71fe aff8 b97f 4034 6a4c 008a ebac 1534
00000090: e2f5 2a65 1f9c 92b3 f91b f1a8 3b4e 3cb3
000000a0: b53b cf00 c4df 10b5 d220 17af 9ed9 9035
000000b0: 9262 02e3 cbe6 83b5 af87 d1cc 3085 40b5
000000c0: aa35 4123 973e 7634 3bd6 25f6 fe6c d3bc
000000d0: 45dc f82c ed68 debc 774a 3c7b 3ff0 e2bc
000000e0: 0167 28b3 eb1a ccbc 8567 da66 73fd 8dbc
000000f0: 9fcb 5a18 8e43 59be c859 11f3 b977 65be
00000100: 6d7a 8d52 3fff 6cbe cfc2 e6d9 6b31 6abe
00000110: 189b fdcd 2bf2 5bbe a587 df1c 0301 7cbf
00000120: 0c77 4b7a 34a2 77bf 71ad cd5e a519 77bf
00000130: 6583 d507 b667 7bbf 070c 02ac a282 77bf
00000140: 71a2 186d eadc 2533 5e16 2032 511e 55b3
00000150: d6de 29a2 2644 d7b2 a54e 14d0 0900 b0b2
00000160: f5ad 9af0 101a 5fb2 701a 9c79 79a0 3bbf
00000170: 5ff4 d495 e878 173f d06d 2a11 a1b2 3d3f
00000180: f323 f2a1 cda0 533f 49cd 9db1 a0df 5b3f
00000190: ec3d 3efd c1fd 00b3 783b 0809 be59 7fb3
000001a0: 4fee 8883 e245 4034 c84b bb00 3101 83b4
000001b0: 3f85 560f 2a4a 80b4 ce74 8b69 9b11 d935
000001c0: d588 26c0 2553 2c36 6252 7b0d ca5b 3d36
000001d0: adee 0ad8 441d 0b36 3909 3570 87c4 c1b5
000001e0: 990b 9f34 964a 6bb5 1fa8 406b 74a0 5935
000001f0: 2681 c3f2 2e86 b4b5 4cf9 d1d6 d519 e235
00000200: 65b3 c90c 3e19 d035 afad cab1 5120 6132
00000210: 8bc3 356c fa1b 96b2 69b7 e7c1 eecb b732
00000220: a607 3571 d0ea 92b2 48d5 8fe0 f21f f5b1
00000230: c3af 722a 4b5b c9be 9f03 fa11 3e70 d6be
00000240: aaa4 27a8 cc4f dcbe 6dd7 4e46 e729 d9be
00000250: ca99 2d09 496b d1be 9eb8 b1f3 2c73 20bf
00000260: dac2 93a2 54b7 20bf 49a4 ef2e e2ca 20bf
00000270: 547b 10e1 f161 20bf 7414 16c7 0c29 1fbf
00000280: d616 5a96 7c72 16bf 598d cbb2 8bd8 16bf
00000290: a809 7c32 1193 17bf 8077 a0df 1478 17bf
000002a0: b2cd 1168 6826 16bf 7e3c 824b 50c4 baba
000002b0: 5b73 63a2 9879 01bb d925 80c4 a6e1 39bb
000002c0: 3838 e4a8 2875 30bb fb73 0da3 5cb6 e8ba
000002d0: 2d7c 43e9 de2f b9b2 7920 b3b8 1727 eab2
000002e0: 6233 a598 87a9 e2b2 f4ca 35ee 2ddb cab2
000002f0: 2c13 ad0a ff87 f0b2 1b33 3171 d7cb 44b8
00000300: 2310 f87b a7a9 5bb8 c625 3e67 b4ab 4db8
00000310: 2c1d 09d3 6f8f 01b8 c79b d8be 6e05 a437
00000320: b67f 8de3 ce94 90b9 c664 0138 4196 cdb9
00000330: b208 e5af 2861 19ba 3f78 fc7e 7f34 13ba
00000340: a067 8808 840c b8b9 1c5b 17e2 b42c 01b3
00000350: f800 caa8 326b 1333 4bf2 2f39 62d7 8233
00000360: 2638 0ae8 ea6e 8133 e766 f9da fa67 5ab3
00000370: 6db6 487c 98d5 03bc 1b9a 74cc 1962 febb
00000380: cc61 858b 41c1 03bc daa1 c7b1 9e44 da3b
00000390: 56d6 7f52 40bf 3d3b d2df b3eb 023d 8eba
000003a0: 9ed6 47bb e183 553a efb8 047d 6ea7 95ba
000003b0: 253d d98f 8eb3 b7ba 334e 95aa 6740 b9ba
000003c0: 48e3 2d81 f68f 40bf d9a1 fee3 df03 0b3f
000003d0: e409 5093 4ac2 433f f9fe 1c18 fbcd 593f
000003e0: 854d 557d cdeb 513f d294 4ce8 66ea 8cbb
000003f0: f352 8d0a 16da 03bc b9b6 d92c e0ac 41bc
00000400: cf1d 5483 c5a7 e2bb 674f 267a 8414 0ebb
00000410: fa98 75e8 89f6 693f 6dd2 d608 2289 673f
00000420: 3af5 824f f8cd 603f 363f 5e92 9031 5c3f
00000430: 6691 f4af d6a3 5c3f 8c9e 2f46 8408 46ba
00000440: 2527 b6d4 9705 65ba ce9c 4406 657d 7bba
00000450: 9357 d235 b78c 60ba 9818 eeee 09c3 0fba
00000460: f9e7 80da 51c2 7ebb a040 a421 2d7e 67bb
00000470: 5635 c873 cf13 7c3b 560e 9c58 5f89 67bb
00000480: 5382 4364 d856 98bb 7225 aa22 0a5f 52ba
00000490: de61 da02 6f4d 81ba 3b77 50e0 8597 a2ba
000004a0: 6a6d 952e d49f 8bba cec3 b199 74fe 39ba
000004b0: 9585 2aaf 3958 f2bd b113 ff16 d6d2 07be
000004c0: ad27 10ff 579c 16be e916 2c44 c52d 11be
000004d0: 0eee cf27 e8cd fabd 4937 9849 09a2 25bf
000004e0: 1819 0999 6c89 25bf 6aec 2018 435e 25bf
000004f0: 5fce b493 ea26 25bf d8a3 1cb5 97be 24bf
