dl_experiments/best_checkpoints/horton_1h_CNN_cuda:0_checkpoint.pt (torch, 767805 bytes, 30 tensors)

block_1.0.weight f8 [64, 1, 9]
-0.059664807432874785 0.027784145412869873 0.06437929368723468 0.055744638108647424 0.024253122909330654 0.004684387850263249 0.01713310489189937 0.04710012783187525
0.02300903100323747 -0.007962421731175348 0.07166376817843616 0.21043675974513146 0.02016795986382978 0.0443705016606662 -0.06130093075379919 -0.04181989003086315
-0.050544058109469873 -0.06445576682343765 0.1807672223777176 0.14970578797877584 0.10678166218208705 0.0009293665281025591 -0.04884417218374202 0.02847336674664113
-0.04184563888109567 -0.01893960301137235 0.08400771816866903 -0.12433051250188659 -0.02731028045976483 0.04905626117657052 0.0198570786419377 0.08350980477526405
0.15582932023396923 0.1497567799849564 0.045666346071350755 0.009666644921862071 -0.014151555982172541 -0.0214408895931985 -0.019002875820713243 -0.015847811840353387
-0.0003430903350300891 -0.004116104706786896 -0.008868337239402996 0.005430892123500096 0.010559018850954264 -0.21906733793954264 -0.11823210707896831 -0.26695453739280095
-0.13870069746084296 -0.18443019122334073 -0.09889344435524608 0.002479244492437943 0.18049881744887897 0.08477017917900606 0.22824392616602301 -0.05238856111288208
-0.21604360640980932 -0.008013440941206 -0.0216510360176891 -0.18665372623545576 -0.009417215419933856 0.046071480504822016 0.007659025688311509 -4.823134952853501e-14
-1.4611973135081984e-12 3.517056430062035e-44 -9.032302983049559e-17 3.1087746686029734e-17 -1.1038234355215003e-52 1.2123240380457242e-28 3.680782777518477e-11 -1.766754652726665e-12
-0.031445325638944574 -0.007896269632622556 0.008920194163231034 0.005056911654727637 0.0018517239754588634 0.01905951276909973 0.0035258557110211166 -0.04106803491266513
-0.05583993291601104 -0.0942348047021407 -0.12783993316654946 -0.09195557985766731 0.015850610446581998 0.028734391115424113 0.11895446506971875 0.16938180407292122
-0.014531805535422987 -0.0008263229709410547 0.09474567071986251 0.0004442629335977145 -0.09567827605582349 -0.3662861532139272 -0.30672750022553413 -0.22283549671247685
-0.29260841035132085 -0.11069646088313334 0.013896309339681001 0.19782728370864552 0.11839329539442416 0.01055088660035463 -0.06331416033625317 -0.011633838333053021
0.022802025205497307 -0.026432093326196924 -0.03768700523149088 -0.06570454487450246 -0.00010598187545249674 -0.029682305435254398 -0.016723741517705972 -0.002696093378381183
0.011174670583322745 0.015395292611565492 -0.005034541835423782 -0.02729436682745709 -0.0594833600854491 0.0021725383367205923 0.0017582465978228782 0.003433680893608918
0.007855510531912127 0.008251577127165517 0.00529410556228151 -0.0002465459968116822 -0.00878907852677609 -0.010843197669968682 0.00958817749755551 0.02659418292560053
0.015420001264437171 0.0017958768471848586 -0.012809580300880566 -0.0222128575743942 -0.0031388704841020937 0.004644379691950685 -0.007753320431623258 0.00560745447045449
0.01571915887554586 0.005261279235240351 -0.010046412654902727 -0.008236406225523043 -0.021640787429761325 -0.0287070118448537 -0.012011911213571482 -0.0012099089115366658
0.08144264580220875 -0.11641561093493462 0.00951570860513084 -0.02178272878081858 -0.2700929485090548 -0.1717116998295818 -0.21629282119091855 -0.125988133910743
0.08665494017803443 -0.0371039806672779 -0.03616160232323517 -0.015133826217885536 -0.08686245688987893 -0.11316492597549159 0.026341621713529297 0.045643062271973234
-0.01803850056996906 -0.15204362920936967 -0.20311861962831168 -0.09336496736367146 0.10150452220605774 0.09771516800799718 -0.021351023678651822 -0.028714215252707502
-0.028405061248723166 -0.050784550210381085 -0.1455874796899274 0.05961814318972226 -0.4156738851040157 -0.45319378860218573 -0.43470386306100484 -0.34672637060088995
-0.1717646799017798 -0.022898958204744455 0.1672567705763334 0.17467117958251868 -0.21723580467053547 0.002736595069467296 0.13371643670682898 0.0034465955972850394
-0.35495326379263076 -0.26269645912071543 -0.27732143060396536 -0.3561138275742076 -0.23060520633528664 0.022090136811499808 0.04329376944651274 0.052425335111961
0.04516834576628243 0.02888546231043679 0.007895082290150278 -0.031193026352178313 -0.060221374305372465 -0.04802030504124348 -0.1190228313476993 0.18797367321641248
0.18801272484137108 0.0390379569983245 -0.012929389815518288 -0.06471549440633839 -0.008604318688853412 -0.016554519558995652 -0.022091775798686156 -0.1960565698029995
-0.2024239946183161 -0.009136797056866803 0.1651723349288437 0.00888647489445203 -0.14044836981460013 -0.0031479192712188598 -0.07497419997158081 -0.23170065235546952
-0.06375193886274702 -0.2502960756588863 -0.2371185981044986 0.16512172965981672 0.16269294896409253 -0.1293165213113489 -0.15650607947948147 -0.1472536279607045
-0.09041712396232045 0.05018692024071758 -0.028606146858726908 -0.06665226891207583 -0.12716056284319152 -0.09173220411413197 0.078553907704921 0.2841377962297047
0.20840149881177697 0.14229517057192606 0.06960712141969973 -0.07162292556600386 -0.14352902364909448 -0.12993155935911976 0.025805903238537316 0.01817987673491167
0.1702915412318962 0.22712372989137555 0.2485802493235826 -0.00022942459464124588 -0.002499393602439581 0.00024453917490185266 -0.0063179305250388685 -0.00858620068463049
0.007241965385935596 0.000780290689781281 0.01870346858678623 -0.002645238110408754 0.16300600264347925 -0.01592152697114307 -0.04265389143256836 -0.09926914121417585
00000000: 69ec 4ab9 628c aebf 1c14 956f 7273 9c3f
00000010: dd1e ed50 297b b03f f63e 35ab 8f8a ac3f
00000020: 18c2 e286 cfd5 983f 7208 e6c9 ef2f 733f
00000030: 6832 c234 578b 913f 03c4 5909 821d a83f
00000040: 1dac afee ad8f 973f 0578 7527 9a4e 80bf
00000050: 2b6f a284 8e58 b23f 65a3 7d7c 97ef ca3f
00000060: bb33 2be0 e8a6 943f 4950 14fb bab7 a63f
00000070: 5496 9ae9 d562 afbf cd7e 02a8 6a69 a5bf
00000080: 27b2 2c29 e9e0 a9bf 9696 8b52 2c80 b0bf
00000090: 0589 265e 6123 c73f 2b04 b22b 8f29 c33f
000000a0: 1774 e202 0b56 bb3f 60aa 0e6c 1774 4e3f
000000b0: 1d3c 4274 1a02 a9bf 1e73 ef4b 1f28 9d3f
000000c0: daf5 f2a4 ca6c a5bf 69dc 213e e764 93bf
000000d0: 7861 25a2 8781 b53f 742c 17dd 1fd4 bfbf
000000e0: 2857 ade5 39f7 9bbf 17b6 d5fa e61d a93f
000000f0: 51e4 71fd 6955 943f e1b4 6708 e660 b53f
00000100: ecd6 1415 37f2 c33f 38e0 31ec 3a2b c33f
00000110: 6cfc ce4d 9461 a73f 765a 691e 1bcc 833f
00000120: 7c2c 0cb1 7dfb 8cbf 2d55 66be 99f4 95bf
00000130: fe3a b868 7d75 93bf 5019 45a6 683a 90bf
00000140: d93e bec4 197c 36bf 6917 a471 0cdc 70bf
00000150: 9d19 4e13 9029 82bf 65c4 ef00 b43e 763f
00000160: d53d 2485 f79f 853f 163b 0906 660a ccbf
00000170: 64c8 3d99 7544 bebf a6bc e77b c815 d1bf
00000180: 426b c3c7 f1c0 c1bf d581 d993 689b c7bf
00000190: 7269 4bad 1451 b9bf c01f 7140 5a4f 643f
000001a0: 146e f4d2 951a c73f def8 3f9b 7fb3 b53f
000001b0: 0265 32d3 1837 cd3f 8622 5469 acd2 aabf
000001c0: 9b1f 0520 51a7 cbbf 69d1 2ad6 5969 80bf
000001d0: 7462 7b6e b02b 96bf 09cd edf0 44e4 c7bf
000001e0: e7e8 fb41 5549 83bf 70d0 175c ae96 a73f
000001f0: c5bc 9b0d 125f 7f3f c5ce dfb8 de26 2bbd
00000200: 7db9 22ce a5b4 79bd 1be0 40cb 3a19 e936
00000210: 00bd 78cb a908 9abc 5f98 23dd bdeb 813c
00000220: d06d 8966 2225 25b5 1045 4442 c535 233a
00000230: ae62 70c1 3d3c c43d b0d8 b76e c114 7fbd
00000240: d671 760a 9a19 a0bf f4fb a85e eb2b 80bf
00000250: e1ef a331 c044 823f e824 d062 8eb6 743f
00000260: 34b6 9c7a b156 5e3f 307b 1540 5684 933f
00000270: ac19 045f 41e2 6c3f a6c5 b895 de06 a5bf
00000280: 9ac5 5e3b 0d97 acbf 4534 57ac c51f b8bf
00000290: 2a5d 0916 0f5d c0bf c663 2ca0 668a b7bf
000002a0: 6575 f575 243b 903f 88e3 7158 8c6c 9d3f
000002b0: a107 30c1 cc73 be3f 33ed 838e 4dae c53f
000002c0: bd37 36ec d9c2 8dbf 858e 6c11 b313 4bbf
000002d0: c8ec 2d95 4041 b83f 0cd3 47c5 7e1d 3d3f
000002e0: a2f0 981a 5f7e b8bf 7c03 427a 3b71 d7bf
000002f0: fd28 9061 6ca1 d3bf f14d 62a1 df85 ccbf
00000300: 0795 3fa0 18ba d2bf 00a8 466f 9a56 bcbf
00000310: 4036 3111 ab75 8c3f ab7f e488 6752 c93f
00000320: 5be3 c8e3 054f be3f bc7c 2307 b49b 853f
00000330: 9a95 0458 5b35 b0bf 17dd 5659 7bd3 87bf
00000340: 9524 2902 6a59 973f a974 9ac1 0311 9bbf
00000350: 8828 e80d b64b a3bf d53e 6f57 03d2 b0bf
00000360: 00f9 92c1 52c8 1bbf 3d0b 75cc 0965 9ebf
00000370: 478d 8a4b 0720 91bf 1d33 631c 1e16 66bf
00000380: 2e70 97e5 bee2 863f 0d71 3b32 9187 8f3f
00000390: b82b 8988 199f 74bf 584a 8ef3 0df3 9bbf
000003a0: b346 725c 9a74 aebf f46d 60a3 24cc 613f
000003b0: 3a72 b3e8 9ece 5c3f a10c 9364 f320 6c3f
000003c0: 3ba2 9fc6 8c16 803f c478 36ef 33e6 803f
000003d0: 146f 06a4 45af 753f 79ac 46fe 5a28 30bf
000003e0: 6a03 ad26 0200 82bf cb3b 035b f534 86bf
000003f0: 96f0 3d66 f7a2 833f 5799 b767 813b 9b3f
00000400: e98d 1489 8594 8f3f 1f24 e214 746c 5d3f
00000410: 15fd bdc3 e83b 8abf e8b6 54a3 f7be 96bf
00000420: e04c 6b42 b0b6 69bf 34b4 312e fc05 733f
00000430: 8f16 071b f2c1 7fbf ddd3 0799 d7f7 763f
00000440: 7d15 2ae5 ae18 903f 93f8 01e4 d98c 753f
00000450: 1403 5cae 3693 84bf ce64 00bb 3fde 80bf
00000460: 4e01 15a9 0029 96bf e27a 28f4 5e65 9dbf
00000470: 0114 996e b399 88bf 1533 32cd b9d2 53bf
00000480: ea5e 38dc 6cd9 b43f 839b b5d9 69cd bdbf
00000490: bdf4 0eca f87c 833f c9cd ec2e 364e 96bf
000004a0: a780 2eef 3349 d1bf 58e7 8d23 a6fa c5bf
000004b0: f1f1 afb0 7baf cbbf b354 6a11 6120 c0bf
000004c0: 88fb 19a6 042f b63f 5be5 08ff 4aff a2bf
000004d0: 3fd1 b206 c683 a2bf 9273 5ac5 7bfe 8ebf
000004e0: 089d 9733 9e3c b6bf 9b76 1e68 60f8 bcbf
000004f0: 4702 224f 4cf9 9a3f 60ad 7e07 875e a73f
00000500: c94c 1148 af78 92bf 797b 8267 2a76 c3bf
00000510: d091 417a caff c9bf 9548 6b39 c4e6 b7bf
00000520: 5e68 454b 33fc b93f d8e0 ea7a dc03 b93f
00000530: bf64 bef1 0add 95bf 6e42 c35d 4267 9dbf
00000540: 71a4 6a64 3716 9dbf 5060 97bc 6e00 aabf
00000550: b6d6 fc4b 9ca2 c2bf 4107 7fee 4486 ae3f
00000560: 2eac 94a3 669a dabf 8cfd 3285 2001 ddbf
00000570: 22ae d226 30d2 dbbf f20f 99cd c330 d6bf
00000580: 609d 6491 62fc c5bf ec4a 6812 d372 97bf
00000590: 7d78 d47b ab68 c53f 212a ee0d a05b c63f
000005a0: cb43 4a02 62ce cbbf b499 6c4a 0e6b 663f
000005b0: 4cf7 4bc5 9e1d c13f 649b eeeb 083c 6c3f
000005c0: 8542 e6e4 8db7 d6bf cbb3 2ccf 04d0 d0bf
000005d0: 3d22 bb62 a2bf d1bf 2a6a c5a6 91ca d6bf
000005e0: 6aaa bfad 7884 cdbf 74a0 adfc cb9e 963f
000005f0: 5e63 c9d7 992a a63f 1e4f 9357 7ed7 aa3f
00000600: 69de c22f 4e20 a73f e90a d08f 2694 9d3f
00000610: 1926 e201 4c2b 803f 14f9 2e90 10f1 9fbf
00000620: d3d0 5202 56d5 aebf 3665 640f 1e96 a8bf
00000630: ff9d 1dc0 4778 bebf 159b 7c75 850f c83f
00000640: f377 360c cd10 c83f f58d 3879 c8fc a33f
00000650: 06b0 5153 b97a 8abf b00a 05d4 3191 b0bf
00000660: 9ce0 fb1a 249f 81bf 9a71 6d00 abf3 90bf
00000670: e180 43fa 399f 96bf 3123 bcb5 6118 c9bf
00000680: 3dda 678a 07e9 c9bf 973c 6524 50b6 82bf
00000690: 7a96 5cf8 5d24 c53f b71d 6378 1233 823f
000006a0: 16ab 9051 36fa c1bf 522b 404a aac9 69bf
000006b0: c6f4 eb58 8231 b3bf cb0f 2af2 5da8 cdbf
000006c0: e2da 780c 0c52 b0bf 6769 d1d4 d904 d0bf
000006d0: 92eb 10f8 e659 cebf 13ba 5f76 b522 c53f
000006e0: f297 8b5f 1fd3 c43f 7eaf ee9a 718d c0bf
000006f0: 90a9 7e26 6408 c4bf 737f 27f6 34d9 c2bf
00000700: a5a2 6a9e 9325 b7bf 10df 3d9a 19b2 a93f
00000710: 0c27 e404 ee4a 9dbf ed7a 2e83 1f10 b1bf
00000720: 9f50 601d cc46 c0bf 7002 a900 c37b b7bf
00000730: a9cd 90e0 1b1c b43f 504d 974b 502f d23f
00000740: 5dbf ea7a e6ac ca3f db19 fe67 ba36 c23f
00000750: c9f9 10b6 c5d1 b13f fc27 f34a e155 b2bf
00000760: 08c2 4cb7 285f c2bf ba35 15eb 98a1 c0bf
00000770: ef22 d0d9 dc6c 9a3f 7047 16e0 be9d 923f
00000780: d92e 30fc 1ccc c53f 21b6 03f0 6312 cd3f
00000790: 3d5e a344 7ad1 cf3f 25fe 0243 3612 2ebf
000007a0: 32ae 08b9 9b79 64bf 8e57 40c2 af06 303f
000007b0: bb2d bc8f d4e0 79bf 165b 1959 a495 81bf
000007c0: 9599 dc47 c0a9 7d3f 28dd 3a7f 8d91 493f
000007d0: 90a8 9b87 0027 933f 332e 9465 77ab 65bf
000007e0: 3ae5 3375 61dd c43f 4fe2 9296 bb4d 90bf
000007f0: 0f02 8019 bbd6 a5bf f852 04d3 b369 b9bf

block_1.0.bias f8 [64]
-0.039075387405145864 -0.05947040372056684 -0.07949952800059433 -0.052512910872636015 -0.01596420594692744 0.13680102862777274 0.15350488573324042 -1.159195585740676e-07
-0.02819698687258024 0.02147998902542309 0.16266980797331815 -0.08380308802649529 -0.0458315508318086 -0.031145328131655946 -0.04275397910260896 -0.024314931920687996
0.17751217567054617 0.12631648410957055 0.12253068080538655 0.0932712766904277 0.18010069559976655 -0.02596747573195317 -0.09190429919316341 0.2046964768140553
0.2324835215103177 0.004253876446418614 0.0019726552529508146 -0.03146912810144401 -0.009436578578007972 -0.11820215000563525 -0.06807325016448774 -0.05446237600462683
-0.018479525917276064 0.21481873913518204 0.15723314365856822 0.022689572109076597 -0.03803896972641192 0.014597957411460806 -0.053239223345535075 -0.015431603529211779
0.03503730468449461 -0.015676087336830364 -0.08057751468986808 0.07646178208246661 2.249425797843016e-24 0.16099800354611188 0.08397886542467553 0.13529953200792555
0.12216278662087436 0.18751990803274238 -5.927580542456659e-12 -0.025148353080756573 0.12440183217283832 -0.05649527127132274 0.1410724121628907 0.0058941195727898075
0.005580013299774413 -0.11574356308295806 0.13104364951961067 0.24229205605342136 -0.010819633333918246 0.20601332608531212 0.18670349859283855 -0.00682686108764318
00000000: 969e f76d b001 a4bf b997 1e9e e772 aebf
00000010: 6f5b cfc0 145a b4bf f4a7 a1e5 f8e2 aabf
00000020: 126e cbb9 eb58 90bf 0ffa 0134 b282 c13f
00000030: e10f 0050 0ca6 c33f 5793 cc70 ee1d 7fbe
00000040: c998 dac1 abdf 9cbf 71d0 87a9 d9fe 953f
00000050: 4e60 a540 5dd2 c43f d1aa 6082 1e74 b5bf
00000060: 2529 e5a7 3b77 a7bf 639e fe96 8fe4 9fbf
00000070: 7605 0a7c d9e3 a5bf 5c83 9d75 03e6 98bf
00000080: 6eca 920e b8b8 c63f a920 1978 232b c03f
00000090: 01d5 d0b2 2b5e bf3f 4aa3 0a5b a0e0 b73f
000000a0: 9e3e cb22 8a0d c73f 2c18 1dcc 3797 9abf
000000b0: d57c 6547 0a87 b7bf c7ea c280 7e33 ca3f
000000c0: fc73 df20 05c2 cd3f 005b 7f43 836c 713f
000000d0: 7bcf 8639 f528 603f 3505 0fb8 b81c a0bf
000000e0: 8e88 0723 7c53 83bf a651 9700 7f42 bebf
000000f0: d95b 309f 3f6d b1bf a7ca 9a17 7ee2 abbf
00000100: fa54 d7fd 4bec 92bf eda7 9331 2e7f cb3f
00000110: 5c2f ee34 3720 c43f 57c4 ac68 ef3b 973f
00000120: 4a9e e505 d879 a3bf a170 5dad 88e5 8d3f
00000130: cc5b 44e6 2b42 abbf b3c7 dcc3 9a9a 8fbf
00000140: 8f10 85db 68f0 a13f 2582 c369 640d 90bf
00000150: 29cd 625e baa0 b4bf 8b25 70d5 ff92 b33f
00000160: 0f2e 3dfb 4ec1 053b fad5 f923 959b c43f
00000170: dcdd 8d90 a37f b53f c0ae 91bc 7e51 c13f
00000180: 732b 5375 0f46 bf3f 42be 2c00 a700 c83f
00000190: 94d4 f8c4 dc11 9abd 3ed5 1e68 7dc0 99bf
000001a0: 9aac be68 ccd8 bf3f 865b fabc f2ec acbf
000001b0: ddc0 4d2a a90e c23f 538d dcac 6e24 783f
000001c0: 75f2 236a 11db 763f f7ef 29c2 5ea1 bdbf
000001d0: e481 84ce 09c6 c03f de3e 6a14 6d03 cf3f
000001e0: ce53 979a 9a28 86bf 01ce 0909 a55e ca3f
000001f0: 9da4 4076 e6e5 c73f f733 b191 7bf6 7bbf

block_2.0.weight f8 [64, 64, 3]
-0.0063182864630257065 0.0035248011105894644 0.004167620634513103 -0.003709789425000084 -0.0022327242577805943 -0.002715942281339549 -0.01864754911960616 -0.02228451705467956
-0.022641468586777982 -0.049188827441051866 0.03195401294498411 -0.022628806649123857 0.08109325243339072 0.08887719758206505 0.08533591560843515 -0.03486113475631142
-0.0003223101273266417 -0.004198041127591982 -0.08134447542308292 -0.05193365918111732 0.03038138086499415 -1.9044269213242707e-64 4.021298212889522e-67 2.5950438231897233e-77
-0.0003260723520150817 -0.0002571561169366085 -0.0001498318530439704 -0.015975208417731694 0.037750323252816506 -0.012744261503116588 -0.02003052450382159 -0.0453648047559036
0.027453853529558328 0.00024940549802381117 -0.0020353291352213205 0.0013404800610370244 2.5066582257317336e-16 1.309306347597072e-14 -5.403859447892503e-15 -3.8338077179699784e-30
2.6869849535119e-29 1.4884490318249365e-29 -0.0006474089695023782 -0.0005349062154676951 0.0027115276966319245 1.4609884970005852e-18 -1.0720882694032396e-18 -3.482570306061236e-18
0.028442834400816918 0.022207280552156674 -0.06580992694951938 -0.005680575041246503 -0.001574146651134423 -0.011884040647246916 -0.0006313786426008792 0.0418294735633152
0.03219554427470956 0.0010598202205535168 0.010436662663319768 -0.0025576011026838957 0.040825169405729965 -0.040148638934067685 -0.03053776803487329 0.027115085834608643
0.04484059477754998 0.05321142009894893 -0.006600066261416529 -0.018388597234495936 -0.008790583288745846 -0.01951388861638867 -0.03829274501064537 -0.010838711705201365
-0.06776009385863009 -0.0389476274484772 -0.027821910410294203 -0.028120057450486517 0.0226564494324083 0.05185065906045924 -0.03865617092765614 0.006059135751225379
0.052912188368375794 -4.102038725320444e-58 3.70893487151494e-58 -1.9125352534955793e-58 -0.03222239912006266 0.011597497087568708 0.03908829371643376 -0.009401090372778169
-0.003755973310162064 0.011636608875583848 0.019343341140219975 0.02362071060131846 0.019831550475320953 7.061390746260514e-08 1.8775405202412454e-08 1.799216529215373e-10
2.7555294859852275e-39 -1.8356731674561356e-41 -2.1474778080666986e-33 0.012629834935014279 0.003567845790680681 0.03863773817150084 -0.002801497611665578 -0.09033994045310129
-0.03747597644558089 -0.030895609432560707 -0.023089952809278648 -0.012434337028733904 1.0147350604291453e-05 5.267839606635062e-05 1.918265472493773e-07 -0.031657765498445976
0.0017066643114997 -0.00941787157283994 0.019535454055980218 -0.024817522316732444 -0.016169298075436014 -0.012320820550332666 0.02148145230177443 0.04196808702157147
-0.008214266247508163 0.009072475199981243 0.023700157124203765 7.574395082216529e-68 -3.063547227854091e-68 1.673666104938567e-48 6.790208068382595e-05 0.009254944508165962
0.005479154794457063 -0.03063877440885214 -0.034264537375359866 -0.04876094854414827 2.6188046291257045e-61 2.6635504413792374e-29 1.4729569467139866e-29 0.00901277218545183
0.042436481693303774 -0.02655615997364235 -0.015478363289771088 -0.00768474798141298 -0.03377104098284824 0.05214015931746988 -0.03745958225488699 -0.08295289143878411
-0.02925489700899915 -0.06990396519895986 -0.02313083387916549 0.0230570313735036 0.0035657476034443207 -0.04251947598315169 -2.173622306654198e-34 1.9962989304593207e-33
-7.6042467463152045e-34 3.221046115376801e-14 2.0402724362334006e-05 0.0014218713148664598 0.017084584159768854 0.006036960161194782 0.016387263795600408 0.026951390808734467
0.012722414740501379 0.0007726957155616476 0.04448266231364741 -0.025058693918173128 -0.028883377810747707 2.519534190275349e-07 0.003235480101498543 0.0019362233933409123
0.0254899725493458 0.018890510613229078 -0.039833668978955454 -0.04847219503647324 -0.03408984573228812 0.01231443379712296 -0.0030789605116948895 -0.017434663086581034
0.014416781648517632 -0.04404943838488782 -0.07004713103283496 -0.0016490792350291644 0.0010743057241426406 0.0015947176818886717 -0.0002719670421071179 -0.0304108604053456
-0.019050422472878744 -0.03126164419579504 0.011808373578085694 0.056032953836451904 -0.05913827845022756 -0.018226299868809345 0.023989433336501616 -0.02893181384204578
0.004373519769884169 0.05312351551479584 0.05185690306124001 -0.012881082916370246 0.04426849159112454 0.04739962476658471 -0.10663732475106112 -0.08762278425000682
0.00764412782963022 -0.002124526492369445 0.04518806990301854 0.04261153666333784 0.05152179517478355 0.050624971047634734 0.04122701331060925 -0.09533288056274679
0.03883938782882931 -0.07917730195147976 -0.03296971647486156 -0.02687642244558809 0.0005462945369170112 -3.404984137169243e-65 -4.0542671042501575e-66 3.811116757771881e-80
-0.02374795804666251 -0.0276471072030408 -0.022129418327592007 0.027130836290250763 -0.005919435509412781 -0.0015167010742581308 -0.024846855520937454 0.005080612954387182
-0.05395632843672039 -0.03505964612771406 0.01256842252404374 0.05330539558896378 0.0005536990854618216 0.009756887529489257 0.01262348490277615 0.005029658293637651
0.005436372602915817 0.0028352215719532332 0.0021000623349317882 0.0034509624757625185 0.002567257368611809 -0.001951401953721382 0.000687718858055688 -0.01847981631149972
-0.06674513811537851 -0.09375572577163148 -0.04214537916556832 -0.04393719811931189 -0.09366195935056901 -0.01179770541480649 -0.025707958807286407 0.0341684072021529
-0.08367228675642727 -0.005060510880412647 0.02034715852054263 0.011470085527989398 0.028119348491865377 -0.044640625481416944 -0.14053877998388267 0.08708638643847372
00000000: 9f76 9b1b 34e1 79bf a51b d62f 0be0 6c3f
00000010: cde6 3c25 1112 713f c56a 2c08 fe63 6ebf
00000020: 8183 61b5 5c4a 62bf 2371 d668 be3f 66bf
00000030: d51f 7ad6 5718 93bf 95f8 d39f c0d1 96bf
00000040: 8759 743c 532f 97bf 1a35 602a 472f a9bf
00000050: ce3a 26c1 465c a03f 4da0 0582 012c 97bf
00000060: 00b0 2003 87c2 b43f 22a0 f9f0 a7c0 b63f
00000070: ca62 b616 93d8 b53f 980f 5c93 51d9 a1bf
00000080: 03e0 be74 771f 35bf 44b5 9a15 f731 71bf
00000090: cb04 a7d5 fdd2 b4bf 4a30 7d6f 0c97 aabf
000000a0: 31cf e3f4 4b1c 9f3f bb48 9a27 530e b4b2
000000b0: 4d5a efc9 cbae 2532 47ea bda8 f109 0830
000000c0: 176f 8916 965e 35bf 0fbc b91c 5dda 30bf
000000d0: cb21 44d1 85a3 23bf 9ec3 cd16 ce5b 90bf
000000e0: 868c 91a7 0254 a33f 03c2 f0d2 a919 8abf
000000f0: a09d a9be e182 94bf d8ce a141 0e3a a7bf
00000100: c408 3cec dc1c 9c3f 06c3 1b75 5458 303f
00000110: 1bde 5002 65ac 60bf b15f 7a81 61f6 553f
00000120: 21ef 00e1 f70f b23c 57a2 ef20 a37b 0d3d
00000130: e002 c2cb 3956 f8bc 29cc 2523 9170 d3b9
00000140: 4bf5 f4e1 e107 013a b17d be13 4bde f239
00000150: d179 f22c dc36 45bf cb93 d659 1e87 41bf
00000160: a178 ef58 7c36 663f 4ad5 57b7 52f3 3a3c
00000170: 91ea 9530 cbc6 33bc 23fe 574a 7e0f 50bc
00000180: f36b 3a4e 1e20 9d3f 3785 d15e 81bd 963f
00000190: f115 005c ebd8 b0bf e4df 64c0 8344 77bf
000001a0: 02ce af18 73ca 59bf 85e2 64ef a856 88bf
000001b0: 13d8 884f 63b0 44bf 4b3a ed39 ac6a a53f
000001c0: 893d 7933 ef7b a03f 2472 f64b 355d 513f
000001d0: 3df7 8b26 d15f 853f 20a3 f3a2 adf3 64bf
000001e0: db0c e75e 09e7 a43f 7ac6 66c6 5c8e a4bf
000001f0: 80ad 02ec 4a45 9fbf a02f 8d9b 0ec4 9b3f
00000200: b09d 34b0 58f5 a63f 2a89 32fa 863e ab3f
00000210: 1050 e8cb ab08 7bbf 8245 f7de 75d4 92bf
00000220: 8d46 e71d cc00 82bf 5861 b3e5 72fb 93bf
00000230: fd54 fd4e 1b9b a3bf 8dd8 6f42 9b32 86bf
00000240: c5c1 18bb b958 b1bf dac6 4b84 f1f0 a3bf
00000250: 133e 4ccd 587d 9cbf 0128 721c 81cb 9cbf
00000260: 2035 6c95 4033 973f dca5 e169 2b8c aa3f
00000270: 4d82 d8db bdca a3bf deed 4bde 76d1 783f
00000280: d734 346d 4e17 ab3f 09fb f0ae 6099 04b4
00000290: e561 c6d8 05a0 0234 0c42 b530 5235 f3b3
000002a0: 33b2 d64c 747f a0bf 6c0a a7b5 6dc0 873f
000002b0: f348 567e 6103 a43f 0f24 95fd e040 83bf
000002c0: cd76 04d1 d8c4 6ebf d0af 7434 efd4 873f
000002d0: c4d6 5ea6 bdce 933f 09ed 290e 0730 983f
000002e0: a8c4 e1d2 b84e 943f 94f4 55ff 8cf4 723e
000002f0: 3c46 7eaf f128 543e 8a65 982d 6eba e83d
00000300: 4864 ef8c 4b01 ee37 e6e8 5f96 e695 79b7
00000310: 9563 b2a9 f94c 26b9 9784 ffbf abdd 893f
00000320: d1e1 9e9f 503a 6d3f 3f0f ad5b 53c8 a33f
00000330: ddd0 e693 2af3 66bf bcc6 c4b1 8420 b7bf
00000340: f359 701a 0d30 a3bf 324e 6940 19a3 9fbf
00000350: 6a67 ba80 e4a4 97bf 963a 1677 2c77 89bf
00000360: cd91 603f d147 e53e 2f72 0fe8 5f9e 0b3f
00000370: ee24 5b27 1cbf 893e fbe4 f556 7235 a0bf
00000380: 4b12 cdd9 44f6 5b3f 92e8 3953 ad49 83bf
00000390: 7dbc 2121 1a01 943f cd59 dfba c369 99bf
000003a0: 07ac bb39 af8e 90bf 79a8 968a a83b 89bf
000003b0: 1a44 6ddc 3bff 953f 3a77 7752 d77c a53f
000003c0: e743 2627 a4d2 80bf ccb5 3802 9794 823f
000003d0: 92b8 089f da44 983f e24b 46d1 1f56 0032
000003e0: aeee 7c37 066e eab1 5824 deeb 8a91 0336
000003f0: 0957 0cdd d4cc 113f 6c33 e99f 41f4 823f
00000400: 183e 6e6a 4f71 763f cc5a 4d58 c55f 9fbf
00000410: a425 e116 1f8b a1bf 435b a3ee 31f7 a8bf
00000420: 4cf8 0cd4 ceee 5a33 8c77 3091 dbe1 003a
00000430: 6a13 a0c1 04ac f239 0434 43ce 4975 823f
00000440: b861 0f0a 3cba a53f be65 60ba 8931 9bbf
00000450: 1e5b 00c1 1eb3 8fbf ab77 21d4 0a7a 7fbf
00000460: a37b 2519 704a a1bf 754d 276e 1db2 aa3f
00000470: 70c2 6901 e72d a3bf 5595 d693 663c b5bf
00000480: b422 9be7 fef4 9dbf bce7 63ec 39e5 b1bf
00000490: a330 29fc 9baf 97bf 2aa7 c42e 439c 973f
000004a0: 2a72 f62a ea35 6d3f d7d5 94dd 1cc5 a5bf
000004b0: 07a9 9d8c c80e f2b8 878b 78a6 12bb 2439
000004c0: 9210 7ddd 3896 0fb9 e5f7 4c44 0422 223d
000004d0: e58c cb8a d064 f53e 8b65 f9b2 c24b 573f
000004e0: b988 ed08 9f7e 913f 5a77 5a27 36ba 783f
000004f0: 01c8 4aa8 d2c7 903f 4ac1 6b38 2599 9b3f
00000500: 758f e499 350e 8a3f b811 ff69 d751 493f
00000510: c393 c077 6ec6 a63f f4a4 6f7b fca8 99bf
00000520: 2875 61ac 9a93 9dbf 2804 03db 86e8 903e
00000530: fc22 2127 4b81 6a3f aed0 bc09 1cb9 5f3f
00000540: 7bc9 e619 0b1a 9a3f 387c 27b5 0858 933f
00000550: efae 1623 1465 a4bf 5cdb e4f8 58d1 a8bf
00000560: 4f7b 1769 3974 a1bf cd50 6b53 4f38 893f
00000570: 274b 8256 0c39 69bf 1f36 186f 64da 91bf
00000580: e838 8dad 8b86 8d3f 8d5f 8ae2 a58d a6bf
00000590: 7df3 f6d8 9bee b1bf 1277 8258 bd04 5bbf
000005a0: 26cb defc f699 513f da6b 9012 bb20 5a3f
000005b0: c12a 2b8d d9d2 31bf a766 894b 0624 9fbf
000005c0: cfe6 fb35 f481 93bf 7258 e1b6 8601 a0bf
000005d0: 2cd3 b112 fd2e 883f 20a1 73f0 59b0 ac3f
000005e0: 2f5c c557 5f47 aebf 2c5a 7447 eaa9 92bf
000005f0: 82f6 849e af90 983f 7ceb 0f29 4da0 9dbf
00000600: d7bb 14c6 f7e9 713f aab6 9163 0133 ab3f
00000610: 8e92 70ed fc8c aa3f c02a e7ae 6561 8abf
00000620: 4d17 4117 5caa a63f 8728 6e7c c344 a83f
00000630: 97b7 566e 954c bbbf 81fd bc60 726e b6bf
00000640: 1927 8ef0 724f 7f3f 8f1b bc79 7467 61bf
00000650: 473f ce04 e422 a73f 917c cde8 2dd1 a53f
00000660: c722 9d92 1061 aa3f 3e65 0526 84eb a93f
00000670: 4afb c203 b51b a53f e71e 4054 bc67 b8bf
00000680: bbff 0a99 c1e2 a33f 5895 77b2 f644 b4bf
00000690: 2e2d 091c 68e1 a0bf a4c6 bf2d 7e85 9bbf
000006a0: eaef c395 a6e6 413f c41b 45f2 daaf 8cb2
000006b0: fccf b57b 6153 5bb2 f7ec 3f13 5613 722f
000006c0: ddf7 a07c 6251 98bf ad73 10f5 854f 9cbf
000006d0: 4c6d fc1f 18a9 96bf d1ab 519a 2fc8 9b3f
000006e0: 1583 c75e fa3e 78bf 6575 c060 81d9 58bf
000006f0: 9ec3 7b3f 7471 99bf d43f b9a7 68cf 743f
00000700: c18c 18f4 29a0 abbf 5044 0e83 56f3 a1bf
00000710: 2be7 9f1d 79bd 893f c587 8245 d84a ab3f
00000720: f489 60bb c324 423f d49b cc46 6bfb 833f
00000730: e041 8d76 57da 893f 7383 199e fa99 743f
00000740: d942 9d28 7344 763f bfe2 b5fd e339 673f
00000750: 3bfb 8961 2634 613f 49d3 235f 3145 6c3f
00000760: 9b08 09ce ed07 653f b236 a5e4 c5f8 5fbf
00000770: 135a 8900 0189 463f 57a2 c67a 5fec 92bf
00000780: af5f 5f99 3516 b1bf 9f7c 0010 6000 b8bf
00000790: 3824 6342 1494 a5bf 9629 00ba ef7e a6bf
000007a0: d23b 4aec 3afa b7bf b23e 6537 6529 88bf
000007b0: c8fd 4be9 2f53 9abf 66b4 fa7e 857e a13f
000007c0: b24c 3307 8c6b b5bf bd02 b88b 54ba 74bf
000007d0: 0d27 a6b1 e2d5 943f 63e0 ccd1 a07d 873f
000007e0: 822a a188 51cb 9c3f e705 08d5 22db a6bf
000007f0: b1dd ecbb 2cfd c1bf 9418 ae1d 4b4b b63f

block_2.0.bias f8 [64]
-0.07290704977101564 -0.06823700911376472 -0.00020591420556176644 -0.00011924416219693556 -0.01028027737656969 0.005074831401657402 0.05230198107297858 -0.03766243942130251
-0.0077873327760322525 -0.013658821942198631 0.033037852756732905 0.015946618508871458 -0.013589927133701997 0.007849627038660694 0.07647836118159447 -6.256491531012705e-13
-0.054981776527401056 -0.014657698013822 -0.01870843023878492 -0.010021891829461364 0.006875155130259911 -0.04135466339808269 -0.007948678839400244 -0.06974403814849983
-0.027437138070843914 -0.05143080548628101 -0.001561197304407652 -0.04590447093588488 0.00223974002408365 -0.015580972144399574 -0.051946338789659006 -0.049486286063866014
-0.006367549531286421 -9.384642348879959e-06 -0.0306205750123272 -0.07209783699748896 0.08870826606737699 -0.02605480585277092 0.09804150644083337 -0.09793379855066044
-0.011699113061388796 -0.007192057617980333 -0.07506893914588511 0.03667792318613057 -0.10017200956610109 -0.04887791632020224 0.06277055609673533 0.006830562605609476
0.03145429034445568 -0.021259558541158234 -7.903170058293904e-05 -0.04464482090246374 -0.026545878090897992 -0.01482519827572907 0.004613233629623183 0.05311244692471395
0.07559722963535655 -0.012074886370494156 -0.03637240090900805 -0.06748924237407967 -0.00222361889954649 -0.022488170739086228 0.022391316932309027 -0.0001883952701083605
00000000: 4413 6a52 09aa b2bf bf3d 850a fb77 b1bf
00000010: 6bc8 ad8e 55fd 2abf 760e 851b 5742 1fbf
00000020: 4c68 0279 d30d 85bf 5e00 72ae 58c9 743f
00000030: a2eb 7244 53c7 aa3f 3c43 34c3 7d48 a3bf
00000040: e7bc 8939 9ce5 7fbf db5a 590c 28f9 8bbf
00000050: f48e 3d62 56ea a03f 3dd9 e873 4f54 903f
00000060: 4112 c124 09d5 8bbf d6b2 551b 7713 803f
00000070: 716a 20fc 1594 b33f de84 d4b9 5803 66bd
00000080: 6951 1f48 9226 acbf 0203 d5ec da04 8ebf
00000090: aceb 2380 4d28 93bf cf72 368d 5b86 84bf
000000a0: e4c0 0767 1f29 7c3f b0e8 a93d 702c a5bf
000000b0: 5805 4b9d 6547 80bf 1854 f0ca beda b1bf
000000c0: 6027 d72a 7b18 9cbf 741a 2477 2355 aabf
000000d0: 7fb8 5cd7 2294 59bf 5dd2 d172 ca80 a7bf
000000e0: d39b f544 1359 623f 0092 66ae eae8 8fbf
000000f0: 3b3e 7fe4 b598 aabf 1857 7d38 4456 a9bf
00000100: b46c e10f dc14 7abf a2d7 526c 57ae e3be
00000110: c6f6 0c01 005b 9fbf e13c 04fc 0075 b2bf
00000120: 9ded a4bd 95b5 b63f 6f45 2a6c 1cae 9abf
00000130: 345f d087 3f19 b93f 39b9 f27d 3012 b9bf
00000140: f14d ed5f b4f5 87bf 5dab 2944 6b75 7dbf
00000150: aab5 93ce b737 b3bf aaa6 23e1 72c7 a23f
00000160: ea9d 0f71 dfa4 b9bf a30c 2fb8 8606 a9bf
00000170: 8153 962d bb11 b03f aee9 1130 5dfa 7b3f
00000180: c057 b2d8 c61a a03f 5e8d a5d2 10c5 95bf
00000190: faf1 0347 bab7 14bf c778 6c9b afdb a6bf
000001a0: b4dd f9b8 d72e 9bbf 94fd 016e ac5c 8ebf
000001b0: 02b0 1679 53e5 723f a0b7 1afd 8d31 ab3f
000001c0: 19ba f30c 575a b33f 4875 83d0 b7ba 88bf
000001d0: 5e2b c340 679f a2bf e517 d498 f946 b1bf
000001e0: 2167 794e 4437 62bf 3526 7c97 2307 97bf
000001f0: 672a c1d7 bfed 963f 0b4c 340c 7fb1 28bf

block_3.0.weight f8 [32, 64, 3]
-0.03714905606445218 -0.08170250177615036 0.00363370815466026 0.0590793277755346 -0.02348866641453149 -0.017980659408148088 -8.522345768646028e-25 -4.108781912628919e-31
1.8687214402390686e-41 4.948851612239432e-75 7.587838863679439e-74 -2.9603221528582593e-75 0.08019687337757761 -0.05990837563772221 -0.025059415924250136 -0.03126327122320555
-0.05701395091991875 -0.01302847791400437 -0.0028532041767790803 0.11766740208694523 0.07487020104015843 -0.04283370321212458 0.01582952652739242 -0.008908547025312455
-8.365149864534411e-14 -1.3707413905556757e-17 8.660119920727992e-37 0.08537491906430919 -0.0037260527720392967 0.003629183180151811 -0.17890623588153495 -0.1211475729211997
-0.025905731921211702 -0.3492353157620279 -0.1620154640689324 -0.06683446143106898 0.07175751043051665 0.10332091485242186 -0.20354440945767216 -0.06850839260928097
-0.09765476800781221 -0.010169458494832532 0.008180656529002519 0.11237635126531981 0.11558080783078989 8.298057308799132e-69 -8.066656306762926e-76 7.892815640468698e-74
-0.019323812977902585 -0.014568047009836103 -0.021721193821554678 -2.3084356087016835e-05 -3.6811483147958285e-06 -2.759148209617827e-07 2.5963505438541315e-14 -2.053561228628151e-14
7.870332777493514e-10 -0.06716204424199507 -0.012995216429030213 -0.01225450157607609 0.0046477095479116265 0.004505884095238888 -0.027668427550115945 0.0528021250190408
0.06855802285860026 -0.025073975135721082 0.1064273810317739 0.09658483319605593 0.10898851197135687 -0.002542155033822789 0.006905584172484594 -0.009309780809582053
0.00010557465752479733 7.8169369799903e-06 -0.0003631152094859865 0.0006157716486808885 -0.000636287249957742 0.002783524686657817 0.10339310847848854 -0.10582297729500108
-0.06173377380234028 -0.10082721633293676 -0.016051856150457986 0.06741218953716446 -0.046553903101543254 0.04023604402741399 0.023581962404153608 -0.0030811212927216733
-0.003045399252995741 -0.0016455419239183237 0.0033463690837317595 -0.12349652679321069 -0.04976614662365677 -0.0673372326496632 -0.02689951625914988 -0.014408897407166324
-4.892491757504612e-14 6.9699587827489115e-22 -1.144111101531492e-14 -4.2199811940383635e-59 3.0376134229573235e-70 1.898349085272434e-72 -0.04535506812622709 0.03768206501997232
-0.04527134278435796 -0.06382722179546917 -0.06769787092361372 0.19006064402348727 0.07768836209208395 -0.04697016603570407 -0.10823644666891825 0.011781319316664192
0.08382933232465019 -0.1339761765108961 0.20903745048624991 0.09810572525435522 -0.04303238996967379 -0.20578288143715592 -0.03614560791093562 -0.07093850477543424
0.02244991090486184 0.051030560793062126 0.03641654609294267 0.06486960198528997 -0.04445140994245629 0.08140128737921336 -0.015926946356137152 -0.05647422174391858
-0.09110896792257166 0.21338915898072586 0.07369812486562216 0.031679401699419074 -0.01998004380790488 -0.029783833320993065 0.12751937623565424 0.0005533554992992082
-0.00021146499862576072 0.00025200298290276073 0.12340318899677717 0.08944298261808309 0.010983122380643922 -0.144521072168583 -0.115733643150081 0.04702470234183818
0.05822936956551676 -0.13836733231410836 -0.12205464860015522 -0.04427532724484972 0.10817479656791276 0.07076528299306942 5.7063662489728825e-43 1.6900433597795073e-22
-3.318559689894477e-58 3.9961284629160805e-07 -0.0007435706498503922 -0.0035785874048180023 0.011989667805665714 0.05647208225742635 0.0234383166212176 1.6642355187317605e-05
-0.0004470337253099304 -2.619505196341508e-05 0.16007491904435925 -0.0866635258877451 -0.09302818947607443 -0.032365746515517005 0.012752392166402005 -0.07283191400042736
0.03250455261517691 0.04847356705454914 0.05970129244196465 0.002911234195417413 0.00013549685146594263 7.352675901377434e-06 0.016866026469749346 -0.17444159276079646
-0.0008201058008212423 0.22425086127968394 0.18611931626876269 -0.06162917001323182 0.12808275160705068 0.0816299408889511 -0.19868045119338293 0.018627414287690793
0.02578320032319822 -0.11368359022237752 0.03902500558575233 0.06382220678761981 0.048406695034110346 -5.781111342570347e-31 1.695352402381737e-54 3.763831305913156e-67
0.028530910528154957 0.021963975978366794 0.018704376248996044 0.036079749974244665 0.05909276969829522 0.04396466896196528 1.2657522158534343e-50 -5.5629804243613905e-15
-1.854780845560813e-12 -6.043523996288614e-84 -1.3025032105006965e-75 5.44925189163228e-76 -0.014057322555190453 0.021588807495376235 0.015279539600822333 0.09112010421016604
0.1306340681097713 -0.028403701275073474 -0.03387069518457669 0.12561772290165923 0.13721072432209203 0.005256715787572782 -0.04534893787635808 0.017000156745154312
-4.551095568993612e-15 -2.3618311464667217e-28 1.1141704396384543e-48 0.05974121660391816 0.06776395135641822 -0.0024583183246108726 -0.006556024133346052 0.028220219455128894
0.05064855022206485 -0.01594991613333326 0.019037831791674186 0.08046856911292373 0.024488247819000757 0.032039542363461085 0.059956423134168685 -0.05942946316562187
-0.05950626958331323 -0.14957671856431556 -0.02673811451825704 -0.009326446085454023 -0.16758562139292013 -1.9041245676098916e-81 -3.2603402588480595e-75 1.9072834529003056e-76
6.890147173701417e-06 0.00011637664827709361 0.00019371586130353193 -2.2532540357555664e-06 1.2366816237042767e-06 -5.395132047338639e-07 -2.3771165444896387e-64 1.0223031878800599e-63
-1.3408846397659846e-12 0.005053724742323801 0.009624851323419113 0.019657214575825584 -0.00018262685365613436 -0.0003053427224779456 -0.0010295175167615888 -0.006455372739226849
00000000: 1089 bf79 3305 a3bf 4144 2185 74ea b4bf
00000010: 29ca ff35 70c4 6d3f a1c7 5449 a53f ae3f
00000020: 7aea 4eb8 690d 98bf e25a 79a0 8569 92bf
00000030: 7805 43ac 0f7c f0ba c4d5 e096 cdaa a0b9
00000040: 8bd4 2327 d20b 7a37 a3b5 7a8d 4de8 8130
00000050: 1575 b6fe 0e29 c130 e830 d59b 826c 75b0
00000060: 16ed 6544 c887 b43f 2eb2 3d84 4fac aebf
00000070: ccf3 67ef 2ca9 99bf 6975 f04e bd01 a0bf
00000080: 3bcd 3bbd ee30 adbf 695d 75b4 acae 8abf
00000090: 6b34 1954 9a5f 67bf 4eca c46b 731f be3f
000000a0: ba94 e988 b12a b33f d6df ec94 4cee a5bf
000000b0: f939 fc8a 9d35 903f db5c 07f1 a43e 82bf
000000c0: 8ed0 71c9 b98b 37bd 9af7 e5d2 6d9b 6fbc
000000d0: 7da9 628c 046b 7238 92a4 4775 21db b53f
000000e0: f60d 9259 1986 6ebf effd 3ce2 f2ba 6d3f
000000f0: 17b1 1448 66e6 c6bf 2fb3 afff 8603 bfbf
00000100: 3fae 853d 0887 9abf d997 f314 df59 d6bf
00000110: 70a8 cf37 ecbc c4bf 619b 1732 101c b1bf
00000120: 549c 8a40 b35e b23f 1db1 484e 3d73 ba3f
00000130: 40c1 f342 be0d cabf d725 c219 c489 b1bf
00000140: 755b e422 e7ff b8bf c207 3a9d b9d3 84bf
00000150: e1d6 0322 05c1 803f 6442 8751 b2c4 bc3f
00000160: 64b2 ad2d b496 bd3f 6ccb 32f8 b2a2 cc31
00000170: 6f1e c9b0 f359 57b0 610e dcc8 a0d9 c130
00000180: cfb0 1823 9fc9 93bf df6a ca2b dad5 8dbf
00000190: fee6 5fa4 143e 96bf ad93 ffde a834 f8be
000001a0: ed7a 16b0 34e1 cebe 97a5 3737 2e84 92be
000001b0: 056e 718f 783b 1d3d acec a9bc fc1e 17bd
000001c0: 9614 6163 d10a 0b3e 9c47 8d1f 8831 b1bf
000001d0: b579 896c 3c9d 8abf b8f5 fb5b e318 89bf
000001e0: 1945 2708 7a09 733f 8004 420d c374 723f
000001f0: 6f85 d6bd 1c55 9cbf 506f 3b50 e108 ab3f
00000200: 215d 0ec2 048d b13f a32a c1fc fdac 99bf
00000210: ac2e ee28 d33e bb3f 70de dd9b c8b9 b83f
00000220: ba82 8ece abe6 bb3f b084 6917 49d3 64bf
00000230: 36b9 e3a2 0749 7c3f 5d73 e1a0 0111 83bf
00000240: 7b1c 30ce feac 1b3f a386 4ca3 af64 e03e
00000250: 605a 0df3 0fcc 37bf 86c4 e38b 772d 443f
00000260: 4792 f776 90d9 44bf 71d1 e56f 79cd 663f
00000270: e400 8c83 f877 ba3f b5ba a5f2 3617 bbbf
00000280: 4655 14b7 919b afbf a659 b2fc cfcf b9bf
00000290: d943 d3d4 e56f 90bf b2f3 69dd ec41 b13f
000002a0: 0c02 a5c6 e9d5 a7bf 91b2 6f9a d199 a43f
000002b0: cf92 34b5 de25 983f 42f1 fd65 943d 69bf
000002c0: 0374 3c46 aaf2 68bf 5ed4 d52f e7f5 5abf
000002d0: 0095 cc38 d869 6b3f e215 bfe7 779d bfbf
000002e0: c3a1 64c8 f27a a9bf f98f 084c 033d b1bf
000002f0: 80f0 71fa 8b8b 9bbf fbe2 1479 6982 8dbf
00000300: 4bfb dddd d28a 2bbd 86d3 b935 ee54 8a3b
00000310: b3ee 7bf9 59c3 09bd a9b2 d1b9 fff3 d0b3
00000320: d7b2 a143 99c5 8031 677f 1774 2ed5 0a31
00000330: f9b7 9e8c c738 a7bf 4524 d049 104b a33f
00000340: 90de 6831 ce2d a7bf 8fc1 3416 fb56 b0bf
00000350: 2b31 a0cd a554 b1bf ae35 2b3d e853 c83f
00000360: 571e 776e 62e3 b33f e6a6 053e 790c a8bf
00000370: eda1 ad3e 62b5 bbbf d7b6 59e9 cd20 883f
00000380: c1a6 c7d0 d675 b53f 9c59 47a0 2126 c1bf
00000390: 0d24 bd3a bdc1 ca3f a78f 84f1 741d b93f
000003a0: 984b 2d67 5708 a6bf 93b3 ecec 1757 cabf
000003b0: 3736 be57 ad81 a2bf 1da2 099e 0629 b2bf
000003c0: 28b9 8904 1cfd 963f c1cd 677b ad20 aa3f
000003d0: 2343 0185 30a5 a23f 0507 0853 4b9b b03f
000003e0: 6a89 edcf 55c2 a6bf 7f61 25fb b6d6 b43f
000003f0: 4a26 e646 274f 90bf cf13 ea6e 30ea acbf
00000400: c389 99d5 ea52 b7bf 2453 9201 5650 cb3f
00000410: 040a 135c e1dd b23f 00ff 8254 4838 a03f
00000420: a70f e90a a675 94bf 55b2 4038 a77f 9ebf
00000430: 14ec 440f 8e52 c03f a1fa e2e2 e121 423f
00000440: 1c9c b681 96b7 2bbf 0792 ef91 e883 303f
00000450: 8998 f6f4 5997 bf3f 8c8c 333d bce5 b63f
00000460: 4370 76bb 517e 863f 7801 469f aa7f c2bf
00000470: 6c64 6054 b8a0 bdbf dd1c 532d 9f13 a83f
00000480: 06b4 e66b 3dd0 ad3f a0da 8f4f 05b6 c1bf
00000490: fefb 0f34 f93e bfbf 7f99 1275 41ab a6bf
000004a0: 32b9 82ed 57b1 bb3f 32bd 2570 ac1d b23f
000004b0: 5dbb 24b9 8473 2937 8022 e3df 098a 693b
000004c0: 820c c904 2daa 00b4 b5af 69e2 4bd1 9a3e
000004d0: e9ae cacf 855d 48bf 3686 d37b d750 6dbf
000004e0: 1202 ecf8 098e 883f aa86 dda4 e8e9 ac3f
000004f0: d218 72cd 3600 983f c72b acf0 6573 f13e
00000500: 8e7d fc3a fb4b 3dbf 0e63 9543 ae77 fbbe
00000510: 9549 1abf 557d c43f 63a4 71b1 942f b6bf
00000520: 8be4 6707 b2d0 b7bf 4aec 963d 3e92 a0bf
00000530: 4059 671a ed1d 8a3f cba6 bcc0 1ca5 b2bf
00000540: 6d16 e8cc 6fa4 a03f 4883 7002 87d1 a83f
00000550: 2064 22f5 2a91 ae3f 374c 21f5 4cd9 673f
00000560: a17c 6d17 85c2 213f 4e7a 8629 e0d6 de3e
00000570: 0578 67e0 5345 913f 7621 fc23 1a54 c6bf
00000580: 6f37 01cc 8bdf 4abf cbe5 a591 40b4 cc3f
00000590: 999c 43fc c1d2 c73f f976 5fcb db8d afbf
000005a0: aabf aafe 0365 c03f bd11 7e26 b3e5 b43f
000005b0: 0b74 1d6c 5c6e c9bf 07de b29c 1013 933f
000005c0: 9789 b248 e966 9a3f 79d3 1826 5e1a bdbf
000005d0: b71d 6fe5 15fb a33f f54f e9f2 a656 b03f
000005e0: 136c 2828 c3c8 a83f 5177 3702 7373 a7b9
000005f0: ac4e 0c23 f3c8 c434 3ab3 e9db 664b 2432
00000600: e8f8 92fe 3437 9d3f cea0 117a b97d 963f
00000610: 0946 2071 3d27 933f 9edd 5f84 0b79 a23f
00000620: 9c87 9152 6841 ae3f c101 be7e 8982 a63f
00000630: 6966 3a29 66f1 9235 f756 d004 ae0d f9bc
00000640: f728 915c 9850 80bd d2aa bc79 2b7b a7ae
00000650: 020b a2e6 39da 62b0 95ef c91e 8c8c 4f30
00000660: 4ca3 26e5 15ca 8cbf 72ef 9b58 601b 963f
00000670: 1958 1117 e14a 8f3f 093d 97ab a553 b73f
00000680: 1030 23fd 9db8 c03f f246 3f20 dc15 9dbf
00000690: e798 38f0 7f57 a1bf 168f d4d5 3d14 c03f
000006a0: 8cda cffa 1e90 c13f 6299 45e6 1088 753f
000006b0: c1b1 2cda f937 a7bf 3f3f fd34 7d68 913f
000006c0: e33d ce52 0e7f f4bc 9eba 1ed8 5cb6 32ba
000006d0: c1bc 023b c50d fa35 3dfc 1297 6696 ae3f
000006e0: d86d ec72 fa58 b13f 2de7 d599 7723 64bf
000006f0: 4281 e953 7dda 7abf 0738 95de c2e5 9c3f
00000700: 6450 9655 9bee a93f 959b aac0 2c55 90bf
00000710: 835b ba43 a77e 933f 0528 b290 9699 b43f
00000720: 0b68 137e 7213 993f 927e 42a5 7c67 a03f
00000730: bcc0 17b9 9bb2 ae3f 692c 6ee1 896d aebf
00000740: 38da 8813 9b77 aebf 8905 3d75 5425 c3bf
00000750: 0385 a67d 3c61 9bbf e142 6667 be19 83bf
00000760: 81ca 9415 7273 c5bf 2a99 f4c8 2ae6 2caf
00000770: 04f7 ee83 5898 77b0 a6b8 42a7 b715 3630
00000780: cf09 d03b 3de6 dc3e 26d6 ed97 e781 1e3f
00000790: eaca f993 0664 293f 1066 9e81 d3e6 c2be
000007a0: 5f0c 3bd3 81bf b43e e7a0 7915 621a a2be
000007b0: 7f40 ed8a b108 b9b2 2e72 b452 4fea da32
000007c0: 289c 83bc ce96 77bd 873a dce7 36b3 743f
000007d0: 5fb7 4dad 31b6 833f 7f3b ef56 0521 943f
000007e0: 9c33 47ba f0ef 27bf 7f3f d201 cd02 34bf
000007f0: 8f6b 2b04 1cde 50bf b287 c6ec f270 7abf

block_3.0.bias f8 [32]
0.008604062799683527 -0.11078018366942295 -0.006446463789831201 -0.014016160892687946 0.004556958058124059 -0.012377525254770047 -0.0044289409349518956 -0.046993512975039946
0.08050569160764556 -0.036013317961348566 0.029186783499221915 -4.733525210472981e-06 -0.05280870965401655 -0.013207789420289865 -4.3996515198859774e-05 0.009809341553657104
-0.08978136155453915 -0.037343149329871296 -0.1695758907926977 8.293703729396896e-05 -0.11090988238824609 0.079067702356872 0.06015244588381076 0.024387840433347793
-0.002279768190393276 -0.03809413928881077 0.05311565823128272 -0.02602564242345381 0.0323186073161614 -8.434129026295672e-07 0.05048943010066495 -0.11202855688000671
00000000: 8aef b2c2 019f 813f 05b1 e711 175c bcbf
00000010: 314d 6f72 9b67 7abf 2d51 3245 81b4 8cbf
00000020: 7e1e 431d 51aa 723f a5af 6551 6359 89bf
00000030: 4b67 8bc7 1424 72bf 8f32 b4a2 880f a8bf
00000040: 4ac1 9860 059c b43f 1398 ba6d 5670 a2bf
00000050: ca19 6be2 23e3 9d3f ce23 9880 95da d3be
00000060: 35e0 d041 be09 abbf b59a e67c af0c 8bbf
00000070: b697 57c0 1c11 07bf 0794 5889 eb16 843f
00000080: e5c6 aa4b e9fb b6bf 25f0 332a a41e a3bf
00000090: aa85 92ac a9b4 c5bf 3815 8373 cfbd 153f
000000a0: 2a25 a90d 9764 bcbf a0e9 caeb c73d b43f
000000b0: 42d5 b027 4dcc ae3f 0f3f 5344 20f9 983f
000000c0: 8914 3f3a 05ad 62bf ff54 d434 1381 a3bf
000000d0: ef8a 04be f931 ab3f 16b6 434c 77a6 9abf
000000e0: bc4a f382 108c a03f 4810 4096 dc4c acbe
000000f0: eced 2626 c0d9 a93f 4a88 044c e7ad bcbf
