dl_experiments/best_checkpoints/horton_5min_GRU_cuda:0_checkpoint.pt (torch, 82294 bytes, 18 tensors)

gru.weight_ih_l0 f8 [48, 48]
0	0x3f8293050f163a2d	0.009069480441010825
1	0x3f99291b1f3db5d1	0.024570869237711627
2	0x3fa2f45d4c846ec6	0.03702060278939494
3	0x3f969b7a7a73ffef	0.022077478145547443
4	0x3f79a05d3e4fb4d0	0.00625645087437228
5	0xbfb0c778c30d0a6c	-0.06554369699464652
6	0xbfb0e8349d9080a2	-0.0660431751898636
7	0xbfa168d0e596f471	-0.03400280764206166
8	0xbfa7c6983de97d53	-0.046437032277703814
9	0x3f9f6a1a15cf8b4a	0.030678184109898234
10	0xbfa1291deeae7422	-0.03351682222930942
11	0xbf6354863b12f865	-0.002359640283059727
12	0x3f9bd646b9e9835d	0.02718458661763933
13	0x3f40ab6d428b046e	0.0005087169166345781
14	0xbfabdb2f5d5d3cc8	-0.054406623980520374
15	0x3f9c8813209e3ba9	0.027862833848810862
16	0xbf67f37edc143fe2	-0.002923724911518364
17	0x3f9be853ac9592e1	0.0272534441077309
18	0x3f6ecf288aa3b1dd	0.0037608901812886523
19	0x3fb3d63617b6d7d3	0.07748735503159247
20	0xbf8416cccfc9136e	-0.009809112635716235
21	0xbf6f67773c2dffa8	-0.0038335160074324977
22	0xbf96f456620b4df2	-0.02241644833959628
23	0xbf5ed95f829b65c4	-0.001882880469955204
24	0x3f87ad2e4e87ab20	0.011560785075706514
25	0x3f802981873977c2	0.00789166635439276
26	0x3f8e94c24c26805e	0.014932172726560274
27	0x3fa6b6289e50ae87	0.04435851032789367
28	0xbfa4420e7af2c06c	-0.03956647158463586
29	0xbf9b97ad0a519e73	-0.02694578528863052
30	0xbfa985cea3a79b40	-0.04984899280298416
31	0x3f93b7d4e9ce2ad7	0.01925594975504449
32	0x3f90354b4330793d	0.015828300453102562
33	0xbfa92cf75d650d8d	-0.049171190405583244
34	0x3eea6f193684617a	1.2604703173255768e-05
35	0xbf9210bc677d29fa	-0.01764196759840251
36	0xbfa90c9433f91fc7	-0.04892409452855833
37	0x3fac32baeddbea1f	0.05507454064896344
38	0x3fa7b30976346822	0.046287818602835054
39	0x3f903b7454a870a2	0.015851800601112694
40	0xbf80b080d7264284	-0.008149153295364593
41	0x3f8d893d83c0a352	0.014421921332613916
42	0x3f9d5e745c834f3b	0.028680627962628363
43	0xbf9026989c6b7e90	-0.01577223257743171
44	0x3fb0d27c6a885a38	0.06571176148313718
45	0x3fa6a17fe58ad3ac	0.044200894136714325
46	0xbfa19674b1b75625	-0.034351011937968225
47	0xbf9dfbed887f8dbd	-0.029281341034119047
48	0x3fc6ca8a0febbeb0	0.17805600907694474
49	0x3f9f79754d23902c	0.030736763795076325
50	0x3fc0d0841eafbfd4	0.1313634061657455
51	0xbfa27424e8653492	-0.03604235970360849
52	0x3f8df3056358c781	0.014623682112048677
53	0xbfba71f5ec4b81a2	-0.10330140131873702
54	0x3fb7421428a18f2f	0.09085203163118359
55	0x3fc6a2bb77144f1e	0.17684119524403114
56	0xbfb52a4b8144edc3	-0.08267661958682652
57	0xbfb057c57c6e6bc5	-0.06383928573488536
58	0xbf651ccd4924f877	-0.0025772103773809524
59	0x3fca35771cc8c0be	0.20475663094976498
60	0x3fb341c5f534d29a	0.07522237049563288
61	0x3f7f5e30ccb44e76	0.0076581865535164575
62	0x3fc1ef5d6e9b5a38	0.14011733914112923
63	0xbfb2fde9d64e678c	-0.07418691141211137
64	0x3fa6ef93e40a1fdd	0.04479658278165719
65	0x3fc08b93438fb206	0.12925949858562563
66	0xbfa9d0a7ad373741	-0.050420036215298676
67	0x3fbe582bd1e39c74	0.118532885305841
68	0xbf9dfc0f5fb23cf3	-0.029281845298609843
69	0x3fc58b5c748a98c7	0.16831546488282909
70	0x3fc28d922f886b4d	0.1449454052061249
71	0xbf918709eda421dc	-0.017116694573845112
72	0x3fc9f21c39f5798d	0.20270111875556687
73	0x3fc6c12c71ba48ef	0.17777019074544095
74	0xbfa96dc75f13b979	-0.04966567073448664
75	0xbf8aacc8c85449fc	-0.013024872411311776
76	0x3f8a74b6301d7c9a	0.012917922347411005
77	0xbfbe480a252382c8	-0.11828673750597851
78	0xbfc15372a13575c2	-0.1353591239120942
79	0xbfaf5c79eba79e71	-0.0612524128117088
80	0x3fc13076b23f2d94	0.13429149344879632
81	0x3f7a00a0540fe8a8	0.0063482535197129444
82	0xbf7be91f86c67a00	-0.0068141204359606355
83	0xbfb75724a5351b58	-0.09117344888100598
84	0x3fb7c041351cd489	0.09277732416815544
85	0x3f959bc20e566db0	0.021101982236002292
86	0x3fb2a76c9d9927b1	0.072867191768778
87	0x3fc70db7edad250c	0.18010615449228629
88	0xbf8310e613026f56	-0.009309575514911888
89	0x3fc00505ce6a4fe4	0.12515328005667847
90	0xbfa5112588c08016	-0.04114644331298238
91	0x3fc14e402fd9655c	0.13520052276980266
92	0xbfb1bf9732e522c7	-0.06932969086222861
93	0xbfbf730623a54357	-0.12284887666943455
94	0xbf9613080c189427	-0.02155697416141691
95	0xbf8ac2876ca01deb	-0.01306634712456308
96	0xbfce080d04a89d60	-0.23462069251511775
97	0x3fb709fdcc9ea591	0.08999620671843035
98	0x3fb7a04a944a47b9	0.09228960152020606
99	0x3fb5461092fa2d0f	0.08310035312949914
100	0xbfbb20d0daa8d665	-0.10596947992675039
101	0x3f8f0277feda4bca	0.015141427483546983
102	0xbf8c4fc1206f52c9	-0.013823994448025971
103	0xbfb268038075c6b4	-0.07189962278587353
104	0xbf8e773294686cfc	-0.014875788835573271
105	0xbfbf77bad111c07a	-0.12292068104011547
106	0xbfaf0327d080772e	-0.06057094974697318
107	0xbfc32141e5baa912	-0.14945243565791394
108	0x3fc3ae336cbba039	0.1537536889002256
109	0x3f9914925be8b9fc	0.024492537364659825
110	0x3fc3b0f25ff44725	0.1538374870802325
111	0xbfb89acc113923d0	-0.09611201687324855
112	0x3fc56f17e4483e01	0.16745279928771598
113	0xbfb0d29074508a0b	-0.06571295585357732
114	0x3f99f02baca463bb	0.025330240642776874
115	0x3fb8ec4488685b2e	0.09735515909447365
116	0x3f978a2de16611de	0.022988049394841663
117	0xbfbb3d35663f642a	-0.10640271898536527
118	0xbf6e118b4e2dec9c	-0.003670475083195136
119	0xbf6a7957e18ad93a	-0.0032316891123073373
120	0xbfb6b5d18815a8bf	-0.08871182987573699
121	0x3fbf8e076c07b978	0.12326094043212332
122	0xbfab907eb71342dd	-0.05383678421788372
123	0x3fbb3c8c181f3f97	0.10639262761037425
124	0xbfcdac7fd2a4bc96	-0.23182676110579753
125	0xbfcb090e08ccbec3	-0.2112138312308983
126	0x3fb763c5778ff7a0	0.09136614006999233
127	0x3fc56f1f2caf6056	0.16745366746795537
128	0x3fc84d432abef62c	0.1898578604431561
129	0xbfc1468190275ed3	-0.13496417559394178
130	0xbfc10585cd39bf29	-0.13298103829173982
131	0x3fc84035da17ab7d	0.18945954464956208
132	0x3fbb4f2e42e714d3	0.10667695172658691
133	0x3fc892c508467e42	0.19197905448980818
134	0x3fb513b06898b8db	0.08233168176295484
135	0x3fc4cd555ff57b6a	0.16251628098958842
136	0xbf846dafa1fce443	-0.00997483456704818
137	0x3fb1360bf43b6b6b	0.0672309371251864
138	0xbfcd4ec32224f6cc	-0.2289661328049334
139	0x3fb894183c732bdd	0.09600974536731095
140	0xbfca01ec820f6595	-0.20318371153443296
141	0x3fb5ec407204121c	0.08563616546241132
142	0xbfc4a5d9154d45c9	-0.1613112787259026
143	0x3fafe1396e74d93b	0.06226520036072932
144	0x3fc0263c362a5e1a	0.12616684574889875
145	0x3fbfd8a7aea6871f	0.12439964307716565
146	0x3f5165e585e711de	0.0010618916927437254
147	0x3fb72e5c4c16b57b	0.09055115563997689
148	0x3fc439ed435cc4bf	0.15801778592279977
149	0xbfa39b93e94e1371	-0.038296339254009555
150	0xbf9c2f1a8b70c756	-0.02752343631818318
151	0x3fb10d7a2d349a4b	0.06661189654969595
152	0x3faa7b461348cd40	0.05172175393490841
153	0x3fbb9405b9154987	0.10772739189750356
154	0x3fb8d2a9f822b6fb	0.09696447666166456
155	0xbfb28a2ae42edf43	-0.07242076941372226
156	0x3fbf5328d102bc40	0.12236266234207083
157	0x3f88738727408c69	0.011939102063541722
158	0xbfb3263a9faaec97	-0.07480207822929895
159	0xbfb16e1384b1b651	-0.06808588018039897
160	0x3f87c9e9e9e81c53	0.011615588618054817
161	0xbfae095e72c07b73	-0.05866522932796316
162	0x3fc2f2cd06ec8ab4	0.14803469503484268
163	0xbfa14290b19412af	-0.03371097724633409
164	0x3fadd4acb1ec6195	0.05826320335308136
165	0x3f706e9c1c85d732	0.004011735735152832
166	0xbf7bd2118fa59c8f	-0.006792133901718191
167	0xbfc8094f259bc70a	-0.18778409324982476
168	0x3fc740078e332dbc	0.18164152568202308
169	0xbfc14afa1e25c049	-0.1351006171421452
170	0x3fb22927d307f7cf	0.07094048406722141
171	0x3fc1be48dc0b80f1	0.13861952537900593
172	0x3fa2a69981e40841	0.03642730436878639
173	0xbfa819ad5e4a19bb	-0.047070901641791583
174	0x3fc0ecf09d400bc3	0.1322308318923132
175	0xbfc93d7d9e29fb91	-0.1971890470776683
176	0xbfbec8cd279934f4	-0.12025148598441487
177	0xbfa4831c465d9618	-0.04006279334025126
178	0xbf8fe1ba9b2a19b3	-0.015567262516253821
179	0xbfb9d70adc194b17	-0.100937536940631
180	0xbfadd0e25baffd6d	-0.058234285061184866
181	0x3fbe87caf8944207	0.11925953453852155
182	0x3fa8d8ed6ba012a3	0.048530024898388
183	0xbfbfa915ddbbc789	-0.12367378867545943
184	0x3f9a63b55d5e3bb3	0.025770982574211575
185	0xbfba7e219b7b9c42	-0.10348711057632534
186	0xbfb6a0ff99ee21b9	-0.08839414127408575
187	0xbfbf5c599b6c3492	-0.12250289959429697
188	0x3fb10e91a0c33110	0.06662855315079619
189	0xbfa8d256458dc6fe	-0.048479743948417905
190	0x3f99103cd04e0d09	0.024476003850861825
191	0xbfc59583f41cfc26	-0.16862534923163358
192	0x3fc15131aa1ff894	0.13529034430388676
193	0xbfafafde23420c5c	-0.06188863926311036
194	0x3fc525a6c1024077	0.1652115290094149
195	0x3fc30ada890864c5	0.14876872721723636
196	0x3fc7d77eda727e82	0.18626390138978272
197	0x3fb49713acc4cbbe	0.08043024986254374
198	0x3fbffbc447002891	0.1249354050961833
199	0xbfb5b84cc1a11568	-0.08484344222332185
200	0x3fada0810e4695b6	0.05786517428650077
201	0x3fb38a393e363aea	0.07632787484019912
202	0x3f7095d593c75428	0.004049143110440169
203	0x3f951ee36715237f	0.0206256419817552
204	0xbfb7532cab144316	-0.09111289192902591
205	0x3fb7d3ba3a88b68a	0.09307445458463284
206	0x3fc57d00307b9579	0.16787721984216455
207	0xbf9030d51f0c4e9d	-0.015811281223320085
208	0x3fc2ab571f325795	0.1458538915946376
209	0xbfc108b5f974de35	-0.13307833366865088
210	0x3fb6667dd3aee1ef	0.08750139635129249
211	0x3fb0e18f695e06e2	0.06594177553599992
212	0x3fba047054e9fdb7	0.10163023064705255
213	0x3fa77342cfa43618	0.04580124649701761
214	0xbfcc2a0384350f54	-0.22003215747292393
215	0xbfc6f053da943d04	-0.17920921490483732
216	0xbfc209ff1b478da3	-0.14093006927496984
217	0xbfc7388680bd3370	-0.18141251836859906
218	0x3fc28881e5c6fdae	0.14479087562174925
219	0xbf73545f064d74db	-0.004719134511870861
220	0xbfb18db41eb24de8	-0.06856847524095822
221	0xbfc17a0c753bc0b6	-0.1365371296337849
222	0xbfaca457de89c385	-0.055941339412021875
223	0x3fcf6c43d7d10c56	0.2454914859573331
224	0x3fb6616e6b08af26	0.08742418397076487
225	0xbfb01b93cf380154	-0.06292079743434914
226	0x3fbb7b3fc512a792	0.10734938203191138
227	0x3fc7495da7302fea	0.18192644752014014
228	0x3fb8efb3c6a60231	0.09740756606880364
229	0xbfc6ab18b674b13f	-0.1770964518449407
230	0xbfccd439857c9558	-0.22522658365157144
231	0x3fcf45fc549dea1f	0.2443232930343848
232	0x3fcb13744d6542bb	0.2115311983020741
233	0x3fc0e6870e993f8f	0.13203514302085437
234	0xbfa760eceb9c17ec	-0.045661357651667206
235	0xbfb905f00ba48fca	-0.09774685177086365
236	0xbf9a47c506af7f76	-0.02566440442376413
237	0x3fa89f530c0ab2b6	0.04809054872507572
238	0x3fbbc83f5c4ffcd0	0.10852428439828832
239	0xbfcad0ce7773cb8a	-0.20949726898797066
240	0x3fbc9ddcba327205	0.11178378625704262
241	0x3f9e43f1b4085e14	0.029556061375926104
242	0x3fba6572358958a6	0.10311044508975672
243	0x3fb6cd0005d5078b	0.08906555311571489
244	0x3fc4d1b4516d95b9	0.1626496694181421
245	0xbf94f2754e1027fc	-0.020456154718011973
246	0xbfc09b1e637c447f	-0.12973384721457035
247	0x3fcb91242dfee243	0.21536686178093775
248	0xbfcaa54efbbd3446	-0.2081698159403535
249	0xbfb0948824869026	-0.06476641551722703
250	0xbf9388718a5050a7	-0.01907517821025864
251	0xbfb304efa508367a	-0.07429406909087702
252	0xbfc1c27db4f24c8a	-0.13874789557721484
253	0xbfae61da14f386df	-0.05934030061486139
254	0xbf9feefc77c8caef	-0.031185097514206225
255	0xbfa09f19f5d93cf1	-0.03246384740907072

gru.weight_hh_l0 f8 [48, 16]
0	0xbfbb64bc91444867	-0.10700586840201397
1	0xbfa9964e47c6b90f	-0.049974867116690296
2	0x3f766f37283ad130	0.0054771570755074855
3	0xbfcb689fb3d38d5b	-0.21413036614022016
4	0x3f94dfac5cecbad5	0.02038449589889065
5	0xbfb8fd0fbdf4f7e5	-0.09761141193027319
6	0xbfbe972dccef00c8	-0.11949430707227571
7	0xbfc06791999b9f2c	-0.12816066742311116
8	0xbf8430f8a88a79b1	-0.00985903038354938
9	0xbfb84e775e3348ef	-0.09494730043232712
10	0x3fc5622b1c6c9c81	0.1670583618917796
11	0xbfa29876abc1799f	-0.03631945463779406
12	0x3f9f2eff8fb03ad4	0.03045272173408871
13	0x3fc41c30ddedbbc4	0.15711031757697758
14	0xbfad1f68311c5d4f	-0.056880241389246515
15	0x3fb0341d74b25ef3	0.06329521273653053
16	0xbfb6d54af3ca4fe9	-0.08919208957587411
17	0x3fbabe0b92ec6075	0.10446235978122494
18	0xbfa9080dfa0f1b6d	-0.048889576697141425
19	0xbfd4af7f589c844b	-0.32321151402908715
20	0x3fab136e3a5bb0fe	0.05288261854534147
21	0x3fc3d683c2e2d844	0.15498396888659915
22	0x3fc38a8aa4b158b5	0.15266545335425055
23	0x3f9e66de8e43d838	0.02968929045979271
24	0x3fb461821c741ea8	0.07961285776775162
25	0xbfbcfaac6c4bf05b	-0.1131999744793019
26	0x3faac9a0389a4f1e	0.052319533261792936
27	0xbfbc3138b1f97432	-0.11012605996207084
28	0x3fc0abecf6f6e0a0	0.1302467542534531
29	0x3fcce3611f2e425c	0.22568906805510636
30	0xbfc1709dfb030021	-0.13624930149490047
31	0x3fa41f695413a6fd	0.03930215026214332
32	0xbfcc329b173be316	-0.2202943671652739
33	0xbfc4263956df47e0	-0.15741650335127044
34	0xbf9527f982131e00	-0.020660303653839307
35	0xbfcf16021bfd5066	-0.24285913817095944
36	0xbfc5ddc07ad105f3	-0.17082983014010686
37	0xbfc28eef76a353e3	-0.14498704235907586
38	0x3f9bb8fe84317e99	0.02707288438648323
39	0xbfcc15f69e1b2371	-0.21942026824970243
40	0x3fca3f411bd81d6f	0.2050553689916614
41	0xbfc708f29e1fa6e2	-0.17996056290512913
42	0x3fc43883017f0f67	0.15797460148871353
43	0xbfa6d418f999fb71	-0.044586925953800434
44	0x3fcf34ebfd0d38c6	0.24380254608190038
45	0xbfc4f6bb7b3d0b5c	-0.1637796737432734
46	0x3fc223eedf61b73d	0.14172159106549911
47	0x3fd375f458f9fce8	0.3040743702803881
48	0xbfb8e038577aea34	-0.09717132697816383
49	0x3fcfc30c7b6e9276	0.24813991572331745
50	0xbfb85f7efd78ce4c	-0.09520715416220432
51	0xbfc4ed42c2c008f8	-0.16349062451633478
52	0x3fcd1869dc3edc5c	0.22730754141022913
53	0xbf781dc5372077ca	-0.005887766239565504
54	0xbface5c068d2224a	-0.05644036559630601
55	0xbfafde68cd6ca7e2	-0.06224372394201773
56	0x3faa7dd0e9e25c21	0.05174115042716943
57	0xbfc16f404e101ea9	-0.13620761691730834
58	0x3fc32d62d6a83712	0.14982257348349798
59	0xbf919ecc18eb5e90	-0.01720732595535296
60	0xbfc9bd48ca078e52	-0.20108899941179686
61	0x3fa1aa0451dc070a	0.03450025080930004
62	0x3fb9c379b3364ae9	0.10063896775526938
63	0xbfcd6f281edf841d	-0.229954733919869
64	0x3f969908db35a4da	0.022068155650605138
65	0x3fc8e0b83c63c39f	0.1943579001304245
66	0xbfc20e45a7c0e004	-0.14106054965100168
67	0x3fce719018e267c7	0.2378406640535202
68	0xbfb17b607e0e0bed	-0.06828883245002233
69	0xbfcbb7a4bd4e252b	-0.2165418552724899
70	0x3fb4758c38027eaf	0.07991863601136616
71	0xbfbdf6239300959e	-0.1170370324985783
72	0xbfa0e24bf2caaf08	-0.03297650660291934
73	0xbfcb04e25c9a76ad	-0.21108655473374452
74	0x3fbe6bcd15bde7ae	0.11883241444402756
75	0x3fc5f9777e185c30	0.17167562157621452
76	0xbfd0df99ff16d0c2	-0.2636475554566112
77	0x3fd54b54ae225d08	0.33272282605453585
78	0xbfcdd2d60be5a9d2	-0.23299670773424325
79	0x3fdb5963ad933993	0.4273308939999875
80	0x3fc3612d45e5332d	0.1514031020436958
81	0x3fb0f17c66407252	0.06618478294735411
82	0xbfc58d7bea1dd0e4	-0.16838025027721593
83	0x3fcd47bef31273b7	0.22875201100114648
84	0xbfd77e4685e8e64d	-0.3670822437012234
85	0xbfc4578a0efc068a	-0.15892148715652282
86	0xbfca41c50a8e2eb8	-0.20513213172340783
87	0xbf9dd0d8401dd6a0	-0.02911699191414263
88	0x3fc621592fa2c59e	0.17289271188705596
89	0xbfc4128a345b457c	-0.1568157916686167
90	0x3fc8057b687652c9	0.1876672992772426
91	0x3faad98f00cef92d	0.05244109043950327
92	0xbfbe2909ccf22f69	-0.11781369451108294
93	0xbfb717d517059670	-0.0902074032979614
94	0x3f3ae284117fa49b	0.0004102299149040895
95	0xbfb052bb45090c8a	-0.06376238284524241
96	0xbfb6a1e52aff41c3	-0.08840782451375788
97	0x3fcb18653cb10211	0.21168199027489767
98	0x3fc496258b86555e	0.16083211243373347
99	0xbfb29c768dbab487	-0.07269993744076163
100	0x3fa3a37707a4f848	0.03835651367488474
101	0x3fbfbc5ee16fefbf	0.12396805766905937
102	0x3fc99930007f8ca6	0.19998741173103446
103	0xbfca3a04e683bcbe	-0.204895603710133
104	0xbfc3f0542a93e64b	-0.1557717521571241
105	0x3fae0909b6d860f3	0.058662704057668956
106	0x3fd0b677f0e651b3	0.26113699460372714
107	0x3fc24eb17182c429	0.14302652399558838
108	0x3fb5ae0cd3ce109c	0.08468704386729303
109	0xbfc4ee6ad26245b1	-0.16352591774606887
110	0x3fa5b84df662f557	0.04242175705574407
111	0x3fc82878632e03f1	0.18873505442391506
112	0xbfb7363c9ec84f9f	-0.09067133785748503
113	0xbfd0c2f4262635c1	-0.2618990299750657
114	0xbfceb1f052d175e8	-0.2398052601228493
115	0x3f9b2f25ee420164	0.026547043482879742
116	0xbf9aa2c030cafd3b	-0.02601146982010259
117	0xbfc56ace4a87f9c1	-0.1673219551011709
118	0x3fd24bec9d4954b5	0.2858840499878384
119	0x3fc2f53baff05e17	0.14810892191665978
120	0x3f81d32332c2174e	0.008703494059101449
121	0x3fce2840d00a9ccc	0.235603429396383
122	0x3fd468dc77abe842	0.3189002197901837
123	0xbf9e6cbab8b4b1fc	-0.029711644671964507
124	0x3fb1778c0d87311a	0.06823039369846065
125	0xbfb6d1bc990cb9c4	-0.08913782822194266
126	0xbfce698d7c4facc0	-0.2375962120998789
127	0x3fd41215bcb07ac2	0.3136038153333339
128	0x3fc7cf0d181dfbde	0.18600619962305037
129	0xbfca06521c05693a	-0.20331789367885184
130	0xbfb155d950f55683	-0.0677162001278138
131	0x3fcb24ee67b67fee	0.21206455291849075
132	0xbfa4de344fabdecc	-0.04075778458166965
133	0xbfbebc7bcd79caf7	-0.12006353155610926
134	0xbfb696b938aa35fc	-0.08823735841198038
135	0x3fd1bffa68cdb358	0.27734241709440743
136	0x3fb4e6a9838477cb	0.08164462529063525
137	0xbfbdc3a13ea1b385	-0.11626632479756267
138	0xbfd0d1909fa3fa30	-0.2627908286084759
139	0x3fcbdc9febc7b830	0.2176704312582287
140	0xbfb31af6697d7c8a	-0.07463016581958662
141	0xbf786fd7a4130cb4	-0.005966036174132206
142	0x3fcd040646bf465e	0.22668531851245438
143	0xbfcc17cf1c407729	-0.21947659377559006
144	0x3fd08071acf7db0b	0.25783960238861486
145	0x3fd1833b98c78b83	0.2736348144518887
146	0xbfbdf45651034f0f	-0.11700953939299218
147	0xbfa8e9fc157030ce	-0.048660161606763105
148	0xbf832cca1a8af2f9	-0.009362772879620606
149	0x3fb0cd4c33ef4413	0.06563259380278934
150	0x3fd07acc3fc6fede	0.2574949858499006
151	0x3facf29789fe634e	0.05653832969182436
152	0x3fcaff7b623dc142	0.21092169091162744
153	0x3fd49ebdcc9b37e7	0.32218880635343655
154	0x3faf766519f8c6b7	0.061450156612762034
155	0x3fb95c2871f8c10f	0.09906246931564432
156	0x3f92c1648a996ddf	0.018315859755927973
157	0xbfb98a2ef94b964d	-0.09976476274786102
158	0x3fd0ee917f6e9d80	0.2645610565618526
159	0xbfc062ff9b3132fa	-0.12802119329207767
160	0x3fa985342b36b779	0.04984438922416152
161	0x3fbf5f08d35221c0	0.12254386100005998
162	0x3fbccd734d79fb3f	0.1125099243308627
163	0x3fd60d8c9854d4c3	0.3445769775019693
164	0xbfa846fb7697c75d	-0.04741655180613578
165	0x3fac224b5ce70c2a	0.05494914540351943
166	0x3f9aacb0ebf7f814	0.026049389269239567
167	0x3f878477ab033bdc	0.011483130365744935
168	0xbf9c3f91a5d7fb5e	-0.027586246249480133
169	0x3fc6904ab88616a1	0.176278438663009
170	0xbfb38a282ba9c5a1	-0.07632685724254042
171	0x3f8b976deb856f90	0.013472422361409803
172	0xbfd30900f738b664	-0.29742454664924467
173	0x3fbc3e8e76d959f1	0.11032953645312894
174	0x3fb5858c1dafc372	0.08406902050752565
175	0xbfa0c78c06d55fb6	-0.03277242263237616
176	0x3fc7f6aef71a9e35	0.18721568170188765
177	0x3fc4bf1deba3ce06	0.16208242421963365
178	0x3fcf1e9e6a0de017	0.2431219117968346
179	0x3fb62a8aeedb0f16	0.08658665019453013
180	0xbfd478be04114b28	-0.31986952206823327
181	0xbfce5e88a070aaa7	-0.23725993951787425
182	0x3fc0b50bf1e5d817	0.13052510558526428
183	0xbfba087d0cd4673f	-0.10169202388024433
184	0x3fc32fb8a25d723f	0.14989383628825867
185	0xbfca68dc26fd544d	-0.2063250723246334
186	0x3faa68cceb8aef9a	0.05158081412579847
187	0x3fc0cfb9726aee90	0.1313392456703366
188	0xbfcf4d4984ce5e66	-0.2445461176364347
189	0x3fce11ab0060b9cf	0.23491418379258142
190	0x3fd0cf9d7eab40de	0.26267182703032954
191	0xbfb1b67415a10f69	-0.06919026878409586
192	0x3fa26077142c6b25	0.03589222069986978
193	0xbfb4a7dd94fb148d	-0.0806864250872243
194	0x3fc3a2849fe1d3e6	0.15339715773339363
195	0x3fc0eb74be637b36	0.1321855477935629
196	0xbfcf77b2b16cfd70	-0.24584039367071453
197	0x3f8bab4837d87372	0.013510288433332216
198	0x3fb3417f95465e67	0.07521817583471489
199	0xbfcf4603f4ea828f	-0.24432420214454395
200	0x3fae981da9c27fd2	0.05975430199873667
201	0x3fb39135455043b9	0.07643444959855018
202	0x3fc5721956a70a8c	0.16754452448920565
203	0x3fc78254a1a8f357	0.18366487401535878
204	0xbf7dc601c8ebbb21	-0.007268912288721536
205	0xbfafe3d10eb02a7c	-0.062284977953898285
206	0x3fc5460a03045f11	0.16619992396658081
207	0x3fb0bca264a2be11	0.06537833172728137
208	0xbfd3fa88ceb1eaad	-0.3121664064889654
209	0x3fc2acfb78ffefc3	0.14590400131407763
210	0x3fd3d1a66487664a	0.3096710187652191
211	0x3fc84bd5a80d6546	0.18981428819351204
212	0xbfd5a3469f77f760	-0.33809056828601136
213	0xbf371d9011bf6126	-0.00035271422688999893
214	0xbfc5add9accb2dac	-0.1693679898947783
215	0xbfb11e451934cf6d	-0.06686813226116124
216	0xbfbe11c7096289c8	-0.11745876292346857
217	0xbfbeb9133d491515	-0.12001152273395051
218	0x3fb3e6a6e123901c	0.07773821827464683
219	0x3fb0bc9c15e1bce7	0.0653779557630859
220	0x3fbcc0ce3c58827a	0.11231698010716143
221	0xbfac8f5ec94dde92	-0.05578132827116379
222	0x3fcb0e5dfebb6b0f	0.21137595117655691
223	0xbfc733ed39e8ed9e	-0.18127217605238582
224	0xbfc125a10d56fc35	-0.13396084929806454
225	0xbfb8ea650370a1c2	-0.09732657751067733
226	0xbfc7390c91252ece	-0.18142850005312144
227	0x3fcbd3a45852e759	0.21739630043685557
228	0xbf830776be0bb0c3	-0.009291579889996964
229	0xbfd0000f460689c0	-0.25000364149505216
230	0x3fb12fb67e2e2d81	0.06713429050994614
231	0x3fc6a0682061b597	0.17677022534500672
232	0xbfc605ca3eb76544	-0.17205169737170867
233	0x3faea2a222cdebaf	0.059834543942052114
234	0xbfc741460f4687f1	-0.18167949434160804
235	0x3fd14928219b20a0	0.27009013444740937
236	0x3fc93139341e6a69	0.1968146805273421
237	0xbfc2b76594cb589d	-0.14622182622287463
238	0x3fcd3e5848ce2641	0.22846511416382678
239	0xbfd7567599c99b3f	-0.3646520616370487
240	0xbfbf1a727a324544	-0.12149730189618874
241	0x3fb57becc48f5a7c	0.08392219351603986
242	0xbfb39ab69a821d16	-0.07657948753523089
243	0x3fd482e8f048e3ea	0.3204901072054428
244	0x3fc06f6dd98d3aba	0.12840054628983016
245	0xbfce83c5d5b06814	-0.23839638647115236
246	0x3fc198a9791b2cfc	0.1374713746393822
247	0x3fc79ae26d08b76b	0.18441419910362397
248	0x3f5ceb600fff46ab	0.0017651022062534032
249	0x3fb62cc5b4f4c104	0.08662067096588905
250	0x3fcd847058767773	0.23060421294661246
251	0xbfd368e458eaf238	-0.3032770984971509
252	0xbfd2c1cf77b35f2d	-0.29307924928206114
253	0xbfd339cb6e16a254	-0.3004025054056332
254	0x3fc383ae5ff8c231	0.15245608984106832
255	0x3fb0a7b4edb04d2d	0.06505900195070487

gru.bias_ih_l0 f8 [48]
0	0x3fd2546a1f4d5b12	0.28640225464680313
1	0x3fc1b83aac6fd40c	0.13843472881094987
2	0xbfc8f81a8890c21a	-0.19507152240977704
3	0x3fc46bc6faa48652	0.15953910101329655
4	0x3fc5e2f1e2084391	0.17098830734951467
5	0x3fca8faaa57e20d2	0.2075093563146369
6	0x3fc54641ecd62985	0.16620658935819335
7	0x3fc5d28643008ec7	0.17048719665137055
8	0x3fb52946fc6f149e	0.08266109145104614
9	0xbfaef54a50bee2ee	-0.06046516643204379
10	0xbfcdd21c533d4c9f	-0.23297456802774705
11	0xbfc0ed17f96a0102	-0.13223552397176525
12	0x3fb87de365613801	0.09567090249149147
13	0xbfa348f71eb69272	-0.03766605615536357
14	0x3fc6f5fd8417d4ea	0.17938202810152087
15	0xbfbd522af641d856	-0.11453503143442964
16	0xbfd4cdf623cea381	-0.32507089134974626
17	0xbfd26d38ec6385e6	-0.28791640362587
18	0x3fd34866e4557ffa	0.3012940625976622
19	0xbfc122cda5803917	-0.1338746126279566
20	0x3fa474f2fbc7ffcd	0.03995475123883772
21	0xbfa3ad147c47020f	-0.03842987076814463
22	0xbfa02f7b668e59a9	-0.031612259167718655
23	0xbf6b71b599cacb41	-0.00335011929413423
24	0x3fa77cbbd882797a	0.045873518161203955
25	0xbfc989349e5cfba4	-0.19949968082980007
26	0xbf973ddc3f1b2355	-0.02269691596191888
27	0xbfbe1ab7749324a4	-0.11759516330779946
28	0xbfc4615cedaa306f	-0.1592212830040611
29	0x3fd2a7ecb72765df	0.29149930845377797
30	0xbfbacc0db95e062b	-0.10467611098831557
31	0x3fd1e4b1f6a3aa76	0.2795834454142673
32	0xbfb0b8e15c9a7a25	-0.06532104979348981
33	0xbfc2dd62da56d93f	-0.14738116894813832
34	0xbfb6fa77fdcb2ff2	-0.08975934930930388
35	0xbfc859af7bf4198a	-0.1902369837991496
36	0xbfc396e5a434c0c9	-0.15304251211046552
37	0xbfa8195ca7a74a0b	-0.047068496194374
38	0xbfc0fb72bea579ac	-0.13267359074502616
39	0x3fc4f3b8105ed1d3	0.16368771361670884
40	0x3fc3b112154db5c3	0.15384126701557763
41	0xbfd00554ee897f2d	-0.25032542509687766
42	0xbfce1fcd37d56243	-0.23534550882574665
43	0xbfb63fdf68f35219	-0.08691211998240823
44	0x3fc34bd9b102d279	0.15075226920238885
45	0x3fc2f40b92b83176	0.1480726686862785
46	0x3f97836081f9f97e	0.02296210091889738
47	0x3fc7c77a76c580f3	0.18577509688748925

gru.bias_hh_l0 f8 [48]
0	0x3fc856eef8d80e78	0.19015299940666686
1	0x3fd0ce50d51d543f	0.2625925141522351
2	0xbfcbfe6922bc5570	-0.21870149799421368
3	0xbf8e09054b34d0e1	-0.014665643079390058
4	0x3fbeb4c1bd6c394d	0.1199456298311123
5	0x3fccca78f3194005	0.22492896909761853
6	0x3fc9a3a7eeab4521	0.20030688432465474
7	0xbfc0ef0d2b4d730c	-0.13229527105695416
8	0xbfbf48bac43bd7da	-0.12220351496566143
9	0xbfb07c0559b7e3b8	-0.06439240875614771
10	0xbfa9c486955365f8	-0.050327497223133066
11	0x3fbc06d41b4ad170	0.10947919527354144
12	0xbfbe797926f73a2b	-0.11904103471099663
13	0xbfc74781dd191130	-0.1818697290019684
14	0xbf9aac45dd98443f	-0.02604779400832435
15	0x3f6c6ad0495aeb39	0.003468901452689546
16	0xbfbe5bd0379b0b3f	-0.11858846051749782
17	0xbfd21af9fb5a9dba	-0.28289651438032204
18	0xbfaaf8e3b5bc3cce	-0.05268012612770577
19	0xbfd7fb9940c0bacd	-0.37473136256714384
20	0x3fc50453ee82570c	0.16419457574800622
21	0xbfd4202185362973	-0.31446111687605266
22	0xbf9bc07e082b862b	-0.027101487396867945
23	0xbf5e732916f07a41	-0.0018585110917751643
24	0xbfd07c34010f6856	-0.25758075812848824
25	0xbf7ee5ded10960e4	-0.007543440224786677
26	0x3fc139d1563a74e3	0.13457695684784374
27	0xbfc787556ecdf5b0	-0.18381755743386696
28	0x3fbae069085deb91	0.10498672918576647
29	0x3fc0221486f2f1d8	0.12604004468256735
30	0xbfb4fe2484b9c778	-0.08200290909169705
31	0x3fb0eb24bce6b328	0.0660880051788807
32	0x3fbc3e6c2777f751	0.11032749141301436
33	0xbfb90fdfd9c3be35	-0.0978984743739993
34	0xbfcd698d05a82aa5	-0.22978365684715132
35	0x3fc2319a05fffb82	0.14213872235265163
36	0x3fce94363a81b0b9	0.23889806610839573
37	0xbfad9e71481624ca	-0.05784944539034027
38	0xbfc7a1efe5e445ac	-0.18462942814998706
39	0xbf53976afcd55e9d	-0.0011957688141900687
40	0xbfc6d60ed8a77fd3	-0.17840753153632125
41	0xbfa74425d78a5a0f	-0.04544180160626265
42	0xbfb685dbf0afb633	-0.08798002840168166
43	0x3fc8c96afc3a9a85	0.1936467868410611
44	0x3f693bbc65597b4f	0.003080242119536981
45	0xbfa367857d1a1b80	-0.03789918090938382
46	0xbfc38d782657c96d	-0.1527548014851833
47	0x3fb8d5fbf0ec8309	0.09701513893061188

fc.weight f8 [1, 16]
0	0xbfa5b820da4d6753	-0.04242041268180565
1	0x3fbd4ae4631a858e	0.11442401332398885
2	0xbf8bc3a494286740	-0.013556752940576566
3	0x3f6879be39261801	0.002987739114533206
4	0xbfd942554401e489	-0.39467364922854437
5	0x3fdce4d432d43b26	0.4514666077019903
6	0x3fc27abca4121f7c	0.14437063227910218
7	0xbfcdd3e17636e9c4	-0.23302858612244226
8	0xbfb8f570a4837f7e	-0.09749511734434965
9	0x3fd733733c0245cb	0.36251526699296893
10	0x3fcaabc602f9d2fb	0.2083671106844561
11	0xbfcd955b851f344f	-0.23112052917568568
12	0xbfd04c9398aebd6c	-0.25467386160285943
13	0x3fdc3f6553337a93	0.44136937260729175
14	0xbfd3cea2311be74a	-0.30948691173363285
15	0x3fd5b4b8522ed884	0.3391552736824297

fc.bias f8 [1]
0	0x3fc1d68fa5ce3886	0.1393603858563816

exp_avg f8 [48, 48]
0	0xbef25fb138d19a13	-1.752261919243422e-05
1	0xbf0d6f380a82d394	-5.6141755807293626e-05
2	0xbf0338897dce57aa	-3.666085806412697e-05
3	0x3ed905063daa4262	5.96514379459841e-06
4	0x3f029c446abc2dfc	3.5496557158589515e-05
5	0x3ef0109524fbd445	1.5320564044924807e-05
6	0xbee4f29e73932692	-9.988656176313023e-06
7	0x3ee0123c428f5b03	7.66336059314149e-06
8	0x3ed3492108587d9e	4.598059722776309e-06
9	0x3ef85ca04bf6c668	2.3233242925696512e-05
10	0x3edff96d1416c906	7.623272098399594e-06
11	0x3eda14cf07ddea4e	6.218262681540757e-06
12	0xbeb4e5b6961b07ad	-1.2455771742224395e-06
13	0x3edd7df40d44d13f	7.03144197116242e-06
14	0x3edf2d52a0b0d432	7.433186065821045e-06
15	0xbef9d93e33137bee	-2.4651151027007345e-05
16	0xbf02693deacd287f	-3.511638838078843e-05
17	0xbed1f7d9dc8b3749	-4.2839450961738e-06
18	0xbefbb0b001780679	-2.6407418856072625e-05
19	0x3ebccf24a268e14f	1.7171593157516722e-06
20	0xbeecb1dd76742feb	-1.3682739974395195e-05
21	0xbf0a82a53952b3d2	-5.056444857962746e-05
22	0xbf0c73b464f75d22	-5.426782865541382e-05
23	0xbf0fcfcc9e123ab7	-6.0676032952779726e-05
24	0xbf0686583cab7c85	-4.296261575630851e-05
25	0xbef9dc2fc9232f37	-2.466211714917331e-05
26	0x3ee024210acfabcc	7.696690170496798e-06
27	0xbec91ed5f784361c	-2.9945912808418786e-06
28	0xbf1000f041ff41a4	-6.104914109462137e-05
29	0xbf0265fe47cc29a1	-3.509218456628221e-05
30	0xbef53ac5a0a72322	-2.024610334120097e-05
31	0xbf00a943536982f0	-3.1778685685384766e-05
32	0x3edc9f210a38f6bb	6.823920702778918e-06
33	0x3ee6de75a872353a	1.0904780778165692e-05
34	0x3f0029b364b273e2	3.082827296305831e-05
35	0x3ef6aa0d4b5acc70	2.1614327769991744e-05
36	0x3efafc12f10c82c4	2.5734581018290915e-05
37	0x3f03cbda8cc4a73f	3.77584525231415e-05
38	0x3eff28da1163344d	2.971608872641791e-05
39	0x3f125d683cb2f587	7.005642617038096e-05
40	0x3f10e6c90c068a5b	6.447412579872176e-05
41	0x3f161e15d1711775	8.437164466198832e-05
42	0x3f1341321ddf3aeb	7.345074069962556e-05
43	0x3f142ed857e6acc9	7.699199156856457e-05
44	0x3f14e33be278672c	7.967999464888732e-05
45	0x3f135c6d4d854679	7.385651713789379e-05
46	0x3f1564803acf6a31	8.160622265000122e-05
47	0x3f149e301a13ed02	7.865112867826501e-05
48	0xbf00138d38e780f4	-3.066324926570717e-05
49	0xbf11fe432fb0c32c	-6.863865921570279e-05
50	0x3eaa14fe42cc8736	7.773043130024926e-07
51	0x3ec6b8d648cc8f0a	2.708675827982586e-06
52	0x3ef7ca23226ddf6a	2.2687529191738933e-05
53	0xbee58d079dbb9415	-1.027626870304426e-05
54	0xbeda19f588cd19d2	-6.223059369875376e-06
55	0x3ef2c0111481c92b	1.7881641980862686e-05
56	0x3efba0599ed5832f	2.6346557139847445e-05
57	0x3f0443745d19035a	3.864954818456083e-05
58	0x3f0b693b7841945e	5.228245484615515e-05
59	0x3f14c4bb140efd1a	7.922546229987109e-05
60	0x3f15be97901ad7ee	8.294868532740505e-05
61	0x3f1283b365d1c265	7.06270452199925e-05
62	0x3f057252b629242e	4.090609470048415e-05
63	0x3efcf6034ec644a6	2.7619350406353362e-05
64	0x3ef190817dabbc36	1.6750789522509457e-05
65	0x3f0ad7b44ac26912	5.11981864701074e-05
66	0x3f02079db81138f8	3.4389019682211656e-05
67	0x3f0f8ac47ceda157	6.016170629302941e-05
68	0x3f07740e9eaab81d	4.473371139589197e-05
69	0xbec5f3e37de0d7c1	-2.6169645783958525e-06
70	0x3eff5dd7919a1fa3	2.991349274464285e-05
71	0x3ef1195dbe6b75ce	1.630695978859457e-05
72	0x3ee69b03ba683e6c	1.0779154604483736e-05
73	0x3eedd4ebb2d8a988	1.422487329268554e-05
74	0x3efac644381ed2a1	2.5534132425968974e-05
75	0xbf065f806ed91455	-4.2673212970836004e-05
76	0xbedc284a95d782cc	-6.713244457640706e-06
77	0xbf072baf626cd4fe	-4.419449788032637e-05
78	0xbf04a76b5ec9fafb	-3.939434450205521e-05
79	0xbefb058b630b12b5	-2.5769861340634986e-05
80	0x3ec6301ee54980e7	2.645012310773063e-06
81	0xbee55d292e9178ad	-1.0187105958955488e-05
82	0x3ef31fe231a63cc7	1.8238587566052325e-05
83	0xbed52e241f54ca21	-5.049762412045442e-06
84	0x3eec807774d21c87	1.35907281679905e-05
85	0xbece9d6ad0ecaf37	-3.6495818060057315e-06
86	0xbefec9a88fd3b220	-2.9361465739551518e-05
87	0x3ef43ed2afa25f19	1.9307520212479606e-05
88	0xbeea913ed41c96e0	-1.2668306797868273e-05
89	0x3eef5b86aa0945c5	1.4952432423917254e-05
90	0x3eda6f379f3e5c05	6.302462214244878e-06
91	0x3eedaabfc79615b6	1.4146322643747134e-05
92	0xbee21f6338e65b57	-8.641532784276684e-06
93	0xbee186e0f8e5e669	-8.35746302806362e-06
94	0xbee197a9fbcec42b	-8.388727900628532e-06
95	0xbef3796d0b5008d6	-1.8572158939641373e-05
96	0xbef59aad0bdbac6d	-2.0603373505883824e-05
97	0x3f089564780dbd5e	4.688942772800951e-05
98	0x3f03ae12437c1e6c	3.753655658838843e-05
99	0x3f012a644d93f649	3.274077034552383e-05
100	0x3ef8f46b5ba7760f	2.3798716691439107e-05
101	0xbe9daadbdda90cbb	-4.420789686857334e-07
102	0x3ef480a90ec89a83	1.955278360035252e-05
103	0x3ef2e09b164a9598	1.8002859536144633e-05
104	0x3ee377bc653f0156	9.282931536236962e-06
105	0xbef7f18458d93c53	-2.2834230142540078e-05
106	0xbed7fffba83fe9fe	-5.722030099514998e-06
107	0xbf0050ae49b8d129	-3.111869702046778e-05
108	0xbedc1357986d521e	-6.6937340140361e-06
109	0xbef832368ed3b91d	-2.3075242030872878e-05
110	0xbefa5d186f81e16f	-2.514233980874372e-05
111	0xbeff7a4c15260072	-3.0019496372713337e-05
112	0xbef38fd87360fe5d	-1.8655678296618207e-05
113	0xbef27656f07fddb0	-1.760698708605312e-05
114	0xbee29687ae3bd579	-8.863452826339144e-06
115	0xbf027d31b0c5e14d	-3.5265044149692706e-05
116	0x3ee239f9ebdacbd8	8.691058038001327e-06
117	0xbef281956e4cd316	-1.7648874649017666e-05
118	0xbefabac0c64301b7	-2.5491241459675673e-05
119	0xbee73d2471cdf9bf	-1.1081141161770122e-05
120	0xbefb663f2891ba1e	-2.6130105230165905e-05
121	0xbef9608668e471dd	-2.4201441697889687e-05
122	0xbf0f0a46d5d6447d	-5.9204375001739043e-05
123	0xbf05d13e794acae4	-4.161331086062982e-05
124	0xbf0fd7d9f2b67c75	-6.07360255699901e-05
125	0xbf139afefbf89ff8	-7.478886890821535e-05
126	0xbf0d37b986ac2627	-5.572829180351359e-05
127	0xbef5e35f1766bf7f	-2.087418530444208e-05
128	0xbf0c07d42757d610	-5.3464090267779066e-05
129	0xbf17b8b83b4ccc1b	-9.049057446190759e-05
130	0xbf190011fb922e1d	-9.53684783714871e-05
131	0xbf140820c1b50667	-7.641506129110188e-05
132	0xbf113edb3d4eeecf	-6.578648692728426e-05
133	0xbf141942dd548e98	-7.667036637265046e-05
134	0xbf0b7a658eff6660	-5.2410339662589634e-05
135	0xbf151445beac381b	-8.041072548456466e-05
136	0xbf1d0098f44e4154	-0.00011063512381626522
137	0xbf1ae252e3a13c4f	-0.00010255461612128476
138	0xbf22fc620ed773d0	-0.0001448507022549215
139	0xbf186253eeb71369	-9.301793368539164e-05
140	0xbf201e8db0305c24	-0.0001229808768534467
141	0xbf1cca337fe99f01	-0.00010982455567331782
142	0xbf25989786a92646	-0.00016476487810939045
143	0xbf20552ccb8e2b1a	-0.00012460872474336847
144	0xbf0f1bedf45e8016	-5.933589868267767e-05
145	0xbf118da374876552	-6.696043158828838e-05
146	0xbf19e993ead92823	-9.88480121232598e-05
147	0xbf0be744f8f9d42d	-5.322150456958e-05
148	0xbf154db3f87c1ebe	-8.126650766026707e-05
149	0xbf1c69fc393f722a	-0.00010839082671005502
150	0xbf1d03aa4c9f415f	-0.00011068083691090834
151	0xbf1cba7ca46eb391	-0.00010959039455711433
152	0xbf1ce30a28ed7732	-0.0001101946784109714
153	0xbf15e2f17c3ae609	-8.349036130086291e-05
154	0xbf12ac54d633a070	-7.12324886539288e-05
155	0xbf19b22f477cf33a	-9.802259034770176e-05
156	0xbf1554c37137c3be	-8.137171635504058e-05
157	0xbf1a8fa482e14208	-0.00010132257077200707
158	0xbef90b7a39845b60	-2.388461470656121e-05
159	0xbf1eb4e167d8c1f4	-0.00011713624731935613
160	0xbf22015a2392aedf	-0.0001373693974405709
161	0xbf1ca103d7699330	-0.00010921083399180183
162	0xbf20d6f9a19a8564	-0.00012847707039490973
163	0xbf15aa7f6ba659c1	-8.26492568307474e-05
164	0xbf2157655c4ca12a	-0.00013230430899936171
165	0xbf1b6352f1428c85	-0.0001044768690144239
166	0xbf1f64539a06377f	-0.00011975059761068321
167	0xbf25732072a48ced	-0.00016364832965463181
168	0xbf12f2f21a982a18	-7.228472409096692e-05
169	0xbf134a6fd8d7d84a	-7.358844433000378e-05
170	0xbf03f7d447c8b3ac	-3.8086095603829514e-05
171	0xbef5f966cb36b2db	-2.095625377556113e-05
172	0xbf146059cf0226ac	-7.772968433719202e-05
173	0xbefbdf488c689c05	-2.6581001998728804e-05
174	0xbe951d277fda030e	-3.1462138836567376e-07
175	0xbf11b6259859f01c	-6.756405317703867e-05
176	0xbef4e3f01d5693e6	-1.9922621353213927e-05
177	0xbecd1e5b2216718a	-3.471205005835074e-06
178	0x3eff6e0e126c3cd3	2.997389051545287e-05
179	0xbeeb34d3ae3e583a	-1.2973000998600063e-05
180	0xbee22eb828703f47	-8.670090450052201e-06
181	0xbea7d09f9736ac1c	-7.097403752950336e-07
182	0xbefccab9cd3141f1	-2.74580932678198e-05
183	0x3efbed94e4232242	2.6634266995258797e-05
184	0x3f0ac3c07709857f	5.104952913793491e-05
185	0x3f0e13c3ac9a05b5	5.736771488519134e-05
186	0x3f072bf77fec2a54	4.419659670958491e-05
187	0x3f03bb45d277274e	3.763491468651449e-05
188	0x3f116b4e06259aad	6.644881935855924e-05
189	0x3f0ded5b3b9138cf	5.708155317361992e-05
190	0x3f21dc937c9ab35c	0.00013627338767232655
191	0x3f1678188fa9042a	8.571290883542583e-05
192	0x3f0ec32dce9c312c	5.8674655361997486e-05
193	0x3ef29ca449fef974	1.7749673702155283e-05
194	0x3f29ef4acd0b3c9c	0.0001978663263088918
195	0x3f1c8eba8745daf6	0.00010893834570944644
196	0x3f3276ea2d967083	0.00028174607504084114
197	0x3f35138626796d09	0.00032159829286167223
198	0x3f2fbd145d4de6e4	0.0002421462401363462
199	0x3f2e6675bf71ed44	0.00023193538047281738
200	0x3f22243491796fe7	0.00013840810491927357
201	0x3f221a018f6b8567	0.00013810414357976893
202	0x3f2550f8b5684a77	0.00016263042444160703
203	0x3f05b4f82706f14a	4.1402647983331835e-05
204	0xbef0e807cac23574	-1.612316980064339e-05
205	0x3f067c5d72e802d0	4.288826163545911e-05
206	0xbf16f1fbc8b6faba	-8.752917545161001e-05
207	0xbef91b73af138133	-2.3944124170395194e-05
208	0x3f130728d867ca91	7.258593368656754e-05
209	0xbef91c8409fd52d0	-2.394808745916321e-05
210	0x3f231fdca8adf3f8	0.00014590805616512804
211	0xbf1ae27407defd6b	-0.00010255654521439609
212	0xbe90dea2ac66cbdc	-2.5137766748310866e-07
213	0xbf18fab02603f8df	-9.528827786551033e-05
214	0xbf2322cba1e733ea	-0.00014599548099028466
215	0xbf1a044e2ceb8d4a	-9.924628396223048e-05
216	0xbf1b2ac324bc4471	-0.00010363403378856204
217	0xbf1b973560aefafa	-0.00010525000850146105
218	0xbf258e07421d18e6	-0.0001644500599075678
219	0xbf1eb8eb7cf155c7	-0.00011719643883741699
220	0xbf220b7adab12daa	-0.00013767122922768205
221	0xbf261a6a495f9930	-0.0001686339134600672
222	0xbf2de62aef1fbb43	-0.00022811197373991997
223	0xbf274368f5f2e32d	-0.00017748504885675126
224	0xbf269b0e511c9706	-0.0001724677063574197
225	0xbf1c8fb9bf6730b3	-0.00010895320142551255
226	0xbf213b23f33af9e6	-0.00013146222919675695
227	0xbf2036a9ad248382	-0.00012369939083447737
228	0xbf112365cbdb92fb	-6.537731948303906e-05
229	0xbef986256638f2ba	-2.434159104168735e-05
230	0x3e93111f5b189e91	2.8411872241222505e-07
231	0xbf1e85f88df0ab23	-0.00011643724018088309
232	0xbf1a4cc6dfbecef9	-0.00010032619314764489
233	0xbf21587528dfae47	-0.00013233595058125184
234	0xbf2691b792ba31e5	-0.00017218938716147196
235	0xbf0d4ab5ee370e53	-5.5869748190964665e-05
236	0xbf238f72df15be49	-0.0001492336009891618
237	0xbf1bc1ec7d44f3cf	-0.00010588651577321462
238	0xbf278acae729a96c	-0.00017961241572390528
239	0xbf2d9504f8982a2b	-0.00022569356615094577
240	0xbf13b22fa90ece31	-7.513442893874383e-05
241	0xbf23aaec2560972f	-0.00015005238191284065
242	0x3f2843fcc2b3df31	0.00018513164955157862
243	0x3f30e3cb9081dabc	0.0002577182754132481
244	0x3f507b04d09b6829	0.001005892469427847
245	0x3f501ed8913de1d2	0.0009839167514354885
246	0x3f4807d5edf98e75	0.000733355958754746
247	0x3f4a4fbf14133adb	0.0008029635429468123
248	0x3f3e693c341dbe37	0.0004640361768144282
249	0x3f424a2c9bd504a0	0.0005581586662303413
250	0x3f45075d6d280b27	0.0006417471107059467
251	0x3f38e711caf9bfbf	0.0003799837531692738
252	0x3f3a2be541db5289	0.00039934489346408385
253	0x3f338c8632224752	0.00029829288735882143
254	0xbeca4ee81ef2e46b	-3.136185334176374e-06
255	0xbf084f8133e5b2ae	-4.6368723348821014e-05

exp_avg_sq f8 [48, 48]
0	0x3e72e2216720e9a6	7.034585694588928e-08
1	0x3e722ba20736e160	6.769016796290305e-08
2	0x3e72fba51094b59a	7.071713894044507e-08
3	0x3e7348876c32b1a1	7.183595145355224e-08
4	0x3e73f45991710722	7.433627434528025e-08
5	0x3e74cb2fd4b42b77	7.746256363101183e-08
6	0x3e752e250959bd15	7.89025896509402e-08
7	0x3e74e4b247981556	7.783377666694137e-08
8	0x3e75d232ba8484d3	8.128988205183857e-08
9	0x3e75ef271324f4a5	8.171122515151685e-08
10	0x3e760ba98a06aaf9	8.212609481940055e-08
11	0x3e7745c97f412d4b	8.669721279876916e-08
12	0x3e79e751af0ae36c	9.649839306347833e-08
13	0x3e77e9c1dc1a9642	8.908329276554722e-08
14	0x3e79557a786aef1d	9.437613189116314e-08
15	0x3e773888e7c5ac07	8.650436628613449e-08
16	0x3e7848e9c4b8fa80	9.046799325730877e-08
17	0x3e7974576fceca46	9.482524983179229e-08
18	0x3e769a7d006882be	8.42044870293368e-08
19	0x3e781311baf4cdb3	8.968446140317526e-08
20	0x3e7525275c2b8ff5	7.87717544903733e-08
21	0x3e75ceb87eca62c3	8.123927814697606e-08
22	0x3e755474dd206624	7.94601000834302e-08
23	0x3e7310ae5575337d	7.102325604475921e-08
24	0x3e7377237f0dae2e	7.251421131414282e-08
25	0x3e71d3b56666bbbd	6.641070058350843e-08
26	0x3e707af4336e7f1b	6.139385964756871e-08
27	0x3e719995f5f2f5a2	6.556490238486491e-08
28	0x3e6ffd94dea91a63	5.958704803583169e-08
29	0x3e6f98831539ecea	5.885167078404044e-08
30	0x3e70b4c226f61508	6.223502579089289e-08
31	0x3e6cad142b3537cd	5.341337807694776e-08
32	0x3e6c8dbf84dddea9	5.3185417499732465e-08
33	0x3e6c7a3e7f87a953	5.3043507312048036e-08
34	0x3e6c17da0f1e37cc	5.232760881468833e-08
35	0x3e6b4577d747362a	5.079686618871484e-08
36	0x3e6c09bb4f08a71b	5.222487143117236e-08
37	0x3e6dbd2f8c1d1065	5.5393216692848514e-08
38	0x3e6c490be6c41296	5.2685547343268424e-08
39	0x3e6d4c1995c7f99f	5.457040927815989e-08
40	0x3e6e8a4da67a903e	5.6885643582167795e-08
41	0x3e6e9e00a0211166	5.702897355787903e-08
42	0x3e6ec10fabe2599e	5.728405970508498e-08
43	0x3e707ba960d62f4c	6.140415838832496e-08
44	0x3e6e9dfbcd6c10b3	5.702883647786037e-08
45	0x3e718115c557390e	6.520836966854889e-08
46	0x3e70104d37171a93	5.98418645947894e-08
47	0x3e714bcba81c0801	6.443290525781567e-08
48	0x3e88c6c69907552f	1.8459907070884343e-07
49	0x3e88dc64204a1a76	1.85228160049829e-07
50	0x3e8954359b037772	1.8871533092370167e-07
51	0x3e8a4eda5dc489f7	1.9601001966750528e-07
52	0x3e8950937c082714	1.886095884059841e-07
53	0x3e8aaf1348a097c9	1.9881045815287204e-07
54	0x3e89e065eccafb19	1.927953604731831e-07
55	0x3e85b59c2f84f95d	1.6174774209761988e-07
56	0x3e86b69ef475fc15	1.692277413582478e-07
57	0x3e865e48b313ad14	1.6665679817367428e-07
58	0x3e84e7b19ae1add8	1.5575478812548788e-07
59	0x3e86c18850a9489d	1.6954530964120107e-07
60	0x3e87e4171dfe43d8	1.780016551903175e-07
61	0x3e87fed5afb5c6c0	1.7878001999263657e-07
62	0x3e8798cdab39f43f	1.758105178001937e-07
63	0x3e8577e433dca736	1.5995149199007416e-07
64	0x3e856762e7c001a3	1.5947113130022615e-07
65	0x3e880eb1eb19cfe4	1.79241614928584e-07
66	0x3e852d05aa9c644c	1.577725091066042e-07
67	0x3e8473a846b5875d	1.5237768323088507e-07
68	0x3e837fe87f02bc7f	1.4528364955998573e-07
69	0x3e83c58a5c867dfa	1.4731021581464876e-07
70	0x3e85705b1b03ed9a	1.5973217904601012e-07
71	0x3e827d8f5238358e	1.3776472328233743e-07
72	0x3e8333c3433c8a8f	1.4306752548720125e-07
73	0x3e8183acd8607097	1.3049212216419103e-07
74	0x3e81146ea317692f	1.2725452473614173e-07
75	0x3e817bc3927fb677	1.3026187528581e-07
76	0x3e8119f52eff38f8	1.274153400552094e-07
77	0x3e80fa09588028cb	1.2648630964867567e-07
78	0x3e8141c97d452eff	1.2857452581294042e-07
79	0x3e8181079aac1e6f	1.3041512877280476e-07
80	0x3e8132498be3b09b	1.2812342293307456e-07
81	0x3e7fb6542a3a742a	1.1813723204764038e-07
82	0x3e80152750ea521e	1.1982493971066233e-07
83	0x3e7eb5104b54b579	1.143935318317122e-07
84	0x3e7cf0e8ac5f22ac	1.0781381395910623e-07
85	0x3e7e2dfbf608c6f3	1.1242786746785376e-07
86	0x3e7dfa2cdf19cad2	1.1167394811123522e-07
87	0x3e7da91f494f9fd7	1.1049447075329349e-07
88	0x3e7d7bdf7e5bc152	1.0983600836809572e-07
89	0x3e7cf452bec83153	1.0786349919511609e-07
90	0x3e7dd5e17160cd3a	1.1114579154328375e-07
91	0x3e7d89d860777b73	1.1003933064007208e-07
92	0x3e7effe3f6599b2c	1.1548240549386612e-07
93	0x3e7eac95e692c3b4	1.142701592401038e-07
94	0x3e7fbb7e0688d891	1.1821237112176298e-07
95	0x3e7cbcd4a2537562	1.0705597526827978e-07
96	0x3ebb5e805bd912ae	1.631328231070275e-06
97	0x3eba39e3f3d81b9d	1.5631994324542523e-06
98	0x3eb9ff830b8c70ed	1.5496071183512971e-06
99	0x3eb9ad17086639c4	1.5304167689554011e-06
100	0x3eb96a3ae7375a10	1.514849739749799e-06
101	0x3eb9040b9b729046	1.4910579986616097e-06
102	0x3eb8663ca54075c2	1.4543153570364952e-06
103	0x3eb81165ea8507d3	1.4345622876975406e-06
104	0x3eb87ab96b7920e1	1.4590854514763334e-06
105	0x3eb8389248ec6f82	1.4436830359570382e-06
106	0x3eb7af92408aa35b	1.411785207997536e-06
107	0x3eb7c5e6fca42668	1.4169845479770907e-06
108	0x3eb7729d1aa875c5	1.3975924085871122e-06
109	0x3eb7e05276059a39	1.42313589187596e-06
110	0x3eb73b82e8a2b6da	1.3847628986084807e-06
111	0x3eb80ae834e49649	1.433050971730119e-06
112	0x3eb8d51f5ede2217	1.480132933081207e-06
113	0x3eb8fc24459472bb	1.48921778581679e-06
114	0x3eb9ca2fb74bbe2f	1.5371913068515778e-06
115	0x3eb941180b2ade13	1.505271978769866e-06
116	0x3eb9d5a3d2f8a0a8	1.539858043639702e-06
117	0x3eba35637a4cdea8	1.5621512627471378e-06
118	0x3eb9dfd3c6b81303	1.5422299622935046e-06
119	0x3eba1557257d530a	1.554689466905573e-06
120	0x3ebaf5b758a73aac	1.6069310243453537e-06
121	0x3eba8629d1d86c59	1.580958105213182e-06
122	0x3eb989a8de56d87b	1.5221675025829055e-06
123	0x3eb9cfece51141c2	1.5385275171816546e-06
124	0x3eb9ad020b5304e1	1.53039767995826e-06
125	0x3eb992d1468326de	1.5242997282609558e-06
126	0x3eb9c34d9bc686b2	1.5355886794150308e-06
127	0x3eb9fe682b7cbe86	1.549349844819695e-06
128	0x3eba4be7c3bab9f9	1.5673938510808235e-06
129	0x3ebacede0fa43598	1.5978858401462147e-06
130	0x3ebaae81cb285b9e	1.5903513427334132e-06
131	0x3ebb30656058aaae	1.6205934810868227e-06
132	0x3eba828cde8ce833	1.580116867751322e-06
133	0x3ebc09b30a9b7182	1.6711883667397868e-06
134	0x3ebba9fa7b550d6a	1.6489015995526157e-06
135	0x3ebb4bc647ba31bf	1.6269680419871746e-06
136	0x3ebba2bbdde7d3c3	1.647214837083677e-06
137	0x3ebc2e8e2eb65be0	1.6797695775222344e-06
138	0x3ebd0d3dead22595	1.7316178102820102e-06
139	0x3ebc90510b8b2316	1.7025313764787033e-06
140	0x3ebc86eba9aa0b04	1.7003436939839055e-06
141	0x3ebcea2249a53f18	1.7234436087871571e-06
142	0x3ebd13a848513798	1.733111532748149e-06
143	0x3ebcc5739162f4d7	1.7149027989182331e-06
144	0x3e9e2232c6406958	4.490254410530591e-07
145	0x3e9d59d51e918179	4.373626141859271e-07
146	0x3e9cc68317de1f54	4.2878743743882944e-07
147	0x3e9c079fd17841cc	4.176763055150392e-07
148	0x3e9c852b1e11ddc3	4.249839361046082e-07
149	0x3e9c17e3ae03d5d9	4.186230580094213e-07
150	0x3e9c948058a306f3	4.2587642979869925e-07
151	0x3e9b2b26f5130c07	4.04843139522628e-07
152	0x3e9ca7fe58b3fde6	4.270110244980189e-07
153	0x3e9c2a82d9965027	4.19706987020128e-07
154	0x3e9c8179ebf8ae62	4.247690234850151e-07
155	0x3e9d155f9a098164	4.333777728123872e-07
156	0x3e9b99bd506b379e	4.1128016940456416e-07
157	0x3e9c3b306422531e	4.2067776829497984e-07
158	0x3e9984e4972f7c0b	3.8026441656445664e-07
159	0x3e99622816378bc1	3.782424952953678e-07
160	0x3e9a286721139fd4	3.8978194634312183e-07
161	0x3e9a24ff80487e53	3.8958376105851183e-07
162	0x3e9aba449626b72d	3.982724107409586e-07
163	0x3e98e66ac61ab23e	3.710399082239866e-07
164	0x3e994b5a05739de8	3.769150728875099e-07
165	0x3e9a52f9e1f7e733	3.922600359803599e-07
166	0x3e970f9511202ec0	3.4363371626052816e-07
167	0x3e96cf6cc863207f	3.3989926641028365e-07
168	0x3e980b084b0570da	3.5827003854405357e-07
169	0x3e97b0776526851a	3.5299840308630734e-07
170	0x3e96b95e92413596	3.386154665594211e-07
171	0x3e9789b51ebba5c8	3.507423389352823e-07
172	0x3e96dca138c2f7a6	3.406678892417781e-07
173	0x3e963d2d7a3fb6bd	3.313865539745838e-07
174	0x3e961ea99d938ce3	3.2961034219913233e-07
175	0x3e95ef26551947f7	3.268447318116635e-07
176	0x3e96680c300a32d8	3.3388191415170204e-07
177	0x3e96b5ed7aa9a586	3.384151293974131e-07
178	0x3e9602c19a5acd17	3.2798598180034226e-07
179	0x3e96c82fd39b716e	3.3947795295503584e-07
180	0x3e957ec56786e1f5	3.203034349103054e-07
181	0x3e96ecacf2abdb5b	3.416018780478288e-07
182	0x3e957d352d4ae5b5	3.2021243371766377e-07
183	0x3e94e9281d881d86	3.1159473004622783e-07
184	0x3e9527bca02ba1a0	3.1523737235733314e-07
185	0x3e960be7b65d3542	3.285185158255767e-07
186	0x3e96c1849f5aa843	3.390897796810055e-07
187	0x3e96514928b840b2	3.3255700124333847e-07
188	0x3e95bf2079ca20d9	3.240494324337495e-07
189	0x3e96aad17cd0c53c	3.3776848057654757e-07
190	0x3e95d221f5afa6b9	3.251557154070441e-07
191	0x3e954032e0b73fc9	3.166612436407741e-07
192	0x3edf4ae96fdc75bd	7.460743061374892e-06
193	0x3ede12d8734ea8b7	7.170108621427032e-06
194	0x3edd82c76cee4500	7.035936234426861e-06
195	0x3ede4e96c1dc239a	7.225748985603079e-06
196	0x3eddc3f7db9c3115	7.096648397608248e-06
197	0x3edd562b1e2508dc	6.994389396832424e-06
198	0x3edd1c32870fdb87	6.940399644320557e-06
199	0x3edad0bb5f29ce77	6.393279806549496e-06
200	0x3edc42bdd3448898	6.737878085057634e-06
201	0x3edbc40f0f8e98a7	6.619895651127433e-06
202	0x3edbbd7d2413fc62	6.613776862395608e-06
203	0x3edce31631f0e3ad	6.887211184519146e-06
204	0x3edeb1cda6bff1d4	7.318149624066219e-06
205	0x3eddd6aa3d9ef78a	7.1140611569968065e-06
206	0x3ede23758ab034e9	7.185581277558233e-06
207	0x3edcd763f94f24b1	6.876318271184141e-06
208	0x3edec215fa2ec456	7.333313905386992e-06
209	0x3edfe5859744ab27	7.604734822567658e-06
210	0x3edf0de6f9e53e3e	7.403923431972444e-06
211	0x3ede48357b677295	7.21980716497359e-06
212	0x3edeb590e548aa43	7.32165388631995e-06
213	0x3ede93953be062db	7.290004701253969e-06
214	0x3edfbeda7e045c47	7.568722111515073e-06
215	0x3eddbe0a4b440c9e	7.091127532501922e-06
216	0x3ede40979d0ed058	7.21271358454866e-06
217	0x3edd50983afdf348	6.989198411019877e-06
218	0x3edba5e8ae6e075f	6.591816350433532e-06
219	0x3edc6ee3620270bd	6.778992912039893e-06
220	0x3edbd4717d362d3e	6.635154892530122e-06
221	0x3edb240d499abf1a	6.470877588135387e-06
222	0x3edb64d476693d0f	6.531206827433606e-06
223	0x3edb064a6fb02226	6.443160368803846e-06
224	0x3edac2c2627174cb	6.380266802966451e-06
225	0x3ed9d91b799cea23	6.162661429882343e-06
226	0x3ed8c83a1d71ac4c	5.908521834556315e-06
227	0x3ed8f7199e498196	5.952175773233159e-06
228	0x3ed83d57479136f6	5.779174096676981e-06
229	0x3ed802386f8a4e2f	5.724113855482294e-06
230	0x3ed7cd1dafa77b57	5.674656444714199e-06
231	0x3ed63fa15dba64b1	5.3044691089794885e-06
232	0x3ed67ebdf7d8deda	5.363246484750312e-06
233	0x3ed6afb020235a22	5.4088309317719175e-06
234	0x3ed6c85dda721f79	5.431814691487954e-06
235	0x3ed5f2ae2de2f855	5.232803884590023e-06
236	0x3ed53d815727a013	5.064071375994477e-06
237	0x3ed5420ea5989e8f	5.068310736023838e-06
238	0x3ed52a39bebb2751	5.046115784510173e-06
239	0x3ed5171f00da67f7	5.028323369815963e-06
240	0x3ef4ba26757e5748	1.9766949975150925e-05
241	0x3ef51387e09677e7	2.009991843509437e-05
242	0x3ef602e793b6b274	2.099165543050165e-05
243	0x3ef72df532d934cd	2.2105715450405906e-05
244	0x3ef7228f57c79eac	2.2063255061071055e-05
245	0x3ef7986c6eb8d8d6	2.2502331303374982e-05
246	0x3ef7c4a8eb03c6b6	2.266712425664257e-05
247	0x3ef5e833ec473fcd	2.0892183572318417e-05
248	0x3ef739c23eea7fc4	2.2149677472271608e-05
249	0x3ef7bae34c38129a	2.263072089016497e-05
250	0x3ef69a33d0ba948c	2.1555283679437545e-05
251	0x3ef90d016fcbd384	2.3890307590829492e-05
252	0x3efe61cad920d0c2	2.8974534480322824e-05
253	0x3efcb00101cbd946	2.7358546605926454e-05
254	0x3efec79b05da2de2	2.9353818141104433e-05
255	0x3efa8f8b63764b2d	2.5330277109224232e-05
