dl_experiments/best_checkpoints/horton_5min_CNN_cuda:0_checkpoint.pt (torch, 86929 bytes, 18 tensors)

block_1.0.weight f8 [8, 1, 3]
0	0xbfa13edb6e0ece77	-0.033682686981959024
1	0x3fbc1cd81850c4d9	0.10981512635841585
2	0x3fc24ca7277de7ad	0.14296426227866502
3	0xbfa82dd726cffaad	-0.047224734771579825
4	0xbfbe1f5d6984bfb8	-0.11766609026085362
5	0x3fdcc43e00e0f45f	0.44947767339528427
6	0xbfcf0950849c965e	-0.24247175669840976
7	0x3fc4f67e39d1e9d8	0.16377237151375712
8	0x3fd3fb66dca4bc8c	0.3122193484040927
9	0x3fcb2fba541ddce0	0.21239403826959968
10	0x3fc00ab4524c9609	0.12532667177690396
11	0xbfd9a19f3a79e079	-0.40048962317042186
12	0xbfc83592e8d5a061	-0.18913494461890237
13	0x3fa70df37af19e80	0.04502831340579139
14	0x3fdc45186517e8ae	0.44171724197770856
15	0x3fd6b30f4cc1abcc	0.3546789407325235
16	0x3fb20075ff424bd1	0.07031953317554886
17	0xbfe6c1e98e612245	-0.7111709385727144
18	0xbfd8986b8063f358	-0.38430297411087144
19	0xbfce5b062057b25a	-0.23715282992579284
20	0xbfd64476dc46db32	-0.34792872916607387
21	0xbfb4e73109c921ff	-0.0816527031794365
22	0x3fb222baa0c40062	0.07084242272321853
23	0x3fcebfb7c46ca70e	0.24022576418911296

block_1.0.bias f8 [8]
0	0xbf860b4afe942dbc	-0.010763727087144008
1	0xbf81271614c38d2c	-0.008375332363761055
2	0xbf7503b42cc92973	-0.005130485351921943
3	0x3f6c0560a36bf603	0.0034205329387748686
4	0xbf810d488b92a3f5	-0.008326117286133064
5	0x3f55ad6f87a40b39	0.0013230885656986947
6	0x3f9feb2fba75b356	0.031170602565384918
7	0xbf784c9a98f3ad89	-0.005932430168495436

block_2.0.weight f8 [32, 8, 7]
0	0xbfae72b33746528a	-0.05946884202709153
1	0xbf869bc77ab736a0	-0.01103931277512099
2	0xbf7c02044d0e6fa4	-0.006837860871112076
3	0x3f81a0bbadd79393	0.0086073553492925
4	0x3fb571ba950fb4c1	0.08376661433404121
5	0x3f9bace346fdf077	0.027026702125553883
6	0x3f86bb28629cc21d	0.01109916258755655
7	0xbf8cd05b4a0bc54a	-0.014069283673480943
8	0x3f76837e37af16b2	0.0054964952823348
9	0x3f95426c7503c762	0.02076119865609572
10	0x3f7cb113bb9bbae2	0.007004811364579951
11	0x3fa3a84c50640160	0.03839338761645439
12	0x3fbdce09361a716b	0.11642510958558254
13	0xbf9a0e2c22d5acd3	-0.025444688440455842
14	0xbf8291d1505f9a74	-0.009067187562277847
15	0x3f6fc1f33b087639	0.0038766623113264645
16	0x3fa2e8144de4daca	0.03692687464574858
17	0xbf93d4f11e75b58a	-0.019366996273154004
18	0x3fa6545c577b4fa6	0.043612371138493075
19	0x3f74c223a77f8753	0.005067958139962264
20	0x3fa3510b7301ba30	0.03772769717112501
21	0x3fa187a8f4cb0706	0.0342381285495446
22	0xbfb023a9d75033b2	-0.06304418093368616
23	0xbfa95e0cbae823d7	-0.04954566747262106
24	0xbfac4a8e52ad51b3	-0.05525631674996436
25	0x3fb58efadff2e4c3	0.08421295135021283
26	0xbf9e6109014a8b67	-0.029667034820373497
27	0xbfbea0286ebc41ec	-0.11963131621838102
28	0xbf81bc85e7e0b31c	-0.008660360468718369
29	0xbf73dada80d40a5f	-0.004847386863959884
30	0x3f9994c70d8e5cb5	0.02498160381545907
31	0xbf627a1d8b228105	-0.0022554947873488795
32	0x3f99899fc943649c	0.024939057025083686
33	0x3fc1c2d807ca3e6e	0.13875866299030143
34	0xbfaae11dd4d2d471	-0.052498752812803036
35	0x3fa85679069cf723	0.04753473478056793
36	0xbfb7513b95cca5da	-0.0910832634659963
37	0xbfba1019ce3708f8	-0.10180817875428605
38	0xbfb62f7283f25a12	-0.08666148873667393
39	0x3fb9777b53d33a90	0.09947939678679973
40	0xbfa95bfffcdc69b4	-0.049530028931445896
41	0xbfd085c5ba5b2314	-0.25816481779888645
42	0x3f6bd11b30d0d144	0.0033956080501643966
43	0xbf9eb787997d265d	-0.029996985190598447
44	0xbf9fb1ca27350cc3	-0.030951651232737697
45	0xbfb5f1fbca6be650	-0.08572362605982531
46	0xbfb5f1e52adc674a	-0.08572227760705889
47	0xbfb0a7ca23d29098	-0.06506026625226224
48	0xbfb3da6c54064bec	-0.0775516228807615
49	0xbfa938ce2e4bc6cd	-0.04926151576172586
50	0xbf904bb1a944da43	-0.015913749653203146
51	0x3f7b1e7590e9f9b9	0.006620845072232867
52	0x3f8d05dea620077d	0.01417135185693374
53	0x3faea8ba7252c428	0.059881044822198526
54	0x3f9ee0e1dcd4d0c8	0.03015473280284267
55	0x3fa1f73b77284de3	0.03508935765799117
56	0x3fa750d955862647	0.045538703622764624
57	0x3f9e7cd0c09bbf4d	0.029773008113749545
58	0x3f9d3020cd6e6ec6	0.02850390676358818
59	0x3fa990038c88f92f	0.0499268635799005
60	0x3fa3e66104dbd376	0.038867027133085694
61	0xbfb3d81fa791630d	-0.07751653519643416
62	0xbfc34b3678bd1d55	-0.15073281188436263
63	0xbf82f68a174956d9	-0.009259299121520058
64	0xbf92d6b48d075cc8	-0.018397160632812853
65	0xbf9fe16cb0896df2	-0.031133363985970726
66	0x3faa70f27410df8d	0.05164296786136822
67	0xbf9ad6baa8ed86ae	-0.02620975166372002
68	0xbf8b37e0e0a8c778	-0.013290173393304391
69	0xbfc49663653ba21f	-0.16083948557867786
70	0x3fa69b6945043e60	0.044154443430781454
71	0xbfa4ea813c96a966	-0.04085162987333284
72	0x3fc1ef825579026f	0.14012173818084103
73	0xbf7f8308f58bf97d	-0.00769332408594747
74	0x3f8b77d9966efebf	0.01341218939148747
75	0xbfa73b78cc2dd8c5	-0.04537560932560462
76	0xbfc487727c317d16	-0.16038352073790269
77	0x3f97301dfb750509	0.022644489739154703
78	0xbf97190d5147ca14	-0.02255650337787969
79	0xbfc0111c06d10810	-0.12552213986242622
80	0xbfade1c9dcafdfb3	-0.058363254727680135
81	0x3fb10e44c7eb45c6	0.06662397270999695
82	0xbfa0ee4e83f265f8	-0.03306813584022089
83	0xbfb90257bf1c92e9	-0.09769199767886118
84	0x3f9688f8ca43ed18	0.022006881089493197
85	0x3f8bd41249a58afd	0.01358808791400667
86	0x3fa3847254f8a5f5	0.03811986243483637
87	0xbf8772367d87c66c	-0.011448312478907506
88	0x3fa6028e4f2e65ec	0.042988249936751405
89	0xbfa85d46e46077aa	-0.04758664644053508
90	0xbfc5369097268c20	-0.16572768574141694
91	0x3f91fa403d5e5335	0.017556194062837
92	0xbf8e1c233fe614d7	-0.014702105891738189
93	0xbfc0d0fdf85ce27a	-0.13137793185321184
94	0xbfa57af60a69c3ac	-0.041953743716369146
95	0xbfba9f08695b3b17	-0.10398914882828723
96	0x3fc3041d95e15aa0	0.14856309717534533
97	0xbfb68325c78a8093	-0.08793865319830933
98	0xbf883d0f36be0142	-0.011835211618518419
99	0xbfab18abd14dd7c0	-0.05292260103207935
100	0xbfabfbcba853f9de	-0.0546554224947504
101	0xbfb3150ee1dd8a44	-0.07454007162372372
102	0xbfb7047d56b141a2	-0.08991225592149601
103	0xbfa30e6b1fb9ebce	-0.03721937906535509
104	0x3fa8a4f1e78de619	0.04813343001928789
105	0x3f838995b5f0dc9e	0.009539765944380382
106	0x3f87349f3144f5e8	0.011330836955148763
107	0x3f9e1d237b0d6a51	0.029408029923937488
108	0xbf70345fd877f42b	-0.003956198117063751
109	0x3fa5130673ae7e7d	0.041160775777140814
110	0xbf9e0002f8be0b43	-0.029296919281033295
111	0xbfc40f3c4eaa4afc	-0.15671495286058945
112	0x3f99f2e261ec178a	0.025340592600535262
113	0x3f791bde348b3e14	0.0061300926106038385
114	0x3fa4d76bc19c2440	0.040706031211876326
115	0x3f93d5fc197861a1	0.01937097459276205
116	0x3faad49cb55f0d26	0.052403351917315086
117	0xbfbaabbb0b432fe3	-0.10418290162050385
118	0xbfb8639f2c059fa3	-0.09527010750536972
119	0xbf9eb16d84761373	-0.029973708352844363
120	0x3f7506a6694b99f9	0.005133295101336526
121	0xbf852cee56cc7c69	-0.010339605354202601
122	0x3f9dd32b7f4a78a3	0.029125861782283945
123	0x3f98f98cfe5219fa	0.02438946058512135
124	0xbfc5c58d81f19c4e	-0.17009133191024478
125	0xbfbc67767bebd91d	-0.11095371747419276
126	0x3f9693d9f2c4a363	0.022048383180990238
127	0x3fa8545dd5f936bd	0.04751866566639993
128	0x3f94fb218d8cd02f	0.02048923899128868
129	0x3fa6b37208cfdfc3	0.044337810111698704
130	0x3f9a7e0f0e198b81	0.025871501193602157
131	0xbfc49b6101c29b7f	-0.16099178873011152
132	0xbfc646506c78e21d	-0.17402081772321845
133	0x3fadfe6acb5fe10c	0.05858167393302169
134	0x3fa3f8be3e87969d	0.03900713456441205
135	0xbfc01454bf84027d	-0.12562045432425242
136	0xbfc4d9e0141b13c4	-0.16289902669646328
137	0x3fbd88057a71fe5f	0.11535677184473901
138	0xbfa44a9f80089782	-0.03963182866964045
139	0x3f9eaac6b4f011ac	0.029948334497036974
140	0x3f8dfd086869fa80	0.014642778097593068
141	0x3f7132c4211fd1b2	0.004198804979740721
142	0x3f85626b3559b077	0.010441625180839005
143	0xbf89cc4d50defccf	-0.012596706419456897
144	0x3f99262e7ede0d11	0.024559713834162503
145	0xbfc5a5e27b6ab929	-0.16912489916053033
146	0xbfc9057ce1b236a3	-0.19547997494048727
147	0x3fa6251c23cb3a61	0.04325187622963678
148	0xbf97fc076b4c1399	-0.02342235176458338
149	0xbfbfc48106100ca9	-0.12409216306700678
150	0xbfbf7ab0f41e9400	-0.12296586952159316
151	0x3fb99209a6d660bc	0.09988460848979036
152	0xbfaf659490c59e48	-0.061321871445042364
153	0xbf8c6b80991426be	-0.013876919433204345
154	0xbfa15bf3dd6d3c72	-0.03390466764414492
155	0xbf9a1035ed5faa84	-0.025452463734760858
156	0xbfae27ff4565906a	-0.05889890405777083
157	0xbfac597ee1d31bed	-0.05537029749535081
158	0xbfaca9be0d0efd7b	-0.05598253163725083
159	0xbfae3c31329db4ce	-0.059052979878154596
160	0x3fc54a5b3887d136	0.1663316751506813
161	0xbf12abd2a5dd8513	-7.122491066759535e-05
162	0x3f7b4388e7080e45	0.006656203055630143
163	0x3f61b6c52b9174ac	0.0021623469333876457
164	0xbf10e991a61c7328	-6.45156046882976e-05
165	0x3fb4b9d742800cee	0.08096070645847295
166	0xbfbf5cc5f4e001f1	-0.12250935772318151
167	0xbfba797fa4aaee92	-0.1034164216061362
168	0xa9746314df5bcc1d	-5.4254491137732e-109
169	0xa8346e0da1449ae6	-5.184988646199554e-115
170	0x2906a27b1068e8e4	4.705937613642799e-111
171	0xa8f440ebf3b35e03	-2.105444747755535e-111
172	0x2863958009182440	3.976241172989767e-114
173	0xa881e142c0834cda	-1.452102694720291e-113
174	0xa8781cdfd633a61d	-9.791497562715201e-114
175	0x2f7ff6518b7c9886	6.7390329395956955e-80
176	0x2f43a302f1b98572	5.175366240787036e-81
177	0x2f46f0d1e4e9f46b	6.046135728739823e-81
178	0xaf6176254890430d	-1.8408265685914253e-80
179	0xaf79c639f729d862	-5.434360083960936e-80
180	0x2e8c8fde1f3c1aad	1.8378056585717435e-84
181	0x2e8a9b5247c4b140	1.7119955666985414e-84
182	0x2f99d85295953ff2	2.179705701634064e-79
183	0x2ee5acdeeb97e64f	8.925978721488365e-83
184	0xaee302267865b54a	-7.827746492998906e-83
185	0xae503003a9051240	-1.3019746245996526e-85
186	0x2e8623d613b3689a	1.424585617350978e-84
187	0x2f28b76f18b79185	1.6285415379388416e-81
188	0x2ecae3eb5bbbbab6	2.7683883898869758e-83
189	0xa26165951b53e869	-4.458221066311337e-143
190	0xa3a7daa8b4b901f2	-6.409965413168462e-137
191	0xa1da98deb33efad4	-1.3312425165324553e-145
192	0xa0e4d11135a54a76	-3.1796799313730854e-150
193	0xa04d3f561adbe8de	-4.3627426287135154e-153
194	0xa151920f2fcae809	-3.435321247758315e-148
195	0x229c52aa0a791502	5.8065729073302614e-142
196	0xb0aa964eb7c15c18	-2.9390209366695128e-74
197	0x31424d15768b59af	2.0716120953749815e-71
198	0x30e11e0a5022c55f	3.0275230815083636e-73
199	0x31433627cf81a877	2.174669822204785e-71
200	0x30e36b399c9f9f88	3.434586993898581e-73
201	0xb0ff82cb95579a2a	-1.1146592553138099e-72
202	0xb02e399ebeb53df3	-1.3051443628332283e-76
203	0xafd070075a290edd	-2.218093585582209e-78
204	0x2f33c10d50f38a55	2.6031466487710947e-81
205	0xae0a7a4f557f173d	-6.655071365523351e-87
206	0x2c751ce8e55a227a	1.5815023858820104e-94
207	0xafb5b8ba493d0799	-7.32778648890868e-79
208	0xad51d4d155e5ef07	-2.188390314898952e-90
209	0x2ee10a39ba7f85f0	7.017127184286775e-83
210	0x3688e249f3de6113	5.448410657466355e-46
211	0x3674d4266ed6db04	2.280253230895764e-46
212	0x367516e1815f85ff	2.308790126548902e-46
213	0x36d390cba5ebd034	1.3708627818312068e-44
214	0x35a5842b93419b82	2.875399017521594e-50
215	0x367f25d8ed47692a	3.409954856923657e-46
216	0x356f67a04216b493	2.623050375693388e-51
217	0xac1bf12f93fd9eb0	-3.2704004944922592e-96
218	0xab65e4964e762ab6	-1.2511664899097493e-99
219	0x2b90eb88a798fee3	7.735763322967385e-99
220	0xab7add1626c6e342	-3.0704778092264733e-99
221	0xab43192619934061	-2.7286305977621473e-100
222	0x2afd6c3c956f8141	1.3136675300681127e-101
223	0x2b1f27405b025bf2	5.563727892809818e-101
224	0xbd3a6f9caf1cec7f	-9.391948395404248e-14
225	0xbd44dcf66d812246	-1.4824149153783125e-13
226	0xbd25a8f7b5b9d950	-3.84759419926625e-14
227	0xbcb09d97cb8ffa7f	-2.3058773585568534e-16
228	0xbd0240e72c4fee1a	-8.106194569585048e-15
229	0xbd24b3f7c94eb882	-3.6775915059480433e-14
230	0xbc323bbb25c039c1	-9.884304959631784e-19
231	0xbe001567b1ab43ad	-4.680947602950954e-10
232	0xbd690c49feb31bad	-7.119070935710622e-13
233	0xbdda1e0b570c390f	-9.501440412397513e-11
234	0xbdd3d4fc12134235	-7.214829126391616e-11
235	0xbdd02758d2f560ee	-5.876681497300367e-11
236	0xbdec1657d6bd2858	-2.0436184287307044e-10
237	0xbdb3de43c107b322	-1.807004204634392e-11
238	0xbdbb6f70997da8b3	-2.4952270799206337e-11
239	0xbd7b7034d40e4b4d	-1.559687126276916e-12
240	0xbdb5b9d4ff0c177e	-1.9759596684963073e-11
241	0xbd5deb129f2f3511	-4.251639452424591e-13
242	0xbd6beb39d1a3df37	-7.935014706533175e-13
243	0xbd8403b8cb3224ea	-2.2753895880902627e-12
244	0xbd531c9f885b155a	-2.7159514495024886e-13
245	0x351591612499fcb6	5.629481576689728e-53
246	0xb6830e2e0cb22d25	-4.172232651526893e-46
247	0xb4bc4f89e7309a65	-1.1545995252984031e-54
248	0xb772dd9d7d67c7a1	-1.3535464711462339e-41
249	0x33b62803ff8c815d	1.3787906190547952e-59
250	0xb423c448f95eaf7a	-1.5745115604054375e-57
251	0xb4c2e1290722e6bb	-1.5399337047208368e-54
252	0xbe3a6567cd9b1960	-6.145824482743033e-09
253	0xbe142f40b252bd1c	-1.174897243116917e-09
254	0xbe30d92dcec92efe	-3.922813390592657e-09
255	0xbde5a39c087d5c41	-1.5744517169600762e-10

block_2.0.bias f8 [32]
0	0x3f4d208ec61bdbbc	0.00088889094715127
1	0x3f690c8785cc5741	0.0030577322890036622
2	0x3f3ee13a247a6867	0.000471188254303484
3	0xbf80e1f639bdc4a9	-0.008243487965702139
4	0xbf9133759258c174	-0.016797864014905753
5	0x3f7d3e57837a042f	0.007139531946109875
6	0xbf9e2fca4810399f	-0.029479180000686275
7	0xbf6c25f40e252687	-0.0034360663131892152
8	0xbf6d411017a02840	-0.003571063452004558
9	0xbf3fea4d3ced49b4	-0.00048698793118720084
10	0xbf8eab37210e3ece	-0.01497500486018968
11	0xbf3707b422f90505	-0.00035141132227430066
12	0xbee5659df404b74b	-1.020285674310406e-05
13	0xbf94c344e2656c7d	-0.02027614242375052
14	0xbfa23d24efd70fa3	-0.03562274387107258
15	0xbf89db7faf99c0aa	-0.012625691934971723
16	0xbf176955a07024a1	-8.930764316529778e-05
17	0x3f59130ee2c5685c	0.0015304227227575162
18	0xbf8748e11ffb43f5	-0.011369475162981127
19	0xbf1b8938818c23e2	-0.00010504157434011689
20	0xbdfe2d1673693063	-4.3912039578404436e-10
21	0xbd9c6b21a655eda1	-6.4616147493363365e-12
22	0xbeab6d41199b40d0	-8.173815786109232e-07
23	0xbfa45a162287d60b	-0.03974980517879708
24	0x3f31bc904fe24755	0.00027063868754694426
25	0x3f7d8f845086d93f	0.0072169464623839654
26	0xbe1407575e4fd90d	-1.1658224327301184e-09
27	0xbf7a6d6b6ece4c6a	-0.006452006968987603
28	0xbb65c788ca03ae36	-1.4412418451448303e-22
29	0xbf931fed72e038e9	-0.01867648137709291
30	0xbf843cd640d344fa	-0.009881662228880195
31	0xbf45400781090346	-0.0006485020294989339

fc.weight f8 [1, 1472]
0	0x3f609c4e7fb49c85	0.0020276578121812294
1	0x3f6f9fa0e2a19bbc	0.00386029646783778
2	0xbf81c1286eb8a006	-0.008669200781767483
3	0xbf83352ff6ff9042	-0.009378790593423617
4	0x3f635b7d590d0ce8	0.002362961597471281
5	0x3f702c949e2e5c80	0.00394876531472399
6	0x3f8f5790c2808334	0.015303736625413934
7	0xbf80866a9852c97f	-0.008068878911534181
8	0x3f881653dc1686d9	0.011761336473515115
9	0xbf93ad7c701f9cee	-0.01921648439738715
10	0xbf94e4299a668904	-0.020401620911465038
11	0xbf91458524a023e6	-0.016866760597654372
12	0x3f8b980895cc0cfc	0.013473574706500895
13	0x3f86ee883333799f	0.01119715124371795
14	0x3f90dba5e775d279	0.016462890865528188
15	0xbf909c2763e9be20	-0.016220679734429422
16	0x3f7f7444034d02a2	0.007679238963476694
17	0x3f4a5133f95fb468	0.0008031371860376503
18	0xbf6670d3510b4de6	-0.0027393462445190917
19	0xbf838c90f247bea6	-0.009545452493483108
20	0xbf867475ae44a3fe	-0.010964316731206122
21	0x3f23a6ce32c357c4	0.0001499296862507699
22	0x3f4b54dfa94293d5	0.0008340923400466058
23	0x3f926a75bc70f369	0.017984237314738225
24	0x3f70e5ec0fad6274	0.004125520815101969
25	0xbf711e3b01d7e5fb	-0.004179220673444113
26	0xbf90e96ffbf47ef7	-0.016515493157497976
27	0xbf6a6808f9e653d4	-0.0032234359088740647
28	0x3f85bc1259f26203	0.010612624521216146
29	0x3fa2098491ebe322	0.03522886544482719
30	0x3f9cd664b58f1c31	0.028161595899089235
31	0x3f8b2fd7dfcd1a2f	0.013274847524042148
32	0x3fa42869da7c607b	0.03937083046020092
33	0x3fa6f1a7e116090e	0.04481243727333793
34	0x3fa46bb886866c48	0.0398843445029447
35	0x3fa744602818d101	0.045443539518972294
36	0x3fb152eee2d0b8f4	0.06767170941813899
37	0x3fb903779376a44c	0.09770915365392446
38	0x3fb6a4dbccb43969	0.08845304248482012
39	0x3fb88064f87c2cfa	0.0957091433194143
40	0x3fbdfb82ec765ef4	0.11711900971419792
41	0x3fbc7479d425ca49	0.11115228108773424
42	0x3fc2894a5d331f60	0.14481477309004287
43	0x3fc4384d21c9c768	0.15796817922415163
44	0x3fc33a3878e0c476	0.15021425153966889
45	0x3fc2600347b8a293	0.14355507852566926
46	0x3f9602992bfaf0a4	0.02149428683218048
47	0xbf8675349947ff7b	-0.010965739181301384
48	0x3f97e5b143ad2d7a	0.023337144618648754
49	0xbf8a16944e6ca2db	-0.012738379138299496
50	0xbfa8f3595ffbcdf5	-0.04873160645174927
51	0xbf95f6f2c8c2d4ab	-0.021449845794184224
52	0x3fa294087277e104	0.03628565213506543
53	0xbf899996df45e536	-0.012499979676010225
54	0x3f851a89ca74913d	0.010304523936220828
55	0xbfafecfad8f84d18	-0.06235488794859573
56	0xbf6b9e3a9a8a1bfc	-0.0033713478663375245
57	0xbfa0b8428f339852	-0.0326557922178813
58	0x3f9aafb5c6cab1e4	0.026060905702864803
59	0x3f97489cdf952137	0.022737933298487802
60	0xbfa63e1774ab5531	-0.043442471496442876
61	0xbfa66aea2d29207b	-0.04378444482114304
62	0xbf858f3ea77ea256	-0.010527123915225516
63	0x3f83792a5e6b7d60	0.009508448606935616
64	0x3fa27049dac578f5	0.03601294322537455
65	0xbf9a6e1a4ecef9de	-0.025810633716668245
66	0xbf89b06a89532d57	-0.012543518367599189
67	0x3fb100bd489694bb	0.0664175321786215
68	0xbfb2ab5da89dd388	-0.07292733542074192
69	0xbf8c38dbd2df995a	-0.013780324337812889
70	0x3f9af76f4769016f	0.026334513410121326
71	0x3f6ab18313a55e77	0.003258472451459767
72	0x3f92068114bbe16b	0.017602936640260063
73	0x3f8e5d1accdda45b	0.014826020600326275
74	0x3f567e5856082057	0.0013728964478350225
75	0xbf66de16326bea3a	-0.002791446069179385
76	0xbfa2d1bce5621f25	-0.0367564229973694
77	0xbf9bea8e6e71e54e	-0.027261949053785366
78	0x3fa0ddb5542421f2	0.03294150020707666
79	0xbf7e3aa0eee2a6d7	-0.007380131383038799
80	0x3fa1e003e755aae7	0.034912225712863613
81	0x3f90058824a823f2	0.015646102177956984
82	0xbfb5fe3d47a2833b	-0.08591063498398636
83	0xbfb221797e8ee79b	-0.0708232816677125
84	0xbf9d242701331e25	-0.028458222816679552
85	0xbf75b791a70bec3d	-0.005302018122843197
86	0xbfb2f7c98fd4a195	-0.07409343492020633
87	0xbf869d23ec10e27e	-0.011041908876096015
88	0xbfb654d5857d4394	-0.08723196515098969
89	0x3fb475b3b79d0146	0.07992099030253028
90	0x3fc312a024a206ec	0.14900590695110993
91	0x3fc7a47fbb94b6e5	0.18470760974144365
92	0xbfaa0e9121e4cc6c	-0.05089238680593486
93	0x3f87abbd29daaf2a	0.011558034744062324
94	0x3fb1e71bb4734c04	0.06993268161322425
95	0x3f8ebdd6ac35958e	0.01501052582779996
96	0xbfb1a6a229f64e55	-0.06894887470689899
97	0xbf950ee7c442e2cb	-0.020564671853864163
98	0x3fbd6b8428d9f1d4	0.1149218177542431
99	0x3fb0566d2d6c4764	0.06381876334151354
100	0xbf9b63b3e592ed84	-0.026747523200112436
101	0xbfa22ed08875619c	-0.03551341691735674
102	0xbf9d374fd6f8e3cc	-0.02853131055437412
103	0x3f9c8bc4aed9d3af	0.02787692372517697
104	0xbf5adaab720ba9ff	-0.00163904898379974
105	0x3fa24de43176405c	0.03575051406653593
106	0xbfb6451927efb1fa	-0.08699185585982852
107	0xbfb6ed310239ec19	-0.08955675415374777
108	0x3f90877d9b5494b3	0.016141855817427508
109	0x3fa7b2117fa66a5b	0.04628042872646595
110	0x3fa1ef3695fe820e	0.03502817707999749
111	0x3f82bf2e033d5c52	0.009153708909862033
112	0xbfa2147a61df55c1	-0.035312485167803505
113	0xbf86d17a3703b86e	-0.011141733936224276
114	0xbf9a8156a1e3ccdc	-0.02588401187035748
115	0x3f8b1a095fcd796c	0.013233254657902115
116	0xbf9cda8e159de9e5	-0.028177471227062063
117	0xbf7c2d61cb01e0d7	-0.006879217151542791
118	0xbf9d24d2fde29284	-0.028460785623468002
119	0x3fa3e69cae89bb88	0.03886880522337949
120	0xbfae993f79d6d36d	-0.05976293909353712
121	0xbfa2922c43887814	-0.03627146076563306
122	0x3fa4bf38361b3fbd	0.04052138958434124
123	0x3fa0f83072373127	0.033143533651669714
124	0x3fb57b716edfc1db	0.08391484219442395
125	0x3fa27c75008eef46	0.03610578185859352
126	0x3f96df38bfdc0b8f	0.02233589812295694
127	0xbfaa23ef5233441c	-0.0510554111330139
128	0xbfa167675624bc5b	-0.03399203230434785
129	0xbf986b1ed40b81fc	-0.023846131984898364
130	0xbf95a4ceb21aa8e8	-0.02113650285779381
131	0xbfa4042b27342762	-0.03909430364190204
132	0xbfb59d17e61c1106	-0.0844283043662167
133	0xbfa9ad0bdeb710bd	-0.05014836400690246
134	0xbfc1c591fed0cd26	-0.1388418668953843
135	0xbfb2deb59c04bc77	-0.0737107759384673
136	0x3fbfee323f9c40f1	0.12472833683955621
137	0x3fc041242d78d0d1	0.12698795528706922
138	0xb415fb08280a3a48	-8.754276309943207e-58
139	0xb8c216e90c009e3e	-2.7218044715600927e-35
140	0xb720580af98fbcf6	-3.66443303069323e-43
141	0x3462ba89a0976bfe	2.3869184621327987e-56
142	0x37663afc8c537681	7.974770665651651e-42
143	0x37f7e10e52f565da	4.385902550915896e-39
144	0x345978011d707b76	1.6229634686297885e-56
145	0xb68fcf2206d0290f	-6.964697052385468e-46
146	0xb897a433c2212798	-4.446455921074383e-36
147	0x3be4c4548bb6cbf5	3.5180522547276926e-20
148	0x374296c92090a6a2	1.6671197569536083e-42
149	0x37c14fe2f5195338	3.974653324773044e-40
150	0x3b47072c25026205	3.809665898274236e-23
151	0x38a90d219286342f	9.423249285676928e-36
152	0x3b122eacbbbf41c4	3.760016311032589e-24
153	0x3b703ce3793e743a	2.1490610204019395e-22
154	0x3aec498ad9db32d8	7.312089193454366e-25
155	0x3abb3b7932b9581c	8.799236545441369e-26
156	0x3a7cfe1724f81b37	5.854996957772443e-27
157	0x3a644c4494ed5758	2.049566298675627e-27
158	0x3be8282e73099a10	4.09234799521737e-20
159	0x3c7f183ff9298cc5	2.697037572002359e-17
160	0x3ba99761a7fffacb	2.709587868597985e-21
161	0x3a74f9aeb6fc1be4	4.235932581627547e-27
162	0x3b7bc4010f1c4d2a	3.6747520099519835e-22
163	0x3aa1d98c3ab873f3	2.8837900728679084e-26
164	0xba6ac995c1cf41ec	-2.7048403508487082e-27
165	0x3ac893333ad8a258	1.5881221820686532e-25
166	0x35a1d123506bb53d	2.3810251053890263e-50
167	0x3b673edddb891d06	1.538262970353912e-22
168	0xb8bb9942b5362b9a	-2.076293474005126e-35
169	0x3ae967cf2f5620a6	6.567169157685042e-25
170	0xb760a4c2445c9be8	-5.970594841235284e-42
171	0x3b2667d4351189b1	9.266731429209209e-24
172	0x3b517be34c42158a	5.784949500385385e-23
173	0x3a945eee0079215b	1.645541663856279e-26
174	0xb3612461cc4e9aa6	-3.3336143040468015e-61
175	0x3bc549813c8a5dc1	9.015449486820886e-21
176	0x3a14b21a33d2beb0	6.530415341165552e-29
177	0x3a797ae6c032466d	5.1456618795508306e-27
178	0x35c0803822779a7a	8.820581412805384e-50
179	0x35c1a173cb73fd87	9.424528195411376e-50
180	0x3b69439f0df81b12	1.671840923251448e-22
181	0x3b9f238815869d75	1.6484740935137254e-21
182	0x38c481fe55da29ee	3.085668849082876e-35
183	0xbaa3e3a9302144bd	-3.2132897754243156e-26
184	0x3e790566b4d498f0	9.321085521884124e-08
185	0x3e87b3a918dec978	1.7659216350119319e-07
186	0x3f4ef207caca7572	0.0009443796203247158
187	0x3f3d4a9b9916bf6a	0.00044695185450915073
188	0xbe86f8daa8fa240e	-1.7115538185712993e-07
189	0x3f007ad2c5fb80ce	3.1432683270217484e-05
190	0xbe64be84b0749d5a	-3.863910618745758e-08
191	0x3f0b6c49be153cc7	5.230522197995909e-05
192	0x3ef76da4b6d7cc41	2.2342962827392536e-05
193	0xbebcccda275c0da5	-1.716625914694643e-06
194	0xbe6ac2c9d622879c	-4.9846046194499586e-08
195	0x3f095a991e71288b	4.835872442095307e-05
196	0x3ee118b7721e9a36	8.152269916750486e-06
197	0xbdc3eb62a0867a6c	-3.623331154700634e-11
198	0x3e35b97ccb59d28b	5.058143395115634e-09
199	0x3ea7351c3481b21a	6.91636253170145e-07
200	0xbe6dc8868f73bd30	-5.547572528598116e-08
201	0x3f06700bbca2a475	4.2796476536218724e-05
202	0xbe84c827565341dd	-1.5483685015259485e-07
203	0xbd71e74275efa337	-1.0176880698291217e-12
204	0x3eff3bc093841b73	2.9786498289243118e-05
205	0xbda679f80802f39e	-1.022110195991076e-11
206	0x3eaa5ee49d709ced	7.859073843972455e-07
207	0x3e95700a6ac6bb70	3.194460116662668e-07
208	0x3ee52ebb6c88b7e8	1.010062568792751e-05
209	0xbe5d07572d068a70	-2.703505935927885e-08
210	0x3ec2f4ab6f4e80e7	2.2597004040865044e-06
211	0x3ed8af98cc157f94	5.885583221981647e-06
212	0x3f08a797ff8e93e3	4.7025037879046075e-05
213	0x3eb44d1b032ca556	1.210045422703835e-06
214	0x3ef234469514834d	1.7360879899122693e-05
215	0x3eab4c30cb229ed4	8.135324576401289e-07
216	0x3e321e8a18217ce5	4.218727036192804e-09
217	0xbd6171c9efb23a39	-4.958021564109592e-13
218	0xbdd223e8b87488cb	-6.599391702711693e-11
219	0x3ddcd39bad9c7101	1.0487053881782264e-10
220	0x3ecbfb18e651e4dd	3.3355770932523287e-06
221	0x3d39bb9b8206a9d2	9.142141839099318e-14
222	0x3e4fd19ee98a7276	1.4816797831463086e-08
223	0x3e609c1867cb387a	3.09380654199643e-08
224	0x3dd91437835cd262	9.123676886963463e-11
225	0x3e46d100e832abc5	1.0624723550898649e-08
226	0x3d2a65d269cca230	4.6891809372048574e-14
227	0xbd179f5dd4721a2a	-2.0981017350271353e-14
228	0x3ceda94c448d9da3	3.2930680409278918e-15
229	0xbb3232a4b758d52e	-1.5052888750064227e-23
230	0x3f8bfe9e56ca6f5f	0.013669240020412308
231	0x3f7401e2b25a89c1	0.0048846106853112645
232	0xbfa595b9efcadcbf	-0.04215794613031098
233	0x3f855dacf9e95416	0.010432578446094392
234	0xbf8de1454ff930dd	-0.014589826109976329
235	0x3fa36306da5ab9c6	0.037864889292325496
236	0x3f44a4491527bb08	0.0006299359177413819
237	0x3f8661b5ddca3bfc	0.010928555327408766
238	0xbf0cd2fc6a8d6633	-5.4977729922977765e-05
239	0xbfb9d4d3dfbd5812	-0.10090374195473853
240	0xbf8ebf07d5c1b705	-0.01501279946407009
241	0xbf79495530b3bb8c	-0.006173451208481572
242	0x3fa2dc8f0c3fe966	0.036838979955023984
243	0x3f8754eaa75bcde5	0.011392434341792554
244	0x3f80467a050e0bf0	0.007946923522245769
245	0x3f7a3b91caac3373	0.006404466151036614
246	0xbfa4e9dacaf58e6a	-0.040846669459622856
247	0x3fa0a15791e9ac62	0.03248094230806299
248	0x3fadd5ebe748fc6c	0.0582727165060469
249	0xbf9f600993ad9740	-0.030639791143946882
250	0xbfa09ced1336acf4	-0.03244725093403558
251	0xbf89e7a3d7b26ffc	-0.012648849506426522
252	0x3fa04fe2271c4401	0.031859462045879645
253	0xbf95c2b4fa5fbfb2	-0.02125056055223213
254	0xbf92aac957efbf13	-0.01822962378713473
255	0xbfa6da56a395d687	-0.04463454005137373

fc.bias f8 [1]
0	0x3f949d1e5fdb1790	0.02013061008508249

exp_avg f8 [8, 1, 3]
0	0xbf88dcd1ff545916	-0.01213993130162953
1	0xbf8bc930425d2ce5	-0.013567330384509588
2	0xbf8d7f0fc6adfc5b	-0.014402507067414463
3	0xbf9e920d04b0f7fd	-0.02985401478894544
4	0xbf9bf0bac358a26a	-0.02728549783037907
5	0xbfa1e75e223ed530	-0.03496832054171717
6	0xbf965cda666280b3	-0.0218385815611561
7	0xbf9c1b5482411aa7	-0.027448006105511038
8	0xbf9bf27f69546bd6	-0.02729224281675243
9	0x3f991d0c179b49db	0.02452486890872217
10	0x3f93e3442b9b9174	0.019421639596559584
11	0x3f96e716226413d5	0.022365899895721093
12	0xbf99f52f8edfe573	-0.025349372001050207
13	0xbf99198bc23a456a	-0.024511512498582112
14	0xbfa0186be94b3b12	-0.03143632147622645
15	0x3f60277149fad8df	0.0019719326663461957
16	0x3f60af8ddbd0d628	0.0020368357350217976
17	0x3f76d2b48ba92993	0.0055720379410310215
18	0x3f50d7274772d784	0.0010278590760157422
19	0x3f53be03b7c89c69	0.0012049709613479959
20	0x3f55de113d1d5027	0.0013346832606275867
21	0xbf90e16c27c5d8cd	-0.016484918525258508
22	0xbf9283aa2dea6d2e	-0.01808038621184698
23	0xbf9830f7a399eb19	-0.02362429557841059

exp_avg_sq f8 [8, 1, 3]
0	0x3f4b05bc5f3786e3	0.0008246583733433035
1	0x3f4e3006e6eaa90e	0.0009212526036510864
2	0x3f4d67d7c51a74c7	0.0008973887981543965
3	0x3f6dc09a0bf631a0	0.0036318787312607653
4	0x3f65819e9c445978	0.0026252839908337787
5	0x3f714d603c196e3f	0.004224182049792412
6	0x3f5e7a3397a52386	0.0018601898032832589
7	0x3f64fa613092a705	0.0025607965695443346
8	0x3f63e2825cb72fc6	0.0024273439537178835
9	0x3f63cabea70c6284	0.0024160121614723046
10	0x3f6401c727f4913b	0.002442254044256268
11	0x3f589ab99bec902e	0.0015017330731064249
12	0x3f69f5e852c7b121	0.003169015652238497
13	0x3f68fd644d624197	0.0030505141285816595
14	0x3f719dc9a45ba9ce	0.004300868667750325
15	0x3f541fda8b6d59e4	0.001228297636506442
16	0x3f4c875db60eda03	0.0008706290792506736
17	0x3f35aecd9650f63b	0.0003308536454972065
18	0x3f0c8e619f8161cd	5.446658536873185e-05
19	0x3f1d3aab037627bf	0.00011150044234944834
20	0x3efb3ac002ec437a	2.596806751415128e-05
21	0x3f59736ed66a43fc	0.0015534002683674766
22	0x3f5a44c24970e10b	0.0016033074696349427
23	0x3f5d4ce8fd9b2b9d	0.0017883563327127712

exp_avg f8 [8]
0	0xbfb30c70600cf816	-0.07440855355250195
1	0xbfc2059dc1492a6a	-0.14079639375480052
2	0xbfc369d14a19ccb7	-0.1516667949505057
3	0x3fbd2ca97bda89e2	0.11396273874064591
4	0xbfc2ea1270d36e4f	-0.14776831158711665
5	0x3fb8b5ba3fb50c66	0.09652294211723386
6	0x3fb72011854637ed	0.0903330755593001
7	0xbfc10011f2d797d9	-0.13281463964011556

exp_avg_sq f8 [8]
0	0x3fb1c8764f092b58	0.06946505956254378
1	0x3fd379c2677d8f36	0.3043066034936034
2	0x3fcd8508119bdac8	0.23062229976468118
3	0x3fcb2c6206b58ea6	0.21229195907209436
4	0x3fd72a6035de2581	0.36196141491435446
5	0x3fbf3c329e7f0318	0.12201229447874729
6	0x3fc7faabb7c4b36d	0.18733736489357558
7	0x3fc1c7fb52eafd94	0.1389154581902231

exp_avg f8 [32, 8, 7]
0	0xbf85aa2f0af043d0	-0.01057850601321944
1	0xbf8581a6f97f5ee4	-0.010501198281346054
2	0xbf820aec4427edef	-0.00880989630694892
3	0xbf85be6a7ff5b61d	-0.010617095975898267
4	0xbf83c905cf2b0039	-0.009660764107479835
5	0xbf81b1a6b8ec8b83	-0.008639624136383755
6	0xbf7a41b7b27bce48	-0.00641032940596948
7	0xbf92ad5d6a19f750	-0.01823945961086021
8	0xbf9308bbf8335336	-0.01858800604243812
9	0xbf914ac9f1d79562	-0.016886859308120512
10	0xbf90db8c468cdd2f	-0.016462508970304043
11	0xbf91e4270117e361	-0.01747189468548827
12	0xbf8c68713d466b3d	-0.013871082956759312
13	0xbf85fae6cb6cef54	-0.010732462962202462
14	0xbf893e9847faa820	-0.012326421448353442
15	0xbf8ab348983f3c8b	-0.013037268778047803
16	0xbf8fe2a7dbae3faa	-0.015569030181523964
17	0xbf8dd99e2e76ba2e	-0.014575229447328555
18	0xbf91055dc10f5458	-0.016622033031883227
19	0xbf85dc9ef3640323	-0.010674707224553942
20	0xbf8844c2664d0fe8	-0.01184989809701871
21	0xbf683591a811025d	-0.0029552311757757147
22	0xbf5cea1e6a58e48a	-0.0017648026490759993
23	0xbf6b6bed6a58c1b5	-0.0033473622341022254
24	0xbf49f9c68d7ba8f3	-0.0007927150245141942
25	0xbf7352a76ea525dd	-0.004717496902523402
26	0xbf67eb6cb36b95c6	-0.0029198763908080154
27	0xbf213009768626ea	-0.00013113132014224506
28	0xbf9311405b9edbb0	-0.018620496360849337
29	0xbf9389e2618e7386	-0.01908067436635321
30	0xbf8f763f1dcc692b	-0.015362256142499383
31	0xbf8ccc26d197c52b	-0.014061263343111271
32	0xbf8aff20eac21187	-0.013181931652305646
33	0xbf8f773358fbc01f	-0.015364075806672926
34	0xbf89dcdbacc51157	-0.012628284654632322
35	0xbf535dc670872e59	-0.0011820257078508838
36	0xbf31ab4ba11ac693	-0.00026960941714113915
37	0xbf59c4af7980390d	-0.001572772371222056
38	0xbf542c3142b1b512	-0.0012312394199185989
39	0xbf71c9ee225eb4ef	-0.004342966281837265
40	0xbf48e96b3d52d5bf	-0.0007602475767700053
41	0xbf09a269a37531b8	-4.889378436221135e-05
42	0xbf21f9a8c6ca575c	-0.0001371401334792588
43	0x3f1a7e77da5c4d9d	0.00010106665157776644
44	0x3f3fd3f3c1a64307	0.0004856557949546734
45	0xbf28d808434cf53f	-0.00018954373231309417
46	0xbef283d0de1d448b	-1.7657190148516243e-05
47	0x3f32bfc9968b1e6a	0.0002860896261549286
48	0x3f471d1ac1ae54e7	0.0007053738257690984
49	0xbf88972a9627404f	-0.012007076937976672
50	0xbf8acc44dc1ff9bc	-0.013084924667052238
51	0xbf88489de01beb16	-0.011857255365148183
52	0xbf879f24075ff99c	-0.011534005618156588
53	0xbf884a748b580f2e	-0.011860762121620985
54	0xbf82f85602a27568	-0.009262725787545903
55	0xbf82a2f1203330c6	-0.009099849505581747
56	0xbf62b2bf9abf408f	-0.002282499530316846
57	0xbf6dceb54911fe73	-0.003638605187518179
58	0xbf5ee0b7197be597	-0.0018846309739600547
59	0xbf62a7a1e134ee0e	-0.0022771989548837695
60	0xbf4fea542fa6b8c6	-0.0009739790978551481
61	0xbf1e97a6d14131ab	-0.00011670070335973472
62	0x3f42639f4bd2ec96	0.0005611923039831209
63	0xbf6d2f2dfd98d0b8	-0.003562536073127811
64	0xbf76c936e3f92878	-0.005562986770721527
65	0xbf6e7dd94665e52e	-0.0037221187259858434
66	0xbf6ffc817d61dc90	-0.0039045838448675332
67	0xbf6bcea9b0d17560	-0.0033944429656417724
68	0xbf121cfbd85d7c20	-6.909644261331215e-05
69	0x3f13f65f17fef646	7.615046888439459e-05
70	0xbf54f3f83976f560	-0.0012788700167754782
71	0xbf726a9de867ea49	-0.004496208980067148
72	0xbf77372831bcbf17	-0.005667836197787122
73	0xbf687c6f07059d3b	-0.00298902211232002
74	0xbf660a474d7e149f	-0.0026904480582197877
75	0x3f43635af8a65c3d	0.0005916780658478182
76	0x3f362de186b529f3	0.0003384280778006281
77	0xbf549a993e845fd5	-0.0012575623059713954
78	0xbf5f51adc3719800	-0.0019115635784827667
79	0xbf56f599d13cd7e1	-0.0014013292429360046
80	0xbf5e319523006a8a	-0.0018428760922747666
81	0xbf728f258920ff4e	-0.0045310465084752016
82	0xbf5acbe211dfa4f2	-0.001635523577983297
83	0xbf009dced455338c	-3.169333880723773e-05
84	0xbf6af04c37bd73f1	-0.0032884110095623355
85	0xbf74cfaaf312bab8	-0.005080859920026874
86	0xbf65495c8bcc431a	-0.0025984580555661442
87	0xbf6d3d98ea051ab0	-0.003569410953932227
88	0xbf68e73d5fe5ff84	-0.0030399512026519377
89	0x3f22c88680ece912	0.00014330522432166225
90	0x3f43c5ae902d5d26	0.0006033995017372992
91	0xbf3a4a9b8e091009	-0.00040117547726858986
92	0xbf48a6be17ce1393	-0.0007522991360110358
93	0xbf50f20490a36508	-0.0010342640476238025
94	0xbf638007ad8c7ab4	-0.002380385394999374
95	0xbf68179ae8c59216	-0.0029409432956291155
96	0xbf720e3d4a81d421	-0.004408111017359524
97	0xbf223c49aecf5a54	-0.00013912581871862678
98	0xbf4c498f4b7b3293	-0.0008632611925008686
99	0xbf468e1395c84ae2	-0.0006883235578832548
100	0xbf0014e4a13aaa7d	-3.067324373991641e-05
101	0x3f1d4ac575a928ea	0.00011174040029363381
102	0x3f1c1580d5a89c2d	0.00010713194698351641
103	0xbf48fa8644e69327	-0.0007622867213298066
104	0xbf5826586079cd0e	-0.0014739859633692873
105	0xbf6802152d273b39	-0.0029306806183976544
106	0xbf6c194decc09207	-0.0034300348252307464
107	0xbf70b7c2ed289023	-0.004081498557329896
108	0xbf52f2f28eb7d336	-0.0011565560079109367
109	0xbf65895ad204dedc	-0.002628972419326787
110	0x3f470b6b17d35908	0.0007032654681562731
111	0x3f3fddcd209af812	0.0004862428473692014
112	0xbf68a54c06dd22be	-0.003008507242075658
113	0xbf590605ca33db96	-0.0015273148099461445
114	0xbf6725a2d2c2af10	-0.0028255634443520375
115	0xbf6965817e254511	-0.003100159564532697
116	0xbf6010725bec0bdd	-0.0019609674048992457
117	0x3f0ff114e73faf06	6.092400590759603e-05
118	0x3f12ce27c83d8aae	7.173650561535336e-05
119	0xbf71d6878bf879b7	-0.004354981879741641
120	0xbf7509d0f31c837a	-0.005136314591965946
121	0xbf7370251bef952c	-0.004745621640698954
122	0xbf7795b691fd15a2	-0.005758011975392748
123	0xbf738953fd4a073a	-0.004769638141284999
124	0x3f1f81bcbcc4c5e3	0.00012018885098965359
125	0x3f30c24d97b26392	0.00025572199201345195
126	0xbf6d361080e7787f	-0.0035658190092667237
127	0xbf5d322aaa6b7858	-0.001781980195736851
128	0xbf6fc0b9a41547e2	-0.003876078205089493
129	0xbf722b616b4921bb	-0.004435902159976408
130	0xbf6e2ca6b81037e6	-0.003683400748292864
131	0xbf1066970d26b2e0	-6.256386703879955e-05
132	0x3f18dbe6e8a7e71d	9.482952933828307e-05
133	0xbf37af37fa78fb34	-0.00036139599476208155
134	0xbf56adc666bde9ac	-0.0013842046273270054
135	0xbf529deea08a4132	-0.00113628676823303
136	0xbf4a351f15cd08bb	-0.0007997895987517303
137	0xbf77280c1c71f9b1	-0.005653426465072207
138	0xbf5655ae5720c411	-0.0013632013838214033
139	0xbf45f194f6a6478a	-0.0006696679459301396
140	0xbf75d226924ee50e	-0.005327368421540924
141	0xbf702e9d15890888	-0.0039507042025112085
142	0xbf6dce53791aa46a	-0.0036384229977853193
143	0xbf72fed67b11b028	-0.004637563529382084
144	0xbf70ac22a7b596be	-0.004070411082783996
145	0x3f00614c2d688e95	3.124250149635664e-05
146	0x3ee0814d979c92e9	7.870240313298401e-06
147	0xbf53fd5bcfb088a6	-0.0012200733751872943
148	0xbf3a62d933bf5979	-0.00040262034212670096
149	0xbf4775886c32f35d	-0.0007159153105003969
150	0x3f46ec76326f1661	0.0006995751508546804
151	0xbf70cad57abc7c8e	-0.004099687484795512
152	0xbf5c0affcd0323c1	-0.0017116067938778153
153	0xbf61d01719a0dd97	-0.0021744204687156976
154	0x3f40a29a6ac8108c	0.0005076650609798935
155	0xbf46dc1f18a8fa50	-0.0006976272428074835
156	0x3f3cac068978d0eb	0.0004374996146652282
157	0xbf1f37f07651114c	-0.00011908917584075202
158	0x3f35dbeef03eeea4	0.00033354361971380865
159	0xbf4b00d19fa07a01	-0.0008240722229436171
160	0xbf50cd9c9fe835fd	-0.001025584176776006
161	0xbf6cd88c21831ad9	-0.0035212265903255932
162	0xbf66f314982a834b	-0.0028014566645001896
163	0xbf6be8f761cf3e25	-0.003406985443213067
164	0xbf68e3edec6cde7a	-0.0030383727020327185
165	0xbf6f3eed87de893e	-0.003814186026788096
166	0xbed1e4328965c177	-4.2656412432149194e-06
167	0xbeda16a277006b95	-6.219963196963954e-06
168	0xa8946c959e509fc7	-3.317460804459426e-113
169	0xa7cdf1ba85a06e6c	-5.937247720705207e-117
170	0x28669e807ec35f38	4.592486599373939e-114
171	0xa841e8dce7300d30	-9.090715139826254e-115
172	0x2781a616997cf136	2.187089017741161e-118
173	0xa7c27938379e2a96	-3.662867516264187e-117
174	0xa7d12a311c6b05e5	-6.806764716558963e-117
175	0xaf1971857f1fc52a	-8.382181720564942e-82
176	0x2e9309146fbcec63	2.4496542053642125e-84
177	0x2e86bed01394ff94	1.4635382917238353e-84
178	0xaecc01a16b9ab659	-2.8832879798338385e-83
179	0xaead23740ad1b093	-7.4996026165364e-84
180	0xadcb98df3fb79184	-4.335264661542711e-88
181	0xadcc166e2397cbb0	-4.4123117572179894e-88
182	0x2efdcb1ae8f73eaf	2.4538101770065336e-82
183	0x2e392a211f5fa704	5.060002442620366e-86
184	0xae6324d8d2502e7a	-3.0795156200274254e-85
185	0xadb36aca452d8917	-1.5251295803741728e-88
186	0xadf1127d9f0ada7b	-2.145514737500508e-87
187	0x2e9986377a700f71	3.2846930495207586e-84
188	0x2e3a795badb8c056	5.323309513052752e-86
189	0xa1a59a5ae097d4e8	-1.3515906048433532e-146
190	0x23528735894fc94b	1.5558735968670908e-138
191	0xa111b2180c45f016	-2.1623669842262048e-149
192	0xa03446f650efc895	-1.5123423673922455e-153
193	0x9f92cfcf2fc37102	-1.370160935369877e-156
194	0x20a1e610c0e13a49	1.7087302663694008e-151
195	0x21e6bf0b5873b30e	2.276995818830079e-145
196	0xafffa3ba0123f72d	-1.707778417827555e-77
197	0x30aabf9dca3324d5	2.9568584571177376e-74
198	0xb04909f630270b21	-4.324805424471705e-76
199	0x30ab7cc94d12478a	3.0385436425818285e-74
200	0x30363a95ca65cb88	1.9197207917935982e-76
201	0xb06f0fb5b66cb283	-2.146009570689298e-75
202	0x2faee90b126c1e41	5.213804267080607e-79
203	0xaf6f2a6ed0957708	-3.2855554138599444e-80
204	0x2e8a5220546a85b0	1.6935982965351e-84
205	0xad987e93ce30f424	-4.809820369696776e-89
206	0xabcab7f2b68c830f	-9.772468041262932e-98
207	0xaf1900cabcd3954a	-8.237111287181641e-82
208	0xac99e128512dd8f1	-7.754210790233403e-94
209	0xae1a6ce36f06c558	-1.328378780045336e-86
210	0x35c961669f914511	1.3567206061579922e-49
211	0x35c835d768a3c106	1.2941696781807616e-49
212	0x35caa0970191eb66	1.4233703782482303e-49
213	0x367193c4e72ce524	1.9242918710794364e-46
214	0xb4fcb73590ade76c	-1.8737843160805838e-53
215	0x35d8f7ac4465755e	2.6692871586572626e-49
216	0x34f2315d85c57c4e	1.1871377635788725e-53
217	0xab69148c54658ad5	-1.4333214053106087e-99
218	0x2af523882272669c	9.438038005148854e-102
219	0x2b01c26b06fa40ac	1.585845500327482e-101
220	0x2af1d211fc907f9d	7.956525856647605e-102
221	0xaa9033fb432a39f5	-1.1303640714797016e-103
222	0x2a70fd878fc18890	2.963219534835195e-104
223	0x2a6308a62105e4b2	1.659803480552194e-104
224	0xbc9ffb4560423ffe	-1.1095821256217134e-16
225	0xbca91ec998472a8c	-1.7430684391054635e-16
226	0xbc8a5ece40c59a49	-4.5745238623586154e-17
227	0xbc15101b51235fe0	-2.8545575223673515e-19
228	0xbc6684b9df5813a4	-9.765825816562523e-18
229	0xbc8932caac4611cc	-4.3712264786485464e-17
230	0xbb9810485661c7c2	-1.2739165770418694e-21
231	0xbd624f7225f5b6f2	-5.204110355673173e-13
232	0xbccda8d1f4baa182	-8.232152091641958e-16
233	0xbd3e02143287c5fd	-1.066102608420241e-13
234	0xbd36d7068dce4fc5	-8.114378060151122e-14
235	0xbd32a4aeae9f5f02	-6.623427295555312e-14
236	0xbd50185d3932cd21	-2.287261576821558e-13
237	0xbd171bf072118692	-2.0525037366057056e-14
238	0xbd1fe2dd2088b5fe	-2.8320622852683938e-14
239	0xbce03dec6ec90884	-1.803211905075528e-15
240	0xbd1942a6a70e745e	-2.2435702554735497e-14
241	0xbcc1e11fd25710b6	-4.962528113358013e-16
242	0xbcd09cf695d21b2b	-9.222143933019006e-16
243	0xbce79b5e212fe70c	-2.620892953139978e-15
244	0xbcb6dbf2b01c9004	-3.1723473673002163e-16
245	0x345dc8a864488d19	1.8979344741867163e-56
246	0xb5f2781b908afc22	-7.898199585865319e-49
247	0xb42241481db4a9d9	-1.4540951718609232e-57
248	0xb6e08a281a331504	-2.3177020355617037e-44
249	0x333b4c9c897b90c6	6.636083368894869e-62
250	0xb391252e6af024b4	-2.667377188180296e-60
251	0xb423666b0808abec	-1.5453047829318616e-57
252	0xbd9d82af83f73356	-6.7099087240990825e-12
253	0xbd76d8a5b93433da	-1.298660591783627e-12
254	0xbd92e88248f86351	-4.299235568383864e-12
255	0xbd48cc96fda89827	-1.762087644691834e-13
