dl_experiments/best_checkpoints/IoT_15min_CNN_cuda:0_checkpoint.pt (torch, 81243 bytes, 12 tensors)

block_1.0.weight f8 [16, 1, 9]
0	0xbfd4da642b9f9e32	-0.3258295465479676
1	0xbfd1cf798147a723	-0.27828824639310507
2	0xbfd159503b21b467	-0.271076257463227
3	0xbfc83edbfa7cfe27	-0.189418313320844
4	0xbfc91b8af0871972	-0.19615303749578633
5	0xbf7d6d1d2b89acaa	-0.007184137292465179
6	0x3fa1e67cacf96345	0.03496160136700736
7	0x3fc923e9ed815014	0.19640850159578405
8	0x3fd4b08a238a8034	0.3232751223640691
9	0xbf96cacacbdfc07b	-0.02225796574924786
10	0xbfae047165a75a5d	-0.05862764707460564
11	0xbfae8f78f7dd365c	-0.05968835855183549
12	0xbfb7a5211508f39b	-0.09236342204617502
13	0xbfc2f518dcaf9951	-0.14810477042846995
14	0xbfbeb9926e8afee0	-0.12001910399248628
15	0xbfa953b5407639d9	-0.049466766470789465
16	0x3f994647a3730348	0.02468215880503813
17	0x3fb845ed178f2c63	0.09481698823144451
18	0xbe5896195f4f9939	-2.2897799174022667e-08
19	0xbe781a79091f0fce	-8.979219703804884e-08
20	0xbeace236eb472283	-8.607998638827581e-07
21	0xbededed4ff76b96d	-7.360085866477091e-06
22	0xbf00ad56a1c45a84	-3.180904988846648e-05
23	0xbf1471824f6185fd	-7.798536157246207e-05
24	0xbf1c9700384fc4aa	-0.00010906161158154523
25	0xbeeff86f85cd99c6	-1.5244699335514942e-05
26	0x3f45f9e02cb217ff	0.0006706566431524673
27	0xb97242918dc56623	-5.626807240688363e-32
28	0x389c6b6c7d67b78b	5.345137227034912e-36
29	0x37a6151bc0099937	1.2674707389110238e-40
30	0x36b37e47dd5e9a96	3.414488628760494e-45
31	0x353d84943c2532b3	3.081811186900302e-52
32	0x3491ac9ce9ff18ed	1.802031071121438e-55
33	0x3364cb27bb8dbc8f	4.043710470071202e-61
34	0x32699693dbf48ade	7.592950822421119e-66
35	0x317d0db728bb92f7	2.6309986067663565e-70
36	0xbf26df63628eff85	-0.000174504167516073
37	0xbf270b0886a73bf9	-0.00017580489232080202
38	0xbf26d27a80d05a5b	-0.000174119428635949
39	0xbf264d70217f0b16	-0.00017015451225973398
40	0xbf2506c25d0d9a8e	-0.0001604187259786793
41	0xbf2306710ba69bc2	-0.0001451504702576195
42	0xbf20e9fe2b1b13ae	-0.00012904384271031133
43	0xbf1dbef44d0f436b	-0.00011347166152054853
44	0xbf19ed655c123f06	-9.890490675190316e-05
45	0xbfd75e014a11c3bf	-0.365112612088577
46	0xbfc5bd051ac5f189	-0.16983093077932335
47	0x3f7e1c9beb6fbbe5	0.007351502476907056
48	0x3fbcbe4a024148b6	0.11227858119062514
49	0x3fd232be48c75c6c	0.28434712512302585
50	0x3fe0b0c364fcb4a0	0.5215775463490395
51	0x3fcde4ff929cce56	0.23355097445311185
52	0xbfcab78085a6a35a	-0.20872503782200164
53	0xbfe2877e22aa0f4f	-0.5790396382367166
54	0xbfc41f9ab94fb660	-0.1572144894448
55	0xbfacd6b7b2de58e3	-0.05632566507772354
56	0xbf7c5e92247da009	-0.0069261273091356735
57	0x3f8b0280b636d7de	0.013188367424714128
58	0x3fb3628f84eb06e1	0.07572266573972854
59	0x3fd1c955a2535235	0.2779134831628512
60	0x3fb787ca22dd986b	0.09191573477946384
61	0xbfba3ab4d89f05e8	-0.10245828903773424
62	0xbfc982604ca78603	-0.19929126494302815
63	0xbee68249b0962611	-1.0733097513665324e-05
64	0xbeec644b052547ba	-1.3538250787679138e-05
65	0xbef1e5addffc978c	-1.7068085070757628e-05
66	0xbef62a2054ed808e	-2.1137767642343467e-05
67	0xbef8f2783a7f35ba	-2.3791453400969746e-05
68	0xbef8f3d8153949bf	-2.3796573556397875e-05
69	0xbef807b873fbf9e4	-2.2916944771184363e-05
70	0xbef6ae83c0222e68	-2.1630952695290978e-05
71	0xbef4f1b8b5af0b90	-1.997396916998299e-05
72	0x2e56681864776d85	1.8021777836855965e-85
73	0xac4fc75dd9a91ecd	-2.9755588640327126e-95
74	0x29f7324d1949504c	1.5803154929588052e-106
75	0x2769d2ed93a3c7c5	8.000445766977643e-119
76	0xa538c5b85c8e136e	-2.2336184180558783e-129
77	0xa3146fa7b301f51d	-1.0725589182327406e-139
78	0xa1727b6c11539067	-1.4454193544659732e-147
79	0xa14067d0dde9a207	-1.6037712838131453e-148
80	0x21b3c928d1606f36	2.475798363991914e-146
81	0xbfba01c39cc326b9	-0.10158941819386315
82	0xbfbb585d30f1ad42	-0.10681707806513877
83	0xbfbd9605caeb8a21	-0.11557041362861088
84	0xbfc194cc242b2577	-0.13735343709985745
85	0xbfc684640bcf5e1a	-0.17591524674092868
86	0xbfc69197f1d78885	-0.17631816204727016
87	0xbfc380d0020d0caf	-0.15236854648728612
88	0xbfc1bd3ff7e5d7c4	-0.13858794788728634
89	0xbfc235aec4ede761	-0.14226326575936368
90	0x3fc94179933f0ed3	0.19731063546907154
91	0x3fbf2a6d703d360a	0.12174114217960877
92	0x3f97afd6d96bb44c	0.023131711025531396
93	0xbfaff7850925fb07	-0.062435300223105776
94	0xbfc016c2b4b80c80	-0.12569459747473744
95	0xbfc1dd74cbe3d4f1	-0.13957080798687785
96	0xbfc107715d09442a	-0.1330396370199492
97	0xbfa5f484c23361d5	-0.04288115378011851
98	0x3fa3149b65565b00	0.03726659404781252
99	0xbfd2803ce638c188	-0.2890770195254153
100	0xbfbebdb390ed8504	-0.12008211410786279
101	0xbfb289b61ef23b31	-0.07241380935213894
102	0x3f814d1ec56632a8	0.008447876357217624
103	0x3fd9c7ca600848a6	0.4028192460838319
104	0x3fdbb7116dede0d5	0.4330485890891514
105	0xbf9e8b16ac804759	-0.029827455786353017
106	0xbfd67a733c2efa94	-0.3512237632493591
107	0xbfc7b553dea2b9ba	-0.18522117968445945
108	0xbdb0b3e2c15fccc7	-1.5190997839754092e-11
109	0xbdb7b4f300fa5a95	-2.1561238958413225e-11
110	0xbdbf0090c28b6d85	-2.819634470269116e-11
111	0xbdc2cad662356eae	-3.418305593105333e-11
112	0xbdc3456eed4004c6	-3.50541519910679e-11
113	0xbdc09e9f1150086b	-3.0230902992796484e-11
114	0xbdba8639e50d02e5	-2.4123729329830573e-11
115	0xbdb39915e434b813	-1.7824268331154535e-11
116	0xbdaa7c05c0ea1389	-1.2043739294557439e-11
117	0xbfce14b9d16916f2	-0.23500750279543287
118	0xbf282a30a29b0b2d	-0.0001843628281702146
119	0x3f62b87d202a9da3	0.0022852367267948855
120	0x3fb67dc8e360d166	0.08785682250237911
121	0x3fc7f469d96cd696	0.18714640728437776
122	0x3fd42a690f2e301f	0.31508852465117515
123	0x3fc4427125683085	0.15827764822495652
124	0xbfc508151a4b6ec1	-0.1643091562644852
125	0xbfd6b486f01d8c1b	-0.3547684998395099
126	0x3fadac44d4bbbedd	0.057954932182722387
127	0xbfa1842fd8b5f790	-0.034211631015735766
128	0xbf990acaf5de7468	-0.024455233818674676
129	0xbfa757bd09085331	-0.04559126601467368
130	0xbfa89e7f3fb9215c	-0.04808423664923353
131	0xbfc23349df65142e	-0.1421902027888406
132	0xbfc2177ef0084fef	-0.14134203644118723
133	0x3fbba515699c1e38	0.1079877264820589
134	0x3fd328323dd560ea	0.29932838476589885
135	0xbfb2683d897f2eba	-0.07190308195930131
136	0xbf900390c14b2934	-0.015638601110176967
137	0x3f689f5a02dabe88	0.0030056722669867288
138	0xbf9a879bfe9a09e0	-0.02590793363061461
139	0xbfa23b24a249860f	-0.035607476053666536
140	0x3fa9aab8f26b63ad	0.050130633918974744
141	0x3fcd701ec799b8f0	0.22998413797490214
142	0x3f5895907a788a91	0.0015005026742832865
143	0xbfc6cd62fdb4e8ce	-0.17814290416737893

block_1.0.bias f8 [16]
0	0x3fa11731a6557f45	0.03338008075183877
1	0x3fb725c8bcc62ee4	0.09042029007667512
2	0xbf63f8bb7747208d	-0.0024379407352377925
3	0xbdb166f85ea8b24c	-1.5827233548226847e-11
4	0xbf74a5e9e84ab7f3	-0.005041040135138164
5	0xbf9893a419d190c0	-0.02400070579132385
6	0xbf939ed929a883cc	-0.01916064564477775
7	0xbf871f7a8b16442d	-0.011290509576413832
8	0xbdc50a9489b9dd12	-3.827395450551615e-11
9	0x3fb23467729f4e91	0.07111212299724402
10	0x3f85f451f22bbde3	0.010719909861534432
11	0x3f9ae128dcb7f9ba	0.026249540778729964
12	0xbedbf1341d7b615b	-6.6619399700862555e-06
13	0xbfb87723211ddb2b	-0.09556788977156987
14	0xbf7cfaf10313a91d	-0.007075253918836813
15	0xbf7a45f6734c1ad5	-0.006414377877041762

fc.weight f8 [4, 752]
0	0x3f7a51fa5737eb18	0.006425836461398736
1	0x3f928863721b7604	0.018098405685000443
2	0x3fae465439645260	0.05913031769356247
3	0x3f9f5a49c93b98eb	0.03061785975196411
4	0x3f9ee9bbd5258e2c	0.03018849838680475
5	0x3fb024e052faf381	0.06306268716703124
6	0x3fb41169e71462fe	0.07839071170418418
7	0x3fb43c0403e3e78e	0.07904076666809898
8	0x3fb4963d51cb494a	0.08041747328687623
9	0x3fb0f1119f657498	0.06617841855536921
10	0x3fad437f086596e4	0.05715558030605708
11	0x3faa12aefed1208e	0.05092379437024973
12	0x3f9475797d71788b	0.019979379922340484
13	0xbf8ea453a84577c9	-0.014961865971311899
14	0xbf8b4c681fe6b577	-0.013329328034923133
15	0x3f91ff1f9d62300a	0.017574781399659435
16	0x3f9e7823d9fc48dc	0.02975517290094208
17	0xbf7327c524a3cff7	-0.004676599588709244
18	0xbfac350bd1a7542b	-0.055092210142597096
19	0xbf9cb87311409892	-0.028047368934629953
20	0x3faa3cdf2b18dfad	0.05124566460693756
21	0x3fab958cbf3f5455	0.05387534937441588
22	0x3f840efc4730e244	0.009794207499099213
23	0xbf994e03e872d2de	-0.02471166712048755
24	0xbfa2361bbadd65c5	-0.03556906372132177
25	0x3f80fd2686905b44	0.008295346242488962
26	0x3fa2ed6f215e0690	0.03696772844615481
27	0xbf82f215d3c81936	-0.00925080349498995
28	0xbfa3bdd46ae03399	-0.03855766110073162
29	0xbf61079e0b2cfccb	-0.002078827551855155
30	0x3f88ea6162acf127	0.01216579515823264
31	0x3f7245b44289f78d	0.004461006298354675
32	0x3f801314437b6c8a	0.007848890599623699
33	0xbf8f48e812c9aa26	-0.01527577693305655
34	0xbf977cee742d9a2b	-0.022937513199759046
35	0xbf742dd8f4090228	-0.004926536058122134
36	0xbf81865fa46a3e07	-0.008557078557060128
37	0x3f580c5b791d5833	0.0014677899639159552
38	0xbf8cba6b46388756	-0.014027441101521692
39	0xbfafd0fbff6769c1	-0.06214129917835321
40	0xbfaeacf42a16d220	-0.05991328252585881
41	0xbf938433e9e9256c	-0.019059001113679683
42	0x3fa832d89bb66a6f	0.04726292515552621
43	0x3fb26cabe462a993	0.07197069478812627
44	0x3fa895769bcfe559	0.048015314598112986
45	0x3fa838c5cc9b9e85	0.047308140970753455
46	0x3fa5501e001d03d0	0.041626870645366076
47	0x3fa3a3766f4e38cc	0.038356495940307406
48	0x3f9e36b750bd8f23	0.029505600264555853
49	0x3fa0cb80aa3008d5	0.03280260159955765
50	0x3fa69e77834944b8	0.04417775609602742
51	0x3fa45f3a7d9f2290	0.03978903563944869
52	0x3fa01e79b8df2d5f	0.03148250943885488
53	0x3f951671df9e672a	0.020593432687383707
54	0x3f66d4b7b9f7bd27	0.0027869785696946927
55	0xbf80951069c4952f	-0.008096817233829682
56	0x3f5e10fc9948ed8c	0.0018351046357015536
57	0x3f99e7cfa1cfc229	0.025298351527398708
58	0x3fa87dd8f8eec3ee	0.047835140597619716
59	0x3fa8220a0766f484	0.04713469829901221
60	0x3f9c38710b21f17b	0.027559057526091984
61	0x3f84e3eae798cbfb	0.010200343315863938
62	0xbf6b617a37ab058a	-0.0033423792895923054
63	0xbf7d97568e0b4ec9	-0.007224405388757745
64	0x3f7214cbc1da4a91	0.004414363791186774
65	0x3f92023a577876da	0.017586623753337395
66	0x3f90b9d74de1ae42	0.01633392727710104
67	0x3f7051b7e7265fe2	0.003984182711427283
68	0xbf5ad3efd697a80b	-0.0016374437494683948
69	0x3f84e7fc2d38d3ef	0.010208101396623063
70	0x3f9f5a3dddcb23e8	0.030617682134820884
71	0x3f9b60d00b7199c1	0.026736498545142377
72	0x3f6924e7ca984716	0.003069355695296215
73	0xbf90ab8bae33bee4	-0.01627939463372642
74	0xbf9fe86493021932	-0.031159945938747664
75	0xbf98a00a271023f6	-0.024048002847880633
76	0xbf8bf39c039e9859	-0.013648241863688225
77	0xbf70fa4d9f275694	-0.004144957742445183
78	0xbfa0c4fe4a7e288f	-0.0327529397901155
79	0xbfa1e36f116cc791	-0.03493830764490647
80	0xbfa07810271e24ab	-0.03216600873481331
81	0x3f80784317e08ae0	0.008041881719753119
82	0xbf9223e9f80ef7da	-0.017715125813758316
83	0xbfb09cb04db7da78	-0.06489087960640372
84	0xbfb07fb59668051d	-0.06444868967084401
85	0xbfb423873a9e3425	-0.07866711789229493
86	0xbfa49ac4e754725a	-0.04024329494334174
87	0xbfa430dd85f0f4b0	-0.0394353128435595
88	0xbf968734841bbf79	-0.022000141680961847
89	0xbf940069d01e0d12	-0.019532826735951643
90	0xbf8e4db050ad8b8b	-0.01479661699494785
91	0xbfb77f7c3c4183ec	-0.0917890212163141
92	0xbfb95fda6eb62a3a	-0.09911885455054739
93	0xbfb169f31cb219fa	-0.06802291346148329
94	0x3ebe152c6060dca3	1.7930691469500696e-06
95	0xbddad5e6481bacda	-9.762714423945884e-11
96	0x3948ff2e7b68f62f	9.62841828622261e-33
97	0x34967c22359556ea	2.292512481384277e-55
98	0xb48860ee4509cd4b	-1.2427970351663085e-55
99	0xb481d0fb3480225b	-9.082577959769717e-56
100	0x348efe6b2305b6b5	1.5800322421131282e-55
101	0x347e6f0e9cb33cdd	7.7574187568852515e-56
102	0xb471314e7c700352	-4.382303700621805e-56
103	0x3471642d7ad872d5	4.4329551314112e-56
104	0xb478db0a1ae29ac1	-6.335566696394341e-56
105	0x34740193b40bf942	5.099464273031074e-56
106	0xb4819f0b15f81b7a	-8.983133247909338e-56
107	0x3494dd556e6b0dc3	2.1273088844435713e-55
108	0xb46671da090cdf9f	-2.860521833370877e-56
109	0x348d11118877975f	1.48178825241613e-55
110	0xb4825770a3034e4a	-9.350334328877999e-56
111	0x3484e18837e89888	1.0644904942678724e-55
112	0x347a1b9c8436da22	6.654754529020184e-56
113	0x3478e3af31037980	6.344174240595269e-56
114	0x346df300a3f4729d	3.8169498963045995e-56
115	0x3469a27ab06f0c9c	3.2670726929946287e-56
116	0x345fd2a72f33dd4d	2.0278698592293586e-56
117	0x344fdb8f39d8b20c	1.0150434244249684e-56
118	0xb4625808207702d9	-2.337878183743097e-56
119	0x350eb52e513ffe84	4.0075467991016094e-53
120	0xb5a0bea31fd28f50	-2.2377290321645037e-50
121	0xb630171de0518870	-1.1009429763412274e-47
122	0xb61b377ca77f8bd9	-4.655613296681153e-48
123	0x35b972e6d8a16545	6.801874792366257e-50
124	0x3564f1ba5fd671d7	1.7493453918428314e-51
125	0xb599759c49ef922b	-1.701175717480671e-50
126	0xb5ecf20ae18c7658	-6.189156282887812e-49
127	0x36635d9cbcee23bb	1.0600424871274239e-46
128	0x37aa60803527b7ac	1.5139630427076675e-40
129	0x39a5f003a30fa40e	5.408024964552606e-31
130	0x3b9c0c7ee549a1a3	1.484891705026286e-21
131	0xbc7096eb68b8683a	-1.4389123189184942e-17
132	0xbcc720d10692b93c	-6.419362119287529e-16
133	0xbca9b4fb76e7fc70	-1.7837788221103546e-16
134	0xbc2bb8306c3b4ffb	-7.513382514069902e-19
135	0xbb31db518859b803	-1.4770726664376516e-23
136	0x3abdfb37e334d906	9.687487462886991e-26
137	0xb9d14ea377df6885	-3.4132397808335756e-30
138	0xb8e1b6821fb87b04	-1.0660577772628247e-34
139	0x3a81e59bf9a7b3e4	7.228504885114964e-27
140	0xbbd379dc39a29dfe	-1.6496827757498185e-20
141	0x26028e96982d293c	1.3706899944413638e-125
142	0x275267898813c85c	2.850915780245778e-119
143	0xa88baf8e9bd2d1c9	-2.24847595000971e-113
144	0x29ad3ec0e1d329b2	6.2262295906870926e-108
145	0xaa944588b88785ef	-1.4141969689653455e-103
146	0x2b1b71ba9e63b940	4.901318138393385e-101
147	0xabd5baa3c2d7cf01	-1.5895067574986517e-97
148	0xac6054c23d834265	-6.116549809294761e-95
149	0x2ccdfeac0161156e	7.189811330231079e-93
150	0xacf16125260272bd	-3.332713194534312e-92
151	0x2d61d6f66fc2e693	4.3788372004369735e-90
152	0xad77f22ea945dff1	-1.175532723621315e-89
153	0xad8600a9572fc192	-2.1602548200122582e-89
154	0xad591fe8cb21c509	-3.083480874731306e-90
155	0xacff243417bb5990	-5.971724249670406e-92
156	0xacd30c53d9231496	-9.131754921716181e-93
157	0x2c80f1741f1d9708	2.538319244711678e-94
158	0x2bd72f684cbe58f4	1.6960239610854368e-97
159	0x2ac24b850dd8fba4	1.0210426354510008e-102
160	0x2a20ca25a842abbb	9.15066886635704e-106
161	0x291b08bc4d933ee9	1.1241231564435948e-110
162	0x27cb4aeb7d2fb9eb	5.41149788657919e-117
163	0xa6c26bc8f1f65692	-5.573214916612276e-122
164	0xa5508b410095a792	-5.966798223824909e-129
165	0xa47e4c0c2b96c932	-6.669333306738715e-133
166	0xa3a111272ad5bbba	-4.586160708009489e-137
167	0x22e6a2363c70f8b7	1.4848631826351205e-140
168	0xa281fd0d2f71b666	-1.8439391541980305e-142
169	0xa23984eefba5ec96	-8.17467236065884e-144
170	0xa210ed8bf34c4331	-1.3556438363406235e-144
171	0x21ece9a0199c15e6	2.894271303075183e-145
172	0x21b2737be3ef733a	2.308790859421845e-146
173	0x218d96426d23891d	4.627776141078493e-147
174	0xa1504ad7614e9cd3	-3.1854137102345985e-148
175	0x21157d298ac46941	2.6258907298978693e-149
176	0x20e8aaaa9e5c37b8	3.7677547362731693e-150
177	0x20c79060c3d3ede5	8.998306090922146e-151
178	0x2098dfd4a503c58a	1.1873362663378086e-151
179	0xa0b837e4f9a0d8ef	-4.6240925186435544e-151
180	0x20c19bdfb835f9b3	6.724251910735226e-151
181	0xa0c4a0bbbcdd8c80	-7.877101727888925e-151
182	0x20cffad1076058d2	1.2212013420212083e-150
183	0x20c9c823159c762b	9.845214196081738e-151
184	0xa0b1397be0295a63	-3.288743329426903e-151
185	0xa0afde618a4929d7	-3.042399271734906e-151
186	0xa04bf843af54f8ed	-4.1721634044296667e-153
187	0xa067fd2a41814bdd	-1.4313406724733348e-152
188	0xb88cf8ec5f9c7e01	-2.7245473373425923e-36
189	0xb99841355d1596d7	-2.989625121971708e-31
190	0x3ab1649f3b46ff8b	5.619999072234854e-26
191	0xbbcdcc4246c037e9	-1.2619895726114963e-20
192	0xbc586f6f190f8ec7	-5.298558677170513e-18
193	0xbca0054897f72df7	-1.1116551388207798e-16
194	0xbcdb560d1c26ca9d	-1.5174604651846228e-15
195	0xbd0ebeb4130ca6a8	-1.3653493987615413e-14
196	0xbd36994f31f67a73	-8.028729564682364e-14
197	0xbd56b482ee3a7ca7	-3.2265920199991356e-13
198	0xbd70bd9219b6e2b6	-9.515878540412708e-13
199	0xbd83489e49445715	-2.1922989226053037e-12
200	0xbd91c6e3c49b656c	-4.042002038615591e-12
201	0xbd99cb10845404d7	-5.864699409812667e-12
202	0xbd9c77936233dd3e	-6.47266748395008e-12
203	0xbd96b6d1e1ee4be8	-5.164597508483409e-12
204	0xbd88f4b80b8a189c	-2.8371611398360532e-12
205	0xbd72f867c024acc7	-1.0783385907816567e-12
206	0xbd54a4d4ba5fd5de	-2.9336705114330073e-13
207	0xbd2fa71db4064bef	-5.6226662410780856e-14
208	0xbd0019944bad57d1	-7.14980033466669e-15
209	0xbcc3ba700c63f989	-5.475695514486323e-16
210	0xbc77d41f0fd5d0b4	-2.0668015013250224e-17
211	0xbc166dae16b0bb18	-3.0396201007245236e-19
212	0xbb96be4cf37ba440	-1.20402354217882e-21
213	0x3af04c288348079f	8.425606493031597e-25
214	0xba613c80feee47e8	-1.7404259064527073e-27
215	0x39abb4508ff0382c	6.8296506243350195e-31
216	0x392b8d1bbacbc408	2.653084475122439e-33
217	0xb88a2a21d8352e3a	-2.460505177628884e-36
218	0xb814f5e143dc5321	-1.5399320211630732e-38
219	0x37a149ac762ab0e5	9.922703565917821e-41
220	0xb739557ae3870054	-1.1360116515577988e-42
221	0x36ec464ad67d7d1f	3.9621124741698685e-44
222	0xb6c81d8786aee9df	-8.448200455153685e-45
223	0xb6b70fcb40b59868	-4.03953974825396e-45
224	0xb6a5838839515422	-1.8842032002977376e-45
225	0x36adbb86383fba08	2.6040081315582016e-45
226	0xb6a352bfe95404ef	-1.6923517318427e-45
227	0x3666911ee1362576	1.2352707303721996e-46
228	0x369a54075fa36625	1.1529287123111636e-45
229	0xb6a6e6cd767d09e7	-2.0057461584329998e-45
230	0x36a7c8f000eec26c	2.0831100556791776e-45
231	0xb6a43b2035b1f9fc	-1.77185084403413e-45
232	0x36544f195a9f51f3	5.558387374325187e-47
233	0x36a059abb2e72151	1.4319760552013645e-45
234	0xb6a1a204c4385961	-1.5443084372197984e-45
235	0x3fa5e741e2e7e8c5	0.0427799787029968
236	0x3f9426d53ae26a88	0.019679385870953442
237	0x3f966ae2d9f82ccd	0.02189211326007694
238	0x3fab3729453a8483	0.053155221653704586
239	0x3fb5eb6ad26c78ab	0.08562343251512299
240	0x3fb44b4cf5ffd4c0	0.07927399640887511
241	0x3fa8a27c9ed1941a	0.0481146758909647
242	0x3f98ac0f2d850b11	0.024093854096700677
243	0x3f95c69e2861f934	0.021265479292645398
244	0x3f90b501c8b7bfe1	0.016315486789551307
245	0x3f8b4e3d6fece5f3	0.01333282468623318
246	0x3fa24cf2df2ab2c9	0.035743322126426565
247	0x3fae25d2f738570d	0.05888232486556264
248	0x3fa4459e00371540	0.03959363701464236
249	0x3f81288562b8d6c3	0.008378068995721027
250	0xbf6dce0aecc36174	-0.003638287866220386
251	0xbf7fe5acfc87b995	-0.007787395218186073
252	0x3f8b360fc78bffe2	0.013286708142459195
253	0x3f9c5c24f4b5a0e1	0.027695252834207266
254	0x3f9fb52dcc27a77a	0.030964580140710997
255	0x3f70043ee323d602	0.003910298970585925

fc.bias f8 [4]
0	0x3fa6edc6aef29eb6	0.0447828377303358
1	0x3fa11b1a3e131b1f	0.03340990073916416
2	0x3f9ebff6ed713068	0.030029161684339917
3	0x3f9d81b024830b95	0.028815033176907773

exp_avg f8 [16, 1, 9]
0	0x3f8664ef67dd53f6	0.010934706074900529
1	0x3f8d25459aed9cda	0.014231246748478577
2	0x3f96ca55dcd36081	0.022256223300104686
3	0x3f99c15ad6068113	0.02515165263469139
4	0x3f9b429aa53e14d0	0.026621261916734806
5	0x3f9e660d95145e8d	0.029686176513762198
6	0x3fa0abbccc6dec67	0.032560253100165686
7	0x3fa2eb838fb05f65	0.03695307854667255
8	0x3fa535b4455d2e2c	0.04142535540321676
9	0xbf94e8f9b366651e	-0.020419980597215497
10	0xbf918759b73771ab	-0.017117883498814084
11	0xbf8bd1d28bb2e330	-0.013583798301952749
12	0xbf849047f199716f	-0.010040819225814982
13	0xbf81366bf8028395	-0.008404582506331507
14	0xbf805d299de3de71	-0.007990193491863114
15	0xbf7d46b2e3eb09d8	-0.00714750174546671
16	0xbf78c23317a2cf49	-0.006044578151136745
17	0xbf6da2f154de32e7	-0.0036177361971055813
18	0xbdf16f08702c9708	-2.536940520282169e-10
19	0xbe10ed884614fc0a	-9.853311711062837e-10
20	0xbe43f09552327e93	-9.285182905806152e-09
21	0xbe750065e72d4298	-7.823688878456578e-08
22	0xbe967918053d0362	-3.3487413485596284e-07
23	0xbeab57bab389adec	-8.148757393971985e-07
24	0xbeb2fd96270b7f62	-1.1319263217221208e-06
25	0xbe851e6b345dcfae	-1.573474951961141e-07
26	0x3edce9683a40706e	6.8930975523317605e-06
27	0xb919e0c3233ba57d	-1.2459792972632333e-33
28	0x384356aa4c6f7ede	1.1366169940005354e-37
29	0x370dd666c0f4d9bd	1.6724500197167654e-43
30	0x3640309260451166	2.215493039186325e-47
31	0x354324e3b5ee8e16	3.997474514706184e-52
32	0x340c96f566723306	5.693248893914494e-58
33	0xb30b48bf0502ea65	-8.290516305779843e-63
34	0x31ce5d89e7c180d6	8.799333963337684e-69
35	0x3105e3921cadb9dc	1.548588208264608e-72
36	0xbebe8f79027d7dbd	-1.8215441830101038e-06
37	0xbebeca0c13f1d1ea	-1.835182118073708e-06
38	0xbebe800bea983715	-1.8179525035385442e-06
39	0xbebdd0d0e7e661ae	-1.777153471138348e-06
40	0xbebc20aa46b0343a	-1.676535499542442e-06
41	0xbeb979a29e858471	-1.5184365285902578e-06
42	0xbeb6ac660dee7855	-1.3514418737213547e-06
43	0xbeb3f613579e11c4	-1.189782180750351e-06
44	0xbeb16ba9639a3a25	-1.0383458985161898e-06
45	0x3f9e40980ab0e347	0.029543281223797704
46	0x3f9dd7bad3084ef8	0.02914325631179701
47	0x3f9e7530287a34e4	0.02974391219190843
48	0x3f9ce51defab0b0a	0.028217761758024408
49	0x3f98824733783ca1	0.02393447162290541
50	0x3f93898405839de2	0.019079268299632697
51	0x3f8861f429c64c6e	0.011905581974849446
52	0x3f7bb6e31a5f4645	0.006766211625249212
53	0x3f76ca3925e16af9	0.00556394885469546
54	0x3f607512823f598c	0.002008949422797451
55	0x3f6536ba448a70ce	0.002589572719740563
56	0x3f61b388b5b76e5e	0.002160803805720409
57	0x3f631da89788fa76	0.0023334782420357204
58	0x3f62bc9fcd7253a4	0.002287208666141587
59	0x3f5f581906c2dd47	0.001913093986372365
60	0x3f629a8421e2a8f7	0.002270944663071646
61	0x3f54233735384e2f	0.0012290991916231832
62	0x3f508ff7e3e98680	0.001010887222627238
63	0xbe81756108838d7e	-1.3007604971532316e-07
64	0xbe85dfbcd6bf4f76	-1.629738152197052e-07
65	0xbe8b660155e32cc8	-2.0413441865203643e-07
66	0xbe90dde57e2cb56a	-2.5133465280071046e-07
67	0xbe92ec351945da53	-2.819699827164458e-07
68	0xbe92ebce50f3d9b3	-2.819466126813635e-07
69	0xbe923c340f53c0a1	-2.717251981884399e-07
70	0xbe913ca05a39eee4	-2.5684865987534294e-07
71	0xbe8fe62549c62c08	-2.3766611868496906e-07
72	0xae06443550ad5a76	-5.596571026244657e-87
73	0xac0252d5e3ae76eb	-1.072313167448915e-96
74	0x2987d069500f4372	1.267493887456493e-108
75	0xa7026dd8ab073172	-8.921041830080343e-121
76	0xa4e629319b7cfde5	-6.244239432135809e-131
77	0xa2a32b1ca020d183	-7.859556494173222e-142
78	0xa105289e8b312a02	-1.292767757940346e-149
79	0xa0c26af3a8a46652	-7.03314339922191e-151
80	0xa1104da2fc43d660	-1.9922178759438176e-149
81	0x3f61322ed9738e36	0.0020991244342541083
82	0x3f5750a4c3156c03	0.0014230355266906531
83	0x3f42e712d88c8164	0.0005768625279394643
84	0xbf266b72cbcd5420	-0.00017104889220812079
85	0xbf4a07c8db33b13b	-0.0007943850272602923
86	0xbf51e835a28953b5	-0.0010929607180021176
87	0xbf52506385363661	-0.001117798984384598
88	0xbf4b39c912667162	-0.0008308631702678532
89	0xbf289f92fad3a2d4	-0.00018786114870940915
90	0xbf941dbbbdd9e2b3	-0.019644673788635724
91	0xbf91344a4bf84135	-0.016801033865762
92	0xbf89adcf6f4c22a0	-0.012538548072840883
93	0xbf84e0a395ade465	-0.010194089894627287
94	0xbf83c0fae5320070	-0.009645424003110942
95	0xbf840fbade6f1df4	-0.009795627511166118
96	0xbf875de69e39fc7c	-0.011409570411386342
97	0xbf853abf4182fb61	-0.01036595743823704
98	0xbf802c3b75ba2423	-0.007896866350408932
99	0x3f836b1e34092ea2	0.00948165508557192
100	0x3f8032f10f3a36d2	0.007909663464740122
101	0x3f82ae3521e75670	0.009121337029607463
102	0x3f81be89f3cc9cb8	0.008664205315268667
103	0x3f79d1a1f7eb4c5c	0.006303436936565179
104	0x3f630dd27e19f3aa	0.0023259268935462334
105	0xbf2c3c59dbfb35d3	-0.0002154216472178132
106	0x3f59c62cbab1b671	0.0015731274422948994
107	0x3f69903af6cd5bd0	0.003120532192422122
108	0xbd4800a77821e484	-1.7054841363675206e-13
109	0xbd50fd8fda3a4931	-2.4144918973290776e-13
110	0xbd562cc077127781	-3.1512302861006515e-13
111	0xbd5ad81424cf619d	-3.81476999249247e-13
112	0xbd5b84a6aa564f56	-3.910566890662832e-13
113	0xbd57bfc681655975	-3.374953323434341e-13
114	0xbd52f99593bfb91b	-2.69650095903161e-13
115	0xbd4c170b70452846	-1.9959158442263348e-13
116	0xbd4306b7884c3411	-1.3518955187217763e-13
117	0x3f72ca73c57fb9d0	0.0045876047442860585
118	0x3f7b9dbaf5cdad34	0.006742220223581886
119	0x3f7cb21bf6132ad2	0.00700579569201905
120	0x3f79c867d45676fe	0.006294637283102976
121	0x3f753231cd6c2314	0.005174822369334437
122	0x3f709fc73fe5eaac	0.004058626478917898
123	0x3f5f498df9d31b5d	0.0019096266253641671
124	0xbf384ff5831ae5ba	-0.00037097686718431564
125	0xbf4454780ac4c533	-0.0006204210417647737
126	0x3f5a1588f0aab6eb	0.0015920483880721935
127	0xbf680842f0d7278b	-0.0029336268841903593
128	0xbf6eb448bed8dcfd	-0.0037480755625228777
129	0xbf76ed447bc94a12	-0.005597369684056124
130	0xbf79e421c0bea59a	-0.006321079108525219
131	0xbf794d45a9289285	-0.006177208053973819
132	0xbf76c26609dc296b	-0.0055564866904752415
133	0xbf71eeabc49da3ff	-0.0043780049980819405
134	0xbf74c4a7ced8eb49	-0.0050703577995204275
135	0x3f6b208b60738f19	0.0033114168360145577
136	0x3f616af197764d13	0.0021261900507824143
137	0x3f5da317b1ed0004	0.0018089038273529931
138	0x3f599e6d715b47fb	0.0015636509682974687
139	0x3f4b1b70805586c2	0.0008272456476953948
140	0xbf21c56a5dde45b5	-0.00013558314725207817
141	0xbf4d19ccdbbae84e	-0.0008880853924531169
142	0xbf66b785f13f8d7a	-0.0027730575620680794
143	0xbf6b922d0d448a84	-0.003365600578164875

exp_avg_sq f8 [16, 1, 9]
0	0x3fadd7dd399613c8	0.058287537841387016
1	0x3fb6764067cfffa6	0.08774187597737057
2	0x3fc0396fd462017f	0.12675283308272964
3	0x3fc5f3f88f32fb0e	0.171507902070481
4	0x3fcd54af3222012c	0.22914686153308972
5	0x3fd35331365b03bc	0.30195265110165415
6	0x3fda04900e8af9ca	0.40652848644449746
7	0x3fe130e516d43e99	0.537218613231704
8	0x3fe579853a7ca52d	0.671084036094873
9	0x3fa2f5a174a37d03	0.037030263412583884
10	0x3f920895d6e3b989	0.01761087535936093
11	0x3f816d47e23654ac	0.008509217825841318
12	0x3f831ab5a35a3b7c	0.009328288123723764
13	0x3f8ec7e2c6668428	0.01502968948335777
14	0x3f946a7855061aa8	0.019937400998538607
15	0x3f9cc8194c260b81	0.028107066414587493
16	0x3fa506cef8313769	0.04106756953898023
17	0x3faeafccb64f22e6	0.059934994940311445
18	0x3eb50a9884797483	1.2541645605581453e-06
19	0x3eb8f1e34fca9ab6	1.4868303985033407e-06
20	0x3ec1e4e90e61eb16	2.133152622594234e-06
21	0x3eca67c4d7c06015	3.1477626958424743e-06
22	0x3ed22396fd56c74d	4.324680010924149e-06
23	0x3ed856d40464fb74	5.802910953810594e-06
24	0x3ee0acbeb5f57cbb	7.951157100448384e-06
25	0x3ee6abe981135022	1.081062876765604e-05
26	0x3eedce63222b8b49	1.4212703779608491e-05
27	0x3e814153638d2343	1.285610993445904e-07
28	0x3e7cf28883546793	1.07837451708216e-07
29	0x3e77d88e82bd876b	8.883299134961832e-08
30	0x3e734a38c06aff5f	7.186058335450144e-08
31	0x3e6ebeb5ea8fd6b6	5.726695679462934e-08
32	0x3e6847fda03645c2	4.522728505174122e-08
33	0x3e631db02e14bd70	3.5606267943079704e-08
34	0x3e5e41e0f84f5f81	2.8179342876358317e-08
35	0x3e588bcf65c78f36	2.2860368141782104e-08
36	0x3ed97102be4f92d1	6.065713908907838e-06
37	0x3ed9679e0b340dbc	6.056965662584937e-06
38	0x3ed92ee3bd2a1e83	6.00413382535021e-06
39	0x3ed8d1679be75932	5.917069243874163e-06
40	0x3ed8266edfdbddb5	5.757839515167287e-06
41	0x3ed72faa4ccdd9bf	5.528019028192031e-06
42	0x3ed6276191335619	5.2818852680123384e-06
43	0x3ed51e62d0bf9685	5.035089326787421e-06
44	0x3ed41d562c6d5376	4.795693434218929e-06
45	0x3fa6c3f5e88b7030	0.044463810574342566
46	0x3fab741f364bd5d5	0.05362031495853229
47	0x3fb0a1b688649739	0.06496754484086588
48	0x3fb4d18cc6cbb677	0.08132247785007417
49	0x3fb72f7cac7565e1	0.09056834421553318
50	0x3fb5d759a7ca0bd1	0.08531723352829991
51	0x3fb2623e51f7d679	0.07181157590079036
52	0x3fadc59829d7c950	0.05814815054681566
53	0x3fa9246c181e8d62	0.04910600466180416
54	0x3f5c0c1e88a7a5b7	0.0017118738347739867
55	0x3f61072b96531f8b	0.002078614360104985
56	0x3f642ba0c48dbd60	0.0024622097011427896
57	0x3f6a64b3b3899468	0.0032218465606086884
58	0x3f70799baf657fde	0.00402222456463616
59	0x3f70f2c8f0332065	0.004137787737995867
60	0x3f6d9a2ffa4ad413	0.00361356135030145
61	0x3f69f8b78ea1ea25	0.003170355329584556
62	0x3f67fd304ab42785	0.0029283469390337124
63	0x3e9eb2010b865b65	4.5739603706780946e-07
64	0x3ea02d03bf9d84ac	4.820775523045485e-07
65	0x3ea11005aef04a27	5.085047102302402e-07
66	0x3ea1f0f5f43b8be6	5.346910047745074e-07
67	0x3ea2779dbe4dc3d9	5.503669596574128e-07
68	0x3ea28455946ec56f	5.518475426539384e-07
69	0x3ea264f0124321e0	5.48192506965669e-07
70	0x3ea228869b9ab5c4	5.411596284054383e-07
71	0x3ea1d45e40677f1f	5.313623894741032e-07
72	0x3e4b4b70506e2296	1.2710077002825871e-08
73	0x3e41d8ff2907c96e	8.310956618196511e-09
74	0x3e35eeb9f73bea24	5.106563938845363e-09
75	0x3e2c30f5df176f68	3.2818936394309306e-09
76	0x3e1f2a39b1677e45	1.8140384243507337e-09
77	0x3e120f2e95e3efa5	1.0511898778180742e-09
78	0x3e07e232aff85a38	6.951038355499626e-10
79	0x3e066fcd6d95342c	6.529947374191633e-10
80	0x3e0941f214f64f64	7.350929118225632e-10
81	0x3f63f5d39972e922	0.002436555175873726
82	0x3f5e2865110ddcc3	0.0018406855562867342
83	0x3f572277175edccb	0.0014120257378474217
84	0x3f520b932c2cf149	0.0011013924819983248
85	0x3f4a2b4aa289d57c	0.0007986177852915967
86	0x3f420cf43133997b	0.00055086062857583
87	0x3f384109e69ff9fb	0.00037008754463832533
88	0x3f309af5d645c9c5	0.0002533769786829089
89	0x3f2a59b482e8cd61	0.00020103767879362924
90	0x3faa54a59af3de29	0.05142705456267677
91	0x3fa3767dbf0ced81	0.03801339108619129
92	0x3f9befa25384d839	0.027281318996039004
93	0x3f93bca6e5e8aa41	0.019274337561151936
94	0x3f8b7d99e78a0caf	0.013423159006612144
95	0x3f8364a442bbfff3	0.009469302450725059
96	0x3f7c6fd2e70cb1c6	0.006942581022297783
97	0x3f74b1feb7c49c8d	0.005052561751916274
98	0x3f6f6453893904e3	0.003832019001294472
99	0x3f887ebe00d58add	0.011960491562324755
100	0x3f873845236cf75c	0.011337795394520782
101	0x3f884bffb48269fb	0.011863706299028989
102	0x3f8a0483f6919823	0.012703925096683893
103	0x3f8a10152eb8a7f0	0.012725987900086694
104	0x3f861c1d4e107431	0.010795811600525425
105	0x3f818990748aa167	0.008563164288106063
106	0x3f80f13ae0e143be	0.008272609699050078
107	0x3f82aee318a4ad99	0.009122633161118542
108	0x3eb11fa0e84ee73d	1.0206430556117706e-06
109	0x3eb1c75b7110593e	1.0596954249701502e-06
110	0x3eb251d644e813c6	1.091937764764423e-06
111	0x3eb2bb47aed5326c	1.116488131575013e-06
112	0x3eb2d63a6640bdc3	1.1227624776669228e-06
113	0x3eb2a04146427368	1.1101958757094133e-06
114	0x3eb2468ec1ed8a02	1.089311588230711e-06
115	0x3eb1cab83a080287	1.0604783043934012e-06
116	0x3eb12b4f6fc9b4d1	1.0233629260906529e-06
117	0x3f80829ed056cd1f	0.008061638577464834
118	0x3f83b95d2ca80c1b	0.009630897450739131
119	0x3f86e9548a2ea17f	0.01118722960184537
120	0x3f88554eae82a189	0.011881460857993147
121	0x3f87a28754a5ca27	0.01154046752046607
122	0x3f857029ec61bdff	0.01046784165029546
123	0x3f8201f04267085f	0.008792759920542346
124	0x3f7c73c35912d371	0.006946337774185505
125	0x3f774817722fbb28	0.005683986269089648
126	0x3f834fdbcaef8ffc	0.009429661875351762
127	0x3f837c34c8263443	0.00951424823576919
128	0x3f856f93c44bee23	0.010466722896572972
129	0x3f8912fa6493d2d7	0.012243229097728498
130	0x3f8d97c8ab20681f	0.014449660990113298
131	0x3f9125a1871b8faf	0.016745113250081264
132	0x3f9386a5e19c70bb	0.01906832875748486
133	0x3f95cd3cd97e4d0b	0.021290732168904685
134	0x3f97dde9c1c47f83	0.02330746884501834
135	0x3f38bafa685c757f	0.00037735570400506535
136	0x3f3b6ecdaf0d9342	0.0004185917051045437
137	0x3f3faf40287a82c3	0.00048346821174942103
138	0x3f42a496476e9e50	0.000568936708863663
139	0x3f4768b140e3e15a	0.0007143846030706433
140	0x3f4b00106dee979d	0.0008239822599207417
141	0x3f4cdb6768a72841	0.0008806471753868354
142	0x3f48be2deb8e9348	0.0007550930232481457
143	0x3f46c92bbdf89356	0.0006953681549402939

exp_avg f8 [16]
0	0x3fcb07eddd096402	0.21117947857672453
1	0xbfc564dda5e643b2	-0.1671406803184517
2	0xbef9ca03a2271554	-2.4594419423503336e-05
3	0xbd492b9ad5e8f261	-1.788459609993404e-13
4	0xbf0ad57e621aeb3e	-5.118171635617182e-05
5	0x3fae7f463bb3354c	0.05956477621803433
6	0x3f7aed37710bd4f9	0.0065738835989936845
7	0xbf1e6885f549ec2e	-0.00011599843612401857
8	0xbd5cd8dfe99ffd52	-4.099428939965383e-13
9	0xbf29c5235c21ddb5	-0.00019661003722480438
10	0xbfa713ee3d58170a	-0.045073933590215345
11	0xbf90fb7e1c9ed2cf	-0.016584368225909082
12	0xbe72a65e1fce707c	-6.947619364403665e-08
13	0x3f858884e511aeff	0.010514295807488859
14	0x3fa46c14d4385889	0.0398870953614941
15	0xbf7389590590687d	-0.004769656888152449

exp_avg_sq f8 [16]
0	0x40088476b996832a	3.0646795748765685
1	0x4012ff5ac17be8a8	4.749369643390459
2	0x3f2143b67e431979	0.00013171770763715696
3	0x3eaf453060692674	9.319266503573385e-07
4	0x3f0781bcecd8037b	4.483564189783955e-05
5	0x3fed55b547a08608	0.916712417503903
6	0x3f98e2c03ba42107	0.02430248607655108
7	0x3eeeab9f53505662	1.4624786311794028e-05
8	0x3ec557c81be05f10	2.544271608516983e-06
9	0x3fe02b30894841a6	0.505272167329214
10	0x3fc8b4bf17ec4063	0.1930159441767528
11	0x3ff63f96e614e912	1.3905247676435164
12	0x3eda7f86e4c916a8	6.31765176401447e-06
13	0x3f9a95d769f82b48	0.02596222481046631
14	0x3fc5497b00fdf90b	0.16630494640771362
15	0x3f877895520367cb	0.011460463109347693

exp_avg f8 [4, 752]
0	0x3f98a317324f32ab	0.0240596413093949
1	0x3f95c8721d92b97d	0.02127245240688457
2	0x3f8bf60e49e33108	0.013652907972208542
3	0x3f7823184d394988	0.0058928441317952565
4	0x3f4a3c4770536edf	0.0008006428548940867
5	0xbf509d99b0ffe45d	-0.0010141373531935762
6	0xbf16b7373ba64f4b	-8.665346732633393e-05
7	0x3f5137121ccdec1e	0.001050727546696668
8	0xbf5a325b1c8d5298	-0.0015989198456810901
9	0xbf7599e9182370d6	-0.005273733639310238
10	0xbf7441182a33fd70	-0.004944891351669298
11	0xbf653b9c66b57c19	-0.002591901274783048
12	0xbf49e45ccb4d00b6	-0.000790162381782997
13	0xbf25e86880d322da	-0.00016714358972637935
14	0xbf41f40df89fa0b7	-0.0005478924006157214
15	0xbf364618bedf9439	-0.0003398714460430305
16	0x3f1950617d2843be	9.656519913671301e-05
17	0x3f32ec113eff2daa	0.0002887289147081815
18	0x3f33d01fe3b9fd01	0.000302322183166795
19	0x3f2cae11e7f2985b	0.00021881073550850363
20	0x3f2fcd052a7a0d80	0.00024262130795103462
21	0x3f35f9d6868ad267	0.00033532607498479864
22	0x3f37942ab1037816	0.00035978357574417816
23	0x3f38fe925d306de4	0.00038138459530198524
24	0x3f35b6748a5cabd7	0.0003313097498557882
25	0x3f32b5b843dba48f	0.00028548954638425104
26	0x3f32e6879b97be4b	0.0002883988450710125
27	0x3f2af13f8f6c95a5	0.00020555401689496575
28	0x3f20d823e7a39317	0.000128511794009211
29	0x3f35b5f9fc6e0bfe	0.0003312812154307453
30	0x3f438c99ecb95aeb	0.0005965949616875942
31	0x3f525da24f4cf29a	0.0011209569031073508
32	0x3f5ec83683cdfd72	0.0018787891742418597
33	0x3f608c11692b35f8	0.002019914632319649
34	0x3f5ab36f66aed792	0.0016296947385234556
35	0x3f5618c88d6a22e5	0.00134868226237666
36	0x3f6018fb4e0771b3	0.001965037183465601
37	0x3f6bbab97c06409e	0.0033849356406748373
38	0x3f76995a2bea2e4b	0.005517341835581012
39	0x3f8043d36c4121b0	0.007941867581522682
40	0x3f83354df19cd7e1	0.009379013954099182
41	0x3f848b20814b89ad	0.010030988641521821
42	0x3f849d2f19e42998	0.01006542966617445
43	0x3f814a10a2c390d9	0.008442048995171468
44	0x3f788f605430bd0e	0.005996109280246088
45	0x3f70129ea15d15cc	0.003924007081712099
46	0x3f62d1e08e6fc16c	0.002297342859940146
47	0x3f7d970a3540f3bd	0.007224120974623935
48	0x3f70a2c58f180f8e	0.004061481203738183
49	0x3f085bd751e2026b	4.646063665437048e-05
50	0xbf615a0806032e74	-0.0021181256016456432
51	0xbf648c3aa4f7046a	-0.002508272685844794
52	0xbf67b6e12912de0c	-0.002894820944302051
53	0xbf6848bfa337f4f9	-0.0029643767281856107
54	0xbf625d3a0d896c3f	-0.002241719612624787
55	0xbf54d70139d67613	-0.00127196426124188
56	0xbf43c9ff0e48e09b	-0.000603913821186647
57	0xbf265849b7b5f613	-0.00017047786591810384
58	0x3f4b98cf2825ccaf	0.0008421908863013495
59	0x3f61eb550065c5c0	0.0021874103724079663
60	0x3f6c8449e2de5dc3	0.0034810488786651563
61	0x3f73ae067d572ad3	0.004804635381740768
62	0x3f78bb2fe04925ca	0.006037890449598968
63	0x3f7ec57c040bc9eb	0.007512554585206814
64	0x3f83120dbf705044	0.009311778454538573
65	0x3f86945d180fd952	0.011025168701945507
66	0x3f88cbc8a5c08fcf	0.012107436712604084
67	0x3f894f27c581ee4b	0.012358008112861493
68	0x3f88ae5ace3c9855	0.012051305216641032
69	0x3f87e652cae1d9d2	0.011669775787805845
70	0x3f882725c3df2d1b	0.011793417968780908
71	0x3f88fff177ad6559	0.0122069229743597
72	0x3f8a1fc91c3d4e3e	0.012755938696194066
73	0x3f8bc214cbc53a81	0.013553774326877434
74	0x3f8c8143132634d1	0.01391842271984914
75	0x3f8cee2735ededb1	0.014126116116805006
76	0x3f8da693d4145c7e	0.014477877530721491
77	0x3f8f026f15f1575b	0.015141361100329645
78	0x3f8e81b6cff071fb	0.014895847531129816
79	0x3f8d2dd99e76f532	0.014247608326395243
80	0x3f8be4dbb0c3432f	0.013620106059904906
81	0x3f8cebd4ddd30dac	0.01412168790773801
82	0x3f8f517ddd124a3a	0.015292151745858285
83	0x3f906d2505030eac	0.016041353636650754
84	0x3f907e58711aed84	0.016106969741242164
85	0x3f8ed9b9089ef096	0.015063710761630749
86	0x3f8d305a0e930b13	0.014252379960799233
87	0x3f8afb884295bd43	0.013175072223673317
88	0x3f890e995117483f	0.012234876429747852
89	0x3f868acf96b5fbc4	0.01100694826777538
90	0x3f84a7ac96ec2201	0.010085438113962121
91	0x3f8273bdfd6d5602	0.009009823128205422
92	0x3f825764ba5072ab	0.008955752311572715
93	0x3f83012d977c6693	0.009279590783580793
94	0x3e541de3050013e2	1.873517901930818e-08
95	0xbd73c37ad0597cd4	-1.1234301803635387e-12
96	0x38ea852a283875cd	1.5961249447390264e-34
97	0x342609d43ee72f2b	1.7554594294972343e-57
98	0xb3f6444195c4666e	-2.2170488354703872e-58
99	0x33cab2d72e5af775	3.3229154039916304e-59
100	0xb3d398282568e9fe	-4.877440708150546e-59
101	0x3415a3864cfb8b0a	8.618136573391596e-58
102	0xb409eab7efc38970	-5.160994325480489e-58
103	0xb3c09d6888d2457a	-2.0678925834895465e-59
104	0xb3f8f7c9d5f82c8d	-2.4860123123601235e-58
105	0x3420be8e5fde723d	1.3337652206499524e-57
106	0xb433e2175c24f882	-3.1675715612977615e-57
107	0x343272a0fc88c047	2.938899150616349e-57
108	0xb42e243894dc1fc0	-2.4009080651828702e-57
109	0x3425823f3bc7e804	1.7132729620801912e-57
110	0x340722c6c5d3dbf4	4.6071910467155066e-58
111	0x3405924101faeb03	4.2956338268560576e-58
112	0x341497eb2fe565f1	8.201807652791823e-58
113	0x33f436d711f49303	2.0126943195690604e-58
114	0xb3d4d3ceb2e76575	-5.184362346378813e-59
115	0x33e27b0f03275c1e	9.200453190259033e-59
116	0x33c809f449830edc	2.991886820038508e-59
117	0x33f1a8fc446314e5	1.7583850831458742e-58
118	0xb3eced1a5becac79	-1.4400646526970226e-58
119	0x34b340ac1e54ae4d	7.851828033989048e-55
120	0xb56635b7ffaaeebb	-1.855052296503599e-51
121	0xb5c6aa1fa20f72f9	-1.2115399306553509e-49
122	0x357577cb7e7327bd	3.5861735004566347e-51
123	0xb54250c7f66c0f8c	-3.8244655358049045e-52
124	0x35100026b17dc2a7	4.176348964577536e-53
125	0xb5378f4b3f2cc6cb	-2.4597518279379485e-52
126	0xb576f3b6db5eb188	-3.834082467541202e-51
127	0xb5f4c545189cf908	-8.882382100610217e-49
128	0xb73e11d3de480720	-1.3483692511528663e-42
129	0xb9582c921fed91a3	-1.8623052837608308e-32
130	0x3b3b95d38197299f	2.281799108855168e-23
131	0xbc0c64a846fb4aa6	-1.9239975760723965e-19
132	0xbc63125b1e02d1b4	-8.271032660243413e-18
133	0xbc458337a2d454dc	-2.3323972623925597e-18
134	0xbbc8b9b935d8aa7c	-1.0471649087448313e-20
135	0xbad2525971922c93	-2.368021289581903e-25
136	0x3a63d8db95cc2425	2.0040450237480933e-27
137	0xb97ef938965e7e12	-9.544452653232966e-32
138	0xb882a01b67f63ece	-1.75152590855173e-36
139	0x3a21eea942f22e2b	1.1316853538296167e-28
140	0xbb70755bcf9f1528	-2.1782553613093575e-22
141	0xa5a2122ede471b55	-2.085617649029224e-127
142	0x26ec8b3232c7ab5a	3.454319883795662e-121
143	0xa8263c975f700948	-2.8217706295003267e-115
144	0x294f9e3b512088a5	1.0517856916089149e-109
145	0x2a15e76f9933fbad	5.96905925037592e-106
146	0xaaccc44fc3378967	-1.6054754777658854e-102
147	0xab4c060cc9972edf	-4.003832342995125e-100
148	0xabdf95e29b6b0f05	-2.3105162031651818e-97
149	0xac417ea547f877bb	-1.6380913550285956e-95
150	0xacbe1e8d646dde58	-3.6098310448561553e-93
151	0x2ce5564f4b5f8614	2.0458213095840506e-92
152	0xad13edc9017028f9	-1.528634050270093e-91
153	0xad10ac5c5645bce4	-1.2789173326261646e-91
154	0xad0e37a6c7f8706f	-1.1589061332252144e-91
155	0x2ce0df1db4f9d435	1.617656276031039e-92
156	0x2c91506b3b881b4b	5.187787662789052e-94
157	0xac086cec113c148e	-1.4294022324762985e-96
158	0x2b7b26eb78c6b2ee	3.1034428525499636e-99
159	0x2aac2dd13eaa31c0	3.931666511669765e-103
160	0x29bc13912e28bb5e	1.1954832853211733e-107
161	0x28789976e6d90129	9.989124076206649e-114
162	0xa7809bb5df240c6a	-2.058142432394338e-118
163	0x2618a9410aad2be2	3.6431337393250253e-125
164	0xa526c8dfb4ccce2b	-1.0271987831256411e-129
165	0x240f6843019227d3	5.401348226000669e-135
166	0xa328a9ead262d7ba	-2.588874144999774e-139
167	0xa279c19a38473b71	-1.3200939943918878e-142
168	0xa1e61f2af96004e1	-2.214479033794831e-145
169	0xa1b02cc90e57adc9	-2.023973730534021e-146
170	0x21778074bbeb8d76	1.8379890190680454e-147
171	0x2168a46a27cddce1	9.63590268549965e-148
172	0x214867c0bc213ec6	2.3858109293323226e-148
173	0x20f878ee2fb140a1	7.476157711044988e-150
174	0x2075896254eec21a	2.5700435789343195e-152
175	0x204c2326af23cdc5	4.197152759072063e-153
176	0x2025b39f74d23c7a	8.092915700293031e-154
177	0x20439f3f15c287cc	2.9269596422067984e-153
178	0x2040901e4fc41dd2	2.470644359561862e-153
179	0x20273c45a58a7728	8.664890579003909e-154
180	0xa014113ed5c7c2f9	-3.7417311506243645e-154
181	0x203c73dc8f40e052	2.1220906781206364e-153
182	0x2029f7162645aa16	9.682858622463519e-154
183	0xa047d69863b4f412	-3.5558777249027743e-153
184	0xa0473fc2daa15ee2	-3.4679892653507383e-153
185	0x9ff9a4993ad2400e	-1.1953372260186101e-154
186	0xa015b17bbc993158	-4.044899515965983e-154
187	0x1ff587805e5c5854	1.0035804609071141e-154
188	0xb8252df3d8d63cd3	-3.1120481281281616e-38
189	0xb935d42eb66b7e1d	-4.2040812326607817e-33
190	0x3a58a7d30dae5d75	1.2447878828698612e-27
191	0xbb70ae09143bd3c4	-2.207556594721898e-22
192	0xbbf7ad76d16435c4	-8.022280982622563e-20
193	0xbc3d6906907444d8	-1.5943331948096968e-18
194	0xbc781557cda5d686	-2.0888994546446032e-17
195	0xbcaa3f41210eb43a	-1.8212575573818477e-16
196	0xbcd2d6feab8636ce	-1.0458202890398384e-15
197	0xbcf298479c625ebd	-4.1288844999102435e-15
198	0xbd0b0eb948263aa1	-1.2015950313154222e-14
199	0xbd1edc4187934cfa	-2.7409519012000258e-14
200	0xbd2c3fd2d701ccd0	-5.018085664531366e-14
201	0xbd3468f216d62cbe	-7.251068719015223e-14
202	0xbd3681a984170248	-7.995912504029637e-14
203	0xbd3202d208a34fe8	-6.398798774599027e-14
204	0xbd23ef633780c708	-3.541186486862811e-14
205	0xbd0eac4fd52645d7	-1.3621589700212925e-14
206	0xbcf0f7cf72d08d5a	-3.767654890923294e-15
207	0xbcca97388d0e70cd	-7.380403690916591e-16
208	0xbc9bd6c80300f545	-9.658589704714638e-17
209	0xbc61ba6e6af1bca6	-7.688401712664046e-18
210	0xbc16a18dd3f38619	-3.067081957947209e-19
211	0xbbb73c21e5a36409	-4.920179810658389e-21
212	0xbb3c1afb05b06cb2	-2.3248236028339733e-23
213	0x3a86607a36c60ea3	9.03794373189012e-27
214	0xb9ffe96cdc33118f	-2.5173985101561494e-29
215	0x3967c56a6c81d53d	3.662526361157115e-32
216	0x38d93869e5515c28	7.589477778450057e-35
217	0x383181dd4afec383	5.144928040456174e-38
218	0xb7bcdaf1bbfe5d12	-3.312420373867831e-40
219	0x3740dfc1e3f10f8b	1.5133173472410747e-42
220	0xb6dacf8aef323fb2	-1.878490598171435e-44
221	0x36905b7b30c1e4ba	7.162977286115633e-46
222	0xb65496c4b4824254	-5.635009487754413e-47
223	0xb6505728a1a10490	-4.4722395974163385e-47
224	0x3634bc1ba87882d8	1.418732384509061e-47
225	0x3618c00ae994d739	4.233687783550491e-48
226	0x362d69c3384fde14	1.0062641846929173e-47
227	0xb641fbad02693eec	-2.460908452632809e-47
228	0x36447ff7db4cf723	2.8053168355902572e-47
229	0xb64023fd060b0634	-2.208766541418937e-47
230	0x36327448c8b3e2bf	1.262690039083828e-47
231	0xb639f6e29960b82d	-1.7765560068599053e-47
232	0x363951b7b878b833	1.7324106218587619e-47
233	0xb5a50c02f0b09776	-2.8126732334063324e-50
234	0xb62d84e74cf70daa	-1.0098912520432749e-47
235	0xbf730e9eb77639d6	-0.004652614581017697
236	0xbf6bfadb38ea0440	-0.003415516060443241
237	0x3f75687a4fe34365	0.005226590901842386
238	0x3f7a77fb980e7928	0.006462080754231082
239	0x3f66a4a3461d480e	0.0027640522902538994
240	0x3f6c55b0fd330c1f	0.0034588295762616596
241	0x3f5dc0232c350478	0.0018158286555521024
242	0x3f3bd2171144ba51	0.0004245096509007162
243	0x3f3f22d23289bcea	0.00047509795925910917
244	0x3f39986a0a70ded2	0.0003905543221125299
245	0x3f3ea67c9a4aceca	0.0004676870542354826
246	0x3f4488cf8eb5a767	0.000626660677352603
247	0x3f3ca2adb8ba8e6f	0.00043694249391477193
248	0xbf42e11846e5ac11	-0.0005761498012309981
249	0xbf64cec652dbbd7c	-0.002540004111203307
250	0xbf6a7763bd0cd9cf	-0.003230757524217177
251	0xbf620a1a956c4312	-0.0022020835125505867
252	0xbf5b5a5dc6897637	-0.001669494226141833
253	0xbf59bb96153d590e	-0.0015706029561975451
254	0xbf45ab5f31530ea9	-0.000661298256681116
255	0xbf324518814769f4	-0.00027877662912847924
