dl_experiments/best_checkpoints/retailrocket_15min_CNN_cuda:0_checkpoint.pt (torch, 598107 bytes, 12 tensors)

block_1.0.weight f8 [64, 1, 9]
00000000: fcf0 3b32 55c6 9cbf 4fd9 969a 4bce 9cbf
00000010: 0d5d 1f0d 1023 9dbf e5a0 71f0 d96d 9dbf
00000020: 8943 f91c 148b 9dbf 6b89 6711 7cd0 9dbf
00000030: ee45 d8d4 c49c 9dbf f93d 4a31 6ad4 9dbf
00000040: 0c56 da6b 8cd1 9dbf a9f5 4ca0 9fe6 bcbf
00000050: dd8c abe4 a66d c1bf 04df a31f 6c64 bbbf
00000060: cf35 fd04 4820 bebf 98bf e20e 37ea d5bf
00000070: d403 e971 8c6c cfbf f2cf 45a4 01e2 cdbf
00000080: 646b 1a4f cd7f c4bf 12b3 1d58 ff0d b13f
00000090: 2199 1a39 64c8 82bf 603c cff8 95dd 82bf
000000a0: 2da5 34ef 2ddc 82bf 69cc ada0 19aa 82bf
000000b0: b0be b2fc e4a7 82bf 10a9 2ff2 70a4 82bf
000000c0: 4b6f 6cc6 798a 82bf 786d 1c85 7952 82bf
000000d0: b0a6 b815 5421 82bf 214e b62d 8100 e0bb
000000e0: b8dd 2e6a df46 e4bb c367 afcd 4b16 f1bb
000000f0: 16b6 78da 6ba1 ffbb b745 ff43 3f3a 06bc
00000100: dd62 b061 732a 0bbc 9c30 fb17 71e8 06bc
00000110: 1769 7629 adf7 09bc ae2a 5beb 63e1 15bc
00000120: 7d6f f4be f521 a0bf 3799 56d7 5bd0 c2bf
00000130: aa1b 4e6f ab70 c6bf 2a26 db07 4658 c1bf
00000140: c1de abec bc97 bcbf 18ad ae4e 0585 93bf
00000150: bf47 bdc7 926b b7bf 90be 5b46 0a9a d4bf
00000160: 5c8d 212b 3e3b cfbf 2e0f 137d 4273 e5be
00000170: b54a 399f 94c2 e5be f3fa 90ca e996 e5be
00000180: 8e81 178a 801d e7be 6867 5796 0f1a e6be
00000190: 4343 ca8c 3f97 e5be 9bb6 fa73 83a2 e6be
000001a0: f5a9 24a3 9d82 e6be f80a c71c f60b e6be
000001b0: a567 95b7 b4e6 abbf 20ce 14c8 dda7 96bf
000001c0: 83d3 1aa3 b7fd b43f c2f6 4517 a3ff a93f
000001d0: 8428 2cd6 3943 c0bf b26f 6e8e be54 b7bf
000001e0: 3225 9d8e f180 ac3f f0ec 446b 3f47 a53f
000001f0: a1b8 f452 3c42 b4bf 28c5 6f40 16e4 ba3f
00000200: a5ae 9221 2e28 bc3f f5a8 83c8 ba03 b43f
00000210: 6030 28d3 8bb1 a5bf 1acc 7392 f42d bd3f
00000220: c632 6355 bd28 a9bf a550 78cb 578d ae3f
00000230: be45 8f30 4589 88bf a97a 498a 17de cbbf
00000240: 79f1 8e15 33b9 90bf 7cde 0261 25c4 b93f
00000250: 7024 8b59 2f1b ba3f 8586 8016 6cfb b0bf
00000260: 0953 d637 cad2 cabf b544 1d75 2e93 cfbf
00000270: 4b73 8639 e264 b43f d212 225c 8da6 723f
00000280: 2bee e702 3e48 b63f 6da6 2d27 e3e7 c6bf
00000290: 22f5 8bb8 99fe d2bf a65f 5bc9 6d5f c6bf
000002a0: 513f 2c50 92d7 ab3f 03de afce 63a9 973f
000002b0: a554 abbe 07ec d4bf fe85 ec3b fbad d3bf
000002c0: 8cfb afe1 7c8f d2bf 7bed 4f52 be0d c8bf
000002d0: 9b3e d08a 646c 21bf fba6 c67d 8177 22bf
000002e0: 9d7b 74b4 69b0 23bf 61db ebab a691 25bf
000002f0: c400 f193 5c40 26bf 3091 18bc 648c 27bf
00000300: 6284 c2db 4aa7 28bf 978b 5c6a 1ac9 2bbf
00000310: 0506 bf55 9f39 2dbf aaeb b2ee 3658 a0bc
00000320: e616 c57d b048 d33c 2427 248e 83c1 d13c
00000330: 3281 bb18 26c7 9abc 0c77 7647 b21e a5bc
00000340: 9985 bc75 3193 4e3c 48af 3a72 e5fc a7bc
00000350: fcfe 0ab8 9d23 db3c 76d7 dfd4 ef9e a0bc
00000360: 03fc 15c5 de7d bd3f db55 738f 7467 a83f
00000370: be77 cadb 5e38 c0bf 0b15 90bc 9d9c aabf
00000380: 9d69 62dd 237e a83f 4ae9 903f be4f c9bf
00000390: 4bc1 645e 9272 b1bf d138 1853 142c b23f
000003a0: d653 0c43 37e0 a33f f3a9 8772 1a5f b73f
000003b0: e786 df18 97c2 b23f ae60 90cf b430 d8bf
000003c0: a7c9 2af2 35bc ba3f 87f9 62f3 6625 b9bf
000003d0: 1fab a73b 4896 c3bf a671 dcc7 cb9e c1bf
000003e0: acc3 cc29 30f3 cc3f 5fd5 ec29 7776 b33f
000003f0: db5c 4e67 4f43 97bb 0d5f a291 7aa4 a1bb
00000400: 3c1a 7a70 e0f2 a6bb 06e2 353e 1518 b6bb
00000410: 5c6f 1808 8940 b5bb 0953 71a4 e45c a6bb
00000420: f292 a4f0 1500 acbb 599d 7c9f eeaa b2bb
00000430: f232 40f0 53fb c3bb d8e2 e2d4 a738 c5bf
00000440: 87d8 1557 f373 b43f 7ce4 6c2b 3cf3 94bf
00000450: 39ea 67bf f39a a33f 4434 5bda 7840 a2bf
00000460: 2961 f485 a3ef b0bf 3834 8e02 290c c03f
00000470: 8d87 621c 7c8e c43f 460e c499 bcd6 bfbf
00000480: f322 75be 60b9 93bf d505 5f39 205c 93bf
00000490: b736 e658 efce 92bf fed1 6bf6 ad08 91bf
000004a0: 2e57 5e4a 7963 90bf 8b79 540c 4c5b 90bf
000004b0: 9ac3 ff54 4d2f 90bf 8f92 7a01 1313 90bf
000004c0: 7271 570d c859 90bf 9c70 5bde ab68 c3bf
000004d0: ecef 5f5b 5b45 b2bf 4803 9fa4 7872 b43f
000004e0: 693f 4263 03f9 b0bf 2342 264d 9aa8 b8bf
000004f0: f07a 7748 0558 a23f d331 613e ee6c b43f
00000500: 9031 d0d1 96e8 ad3f 9932 cfc9 5685 b93f
00000510: 5e7a 0558 f45f c13f 5364 c646 4d26 c9bf
00000520: 1645 b51d adbe d0bf aa66 3118 e0aa bfbf
00000530: 3639 8d43 0b23 a1bf 1804 a0b4 7de8 81bf
00000540: 23b0 0ef1 b69e b43f 8650 daa5 ed07 a5bf
00000550: 2fef d3d6 e360 ccbf 3c44 9959 13b4 1ebf
00000560: fd76 3cda 0f5f 14bf 0d34 4fb9 852c 14bf
00000570: 8ce9 c673 6a76 1abf 2373 a5cf bece 2dbf
00000580: f5d4 39a8 2250 2dbf 330d a90f c0e3 28bf
00000590: bfc8 5260 67a4 43bf 635b 2272 52ef 54bf
000005a0: 4f50 b448 58af b0bf 38aa 714c 1bbe a8bf
000005b0: 41bf 1972 f2da ae3f ab6f 639a 0794 b83f
000005c0: 5b83 f281 2db0 72bf 63a2 caad 568f b0bf
000005d0: a530 b724 9b69 8fbf 5102 ac54 9279 bbbf
000005e0: d635 0457 cbe7 963f 6658 3878 7e7f bd3f
000005f0: 64a8 24dd 5b4d c1bf 2917 f66a 0877 a6bf
00000600: 731a 3839 f536 cbbf 23e1 9d56 1c8e a13f
00000610: 9ef0 ec67 6e36 d0bf 11d4 fbaa bcb2 943f
00000620: b36d 85f3 b7c3 c73f a0ec f867 dc0c c03f
00000630: 3c76 eca2 23b4 abbf 8f14 1be5 adb5 a9bf
00000640: 18b6 09e8 6dd3 acbf 4ca7 6950 697e a2bf
00000650: e10f 29b1 c2eb 8bbf 1b6b 0302 25d7 803f
00000660: f7f4 840e 2c79 b0bf 26fe b9d7 939d c7bf
00000670: 36f0 fa1f a2be c2bf 4db2 5d31 0caf d3be
00000680: 3629 04aa d863 b33e 825a 5912 bd3b dcbe
00000690: 84c0 8d5c 326e 82be 44d1 c4f3 267b e0be
000006a0: 5604 2180 15b3 dfbe 50d0 6abd 3465 ffbe
000006b0: 0bab 8fcf eac5 e63e 0b2d ab82 d15a 0e3f
000006c0: da2d 3e86 1182 bebf caeb 474d 9b22 bcbf
000006d0: 20d4 42ed 08e4 b8bf b1b0 905f 1eb9 cebf
000006e0: 306c b819 2cfe d1bf c83b 5900 12ba d1bf
000006f0: 33e3 76d3 a618 c9bf e686 619f 015c d0bf
00000700: b473 f6dd 6231 c9bf 739f d52d 858b a33f
00000710: e6f4 3ab8 2e85 b53f ba9a 0a76 e5f6 b23f
00000720: e81d 22a8 b7f1 b0bf 1e46 c533 361a cabf
00000730: 0d86 c3c3 783b bcbf 2145 3302 1013 cbbf
00000740: 3797 96aa 7827 bf3f 65fe bae2 b9e7 b33f
00000750: 0b80 750f e80c 96bf e8c3 352c a30b 96bf
00000760: 752e 133a eb3b 96bf de18 bbf2 f549 96bf
00000770: 8368 f694 1d5a 96bf 56c4 d425 7a62 96bf
00000780: d2f0 1c0c 8273 96bf 4b65 b2e1 f098 96bf
00000790: 8f90 0af7 c891 96bf 6e29 0e73 786a 92bf
000007a0: 178f f7ea 7b52 c3bf 0ea2 eb37 32e8 91bf
000007b0: 1220 9bfb 4ab5 b0bf 1352 6bca cd9c c83f
000007c0: acd7 eb8a 34a7 a2bf 4530 d1f8 8bd0 cc3f
000007d0: 8873 8a10 32c7 c6bf d88a 1db6 c088 bdbf
000007e0: 7683 2ddc 4df2 9fbf a5df b0ef c9f6 9fbf
000007f0: cc10 2f23 f6ef 9fbf d3bb 1394 9100 a0bf
-0.028100329581307357 -0.02813070422208713 -0.028454066086706798 -0.028739362049606938 -0.028850855129636286 -0.029115618288309813 -0.02891833829023043 -0.029130610712455127
-0.029119676668946368 -0.11289403594579163 -0.13615881124051202 -0.10700107357467564 -0.11768007394603973 -0.34242035344777255 -0.2455001407816143 -0.23345966836097848
-0.1601502071615314 0.0666198339583384 -0.009171278946564389 -0.009211703925670445 -0.009209021437146159 -0.00911350270846452 -0.009109295808542 -0.009102709189353436
-0.009053183906466386 -0.008946370482184149 -0.008852631485825796 -2.71083934997275e-20 -3.435031416984561e-20 -5.789332693582314e-20 -1.0716847860779009e-19 -1.5061958744481234e-19
-1.8408277752778192e-19 -1.5523048119643662e-19 -1.7596252953981262e-19 -2.9653513393752887e-19 -0.03150909381858378 -0.14698360457004764 -0.1753134053689938 -0.13550639518352742
-0.11169033792600215 -0.019062121322048403 -0.09148518921327219 -0.32190186377463537 -0.24399544816979357 -1.0228268282459407e-05 -1.03760148483558e-05 -1.0294678150055722e-05
-1.1022206595379788e-05 -1.0538959666673168e-05 -1.0295302126624189e-05 -1.0793122441422976e-05 -1.0733708312023348e-05 -1.0512697280589439e-05 -0.054494521532162644 -0.022124734246245947
0.08199641925859961 0.050778481093386243 -0.1270515723957183 -0.09113684632614996 0.05567126146213254 0.041559202045812316 -0.07913567567149694 0.1050428302112506
0.1099881011929776 0.07818190951698852 -0.04237019493675187 0.11398247313972867 -0.04913894336059381 0.059672111117977246 -0.011980572266028552 -0.2177152085523251
-0.016331480208223923 0.10064920061528854 0.10197730957146844 -0.06633639859549063 -0.2095577976839638 -0.24667912214730384 0.07966436294959782 0.004553367793168577
0.08703982897707678 -0.17895163929943028 -0.29678957960261887 -0.17478725749856244 0.054379055296634456 0.023107108583614543 -0.32690614337964014 -0.30749398090310354
-0.29000780143535887 -0.18791941661025277 -0.00013293006250635484 -0.0001408906526994476 -0.0001502160105042145 -0.0001645580250266522 -0.00016976480580588847 -0.000179660126421352
-0.00018809117125776197 -0.00021198699430965688 -0.00022296972281136987 -1.1341336343793238e-16 1.0704738786140344e-15 9.85651206411267e-16 -9.290459047265013e-17 -1.4654879965079465e-16
3.314945263633474e-18 -1.6644932703874523e-16 1.50652409157113e-15 -1.1533029419591323e-16 0.11520187675158415 0.0476643014059552 -0.12672029239632637 -0.05197613646309137
0.04783737256476004 -0.19774606803714284 -0.0681544762089789 0.07098509815861866 0.038820006308163776 0.0912949113477806 0.07328171117071812 -0.3779727961532541
0.10443436777385405 -0.09822696153694298 -0.15302374756660073 -0.13765856989711017 0.2261715129948504 0.07602638982355846 -1.2315292786066967e-21 -1.867971843856483e-21
-2.4297920604156638e-21 -4.678602184466198e-21 -4.5003053053420914e-21 -2.3677603047724614e-21 -2.9646507613898634e-21 -3.953039999260218e-21 -8.462600106128188e-21 -0.16579149145925132
0.07989426494700257 -0.020459118032907217 0.03829156600473422 -0.03564813294870153 -0.06615659733177338 0.1253710997083617 0.16059829126339445 -0.12437037233399292
-0.01926184809170457 -0.018906119825038054 -0.018367519188862782 -0.016634672322611614 -0.016004462398618795 -0.01597327065712188 -0.015805443108493834 -0.015697762456186978
-0.015967489065461256 -0.15163181645664714 -0.07137080174283 0.07987169283934492 -0.06629964040098248 -0.09632267364055073 0.035827794166598426 0.07978714964810445
0.058415139305085906 0.09969084193216772 0.1357407979766831 -0.19648138004120827 -0.26163795376949517 -0.12370110121392011 -0.03347048949818758 -0.00874422271226831
0.08054679284276793 -0.041076113219930696 -0.22170684804574978 -0.00011712425330158508 -7.7710478361994e-05 -7.695738015840743e-05 -0.00010094666226382313 -0.00022741393315586179
-0.00022364066181849272 -0.00018989295479530376 -0.0005994324461851204 -0.001277761949074218 -0.06517555022247844 -0.048325398522895247 0.06026418345288543 0.09600875396011925
-0.004562547458733269 -0.06468717329938438 -0.015338146265002026 -0.10732378546891509 0.022368600069105536 0.1152266543871022 -0.13517330453879872 -0.043876898819730954
-0.21261468213943466 0.03428734357197729 -0.25332222126940873 0.020213077484147194 0.18566035643276066 0.12539248539710446 -0.05410872806372111 -0.05021422788335272
-0.05630057771200486 -0.036120692316059605 -0.013633271247392944 0.00822285568613306 -0.06434893946148522 -0.1844963839866846 -0.14644266664061129 -4.692978810766162e-06
1.1557355393288085e-06 -6.731356085496107e-06 -1.3731759753886355e-07 -7.858783299321264e-06 -7.557760911381769e-06 -2.9940925595453854e-05 1.0859067048193187e-05 5.78971087939699e-05
-0.119172187112944 -0.10990305554143656 -0.09722953598505102 -0.24002437273282376 -0.28113844405897037 -0.2769818309215535 -0.19606480908785215 -0.25561562122866943
-0.19681964719793898 0.03817382988455522 0.08406345365343135 0.07407983905668916 -0.0661883149606336 -0.20392491844045052 -0.11028246669186377 -0.21151924235759004
0.1216960350489814 0.07775460992251622 -0.02153360933641583 -0.021528768132558357 -0.021712947291958124 -0.021766512813678023 -0.021828138558341436 -0.021860035475757954
-0.02192500304157436 -0.02206779840034771 -0.02204050071544877 -0.017984277746600545 -0.15095471356391307 -0.01748732057868279 -0.06526631014560305 0.19228527435065298
-0.03643192478004606 0.22511434220575857 -0.17795396621377457 -0.11536793180634264 -0.031197754443727153 -0.031214862112591075 -0.031188817880107675 -0.03125433857518769

block_1.0.bias f8 [64]
00000000: 599f 1128 5e60 9cbf 128b 3e79 c2c0 a63f
00000010: 4e7c 277b a03f 91bf 8e5c cf49 57c3 47be
00000020: 18a0 5399 2720 a93f 716a 67f5 8d43 41bf
00000030: 219f 1425 a7ba 943f 5fff 5f43 111c c4bf
00000040: 904e 02a6 0d31 863f 2c62 2412 fcba b13f
00000050: 222f b38b a73c 65bf 67c8 875c 7942 c2bd
00000060: 8133 7753 e6cf 913f f51e 6449 bcd3 793f
00000070: 36a6 f9ce d017 27be 66e5 f1e1 5dd7 95bf
00000080: a726 8b92 aa73 9ebf 8976 b5d2 2a4c 81bf
00000090: 21f3 0320 fc27 963f 2303 daca c6b2 95bf
000000a0: 83db b5a3 1e15 983f 4aa7 b3e5 521b 783f
000000b0: f467 8c42 a2dc 963f b8b0 0eec 6d68 53bf
000000c0: c1da 92d9 792b a63f b109 dd73 58c7 433f
000000d0: 5860 be69 2783 98bf b611 f2bc 3cb7 95bf
000000e0: 8b34 e056 631b a0bf a5e7 5410 0804 42bf
000000f0: 122d 3738 2787 933f 8460 f8f3 f8b3 a53f
00000100: 5890 d997 5602 94bf e67d ed80 2167 abbf
00000110: 9a9a 200b 1789 75bf 2cf2 164f 6f78 22bf
00000120: a807 b9a3 1a1a a13f 8462 da0f c279 89bf
00000130: 3776 3c34 8c24 4cbc 2d0b 891e 043f 9cbf
00000140: 1481 722d 1251 72bf db94 4226 0597 7b3f
00000150: c9a5 7a08 172d 65bf b178 a374 00c1 9abf
00000160: f68c 92f6 8f69 07bf 2c88 6ced 26ca 91bf
00000170: 956e 547c 3b48 a73f 920f 8120 31ab 23bf
00000180: c43c 9597 eb1b a8bd 764a c3a7 fa2f 903f
00000190: ee5b ef89 ead9 c7bf 0239 d898 0028 84bf
000001a0: 4f70 266c 6d57 53bf 0c10 d21f 5804 35bf
000001b0: 0061 a10b 4a72 90bf 8a3e e2f3 45a7 9a3f
000001c0: ba33 0d09 2b92 943f 23fd 45f7 1f3e 9cbf
000001d0: 5d0a 1563 18c9 913f b6f1 5d87 1a89 a03f
000001e0: 16a7 2163 ea8a 32bf be48 b1ce fffb a6be
000001f0: 0d77 57d4 8c8a 85bf 2d94 4e6e 6508 83bf
-0.02771136397896554 0.04443938951523853 -0.01684427978204566 -1.106553276258876e-08 0.04907344576514577 -0.00052685195515363 0.020243274343697885 -0.15710655011934713
0.01083574927205369 0.06925940936015057 -0.0025923988701829362 -3.321413592624282e-11 0.017394636959398028 0.006305442328318857 -2.6883825094913857e-09 -0.02132937137182491
-0.029738106912907594 -0.008446058802913175 0.021636905149523437 -0.021189790850715384 0.02351806520661227 0.0058854330229481475 0.022326026260181167 -0.0011845658739089559
0.043300445374759196 0.0006035978219432384 -0.0239378126421744 -0.021206807167361418 -0.03145895419593455 -0.0005497969984056174 0.01907025604832053 0.04238870599891789
-0.01954016973321901 -0.0535212011225175 -0.005257692349948906 -0.0001409183383155472 0.0334022831780339 -0.012439266308591053 -3.0512446241498983e-18 -0.027584137309769097
-0.004471846586199275 0.006735820879986333 -0.0025849771371510883 -0.026126868361523396 -4.465551939716345e-05 -0.017372711411674555 0.04547296421716599 -0.00015006041235398872
-1.0963532804670686e-11 0.01580802582686621 -0.1863377736578679 -0.009841923393676403 -0.001180512292740427 -0.0003206935069288714 -0.01606097885118718 0.02602872181938535
0.020088837077583334 -0.02758073755967162 0.01736868004560176 0.032296017669952645 -0.0002829382166341527 -6.849876660419984e-07 -0.010518169622567375 -0.009293358258057516

fc.weight f8 [4, 6016]
00000000: d378 7ca3 fa48 87bf f780 d865 5159 9c3f
00000010: 95f1 d4d8 a875 843f 875f 1f76 6883 8e3f
00000020: a705 04ef 50ac 90bf 0fef bbe6 e749 65bf
00000030: f679 2208 73f9 a0bf f9ba aebb 8d94 983f
00000040: 9bc6 87c2 45d2 633f 8fc9 e751 1ae8 94bf
00000050: 60ab 0c5c 991f a2bf 1da5 92e6 9fbb 98bf
00000060: d205 af28 6518 543f 479e d4bc cf27 913f
00000070: 8d21 35a7 4e3d 81bf b682 410b 0cbd 73bf
00000080: 494d 4458 cd02 9f3f 7ecc 3da6 34a7 a33f
00000090: 64f5 a001 0a60 a1bf 1b68 49d7 9eef 90bf
000000a0: 0e52 fffa e5af 9ebf aee9 a0cc 266f 51bf
000000b0: e5c6 99ba 3811 8b3f 60a0 8b4c d515 75bf
000000c0: 4f99 9582 16c7 98bf b8d3 c1a8 f7f3 a1bf
000000d0: 71b1 7acf cac1 7e3f 4118 b4ab 3349 8e3f
000000e0: 9efe c362 003f 8d3f e6e0 1eb8 79d4 a2bf
000000f0: 0067 7d45 0bc0 94bf 471a 7d7a 3252 963f
00000100: 39da 9c4f 991e 87bf e1c1 f12a 45bc a2bf
00000110: 916f f594 bc4e 973f 70c2 a3f4 0f6a 873f
00000120: e05c 67bb 489d 62bf 9712 dd04 6620 903f
00000130: f07a 1cef 3f65 a0bf d3c1 25e2 249c 74bf
00000140: afe6 d342 efcc 8c3f e111 48d5 4d08 95bf
00000150: be7f d2e9 0899 753f 1347 88ef 5926 9d3f
00000160: 5474 8a43 c7f6 753f 31b0 2e8b 5443 943f
00000170: e041 dd50 3227 7a3f fc21 2bd9 1f73 873f
00000180: d1ad 5d68 a834 913f aabb 9ecd 31f3 79bf
00000190: d58c 0368 438e 983f 6359 dde5 2674 773f
000001a0: 4fa0 792e fee7 9cbf e8dd 2dd4 6aee 9c3f
000001b0: 96b7 52fe 642d 493f f7f9 520e 6279 933f
000001c0: 7190 beb0 8ef2 923f 1b87 7eb4 6632 a9bf
000001d0: a61b 8825 3af7 823f d710 47c5 beae 60bf
000001e0: c0af db69 7328 8ebf ed9f bd8f 6c0b 92bf
000001f0: 2e9f b765 a6ad a2bf 496b e3c0 cfd3 a7bf
00000200: 7c4b c3b3 5ec4 9cbf 57ba c1e0 13e1 89bf
00000210: ab1e a040 50d3 93bf b2e5 c8f6 b798 6abf
00000220: d54e eef1 d847 9d3f d25f c9e5 a3e7 95bf
00000230: 59ae 8a3a 3c8b 92bf 8568 4aac f6ec 653f
00000240: cfea 162c 5227 8cbf cf63 9f68 b8c0 8abf
00000250: 928a 61ea c42e 79bf 94c3 cfe0 85f8 843f
00000260: 359e 7310 78e7 933f 8126 3242 2635 8fbf
00000270: 7fbc 2d52 50cb a2bf eff0 0305 6fb1 913f
00000280: 31df af79 f699 973f 8948 588f 6dc4 a0bf
00000290: 32cb 83db fc8f 933f 2191 2720 3ba8 9bbf
000002a0: 5a40 6b41 065e 9bbf 07de 7cbf aef9 933f
000002b0: a654 d39b ae03 a5bf b3d8 4aac 4d2f 823f
000002c0: ade6 a1f0 312e 933f 07f1 91f7 3df7 58bf
000002d0: 156d b367 9853 803f 4030 fcd2 b9ec 40bf
000002e0: 3f04 2842 ca13 763f ed8c d1e0 a645 833f
000002f0: db4a 5ce1 dfb5 4cbf 3385 4277 fb9d 98bf
00000300: 5116 9084 d200 a3bf 6d2c a520 d7bf 91bf
00000310: 407a cae3 422c 853f d382 3016 2579 a7bf
00000320: eba6 768e 6c78 9abf 867e 7707 11c6 273f
00000330: c1ed 520f 011b a93f 5c2d 55df fce4 a03f
00000340: b30c 1f77 1d50 933f b13c 8a13 2315 a3bf
00000350: eee3 ffa3 93a6 a5bf 634e 4c02 a364 a8bf
00000360: c85a c1d7 95bb afbf 9ce3 0223 7082 923f
00000370: 1d2c 15dc edbf aa3f a62e 46f9 8c67 af3f
00000380: 5a4f e3c5 afcd a93f 96b2 b7a0 0cfc 80bf
00000390: 7d4a a49f 8ed7 94bf 9486 d465 a818 8abf
000003a0: 5128 b177 b96a a43f 664c 0980 aae5 aa3f
000003b0: b9b3 b25c cb9e a43f bcf7 be15 95d9 a33f
000003c0: 75ae 6859 eb98 a73f 44c7 634e 299a 973f
000003d0: 73c8 8dba cd0e 833f 7858 4814 af1c 9d3f
000003e0: 67cf fa74 91d5 8c3f f768 376a 1dfe 4abf
000003f0: 2cdb 51c1 11a9 9ebf 482a da1a 23a5 9abf
00000400: 3897 840f f2c4 a23f 8a18 345b 0614 a23f
00000410: 8fbd 609c 3019 b33f fc18 e316 b71e ab3f
00000420: 5efc 1828 77e7 8d3f 562b 83e8 3aa6 803f
00000430: 499c d107 990f 953f 0181 46a4 eee7 a03f
00000440: 3f61 c342 bc62 8f3f ce69 5171 9efb 81bf
00000450: 640b 8317 4b78 753f 5e01 9aec 649e 7d3f
00000460: 92b3 225b df97 94bf c89f a224 e36b abbf
00000470: 7969 4e8f bdbc b5bf f908 79de a48d b3bf
00000480: 8825 26c0 e864 9dbf 274c e638 6109 a9bf
00000490: c563 ec89 3823 6ebf fd3e 5aa9 24aa 66bf
000004a0: 22d3 2db8 8a73 96bf 376e 4bb3 b0cd a3bf
000004b0: 03fd 8085 2490 aabf fcba 83ca 8562 b1bf
000004c0: 3c37 d094 efd3 aabf 8c81 bf87 473c 9dbf
000004d0: e604 fbea d657 763f fd7c a444 7321 9c3f
000004e0: c2b5 c97f 36fb 9cbf c5f8 bfeb 3715 543f
000004f0: e149 5631 c676 7f3f de6d 209f 84db 9ebf
00000500: 741a 98c2 fce9 a0bf c682 e715 55c8 87bf
00000510: f0f2 76af f62b a2bf 3e58 709e 7710 a9bf
00000520: 1ee5 cb76 a0ee acbf cf6e 0e47 0fb4 b3bf
00000530: ae3a a02b 7266 aebf 1e56 60a8 5073 bbbf
00000540: d6cb 8fa5 e3c3 c1bf 4717 be8a 90a9 c3bf
00000550: a019 a44d 4bc4 b8bf 453e 7ff5 8e17 98bf
00000560: 8dfb 61c3 19bc a83f e6a8 1ce8 30bc 89bf
00000570: b119 9227 e1e9 82bf 21eb 5918 a8c9 b2bf
00000580: 1b20 5b12 319f abbf 387f ca96 b13c abbf
00000590: ee4c ecbd 5f05 a6bf a86b eb7b 17eb abbf
000005a0: fc24 b10c e9de abbf 0596 97f7 176c 9abf
000005b0: cb59 1011 eb90 903f 5492 cfad 5e5f aa3f
000005c0: 7c08 cfb3 72ab 713f 4d95 36fb 165f 993f
000005d0: ce02 9dac 8958 84bf e1a5 6eda 6cdb 983f
000005e0: 7b26 7c68 9d4f e933 1f56 fe55 158b 942c
000005f0: 5548 afd6 629a 86ad f56e 2fd4 9102 daac
00000600: 0cf9 eddf 648e ea39 21ac c4c5 cc0d 0fb7
00000610: 6f9a 9f19 2760 00b8 59c8 9beb 77fc 79b3
00000620: 66e0 6707 0ead e7b8 d586 58f1 b982 2abc
00000630: 69e1 f0db 2e05 1c3c 4a79 b31e 075a 34bb
00000640: 41da b6cd 9ea9 f43b 94d7 efc7 7e52 d23c
00000650: 2388 0673 a2a0 e5bd 3389 0ccd 35c3 7cbc
00000660: 9dc6 8a27 2938 c5bd b8f3 59c2 5aa6 3bbd
00000670: 5d4f 947b ad94 18bc 985c 2ac6 8129 203c
00000680: 028d a8de 8b15 68bc 602d 840e 05f9 f4bd
00000690: 1ceb ce7c a8bd 3d3d 2886 c24b 1ba4 063d
000006a0: 195d 6454 58e3 64be 3e38 c6d9 7b4f a7be
000006b0: fe31 175e f2d7 b13d 8a09 636c 3f55 23bd
000006c0: 2217 8f31 f3c1 d83d 535b 4750 136b 40be
000006d0: a4ca f9cb 72ab 6dbe ba5f 5e7f f3e1 c83a
000006e0: c6e0 e9e9 131b e9be a928 b83c 73cc 35bd
000006f0: 455b 126c 4b00 70be 809a f1d9 8ed6 0ebf
00000700: 60ba 1fe8 aa12 0cbe b19f 3182 0a1d b3be
00000710: b2bf 5e2d 9cd8 88bd dc5c ac10 1dc9 b2be
00000720: 936d c20c c255 10be 1b2a 0bfd ea12 56ba
00000730: 7e59 a921 b2fe e5bd c915 c6f7 3986 593e
00000740: d987 e943 361f a9be d8f4 5bc3 d771 57bd
00000750: 09e3 88c4 555c 853c bb1f 7a7d 5c25 7abe
00000760: 629b c907 7ae2 583c 4e5f 9d85 e78f 7cbe
00000770: 4036 c58c 59e8 44be c96e 6d53 853f f43d
00000780: b8aa f161 0fdb d8be 0804 898b 0976 a63d
00000790: 2ebf 7004 3e41 9abe 38b2 d28f b10f f6ad
000007a0: 9a16 1739 5211 133c 94c1 0bab b1a3 9a3d
000007b0: 961a c664 02fa 89bc e7f0 d901 8a37 11be
000007c0: 6e12 f33c 1976 863d b148 598f 64dd 65be
000007d0: 36fa ef61 263c 263c 1603 3ec4 fe16 c6bc
000007e0: 19ec 75bd afd1 47be b8fa e370 8978 873a
000007f0: aca9 b22f 7310 81be 57fd cdec e03e 81be
-0.01136966525478692 0.027684470978898337 0.009990042798215618 0.014899078469099226 -0.01628233393512848 -0.0025987176248899522 -0.033153147452356466 0.024004187183602508
0.0024196016786327107 -0.020416651963338913 -0.03539733170176507 -0.024153231094406914 0.0012265193824848486 0.01675343122511055 -0.00841771552826811 -0.004818961188079276
0.030284126770380202 0.03838505296052917 -0.033935845087834676 -0.016539079561290842 -0.02996787399736616 -0.001064098253222494 0.013216441340066118 -0.005147774886360507
-0.0241969601824164 -0.035064448690639904 0.007509033420927445 0.014788058927035165 0.014280322088324578 -0.03677730915609505 -0.020263839832614927 0.021797932363620622
-0.011288831464850367 -0.03659263753150178 0.02276129397556265 0.011432766583739012 -0.0022722645328304564 0.01574859051403851 -0.0320224742301799 -0.005031723094689205
0.014062756754799592 -0.020539489882155485 0.005272898500294275 0.028466611142056907 0.0053622993224538736 0.019788094515817704 0.006385036989585008 0.011450051131206777
0.016802436227789933 -0.006335444015276895 0.023980191443922678 0.005726005501705297 -0.02822873266850961 0.02825323982275832 0.000768350899894565 0.01901772701671153
0.018503407991048385 -0.049212655575742136 0.009260610838294724 -0.0020364500034891586 -0.01472559134295881 -0.01762170436214199 -0.03648109428087164 -0.04653786878198802
-0.028092841836790935 -0.012636332794696488 -0.019360784477639708 -0.0032466500327046005 0.028594388738908478 -0.021391449832975536 -0.018109265397170258 0.0026764695961221685
-0.013746873827462562 -0.013062897389248733 -0.00614811821114593 0.010239644931034943 0.0194376716653137 -0.015238093276155997 -0.03670741084248962 0.01727841823684256
0.02304825895040991 -0.032748626468802895 0.01910395707904939 -0.02700893768077706 -0.02672586225782001 0.019507151067243125 -0.04104371692816615 0.008879286594816049
0.01873090773776791 -0.0015237908503698565 0.007971945442867093 -0.000516501173451818 0.005389967033353093 0.009410194145124307 -0.0008761733213041538 -0.024040154603999397
-0.03711564892004716 -0.017333375327592316 0.010338327957751692 -0.04584613700740694 -0.025850006289750132 0.00018137891650748058 0.049034150238607584 0.032997038137717566
0.018860302348696133 -0.03727063764119388 -0.04228650452564141 -0.04764279749920488 -0.06197803744060121 0.018075706612509998 0.05224555312687349 0.06133690398118334
0.0503973893225111 -0.008293245939932786 -0.020353535169372428 -0.012742343528376034 0.03987674318393942 0.05253346264785179 0.04027400499885609 0.038769396690880836
0.04608855692307837 0.023049016389399726 0.00930557942931307 0.028429732907249122 0.014079223997533764 -0.000823749888179819 -0.029941823410321408 -0.026020573152474108
0.03665882529666792 0.035309027322044065 0.07460311715907707 0.05296871332534356 0.014601641570264497 0.008129558773722383 0.020567313291760567 0.03301950221362127
0.015325041568232776 -0.008780706246558714 0.005241673781884202 0.007231134639028218 -0.02011059755084294 -0.05355748960693024 -0.08491120098770989 -0.07638006621803929
-0.028705250480503902 -0.04889968700003804 -0.0036789039871902595 -0.0027666774793216873 -0.021925132266420573 -0.038678666960290924 -0.05188097123800086 -0.06790958589747825
-0.052398192325297605 -0.02855026021995992 0.005454864047068164 0.027471352638824154 -0.02830205111461282 0.001225761995555839 0.007681631269763818 -0.030134269916841087
-0.03303518176476397 -0.011612572413413413 -0.035491665762924174 -0.04895376023357344 -0.05650807809974821 -0.07696624264502393 -0.05937535078566235 -0.1072283183169351
-0.13879056533877926 -0.15361220144785134 -0.09674521108181589 -0.02352736829180759 0.048310093975479786 -0.012565977176184306 -0.009235152263738696 -0.07338953585160059
-0.05394891118118058 -0.05319743123732085 -0.043009750303235936 -0.054527982594400115 -0.054435046004593673 -0.025802969443153873 0.01617781917237852 0.0515088641330165
0.004313896232760791 0.024776801188314313 -0.009934497432938196 0.024274540741009324 1.2600856989153462e-58 6.155331534045686e-94 -2.2192117292111858e-89 -1.2469307223243059e-92
1.0474584527222323e-29 -1.740631622083712e-43 -6.015444161941694e-39 -1.0107034358021867e-60 -1.424947135603128e-34 -7.185726016303026e-19 3.797451484098639e-19 -1.6834507801262203e-23
7.000754210890191e-20 1.0170890254784113e-15 -1.5736061890408072e-10 -2.494752641247631e-17 -3.859782367225121e-11 -9.823190216899142e-14 -3.3313158189583915e-19 4.380755861519821e-19
-1.0444841820071464e-17 -3.051934386776011e-10 1.0566073230832059e-13 1.0054642231224966e-14 -3.890705584286786e-08 -6.947065461103387e-07 1.622860689639338e-11 -3.434230502476418e-14
9.006768628636784e-11 -7.645349694405591e-09 -5.526416080045541e-08 1.6080017408189876e-25 -1.1971365265526004e-05 -7.744430298792328e-14 -5.960893202854426e-08 -5.8819040753378855e-05
-8.170295137040512e-10 -1.1392498968868486e-06 -2.8246782989484917e-12 -1.1197089999132427e-06 -9.508216879099296e-10 -1.1144470571428927e-27 -1.600340006613709e-10 2.3771377298463232e-08
-7.486916116623183e-07 -3.331692047078781e-13 3.7054879497171427e-17 -9.740122607949579e-08 5.396003638800249e-18 -1.0640221273277805e-07 -9.735867577974595e-09 2.946490442498198e-10
-5.92606150382851e-06 1.0214118058706231e-11 -3.9122779011117463e-07 -2.7725055749766206e-87 2.5841499179140944e-19 6.05710505415016e-12 -4.5062216153259147e-17 -1.002158362723341e-09
2.553556737734636e-12 -4.072639285243767e-08 6.026798166294954e-19 -6.131158061631491e-16 -1.1091627101795615e-08 9.479799682564296e-27 -1.2713862660347419e-07 -1.2848987865006074e-07

fc.bias f8 [4]
00000000: b7ef 14e5 bacc af3f 92c5 3ea1 7c0d b03f
00000010: e87d 6bfa d34a b03f c859 7331 cac2 b03f
0.062108841384968576 0.06270579277658886 0.06364178527609676 0.06547225672998203

exp_avg f8 [64, 1, 9]
00000000: 6679 997a 0494 c7be b00d 9447 879a c7be
00000010: a8fd 6eb6 fadf c7be 4a17 23a4 421d c8be
00000020: fbe1 ca67 3835 c8be 165c a195 1a6e c8be
00000030: c271 1d53 bd43 c8be 1048 a418 5871 c8be
00000040: 5c36 142f 036f c8be 1cab b9e7 6308 2d3f
00000050: 52d1 7f82 0bcf fd3e 8754 8f7c 1989 e03e
00000060: 8f27 ec7d 7a9e 133f 8bb2 9f00 b622 213f
00000070: c759 f260 1ff8 143f eabc 2767 d468 f53e
00000080: 4b0e d278 e1aa 123f 0c8c b35c 6522 2c3f
00000090: f7c4 f20d 9ef2 aebe 277c f9e0 4515 afbe
000000a0: 8989 d3c4 c112 afbe 93ff d1b8 53c0 aebe
000000b0: 77cd efcb b8bc aebe 5f71 3e7a 41b7 aebe
000000c0: 5f5a 2997 938c aebe 0a35 85a8 8730 aebe
000000d0: 08d4 7e35 aadf adbe bb27 28bd 6bf2 10bb
000000e0: f77e 5717 466c 15bb d678 7d13 9af8 21bb
000000f0: aedb b111 d88c 30bb 627c 07f5 ed31 37bb
00000100: 23fd 22eb 524c 3cbb 7c76 8a44 45e2 37bb
00000110: 3d57 cb62 8810 3bbb bd58 6366 bfb7 46bb
00000120: e7b2 48aa 2e22 443f 194d c402 e0c0 463f
00000130: e911 55bc 2687 443f be67 ad58 9a51 403f
00000140: 3c60 1fdf 5680 353f a0d8 27b7 e636 323f
00000150: 5c75 593b 7273 2c3f 2f02 2553 0ced debe
00000160: 9463 1b7a e1a9 07bf 5bb0 e621 2440 12be
00000170: 59b9 c79f ac83 12be 7f61 6fd7 225e 12be
00000180: 1324 342b 8ba9 13be 4318 f878 51cc 12be
00000190: 65d5 02c6 7d5d 12be d221 c7da a240 13be
000001a0: a279 d9e0 6026 13be a743 e36b b6c1 12be
000001b0: 847b 2b1d 144c 81bf 8bce 3e9a 3ea8 7dbf
000001c0: 0902 ef97 c78d 7abf 4723 db4d 890a 76bf
000001d0: adf7 b8bc da89 70bf c38f d864 b6d5 68bf
000001e0: 0d58 a364 1c2b 66bf 1b45 8335 a674 5dbf
000001f0: 8de7 eeaa 880a 51bf f488 b5a4 4c85 48bf
00000200: a96a 4a6f 61de 44bf cf7b a9d1 86be 60bf
00000210: 005f e145 bb14 44bf b1e6 d02e f3d4 5ebf
00000220: fb03 8376 b2ed 60bf df2f 75eb 2787 62bf
00000230: e2d9 d762 7e87 5cbf af7d 26a9 7521 fcbe
00000240: e48b 3708 086d 7dbf 4f8c 9843 e5d4 7cbf
00000250: f2c8 42c8 ae79 7bbf cf5d 5750 c025 76bf
00000260: 4043 4b8e 7f0a 72bf b2d8 4856 e8df 6fbf
00000270: 653e e011 f959 73bf 07e5 75d2 767d 72bf
00000280: c185 ff01 236a 73bf 40e1 6f81 7809 573f
00000290: c218 3ed7 5f22 543f 8d77 429d 5772 513f
000002a0: 3a95 4786 dcf2 483f 991a 3ab4 cf86 463f
000002b0: 8169 d1ac eaa1 3c3f 60a1 6f9f 4c0a 3d3f
000002c0: 3a0c 62fe 156c 363f eef3 c3b8 44ac 373f
000002d0: 8e6c 7679 845d 4dbe 5077 fbcb 331d 4fbe
000002e0: 78b0 f1ff e494 50be 4e38 03ad f727 52be
000002f0: e50a 335e 46ba 52be 4f08 a7f0 1dd0 53be
00000300: bb9e 4591 90bc 54be 5728 6c63 795b 57be
00000310: e9df 92cf 7d8f 58be 131b 7a38 716f d0bb
00000320: 6a66 934d 6113 033c 4609 00cb bb8d 013c
00000330: fcf6 171e 6a9b cabb 3e23 4bfe 2b4c d5bb
00000340: aed5 4088 8072 7e3b cfd9 bffc 23fa d7bb
00000350: 0d3d 2914 1bc4 0a3c ed0e 1327 e5bb d0bb
00000360: 9ddb b20d 134b 87bf 118f f2cb 9751 83bf
00000370: 4962 e6b2 ac39 7ebf dda2 8364 e47c 76bf
00000380: c568 c23a 2dff 6dbf e4d5 b311 1f26 61bf
00000390: 53a0 ef47 8e62 45bf afcb cc44 b4b2 303f
000003a0: d697 cc1f 7e67 533f 2b24 21b6 12c5 4e3f
000003b0: 9798 c09b 88d1 563f 1473 cfb7 6e89 623f
000003c0: ce29 46b6 3643 663f c372 e7aa 1717 663f
000003d0: 2ada d534 bd1f 703f 299c 3fae dac4 703f
000003e0: b971 25ce 2662 743f 774d d56c 1b52 743f
000003f0: 9160 151a d3a1 c9ba d544 d7b3 905d d3ba
00000400: d9f4 7948 831c d9ba c770 7aa7 9f0b e8ba
00000410: fff0 4375 8a1d e7ba 1fc9 f01c 527a d8ba
00000420: 15d0 0915 0198 deba 5204 c6d2 f859 e4ba
00000430: 731c b913 0ca2 f5ba bf94 0ec5 05ff 6dbf
00000440: 9571 d34e c898 71bf aa76 75a3 a048 73bf
00000450: c31d 8a96 5142 71bf 3f6a b99a 817a 67bf
00000460: d1b9 7627 2750 63bf a13b 661e 0ef0 6bbf
00000470: 6cd4 e077 01a1 6cbf 55e2 240f f81d 2b3f
00000480: e889 ecbc d430 c0be a89a e653 a5c8 bfbe
00000490: 9459 6435 fae0 bebe 9a2d d524 71f7 bbbe
000004a0: 3116 a5d1 8ce8 babe 2ae7 077d 77db babe
000004b0: d1ed a2c2 6a93 babe eee3 d435 4e65 babe
000004c0: d829 821c aed9 babe 351f 2298 abd4 7cbf
000004d0: 0d9c bdbb 885e 7dbf 3712 8045 4ecc 7bbf
000004e0: 275e 33ef 10ff 7dbf b569 7016 f0de 82bf
000004f0: c0ce ebfe f094 82bf 4451 d474 fe4c 84bf
00000500: 2511 9657 2d80 87bf 9c46 1445 b4bf 87bf
00000510: 6c11 5afc ca9b 26bf d1a8 67e4 ed97 23bf
00000520: fe0f 8119 ccfb 11bf 424b ccfd f136 1cbf
00000530: cec0 ff82 fb14 2fbf c019 f594 b49d f4be
00000540: 9907 e831 0040 16bf 3f18 3d9b 378e 183f
00000550: 99b5 f4c1 b6c8 273f 7e5a d01e 261a 4abe
00000560: b11c c54c c553 41be 3772 bfb8 862a 41be
00000570: bcf2 3767 da74 46be c641 9539 0644 59be
00000580: 418d f9f2 5dce 58be 020d cc52 3e03 55be
00000590: d271 176d db87 70be 93d4 0f4b 538c 81be
000005a0: ce34 b19d 02a0 84bf f512 1b87 f8a9 82bf
000005b0: 8926 71ab 037a 80bf b029 7089 da8f 7cbf
000005c0: 1882 3efb 8961 76bf 51b9 24eb 68d2 6ebf
000005d0: b971 05f4 b31d 6ebf 67ec 368f 8bf1 61bf
000005e0: bd1f 0edc 0803 64bf 6d36 54f6 8f8b 6d3f
000005f0: fe37 01f4 e84f 703f 2f28 56ed c8fe 713f
00000600: 579a b727 6348 753f bbbf 8ee0 d0e2 783f
00000610: befa c580 5c30 7a3f 453c 750f 65ff 7b3f
00000620: 708c 6f5f cf0b 7d3f 2340 9956 31a8 7f3f
00000630: 8ad5 6e4b d851 303f f025 f37b 89ef 293f
00000640: d602 70e8 5f56 273f d678 aa26 5f33 243f
00000650: 4a13 a1b0 d15a 2f3f d1f6 ebf4 01e4 073f
00000660: 87f8 10d4 eb0b fd3e 9b1a 35e2 66f3 053f
00000670: 69c9 99db e03b 183f cab7 9a3a 99e9 00be
00000680: 1da4 c77a 23a5 e03d a076 aff5 883b 08be
00000690: 8180 a731 f396 afbd d330 cd61 813f 0cbe
000006a0: ca88 7259 b521 0bbe 4d08 d7f0 7fd8 2abe
000006b0: 3c22 87e0 3367 133e 0db4 126b 1ccb 393e
000006c0: 787a ba48 3e6d 33bf 44c7 b490 6749 3abf
000006d0: 3be3 c870 f027 37bf 8d16 73d6 70ba 3abf
000006e0: e113 a6d2 88a4 35bf b33e 9050 01bc 35bf
000006f0: aa72 02b1 d125 3dbf b91b 2719 b639 43bf
00000700: a629 4bf0 5a88 43bf b56d e4e3 aad3 5fbf
00000710: 6974 3c0b ac2a 5bbf b4d7 4bc2 d6cc 53bf
00000720: 2d88 5afb e3d1 50bf 1398 60b2 deec 48bf
00000730: d604 021d 7c07 46bf c2ca 10c3 fb3f 2abf
00000740: 6826 077d 5638 2abf 005b 2c0a 7320 16bf
00000750: c65f 74b7 3512 c2be 294d d322 2911 c2be
00000760: a954 6c2d b538 c2be 8652 3be5 3344 c2be
00000770: 986f 79b4 6d51 c2be 89af 76a1 4658 c2be
00000780: c12d ade6 3a66 c2be 23e1 2bfa e784 c2be
00000790: a3ad 124f 0a7f c2be e3a2 dfee ec56 60bf
000007a0: 344b c3db 3e72 63bf 7aba 292e 639d 62bf
000007b0: 0fd6 3486 fad8 63bf 5513 1408 697d 65bf
000007c0: 130b c7f7 c915 66bf ea77 17ab c40a 68bf
000007d0: fee8 4e29 bff1 3bbf 0efe 8660 ae74 39bf
000007e0: 2523 4d62 152e cabe 2157 e914 c031 cabe
000007f0: 9b36 13df 2a2c cabe 525c 88e5 393a cabe
-2.810739677269031e-06 -2.813771570077491e-06 -2.846112170356875e-06 -2.8746483461153653e-06 -2.8858055983428037e-06 -2.9122940477344014e-06 -2.8925666350333547e-06 -2.9138029208420206e-06
-2.9127171435942107e-06 0.0002215024904786638 2.842785775665605e-05 7.884762355839812e-06 7.484076148159116e-05 0.00013073417386468377 7.999125976918603e-05 2.0417681705295442e-05
7.121087237931774e-05 0.0002146481259393821 -9.223140543716076e-07 -9.263484929792132e-07 -9.260555856839356e-07 -9.164594857585691e-07 -9.160397879112894e-07 -9.154034512518148e-07
-9.104349330640375e-07 -8.997192973231815e-07 -8.903053680871815e-07 -3.504548457418817e-24 -4.430161089896724e-24 -7.432673173010018e-24 -1.3689981374045764e-23 -1.918648506926805e-23
-2.340767297447725e-23 -1.9756273755004288e-23 -2.2387296759481126e-23 -3.758338834843881e-23 0.0006144264085086976 0.0006943792155048894 0.0006264628542927395 0.0004980090755950445
0.00032808419120789237 0.000277930571570004 0.00021706361228527704 -7.373325660531756e-06 -4.513472891937774e-05 -1.0623219037120562e-09 -1.0776771689624956e-09 -1.0691419674409335e-09
-1.1444953151989854e-09 -1.0941944883807738e-09 -1.068995357549995e-09 -1.1206421165264179e-09 -1.1146718022544696e-09 -1.0917830385861715e-09 -0.008445889606660158 -0.0072405286227198535
-0.006482867872307904 -0.005381141990888966 -0.004037718240906968 -0.003031593549865237 -0.0027061037591051885 -0.0017978308806515023 -0.0010401091237625976 -0.000748312400372235
-0.0006368613963617281 -0.0020439751800007465 -0.000612822954063369 -0.0018818259079708517 -0.002066467819617388 -0.002261712997698936 -0.0017412885894124643 -2.6827527628390458e-05
-0.007184058547383441 -0.0070389705302061475 -0.006707842581976419 -0.005407096124563761 -0.0044045431756821185 -0.0038909471352566944 -0.004724476746573812 -0.004514183186409732
-0.004739891766776195 0.0014060665905600428 0.0012288986153819324 0.0010648589714387952 0.000761373212807704 0.000687457483267223 0.0004368970811065229 0.00044311876939541993
0.0003421357818142488 0.00036122014786582515 -1.3674284634129616e-08 -1.448861863768384e-08 -1.544283633992388e-08 -1.690920720179722e-08 -1.7441470390144042e-08 -1.8452253983251595e-08
-1.931244593533517e-08 -2.17532003200788e-08 -2.2873760639681667e-08 -1.3921258690169988e-20 1.292619946926217e-19 1.1894813708834673e-19 -1.1268540072811692e-20 -1.8039723399071653e-20
4.029663127689063e-22 -2.0309403524384007e-20 1.8137372970839294e-19 -1.417421998264317e-20 -0.01137366185717586 -0.00943296996258128 -0.007379221539303212 -0.005490200194096598
-0.0036617167844044973 -0.002093372995313857 -0.0006526179057546689 0.0002547922238590972 0.0011843425447266485 0.0009390202869862299 0.001392730147026044 0.002262798544036557
0.0027175968736561145 0.0026965582139680546 0.003936518752530685 0.004093984814949749 0.004976417143862149 0.0049611159605150645 -1.6564374102633764e-25 -2.5029308199652874e-25
-3.2455695654911018e-25 -6.215591480524398e-25 -5.975189290310795e-25 -3.1636834959891134e-25 -3.9541516444278895e-25 -5.2607272977816885e-25 -1.1183997205445018e-24 -0.003661643284845611
-0.004296095326222012 -0.004707934850868215 -0.004213637069035272 -0.0028660327277923166 -0.0023575558404538084 -0.003410365653685202 -0.003494742267344855 0.00020688679757953585
-1.930087342742434e-06 -1.8944604814691863e-06 -1.8405209708020886e-06 -1.6669374816754863e-06 -1.603865547554299e-06 -1.6008193491887505e-06 -1.5840439667032104e-06 -1.5733077910042075e-06
-1.6004033671935182e-06 -0.007038755693549882 -0.007170232882208982 -0.006786638019552308 -0.007323328161156029 -0.009214282688891776 -0.00907314565618067 -0.0099124793437474
-0.01147494720022075 -0.011596115453844029 -0.00017248967030892724 -0.00014948634107209713 -6.86019251370795e-05 -0.00010763027189523731 -0.00023713655673374693 -1.966098471697388e-05
-8.48770255075501e-05 9.36719359830593e-05 0.00018145781448579144 -1.215475805599e-08 -8.068619904710002e-09 -7.993596694228959e-09 -1.0457102939635742e-08 -2.3530535385898048e-08
-2.3102500522332404e-08 -1.9569573672499534e-08 -6.158162626314756e-08 -1.3074387575333074e-07 -0.010070820271858596 -0.009113256095028424 -0.00804522387456365 -0.006973127040519264
-0.0054641141795461964 -0.0037624406042119714 -0.003676272841557995 -0.0021903730173256533 -0.002442853263747906 0.0036065875780256136 0.003982458089081929 0.004393372413128246
0.005195987057482108 0.006075683523633242 0.006393777217793937 0.006835360304946529 0.007091341066345 0.007728760459556869 0.00024901896125170046 0.00019787362359684159
0.0001780502391000224 0.00015411888610556448 0.00023921785060756546 4.5567807878994116e-05 2.7700965123716073e-05 4.1867806681629783e-05 9.244499133290663e-05 -4.922183678083539e-10
1.211088429108088e-10 -7.052602767159616e-10 -1.4365308900491697e-11 -8.221269807316797e-10 -7.896356232901104e-10 -3.1252510637733878e-09 1.129411122013459e-09 6.005494477726856e-09
-0.000296428400114047 -0.00040110376785939075 -0.00035333271151531995 -0.0004078412516260531 -0.0003302415886071147 -0.00033164054963295413 -0.00044475907726297204 -0.0005867137099863008
-0.0005960887943612838 -0.0019425553178454684 -0.0016581230274319797 -0.001208505368763363 -0.001026604307675881 -0.0007606589686062225 -0.0006722789785415194 -0.0002002711130742654
-0.0002000432564400079 -8.44068731960905e-05 -2.1542468250472267e-06 -2.1537582798131618e-06 -2.17217380383635e-06 -2.1775265766999607e-06 -2.183685328378424e-06 -2.186873881723386e-06
-2.193371803659825e-06 -2.2076564659656417e-06 -2.204924947143368e-06 -0.0019945743178947247 -0.0023738124565197086 -0.002272313796587708 -0.002422799401439197 -0.0026232768437943013
-0.0026959366498159414 -0.002934822194887045 -0.0004263965323009349 -0.0003884244656795218 -3.1209008447868137e-06 -3.1226083259489153e-06 -3.120008607560379e-06 -3.126555196307796e-06
