dl_experiments/best_checkpoints/retailrocket_1h_CNN_cuda:0_checkpoint.pt (torch, 113691 bytes, 12 tensors)

block_1.0.weight f8 [16, 1, 5]
00000000: 52f6 4cf8 b194 c8bf f7b7 74b8 e8d0 ab3f
00000010: 86d3 a171 53b5 c63f 0986 085c 9308 afbf
00000020: e107 b59c 0634 b03f f456 e333 e484 b53f
00000030: 61a3 c24c 4c62 c33f 053b 794c 54b1 c3bf
00000040: c28e 3e1c beae ba3f 4354 25b9 205a bbbf
00000050: b025 f4c9 a482 dabf 6b34 857a f68f c3bf
00000060: 3a6c 291d 7b24 d1bf 683e 44fe bb07 9dbf
00000070: 191d 1683 8f26 8a3f 1815 843b 8f5d c53f
00000080: 8ac0 442a 94f2 64bf ef55 6bbb 3714 d33f
00000090: 38eb 0883 b0fd bf3f 936c a841 5f6d 7abf
000000a0: 3ffc 68f2 53c4 a1bf cd2d 1e39 e933 c1bf
000000b0: b841 f966 8fc8 cb3f d950 f1f8 30b9 b8bf
000000c0: 269e 9ac0 f6d7 953f 4cb4 0e84 818c c6bf
000000d0: b386 6106 3325 c6bf a3c6 2189 7925 c1bf
000000e0: 06c7 bc02 dd24 cabf 61a0 a72a e9e1 a63f
000000f0: 7ae3 6264 fac1 c2bf 6d66 51eb 235a a43f
00000100: 90ee e9bb 6041 b13f 3519 c39b e4ec c83f
00000110: d3ba e4c1 9c8c bcbf 6fbe 3361 791e b83f
00000120: 710e 9a62 5675 c03f e928 f47f 00c8 c7bf
00000130: 90b4 42cb c673 9ebf ec03 316b ed4f c33f
00000140: dc34 33aa 265b cabf c253 c4e2 75e0 b53f
00000150: 3708 6c36 c339 c23f 8074 a049 753f c13f
00000160: 7408 dc32 e839 c5bf 35a0 0fea 843a cc3f
00000170: 6edc 9b40 4c56 aebf c1d3 7dfd 9c1e d6bf
00000180: cab8 7fdd dda0 cfbf b3ee 3518 8019 c93f
00000190: 8907 5e83 f2f0 a0bf bf9a 9905 eca9 9abf
000001a0: 8997 d25b 26d3 9cbf 4522 5cf9 b872 9dbf
000001b0: f69e 9244 be50 9ebf 1583 4801 7c0d f1be
000001c0: 6993 6d33 9ae5 10bf f888 ad04 61db 22bf
000001d0: 960a dac1 fbfc 25bf 15c6 eaba 96a3 27bf
000001e0: 07c0 6972 e71c 85bf d908 97d5 e6af 89bf
000001f0: 8e61 0a68 cf68 86bf df2d ce02 121c 83bf
00000200: a70a f70a c99b 88bf 229d ee59 2f64 503f
00000210: d404 d39e c9c0 5abf e783 3220 7c50 79bf
00000220: c72d f453 166f 85bf c7f5 24d3 4853 90bf
00000230: bc93 dd0f 2d28 bdbf 5afc 1d00 77fd dbbf
00000240: 6ca6 9cf4 da5f b93f 74ac 870a d033 d13f
00000250: b4b6 7e98 46b6 c0bf e441 9b27 9f7e c43f
00000260: 0c18 cadc 0fcb c4bf 203c 0459 b233 d6bf
00000270: 0c3b df16 d754 b8bf 6bb0 912b bb1c cd3f
-0.19203781723074315 0.05432822467479064 0.17740862892574344 -0.06061230181172667 0.0632938511453456 0.08405901209638583 0.15143731830655852 -0.15384916051922218
0.1042288607555362 -0.10684399147187755 -0.41422385904351255 -0.1528308962100796 -0.2678516182692793 -0.028349816698265334 0.012768860996188057 0.1669177094083032
-0.0025570768213115146 0.29810899069465696 0.12496474455921891 -0.006451961608514928 -0.034700988141132864 -0.13439669884642882 0.2170581105042524 -0.0965757949609868
0.021331649308789967 -0.1761629004298889 -0.17301023303575888 -0.13395613857169505 -0.20424997934019745 0.0446923126763188 -0.1465447416465187 0.03975021598371318
0.06740383708705111 0.19472940068789915 -0.11152057393767771 0.09421499846552604 0.1285808545545595 -0.1857910752081076 -0.029738527446785457 0.15087669118841462
-0.20590670881794082 0.08545624529172272 0.14238777310680614 0.1347490891938925 -0.16582968219160288 0.2205358641506351 -0.05925215042764696 -0.3456184840682078
-0.24709676089645988 0.1960907095161609 -0.03308828214268462 -0.026038825837896292 -0.028149222711952446 -0.0287579443165973 -0.029604885993335515 -1.62626966632189e-05
-6.445649783655211e-05 -0.00014386710457887203 -0.00016775677879728575 -0.0001803514000662676 -0.010309036425695707 -0.012542537110566009 -0.010942097055974622 -0.009330883703817015
-0.012015886923909603 0.001000448457242183 -0.0016328782033244076 -0.006180271974842256 -0.010465788304393165 -0.01594270504687303 -0.11389428746549773 -0.4373452664512506
0.09911888572664801 0.2687873938400067 -0.13056261488002507 0.16011418756399032 -0.1624469593118082 -0.34690531437894556 -0.09504455860517796 0.22743930461308834

block_1.0.bias f8 [16]
00000000: e78e 973e 3dc4 88bf a912 10c6 2b3a 90bf
00000010: a130 df15 57c5 c13f b4bc a46b d083 dbbf
00000020: 4dd6 0106 c7e4 83bf 86b3 1d09 fd6d c13f
00000030: 00ed 3aa2 01e8 91bf 9b55 4683 54da b2bf
00000040: 6559 b113 da30 843f 36b7 347c 0725 ab3f
00000050: add3 193d c239 a1bf 4cf2 c283 e94d 3dbf
00000060: e227 2ba9 62ad 98bf b4fb ca06 2747 73bf
00000070: 88b0 d333 de6a b13f f2d5 efce 79f0 b23f
-0.012093046639115325 -0.015846904720109 0.13883484428368312 -0.42992029678402877 -0.009713702078651876 0.13616908021085922 -0.017486596609825433 -0.07364395337056921
0.009858802534080177 0.05301688567338518 -0.03364378925190379 -0.00044714880983657136 -0.024098912787657308 -0.004706528136636235 0.06803692593865851 0.07398186971825974

fc.weight f8 [12, 368]
00000000: 79d3 a739 6414 b53f c0f8 2d5f 02e1 ae3f
00000010: fc6a b351 88f8 783f dff6 11fd c732 93bf
00000020: 26ee ba08 43c4 6abf 4359 9d0e 5d72 83bf
00000030: ed4d 3125 4e9d 7dbf 054b dede 21b7 273f
00000040: 9014 5e7a 00b3 5b3f 176b 969a f677 493f
00000050: e87f 10c0 de91 61bf f66b beaa f7fc 933f
00000060: c3ec 55c0 476f b63f 315a e6ab fa42 bb3f
00000070: 404a b75c 8a38 7f3f 07ad b40e 7cc8 663f
00000080: 8b8c c00d 1808 9b3f 423e d20f db16 b33f
00000090: bde1 79a4 49c4 b73f 8960 8b01 d8f6 be3f
000000a0: ccbb a3fd 9496 ca3f 935d 04aa ccd8 d83f
000000b0: d526 a140 199d e23f 2238 b6e9 baad d33f
000000c0: ca31 7066 e82a cf3f d343 84df e8a2 cb3f
000000d0: 1f30 9216 751d c03f 0a64 f1fa 95cb a13f
000000e0: 76fb cb2a 562d a63f f083 1414 2f12 973f
000000f0: dfc5 639b af6e 80bf d92c 924a 8fd7 8c3f
00000100: 9349 cbe7 361b 86bf f2ee ecd2 ca87 7bbf
00000110: 312f 1b27 1d2f 63bf 48f8 2b0c cb82 81bf
00000120: 19f1 f2d2 616b 65bf 0c0f 5b6a 4981 413f
00000130: 0dc9 6b25 e86c 803f 3144 d204 75a6 6d3f
00000140: 2b23 d21b e089 8f3f 2bd3 9370 dd44 813f
00000150: 168d ad91 b484 6ebf e768 75d3 f92f 90bf
00000160: 3817 8e66 99c9 893f 2ca2 9cf3 9d95 7f3f
00000170: a54d 1bb9 a861 693f 83bd 9c91 c0a0 6fbf
00000180: f5ff 8e0e 31bb 6cbf 73ce 558e 584d 74bf
00000190: be34 5564 a133 7f3f 92f7 7744 fe6b a23f
000001a0: 0e30 5073 b7a6 c13f 4d68 9d22 0811 c43f
000001b0: b718 3688 0a04 bf3f 6668 4925 e0d1 a23f
000001c0: 5219 ed2a 8ad4 9c3f 5cac fc0b c4a0 a93f
000001d0: 4520 95d1 5778 b53f 4115 0f40 40e6 bb3f
000001e0: 9e17 a14b fe96 b63f dcde f6e5 b8fb a93f
000001f0: 46f3 70ca 4fbe 9f3f 5fbb ddf1 2f50 b83f
00000200: 9c9c 59df a420 ba3f 70b5 98b4 2c2d ab3f
00000210: cb12 a9f1 4f36 a63f 3e93 245c 7162 8e3f
00000220: ebd9 0526 716e 7dbf 9e84 77d5 27ab 65b9
00000230: 5156 e9cd 0e97 c53f fcee db91 963a c43f
00000240: c470 8833 048d c63f 2873 0ffa 017b c83f
00000250: 3708 f71f 850c b13f 868c d628 5ce8 923f
00000260: 9da9 f14d 406b 893f 0a8c 287c f4af 72bf
00000270: 8341 055a 2d25 5c3f f952 2e51 81d3 83bf
00000280: d0ab ab39 84cf 8bbf 3b42 2490 c9b9 723f
00000290: 0184 a0ba fb3c 96bf 8ffc 26d7 6db7 96bf
000002a0: 4667 ea9b 7278 b13f ee43 68b7 57b4 c53f
000002b0: bba9 53a7 1a43 b73f 86a7 b1c2 3a31 b13f
000002c0: 7cc5 4eda d19c 943f 1e9c f7eb 89dc be3f
000002d0: 431b 2198 54a1 ce3f 5b1e 3c6a 17ca d53f
000002e0: e354 93d8 ab73 c83f 7862 abc3 88b1 a03f
000002f0: ccf4 e892 0b34 bf3f 78f3 4133 584e b53f
00000300: 0f7f b0bb deb8 a4bf 3731 05e1 fdf1 733f
00000310: 952c 4a57 dcc1 603f c32c c0c8 8ad8 ad3f
00000320: 4433 95d5 60f2 b23f 82f4 d7a8 6c6f be3f
00000330: 6932 fe65 406c a33f 20f2 c22f 0f57 a33f
00000340: 27b0 3ad7 a20f 73bf e23b 8446 e847 6fbf
00000350: fceb 7dd0 8423 a4bf bb2c 552e d2f7 9b3f
00000360: 7155 8353 b8f5 b33f 9bc7 3064 cb4d b63f
00000370: 7b82 e7ab a68e a83f dbd3 9a39 e788 93bf
00000380: 5fac a478 1f59 ae3f 4c63 efa7 318b a83f
00000390: ba2a 46c8 14f9 e13f 251b af8d c2b5 553f
000003a0: c478 c3bd d5b0 71bf 30f1 30aa 7a21 4fbf
000003b0: 5d02 2df3 4481 7abf b16b 7137 f23b 863f
000003c0: a304 c0ac 990a af3f 57fd 3f2e ba46 c23f
000003d0: 2d64 0f71 6211 c33f 1f33 52d2 d328 bc3f
000003e0: 2cbb c3b8 4096 b33f a03e 893d 5f57 ae3f
000003f0: 224b ede3 77fe b33f 58ff 5a85 c838 b63f
00000400: 518d 1551 8e51 bf3f 8f23 5aa8 0e3a b43f
00000410: 1a65 724e 61d0 b13f 1f1e 07b5 204f ba3f
00000420: c487 afe6 0d7b bd3f 4485 a537 73c3 b13f
00000430: d829 f79b 896e 953f 0e80 2718 ebea a03f
00000440: f4cb 35cb 6a7d 73bf f6ea 5e4f 093c 71bf
00000450: d333 4997 8d9a b73f 578f 4897 8af2 b63f
00000460: 5f80 3280 84ac 723f 5a0f 426c 94a1 85bf
00000470: 02ea f238 3177 63bf 2f12 bf84 70e3 74bf
00000480: fade 2208 0f80 62bf da11 9bec 2c7f 5d3f
00000490: 3dcc c34f e294 7c3f d9df 1282 f515 8abf
000004a0: 6915 2a84 75fe 71bf 80d0 5e4b f10d 963f
000004b0: 8c2f 0ba0 9ad4 b33f 0b9f 3056 d73c c23f
000004c0: f754 0ee9 0557 a43f d1c9 9fb7 f76f b53f
000004d0: 84fd 98bf 6b21 993f 92fb 9812 d5af 7c3f
000004e0: 8760 3545 8832 99bf 7e46 825a 9c92 943f
000004f0: 9000 98b0 c866 6b3f 18ce 22a5 608a d03f
00000500: e2b0 fd61 102d d23f 8c35 bedd 362c 703f
00000510: c35c 18a2 d386 b83f ba18 7062 5403 ba3f
00000520: 924b f788 fd3d c53f 9816 59c5 c794 c03f
00000530: 8b19 c76c df20 b53f 5606 5644 f69c 8fbf
00000540: 13e1 da2a 358a 82bf 0c08 34bf d6d9 95bf
00000550: c0b1 b8ad ab86 6f3f 451a 65f2 23b3 4e3f
00000560: 3198 eb28 037f 7ebf 09e1 ad55 4062 92bf
00000570: 9054 84de b623 8ebf dd39 7e00 d33f 72bf
00000580: 20f7 f16b 2790 813f a15d c75f 299c 83bf
00000590: cc5a 75a0 7389 943f 13a1 e33e ec0a 563f
000005a0: 757a c6ed 0506 c03f f8cf 8694 1abe c73f
000005b0: 9ebb d816 ebc1 d13f 2673 eebc c2d0 813f
000005c0: 0dbf 2728 c3ee b13f 8877 bb0c b9eb b33f
000005d0: 9d1b f83c c6c4 a43f 8255 23fb 7bd1 90bf
000005e0: 697f c1a2 b059 74bf e1e8 154e eda7 61bf
000005f0: d056 db04 e4d9 7dbf 8841 cc60 86b6 65bf
00000600: 31a9 50f9 200d 7ebf 77fa 3583 9856 79bf
00000610: aa97 d5f9 385b a5bf b461 0610 fc9a 963f
00000620: c8c9 b0bc fdee b03f 0c72 58da a59e ba3f
00000630: c6ff ce84 709e 8f3f 950c 0c7a b254 9f3f
00000640: a582 f252 01a4 78bf d9c2 5f31 e6fd 6ebf
00000650: ca81 a065 3d75 82bf 5203 7fdc 387c 9cbf
00000660: e666 d2db 873e a6bf a914 6df6 ba40 c33f
00000670: e109 6887 b9ee c83f 75fd 01c8 3b47 91bf
00000680: cf7c 3634 068a 86bf 4326 5cc6 9665 623f
00000690: 4b6a e553 3b55 8e3f 0cae e17a e922 a43f
000006a0: a9ef 15c7 621c b53f 83ac 9dd7 d397 c53f
000006b0: f185 5e81 480d bf3f 9aec e7a1 69f0 c23f
000006c0: a4ef 33ee 86d8 c13f 22c6 e9cf 7131 bf3f
000006d0: e4f0 111b 6dbb c23f ab73 4a50 4b50 bf3f
000006e0: 8262 f083 f59a c03f 66c1 67be 0c6a cc3f
000006f0: 5f73 2c37 76c9 ce3f 9581 5512 479b c43f
00000700: 5dc3 44a9 608d b73f 4658 bcac bb56 a83f
00000710: ccaa 2b17 64eb 7a3f 960e 9e13 5421 72bf
00000720: c31c 54dd 7263 75bf 1e12 62ed 6e4d 89bf
00000730: 561f 19be bbb1 533f 9178 0823 d006 1bbf
00000740: a9a9 bda6 e7a6 4bbf bc5f 6106 bd65 74bf
00000750: 53cd 58cf d49a 7ebf 7fcf 5918 eeb6 70bf
00000760: 9e9e 308d bc93 8ebf 53d9 15b2 722e 94bf
00000770: 0915 e991 4737 91bf 499d e284 8da5 83bf
00000780: 542d cbad 3df8 94bf 1e27 27b2 914e 6b3f
00000790: 1ec2 1a11 3f47 8cbf 81e8 41a9 50bb 8dbf
000007a0: f6e1 bfa4 1a6f 7abf a8ec ecf9 8692 883f
000007b0: 1964 68ec b9d6 90bf 4474 5125 8ee6 99bf
000007c0: 3ce4 b2f4 6a17 613f 59a3 cfaf af02 8abf
000007d0: 3694 9ad9 6c45 90bf 3714 508c 877c 5bbf
000007e0: 92c2 917c c3b1 673f 0479 c11e e8f2 d8b4
000007f0: 8ce0 85a7 8804 313a 418a 3471 9b19 f834
0.08234239966971114 0.0603104344545371 0.006096394058853202 -0.018748402424981655 -0.0032674130687533496 -0.009495474823478239 -0.007230096106542555 0.0001809338422701022
0.001690626589579556 0.0007772401924513753 -0.002144751605115392 0.019519681736351623 0.08763550229734833 0.10649077126286312 0.007622280575974971 0.002781145381637654
0.026398063506473817 0.07456750046025554 0.092838862090395 0.12095403707223985 0.20772039780373885 0.3882323894808561 0.5816770803732775 0.3074786455480326
0.24349694253795767 0.21590910829448137 0.12589896776296514 0.03475636184948179 0.043314640735835505 0.022530303574175237 -0.008023616723650427 0.014083022559381696
-0.010794094990534108 -0.006721298485725434 -0.002341801585179847 -0.008550249394371559 -0.0026146803498631297 0.0005342110132109125 0.00802022327613774 0.003619411995324139
0.0153996952524423 0.008432130811777924 -0.0037253882159561475 -0.015808013469133988 0.01259155124877119 0.007711045263740373 0.003098325288058939 -0.003860832320149833
-0.003507228674124003 -0.00495657531915904 0.007617597996909696 0.03598017297552682 0.13790028696564643 0.1567697686212476 0.12115541291686581 0.03675747351799501
0.02815452467918906 0.05005467077565903 0.08386753908882934 0.10898210109651975 0.08824147554795878 0.05074861342603551 0.03099941895583249 0.09497356085715357
0.10206060841447812 0.05307903008029313 0.043383119821134374 0.014836202263333594 -0.007185403810913797 -3.3385728369166807e-32 0.16867241911193046 0.15803796884562604
0.17617847934969266 0.19125389776208945 0.06659729032892946 0.018464508049544047 0.012411596659337937 -0.0045623350329462384 0.001717848099435399 -0.00968075779909715
-0.013579400072066067 0.004571711879422009 -0.021717007890519117 -0.022184101349691118 0.06824413591894282 0.16956612067636406 0.09086767754676021 0.06715743306418007
0.02012946982330764 0.12055265437048532 0.2392984144991833 0.34045968412872235 0.19103000712372084 0.032604478726800445 0.12188789688748897 0.08322669268996019
-0.040472946559246485 0.0048694531581754885 0.0020455649885825025 0.05829271030969487 0.07401089872764738 0.1188877021995314 0.03793526883155069 0.03777358491922578
-0.004653583618772251 -0.0038184677724823904 -0.03933348698679848 0.027312549665378976 0.07796814001934195 0.08712454982813116 0.04796334122125231 -0.019076931849401162
0.059273704029998646 0.047936965703860496 0.5616554175952253 0.0013250732360902764 -0.004319033552944333 -0.0009500359486831807 -0.006470937095230581 0.010856525723445505
0.0606277488113929 0.14278342493342208 0.14896803398622308 0.10999797711174296 0.07651142607549549 0.059260345708591844 0.07810162844297655 0.08680394416569237
0.12233819465250419 0.07901088342818084 0.069585878040375 0.10276989383339029 0.11515890962576153 0.06938858135756215 0.02092947973668821 0.03304228467800395
-0.0047582790024191975 -0.004207645766593817 0.09220204299454275 0.08963838761752406 0.004559056836257096 -0.010562095216534995 -0.0023761712432961444 -0.005099715734051587
-0.002258328780125993 0.0018003405297558534 0.006977924375166697 -0.01273719599917904 -0.004393061683577095 0.02153756163143372 0.07746282965962176 0.14248172482006569
0.039726433467118065 0.08373974068653146 0.024541553086462567 0.0070036242628352 -0.024606827949668755 0.02009052565023816 0.0033449096415552673 0.2584458935409386
0.28400048798972766 0.003948416062383397 0.09580729205514431 0.10161330607670296 0.16595429599564376 0.1295404161084448 0.08253284841257462 -0.015436099968385946
-0.009052672739344325 -0.02133880178462992 0.0038483956430097332 0.0009368825456384586 -0.007445347159523095 -0.01795292399353435 -0.014716557183911655 -0.004455398775361688
0.008575733167386412 -0.009575198398052378 0.020055586498837027 0.0013453776442081164 0.12518381223795286 0.18548900844837113 0.27746083479990513 0.008698960676889533
0.07004947405198099 0.07781559525343884 0.04056376928570347 -0.016424119189499382 -0.004968347533662023 -0.002155269132967694 -0.0072878748885238515 -0.002650511224040201
-0.0073367393534147654 -0.006186099769705514 -0.04171159791694319 0.022075594404300694 0.06614671570495212 0.10398327427578397 0.015438918164249926 0.030596531581079296
-0.0060157825202230885 -0.0037831779436533317 -0.009012679733189883 -0.027817619760529162 -0.04344582136509505 0.15041291267894977 0.19478530036583577 -0.016873296816354483
-0.011005447834405406 0.002245707018009553 0.014811004159743698 0.03932885766047542 0.08246438370218691 0.1686959078609541 0.12129643591335772 0.1479618111187378
0.1394203818416574 0.12184821439748153 0.14634479352742524 0.12231894216752319 0.12972897474607598 0.22198638245709928 0.2405231255915181 0.1609886970063711
0.09200100071462942 0.04753672107305866 0.006572142580561557 -0.004426315712297365 -0.0052217947861727424 -0.012354723567349398 0.0012020429061454139 -0.00010309834829811045
-0.0008438712224976735 -0.004979837778670001 -0.007471877373564101 -0.004080705699028075 -0.014930222567343162 -0.01970843517252636 -0.01681243732516172 -0.009593110673746923
-0.02047821400883028 0.003333363115619727 -0.013807766637314475 -0.014517431416823936 -0.006453613354090218 0.011998228551979587 -0.016444115690408354 -0.025293561008187262
0.0020863617879425516 -0.012700436165646133 -0.015889836102946663 -0.0016776393615611904 0.002892381486667547 -4.069971772666896e-54 2.147937001239299e-28 1.5726002110417569e-53

fc.bias f8 [12]
00000000: 3f33 4494 e0f4 a13f 5535 a9c5 f53e a23f
00000010: fadf 67f0 a734 a23f 9f40 4f79 57ce a33f
00000020: 386f 0260 2123 a43f 1af6 6d69 e56d a63f
00000030: 7f17 734d 26de a73f 8b9b 947b eb6e aa3f
00000040: f937 d18f 5db0 aa3f 6f73 7ae1 2138 aa3f
00000050: 6c9e ddc2 f3fa aa3f 8bbf 341b ae48 ac3f
0.035071390246321325 0.035636597040687924 0.03555798349037782 0.038683637197779 0.0393305234622105 0.04380719100934645 0.046616742090505696 0.0516275013308621
0.0521268117960147 0.05120950581952043 0.05269586328250572 0.05524200517754626

exp_avg f8 [16, 1, 5]
00000000: edb1 2746 8bdc 93bf 671f 409e 9f37 96bf
00000010: 9cf7 c8d1 9c7f 95bf 5f5e 599a 897e 93bf
00000020: ce83 7049 55a3 92bf f181 1a50 9f89 89bf
00000030: 8cb8 b914 cb2e 8abf e24a ab65 166b 82bf
00000040: 16e6 351a 2b13 80bf 4152 6257 09f2 81bf
00000050: c6fc dbb1 edf2 38bf 3f0d 1b8b b3d9 48bf
00000060: f93c 9685 8224 64bf cd6f b7c4 9801 70bf
00000070: ce0f 36ef e52a 74bf c703 ae36 ad57 4b3f
00000080: 83f5 6969 8c86 523f 4498 1b4c bdbb 453f
00000090: 3ef1 dd56 b5fc 31bf 86f8 d779 d05c 363f
000000a0: d5a4 d8ce 183f 353f 3ca8 f4b5 5d45 5bbf
000000b0: da98 912e d33e 70bf 341e 9f4d 38b9 67bf
000000c0: 307d 604c b17c 73bf b763 8df0 c5b6 583f
000000d0: 26ec 21ef e00c 303f 2cf9 627e 7865 45bf
000000e0: 5fe7 0d77 73fd 6abf b751 2c72 56ca 76bf
000000f0: ad0b 00b2 4f9b 8b3f f711 74b8 2a05 8b3f
00000100: 72cf 0489 23dd 863f 0f61 185e b3a7 783f
00000110: 2041 c0f2 873f 683f 36e8 8158 5ad6 6cbf
00000120: 2dc5 248a 669d 78bf 37c4 5232 c0ec 78bf
00000130: 7b5b d73e 9f15 75bf 36f5 dd0c 8c55 74bf
00000140: 9275 dc03 1ca4 6f3f dfca 748f a2d6 673f
00000150: c3d1 3366 5122 6b3f 9966 f80a 401a 4a3f
00000160: 34a7 0a69 d198 533f 95c4 3de7 8f15 66bf
00000170: a12f e8d4 0175 59bf 3f91 ea42 7649 54bf
00000180: 8bf3 9fad 319b 70bf 11f5 a1c9 8e03 7bbf
00000190: cd37 e966 f6c4 cbbe 5284 dd5c 2ada c5be
000001a0: 6dda 9085 859f c7be e93c 7122 4c22 c8be
000001b0: 9f2a 29cb 5dd8 c8be 20e5 804a 429f 1dbe
000001c0: e0f6 9076 66ff 3cbe 71b2 b228 f814 50be
000001d0: c008 2d1c 55ba 52be 2562 1050 2821 54be
000001e0: e9a2 aa8b 2550 b1be fcd3 68a5 2e10 b5be
000001f0: e0d3 0ae3 1960 b2be 44bd f3cf eb56 afbe
00000200: 05bf a1d2 352e b4be 3612 be91 03e3 7a3e
00000210: eb9e 49e6 0cf1 85be 0125 9e2f 45c3 a4be
00000220: 9e3d 85aa 5095 b1be beb2 e382 c8c9 babe
00000230: 5040 e0eb e355 55bf 0671 dc01 2d41 5bbf
00000240: edc4 3741 d0fd 70bf d692 ac76 71d7 7bbf
00000250: 49ce 9906 c136 73bf c7cc 3fe4 f0f5 7abf
00000260: 7d65 9e77 d8ed 74bf 4ec7 8e70 4fd4 72bf
00000270: f4b4 af0f dd9e 7dbf 839f 2aa3 7119 81bf
-0.019395996243405312 -0.021696561845629427 -0.020994615844976403 -0.019037389798852163 -0.018201191527740516 -0.012469524986330223 -0.01278456360816118 -0.00899331567544465
-0.007849060761816278 -0.008762429217577085 -0.00038069060416030494 -0.0007583738972346889 -0.002458815503537101 -0.003907772781044328 -0.004923723393748204 0.0008344264764304992
0.0011307116707535987 0.0006632494261935647 -0.00027446200589744177 0.00034122552628435725 0.0003241954389943795 -0.0016644873756583986 -0.003966164521534499 -0.0028959369346670764
-0.0047575879780475255 0.0015084202770678631 0.00024490825229123365 -0.0006529653881200185 -0.003294682996451678 -0.005564057998317321 0.013479826564440101 0.013193448785849589
0.011163976305944099 0.006019306807069093 0.0029599814643078842 -0.0035201801838953507 -0.006009483857540671 -0.00608515812670967 -0.005147573521262379 -0.004964396544776142
0.003862433163603193 0.0029099631316510245 0.003312262518756466 0.0007965862950555957 0.001196102621330697 -0.002695828496080364 -0.0015537755858785268 -0.0012382178207782227
-0.004054254584841109 -0.006595189823312767 -3.3103686328033725e-06 -2.6049862986020876e-06 -2.816096678982894e-06 -2.8769939209093967e-06 -2.9617763968361046e-06 -1.7242334591476566e-09
-6.751543193493179e-09 -1.4977447321153653e-08 -1.744167988792593e-08 -1.8747077671576882e-08 -1.0319395601731725e-06 -1.2554652549904852e-06 -1.0952588917316158e-06 -9.339909467202764e-07
-1.202852056649636e-06 1.0016103540843377e-07 -1.6347768218575582e-07 -6.187788976634894e-07 -1.0480440924726205e-06 -1.5967020874876643e-06 -0.0013022161288098917 -0.0016634883426781002
-0.0041483054114774655 -0.006797259537766739 -0.00469088936516788 -0.006582203848654439 -0.005109639716374456 -0.004597006140942229 -0.007231582184414654 -0.008349311630197814

exp_avg_sq f8 [16, 1, 5]
00000000: 68e1 8d14 a8ab 7e3f 9a3e b6f3 83f1 813f
00000010: d721 1ec0 f02c 833f 526a 654d f104 7f3f
00000020: 045a 42a6 f571 7f3f e8af 2ad6 10b8 6f3f
00000030: 633f 68ff baa9 6d3f 0c27 7d3f bfce 683f
00000040: dbac 64b4 f915 673f b8dd 3339 07e8 623f
00000050: 9bb6 a05d a62f f93e 4d31 0f35 c0cc 003f
00000060: 024e 5fce fe7b 173f 9776 4c64 69f7 223f
00000070: 568f ca94 9238 313f f8c4 2230 ced6 623f
00000080: a8ea 85f6 2f96 643f fe27 865d 9b0b 663f
00000090: 35e7 570a 04f2 643f 4c03 1d2a a873 623f
000000a0: 4212 9f02 6f59 4d3f edca 861d 60ee 533f
000000b0: 847f 17d2 56ff 5f3f 6195 6ed4 ef21 5a3f
000000c0: 7977 2249 2db8 5f3f 00ab 174f 51fd 143f
000000d0: ec94 713d 5c2b 063f 1c6b e718 42ca 1a3f
000000e0: 2fea 22db a7e4 223f 7679 48f6 8a62 343f
000000f0: 3093 3b47 d5a3 7a3f d172 3473 36e4 7e3f
00000100: e363 49dd ae18 803f c0d2 170a ccd4 7f3f
00000110: 41a7 9f51 632f 793f a050 4a0f ebe7 683f
00000120: ae77 db57 ff9a 6b3f 2c75 317a 9d22 6b3f
00000130: 3e7a 2ad4 d609 713f 031a b5d2 b579 753f
00000140: 0763 55e6 2919 723f dcc3 f1d9 53d9 743f
00000150: ef01 1890 83bb 753f ab7d 8bf7 bb71 753f
00000160: 2bfb ab67 8865 733f de3d 2bdc 1996 593f
00000170: 61e5 0b2c 70b9 4c3f e3c5 5a0f 0d47 3f3f
00000180: 62b3 82f6 4fe0 383f ede4 9b85 3d16 483f
00000190: a1ad aaab 1108 d33e e2d3 5208 4bf4 d63e
000001a0: 91ac 26f4 62b1 d73e 71ff eca7 91b4 d73e
000001b0: 9f6a 5f16 dfcb d53e 744d 5921 b82c f73d
000001c0: 5641 41df a0d5 013e 096f a89a 9247 073e
000001d0: 343a 218f c8c7 083e 7c72 33ab 330b 093e
000001e0: c66e f315 7e5f b03e f9f6 ec8a 5cb7 b13e
000001f0: de74 d270 9bfa b13e 5a34 bc4f b7aa b13e
00000200: 8414 03c1 7eea ad3e cd49 9347 7787 a83e
00000210: a7ef a480 bc78 a83e d7ed 9ce4 6d5e a63e
00000220: 5ba4 c3f7 d9e4 a03e 158f f8be da7b 9c3e
00000230: 3cfe c0a6 7f4d 253f 8c8d e3c3 70dd 333f
00000240: 1216 edc4 f532 483f 389c 8daa 61d4 553f
00000250: 3530 bf44 c3c4 593f bf4d 5173 9e53 483f
00000260: f5aa 0a47 5c91 3e3f 72a4 448b 5608 3c3f
00000270: e389 a915 94b2 443f bdab 146f 77ce 513f
0.007487923205978887 0.008761435389515616 0.009363060820548092 0.00757307299348982 0.0076770396882666105 0.0038719490851999334 0.003620972852566172 0.0030282721817557253
0.0028180958789981564 0.0023079053004228765 2.4019367494235345e-05 3.2043090534369414e-05 8.958571160571502e-05 0.00014470254441161366 0.00026277140276874855 0.002299692831990382
0.002513021161744195 0.0026910814742153724 0.002556808368123687 0.0022524151289932456 0.0008956710855661592 0.0012165011049602395 0.001952967439471793 0.001595005234528678
0.0019360010378827992 8.006867189861919e-05 4.2284729425282264e-05 0.00010219601083553655 0.00014414357207733058 0.00031104939105999015 0.006503899686980216 0.007541859336268345
0.007859579208501393 0.007771298436172358 0.006148708309391016 0.003040274716406513 0.003369806973622289 0.003312404225239837 0.004159773993392122 0.00524302506102581
0.004418529196606575 0.005090072197263287 0.0053057803320375315 0.005235418554291919 0.004735501129060886 0.0015616657771494384 0.000876598140251133 0.0004772574314798312
0.000379580995750575 0.0007350731277419288 4.537467868697034e-06 5.4727244151357805e-06 5.648831406561366e-06 5.651795276062511e-06 5.196660230989219e-06 3.372360458151255e-10
5.190518557582749e-10 6.775249712965147e-10 7.212046778007949e-10 7.288692621693169e-10 9.759079018710857e-07 1.0559711360458959e-06 1.0716279945984857e-06 1.0530268914094656e-06
8.915661755751213e-07 7.310260478294326e-07 7.293112969440362e-07 6.666441063405489e-07 5.03478971872487e-07 4.244417927975992e-07 0.00016252692455685943 0.00030311587387484777
0.0007384967846994514 0.0013323739787780686 0.0015727908057554644 0.0007423900302775884 0.00046642783039867126 0.00042774308100718757 0.0006316397733139824 0.0010868231150406992

exp_avg f8 [16]
00000000: 5a8e 5d77 b0ff 9fbf 55c8 b08e 87d7 96bf
00000010: 2695 7606 bdbf 88bf a191 a0ff 14cc 523f
00000020: 0e70 9f3b ca2d 7ebf 263c 767f e1f7 79bf
00000030: 06e7 a40b 7f93 923f 3edb 6aa6 763d 373f
00000040: 3420 b809 ac7d 8d3f 8061 f585 69f7 92bf
00000050: e25c e621 793a ccbe ff9a f256 d1c5 68be
00000060: 3742 1a7c 6239 c4be cb6e 8868 4f9b 9fbe
00000070: b1e8 2e93 ba3d 81bf 2e4a a0b0 2442 99bf
-0.031248814855088326 -0.02230655487455409 -0.012084461936704271 0.0011472897590546277 -0.007367887470504554 -0.006339913226283611 0.018140778623297237 0.0003546156571405007
0.014399856611831387 -0.01852192764394678 -3.3650888006765085e-06 -4.6142797021939414e-08 -2.41090762715553e-06 -4.7097623981512677e-07 -0.008418519608188598 -0.024666379242328222

exp_avg_sq f8 [16]
00000000: 1894 12d1 6ed3 a03f dd6b f97f f5b6 863f
00000010: d9d3 110b 09d6 6e3f 6799 a36c e279 6d3f
00000020: 45cb c80d 528a 7c3f b41d 3814 fb61 793f
00000030: 43a9 94bb dd30 963f a84f b8e9 53d6 883f
00000040: 94b3 b18f 1cdf 9e3f dad3 9e89 026a 923f
00000050: 1cf0 ace8 f523 f73e 46fd 6338 d19d 123e
00000060: 9fc4 6384 d12f d73e b1a2 5db5 f37b c13e
00000070: e23b 622b 76fa 893f 3c54 b1ff b138 873f
0.03286310484080718 0.011091154067960513 0.0037641693712040345 0.0035981581068994964 0.006967850230057253 0.006196957375784452 0.02167078454400807 0.012127547807757669
0.03014797808684795 0.017982520723041386 2.2068472883093976e-05 1.0836213884208558e-09 5.528161699284609e-06 2.084277563808454e-06 0.012684748839346175 0.0113386064678399

exp_avg f8 [12, 368]
00000000: 7cd6 dba4 4087 33bf 71bf 2f9f 5fc5 11bf
00000010: aba9 6bb3 1ac7 2ebf f26d b521 00c2 373f
00000020: 2271 6704 637c 483f a205 e4aa a1b6 4c3f
00000030: be22 8602 9f40 2ebf f15f d861 27be 5dbf
00000040: 4b78 0552 ea37 49bf d29e e1ad cd6c 443f
00000050: 0b18 b449 9886 4a3f bccd 9fc9 791f 393f
00000060: c773 fffb 3977 163f 18e4 82e6 8db2 2ebf
00000070: c90a 92df 5b1b 283f ffd1 b464 1044 3bbf
00000080: e1ee ab49 5f2d 33bf dd6b 07c0 a92d 44bf
00000090: 8d2e fa5d c356 40bf c7c7 a6a2 99d9 34bf
000000a0: 2e9e 3a71 efd6 00bf a453 a066 c61e 12bf
000000b0: f832 a9b4 2883 0b3f fbcb 648a d775 02bf
000000c0: d78e 893f e414 3fbf 02bf 1f05 11df 17bf
000000d0: 56af 5bb7 cb05 28bf fcc1 bc48 b654 083f
000000e0: 9fc6 e56b da69 fb3e 7477 bf9a 52aa 073f
000000f0: 352b 630b 21b7 55bf fc0c 6a97 2808 34bf
00000100: 6c22 37bd 325a 54bf 6c20 5fb3 53fc 52bf
00000110: f920 002d ca09 443f bb37 959a 6828 22bf
00000120: f743 f132 056b 453f 5485 7549 1791 2cbf
00000130: dd3e 92d1 3f8e 483f 73c4 c084 d6dd 45bf
00000140: 1415 bbf9 2ef2 433f 84be 6cfa a4e6 4ebf
00000150: 98ea 4f1c 8dbf 4fbf 4edc 6eae f3e9 5bbf
00000160: 37e5 dd50 ecc2 4abf 8890 db9a 1fe8 50bf
00000170: 8d44 5761 91c9 5b3f 24b9 7c50 ea61 54bf
00000180: e5b4 5252 bf8e 5f3f cc44 07e7 cdc1 61bf
00000190: 1830 ed85 6bc3 4c3f 883d 2321 9468 263f
000001a0: d7c5 7ba0 922d 363f f1b8 03e3 f242 163f
000001b0: a8ae 1ffe 6260 08bf 0f34 acb8 f3bd 25bf
000001c0: c25c f17b 3bbf 39bf c9b5 cc82 b442 42bf
000001d0: b16c b67c 523a 29bf 2a64 d1cf a9d1 3dbf
000001e0: 1072 f2c4 a71f 3bbf 03bb 11b3 1d9f 3abf
000001f0: 8e51 cdea d47e 21bf 4d3a 2bd5 290c 243f
00000200: 34fd 161e 7752 363f c190 5ef4 d79a 433f
00000210: c18f c018 c9cf 1f3f 05ad 6b63 54f3 473f
00000220: 16ea 80fe e889 563f 1c99 cfb7 1342 a1b8
00000230: 774a 5124 5283 0e3f 40e8 91de ae0a d5be
00000240: 0e12 a037 6bc3 22bf 5abb cf2c 5a2d 41bf
00000250: 7758 7d51 857e 10bf 337e 629a aaf1 44bf
00000260: d79b 949d 9e61 493f 8eb2 376a 36e0 293f
00000270: f928 52ca 11a9 323f 4f0c 0029 91d6 523f
00000280: 8c37 e23a 52b4 4e3f 48ad 5134 4bda 433f
00000290: f129 f09b a443 473f 616e 52fa f6a9 3d3f
000002a0: ac40 af7f e30a 393f 5ba0 f628 ab8c f93e
000002b0: 63d1 36d7 645c 1e3f f5c5 2973 deae 0f3f
000002c0: 59fe 00f8 d131 e53e 88c3 fbcc c8e8 24bf
000002d0: 875d c98d ad46 f63e d9b5 b7f7 2d80 01bf
000002e0: 7346 dbcc 95b1 163f db3f db77 be3c e23e
000002f0: 3928 75ec 4951 d4be 0442 d3a3 71eb fbbe
00000300: 3091 50a9 6467 0b3f 4338 687f bf16 07bf
00000310: 9ca4 e940 92b0 0bbf 1bc1 cefa 70c8 163f
00000320: df42 441e c483 f7be 70fe 5997 32c8 da3e
00000330: 6426 485a 4c7c cf3e d57b 49d2 ba6e f63e
00000340: 12c9 4e06 f880 b13e 4cc3 4c40 a85c e73e
00000350: 6a97 570b f679 e33e 93e2 fb16 e3fb 7fbe
00000360: f33d 79a4 ad8f eabe 0250 9dc8 0be9 fcbe
00000370: afbd f4bc 3c00 02bf 3538 fb6b b59a fcbe
00000380: e5db ee5e 6a2f d8be 9935 0029 e899 d83e
00000390: 3649 408a 2e0a 0d3f ac58 d97b 79cc 74bf
000003a0: d354 4b91 dc0f 06bf 13e5 4da0 babc 41bf
000003b0: a2a2 2fd3 2a5c 5cbf a53d 0f2b b021 443f
000003c0: 97d7 d05f c1e7 3b3f 4a62 0962 6012 103f
000003d0: 067d 485e ccb6 253f dd49 0cec 6623 32bf
000003e0: de73 84b7 6cca 1dbf b1be 3118 6a2f 4bbf
000003f0: 3dc8 493b d9a9 39bf ad3d 60b9 6c67 24bf
00000400: 7295 2e39 7d25 42bf a59b 56e0 b993 2ebf
00000410: daf7 40d6 bf30 ee3e ee1a ca55 0ae1 3abf
00000420: 7450 7e3d 72c8 303f 15a3 d78c 5164 433f
00000430: 32ff 7d5a c617 4d3f 2e46 56a3 e1a2 23bf
00000440: f487 8e4d ea78 573f 4361 fc87 485a 5cbf
00000450: bc22 1402 9204 1bbf 8412 2f47 51fe 143f
00000460: de3b 63b1 37e1 d43e cc9c 3c0b fc3b 583f
00000470: 92a4 8c57 255e 203f 1339 44f1 c47e 33bf
00000480: 1919 a677 dd9a 573f df11 ee04 99a6 59bf
00000490: d01d 3953 36bb 8d3e ce4d 5adb 7432 4c3f
000004a0: e9f7 dbf8 db47 2b3f 4f35 bed1 e762 353f
000004b0: ebe2 3189 5890 47bf a9ec 7684 a01d 353f
000004c0: 3487 0cc1 dd83 263f 1818 aa5f cea2 2c3f
000004d0: c4c6 2542 eb2d 37bf 24ae 0219 dea4 22bf
000004e0: d3c6 2a0b 5f00 33bf c079 5e8c 758a 26bf
000004f0: a1e4 58f4 db15 23bf a8a7 79ab 1d42 22bf
00000500: c9df a9c7 32ac 383f a223 306a c899 9a3e
00000510: 78ff 262e b623 d2be 056c 13fe 4317 33bf
00000520: 13cd 1d05 4c48 083f 044c 802b d042 31bf
00000530: 1a27 0436 1f86 13bf ca11 3e84 473a 0cbf
00000540: 8646 2a3f 6660 473f c2b1 5280 7fc3 003f
00000550: 92e2 66d2 fb84 3ebf dcab eede ad69 443f
00000560: c69b 0eaa 5209 493f cfc5 2eaf fcca 46bf
00000570: b2d1 b111 c818 323f 60b5 102b 0c95 423f
00000580: 845a 03a2 ffc1 4b3f 2f64 e6c0 1b81 d0be
00000590: bdda 66df d9f4 353f 7e22 66db 57b1 25bf
000005a0: b2f1 59e0 0634 103f d34f 2a0c 5e5a 2dbf
000005b0: 96a2 f013 2aef 02bf 72b8 5b3d 33cc e23e
000005c0: de63 f795 dd14 38bf 8bf6 f97a 368a 0f3f
000005d0: 84ec f3df 3d5e 443f a279 0567 48b6 30bf
000005e0: 0a50 f446 5b1e 38bf 95b6 50b5 9e5b 39bf
000005f0: 346c eaa0 6d3f 2f3f 3244 cd6b c2d3 453f
00000600: 4fc2 560c 5210 923e b0b6 1fa1 3243 34bf
00000610: 4a0e 2fff bddc 423f 907f 5ac9 fdf5 2cbf
00000620: e030 3ae1 aada 16bf ae2e 8ba4 93ae 1c3f
00000630: 604f 1524 91c9 083f 3519 1c90 114b 303f
00000640: de8c 4384 1016 2a3f 5d4e f86a c4d0 4abf
00000650: 6b08 6d75 243e 3dbf b5f9 73c1 f696 53bf
00000660: d84b cc1f 094f 3d3f 691b 7378 5bf4 3bbf
00000670: 0656 8f0b 69a4 43bf 5c60 366f 53f6 48bf
00000680: 43f3 f613 3d4a 313f d0f4 7daa dca4 1abf
00000690: 2b54 b56b af12 2a3f 1262 5ca7 0f42 06bf
000006a0: 90c6 94ad 467e f23e 5392 d751 4561 0bbf
000006b0: a5d3 b61f 5758 2cbf 7025 1901 6040 2abf
000006c0: a691 fb6d 0996 39bf 9c90 3a5b 4700 33bf
000006d0: 98b2 09af ec2b 3abf 50c1 c607 b717 36bf
000006e0: b156 4c05 972c 1fbf 2e2a 8119 3fc1 2fbf
000006f0: 6180 caec 7a13 1cbf a6ee de5f 03c6 3a3f
00000700: dfbd 53a4 d84f 1a3f e890 b794 66ed 3e3f
00000710: 8474 c671 fc15 4f3f 13be 2c9b 79b4 49bf
00000720: 2444 03b1 1684 32bf 0016 d7e9 bdf0 5cbf
00000730: 2911 f5c3 b993 803e 2450 2f2f 3dca 46be
00000740: 2182 b936 bd09 77be 77e2 e193 92f6 a0be
00000750: 230d 6c26 0658 a9be ad8c 5a47 a790 9bbe
00000760: a22a 0d5c 4345 b9be b5b0 fbd7 c5a6 c0be
00000770: c4d3 f978 b563 bcbe d0fb ff27 a238 b0be
00000780: 6e9a ca60 074d c1be 40f3 887a cd92 963e
00000790: c8b3 2a9e df55 b7be 7871 c01c 4e7c b8be
000007a0: 0c95 50ba eef4 a5be 4452 1fae b84b b43e
000007b0: 845e fac9 b7b8 bbbe d8d1 b999 fe64 c5be
000007c0: 87a6 d6aa cb44 8c3e 4d4e 75dc 797c b5be
000007d0: 361a e06b c2f8 babe 2c3c 769f 05e9 86be
000007e0: 03cc baa3 43c9 933e f550 af79 156c ebb3
000007f0: 8168 1966 27d1 7639 f458 f86a 346e 04b4
-0.00029797867033152354 -6.779094819342274e-05 -0.00023481560648204217 0.0003625154801818179 0.000747249935382697 0.0008762635605138911 -0.00023080769575425057 -0.0018153557388185216
-0.00076960507798752 0.0006233219426236786 0.0008095019906313462 0.0003833458264345909 8.569995316016966e-05 -0.00023420316870728717 0.0001839208269168362 -0.00041604423741439795
-0.0002926213871174821 -0.0006157950265860374 -0.0004986242237960556 -0.00031814576018540343 -3.211897106086509e-05 -6.912313406843993e-05 5.2475623836123074e-05 -3.521026637755966e-05
-0.0004742676970066312 -9.106198675090316e-05 -0.00018327819605389967 4.6407521124062324e-05 2.6143540475093344e-05 4.513802136306327e-05 -0.0013253996562975882 -0.0003056620693444171
-0.0012422080516093737 -0.0011587922467573243 0.0006115185915414315 -0.00013853337194763373 0.0006536269555771347 -0.00021794709457893335 0.0007493793119852339 -0.0006673142866075024
0.0006087045071231667 -0.0009430223043178231 -0.000968879605920253 -0.0017037276936500314 -0.0008166936765824699 -0.0010319050447203122 0.0016960067490468273 -0.0012440479494660395
0.0019261234640837674 -0.0021676084072415943 0.0008777880683310561 0.00017096336575271273 0.0003384097076227477 8.492095435361551e-05 -4.6494503990715974e-05 -0.00016587829699013553
-0.0003928680634479148 -0.0005572682763152421 -0.0001924730007488488 -0.0004550017909586446 -0.0004138741105153285 -0.00040621256909549613 -0.00013347958647592608 0.00015295038845982087
0.0003406086744596915 0.0005982927766479338 0.00012135186096934229 0.0007309114506290076 0.0013756537755528256 -6.491780728251354e-36 5.8198875685496034e-05 -5.016739558100626e-06
-0.00014315303616298274 -0.0005242052371822001 -6.292046270792323e-05 -0.0006391604445247834 0.0007745766153320854 0.0001974169182256302 0.000284735530222804 0.001149789579358868
0.0009370233072034536 0.0006058566292614165 0.000709967971375845 0.00045263557178440965 0.00038211874169481286 2.4365889257943782e-05 0.00011581769449870364 6.043068278395104e-05
1.010637765841355e-05 -0.00015952540569899262 2.124413082279849e-05 -3.3379938908822e-05 8.656956489552243e-05 8.696213395081802e-06 -4.844077643293261e-06 -2.662630344191405e-05
5.22687525193209e-05 -4.403850464394833e-05 -5.281397180995873e-05 8.691014836759542e-05 -2.242537620228662e-05 6.385331621338802e-06 3.753368860386074e-06 2.139333550343541e-05
1.0433068606650252e-06 1.1139842180792101e-05 9.28707627685282e-06 -1.1914943853417759e-07 -1.2665387784909442e-05 -2.757104497359831e-05 -3.433404310226471e-05 -2.7279215600022235e-05
-5.7662050342776585e-06 5.865382846093579e-06 5.5388970651065064e-05 -0.005077814622913273 -4.2079847991574646e-05 -0.0005412970791517667 -0.001730958768115944 0.0006143675037665787
0.00042580100108879345 6.130898737789176e-05 0.00016566509943147944 -0.0002767683291021986 -0.00011364258341868503 -0.0008296268500895457 -0.00039159348970152827 -0.00015567018698490806
-0.000553785461637686 -0.00023328441618028248 1.4395917510619879e-05 -0.00041014196703097097 0.0002560881525763899 0.0005917928880850599 0.0008878439448238627 -0.00014981274004503955
0.001432637034874504 -0.0017305095970581864 -0.00010306492960777519 8.008357126161088e-05 4.978121770983993e-06 0.0014791451803349174 0.00012487607798420238 -0.0002974730316659551
0.0014407313125005038 -0.0015655989006698662 2.2151542965392286e-07 0.0008605070676871941 0.00020813522535684186 0.0003263298001393204 -0.000719111662319608 0.0003222004783897761
0.000171776599494905 0.00021847504816124917 -0.0003536891328145104 -0.00014224253800897244 -0.00028993912125506205 -0.00017197308460210718 -0.00014560995093563115 -0.0001392995088623204
0.0003764747595265098 3.963815322088171e-07 -4.324793481946694e-06 -0.0002913037297511137 4.631502146326175e-05 -0.00026338178895563024 -7.447782036620575e-05 -5.383997679956098e-05
0.0007133960010198982 3.1974152116507056e-05 -0.00046569011683631715 0.0006229495028170456 0.0007640508302885144 -0.0006955846605391449 0.0002761352968214905 0.0005670842566637795
0.0008471010405866762 -3.934938844451582e-06 0.0003350288310700991 -0.0001655025241229686 6.181041688963529e-05 -0.0002239455989935234 -3.6114188781082346e-05 8.963421275844984e-06
-0.0003674546223613721 6.015757332720775e-05 0.0006215860484241197 -0.00025500552785287 -0.00036802032896443625 -0.0003869307013840498 0.0002384015392252484 0.0006661128351003241
2.691708796644065e-07 -0.0003091810805234503 0.0005756309241111226 -0.00022095416050138235 -8.718173949712497e-05 0.0001094129194242853 4.727815804508764e-05 0.00024861506254615927
0.00019902183169682222 -0.0008183440276660726 -0.0004462088594899885 -0.0011956605647466094 0.00044721577414569063 -0.0004265521351495745 -0.0005994332233238426 -0.0007617862124105301
0.0002638243786028846 -0.00010163876379283847 0.0001989211212768694 -4.2453863825457055e-05 1.7636552773930977e-05 -5.2223136872507494e-05 -0.00021625579380004953 -0.00020028278281562393
-0.0003904126187832764 -0.00028993360613528154 -0.00039934662257826983 -0.0003371068812852056 -0.00011892005688837294 -0.00024227042445297678 -0.0001071018006748594 0.0004085310209764693
0.0001003719308589816 0.0004719138566697937 0.0009486658705558791 -0.0007844537525211768 -0.00028253129950167794 -0.0017663817046565944 1.2350867171541906e-07 -1.0612418920997085e-08
-8.58233996591555e-08 -5.055419831776253e-07 -7.553054047485749e-07 -4.107512901840496e-07 -1.5062426969742822e-06 -1.9850082820707732e-06 -1.692145335766382e-06 -9.66860312700874e-07
-2.062427262156198e-06 3.363705851943892e-07 -1.390900813784433e-06 -1.4594535171558625e-06 -6.543626694984082e-07 1.20972315941383e-06 -1.6523334024683034e-06 -2.5504243248935993e-06
2.106184714805075e-07 -1.2806793721801527e-06 -1.6076395890088689e-06 -1.7069460487822126e-07 2.9483718198413153e-07 -1.365190290217894e-58 7.031033255614453e-32 -4.068455513826387e-58
