dl_experiments/best_checkpoints/retailrocket_5min_CNN_cuda:0_checkpoint.pt (torch, 129553 bytes, 18 tensors)

block_1.0.weight f8 [64, 1, 7]
-0.02810470064100207 -0.02804985644227805 -0.028016076691373265 -0.028020733930388002 -0.02804438350171356 -0.0280595286484866 -0.028043587487349777 -0.2837839941948691
-0.245965584951135 0.19406783974771097 0.09818475484326733 0.08677491355862015 0.024310678605762776 0.052741315367509374 -0.016539324689954994 -0.01596994606139488
-0.015131775732734686 -0.014152020727394708 -0.013285115204774805 -0.012486857238563416 -0.01206788328367351 -0.24544282749025909 -0.13032117419700096 -0.006580331916998445
-0.14664454920798894 -0.13039390026971326 -0.10386638210015449 -0.4874174201033958 -1.2112621474777163e-10 -1.210918275588235e-10 -1.1771988225987304e-10 -1.1952177882126854e-10
-1.1578437229503736e-10 -1.1269330083375143e-10 -1.0951332737267683e-10 -7.865265228760911e-11 -9.449936270828237e-11 -1.1519262717921942e-10 -1.3018348046967196e-10 -1.2917644461302637e-10
-1.1741227242333923e-10 -9.767730168078582e-11 0.2677216594760529 0.0981644872174833 -0.14984147480969182 0.04030811053157064 -0.20283228660216088 -0.3132054852411984
-0.10578642984526744 -6.113897783146779e-27 -3.9278302162527666e-27 -7.986066404304959e-28 -5.963273886478828e-28 -5.4357558695739555e-28 -1.1304482944477692e-27 -1.8855996708651404e-27
-0.7810057766781137 -0.00711415135051342 0.14183811908995372 0.16301086143707466 0.05194971560230116 0.15565210615590996 0.09897681374971916 -6.478670625308872e-73
2.1558717895438896e-71 9.622460149260121e-70 -2.8233182741593125e-68 -2.2384637305403976e-68 -2.1989702049521393e-70 -1.6355176871412018e-72 -2.0185339122669612e-89 -6.922172421242601e-89
1.6820542276238473e-87 7.790262577900097e-89 -9.314165885337428e-96 1.9913828752066208e-103 -7.602425423857747e-102 1.1257994447847466e-96 1.3220184870555922e-78 -6.704913995240882e-62
-6.98559899441916e-55 1.07560917222086e-51 -1.756484006839602e-60 5.905170319659221e-55 3.121236825902391e-45 -3.8237912895997153e-44 4.609761186709846e-46 -2.9547571179114426e-48
7.430323400529692e-59 -4.803371456575643e-77 9.816632384495097e-82 0.020567106859485547 0.007180289293871459 0.0937527783119423 0.10062342417257474 -0.12591178587329024
-0.1768839729074341 -0.3097699854039902 -0.01415024191835715 -0.014851696116444059 -0.015359512747607794 -0.015919787812476657 -0.016087558126350036 -0.015621430496940158
-0.015321133128747142 0.2988051227386074 0.11887505635922965 -0.03591203922079975 -0.15939010442558804 -0.09390941009029831 -0.15787989085605075 -0.19726898867053683
-0.17328597174734625 -0.06640072171367864 -0.09103460126079113 0.0944268181196148 0.13087882365974038 -0.3822649637861662 -0.3971274409262815 -0.002543351679566078
-0.0025720497087066917 -0.0025887782011084987 -0.002584701779086806 -0.0025276073929956172 -0.0024223503538654345 -0.002274300005269883 -1.1050386708612075e-16 -4.018575008553531e-16
-7.517164499672741e-16 -1.6026081150712848e-15 -4.29169515933679e-15 -8.444137089925527e-15 -8.577258675759198e-15 -5.434081373459285e-05 -4.838777919645842e-05 -4.26343907310718e-05
-3.592592379815196e-05 -3.0626069006101446e-05 -2.519382716455473e-05 -1.9576736743295792e-05 -0.006776791256682755 -0.007238390688521833 -0.007476055368470297 -0.007650387202909488
-0.00785595577782777 -0.008002849809493975 -0.00815567598107337 4.0376843937148655e-42 1.6664225406969506e-42 6.437277216679848e-43 2.988542184127852e-43 7.279208642680648e-44
-7.777585095831068e-44 -3.287360830704745e-45 -0.005505717357304299 -0.0054164548408851656 -0.005369480270424668 -0.005305117580385857 -0.005121392742136582 -0.004842918380964138
-0.004554374340624337 -1.0881460268421562e-71 3.6075414029362697e-73 2.0058129030938717e-72 1.2122200245188055e-72 8.825354407875018e-73 3.8289838808990627e-73 -1.3776738960050944e-73
-8.942708520163652e-10 -9.413363657304905e-10 -1.0390797179859144e-09 -1.2221855750037318e-09 -1.2068612358080954e-09 -9.188695421723775e-10 -6.215657975239202e-10 -0.017852155877040934
-0.017785792949097354 -0.01805507729618873 -0.01850057376173987 -0.018773317398807526 -0.018760584202625726 -0.018510362307379968 -4.535742165403305e-09 -3.2505313021615164e-09
-1.9475915810627272e-09 -1.4875358201441124e-09 -1.4946708749725372e-09 -1.4700841317318022e-09 -1.210238220487159e-09 7.562467305078477e-46 -4.2516657420263615e-45 -9.22887891952691e-44
-1.2841045434702117e-43 -4.62463450702289e-44 -9.679008865820838e-44 -1.419159044326029e-43 -0.0037825038859892997 -0.003770630544569 -0.0037387487852895427 -0.0037712632442101846
-0.003832154196416122 -0.0037657787563341546 -0.003565740938931753 0.25030970147958514 0.07273474548259753 0.06315080198033939 -0.0298817889564176 0.17588429838402075
-0.6019569340735217 -0.4259867966181435 -0.11558107743848545 -0.11402790307912049 0.02237728272174564 -0.0807338342665282 -0.02712521060358792 0.49157494730214607
-0.31544490983011125 -0.04330337753711598 0.015630011235704358 -0.15892872031229993 0.24080567220839438 -0.01599836458099248 -0.3845299184366585 -0.1252235480647927
-1.5796389815174232e-05 -1.602896625291106e-05 -1.6425201645582606e-05 -1.663864402307214e-05 -1.6193518284208898e-05 -1.4970298147063679e-05 -1.3291244224592964e-05 -3.09304795770872e-05
-3.216647066112538e-05 -3.3816321806376505e-05 -3.360691107049719e-05 -3.2126272646752564e-05 -3.0174935980411648e-05 -2.7579645866116887e-05 -0.030337546097352723 0.07594154026431608
0.08979188944669597 -0.02384708636293699 -0.03779810773748499 0.09987159671258392 0.2584888633882586 1.5465446047699956e-132 3.9924016894607834e-134 -2.3130325273402222e-132
1.741827913846477e-128 2.2688440435741734e-159 1.0050063708709184e-160 1.8539652019338255e-162 -0.08555545393538329 0.07449083260900097 -0.041058652206157724 0.2401745124217606
00000000: 11c8 7788 7ac7 9cbf d5ed 4e00 1ab9 9cbf
00000010: f850 9b14 3fb0 9cbf ce1d 5d9f 77b1 9cbf
00000020: 1ec6 e7b7 aab7 9cbf 01b3 8b17 a3bb 9cbf
00000030: 1794 7b4c 75b7 9cbf 6e7e 8c57 8429 d2bf
00000040: cd3f a7df cc7b cfbf 22fd 7508 37d7 c83f
00000050: 2482 04d7 a222 b93f cbf5 d877 e136 b63f
00000060: 48a5 3806 e6e4 983f 218e 4de1 e800 ab3f
00000070: 3dac 904a afef 90bf 3ad6 35f0 6c5a 90bf
00000080: ec52 388f 68fd 8ebf 2c61 9211 bcfb 8cbf
00000090: f6f2 9ffa 3935 8bbf 646f c19b b592 89bf
000000a0: 5457 48e0 0bb7 88bf 1ee1 8daa ab6a cfbf
000000b0: 1883 933e 5dae c0bf 61d8 1566 faf3 7abf
000000c0: ab13 7ea3 3fc5 c2bf 92ce a050 bfb0 c0bf
000000d0: 1525 46ba fc96 babf d710 b6d5 d831 dfbf
000000e0: ed37 82f3 bfa5 e0bd 01a7 0c38 8aa4 e0bd
000000f0: 55ec 8d6f e62d e0bd 90d0 247a 4c6d e0bd
00000100: da8b ddd2 99d3 dfbd 3b50 d307 16fa debd
00000110: a310 adb8 501a debd 92f3 dd38 b09e d5bd
00000120: 9988 c02d cdf9 d9bd 1036 30e4 f5a9 dfbd
00000130: 6829 5b8c 6ce4 e1bd 551a c4f9 fdc0 e1bd
00000140: 3031 90bb 1323 e0bd 599f 7ad6 6dd9 dabd
00000150: 0b5a f806 5a22 d13f 9a4a 3ace 4e21 b93f
00000160: 2d2e f264 012e c3bf ca48 fec0 43a3 a43f
00000170: 2bbc c38a 68f6 c9bf 027b 0205 8f0b d4bf
00000180: 19c8 8bc8 d114 bbbf d59d 0b44 4946 7eba
00000190: 2b21 e2c7 1d73 73ba e73b 0a60 d5a2 4fba
000001a0: 2571 d269 7a9f 47ba 8626 01e8 8288 45ba
000001b0: 311b 31c8 0d64 56ba a46a eb27 90ac 62ba
000001c0: fb39 9ad3 fffd e8bf 8d5d 3a76 ba23 7dbf
000001d0: fda3 6861 c027 c23f 48ec 6137 8add c43f
000001e0: d8c5 1833 2799 aa3f a81f bf80 68ec c33f
000001f0: 2309 1e62 8b56 b93f a746 6c17 9e50 f2b0
00000200: a40d 427e a40b 4331 a9d9 b6f1 9090 9a31
00000210: e9f9 eee9 765b e8b1 8431 0d62 c74f e3b1
00000220: 7b25 b9f6 6348 78b1 7bb1 6f14 201e 07b1
00000230: 9919 7435 238f 84ad e52d 0b83 3aa0 a1ad
00000240: b774 fd58 cfc4 ea2d 50cf 742d 18d6 a32d
00000250: 4a7e 1ca1 1ae5 33ac 0db2 0efe 928b 9c2a
00000260: 5ed6 71bd 0907 f1aa eee0 8fb1 cf3c 032c
00000270: 3abc 4918 1a98 c32f 21d4 b83c 1995 3bb3
00000280: 2bfc 857a ee20 b1b4 a41e e60c 77c1 5935
00000290: d035 2bd9 9a94 86b3 b34a a391 78f5 ac34
000002a0: b7e8 da56 b1d1 b136 8f44 bab6 9849 ebb6
000002b0: a28b 2723 bd0d 8536 c7f3 e106 0646 11b6
000002c0: 13b2 7ef6 a4d9 dd33 eb80 420c 693f 16b0
000002d0: 8777 57c1 2fcc 1d2f 12dd 562d 8b0f 953f
000002e0: dd83 163b 1469 7d3f 4149 c29c 2e00 b83f
000002f0: ef61 08ec 74c2 b93f bddc 409d e01d c0bf
00000300: 2978 694f 22a4 c6bf 19ec 257d 45d3 d3bf
00000310: d19d 2852 cdfa 8cbf a7ce e1e8 906a 8ebf
00000320: 6cbf 77e7 ce74 8fbf cf2d 0ee0 464d 90bf
00000330: cec6 19c0 4179 90bf e60a cfe8 20fe 8fbf
00000340: b217 cead af60 8fbf 8e88 8285 9f1f d33f
00000350: 1680 5f7f 986e be3f 8dd5 f813 1063 a2bf
00000360: b62e e81a e566 c4bf 29de 1f75 720a b8bf
00000370: e61d f683 6835 c4bf 026f 6d37 1c40 c9bf
00000380: d755 c116 3c2e c6bf 72e8 3040 a3ff b0bf
00000390: 0a31 382b 0b4e b7bf ed67 b01f 5b2c b83f
000003a0: bdc3 ad25 a3c0 c03f b990 7777 0777 d8bf
000003b0: e0d7 c736 896a d9bf d49b 2689 cbd5 64bf
000003c0: b31b 3eac fa11 65bf 3242 bbb6 0f35 65bf
000003d0: 650e 8e33 832c 65bf f2a3 e1e2 c6b4 64bf
000003e0: 52ea 9371 09d8 63bf 530c 9b84 8da1 62bf
000003f0: 5dc7 5908 bfd9 9fbc 0900 9764 f6f4 bcbc
00000400: 867e b248 5c15 cbbc a626 42b6 b9de dcbc
00000410: 0c99 00d6 fc53 f3bc 1603 c3af b603 03bd
00000420: 6c1c 15f7 7350 03bd 9a0f 8324 807d 0cbf
00000430: 5e3a f36e 7f5e 09bf c1cf d082 4a5a 06bf
00000440: 2526 a357 e5d5 02bf cdd9 e1b7 8f0e 00bf
00000450: 4b53 a69e ea6a fabe bb3c ee1a 1787 f4be
00000460: 17bc 1b0d fbc1 7bbf ffa4 86b4 00a6 7dbf
00000470: 077c f854 369f 7ebf 2e67 692d 0356 7fbf
00000480: 1f20 2889 c816 80bf 8e11 a751 cc63 80bf
00000490: 4482 ec4c ecb3 80bf 495f 8e96 c682 5637
000004a0: db83 c7a2 cb94 4237 3b7e 093d 12b6 2c37
000004b0: 70a3 d7b7 9fa8 1a37 c367 530e 1cf9 f936
000004c0: 3da9 4c89 58c0 fbb6 f55a 64b5 7bc4 b2b6
000004d0: eaaa d9bf 298d 76bf 8d07 6e86 902f 76bf
000004e0: c421 87e2 4efe 75bf 6aa6 25a8 d1ba 75bf
000004f0: 4630 6665 2bfa 74bf d1d7 0301 2bd6 73bf
00000500: 832d 8c8d 9ba7 72bf cd0c b804 d339 33b1
00000510: 1942 2938 8f65 e430 900b 2322 0a5a 0c31
00000520: 5a2e fee9 6b22 0131 a009 d2f5 e9f2 f830
00000530: 5634 9c56 13a6 e530 ab06 feda 2f28 cfb0
00000540: e8ca 1df0 16ba 0ebe f69f c786 0a2c 10be
00000550: 4d79 f7c1 ebd9 11be 8db1 02a0 3aff 14be
00000560: 28bb f5f3 d4bb 14be e4a4 8c43 7692 0fbe
00000570: cf28 3fbf 595b 05be 64b4 9ee6 d547 92bf
00000580: e9fe 325c 7036 92bf 4437 0eba 077d 92bf
00000590: 033e 0e7d d0f1 92bf 68ac 0f01 5039 93bf
000005a0: 82a1 6a7e f935 93bf 533e fd62 61f4 92bf
000005b0: 2787 9deb 197b 33be 561c f571 feeb 2bbe
000005c0: 72f3 ff96 ccba 20be 43b2 fa70 408e 19be
000005d0: 062f 84cc a1ad 19be 2683 4396 7f41 19be
000005e0: 7431 8619 afca 14be 420d 93f9 0545 9136
000005f0: c685 6e02 d145 b8b6 bad4 6cbb 0177 00b7
00000600: b6af d7b6 c0e8 06b7 9278 a1be 5180 f0b6
00000610: f45b 02fc 9644 01b7 f074 109d 9251 09b7
00000620: ba19 984f 7cfc 6ebf 85a1 f9db 95e3 6ebf
00000630: c24b 5878 b9a0 6ebf 123a 8d89 e9e4 6ebf
00000640: dc7b 4c1e 9c64 6fbf 7514 4713 69d9 6ebf
00000650: 88c1 ff96 e635 6dbf 5f7c 6efb 1205 d03f
00000660: a271 2189 be9e b23f 47c3 38a5 a62a b03f
00000670: 8751 41e9 5499 9ebf 283a b86e 6083 c63f
00000680: 4d47 2e30 3b43 e3bf b92c 0020 5e43 dbbf
00000690: 387e a2b3 b896 bdbf 6168 8ec2 ee30 bdbf
000006a0: 7a5c da05 12ea 963f fdfc daf9 f8aa b4bf
000006b0: 3212 c211 b6c6 9bbf 6185 8cc4 f675 df3f
000006c0: 633d dad8 3f30 d4bf ee10 a83c dc2b a6bf
000006d0: b4b4 5f4c 5001 903f 7e77 11bc c657 c4bf
000006e0: d6c5 6963 b8d2 ce3f c5cd a812 e061 90bf
000006f0: 3a37 0160 239c d8bf 9e4d d041 5307 c0bf
00000700: f36a 75a4 4f90 f0be 98be 6b2c bece f0be
00000710: f587 2a43 1b39 f1be 0e42 2ee9 6672 f1be
00000720: 9c94 5e1a eafa f0be 807b 491c 1e65 efbe
00000730: 9255 52b2 aedf ebbe 5de1 942f 6b37 00bf
00000740: 56a2 2184 4fdd 00bf 771e 47f8 bfba 01bf
00000750: 1015 f7ab a49e 01bf e15b a852 ead7 00bf
00000760: 7b4f a5cf 05a4 ffbe 7da7 1dd5 5aeb fcbe
00000770: 3eeb 5041 ce10 9fbf b7d5 d79f e770 b33f
00000780: 8c9e 9eec 99fc b63f c482 22e0 5e6b 98bf
00000790: e896 2a09 465a a3bf 960a ae59 2f91 b93f
000007a0: 827f a8df 148b d03f 034f bca1 5a90 9124
000007b0: 7f88 e7b7 b004 3d24 4cc8 3973 ce44 9aa4
000007c0: 3fca 3af9 c625 6825 63aa 83f4 dde5 ff1e
000007d0: 348d 097c 709b b61e 56dd 93c0 ceb0 5a1e
000007e0: 9d9b a554 f6e6 b5bf ec4f e8c9 d411 b33f
000007f0: 57f6 e2c0 a305 a5bf 1d94 17d6 09be ce3f

block_1.0.bias f8 [64]
-0.02830770306014831 -0.12538401095039883 0.0015334366720449386 0.1125826189841289 -9.741710696934389e-11 -2.3275365784088455e-06 0.12298475139986237 -8.47499808267578e-17
-0.11967441085772376 -7.044752342624991e-19 -2.4260804280422194e-09 -3.409275548090687e-10 -6.48700267236015e-05 0.1607168076992235 -0.019234394606630095 0.12281646773134744
0.07896195364628183 -0.008823326462029903 -2.850781823704186e-06 -2.362758172184088e-06 -0.012732355847222961 -1.899039258435682e-15 -0.013648517194099733 -9.697468252830152e-26
-2.5542548838981147e-06 -0.03065241215884119 -1.9157121673770422e-06 -3.514012856957903e-18 -0.009016784108203408 -0.010986814249317993 0.013811764177020118 0.036892916783942756
-0.00032938941175099997 -0.0012487496017623782 -0.1703071684943634 -7.188502164169023e-32 0.001081931966394069 0.058512904166624496 -2.1765409946100028e-05 -3.8439538098645044e-08
-0.004552325763131475 -0.005204526446376615 0.04119562258225752 0.04392184842351371 0.0010283672175776597 -3.8688193401609687e-17 0.06575144469056143 -7.141403020848267e-33
-0.0019893192008194546 -6.404253477831938e-18 -0.02047239358425259 -7.818373551669659e-11 -0.2744371520522237 0.029170961556322123 -5.620269861829821e-11 -5.724672723574988e-31
-5.8350095059968364e-15 0.0845821235235645 -0.028491368257920445 -0.004480123073840237 -8.793082744152262e-15 -1.2479062777897234e-13 -0.0013585583435760456 -0.03647115501683551
00000000: a50d 79cb b1fc 9cbf 1394 3c51 950c c0bf
00000010: 5bc7 d716 b31f 593f 5786 a2ea 36d2 bc3f
00000020: 048a 2a96 1ec7 dabd cab4 19c4 5886 c3be
00000030: 144a 2bbd ed7b bf3f 9d1c 22e0 716d 98bc
00000040: 464f cd70 fba2 bebf f2d8 9699 94fd 29bc
00000050: 3da9 2cdd 01d7 24be cdd0 7335 a96d f7bd
00000060: 41fb b492 5a01 11bf f52a 7e4c 5e92 c43f
00000070: 18e3 2c5f 2eb2 93bf 0efe 5068 e670 bf3f
00000080: 14ff 89c0 d936 b43f 0e53 c5d4 f611 82bf
00000090: 0d97 b7e1 01ea c7be d284 be0a fcd1 c3be
000000a0: f106 b8df 6b13 8abf c882 ffea e21a e1bc
000000b0: af81 e6f7 c0f3 8bbf 05f9 723b 2003 beba
000000c0: 9da9 fa78 386d c5be 031d 108f 5863 9fbf
000000d0: de2f d9e6 f511 c0be 9b11 e337 9d34 50bc
000000e0: 8aec e046 6477 82bf afb8 1a3f 4180 86bf
000000f0: 7cde 859b 5749 8c3f ea08 15de a0e3 a23f
00000100: 7259 49c0 3c96 35bf 6860 d4ac a275 54bf
00000110: 5a94 7a13 a0cc c5bf 1863 f754 f953 77b9
00000120: 3bd2 609a f3b9 513f f44a 9443 67f5 ad3f
00000130: 7ad2 1a95 9bd2 f6be 042a ea02 17a3 64be
00000140: 05cc 5fa4 75a5 72bf 9dbd 0d6e 5751 75bf
00000150: d253 75b7 9717 a53f f822 1ead ec7c a63f
00000160: 216b 56e4 48d9 503f 2cf0 569f 5e4d 86bc
00000170: c457 9c30 16d5 b03f 1ffa f3c2 468a 42b9
00000180: f016 159d e74b 60bf 870d 9fd8 ce88 5dbc
00000190: 862b a913 b7f6 94bf f465 f3f7 b07d d5bd
000001a0: 9bc9 37d8 6090 d1bf d854 8217 fede 9d3f
000001b0: 13f0 d49e d3e5 cebd d45c d80c d738 a7b9
000001c0: 2af1 17d5 4e47 fabc 2625 5c8e 2ca7 b53f
000001d0: 8653 8b5b d72c 9dbf dae0 58e1 bf59 72bf
000001e0: e74e dbf9 ddcc 03bd 89f5 ff62 0e90 41bd
000001f0: a188 f1e9 3442 56bf 00dd 16e4 58ac a2bf

block_2.0.weight f8 [16, 64, 3]
-0.02827461509693826 -0.02828583104479943 -0.028298100307868997 0.02484856688855781 0.015451699587698188 -0.054495831316167455 0.011578130440208462 0.01102035565525962
0.010904218287361019 -0.08814236546836676 -0.03138725190355486 0.03969569432958183 -2.0296002409947697e-12 -1.9376580708229368e-12 -1.7524267033928303e-12 3.0472030423188367e-15
3.496391060653081e-15 3.600034532845413e-15 0.02566083523532096 0.055687975878274884 0.1772852557159079 5.582844293447937e-168 -1.9101838105304602e-168 1.8890618871636637e-168
-0.17611296156550346 -0.031000732252286275 -0.01536304365132176 1.0383348136272697e-189 5.43136532647253e-169 7.717994500443021e-168 4.416139860891455e-184 1.7349431578040268e-166
1.2983406624886006e-167 1.1423429895484056e-110 2.514162635480066e-108 -1.897505659376318e-129 -3.1814095399329256e-165 2.359184592973098e-157 2.0957567880603736e-138 0.0345350017852936
-0.13905448954934493 -0.2490081535415112 -0.0003725975930552867 3.952121682054911e-05 0.00019170940956657475 -0.2889141793174357 -0.170559497798531 -0.08614489144642538
-0.057675910908293326 0.12361664427716497 0.2523677882941894 -0.0008886076320714458 -0.0009021601119595498 -0.0008924004184780629 5.7869846216996365e-59 1.290226147400875e-56
1.551606252030888e-56 1.3373000376619511e-20 -4.247213960221923e-21 -2.0467577913725006e-20 0.0017453221851426342 0.0017602578511934858 0.001727505439010272 6.538137434322639e-46
4.260450971124799e-46 2.014548626091749e-46 -3.2801421093689886e-05 -3.093906017724278e-05 -2.74479398221961e-05 6.836473601195199e-89 5.760796921898678e-89 1.4671085562856996e-90
-2.0243724027761413e-49 -3.73611317277105e-49 -3.338575234813791e-49 -0.017621631758593537 -0.01759160128666943 -0.017579715913457424 5.678232869219717e-06 5.309282146729177e-06
5.104068311496835e-06 1.3712225620664975e-190 5.684920711776731e-188 -3.8049693126439227e-187 -0.0041035274240909725 -0.003992919813335089 -0.003933810784890443 -0.05356173417900092
0.08188902382276501 0.1969602721331119 0.15011430261609734 0.007305327201039901 0.1941292812144532 -0.02592759927505713 0.0036346689982091566 0.15816428742344005
1.1836524364428187e-06 1.193112307730014e-06 1.1822899978121554e-06 7.261319964189711e-07 7.190605834486437e-07 6.877298198475267e-07 -0.11128625416027998 0.04211270514511487
0.11805556401540397 1.709452363949544e-225 -2.243959259744471e-213 8.174123536178153e-151 -0.23661673481155687 -0.017397314643761815 0.2012683976882814 0.115466794747736
-0.04349005231170818 -0.0925316678979444 3.8080201403030016e-59 -2.7535512131320158e-55 -1.0939341210513423e-54 -8.86286006031712e-23 -4.763898170878336e-23 -2.52907871919659e-23
0.012898673041174372 0.012981256898407593 0.013064857926277497 0.19237664805684723 0.2351940407944916 0.48318324076809993 -0.042935931520923495 -0.09105824755363205
0.010949875877869011 -0.2048297129083296 -0.12496326318194281 0.06670911194861451 5.006384587673726e-08 2.2891739620567163e-06 2.557497944312916e-06 -1.8166866963656075e-37
-2.7782344190871454e-37 -3.885972962555612e-39 -0.03628540337501921 -0.12318902810096932 0.0703434939547497 1.040704512814469e-121 -2.789018452979196e-121 -9.796380158625917e-121
1.6931075037325176e-43 7.209816940724993e-44 3.622064254852581e-44 4.794872448799562e-84 -5.0635537933186254e-83 -4.793229995691359e-83 0.013123144127749054 0.01327476302852925
0.013428194033036226 -6.448345034794946e-26 -4.2661292822150926e-26 -3.5303517541396214e-26 0.006644912338567255 -0.1838947655055351 0.04709891576823512 0.13656357210664577
0.17035569561970748 0.06442467236814894 6.466905902768424e-29 7.259548450513287e-29 6.810923145945304e-29 5.605521760931529e-88 3.392259681914468e-88 -4.51790690202482e-89
5.505149827906777e-109 -4.324775725257918e-110 -2.0583255474900848e-141 0.0877163216034139 0.09608983291826731 -0.003001105908391917 -0.003866169627397127 -0.003981346814102605
-0.00396834645332982 -0.00015480859114638378 -0.0001554232039130977 -0.00015292901979752728 1.9577438645688935e-69 -1.8769551388956954e-105 -7.336033905496899e-141 -2.974587724660715e-10
-2.7372776136521315e-10 -2.3521775022895113e-10 0.0001421225172669861 0.0001059418236736076 9.552725168805471e-05 -0.006509275345176118 -0.006100890142423948 -0.00590794707611358
-0.02315905027173933 -0.02303602506449442 -0.022964591220073615 -0.019330537880812567 -0.025449199546952152 -0.057559637510802314 -0.0241378505411049 -0.024274115284036397
-0.024291799956589182 -0.06556430549013674 0.06517414534448096 0.236973393308771 -4.280200139533775e-13 -3.5681407336216724e-13 -2.775646394510673e-13 4.526281195841787e-16
4.2693224669882444e-16 3.962455637197055e-16 -0.21501587899390448 -0.38752479405104767 -0.1013170240390157 8.448751863372345e-143 -2.1742819601615226e-143 2.776997024233282e-144
-0.08455884050299002 -0.03341658455854953 -0.13191269324930607 1.6258354924689347e-43 -3.7869612310066024e-43 -1.4272316828491135e-42 -6.237117527328879e-155 -7.068852052149509e-148
-3.3526356821467506e-141 -1.4307988218603448e-92 -4.830209853997636e-106 4.409566476501449e-130 2.981438061333015e-143 7.568289240682232e-134 4.1920193908835314e-120 -0.04192763622765542
0.07111764724062912 -0.051182956697693516 0.014215752147657686 0.01501721136647457 0.015128146584486662 -0.005312381566738581 -0.04063897281594781 0.027193743254549225
-0.03880310463745927 0.16128096739179668 0.2680931840301689 -0.0014421515012420232 -0.001421936949434588 -0.0014004766672466827 -2.2006432089651745e-18 -4.032613481657354e-18
-5.260755084755745e-18 1.4018852755387795e-20 -1.2238957042538553e-20 -5.7873802211060665e-21 0.0028051658708951005 0.0027934666917820766 0.0027660760481310193 4.644076499967947e-63
00000000: d6e5 974c 05f4 9cbf e141 1cfd f5f6 9cbf
00000010: efe4 715d 2dfa 9cbf f327 8e18 e771 993f
00000020: 349b 2c03 24a5 8f3f 25e4 8aaa e0e6 abbf
00000030: ea54 b75c 46b6 873f c87a 0919 d791 863f
00000040: d116 7667 f354 863f aa26 1481 7f90 b6bf
00000050: 32c9 df68 fd11 a0bf bb08 e079 fe52 a43f
00000060: 3595 bde1 40da 81bd 2954 47d4 370b 81bd
00000070: d79b 7c6e 3ad4 7ebd b0f5 6e30 5f72 eb3c
00000080: 6c2f 96fe 207e ef3c 812d a4a6 8e36 f03c
00000090: cbb7 7e80 d546 9a3f fef1 5a66 2283 ac3f
000000a0: ef70 ae83 48b1 c63f 9f7c d61e c711 351d
000000b0: 4392 6f1d fad5 1c9d 5415 66bd 5984 1c1d
000000c0: 5fab 2999 de8a c6bf 3fd6 b3ec a7be 9fbf
000000d0: ac44 65d0 a876 8fbf 8924 1547 5781 b218
000000e0: 873e d469 f165 001d 331e a9ad 9e20 3d1d
000000f0: be5c dcd4 fe05 de19 02c0 3396 1676 841d
00000100: 8e92 2596 db7f 481d ceca db38 e878 1b29
00000110: 3fbc f72e 549e 9729 cc0d c297 6c0b 35a5
00000120: 6888 6191 4273 c79d ccba c0e5 9ae9 691f
00000130: a69d c16d 16f5 5823 f563 785e 92ae a13f
00000140: 03fb 7c9a 89cc c1bf 29f6 f2c9 7fdf cfbf
00000150: edae 0b7a 266b 38bf 7420 81ab 72b8 043f
00000160: 34ee f149 b320 293f 6038 e1e5 917d d2bf
00000170: 598f 88c4 e4d4 c5bf 93d8 7a73 970d b6bf
00000180: 787b 3c6e b287 adbf 7564 6924 57a5 bf3f
00000190: ae64 5239 cb26 d03f 561c ff5b 2e1e 4dbf
000001a0: 6d8c 9b16 de8f 4dbf a1d8 5f4e ff3d 4dbf
000001b0: 215f e987 913f d733 223a e2a0 483f 5434
000001c0: f3ec 6b79 5659 5834 4731 9293 7b93 cf3b
000001d0: 8e91 df0d 910e b4bb cb34 4e23 f229 d8bb
000001e0: 4fe7 316d 6998 5c3f e45b d179 0ed7 5c3f
000001f0: aa3c 4fd7 ae4d 5c3f 9bf2 2e1b 66dc 8d36
00000200: e02d c429 5375 8336 3262 a266 d366 7236
00000210: db61 333f 8832 01bf 44b6 5603 9238 00bf
00000220: 8554 e30f 00c8 fcbe e2de ab9b 5d68 a12d
00000230: 9b81 ab4d 5e56 9d2d b847 a26d 8ee8 472d
00000240: 6139 10ac 68ef d2b5 7b49 015b 1b79 e1b5
00000250: 4e14 01aa 4c3a dfb5 7dd7 6bb0 670b 92bf
00000260: b291 d760 8803 92bf 8261 afc3 6a00 92bf
00000270: 66c3 27c4 f4d0 d73e 1875 265d cc44 d63e
00000280: 3dec 469d 7368 d53e f94d 94af e58c 8318
00000290: 9cfa 950d 59a9 0f19 a5de 71a7 3a7d 3a99
000002a0: b7f8 5a41 dcce 70bf 2da0 3840 e15a 70bf
000002b0: a352 b74a e61c 70bf 4351 3b91 716c abbf
000002c0: 235b 38d7 adf6 b43f 1224 b683 fe35 c93f
000002d0: 2ff1 320a f236 c33f d906 a4d6 30ec 7d3f
000002e0: 4d8b 0171 3ad9 c83f b5f7 ccbb c38c 9abf
000002f0: b4bb 540f 74c6 6d3f 257d f034 ba3e c43f
00000300: 7033 fb9d bfdb b33e 9010 08db 6004 b43e
00000310: 7573 9999 e5d5 b33e 15d1 8f25 6d5d a83e
00000320: cda2 f5f1 ae20 a83e 67b3 0cde 8d13 a73e
00000330: f4dc 1c86 417d bcbf dd4f b0e6 cb8f a53f
00000340: 3197 8eb2 e338 be3f 48e2 89dc 813f 4411
00000350: 0037 6d11 732c c893 bf07 669a da67 c520
00000360: 38d9 d908 7549 cebf 3f93 bb05 9ad0 91bf
00000370: 070e e5b0 29c3 c93f 1629 375b 3b8f bd3f
00000380: 8b9e c200 5444 a6bf 0e4c 77c7 27b0 b7bf
00000390: a634 73a3 a498 ce33 d6aa 007b ba01 9bb4
000003a0: 8058 665b bcd2 bab4 c30b 024b 4ec9 5abb
000003b0: 3028 0f7e c6cb 4cbb a7b7 0699 1e93 3ebb
000003c0: 6237 fd96 9e6a 8a3f 8f92 b7ce ea95 8a3f
000003d0: e777 298c bfc1 8a3f 9289 f549 cc9f c83f
000003e0: 4d95 b69c d61a ce3f 0ec1 4466 79ec de3f
000003f0: 864c 69cb b2fb a5bf bb1f 46e3 974f b7bf
00000400: 085e 5376 e36c 863f 375d 182b dc37 cabf
00000410: ee60 91a8 97fd bfbf d01c 2a2e d913 b13f
00000420: f739 45fb b8e0 6a3e f909 d4b1 f633 c33e
00000430: 5211 285d 2f74 c53e bcc7 265b c9e8 4eb8
00000440: 929f 7172 75a2 57b8 db60 767c 4128 f5b7
00000450: 95c0 a219 0094 a2bf b070 ebee 5089 bfbf
00000460: 58a3 05fe 0702 b23f be50 521a f832 d126
00000470: d3c3 0bd3 d40b e7a6 ad4e b9b3 c33c 04a7
00000480: 3ed5 d782 bf34 0e37 3734 717b b9b9 f936
00000490: 80d3 91e8 10d9 e936 6db4 c3f5 33a1 a22e
000004a0: d4c5 cdb1 8e97 d8ae f543 c32d 7647 d7ae
000004b0: fa85 cb96 4ee0 8a3f fcb5 8e88 cc2f 8b3f
000004c0: 55d8 bab1 3d80 8b3f 0e4d abc0 e7f4 b3ba
000004d0: 8529 67a1 f367 aaba 596a 73ce 10da a5ba
000004e0: 1ae9 dc12 b237 7b3f 053d e019 dd89 c7bf
000004f0: 42a2 cd5d 591d a83f 0ef1 0246 ea7a c13f
00000500: 62de af26 37ce c53f 5e70 e0a4 227e b03f
00000510: 0bf6 e1ce 937e 143a 38b7 7c39 a501 173a
00000520: 41c1 e864 ad95 153a 17e7 45b5 75d7 d12d
00000530: c0fe 26bf 1f98 c52d 428f e346 0202 97ad
00000540: e8c3 352c c0af 7429 3b01 3566 7000 3aa9
00000550: ff58 b225 9319 b9a2 57b1 9cac 9374 b63f
00000560: 1eb0 dce1 5799 b83f 76da 4e77 c695 68bf
00000570: a9e1 8803 f2ab 6fbf 3409 c5a5 be4e 70bf
00000580: 35ad c7e3 1c41 70bf 6013 17ac 834a 24bf
00000590: 2c78 db27 235f 24bf eec8 fb46 720b 24bf
000005a0: 7439 8a68 1106 ab31 661f fdeb 1b38 31aa
000005b0: 45d8 9534 505d d6a2 3095 8237 f370 f4bd
000005c0: 5f60 7c3e 78cf f2bd 3e13 8192 fe29 f0bd
000005d0: c791 9b20 d7a0 223f 3dda fcab a2c5 1b3f
000005e0: 4083 00b0 b90a 193f 1fab a64b 78a9 7abf
000005f0: d310 363a 3ffd 78bf bb8d a777 ee32 78bf
00000600: f51a 188e 01b7 97bf 9e9a 2079 c196 97bf
00000610: d35f 06a1 0784 97bf af78 0c70 62cb 93bf
00000620: c7dc 0ddf 5a0f 9abf c465 5bf1 7478 adbf
00000630: 30db adba 97b7 98bf b217 234d 50db 98bf
00000640: 6b83 7f19 f3df 98bf 9376 dd83 d2c8 b0bf
00000650: b09e ccb6 40af b03f b943 24e7 2455 ce3f
00000660: 5203 f9e9 851e 5ebd 1e59 2a79 ca1b 59bd
00000670: eb1a 8bf7 2888 53bd 9776 39ee c14e c03c
00000680: 75a2 4288 82c3 be3c 1d75 e3c4 708d bc3c
00000690: 3f23 33ec a385 cbbf 1aa8 35cb 34cd d8bf
000006a0: eb8e c698 e9ef b9bf 90e6 fa09 fb7b 7022
000006b0: 4576 e415 0af8 50a2 4de2 457f 9256 2122
000006c0: 314b 8cee a5a5 b5bf cb5e a583 fa1b a1bf
000006d0: 2b6e b7df 83e2 c0bf c781 c7fc 8001 0d37
000006e0: c55e 0702 f2e3 20b7 8f4c fb70 0dd4 3fb7
000006f0: ca68 4fe1 a5c2 ea9f 41d9 eba1 d213 62a1
00000700: db17 4df4 0a71 c4a2 4209 9f59 6bd8 ddac
00000710: 18d7 4ed7 94b9 11aa dec7 0f78 e18f 1325
00000720: 076f eb05 ac44 5722 015c 1355 2f81 4b24
00000730: 1228 12a2 51a6 2527 55f0 ca04 8a77 a5bf
00000740: bb24 1121 c434 b23f 9823 420a a734 aabf
00000750: 3e73 7ff4 251d 8d3f 6dab 91fd 57c1 8e3f
00000760: 30be a276 81fb 8e3f c4fd 7c91 6fc2 75bf
00000770: c903 60a6 a1ce a4bf 3587 bc37 add8 9b3f
00000780: fe63 cd22 00de a3bf 051f 35d0 daa4 c43f
00000790: 5a2a 6c50 7028 d13f 8255 2862 d2a0 57bf
000007a0: cd87 772c 094c 57bf f044 045f 06f2 56bf
000007b0: 0be7 9132 1f4c 44bc 947d bea3 de98 52bc
000007c0: 52b1 c4a9 cd42 58bc 9783 1732 f08c d03b
000007d0: d121 c9de fee5 ccbb a08b b06c 8354 bbbb
000007e0: 3777 9cf5 dbfa 663f 4e6b ad02 53e2 663f
000007f0: a072 47c5 e1a8 663f b931 49e0 4091 fe32

block_2.0.bias f8 [16]
0.027882725529783173 0.019597527914641158 -0.0070829488703678814 -0.02107658943843129 -1.0833603620872958e-30 -0.0018497204685277199 -0.03575024581780987 -0.001011457849344289
-2.611265563606787e-10 -8.019078123045366e-19 0.01695310820101586 0.017551930146712955 -0.0006936707832291512 -0.008102654419922783 -0.04124980343718194 -0.03963346133865766
00000000: 5455 1809 4a8d 9c3f 3440 e7d5 5f11 943f
00000010: 1199 1e9c 0203 7dbf 06aa 65f9 1995 95bf
00000020: a948 3dec 20f9 b5b9 1304 d23a 4a4e 5ebf
00000030: 8510 3931 db4d a2bf 9dff 9698 5c92 50bf
00000040: 738d 4076 c9f1 f1bd ab71 551e ce95 2dbc
00000050: afd8 27d5 275c 913f 5ce4 d817 22f9 913f
00000060: d824 01aa eeba 46bf 1372 f4dd 1f98 80bf
00000070: d94f 75b9 b11e a5bf b3ba 8d48 d64a a4bf

fc.weight f8 [1, 1504]
-0.04649624783193185 -0.03731838045513097 0.04083669712201574 0.037353028074046474 0.022575179208522853 0.011383698394364043 0.006504558579932847 -0.012801845345407846
-0.00659665884445928 -0.007399008012424392 0.01739505770920875 0.03546894038283883 0.0573512773958946 0.0143312648534984 0.009001099777444035 0.021794816986502312
0.026639345229372342 0.024617601800893896 -0.006276742182617725 0.01963721674232383 0.045562186299736324 0.030281742277109672 -0.03825266891789439 -0.03984474034741134
-0.015886101422474534 -0.01465530183363306 0.007847514346996275 -0.0024844088589461378 -0.004315245098925626 -0.007055235454086556 0.015731792167007434 0.005004888802320539
0.029374811466734367 0.02512637272245373 0.01712391720677751 0.003262674348093789 0.04275431922657732 0.007422866091433133 -0.006464861065008968 -0.03285153796632966
-0.039500337973041505 -0.08773355010098442 -0.06642353322327238 0.030954986896599056 0.023321364456483626 0.01835700928805531 0.012785481660311852 0.02249773708515447
0.0024569512001988247 -0.020661292442071842 -0.031477896480820354 -0.00926231936756751 0.01122809266947639 0.003631589507050203 0.005106995507665609 -0.011502719311018558
0.004396053911713297 0.02624650869631487 0.0026941797068417697 0.030240632763896044 0.045453742403828344 0.08148021350363115 0.13118513973860366 0.08209814957380147
0.0474373916820147 0.06663761855733102 0.11056184649218695 0.13786945352041197 0.11020795563220587 0.062382447915522415 0.10997590020896576 0.08831472653686091
0.0983245772213865 0.2118857003796601 0.19262328641401938 0.21399676859258998 0.18178175297006743 0.19698821846832434 0.24356243469829772 0.16937104378442275
0.21861769022252375 0.22407886275047825 0.23957740751277853 0.2406705026791881 0.25634673494985816 0.24942002107590744 0.22246105645327346 0.22934481150139352
0.21074223901231187 0.15192636138648644 0.11755092977482934 0.05711992096545439 0.04818713419224144 0.13248324237898784 -0.10304428545841299 -0.03706386684559767
-0.05443809761888102 -0.01261005168453562 -0.00350198240017506 0.0007370673588922901 -0.017205493705321078 0.005163168394569076 0.017236086226126875 0.0010560949791417439
-0.016587761659782898 -0.020507132573562615 -0.028087670282463024 -0.011892575842684697 -0.042580029279171205 -0.03908028975737499 0.010323202289268843 -0.03739181499292029
-0.02624622253062909 -0.02537319383701341 -0.02874324985221872 0.00042837324081233585 -0.028395247117772842 -0.013872143920115345 -0.02644550009269921 0.001497179163377004
-0.010850404707639353 -0.016735493538280848 -0.013148894865197162 -0.008940576536862541 -0.0027076667296028777 -0.04845660271467222 -0.05922041019976211 -0.040756266727655296
-0.003822384265919581 -0.002027547145851081 -0.012941863526532482 0.010759696872774763 -0.022846906146781334 -0.0065163466428020895 0.017924303388431612 0.028565476000037282
0.01123642976378555 0.0028862321224997086 0.047459821958638626 0.07050262679942222 0.050268910241206166 0.007695042775374728 0.0006521661170942361 0.007602329133154281
0.004801557237111348 0.05080004057193649 0.12051299701555745 0.08610952786629208 -0.019921845464847498 -0.013411380797416982 0.0143428449913114 0.05149574579021987
0.036904843883051486 0.07552945440198097 -0.036979989505369244 -0.038969706625467275 -0.009741295486971255 0.021171503295410038 0.03556871855518801 0.03190492181707199
0.06480398591558642 0.06860446047974286 0.07492056367975901 0.10699629749705677 0.13232916868523797 0.12635129560454517 0.07581433355423133 0.09415392808411771
0.1528279517173277 0.1298604245086034 0.13680933620484295 0.17094537270232388 0.21573431840168733 0.23752832379284702 0.1784792396750617 0.1337313476827789
0.15890953935183355 0.17342361044435767 0.21125473010779253 0.25473994669629174 0.2764636384566808 0.2964057427431325 0.30532079948841634 0.2222109209438998
0.10862690264994448 0.05863502679765343 0.05968777926828067 0.16891732850617033 -0.006040871886093246 0.024826919204559615 0.029053889119041994 0.05155735860498905
0.008592982951760673 -0.018838486269560684 -0.02390183101093402 -0.004840915548019708 -0.005202258881098388 0.013461413976005126 0.027705600955343412 0.03894471453459301
0.030106919149808974 0.01428696269744953 -0.0030931894945377026 0.005650821574173391 -0.011671152334103017 0.07694229437854867 0.087621902325065 0.08203448147914451
-0.02484289759912065 -0.03257753760902036 -0.027400715416605922 0.027190960133679373 0.08945716837670807 0.07421937991129765 0.057880757654900354 -0.004596209451710368
-0.010957093954418719 -0.030564440717729565 -0.015446572144538618 0.004001522266730278 0.05926705899819089 0.02345033712005945 -0.0029299625122357416 -0.01840563595518533
0.004312339034244615 0.045180672445777614 -0.006026969046432469 -0.03968324493499276 0.024239208437101978 0.0048274791306613185 -0.0031812876105300125 0.0006678819239072165
-0.002968810727002768 -0.03427281345327674 -0.01725551622994346 -0.005694698930056097 -0.03531632408271669 0.03490634049636489 -0.007800528393597617 0.031068917936437995
-0.03127114415757247 -0.024721872174727152 -0.029274210482369438 0.003145319581380361 0.03966993916297458 0.03518030646027617 0.019501014369870298 0.09906226662647119
0.05996931923024835 0.021132533179857343 -0.017067322551897565 -0.0028652740565792327 0.026036411367812456 0.04138854918063584 0.04982043061814579 0.056562046321818354
00000000: d053 a62f 5bce a7bf c85e 300f 651b a3bf
00000010: fd3e 3b2d 8ce8 a43f 6c1d f8a3 ef1f a33f
00000020: 6c97 9ba1 f21d 973f 0296 7d22 5650 873f
00000030: 22fb 0226 86a4 7a3f bf20 b298 da37 8abf
00000040: 1a45 ff1f 1905 7bbf ceb1 fa16 6c4e 7ebf
00000050: 3370 e48f 02d0 913f 69a6 ef25 fc28 a23f
00000060: 9c2f 9989 255d ad3f a445 d9ce b559 8d3f
00000070: ce92 6029 2b6f 823f fea2 b768 6151 963f
00000080: d222 3032 5847 9b3f 402b 904a 5b35 993f
00000090: dc71 6526 a4b5 79bf d15e c54e c71b 943f
000000a0: b4e9 2e48 ed53 a73f 21fe fb52 2d02 9f3f
000000b0: 8461 f993 da95 a3bf 7c63 6ba1 8766 a4bf
000000c0: 8e28 4838 7244 90bf ff2b b550 9903 8ebf
000000d0: 864a cd8b 5b12 803f 92f3 91d9 2e5a 64bf
000000e0: cf8d 2fc9 dcac 71bf 5373 a758 f3e5 7cbf
000000f0: 3185 75b3 fe1b 903f 8c09 9e9b 0180 743f
00000100: de9b 4d3a 6e14 9e3f b4af 7054 baba 993f
00000110: 9bb3 87a1 ee88 913f ee04 ecf3 52ba 6a3f
00000120: 9b89 aee5 e4e3 a53f 5947 af71 7067 7e3f
00000130: 6bf0 8eed e57a 7abf bf9b 60b2 ead1 a0bf
00000140: cce1 8c67 6339 a4bf c319 72b8 b475 b6bf
00000150: 14f4 e0f6 2101 b1bf 86db 7901 aab2 9f3f
00000160: cc05 8e46 8ee1 973f a8a2 2d0a 2ecc 923f
00000170: 62d6 c14c 462f 8a3f 4419 0f94 a509 973f
00000180: d7e5 afa1 9920 643f e6c0 53dd 3b28 95bf
00000190: b32e ddef de1d a0bf c885 2676 1ff8 82bf
000001a0: a2af 7e16 c1fe 863f ccf3 49c5 febf 6d3f
000001b0: a2d9 faaa 12eb 743f 4b11 0cda bc8e 87bf
000001c0: 9e24 84bc 9801 723f 087d f061 5de0 9a3f
000001d0: 7eb3 5fb7 1a12 663f 8fd4 ec82 66f7 9e3f
000001e0: 7be3 3582 b645 a73f dbe9 4424 e3db b43f
000001f0: cf01 73b6 acca c03f b949 7b63 6204 b53f
00000200: b57a c3bb b649 a83f 5416 63b8 290f b13f
00000210: 728b defa c74d bc3f 6a68 fecc b4a5 c13f
00000220: 2808 33ad 9636 bc3f c47e 489b 97f0 af3f
00000230: 11e4 be6e 6127 bc3f e122 3b3e cb9b b63f
00000240: dd12 8fab cc2b b93f ee72 cf14 121f cb3f
00000250: 1052 cc3d e1a7 c83f 7405 4701 3f64 cb3f
00000260: fa0b 02de 9f44 c73f 9b66 02f2 e836 c93f
00000270: 031b c8c9 0d2d cf3f f2c3 f84a f3ad c53f
00000280: 2499 ea1a aafb cb3f 937c 9ebd 9dae cc3f
00000290: 575d 10f5 78aa ce3f 2c3b 0f81 4ace ce3f
000002a0: 02f2 c222 fc67 d03f 308c bec8 feec cf3f
000002b0: 8ada 0c99 9a79 cc3f 44f0 73b8 2b5b cd3f
000002c0: feca 3808 9af9 ca3f fd11 c7b0 5272 c33f
000002d0: 0c4e ff56 d117 be3f 9253 fe80 d23e ad3f
000002e0: d424 e3ea fbab a83f e694 a4fc 35f5 c03f
000002f0: fc64 153c 1c61 babf eb26 eeff 08fa a2bf
00000300: e8ed db71 4fdf abbf a806 b07c 4cd3 89bf
00000310: df4c 287c 30b0 6cbf 3032 c719 f826 483f
00000320: 5b82 1a23 519e 91bf 6ae8 5f76 f925 753f
00000330: afe7 9b2a 56a6 913f 708a 6659 954d 513f
00000340: 37d5 5ed7 61fc 90bf 7de7 f35e d2ff 94bf
00000350: 75d3 22a5 03c3 9cbf 15eb 7982 225b 88bf
00000360: 88fb 6eb2 0ccd a5bf a12d daec 5402 a4bf
00000370: b57a c7c1 5424 853f cbba 101d 0525 a3bf
00000380: 127e a62d 4ae0 9abf 3d71 e636 6efb 99bf
00000390: 5357 62d8 de6e 9dbf d71e 4d0f e912 3c3f
000003a0: bb41 eec6 a413 9dbf aeca b2a3 ff68 8cbf
000003b0: a518 1978 8714 9bbf 2fce bfe2 9f87 583f
000003c0: d5ff f0aa bc38 86bf bea3 b7f5 1b23 91bf
000003d0: e281 65cb ceed 8abf c569 aade 6f4f 82bf
000003e0: 05e6 aa81 632e 66bf bf9b dec7 4dcf a8bf
000003f0: 129b 203a 2352 aebf 1e98 6761 01de a4bf
00000400: 8b9c 46ed 1e50 6fbf 1546 d715 139c 60bf
00000410: c019 c484 4381 8abf f5af 7711 2e09 863f
00000420: 475f dcea 2d65 97bf 7914 867b e2b0 7abf
00000430: 1576 6da3 bf5a 923f 30fd dba4 4440 9d3f
00000440: adc3 df12 2003 873f e3c4 6412 dea4 673f
00000450: 6067 5f5e a74c a83f 71b7 62cc 750c b23f
00000460: 20ab fbba d8bc a93f a721 fc50 d684 7f3f
00000470: 1f4a 7e12 c45e 453f 7c55 01b0 9e23 7f3f
00000480: c62c da34 ccaa 733f 68ac c881 7602 aa3f
00000490: 64bd ec94 f0d9 be3f 264a 0f26 460b b63f
000004a0: f36c fd6a 6466 94bf 7955 5a0f 6d77 8bbf
000004b0: 67af 5a11 c85f 8d3f 00b0 1a80 a65d aa3f
000004c0: a058 1513 31e5 a23f 268e 8af8 e555 b33f
000004d0: 3960 108b 0aef a2bf ff70 fb5e d6f3 a3bf
000004e0: d236 4c8c 3ef3 83bf 7834 0b89 fbad 953f
000004f0: d90a e925 1036 a23f 474f 9287 d755 a03f
00000500: 5e6b 2878 fe96 b03f bec6 1eda 0f90 b13f
00000510: 636d cd7a fe2d b33f 7afe 8afe 1b64 bb3f
00000520: eaac e785 29f0 c03f 48e1 367d 472c c03f
00000530: 2bf7 2e73 9168 b33f d045 e9c9 781a b83f
00000540: 0932 45c7 dd8f c33f 8691 2732 449f c03f
00000550: 3dc5 64e4 f782 c13f 835a 94b8 89e1 c53f
00000560: 187e 14a1 2e9d cb3f 6330 48ff 5367 ce3f
00000570: cbac b560 68d8 c63f 6aaf 5fda 1b1e c13f
00000580: 36ef 44d5 2557 c43f ba3b 9baf be32 c63f
00000590: 6919 781e 650a cb3f 1ee7 02c7 a84d d03f
000005a0: 5d18 6d8b 94b1 d13f fb69 dbca 4ff8 d23f
000005b0: 37d8 2540 608a d33f cf50 224f 6871 cc3f
000005c0: d2e7 5802 f9ce bb3f 61f4 fd04 6905 ae3f
000005d0: 2834 db87 658f ae3f 43b2 d440 159f c53f
000005e0: 73a2 0a33 50be 78bf 0613 2d58 3a6c 993f
000005f0: 4f01 5a7e 4dc0 9d3f 7734 27e2 b965 aa3f
00000600: 32ef 05a6 3299 813f 6d52 bc69 654a 93bf
00000610: c1a2 06ba b879 98bf 9911 625f 11d4 73bf
00000620: 8e7f 27bc f64e 75bf 5664 4766 a891 8b3f
00000630: 10b0 1368 db5e 9c3f 6d67 8ec6 8ff0 a33f
00000640: 56e8 8624 59d4 9e3f f194 5bac 7b42 8d3f
00000650: a914 0577 e356 69bf 71a8 b4dd 5025 773f
00000660: 5221 a78c 0be7 87bf 6dfa 087e 7db2 b33f
00000670: 0c43 e694 636e b63f f1e4 1837 3600 b53f
00000680: ca86 e7a2 6a70 99bf 0ddb 3ac5 00ae a0bf
00000690: dcc1 67e2 ee0e 9cbf 1c7f 1572 f2d7 9b3f
000006a0: 231b 923c aae6 b63f d6cb 7291 0a00 b33f
000006b0: 6718 64f2 8ba2 ad3f 9197 7d94 79d3 72bf
000006c0: d423 8c41 ac70 86bf 9f74 36e5 484c 9fbf
000006d0: cd9b 91d1 73a2 8fbf 3931 5174 e663 703f
000006e0: b631 4180 4058 ae3f 1017 0b7c 5d03 983f
000006f0: d1d4 64a5 9300 68bf 6a5a f551 edd8 92bf
00000700: 4b07 f1b1 d0a9 713f 10be 21cd eb21 a73f
00000710: c8c6 2c2f bcaf 78bf b1d0 63be 5c51 a4bf
00000720: 10b8 12be 29d2 983f 2921 d08f fac5 733f
00000730: ae7a e2c7 a40f 6abf 3ea0 a882 99e2 453f
00000740: 652e 601f 0c52 68bf 75f3 d8c9 348c a1bf
00000750: ba66 8817 6eab 91bf cd7b a41a 5353 77bf
00000760: 5281 e631 fb14 a2bf 12b9 b56d 3edf a13f
00000770: 34eb 7865 72f3 7fbf ab20 d6c9 87d0 9f3f
00000780: 8e38 ee7a c502 a0bf 8f04 f2c1 b050 99bf
00000790: 1e4f 8d02 0ffa 9dbf 7093 9997 36c4 693f
000007a0: d2b6 ad46 9e4f a43f f497 6b33 2703 a23f
000007b0: a465 d4eb 12f8 933f c6a6 6d0b 255c b93f
000007c0: 19f0 b671 4cb4 ae3f 0b76 8e4b c4a3 953f
000007d0: 7c42 c3a0 187a 91bf 2a29 bf4b ea78 67bf
000007e0: 48e0 51fd 49a9 9a3f a1c6 5142 e130 a53f
000007f0: e1ea 5a40 1082 a93f bc49 4b56 b3f5 ac3f

fc.bias f8 [1]
0.07073832374462422
00000000: f298 0e23 e81b b23f
