dl_experiments/best_checkpoints/taxi_1h_GRU_cuda:0_checkpoint.pt (torch, 294654 bytes, 30 tensors)

gru.weight_ih_l0 f8 [96, 24]
000000 82 60 5f e1 46 04 76 3f 3d 69 20 41 d3 17 72 3f
       0.0053751724971889975 0.004417252743247166
000010 37 fb 50 f1 94 13 5b 3f bb 03 20 3d 92 fb 74 3f
       0.0016526178853976789 0.005122729535288191
000020 32 c9 30 ba 24 58 7f 3f 66 0d ae c9 e3 a0 6f 3f
       0.0076524195347238855 0.003860897920675721
000030 34 cd 34 28 ae 97 4f 3f cf 2e 43 44 c1 c1 50 bf
       0.0009641266227959134 -0.001022757279360787
000040 eb 80 64 a0 77 41 5d 3f a3 d7 33 d8 82 3e 67 3f
       0.0017856281497828318 0.002837424808258286
000050 b2 7e d1 39 74 f2 60 bf 01 98 68 2a d8 b7 71 bf
       -0.0020687360798062543 -0.004325718304732718
000060 1f ca b3 d5 37 38 51 3f 20 71 04 82 ba ce 49 3f
       0.0010510010968657402 0.0007875834162720842
000070 ae ad 99 09 df fe 52 3f b1 9c e9 37 cd b6 6e 3f
       0.0011593988514516473 0.0037492759868658844
000080 08 4b bc 70 4e 3b 42 3f 49 8d 37 be 17 31 73 bf
       0.0005563862809786222 -0.004685490366202424
000090 38 67 70 c5 a9 36 5a bf 1d 21 f8 ee ac a3 64 bf
       -0.001599946777565765 -0.0025194528204829495
0000a0 aa 7e 30 d4 e9 fc 78 bf e8 d9 94 b7 1c 89 64 bf
       -0.006100572008136554 -0.0025067864304688554
0000b0 dc a3 d3 0e 82 d2 77 3f 16 03 90 c2 12 78 77 bf
       0.005815990484941271 -0.005729745179451814
0000c0 1d a6 de 99 bf db 61 bf 81 2d 07 af 80 d4 5d bf
       -0.0021799795349195642 -0.0018206841160573752
0000d0 24 2b 8b f6 01 ce 59 bf 36 57 ef c2 da 4b 63 bf
       -0.0015749949617879866 -0.002355506199346015
0000e0 51 d2 3f 5c 74 51 5d bf 9b de 17 74 c9 2a 26 bf
       -0.001789439805176891 -0.00016912182950056396
0000f0 1f 11 c2 e2 55 fb 4c 3f 37 b8 e4 b5 ff b6 33 bf
       0.0008844537128572006 -0.00030082457478186906
000100 5b 1c 02 42 7d 23 5c bf 27 99 05 b7 92 f5 65 bf
       -0.0017174456807269786 -0.0026805749441109086
000110 05 23 da e8 8d a8 65 bf e1 e0 88 7c 8f 6a 70 bf
       -0.0026438495322661537 -0.004007874006269869
000120 e4 ae 49 83 6f e3 77 bf cb a0 02 49 86 95 75 bf
       -0.005832133862536646 -0.005269550849483727
000130 40 cc 33 4f 44 ab 70 bf 5f 5c 67 56 7a 58 6d bf
       -0.004069582780391434 -0.0035822286038001273
000140 75 e7 a7 0d f4 56 6c bf 0e 78 53 39 37 8c 6c bf
       -0.0034594313303814525 -0.00348482881473356
000150 9a 63 ad c6 f4 bf 6c bf 0e 40 84 69 24 99 72 bf
       -0.0035095005782008306 -0.004540579066329554
000160 37 1d 0b fe 14 a8 72 bf c0 9d f5 76 be f0 6f bf
       -0.004554826737780452 -0.003898975373590935
000170 07 06 36 ef b4 ec 71 bf 9e b2 44 80 4f 4d 6c bf
       -0.004376131796904221 -0.0034548332934235112
000180 8e d2 b9 33 b5 49 7b 3f a4 a4 1d 78 bb 2d 74 3f
       0.0066620901303521395 0.004926426221438938
000190 7d a2 59 c5 a6 4a 75 3f 16 fb 56 4e da 80 7f 3f
       0.005198146294426051 0.007691242940778739
0001a0 b5 0a e2 48 55 0b 82 3f 8a ca a5 94 62 bd 7d 3f
       0.008810678755485449 0.007260689812357621
0001b0 e5 8a c6 d8 e5 e1 6c 3f cf 46 6b 3f 33 b3 5d 3f
       0.0035256852335846405 0.001812744185077642
0001c0 82 13 76 d9 09 30 61 3f eb 6d fa fb e6 9b 68 3f
       0.002098101842138823 0.0030040275012887994
0001d0 5d 81 c9 2c a0 c7 74 3f cb 21 17 ea cb 35 7c 3f
       0.005073190387151119 0.006887241879163185
0001e0 6a 5b 7d c5 20 f1 7d 3f 45 2d f5 d1 7a 8c 78 3f
       0.007310035718396482 0.0059933469450002596
0001f0 e4 8d ba c2 54 07 7a 3f 46 8d 7b bd b2 38 7f 3f
       0.006354647728275851 0.007622430995726964
000200 5f b3 0d 2a 7a 01 7a 3f e3 19 49 25 40 06 7e 3f
       0.006349065021692051 0.00733017975705372
000210 fe 15 ed 45 1e 1b 7c 3f 75 9c 69 d4 1b 18 79 3f
       0.006861799482810847 0.006126507482441136
000220 cd 47 5a 81 4e 12 74 3f fb 6e 05 0b 16 6f 7a 3f
       0.004900271092667508 0.006453596215887587
000230 b6 90 6f 7e 35 b0 79 3f 90 05 1e 1f c5 74 6b 3f
       0.006271561584956389 0.003351578715353916
000240 0b fa 76 30 1f b4 74 3f 69 5b 47 45 ee f4 71 3f
       0.005054590066207352 0.0043839747854324896
000250 06 0e e9 8e 05 40 71 3f 1d 09 f2 ab a3 65 77 3f
       0.004211446487321085 0.0057121652054113155
000260 e5 f4 ff 88 63 28 7a 3f 5a 5f df fe 4c 39 70 3f
       0.006386174020005718 0.003960896266981562
000270 fb 70 1e 83 a2 09 5d 3f 27 00 6b ce 80 5c 51 3f
       0.0017723166497268228 0.0010596521257610987
000280 56 2e af 7b 48 a8 63 3f 52 12 ff 79 b4 0d 73 3f
       0.0023995795904505996 0.004651741968647887
000290 8b 20 8f d2 46 e9 74 3f 20 7d 1c 52 55 e5 70 3f
       0.005105282450081581 0.004124959263008848
0002a0 36 d6 87 35 a6 1b 67 3f 4f be 10 35 dd 21 64 3f
       0.0028208013793527232 0.0024575539069003126
0002b0 b0 a3 61 57 1c 6f 6a 3f d3 3f 0d 6d 92 3c 64 3f
       0.0032268098394081166 0.0024702892191399233
0002c0 50 ef 25 32 be a3 62 3f 63 e0 af 4d cb 7e 62 3f
       0.0022753443492415162 0.002257725789146335
0002d0 fa 50 de d5 a5 bc 61 3f d8 e7 f7 88 b9 ab 62 3f
       0.002165149590789392 0.0022791503649814797
0002e0 d7 5e f2 ea fe 01 69 3f c4 be 47 5a 06 21 6e 3f
       0.0030527094709887725 0.0036778568339669044
0002f0 09 1b 04 94 51 48 71 3f 69 b2 4b 74 55 41 70 3f
       0.004219359078212256 0.003968557172566813
000300 ba 8e a4 58 58 16 55 bf 46 07 e1 2f be e0 53 bf
       -0.0012870657688574387 -0.001213250855940777
000310 9c da 2b e1 67 ca 51 bf 2b 95 7d 29 62 79 4f bf
       -0.0010858549546221346 -0.0009605149561876849
000320 98 58 d2 a3 c8 7a 4b bf b3 7e fb 87 6f e5 46 bf
       -0.0008386115729475284 -0.0006987375818105684
000330 f0 84 0c 26 91 63 23 bf 34 76 2a 76 cb 60 1c 3f
       -0.0001479258235344348 0.0001082538779350821
000340 a2 1d 33 0d ea d8 21 bf 0b 70 4f 90 c3 0f 3a bf
       -0.00013616425585481507 -0.0003976681185215997
000350 27 38 e3 8f 53 da 3b bf 06 0d b3 ef 0a c3 21 bf
       -0.00042500057305694606 -0.00013551243305274396
000360 f0 95 a6 0a 5b cf 18 bf 83 ed ca e4 27 9a 2a bf
       -9.464257406096416e-05 -0.00020295845970062448
000370 5b 15 25 5f 3b 6d 44 bf 35 73 84 cc e3 cf 48 bf
       -0.0006233730221444732 -0.000757204275064183
000380 7d 7c 0b 0b 7d bd 41 bf 8d 50 8e e1 cc 11 40 bf
       -0.0005413876116015095 -0.0004904032131087963
000390 de 73 39 c8 ab ff 43 bf 2f 00 73 0d 3b 63 4b bf
       -0.0006103123454966849 -0.00083580382752047
0003a0 44 da c8 bb 13 57 4e bf a9 15 03 94 5b c5 4b bf
       -0.0009259077410835388 -0.0008475014838259981
0003b0 f6 e5 44 52 f3 06 48 bf a1 f4 cc ad dd 71 4e bf
       -0.0007332504360768033 -0.0009291012207551971
0003c0 6a 1a d8 11 ff c6 81 bf 55 c3 9a f0 69 7d 7d bf
       -0.008680336696682295 -0.0071996820712890335
0003d0 97 6f 97 c3 45 3e 7d bf 91 4e da a4 c1 9e 7f 3f
       -0.007139465823879385 0.007719761296943199
0003e0 35 ed db 21 7c dc 94 3f 8a db cd 7a 2c 4a 7b 3f
       0.020372333113283864 0.006662534474222501
0003f0 95 4c 05 99 40 dd 68 bf 25 9a 6d 47 a7 7e 72 bf
       -0.0030351888346245672 -0.0045153173767631715
000400 db 35 cf 54 a2 15 8a 3f 1d d3 f1 c3 10 ef 87 3f
       0.012736576283624615 0.011686449985270958
000410 9e 10 e7 91 d6 3a 5d 3f 03 82 03 42 75 7c 54 3f
       0.0017840476426594152 0.0012503762337062747
000420 b4 79 bc 19 04 2e 35 bf 8d 68 b3 91 6e a2 76 bf
       -0.00032317733870170927 -0.005526000891416538
000430 77 8b 61 2c 44 ab 86 3f 68 cb cf d4 5a be 91 3f
       0.011068852047349627 0.017327708472247322
000440 8c ab 66 a2 b0 ee 85 3f 9f 14 66 fa 62 2f 7b bf
       0.010709171253287207 -0.006636988290101758
000450 b9 3d d2 c0 60 41 6e 3f 6f 27 1b e3 cc 87 93 3f
       0.003693284007176803 0.01907272468705606
000460 0c 56 c2 4a 86 52 6d 3f 90 82 cf 89 77 dc 5b 3f
       0.0035793898478668814 0.0017005126348907142
000470 5b f0 7f 20 0c 23 63 3f 07 83 2a 19 b5 9a 7a 3f
       0.0023360478262457857 0.006495196738484982
000480 36 82 e2 fa 28 1d 5d bf 45 52 ba 2b 2a ff 64 bf
       -0.001776971835660513 -0.0025630782745998137
000490 dc 4d 57 bb 72 8f 70 bf ac 25 ab cf 7f 1d 83 bf
       -0.004043052836510932 -0.009333609128037455
0004a0 ac 67 0a 7d 79 49 87 bf ca 40 45 bb 97 de 61 bf
       -0.011370610359609255 -0.0021813357836109925
0004b0 27 50 77 9c 45 b1 68 3f 68 f1 40 e0 3e 6f 80 3f
       0.00301421733795772 0.008024684160880383
0004c0 59 54 a5 b3 46 73 6a 3f a1 ee fd 8e 26 08 5d bf
       0.003228796090449165 -0.0017719627903422313
0004d0 db 2b 6f 08 13 50 74 bf 89 8e 45 09 25 70 79 bf
       -0.00495917734856285 -0.006210465119099625
0004e0 60 2e e8 74 41 56 6b bf c1 93 d4 c1 a2 68 6b bf
       -0.0033370283556502373 -0.0033457926607689263
0004f0 4d 82 76 20 d0 07 66 bf 7d 38 df 22 62 07 70 3f
       -0.0026892724014973336 0.003913291306117836
000500 b6 33 86 16 39 54 69 3f e0 dd ac f1 a1 9f 6d 3f
       0.0030919184684478863 0.003616157814942275
000510 2b be 67 b8 1b 42 6b 3f b1 66 89 6e 79 b2 30 bf
       0.0033274213230851855 -0.00025477852481046575
000520 b3 4e 39 de 6b 06 34 3f e8 84 cd 57 c2 3c 58 bf
       0.00030555852410894395 -0.0014793298607503284
000530 6c ca 35 97 09 13 54 bf e9 99 41 f5 95 da 3b 3f
       -0.001225242010005313 0.00042501603207370384
000540 5c 64 ba ea 0c a0 80 3f 08 ce bb 2e 22 92 65 3f
       0.00811777201970381 0.002633158457564514
000550 2a de c6 b0 db ee 71 bf ff b7 a6 fd f1 eb 80 bf
       -0.004378183523321458 -0.008262529900857627
000560 77 86 f1 b1 d8 cc 79 bf 91 49 2d 19 9a 91 68 bf
       -0.006298872437669459 -0.0029991159184785195
000570 f0 a9 c1 23 88 05 48 bf 3b ed 9e 28 46 5d 65 bf
       -0.0007330813164235211 -0.0026079530989286093
000580 0a e5 8b 7a 4c 2d 7c bf 31 fa ef dc e9 a5 81 bf
       -0.006879137749586714 -0.008617236189818108
000590 58 9a 9d bc 6a 00 80 bf b9 97 d3 13 59 71 72 bf
       -0.007813295250980776 -0.004502628287104509
0005a0 e6 cb 31 55 33 a9 11 bf 55 f2 c8 35 36 7e 55 3f
       -6.737113771908241e-05 0.001311829509304326
0005b0 a9 91 a3 21 aa a4 5a 3f 63 e3 ad 43 74 1b 69 3f
       0.0016261731566880966 0.003064848975040156
0005c0 33 a5 5b c6 fa bc 53 3f 04 12 52 02 40 59 54 bf
       0.0012047242138869096 -0.0012419819916270622
0005d0 70 19 0f 60 e4 38 6f bf b0 87 bc f6 3c dd 78 bf
       -0.0038113079503744804 -0.0060703641318315266
0005e0 57 09 a4 cd 30 85 7d bf 08 a1 bf d3 0d 59 5d bf
       -0.007207098615483374 -0.0017912516623202496
0005f0 ef 1c f5 ee 5a a0 4f 3f 82 7c 8a 5e ee 93 91 bf
       0.0009651607523800935 -0.01716587497741929
000600 12 3c 59 cf ff ac 04 bf 32 aa 09 34 35 61 4b bf
       -3.943591756849092e-05 -0.0008355626851657748
000610 fc f3 a8 a8 eb c6 4a 3f 0d fc df 77 7a 96 96 3f
       0.0008171702077742755 0.022058404509149244
000620 c7 d6 2e 82 65 80 90 3f 02 38 39 2b 4d c1 75 bf
       0.016114793844926447 -0.005311299744404254
000630 8e b9 6d 00 9b 32 83 bf 5c 88 7c 70 f0 5a 5d bf
       -0.009373866034107416 -0.0017917011300103902
000640 5a 28 30 aa 71 e5 64 3f 37 f6 69 60 ab 7a 5c 3f
       0.002550813676411895 0.0017382310485624228
000650 24 cd b0 d5 6e 99 6e bf d7 47 a7 4b 93 b8 41 3f
       -0.0037352719059754614 0.0005408019272243836
000660 bf 67 a4 a8 03 3f 8e bf 3a 63 4c 39 1e 9f 46 3f
       -0.014768627723743209 0.000690355069852356
000670 9f ee d7 2a 5d 5b 8e bf 46 eb 77 5c e9 d2 77 3f
       -0.01482270037649097 0.005816375319677663
000680 75 83 8c b8 25 e7 72 bf 96 e5 e5 d1 39 75 69 3f
       -0.004614970538370557 0.0031076554579924738
000690 e4 74 59 93 2f 87 5c 3f e4 f6 d2 75 bf ce 76 3f
       0.0017412151913938573 0.005568263904192714
0006a0 7b 64 94 dc 6f e6 82 bf 03 52 a4 36 0f 0f 77 3f
       -0.009228586119706108 0.005629596164244524
0006b0 4a 85 d0 57 8a 89 87 3f 05 ac 76 79 39 56 9d bf
       0.011492806248556992 -0.028649232901141648
0006c0 7d 96 b5 68 3c 15 71 bf a5 19 8f 63 77 8b 72 bf
       -0.004170642826783697 -0.0045275367382998965
0006d0 87 d7 d8 83 45 2e 33 3f 48 47 78 57 17 30 84 3f
       0.0002926749910757632 0.009857351643436055
0006e0 0c b7 b0 ee ef b9 79 3f 23 65 bb 66 3e 15 4a bf
       0.006280839191317399 -0.0007959894841988207
0006f0 3e c1 62 fe 45 a5 74 bf 66 1f 15 43 79 cd 6f bf
       -0.0050404295090376566 -0.0038821571730841995
000700 f8 06 39 bc a0 91 5d bf ae 9a be d7 22 7a 5c 3f
       -0.0018047399215820863 0.00173810389149202
000710 6a 72 29 45 ed 3e 62 3f f6 f1 f4 92 4e 92 1f 3f
       0.0022272714789280295 0.00012043575838033963
000720 1e 79 8f b0 a2 43 5b bf 1d 8f 5d ad 27 46 74 bf
       -0.001664074780130038 -0.0049497175112696275
000730 24 25 30 72 77 0c 6a bf c6 f3 4a 2a 43 2a 37 3f
       -0.0031797726564987295 0.00035347118163625254
000740 1a 31 d3 3a 87 5c 60 bf 6e 02 ba 92 65 40 41 3f
       -0.0019972459036578074 0.0005264755213403979
000750 42 d6 76 a3 5e b4 52 bf 94 ec f0 e5 46 a3 4d 3f
       -0.0011416362957396152 0.0009044738943723312
000760 97 6f 07 5b 30 a8 58 bf 77 1a 08 b1 bc 1a 5d bf
       -0.001504943105934386 -0.0017763941469880731
000770 34 92 78 d7 f0 c3 66 bf b3 07 f5 6a b0 59 90 bf
       -0.002778978723443149 -0.015967136886736188
000780 6d f3 e1 62 f9 91 80 3f 3c 34 2f 6b fb f3 82 3f
       0.008090923624189473 0.009254421432979602
000790 33 47 64 c0 b3 46 85 3f 64 d6 f3 d8 8b c7 8a 3f
       0.010388759907559475 0.013075916822781149
0007a0 25 cd a0 82 27 df 8e 3f d4 54 1e e7 b6 29 90 3f
       0.015074070619539423 0.01578412805209413
0007b0 a9 da ba ec 0b fa 90 3f 66 31 be 21 75 e9 8f 3f
       0.01657885200867307 0.015582003681423994
0007c0 ef 40 d1 c5 04 ab 8d 3f bf bb af 98 30 b2 8b 3f
       0.01448634842577731 0.01352346387827008
0007d0 79 81 fd a3 41 85 85 3f 3d 89 9e 3b fb 79 81 3f
       0.010508072678647494 0.008533442265449604
0007e0 6c ce da b0 68 28 86 3f a7 bb 4a 33 c0 fd 8a 3f
       0.01081926145284414 0.013179303708367686
0007f0 eb d9 2e d5 0e 83 8f 3f 89 19 06 35 0a 6d 8e 3f
       0.015386691933469051 0.014856414549979007

gru.weight_hh_l0 f8 [96, 32]
000000 93 42 f1 08 08 87 71 bf 94 46 f3 9c b8 77 74 bf
       -0.0042791665901666 -0.004996987480994659
000010 f6 de 0e 16 8c b2 4b 3f bd 8f 2d 2f c9 ee 6b bf
       0.0008452590956186934 -0.003409760416092282
000020 fa 3f 25 cd 30 d3 25 bf 27 b8 1b 2f 71 56 62 bf
       -0.00016651125640487747 -0.002238484442265171
000030 67 c3 3e ca 1d 53 6f bf b7 13 c5 b9 a8 39 82 3f
       -0.003823812659867465 0.008899038476224292
000040 90 e7 ec b8 bb ce 44 bf 4c 3e f9 76 d1 59 61 bf
       -0.0006349960911855457 -0.002118023978063188
000050 83 00 0c 8d 34 60 6f bf 0e 96 57 bd 9d ce 2c 3f
       -0.003830053938486401 0.00021978068859522564
000060 b2 ea 64 13 53 1f 6b bf e0 53 08 5a 58 2f 69 bf
       -0.003310835130063105 -0.00307433372678155
000070 ce f0 b7 6a 4e dc 63 bf 85 c6 0b f8 72 99 66 3f
       -0.002424386175105742 0.0027587171065242577
000080 0e 67 35 c5 aa 48 71 bf 16 35 11 ce d3 20 67 bf
       -0.0042196913448948725 -0.002823270494025319
000090 68 33 a2 4f 7a 81 62 bf 50 e2 cf 8e 4f 19 62 3f
       -0.002259005440527085 0.002209334742016268
0000a0 10 21 f9 91 7b b8 6a bf a1 39 09 b5 f7 8b 5a 3f
       -0.003261796329557261 0.001620284940276308
0000b0 04 f5 99 2b 37 c2 74 bf d7 73 a5 0b cc eb 51 3f
       -0.00506803084283303 0.001093816054513077
0000c0 85 f3 12 b0 50 cd 62 3f 33 a8 05 84 02 a5 50 3f
       0.002295167535150746 0.0010159039084905008
0000d0 cc a7 31 f9 ce 4f 4c bf 56 29 8b 5f 6f 23 83 3f
       -0.0008640061008808818 0.009344930747279417
0000e0 c4 da 46 e0 83 15 7a bf d3 d3 a7 32 cc d8 70 3f
       -0.006368174687330256 0.004113004348700283
0000f0 5f 25 ed 5e e3 1d 79 bf 72 d6 50 48 2a 0c 5b bf
       -0.006132019202433752 -0.0016508496203305992
000100 6f 34 dd 7a f3 18 33 bf 27 4f 2d b9 ca db 66 3f
       -0.00029140419325274827 0.0027903518143065523
000110 cd a5 44 0c 4f f0 4d bf 79 5f b6 2c ff 42 51 3f
       -0.0009136568046745286 0.001053570932389973
000120 68 e7 07 74 19 5b 06 3f 2c 55 54 78 dd d3 5c 3f
       4.264041354313971e-05 0.0017594969552353163
000130 49 17 a0 c5 74 a5 67 3f 32 25 4f b0 d9 30 50 bf
       0.002886512823354535 -0.0009882093302045589
000140 b4 3c b8 84 fe 4b 51 3f 6a 13 d5 8a 29 00 60 bf
       0.001055716088447939 -0.0019532023785892487
000150 5c 09 d1 7e 17 cb 47 bf 56 94 e6 8a 92 d3 1b bf
       -0.0007261147235413756 -0.00010614950108463311
000160 7f a0 53 86 ab 05 3e 3f 01 fb e6 dd d0 79 59 3f
       0.00045810163130833437 0.0015549220766925555
000170 9f ab a0 56 83 9d 45 3f 30 c3 26 4b fb e8 4b bf
       0.0006596461582878305 -0.0008517481822335245
000180 44 a0 f6 b6 fe 7d 63 3f 2f 53 ab 0d 0f 99 32 bf
       0.0023794150253771146 -0.00028378121866738914
000190 41 5d 4f 28 50 f8 50 3f b5 16 ac e1 b9 c1 61 bf
       0.0010357649600701432 -0.002167571115367329
0001a0 98 92 ee 47 78 4c 3a 3f 91 7d 58 ff 8c 8a 32 bf
       0.00040128647372687223 -0.0002829164726296458
0001b0 1a 61 bf 61 27 bf 51 3f 06 20 cd 6e 35 1d 65 bf
       0.0010831722820424162 -0.002577404366466143
0001c0 bd b5 96 f8 ca 2a 3a 3f 24 d2 29 a8 f8 95 03 bf
       0.0003992791685856997 -3.735699740029335e-05
0001d0 21 dc f0 f9 95 c2 41 bf 85 15 2f 8a 90 ee 5a bf
       -0.0005419952684694343 -0.0016437922974870966
0001e0 5b 30 71 94 6b 66 70 3f 89 79 47 dc bf f7 26 bf
       0.00400392554645287 -0.00017523018881511154
0001f0 96 64 c1 40 ea d7 5d 3f 66 2e b3 06 70 ef 24 bf
       0.0018214976908182182 -0.00015972368723847773
000200 fe 8a 24 db f9 f5 51 3f 86 63 3c 46 ee 4d 72 bf
       0.0010962429046876272 -0.004468851813521085
000210 da fd b3 8d 95 a1 7d 3f 38 55 b0 c0 ae a5 2f 3f
       0.007234176820247263 0.0002414489575534391
000220 b6 eb aa aa 10 2d 39 bf 5e 2a 6c 68 c0 ce 60 bf
       -0.0003841558160890228 -0.0020517118422323363
000230 27 3c 73 49 00 29 7c bf 39 29 65 43 a7 a7 5d bf
       -0.006875039215812818 -0.0018099912100120864
000240 77 6b e5 07 cf 43 74 bf ce 43 f1 56 18 c6 40 bf
       -0.004947479929195412 -0.0005118960233493287
000250 70 37 b2 07 ff c2 79 3f 50 12 4c 08 6b e3 d1 3e
       0.006289478503402765 4.264915450806291e-06
000260 58 33 91 cc 84 44 55 3f 04 65 26 71 5d 0d 70 bf
       0.0012980744234198562 -0.003918995864659939
000270 f9 7a c9 e0 a3 c3 55 3f bd 69 e9 4f 41 3b 78 3f
       0.001328382527524928 0.005915885091406667
000280 f7 8e 68 78 01 ba 72 bf 4e 74 38 5b ff 1b 56 3f
       -0.0045719201503151485 0.0013494485582506047
000290 02 c1 5f 7c 01 9a 5a 3f d5 46 7b b9 35 01 47 bf
       0.0016236319074743326 -0.0007020485236017513
0002a0 5d 73 ff dc bf e2 55 bf 38 5d 08 72 ca 5b 76 3f
       -0.0013357995667242141 0.00545863228082704
0002b0 8c 35 96 88 9d 95 5d bf 1f 7e ce ba 7c 6b 5b 3f
       -0.0018056906140800659 0.0016735761703116148
0002c0 85 46 cf 91 74 77 63 3f 62 00 1a 17 2b c9 59 bf
       0.00237629668706846 -0.0015738411715631386
0002d0 08 7f e5 ab 75 d4 62 bf ad 65 c1 85 55 31 60 3f
       -0.0022985742827329493 0.0019766493187886786
0002e0 d3 ce 2b b9 65 a9 78 bf a1 f9 27 dd a5 d2 43 3f
       -0.006020924908387309 0.0006049451715737683
0002f0 aa 7a 9e 27 33 1c 70 3f 24 f7 b5 2c b5 93 5c bf
       0.0039331434471977875 -0.0017442006381708864
000300 0b d8 ad bf 4e d2 5c bf bd 82 17 22 8b 8c 60 bf
       -0.001759125617096571 -0.0020201413578749537
000310 cd 63 b7 e7 b3 ca 23 bf d6 ee e2 0a 1a a1 58 3f
       -0.00015099950893107534 0.0015032533952269909
000320 84 50 8c 53 f1 a3 42 bf 01 7f 62 ef 76 44 46 3f
       -0.0005688598967901336 0.0006795483339096798
000330 7f be bd b6 75 1c 2f bf 2c d5 e5 fd a5 3c 75 3f
       -0.00023735939918933036 0.005184791951582651
000340 cc 30 bf 92 1d c4 33 3f 37 0d 84 c8 17 1c 58 bf
       0.0003016063881176145 -0.0014715416201063877
000350 1a e0 18 67 20 be 64 bf 48 e2 b1 91 65 35 53 3f
       -0.0025320656648340047 0.0011723987470572284
000360 1b 2b b2 57 72 b7 50 bf f8 28 0c 71 41 2e 56 bf
       -0.0010202995897851733 -0.0013538016393704316
000370 f1 22 73 20 03 46 45 3f 69 f7 f5 45 97 61 6c 3f
       0.0006492152469031715 0.0034645037227950992
000380 9f 39 85 95 19 20 63 bf 74 3c a8 04 97 6c 78 bf
       -0.0023346423805954 -0.005962934412777721
000390 75 f2 81 0e e7 d5 2c 3f e3 07 84 30 72 5c 53 bf
       0.00021999784008021645 -0.0011817088253001033
0003a0 9f e1 bf bc ef 1c 55 bf 7b 28 73 e5 95 15 31 3f
       -0.0012886372742269903 0.0002606860120520982
0003b0 6c 93 2a cd 1b e8 5d bf 21 5e 99 f0 5e 92 7b bf
       -0.001825358533701772 -0.006731387003660967
0003c0 30 28 6c 5a 61 65 59 3f 0c 17 ee 51 71 66 30 3f
       0.0015500498499840913 0.00025024668314475927
0003d0 46 60 20 5c 3e 04 3f bf c9 9b e3 54 fe 75 7f 3f
       -0.00047327539880504357 0.007680886729054267
0003e0 fe 17 35 a9 a9 4f 31 bf ff d5 3c 56 b2 d1 58 3f
       -0.00026414768327176475 0.001514839322181216
0003f0 5e 95 68 b1 f8 84 e6 3e b5 9d e6 e4 ab 03 69 bf
       1.073809611990922e-05 -0.003053508501767966
000400 a6 eb a9 42 bf 92 17 bf 84 72 5b 2f 0a 13 4a 3f
       -8.992473946449353e-05 0.0007957267505066122
000410 59 a5 7b 80 62 a9 41 bf 0c e1 59 e2 7b fb e7 be
       -0.0005389910665744387 -1.1435679947200304e-05
000420 59 c4 ea c2 73 71 17 bf 66 9f e3 5c e0 15 05 3f
       -8.942860652429284e-05 4.021731329989404e-05
000430 d4 1c d7 0b 8d 6e 55 3f a7 09 ed ef 16 31 41 bf
       0.0013080956845088936 -0.0005246507642840307
000440 16 be eb 27 ac f8 2e 3f 48 0c 28 e7 2c c9 38 3f
       0.0002362928534789122 0.0003782019258837294
000450 00 85 80 48 9f c6 3c bf 9c c6 c1 4f 76 c8 1b 3f
       -0.00043908489942807993 0.00010598394504926018
000460 8e 0f b5 3e 9e 35 3d bf 63 19 4d e8 82 15 4a 3f
       -0.00044570077325922156 0.0007960213848512806
000470 8d bb 8a 72 5d 43 23 bf 0d a3 82 fc e9 5b 44 bf
       -0.00014696613040629213 -0.0006213085662426246
000480 fc aa 68 a7 2e 48 49 3f 67 ee 81 25 3f 04 14 bf
       0.000771544246906813 -7.635722556814107e-05
000490 fe b1 8d 60 e2 6b 11 bf 8d e7 b0 96 5b 69 26 3f
       -6.645745464845668e-05 0.0001709865858588424
0004a0 ca 0a 23 18 af 01 2e 3f ec 58 13 0f 86 1e 37 bf
       0.00022893202191739118 -0.00035277150079816746
0004b0 52 8f f1 fc 7e d1 37 3f 71 30 c5 b7 d4 36 48 3f
       0.00036343908590751484 0.000738958231104826
0004c0 51 f1 02 92 15 0e 3b bf df 0f 3a f1 a4 06 13 3f
       -0.000412826791954553 7.257825591905309e-05
0004d0 d5 13 02 84 3a d2 2e 3f c6 62 f8 97 aa 69 58 bf
       0.00023514713575792262 -0.0014900365785079236
0004e0 36 a1 59 ed 6d 7c 4e 3f cd 99 6f 2a cc 6e 1c bf
       0.0009303604844719596 -0.00010846253518046537
0004f0 8a 7c 1b 57 44 fb 47 bf 7a ba a2 d6 fd 2e 12 3f
       -0.0007318576519671643 6.936477953687652e-05
000500 92 13 73 6b 9f f6 7f bf bd 59 32 ef 37 bb 87 bf
       -0.007803557141589661 -0.011587559687808441
000510 8b ca 35 9a f4 46 82 3f e5 f0 1c 5f 74 ae 7c 3f
       0.008924399334067764 0.007002310348806361
000520 5c a2 de 34 cc 0d 44 bf 90 6a 53 42 03 64 8c bf
       -0.0006119963743361312 -0.013862634145359182
000530 4c 27 21 e0 47 90 8c bf a4 bb 0c 70 87 06 62 3f
       -0.01394706871737452 0.0022003789203135105
000540 2f f0 a5 e8 0e 94 63 bf fe 98 f6 59 38 4f 70 bf
       -0.002389935606684566 -0.003981800196390715
000550 eb 59 e8 04 2d 3b 74 3f 09 39 43 7d ae 57 4b bf
       0.004939246994146699 -0.0008344270704812316
000560 0c 88 f2 cb f8 a0 66 3f a5 25 b8 10 4e c7 7c bf
       0.002762304240222063 -0.007026009504906315
000570 ed 84 c1 44 94 b1 55 bf b6 ff 43 d9 82 af 60 3f
       -0.0013240764556246524 0.0020368152273703933
000580 24 ad ab b7 a9 7f 77 bf 0e bc 8e 8e 61 fb 73 bf
       -0.00573698326000319 -0.004878407556062404
000590 53 a1 77 6c 45 45 1e 3f 12 64 c4 f5 bb 18 43 3f
       0.0001154731390823384 0.0005827825330327904
0005a0 f3 cb 52 b7 dd e3 87 bf b9 44 26 b9 9f 1b 7d 3f
       -0.011665088803374224 0.007106422346980051
0005b0 a2 21 da 14 5c 70 85 bf 79 b0 f1 c3 af 30 5b 3f
       -0.010468215357165193 0.0016595570048379123
0005c0 8d e2 0b 8f bd f1 7f 3f d7 81 75 7d bb c7 57 3f
       0.007798901046719775 0.0014514285047298925
0005d0 e1 53 e4 29 65 be 6c bf ff 2d 6a ae 59 b6 7b 3f
       -0.0035087562420223904 0.006765699689491366
0005e0 24 b0 9c c7 c9 91 90 bf 73 e3 62 79 d4 4c 52 bf
       -0.016181137855866848 -0.0011169505064982626
0005f0 e8 be 3c a1 e8 89 7d 3f 35 af e6 32 ec 12 69 bf
       0.007211598120008246 -0.0030607808359572005
000600 fb 4a 9e 06 b2 e4 78 bf 2b 9d df d2 16 74 70 bf
       -0.006077475942123152 -0.00401696124570287
000610 75 80 6c 54 8e d2 26 bf 1b 27 04 45 1c 10 44 3f
       -0.0001741217367561308 0.0006122720751886331
000620 86 26 c1 e2 89 3c 56 bf ee 86 a6 e1 3f 0f 43 3f
       -0.00135720696836686 0.0005816518708352239
000630 5b c2 23 b0 83 37 92 bf c6 d9 bc 32 18 7d 65 3f
       -0.01778989565440479 0.002623126279924312
000640 83 ca d5 29 1d 69 77 3f b7 a7 97 16 7e 64 6d bf
       0.005715478820422451 -0.0035879576359904813
000650 5d e0 a3 cf 96 03 7a bf c2 3e 63 f8 41 66 60 3f
       -0.006351079088055736 0.002001885269329624
000660 1f 35 2c e6 ad e4 79 bf 51 b2 9e 53 1b ca 3a bf
       -0.006321601193815667 -0.0004087750163488712
000670 99 4d ac f3 4c 02 6a 3f 27 9d a2 af df 0d 41 bf
       0.003174925133302597 -0.0005204527108348165
000680 eb ee 85 f0 8f 31 7d bf 24 9f af 05 e8 ea 6b bf
       -0.007127344383089466 -0.003407910507565408
000690 15 6c 32 76 d5 fb 22 bf fa 2d d5 14 87 53 58 3f
       -0.00014483433469511588 0.0014847582964020432
0006a0 c6 2e 89 48 8d d9 49 3f 46 88 b2 4a 60 ea 05 bf
       0.0007888736591410087 -4.180055960857679e-05
0006b0 d5 b0 29 e0 b2 d6 48 bf 59 f7 f5 2d 24 85 72 bf
       -0.000758015958422865 -0.004521504713350521
0006c0 d3 19 3e 4c 01 67 0d bf aa bb 1b 09 c1 be 72 3f
       -5.608055792465411e-05 0.00457644848368847
0006d0 fc 87 10 b6 97 39 61 bf fb 15 35 27 9f 35 66 bf
       -0.0021026576146292424 -0.0027111156902346312
0006e0 82 92 71 71 d7 c2 71 bf df 9e dd e7 ce 72 5c 3f
       -0.00433620603061924 0.0017363567889904714
0006f0 4e 1c db 02 40 a2 4a bf 30 af ce 5a cd e9 61 bf
       -0.0008127987436744673 -0.0021866808733274276
000700 ef 23 bd 8e a3 f5 31 3f 3e 86 92 9f b5 d8 6b 3f
       0.0002740406332475955 0.00339923356348562
000710 15 39 90 f2 ce 16 76 bf 11 0b 49 7e d6 80 65 bf
       -0.005392845524524033 -0.0026249112436586082
000720 f2 fe 1d 52 a9 b8 15 bf f4 81 33 e6 17 df 76 3f
       -8.286031200377042e-05 0.005583852154103831
000730 de e4 9d 65 91 44 4e 3f cb b1 8c af b1 2d 7a 3f
       0.0009237012811659469 0.006391233525203831
000740 36 b8 1e c9 82 08 31 3f ff 1f a8 69 54 be 65 bf
       0.00025990670212195104 -0.002654232853505078
000750 e3 5f 18 1e ac 46 83 bf eb a5 ca 3a 67 3d 6e 3f
       -0.009412140530045526 0.003691388721865909
000760 df 18 6a 93 bd c8 72 bf 5b cb e7 04 ea 6d 67 bf
       -0.004585972338310123 -0.002860028332400883
000770 19 e2 bb 00 11 39 32 bf 65 7f 47 6a 72 9f 40 3f
       -0.0002780596266656346 0.0005072888057462253
000780 6d 9d f7 18 73 ac 64 3f bb 48 d1 9d eb 38 62 bf
       0.002523636627063722 -0.0022244073757430017
000790 b7 90 98 43 a6 ac 6e bf c3 13 ee b3 54 95 73 3f
       -0.0037444350571310364 0.00478108489085555
0007a0 13 0e f7 6d 02 60 5e 3f f2 9d de e4 76 f8 78 bf
       0.0018539451337894516 -0.0060963291452149505
0007b0 ec ee 7b 46 39 a3 3e 3f 73 1b 54 43 fd 01 71 3f
       0.00046749256442500556 0.0041522877775211796
0007c0 4d 61 06 64 60 ce 69 3f 4f 6c ea 16 e4 f0 53 3f
       0.003150165808801264 0.0012171008526482734
0007d0 6e 18 70 40 a0 51 68 3f 67 bc 3a 9a 43 ec 7b 3f
       0.002968609801885561 0.006817115852455569
0007e0 fc 30 aa 01 a8 c9 3d 3f 31 b3 73 0b 7c 7f 6c 3f
       0.0004545245334746232 0.003478758120414226
0007f0 26 89 00 78 a7 21 92 bf 4a 1a 89 4c 38 08 77 bf
       -0.01770650548872612 -0.005623073499526907

gru.bias_ih_l0 f8 [96]
000000 6b 9d 9c f9 9a 07 85 3f 33 14 a9 7b f9 03 78 bf
       0.010268412344500452 -0.005863165419730132
000010 8d b2 1c 37 dc 5f 85 3f 8c 58 a9 b7 25 e0 83 3f
       0.01043674510182171 0.009704870860485458
000020 f3 3a 01 75 df e8 55 bf 61 09 8d ce 6f ff 69 3f
       -0.0013372595021967054 0.0031735595443091323
000030 15 74 36 40 34 29 87 3f 92 cc fa f3 3f b1 7a 3f
       0.011309059342972142 0.006516694847664388
000040 b3 27 95 69 c3 71 80 3f 11 8d 94 a1 a7 08 64 3f
       0.00802948633158338 0.002445533184656797
000050 9a 36 e5 72 8a 68 9c 3f c6 98 48 74 4a eb 94 3f
       0.027742541563660163 0.02042881331194548
000060 ab b2 3a 79 8a ae 9e 3f d0 3e fc 4f dd 9e 72 bf
       0.029962695740936834 -0.004546036245087939
000070 f3 39 fe f1 0c af 5b bf 37 69 1a 5c 72 a5 82 3f
       -0.0016896845263293353 0.009104627071157096
000080 07 10 9e 4b 67 ac 99 3f aa 98 4f 91 6c 60 a1 3f
       0.02507172965080431 0.03393878244223576
000090 d4 aa 3a 3b 9a 2b 4c 3f 6b 4f 6d 90 1b e4 94 bf
       0.00085969000652616 -0.020401411714672173
0000a0 c6 62 95 ad f9 c7 7e 3f e4 b4 9b e9 65 95 61 3f
       0.007514930062222097 0.00214643387595591
0000b0 1b 71 ae 81 5e 90 78 bf 03 ba b4 b6 9e e0 94 3f
       -0.005997056165963489 0.020388107205855387
0000c0 7b bf 84 c0 df c7 8a 3f a1 a5 be 3e 21 4f 5c bf
       0.013076541960429946 -0.0017278504046579284
0000d0 00 c5 c5 fc ec 78 54 bf 3c c5 32 0a 14 3d 7c bf
       -0.0012495340662009302 -0.0068941862875118685
0000e0 32 ed 0c 51 b7 20 b8 3f 54 14 c0 23 b4 f0 82 3f
       0.09424920777103266 0.009248168316853413
0000f0 fb 74 e2 4b e0 a7 96 3f 85 27 a9 f8 bd 30 91 3f
       0.022124771720531716 0.016787498762176795
000100 f7 cf cf 83 f4 e3 a2 bf 17 63 af 43 a2 b9 b0 bf
       -0.03689540967016563 -0.06533254768818285
000110 a5 5b d1 75 8e 6e b1 bf 2e 12 40 a0 7f 47 b0 bf
       -0.06809320808802839 -0.06359098112449921
000120 01 ea ea 5e bb 1c 90 bf 80 7e f3 10 f6 9d b8 bf
       -0.015734603565514153 -0.09616029657217418
000130 77 03 44 ba 02 b5 c0 bf 3a e1 40 dd 2d dc bc bf
       -0.13052400679591944 -0.11273466731734497
000140 96 b2 ee 58 94 11 b7 bf e1 01 bb ca 6f 84 be bf
       -0.0901119916076801 -0.11920832347369227
000150 7d 51 c9 84 ec 80 c5 bf 84 a7 da c4 7c 8e b4 bf
       -0.1679969452258198 -0.08029918485649828
000160 66 bc 4a 98 8e 76 bc bf 50 1a 31 2f 5d 10 a8 bf
       -0.11118403642716287 -0.04699984742233154
000170 0d 73 66 04 8b 05 99 bf f7 56 18 9f e7 3c bd bf
       -0.024435207503859014 -0.11421058305890229
000180 8d 46 73 a7 30 65 c3 bf 26 ed 60 43 5a aa c5 bf
       -0.1515255754116435 -0.16926124849292384
000190 89 8a 53 68 fb b4 ac bf 4f bd e5 5c c6 87 c2 bf
       -0.0560682835437279 -0.14476851974493818
0001a0 43 d0 7d fc 6e 82 b0 bf 66 7f 68 5b 00 57 9f bf
       -0.06449025787679923 -0.030605321482766533
0001b0 36 b9 fd 85 fa 61 90 bf 99 3d be 22 7f 68 c5 bf
       -0.01599875872437303 -0.16725148388330238
0001c0 b7 f2 63 44 4c ff b8 bf 9b 66 99 d6 c9 f6 70 3f
       -0.09764553708732647 0.004141605788015613
0001d0 e3 2d 11 c8 b7 16 84 bf 6e 91 80 73 fa 79 ce bf
       -0.009808955948890257 -0.23809748306042472
0001e0 e0 2b 30 44 b5 d8 ce bf 06 e3 fe 90 d3 a2 b7 bf
       -0.24098840550899947 -0.0923282841676035
0001f0 38 4c 7b 3b 0a 4c c0 bf c7 9f ef b6 bc aa ba bf
       -0.12732055572868872 -0.1041677424069568
000200 23 63 af e6 bb 16 b1 3f 13 2a 20 21 4d 94 b8 3f
       0.06675314313850982 0.09601289805156225
000210 08 9d 71 b3 06 48 b4 bf 94 62 cf 6c 3d 2e 85 3f
       -0.07922403222038465 0.01034210193931643
000220 2e 1e eb 5f 33 78 96 3f 3f c4 2e c4 b2 19 af bf
       0.02194290421428329 -0.06074293751533632
000230 d9 e1 49 78 b5 6d b2 3f 77 c0 31 fa 05 df 7f 3f
       0.07198652445538957 0.0077810510148169565
000240 2f 80 f7 1a 66 6f b0 bf ae 0a df f5 39 33 a3 bf
       -0.06419981153840192 -0.037500201476651326
000250 35 97 c9 2f 8f be 95 3f 77 cc ef 71 5f e9 c0 3f
       0.02123473862811594 0.13212197364154907
000260 b5 a5 cc df cf a6 95 3f dc 1d 5a 1c 09 bc bb bf
       0.021144149813300667 -0.1083379453867716
000270 9f c1 6d b8 a1 ea be 3f 9c 18 39 9f 5a 99 ac 3f
       0.12076769592909507 0.05585749810829663
000280 28 7e e1 77 81 30 76 bf 23 31 1b f8 25 d2 c2 bf
       -0.005417352424131695 -0.14703821768342448
000290 b0 d2 50 2b 2f 20 79 3f b8 9a e0 6a 64 cf a7 3f
       0.006134208922095638 0.046504152342369875
0002a0 c8 93 82 24 b9 1c c5 3f 3d 81 fb d2 e0 7d c4 bf
       0.1649390629073919 -0.16009149839283934
0002b0 07 33 79 77 89 c3 aa bf bd b4 70 32 c5 39 8b 3f
       -0.052273078760299234 0.013293781854452619
0002c0 5a 98 48 68 6d e5 83 bf 3c bf 9f 2d 57 05 af bf
       -0.009714941735250605 -0.06058762008603799
0002d0 bb 3a 59 3b 7a 2c af bf 99 e1 5c b0 2e e9 a1 bf
       -0.06088621115178713 -0.034982165363945224
0002e0 f8 0b b0 af 12 dc b5 bf 4a 76 05 c0 88 45 bc 3f
       -0.08538929738283219 0.11043600738545326
0002f0 82 a3 f2 24 d6 ed 95 3f 04 0d 08 a4 5f 54 a8 bf
       0.021415086751094055 -0.04751871945702571

gru.bias_hh_l0 f8 [96]
000000 c3 37 b8 46 ad 91 49 3f 57 33 8d 15 44 03 78 bf
       0.0007803054881507721 -0.005862489656306056
000010 4d 55 f2 9c ea 5b 85 3f 1a 88 95 97 1d e0 83 3f
       0.010429222979193265 0.00970481032226549
000020 f3 38 b3 2c f1 e8 55 bf c9 65 50 e7 62 65 99 3f
       -0.0013372760029600167 0.02480082070187509
000030 2d 55 0c 44 c3 24 93 3f 35 bd d8 fb 5d b2 78 3f
       0.018694926288920378 0.006029479145168983
000040 e3 25 c7 7e 5f 45 85 3f 62 69 fc 47 d0 d6 62 3f
       0.010386224800543914 0.00229969673081347
000050 65 84 71 9a 94 68 9c 3f d8 7d 19 94 9c e7 94 3f
       0.027742692877272285 0.020414778270035544
000060 d7 98 f3 68 b2 a8 a0 3f 4f 10 66 4f e7 9e 72 bf
       0.032537055312603584 -0.004546073489454085
000070 e8 d6 4b fb 30 af 5b bf 40 0d 4e 07 dd a5 82 3f
       -0.0016897180877867794 0.009105421815326253
000080 86 4d 0c bb e0 77 9b 3f c5 92 65 45 43 5a a1 3f
       0.026824485222346726 0.03389177534225988
000090 ee 57 68 b6 9c 25 4c 3f 8d 5f c2 f6 44 ab b3 3f
       0.0008589759061716753 0.076832113498652
0000a0 30 62 f8 97 45 ab 7e 3f d0 a7 d1 46 8f 3d 62 3f
       0.007487556314594232 0.002226619565182532
0000b0 83 f2 7c 35 a5 90 78 bf df 44 12 9a 86 b0 95 3f
       -0.005997319552815686 0.021181204942483652
0000c0 03 07 7b 9d ff c8 8a 3f b5 6f bd a8 2d 50 5c bf
       0.013078686707902692 -0.0017281003847164748
0000d0 df 2b 7c 8d 36 99 54 bf 15 06 79 5c 24 1c 9b 3f
       -0.0012572319737411614 0.0264745408478629
0000e0 60 09 72 1b 90 15 82 3f 6b 01 e7 e4 37 ec 82 3f
       0.008830190503662905 0.009239613221212214
0000f0 5f a6 d3 ef f7 a7 96 3f 87 83 43 08 d1 3e 91 3f
       0.022125123989928826 0.016841188554170407
000100 82 b5 a1 2a 13 1f a6 bf 91 c4 1b f4 ff 0b b1 bf
       -0.04320583243757438 -0.06658935270003698
000110 53 0c ce f0 a4 d4 ab bf 44 5b 91 e7 32 0c b0 bf
       -0.05435672225487367 -0.06268613961706843
000120 6d 98 49 6f 41 80 90 bf 77 e5 60 c8 30 55 b8 bf
       -0.01611425630326162 -0.09504990474751716
000130 63 6b 01 7e d3 17 c2 bf 89 d3 6d e8 e7 59 c3 bf
       -0.14135211613287443 -0.15118121003220278
000140 32 93 4d 2d 9c dc b6 bf 15 2b 5b 7d 10 4d be bf
       -0.08930374246626796 -0.11836340961887644
000150 7f c3 3a 61 b8 16 c7 bf d9 fc f7 23 af 94 b4 bf
       -0.18038086650406268 -0.08039373996870171
000160 53 c2 a2 cf 70 88 bb bf 9d d0 1a ee 5e 33 aa bf
       -0.1075506693766866 -0.05117317825843879
000170 df 2c 44 f2 7a 99 98 bf d8 8d 7a e8 bb a5 bd bf
       -0.02402298072506148 -0.11581015039205711
000180 6f e5 03 cf 51 70 c4 bf 29 6d dc 3e 97 e1 c4 bf
       -0.15967772110142728 -0.16313448495280028
000190 14 58 80 dc 5c b8 ac bf 22 4f 4c 25 58 bc c2 bf
       -0.05609407607714459 -0.14637281247325357
0001a0 1c b2 dc cd f3 8e b0 bf a8 b7 d0 22 81 a9 9f bf
       -0.06468127990655897 -0.030920045614201946
0001b0 e8 ac 23 90 48 44 8b bf 73 8c 2a 15 66 68 c5 bf
       -0.01331383409384164 -0.16724849732881672
0001c0 e2 ef 75 19 4a ff b8 bf 7d 9d 32 c2 38 04 71 3f
       -0.09764540788268009 0.0041544167644710335
0001d0 6f 31 ce 4d 82 17 84 bf ad cf 65 0d fb c7 cc bf
       -0.009810464858468674 -0.22485292581734254
0001e0 bc e4 09 26 3a c6 ce bf 15 e7 0b d5 bd c1 b7 bf
       -0.24042441232066902 -0.09280001117067756
0001f0 57 9f af 1f e2 45 c0 bf c2 a2 72 a4 b7 a8 ba bf
       -0.1271326689450187 -0.10413692250098008
000200 03 e4 3a 38 b6 25 c1 3f b2 dd 70 41 0b 4e b6 bf
       0.13396337266547684 -0.0871283564346104
000210 9a 3b b6 2b 55 06 bb bf 27 c1 20 b1 4c f3 99 bf
       -0.10556537930663837 -0.0253421767340011
000220 52 77 de 8b bc 9d b3 3f 66 c0 23 4a 14 f7 c0 3f
       0.07662561812182148 0.13254026050663298
000230 3d 69 e9 9e a4 55 a2 3f ad 3f 4d 84 06 ea b2 bf
       0.035809654615791754 -0.07388344507239593
000240 5e ac 73 7d cf ec 9e 3f b7 1a ad 2a cb 88 c1 bf
       0.030200235397313306 -0.13698710998342786
000250 66 10 e7 ff f5 43 8e 3f c8 f5 c1 e4 68 13 b7 3f
       0.014778062698390392 0.09013991913703656
000260 ea f1 55 92 ea 96 62 bf 81 da 06 d1 59 4b b9 bf
       -0.0022692281224279036 -0.09880601266091028
000270 ab 76 ae a3 28 5d a6 bf b4 bf 8b a1 31 5f 7e bf
       -0.04367949483933605 -0.007415002700085372
000280 e9 3c 31 77 d5 c9 98 3f 5a 72 2e 21 60 8c a6 bf
       0.024207435035631972 -0.044039730120151346
000290 75 75 ea 6f 83 4e c0 bf 63 9e 3d 12 db 41 b8 bf
       -0.12739603962556215 -0.09475487895326178
0002a0 3b b6 c3 ed d9 3d 9a bf 50 cf 3d c3 86 db 84 bf
       -0.025626568924897546 -0.010184338410659827
0002b0 ea b8 f2 b9 3f fc 43 bf e2 dd 8b 03 9a e2 a8 bf
       -0.0006099044002405827 -0.048603833134560195
0002c0 da a1 b4 9c df 53 a6 3f 7d 47 13 5e df 4f b6 3f
       0.04360865390691844 0.08715625807533729
0002d0 a7 82 02 0d e1 d6 ad 3f 89 36 00 0d 2c 0e b6 bf
       0.058280022466765495 -0.08615374867823723
0002e0 2b 95 d8 dc 38 96 c7 3f 9b 41 62 e7 bf 79 9c bf
       0.18427191527840966 -0.02780818795923921
0002f0 88 46 32 a4 c8 1b 92 3f 37 6f e7 03 4a 66 ae 3f
       0.017684111615898362 0.05937415406853435
