dl_experiments/best_checkpoints/taxi_15min_GRU_cuda:0_checkpoint.pt (torch, 132414 bytes, 30 tensors)

gru.weight_ih_l0 f8 [24, 96]
0.044672151945481 0.027661554946059055 0.01822223417593262 0.016347159645909493 0.01813416620475839 0.01812438063291835 0.01715705105826811 0.023321222116877937
0.026019875075404465 0.02264603868706744 0.01687098344370786 0.020299091495792773 0.02195408524889255 0.023034228766176085 0.03565712742214481 0.04493232019220009
0.05439621521743067 0.0602076545862975 0.06942357603787513 0.06223636214488991 0.09277654043557697 0.08855396489134719 0.07238608192163111 0.057429248433600415
0.08963135277410253 0.030593458505662505 0.010138662492699254 0.043363385564480855 -0.006585121023936982 0.025087300015594338 -0.0031997217927715958 0.005462656472644392
0.020044553138523224 0.033086411909897126 0.0334594880027725 0.04912640984037255 0.04248478228215909 0.02479548526068854 0.0499156343949815 0.037074680866328785
0.05930059119908652 0.06860220702275678 0.06852027773370956 0.06493867553224664 0.06525299788887359 0.04471186350163881 0.04238835538938679 0.03639491495023605
0.04917409092215008 0.07018079354528024 0.08571564355206815 0.06640826001074306 0.06197582921771674 0.03257014417719312 0.04257615799977108 0.026875440344370415
0.06141422314546289 0.04766301794421166 0.03387831288146338 0.009132527650980845 0.03254767843744352 0.05159280753319982 0.0739717844737932 0.0695154333229067
0.05627364404095667 0.03606414455222502 0.08953407444695038 0.07630406015156872 0.04422055180560379 0.07967428965427174 0.029293916347075757 0.007166394344623878
0.04391386270791593 0.05310699204392456 0.007654137528453099 0.008639384631697352 0.03688370547319783 0.03533888730678793 0.029155110538402643 0.020565198820956174
0.04967491336718433 0.05398615341368529 0.053748731678567085 0.06205839591361747 0.06941844673906518 0.07401942622401673 0.06109025409518296 0.05277052094661327
0.04481488153265594 0.03251155859160701 0.024197200018946333 0.03601026291143956 0.046463415566917354 0.044543662880100976 0.03256441215036954 0.015281981104143307
0.0012360949742587044 0.0018291430939663495 0.0013597090307495559 0.0008862532881876719 0.0007996640466270685 0.0009084698432951138 0.0005639836782945024 1.0959221439655413e-05
-0.0003288765374308426 -0.00017477612743065432 -0.0005783438626409642 -0.0011948668960710903 -0.0015730200151239677 -0.001416183055776032 -0.0018639498702371392 -0.002305668327295585
-0.002846982428011041 -0.002630741437669551 -0.0030569565409264672 -0.0035526247279568553 -0.0037155070679367646 -0.0036102831246010558 -0.0036460553920749494 -0.0038516163416216
-0.003838417503550521 -0.003500603278562607 -0.0034319909313399997 -0.003303575048870662 -0.003255599008373737 -0.0029120191417669893 -0.002869831698275213 -0.002761699899165457
-0.002851951344529404 -0.002715999143834677 -0.0027669684327636416 -0.002961342821457836 -0.0031292992672592845 -0.0031609446316214593 -0.0031737618140647073 -0.002853096597329258
-0.0030334849003230534 -0.003108060374601497 -0.0029858372555872717 -0.00288116816868702 -0.0032162544320049062 -0.0032400583650985864 -0.0032028123973319427 -0.0029827015310532794
-0.0032408604585069368 -0.0030431859395033452 -0.003124655154451247 -0.002476234032158402 -0.00267066208498774 -0.0025702196056500335 -0.002263122899263 -0.001936006912542433
-0.00203469769182452 -0.0023215963960329642 -0.002401563686673998 -0.0021677839612682446 -0.002587168014061695 -0.0027036850253229104 -0.0026701128771352864 -0.002184763468747196
-0.002421418360013894 -0.002114537312570401 -0.002018857802144581 -0.0014986908132956283 -0.001733235229899316 -0.0016642765105002023 -0.0015051158852290233 -0.0012511311225083905
-0.0013463280735261675 -0.0012363219516365526 -0.0011710509174264567 -0.0010925003904921668 -0.0012697171959653508 -0.0009304398230784016 -0.001170925579255852 -0.000657653881123616
-0.0008633090754777752 -0.001204716468612138 -0.000967320824880944 -0.0008053785922335707 -0.0007370975130713399 -0.0005167581669555977 -0.0002826959219324198 -1.7093191435509738e-05
0.00039052003577190925 0.0007459370154651413 0.00044606384300388264 0.000340892015784559 0.0005057129751772462 0.0007908244842793911 0.0007495258537913638 0.00026554051597506105
0.02617781660661205 0.01700737524517068 -0.014802969108432805 -0.03018519387433713 -0.031461652465550216 -0.02167832398831914 -0.009108717219617368 0.014905248124116373
0.03574530009279153 0.05187328634810063 0.05675821251850562 0.06729534994030034 0.07017547264271083 0.06911599404252605 0.054337692968739075 0.06590105849870434
0.05823429035733944 0.043322727176613875 0.048535431469059816 0.02404560277724372 0.0564303392089341 0.020529402832867565 0.010253254060020681 0.05412879155043449
0.0027232883006618417 0.011973365146720615 -0.0164779903378054 0.019170084183103567 -0.009758198052866979 -0.00477949563806769 -0.011333039437511452 0.010726410190667902
-0.006645458183346912 0.034376120824471224 0.012794702268955864 0.030494959969785795 0.014797342171707493 -0.01268196297919433 0.010705119932197317 -0.0023834970352839286
-0.010076289384393745 -0.012551439787467325 -0.05547086089524604 -0.035374465161383366 -0.06301425541457775 -0.07443209250141308 -0.06625295139307295 -0.03959339369034861
-0.0659277027690845 -0.040944649704383634 -0.044595456462458424 0.003821545955376103 -0.025688106480381674 -0.021386151588468568 -0.024449278304091694 -0.017978347635098795
-0.03126724188572769 0.028157657065610787 0.024113648092023914 0.0024095959305017903 -0.07277505103311947 -0.05405334289903905 -0.03135028591105673 -0.052002484461305114
00000000: 4daa 4baf 44df a63f 043a 6687 4f53 9c3f
00000010: 04fb 616f d9a8 923f 0027 3f50 4fbd 903f
00000020: 229e 284b c391 923f 0787 5098 328f 923f
00000030: 35a6 c334 9e91 913f 03d1 2db9 84e1 973f
00000040: 9abe fa41 f4a4 9a3f b1fb 2dee 8530 973f
00000050: 227e 9188 a046 913f fca6 73f8 48c9 943f
00000060: 265f a1b8 217b 963f 580d f5ec 4896 973f
00000070: 357a 4ba8 a641 a23f 848e 847b 5e01 a73f
00000080: 4224 c51a d2d9 ab3f 9f82 d5a6 89d3 ae3f
00000090: 5c6f a754 bec5 b13f ae91 11c8 71dd af3f
000000a0: 43bf 010f 34c0 b73f 33b4 23ff 78ab b63f
000000b0: c1fa 89ee e487 b23f 4f5c b6cf 5d67 ad3f
000000c0: 1a6b dc90 14f2 b63f 196f 033f e453 9f3f
000000d0: cb8d a63e 94c3 843f e4c2 afc5 b933 a63f
000000e0: 3618 02f7 fff8 7abf a09a 7234 7cb0 993f
000000f0: d49e 998e 4d36 6abf 507e 63ae 0260 763f
00000100: 5385 c530 8f86 943f eea2 30c2 b3f0 a03f
00000110: baf5 6c1d 9a21 a13f 03c2 44c7 1827 a93f
00000120: 0b88 f5bc 90c0 a53f e2e6 21d9 fc63 993f
00000130: 1332 92c2 8a8e a93f cc39 a9db 73fb a23f
00000140: 05c6 aaa7 a55c ae3f 119e 980b ea8f b13f
00000150: 94a7 fa7f 8b8a b13f f813 a82f d29f b03f
00000160: 2e0f e6a3 6bb4 b03f a12b f72e 79e4 a63f
00000170: 50dd 4130 edb3 a53f ff67 e7b2 5aa2 a23f
00000180: c06f a4b0 582d a93f 1d95 1555 5ef7 b13f
00000190: 46cd cfdd 75f1 b53f 172f eeb8 2100 b13f
000001a0: d3e0 43bf 4bbb af3f 4854 22b0 08ad a03f
000001b0: 8d8d 65cc 8acc a53f 26f1 6045 3c85 9b3f
000001c0: 6588 d65f af71 af3f 1d1d 997e 4967 a83f
000001d0: 7234 bd8b 7f58 a13f 0bea b91c 13b4 823f
000001e0: ac2a e6dc 16aa a03f 8eb9 205a 5f6a aa3f
000001f0: 9b46 249b d0ef b23f 536c b070 c3cb b13f
00000200: 0db8 9029 e6cf ac3f 8aee d1e2 ff76 a23f
00000210: 8095 a081 b4eb b63f 4d2b e7b2 a988 b33f
00000220: 5edd a17f 13a4 a63f 33aa 65c4 8865 b43f
00000230: 37d4 ba72 39ff 9d3f 2046 7255 825a 7d3f
00000240: 2ad3 57b8 e07b a63f 5101 09f4 d630 ab3f
00000250: e817 d2e5 f159 7f3f 4b0b 9b93 86b1 813f
00000260: 1c7e 86c9 6be2 a23f 42f5 844a f017 a23f
00000270: f145 1859 d6da 9d3f 99aa 7c21 0b0f 953f
00000280: 21f8 af80 fd6e a93f f07d b2b6 12a4 ab3f
00000290: f097 8529 f484 ab3f 4b4c c839 1ec6 af3f
000002a0: 49c0 7b46 68c5 b13f 3b9d e6e6 eff2 b23f
000002b0: 5de3 e2c6 3847 af3f 4f32 51db bc04 ab3f
000002c0: 471e 1de5 f9f1 a63f 6c2f c9e1 5aa5 a03f
000002d0: 04d0 f19a 26c7 983f 19cc 0ceb ef6f a23f
000002e0: 3007 a484 0dca a73f 78cf a04e 6dce a63f
000002f0: f00a 665a 48ac a03f 61ab 7bc8 284c 8f3f
00000300: 2de8 4edf 8e40 543f aca8 2b71 fbf7 5d3f
00000310: fedf 6c74 0847 563f 022f c271 6e0a 4d3f
00000320: fd59 ca76 1134 4a3f a9e9 1722 ccc4 4d3f
00000330: 4d91 14ba 097b 423f 45ce efec affb e63e
00000340: 1107 02f9 a18d 35bf 803e bc80 83e8 26bf
00000350: e1ce e9fc 7ff3 42bf 6afc 778f a293 53bf
00000360: 889a 5661 b9c5 59bf 64a5 38fa e633 57bf
00000370: 0fb5 faee f889 5ebf b400 f541 56e3 62bf
00000380: c081 750d 8e52 67bf 6d79 0c8e 108d 65bf
00000390: 7a58 cb0b e70a 69bf 686b b0e0 641a 6dbf
000003a0: eaf8 08ab fb6f 6ebf 9cfe 61fe 4f93 6dbf
000003b0: dc41 6315 55de 6dbf 4d0a 2bc7 6c8d 6fbf
000003c0: 0835 adb4 be71 6fbf fd54 2013 4cad 6cbf
000003d0: 7dc3 ed19 681d 6cbf c3d8 6e59 1910 6bbf
000003e0: 70a7 a268 7cab 6abf 21bb 555f f2da 67bf
000003f0: 9370 4029 7982 67bf 61ed f157 b49f 66bf
00000400: d12a 25b8 f95c 67bf e0a0 f5ef dc3f 66bf
00000410: 8668 b0dd c0aa 66bf 9bc3 40d2 6242 68bf
00000420: 5c8f 64c0 9da2 69bf 592a 273a fbe4 69bf
00000430: 0d61 4b66 dcff 69bf 27d0 7d92 605f 67bf
00000440: dcd1 12ce add9 68bf 9d88 3635 1376 69bf
00000450: 9047 a52b c175 68bf 3295 e161 3f9a 67bf
00000460: 0104 3c73 f958 6abf 4e29 e316 e58a 6abf
00000470: 7c73 0ed0 c83c 6abf ea81 f2b0 2d6f 68bf
00000480: 3b17 c4b5 938c 6abf ccfc be02 06ee 68bf
00000490: df7f 6376 e098 69bf 717d ee05 0a49 64bf
000004a0: 98be 09ca c8e0 65bf ab33 cb24 240e 65bf
000004b0: f76c dada 1c8a 62bf 39e3 f297 33b8 5fbf
000004c0: 0871 6501 12ab 60bf 7d1d 0e93 bd04 63bf
000004d0: 10f7 caaf 71ac 63bf cf76 fd26 2cc2 61bf
000004e0: 3b12 4f40 af31 65bf e6f6 65d8 0926 66bf
000004f0: 474f 7cef a1df 65bf 177d baf4 c7e5 61bf
00000500: 4d75 5115 15d6 63bf 2332 5193 8152 61bf
00000510: b518 8907 da89 60bf 1c37 ea01 f78d 58bf
00000520: e77f 3c28 b765 5cbf b948 c84b 7b44 5bbf
00000530: 606b 3de0 e9a8 58bf ac81 44d0 9f7f 54bf
00000540: 8b2b e9c2 e80e 56bf 5ff1 5f96 8241 54bf
00000550: ac66 1b59 be2f 53bf 938a ac5c 47e6 51bf
00000560: dcdd 3c75 94cd 54bf 7ad4 354e 187d 4ebf
00000570: f3bc 69c4 372f 53bf 9f78 acf4 cc8c 45bf
00000580: 351a 6d1f f649 4cbf e662 5a75 f2bc 53bf
00000590: 528c 5fa7 79b2 4fbf 451a 765b 0164 4abf
000005a0: 729e 36db 3827 48bf 1f6f a8b6 e1ee 40bf
000005b0: 1320 4abd d986 32bf c288 d32b 6bec f1be
000005c0: 55f1 35c8 d697 393f 5dd5 0b8b 5f71 483f
000005d0: ccfb 1c9e b53b 3d3f adce 2b0f 3857 363f
000005e0: 5e25 4358 3a92 403f 0b61 ffa5 eae9 493f
000005f0: b6fa c783 7a8f 483f ded0 f5d4 0767 313f
00000600: cd07 d388 5bce 9a3f 380f e0a1 616a 913f
00000610: 79a5 a2e1 0451 8ebf b806 0e12 dee8 9ebf
00000620: 00d7 d5e0 bd1b a0bf be68 3fb2 d732 96bf
00000630: 00be 8854 97a7 82bf a4d1 da89 a486 8e3f
00000640: d0bb c43d 354d a23f a161 cda8 228f aa3f
00000650: abc1 1795 690f ad3f 7c9d 2a9f 443a b13f
00000660: 4f56 fb0f 05f7 b13f dc0d 0bf6 95b1 b13f
00000670: 374d 7b6c 26d2 ab3f 6212 064b e4de b03f
00000680: 655b 2e89 e2d0 ad3f fd4e cb80 652e a63f
00000690: 81b6 b6d5 a2d9 a83f 72d9 2916 699f 983f
000006a0: 4a22 cffa 6fe4 ac3f 4b24 18e7 a805 953f
000006b0: 1546 ec76 a8ff 843f 0155 f6da c4b6 ab3f
000006c0: 34a6 0b46 264f 663f ec6a d3dd 7d85 883f
000006d0: c230 6b36 9bdf 90bf 9111 8392 52a1 933f
000006e0: 9d25 0a2c 1bfc 83bf 8f5c 4f17 aa93 73bf
000006f0: dbb3 fccd c635 87bf 8779 c767 baf7 853f
00000700: 5ed3 0799 4438 7bbf 78ad 6835 bf99 a13f
00000710: 0931 75de 1b34 8a3f 605f 0d1f 123a 9f3f
00000720: ccc7 8fa5 114e 8e3f 0131 f541 00f9 89bf
00000730: 2780 11e0 90ec 853f c40e 223a 8e86 63bf
00000740: 7ad0 f7aa e0a2 84bf 8834 3dbb 91b4 89bf
00000750: d622 da3a ad66 acbf 9798 f615 9a1c a2bf
00000760: 9af9 2fc6 b321 b0bf a400 114b fb0d b3bf
00000770: 6f29 7f13 f4f5 b0bf 6b4d 13d6 9545 a4bf
00000780: 1c2b 4b4f a3e0 b0bf b45e da76 b2f6 a4bf
00000790: 1ee7 1c36 37d5 a6bf 1686 c0dc 5c4e 6f3f
000007a0: 22e9 eaa4 fb4d 9abf ff9a a356 40e6 95bf
000007b0: 3a52 e84a 3b09 99bf 0bf6 837c ea68 92bf
000007c0: 4caf ab8a 4202 a0bf bd45 ea60 5cd5 9c3f
000007d0: 8b1d c587 3fb1 983f a782 faf6 49bd 633f
000007e0: 1be8 26c0 62a1 b2bf 3d50 fb37 e1ac abbf
000007f0: 339e 6a09 250d a0bf 37e4 24d4 11a0 aabf

gru.weight_hh_l0 f8 [24, 8]
-0.018602048332696113 0.14382746441317742 0.023861030552127006 -0.117129284889903 0.005566128314495499 0.18627551958427532 -0.05223190097712279 0.05049303639760282
-0.0006794138337470667 -0.005365835301900713 -0.005598932459837209 0.005417456883959375 -0.003533733528736265 -0.00523330682392447 0.005396519106104254 0.003162879476199317
-0.02757492967104352 0.1406539933917617 0.00901203471732867 0.018282703990584438 -0.007835584046429643 0.13375287292662152 -0.10934459061678883 0.0016812266954572932
0.004154140391340798 -0.01959499931336745 -0.02043978559422957 0.020100589952036958 0.004676608125962328 -0.020481308406630577 0.019864627541942608 0.016791395543731793
-0.031655075872913475 0.40363154282913255 0.2758828887812326 0.2992866757621154 -0.06394569991724196 0.12052741517801586 -0.356059556114461 0.016104625786117335
-0.0020364537533774977 -0.009131268924723372 -0.061744674161723405 0.08972136086129033 -0.003389320326006063 -0.04603107988111973 0.06067050944104622 0.06163657925747217
0.009898868078517028 -0.010884337175965136 -0.010474750279569154 0.010493525336877583 -0.004214105729673928 -0.009618232942995346 0.01079858453075873 0.00969387536513393
-0.060539665198730906 0.13704565702381805 0.08679357043326391 -0.3677800495299329 -0.07430821846145885 0.0015553824375807042 -0.3993758068094354 -0.24373838967266778
0.0020093827597761375 0.10332514038223815 -0.10699524137935841 0.263993250115118 0.013098392221990267 0.2505047653806692 -0.06666885832539345 0.07262838301267284
-0.0062927053997241895 -0.0129591726486455 -0.00977441390402587 0.012055387101667458 -0.005808958277117787 -0.012958496126791206 0.012588201961073242 0.002891392145596072
0.039723943455342435 -0.1859547611964559 -0.2644151301625241 0.2493061929891582 -0.09225525830005965 -0.3417938671502682 0.36515817333093636 0.05452316302915945
-0.09040800341139567 -0.0815812868009181 -0.21593900917752512 0.09604668766373273 -0.123786420765348 0.035035739804444126 0.0881417425468272 0.049001421177984505
-0.003309801451080443 0.03228016656912624 -0.1856739525145604 -0.07967589102927164 -0.0816450147753483 -0.25310628068734264 -0.0021650243353339513 0.18005289295604607
-0.009134794515625686 -0.09448170974947386 -0.09264587105332592 0.09069811730601648 -0.04834093348458305 -0.07838814080945393 0.09359732347529594 0.0825456561863141
-0.04675931150464541 0.15193920884834114 0.05819217194187239 -0.09193304945983662 0.06012121900255406 0.14335589554241146 -0.13197155016068937 -0.03200851592887022
0.017404531752216006 -0.006647272182525762 0.07687564679149599 0.30782199094018153 -0.27229249813503725 0.03805994292698624 -0.02278593030763201 -0.31630759758449845
-0.47857991074914 -0.2481679472438468 -0.07572449508250695 -0.3361097417922195 -0.03469116861458754 -0.153463609250407 -0.30932101923563077 0.04908948383616848
-0.002619000839121827 0.0032000116242293475 0.09841137882824597 0.06791176156781273 -0.0009014212260783642 0.054641528603118085 0.10994235098558833 0.007017544551516048
-0.0670767215241229 0.04622011055819056 0.1484408183130842 -0.19624803714772684 -0.11318813478380868 0.22638406486900783 -0.038428490963362615 -0.015079643485774445
-0.028841361977936356 -0.06726465701596081 -0.23699379245899274 -0.019792033455255313 -0.041273128414548485 0.04184345631674722 -0.12566298404983878 0.01878708448894309
0.008875996733350539 -0.08738721711747748 -0.5607166669053664 0.0882874615050619 -0.15821732174595196 -0.25597097580947603 0.3542284431182051 0.018875501314228427
0.022709043777479725 0.14953232377950978 0.13921154430087201 0.20799779987244105 -0.030450438763216476 -0.115440935225964 0.007229127989698807 0.07754186840904322
-0.048434288970377146 -0.11921816921866277 0.08874855095738263 0.11991910387584995 0.03464112514174171 0.13581850392121328 0.13474186079015993 0.029867682237415007
0.006810682520593177 -0.36987152721364863 -0.4032053376424276 0.43044210767795843 -0.13211289835397924 -0.02857052484482037 -0.17373610672865714 -0.2721802440554251
00000000: 8b00 e954 6a0c 93bf e9e9 f537 f068 c23f
00000010: cd20 7ba7 066f 983f 3d89 0150 2ffc bdbf
00000020: 4cb2 3731 82cc 763f 9f76 5450 e0d7 c73f
00000030: db61 02c5 23be aabf 1ec3 0128 39da a93f
00000040: 336d 2319 5643 46bf 81bb 3272 7cfa 75bf
00000050: 6e93 ebfc e7ee 76bf 2b37 4e82 9d30 763f
00000060: 8bd6 09be c6f2 6cbf b8fd 891a 856f 75bf
00000070: e1d4 2a11 a91a 763f 11ba 2afd 09e9 693f
00000080: cfab 8134 9a3c 9cbf 72af d536 f300 c23f
00000090: b0fd 0cd3 e674 823f 4a56 e37e b3b8 923f
000000a0: 5fb9 cb49 1a0c 80bf 10a2 7b6b d01e c13f
000000b0: da90 b1d0 01fe bbbf 2f4b 256b 938b 5b3f
000000c0: 2517 fb91 ee03 713f b13d dd24 b610 94bf
000000d0: 486a a8ca 2aee 94bf 32b0 e5c1 3f95 943f
000000e0: c6c1 506f c727 733f 6ba0 2457 0df9 94bf
000000f0: 9b38 8f96 6457 943f 47ad db7a c331 913f
00000100: bdcc 4017 1835 a0bf 0f73 0565 19d5 d93f
00000110: 7dd9 35b4 10a8 d13f c5b7 214d 8327 d33f
00000120: 4748 ddd1 be5e b0bf 9503 767a e2da be3f
00000130: 1b27 3c05 aec9 d6bf d444 4324 bb7d 903f
00000140: 4b88 a8c8 c0ae 60bf fca9 382b 6ab3 82bf
00000150: 471c 7478 ff9c afbf 0fe0 a6a6 faf7 b63f
00000160: 4f70 967e ebc3 6bbf 0bc1 60bd 6291 a7bf
00000170: 3d0c c37b 3410 af3f f7da 4b68 d48e af3f
00000180: 7e33 5195 db45 843f b6dd ac01 874a 86bf
00000190: 527d 132f c973 85bf 5f12 2221 a17d 853f
000001a0: 6043 a764 cf42 71bf 3cda 7b5f b9b2 83bf
000001b0: e9ba 387b 911d 863f 9968 51ed 61da 833f
000001c0: 6357 4714 0eff aebf def1 7c4b b68a c13f
000001d0: a491 837a 1a38 b63f 718c 3655 b589 d7bf
000001e0: 78b1 1d08 dd05 b3bf 4b8c f02c bf7b 593f
000001f0: 52d9 438b 5f8f d9bf 7b3f 36ce d132 cfbf
00000200: 06d9 a027 fb75 603f bfdb cb32 8473 ba3f
00000210: ed4d 8d46 0a64 bbbf cefc e6f1 43e5 d03f
00000220: fcfd c971 54d3 8a3f 0d56 b323 4508 d03f
00000230: 2552 2bd6 3511 b1bf b100 cd11 c697 b23f
00000240: 2ba6 523e 61c6 79bf e656 acb5 568a 8abf
00000250: f45f 71a0 9b04 84bf 53fe bcaa 7eb0 883f
00000260: 6d4e 2f5d 22cb 77bf 722d 8fe8 fb89 8abf
00000270: 00f1 e7dd d7c7 893f e660 9156 b0af 673f
00000280: db87 045c b256 a43f 03e8 ef98 5dcd c7bf
00000290: 6366 2770 2dec d0bf cf12 caec 43e9 cf3f
000002a0: d864 4865 0a9e b7bf b38f 5862 f3df d5bf
000002b0: c0b3 1463 c05e d73f ea5f 2bc4 75ea ab3f
000002c0: 81d7 f299 fa24 b7bf c589 c6de 82e2 b4bf
000002d0: 028f 2cb3 e3a3 cbbf d2a4 6706 8496 b83f
000002e0: cb45 e084 77b0 bfbf 0771 4d59 34f0 a13f
000002f0: d3ac a60d 7590 b63f 787c d5da b616 a93f
00000300: 6cf8 a21f 281d 6bbf cf99 72a7 0687 a03f
00000310: ab71 e200 2ac4 c7bf 0019 40a2 a365 b4bf
00000320: 5470 570c b0e6 b4bf a2b7 7daf e432 d0bf
00000330: 14c4 e396 62bc 61bf a7f0 6523 f90b c73f
00000340: f232 9a5d 43b5 82bf 1db4 710d f42f b8bf
00000350: 5a91 48ca a3b7 b7bf 565b a3e7 fd37 b73f
00000360: c5b0 bf90 24c0 a8bf abbc 2bc5 3e11 b4bf
00000370: a9cc 5183 fef5 b73f 9440 bf4d b621 b53f
00000380: c050 6423 d6f0 a7bf 29eb 7d76 be72 c33f
00000390: 0b42 bf46 5dcb ad3f 19ff d9a0 ec88 b7bf
000003a0: 4ec0 d25a 35c8 ae3f c08f 8569 7c59 c23f
000003b0: 9ba6 f899 71e4 c0bf d04a 3792 6b63 a0bf
000003c0: 7e3b b65a 7ed2 913f 49dd 1a8a 2b3a 7bbf
000003d0: f30c d454 1fae b33f d7f8 0402 5bb3 d33f
000003e0: 7de9 9b83 3d6d d1bf b26c 51c4 977c a33f
000003f0: 67bd ebe5 3155 97bf 1083 c638 623e d4bf
00000400: 812b 4ca2 0da1 debf 8bf4 a9a0 f7c3 cfbf
00000410: d4ae e235 ae62 b3bf 6555 376f d282 d5bf
00000420: f0c0 5175 0ac3 a1bf c3a5 6d0f b2a4 c3bf
00000430: 6346 6563 eacb d3bf 4bc7 4ebf 4122 a93f
00000440: 27a0 785e 7174 65bf 1779 bb28 e936 6a3f
00000450: 1420 9ff5 7c31 b93f b68f f24a aa62 b13f
00000460: 0373 cc57 ab89 4dbf 9d2a b574 f9f9 ab3f
00000470: 3eaf ed91 2e25 bc3f 873f 8dc5 6dbe 7c3f
00000480: a7dd 44a5 f02b b1bf 44a5 878e 29aa a73f
00000490: 0ce9 05d6 1b00 c33f 2f12 bada a71e c9bf
000004a0: 2413 31c9 e5f9 bcbf cf55 792d 27fa cc3f
000004b0: 4b34 d82f e6ac a3bf dc9a da7c 13e2 8ebf
000004c0: f18c de09 9788 9dbf d569 0fae 4138 b1bf
000004d0: 83b2 fb05 d055 cebf 0e8a a5e1 5c44 94bf
000004e0: e6f9 7c61 c021 a5bf 8d33 dd68 816c a53f
000004f0: f4e9 6783 b915 c0bf 8869 dee5 eb3c 933f
00000500: 9d5d 831d 942d 823f 03a7 9b37 025f b6bf
00000510: 15c8 5514 64f1 e1bf 3da4 cfcf 019a b63f
00000520: 19a0 4717 7740 c4bf 0aec 7416 d461 d0bf
00000530: 2e5d a0c6 adab d63f 9d61 5c73 1954 933f
00000540: 7e0d 6421 0a41 973f e5f7 290c e023 c33f
00000550: 34bb ff12 afd1 c13f 84c9 0b02 ac9f ca3f
00000560: 7526 8c5a 662e 9fbf 9148 6a81 898d bdbf
00000570: 2cad b544 4a9c 7d3f 3138 e3ac c8d9 b33f
00000580: 2efc 430e 61cc a8bf 2616 e2f9 1485 bebf
00000590: bee9 ed9b 39b8 b63f 9af9 4fb5 04b3 be3f
000005a0: 562d 2947 7bbc a13f d341 4430 8062 c13f
000005b0: 5c7a bfa6 383f c13f a706 ab39 a295 9e3f
000005c0: 2fba 07ab 84e5 7b3f 21ab 46a0 f9ab d7bf
000005d0: a0cc afc2 1dce d9bf c214 d30d 5d8c db3f
000005e0: c9b1 e750 13e9 c0bf 212c 5a77 9741 9dbf
000005f0: 6858 4418 fc3c c6bf 5d76 b5af 666b d1bf

gru.bias_ih_l0 f8 [24]
0.04326814021140375 -0.004318775443160618 -0.06559630585852337 -0.020308492559544297 0.24846955397943196 -0.00410332893444402 -0.011954944127336647 0.043931251602189636
0.08841246959346019 -0.20086372525400917 0.26483435159146046 0.08091318432144301 -0.009640475943936147 -0.22345139119086527 -0.046463338675030275 -0.3321094107538733
0.09659254159414375 0.009903488701101545 0.09198015568631793 0.08187860314668015 -0.33850781762912074 0.15808254638918426 0.016984640367860793 -0.30157970431454934
00000000: 8a5c 55de 3d27 a63f 0223 9874 90b0 71bf
00000010: ef98 6664 ebca b0bf 0c49 7fdd bfcb 94bf
00000020: d959 32b0 d9cd cf3f aa2c 40f9 a6ce 70bf
00000030: 365a 6b70 d57b 88bf 98b8 ce31 287e a63f
00000040: ca66 7619 33a2 b63f eb97 750d e7b5 c9bf
00000050: 0155 bcc7 0bf3 d03f 30cf 79f8 b9b6 b43f
00000060: 8838 2dc7 62be 83bf 3e8a b420 0e9a ccbf
00000070: f0fa 24f0 0aca a7bf 0b6e 78d4 4741 d5bf
00000080: af32 2fef 49ba b83f 6b46 b3c0 4748 843f
00000090: dac0 8df0 028c b73f d7d4 c102 fff5 b43f
000000a0: f012 8ab1 1caa d5bf 6bac 6783 0c3c c43f
000000b0: f039 a8eb 6b64 913f 13c6 caf5 144d d3bf

gru.bias_hh_l0 f8 [24]
0.1785377545418319 -0.0043187826105455405 0.120546718329216 -0.020308627338299134 -0.24860153244107128 0.009374587106003238 -0.011955021435739085 0.35999950452738944
0.1916024651371899 -0.200807690030865 0.12035318718001221 -0.20999049260514363 -0.4120517160863837 -0.22344096166129154 -0.14486607379538383 -0.302399683831106
0.24339954785254628 0.074930460343289 0.18462888091760465 0.07994208909335516 -0.03884796227509818 0.20427737403888513 0.125527382636066 -0.5160625777949805
00000000: 7ae1 6d3c 53da c63f 131b 2261 92b0 71bf
00000010: 1536 dd54 26dc be3f 9084 fae8 c8cb 94bf
00000020: f7f1 c8cd 2cd2 cfbf 3832 45c8 fb32 833f
00000030: 6b40 b7d0 df7b 88bf a95d a15c 3b0a d73f
00000040: 6771 ccf8 6d86 c83f 2de3 bbfe 10b4 c9bf
00000050: 2953 e86a 77cf be3f fee1 1aed f7e0 cabf
00000060: 2c82 3629 0e5f dabf 4f05 76a3 b699 ccbf
00000070: eb23 a0b4 f88a c2bf 9305 1834 845a d3bf
00000080: d5a5 f164 b727 cf3f 010e a684 a42e b33f
00000090: a016 b84e eba1 c73f 55d9 3ab2 1577 b43f
000000a0: 68bf f94e e1e3 a3bf 94a6 67d0 c225 ca3f
000000b0: 2452 9601 4811 c03f 6834 caaa 9583 e0bf

gru.weight_ih_l0_reverse f8 [24, 96]
-0.0034782948934154157 -0.0029321845553148163 -0.0029531460457247667 -0.003107431271267138 -0.002942921880268563 -0.0024346632423735636 -0.0023459141255507926 -0.002466487885251582
-0.0025215323050732964 -0.002237867462382353 -0.0021955122006937634 -0.002112923969287994 -0.002016288584232836 -0.0018463081115182068 -0.0017620767085498924 -0.0015269901763747921
-0.0013607929769647877 -0.0010241078981389437 -0.0011655101624851796 -0.000892598174091764 -0.0005696504274228102 -0.00041928839130994444 -0.0006989917284029026 -0.0007766565927608567
-0.000744118802949269 -0.001101735594745949 -0.0016862675654118733 -0.002046223337531557 -0.0023323505231191604 -0.002875842248617662 -0.0033571786422272425 -0.003391274267043585
-0.00350755299290609 -0.0039014997394776463 -0.004292527015833919 -0.00425890766134054 -0.004291206031317833 -0.004439192900606799 -0.00447662923974128 -0.004239823655427274
-0.004339843185486985 -0.004475126947208754 -0.004545151413227825 -0.004243631263832259 -0.004078881344357047 -0.0040521680131784775 -0.0039620981901277545 -0.0036761158023403636
-0.0036629753520136168 -0.003706051595049976 -0.0037383862465667993 -0.00350691498106365 -0.0036918555403723328 -0.00358202553291278 -0.0036693046073991977 -0.003480236639929448
-0.003586670276217753 -0.0033742853807807237 -0.0032308742770159903 -0.003103718297647219 -0.0032149147887656623 -0.0030447955822347113 -0.002836881366013596 -0.002504180768063601
-0.0024855884663540517 -0.002229886216988261 -0.002430708069660479 -0.002301278465597066 -0.0023689207560856134 -0.002078516599948236 -0.002176096371675466 -0.0023235805381589957
-0.0023849433754324057 -0.0021162621962796855 -0.0020021345345605616 -0.0017609307330754796 -0.001867810764247873 -0.001821220316586346 -0.0021484141824838414 -0.0024013421466003845
-0.0026290335816875994 -0.00245756225304048 -0.002720314743295856 -0.002608448132251788 -0.002694541460824526 -0.0025475961944607115 -0.0028709774379301334 -0.00317452398696739
-0.0033301494017018984 -0.0032564891640678418 -0.003494875511753387 -0.0037088873627342707 -0.0036361596862698685 -0.0033518097909712805 -0.0033807431747018514 -0.003476195442431597
-5.2232365057233965e-05 -0.0006297605853110981 -0.0010229554613928563 -0.001376282221396076 -0.0012261790220461663 -0.0012021230478486862 -0.001204687340923028 -0.0008876327594186312
-0.00023399333298960428 -0.00022612939940523007 -0.00020051837290527294 -2.1039437469328523e-05 0.0002765337167398192 -0.0003980690710084679 -0.0009353468104116823 -0.0013653190583450727
-0.0014747290531790709 -0.0022858949314479263 -0.0026576979695089407 -0.002348454435576922 -0.0018631056675143282 -0.0015528184720422112 -0.0012735031875974836 -0.0006761092053979836
-0.00015893820344809693 -7.900654983280802e-05 3.178533619196811e-05 2.17152593486282e-05 0.00011983005011801077 -0.0002579832389744589 -0.00034770757962126347 -0.0005000082563546667
-0.0005222728733439447 -0.0006679731174073088 -0.0007310873173444978 -0.000782033082714133 -0.0006864679400201547 -0.0005502099754030368 -0.00026742756023425605 -0.0005731715273334897
-0.0006785665476539285 -0.0006641056755849926 -0.0008938289298254771 -0.001311933513744428 -0.0014963303310290225 -0.0014380075233955596 -0.0010330786456282626 -0.0011543874325656187
-0.0008405236995491833 -0.0007402895388258146 -0.00030230526367252766 -0.0005659787390487678 -0.0005383268803542534 -0.0005138082554750205 -0.0008520525107715717 -0.0013912126295676272
-0.001751025319576649 -0.001613050727604942 -0.0016904314000052198 -0.002162995239800746 -0.002100595269290375 -0.0016744637629025649 -0.0012417490333385005 -0.0014773670874247032
-0.0010832055150168942 -0.0010453019898706837 -0.0009498121814091002 -0.0011350860110848706 -0.0006503113096174723 -0.000401940193166126 -0.0005186848514753605 -0.0006520697091868412
-0.00040638741169230543 -0.0001941916205621956 -0.00010572340739386141 -1.775146089886156e-05 0.0002588229986915362 4.6777761545159225e-05 0.00046203612733573536 0.0005223046266814547
0.0011730318057455375 0.0014689409308854021 0.0010029113738944202 0.0009654261275201011 0.00136482888954199 0.0014948666041075362 0.001262130290531324 0.0011204843583386092
0.001140230702855844 0.000995494563109191 0.001137503979399864 0.0012897542909364624 0.0015295931119356336 0.0013295950189347993 0.0009595657802080993 0.0011345416388069927
-0.008889301175298044 -0.005572136659816531 -0.003009694558785288 -0.001691236755113753 -0.0007082696185224342 -0.00061635842710868 5.635592902468868e-06 -0.0001394218245454783
-0.00025047935888948417 -0.0005477325179040327 -0.0014603212753217377 -0.003175726391490295 -0.004299437088497241 -0.0038989278532081907 -0.004341507688990322 -0.006997020292269746
-0.011616539637889512 -0.013499441647434926 -0.01206243307496755 -0.018113479819606145 -0.020437793943245883 -0.020573459029789513 -0.017491773638910236 -0.023942687280598885
-0.024132856340293583 -0.024014907212863684 -0.023785724089402507 -0.025165524701890263 -0.02422654387427735 -0.021619891288262215 -0.0200868523932567 -0.022684736868529315
-0.02066624458967838 -0.019324185778092678 -0.019229098676728538 -0.018880095017036382 -0.019704106270104698 -0.019457364886927717 -0.019924732815892805 -0.01952324531031821
-0.01994240894608747 -0.02079895113223089 -0.018509576810477563 -0.02038383039631719 -0.019722581275156248 -0.02228193118290942 -0.023095457063098904 -0.021393478611131993
-0.02137040599581758 -0.022400303383709803 -0.022712709552196793 -0.023983436219795824 -0.023258621159928234 -0.024420919307176745 -0.025148911859389993 -0.023284839498007918
-0.023518970450942756 -0.020815698720524866 -0.019851805865189025 -0.01760538162213908 -0.02542274375195688 -0.024025959504213604 -0.02644306962590202 -0.023884624177204893
00000000: bb9c 045a 837e 6cbf a952 ab98 3c05 68bf
00000010: 6d71 f935 3231 68bf 38bc e875 c174 69bf
00000020: f6bb 5f27 c11b 68bf 73ac 16e0 dbf1 63bf
00000030: 77d3 590e bd37 63bf bc49 b399 9934 64bf
00000040: 88b5 2759 09a8 64bf 72f3 09f2 2555 62bf
00000050: 9fc7 32a3 52fc 61bf 33d7 1a6b 1f4f 61bf
00000060: c51c eab0 7684 60bf 1592 443d fa3f 5ebf
00000070: 1a5e 8575 afde 5cbf b01f 9b37 a904 59bf
00000080: 06cc 4a55 944b 56bf ea76 867b 6bc7 50bf
00000090: 2063 fc01 8118 53bf 073a acfb a73f 4dbf
000000a0: 7f06 5cfa 92aa 42bf d903 a3ed 7d7a 3bbf
000000b0: f892 8c4e 91e7 46bf 11c5 4355 1173 49bf
000000c0: a90d 25f6 1e62 48bf ac1a 4a96 030d 52bf
000000d0: 778f ed02 b8a0 5bbf de8f 14ca 3dc3 60bf
000000e0: aa01 0727 4b1b 63bf aa25 000d 148f 67bf
000000f0: 98cd 348f 8380 6bbf 48f1 3282 04c8 6bbf
00000100: 45b4 972c dfbb 6cbf 3b43 2ab9 09f6 6fbf
00000110: 6d3b 6772 0a95 71bf 9b4a f4d1 c971 71bf
00000120: 05dd 09d9 a793 71bf 8886 42c5 d42e 72bf
00000130: b266 e502 1656 72bf e3ca 0dff c65d 71bf
00000140: 92ad d2c8 a7c6 71bf 03ad 23be 8254 72bf
00000150: 518b cdca ef9d 72bf c03c e917 c561 71bf
00000160: dd06 a75f 04b5 70bf 3c11 8391 0199 70bf
00000170: acf8 66a2 8f3a 70bf b52d b7a4 5f1d 6ebf
00000180: ac77 f9ea d001 6ebf cfa5 bc4c 275c 6ebf
00000190: 73fa 66d5 f69f 6ebf 87a4 e9a4 88ba 6cbf
000001a0: 14ad d6d9 613e 6ebf 32b3 8d50 0d58 6dbf
000001b0: beff 35e9 160f 6ebf d176 a0d1 9582 6cbf
000001c0: 3666 36f1 ca61 6dbf 8f4b 73ab 63a4 6bbf
000001d0: 45c4 6e6b a277 6abf 0356 b312 f86c 69bf
000001e0: ded1 113c 2a56 6abf 28c7 5b2e 66f1 68bf
000001f0: 45b2 1116 5f3d 67bf 313f 11d0 a583 64bf
00000200: 05e9 9325 a85c 64bf e045 060c 6944 62bf
00000210: c842 4a75 90e9 63bf 6395 f577 21da 62bf
00000220: ce12 93a5 fc67 63bf 8864 451a f706 61bf
00000230: d62f fad7 9ad3 61bf 61f4 78cd e608 63bf
00000240: 3b02 9cb9 9689 63bf eb6e 879d 1f56 61bf
00000250: 18e1 23cb c766 60bf f05f 2efa e0d9 5cbf
00000260: 4aa5 7189 2a9a 5ebf 6107 b56c c0d6 5dbf
00000270: 6f6f dd14 8d99 61bf 1e95 8ebf faab 63bf
00000280: 9621 1ca8 7b89 65bf ce71 26b0 e121 64bf
00000290: 5edb 6edb e948 66bf d690 7bed 4f5e 65bf
000002a0: 606f 76ee dc12 66bf 82ff d54a b2de 64bf
000002b0: 80c6 8246 e084 67bf 1462 8a96 7501 6abf
000002c0: 80e1 ac58 d447 6bbf fbcf b34e 5aad 6abf
000002d0: a7ad d900 49a1 6cbf 6802 aebd 1962 6ebf
000002e0: 3321 f05d 94c9 6dbf 1486 e82d 4175 6bbf
000002f0: 367d e3ab eeb1 6bbf ea03 ac37 1c7a 6cbf
00000300: 2438 d065 8262 0bbf 7fdd 218f d0a2 44bf
00000310: ede5 1f10 96c2 50bf 07b0 61c8 8b8c 56bf
00000320: 8962 1eb3 f716 54bf 5023 48cb 11b2 53bf
00000330: 9c7b cb2e d3bc 53bf be7c 16d6 0016 4dbf
00000340: 3165 e36c 83ab 2ebf 105d 0ec0 a4a3 2dbf
00000350: 0324 2fb5 4748 2abf eaf3 3a22 bb0f f6be
00000360: 400d 0745 771f 323f 4a57 3ba4 7d16 3abf
00000370: e081 06fb 41a6 4ebf d392 112d 905e 56bf
00000380: d586 7243 7629 58bf f909 207f deb9 62bf
00000390: 94ef 92bb 98c5 65bf a101 e7df 103d 63bf
000003a0: 8d45 4d7a 6e86 5ebf 4d7d 7523 fe70 59bf
000003b0: aa7c b1a2 75dd 54bf f8a0 7d76 9d27 46bf
000003c0: 22f9 93c5 14d5 24bf 37b7 d830 0ab6 14bf
000003d0: 2cff e2d5 27aa 003f 53bc 7642 25c5 f63e
000003e0: b7d0 d895 a869 1f3f 4f13 0693 3de8 30bf
000003f0: 8203 dcae 90c9 36bf 6348 ec8d 5f62 40bf
00000400: 108c 8e74 241d 41bf 84c8 d058 5de3 45bf
00000410: cf7f 2b0f cef4 47bf 28f6 df41 2ba0 49bf
00000420: 7ce4 12ad 827e 46bf 2c45 d6ec 7e07 42bf
00000430: 8bb9 10a0 b086 31bf dcb3 817b 1cc8 42bf
00000440: 88c2 ae90 3a3c 46bf a259 3014 ecc2 45bf
00000450: e7f7 ca02 fb49 4dbf 16c9 4ee2 a57e 55bf
00000460: e875 7d75 1084 58bf d960 33d2 708f 57bf
00000470: 719f d1bf 0bed 50bf d11e 4411 dae9 52bf
00000480: 2eae 89e6 d28a 4bbf b811 eead ff41 48bf
00000490: c3bb 8b38 d7cf 33bf 3b3d 5416 c68b 42bf
000004a0: 7f37 3f2c d0a3 41bf 7fc9 abd3 22d6 40bf
000004b0: 91d7 88d5 88eb 4bbf 93c7 ba2f 2bcb 56bf
000004c0: cde6 d91e 55b0 5cbf 4c6d cc07 a06d 5abf
000004d0: 93db 10e5 2eb2 5bbf 9885 1f3a 21b8 61bf
000004e0: b8c0 7a7f 4435 61bf 8f75 66c6 356f 5bbf
000004f0: c7db 3bdf 4558 54bf 507d c7d4 8634 58bf
00000500: 010f c210 4bbf 51bf ff9c 1977 5020 51bf
00000510: dacf d420 9a1f 4fbf 25ad ed52 e598 52bf
00000520: 8aa0 4ce7 344f 45bf 0b83 0efc 6f57 3abf
00000530: 3d99 ac3c 0bff 40bf 918b af09 f55d 45bf
00000540: 6f98 89a4 0ca2 3abf 0f4c a651 fd73 29bf
00000550: 56d5 074f fab6 1bbf 1565 b11a 1f9d f2be
00000560: dee1 9850 54f6 303f a400 eca5 6786 083f
00000570: cc4e 750e ae47 3e3f e283 23a5 681d 413f
00000580: 5fc5 8a4f 0d38 533f 1193 8150 2f11 583f
00000590: 2c72 4ee3 836e 503f 25ca 7bd2 94a2 4f3f
000005a0: 2d77 7edc 815c 563f 322d 4ccb ec7d 583f
000005b0: 8c47 8d14 c2ad 543f eb00 2feb a65b 523f
000005c0: e9c7 0865 79ae 523f a1af e125 684f 503f
000005d0: bc76 ff98 09a3 523f cdf3 f61f 9f21 553f
000005e0: 30b7 1519 940f 593f b851 e3c7 b9c8 553f
000005f0: 6735 7ad2 6b71 4f3f f01d 04cf 9c96 523f
00000600: 3158 a8ce 8d34 82bf 3667 900b cfd2 76bf
00000610: dd08 6e76 c9a7 68bf 5776 64a3 8fb5 5bbf
00000620: d33b 956c 6535 47bf 88ea bda4 6332 44bf
00000630: 4d48 3efb 2ba3 d73e 95ca 815a 3846 22bf
00000640: e8ea 9da7 586a 30bf 715a 2ca0 b6f2 41bf
00000650: be50 a007 08ed 57bf af84 c21f fb03 6abf
00000660: 111b fb5a 499c 71bf b6c9 cef3 a4f0 6fbf
00000670: f5fa a198 66c8 71bf d429 3255 e8a8 7cbf
00000680: e70a b38e 69ca 87bf d8b4 1e63 98a5 8bbf
00000690: b492 895c 30b4 88bf 4f92 c40d 578c 92bf
000006a0: 49c1 5a22 a5ed 94bf 8e4e cb76 3511 95bf
000006b0: 4da1 e90e 5de9 91bf 5de4 648b 6e84 98bf
000006c0: f966 f692 48b6 98bf 7b05 6224 5d97 98bf
000006d0: a47a 4dec 485b 98bf 0040 53c6 fdc4 99bf
000006e0: 9d5f 8ad6 d7ce 98bf 16ca 1a58 8623 96bf
000006f0: 4239 6fd8 a591 94bf 98f2 dfeb aa3a 97bf
00000700: c541 9332 8829 95bf 1b44 c127 b8c9 93bf
00000710: 49dc caf7 cab0 93bf 27fd 92ba 4d55 93bf
00000720: 0ba8 1b30 502d 94bf dc3a 6ca7 a1ec 93bf
00000730: e29d 4d2f 2667 94bf f878 7ad0 e6fd 93bf
00000740: 6559 e868 c86b 94bf 0cbb 9dfb 514c 95bf
00000750: 1555 41ac 2cf4 92bf 5f75 adb3 7fdf 94bf
00000760: 802a 4706 2832 94bf 7aa7 e316 13d1 96bf
00000770: e1b6 16e3 55a6 97bf 2e11 ee0b 2ce8 95bf
00000780: 11c8 6aab 1fe2 95bf 6265 d0e9 1af0 96bf
00000790: f2c1 eb22 0042 97bf 22c2 d628 1d8f 98bf
000007a0: 1583 eda4 1bd1 97bf 89e1 0c27 cc01 99bf
000007b0: 8e40 dde7 a2c0 99bf 91d4 8b20 fbd7 97bf
000007c0: e086 b063 5b15 98bf 13ff fde4 b550 95bf
000007d0: 2e82 d423 0854 94bf 3ce7 3329 2507 92bf
000007e0: 27fc f473 6b08 9abf c16e 4dd9 429a 98bf
000007f0: 1b14 ff5c e413 9bbf 1396 dffe 3575 98bf

gru.weight_hh_l0_reverse f8 [24, 8]
-0.0064568392614324155 -0.006420291327478616 -0.006229148868954578 0.00264748572955238 -0.006471446670231511 0.006152741788029046 0.004937678226055231 -0.007158018890506519
-0.006639099442684696 -0.006583186622275025 -0.006347208335188398 -0.0006079631741740642 -0.006664365318878244 0.006360477827770906 0.004191739161367585 -0.003275171612060905
-0.06527539576338677 -0.02622333989998229 -0.024944378185591323 0.016285468267147305 -0.020426754124866126 0.036925704320712086 0.02623933202371724 -0.06029710992979001
-0.33443735038629097 0.3522907538497601 -0.05900239936309675 -0.019141149855714697 0.3020888586279446 -0.039278998727908354 -0.2437755373899701 -0.14490726066659682
0.025864050216103645 0.02561602050754882 0.025337090246751605 -0.0020099019615950125 0.02576179811863289 -0.02493544903781052 -0.022839953973160066 0.018867573080261747
-0.006858280445220393 -0.007145015667553143 -0.006808980079252607 0.007115107728535397 -0.007195617999211795 0.007471076856228967 0.0033900750947840046 -0.007753296231985238
-0.33340668397114953 0.002850044392558091 -0.11228174150037683 0.10198726959832563 -0.4109835950640068 -0.004584568953672294 -0.29486221404318924 0.06926214097890879
-0.048020985153847486 -0.04841969207282053 -0.04748704364441186 0.006899413829559604 -0.04856615663216896 0.04605620745588959 0.04054638914643766 -0.03652971617558338
-0.0509870661818104 -0.05314558795951576 -0.05240457416274476 -0.027151846316189922 -0.0531510683043966 0.046617886032429265 0.0444308002758609 -0.028564798380159205
-0.001673920927939543 -0.0019650987706805825 -0.0019694799690137257 0.0023921222974228385 -0.0019963728355043013 0.0009124887530777724 0.0019403638540495824 0.0030370806654178403
0.01056733857371499 0.009881691918007902 0.00993682305955072 0.014172641358744282 0.009806045611869915 -0.012481667859130529 -0.009754660554537995 0.017636428258658004
-0.2824634187839471 -0.018431900061218642 -0.051664736854849076 0.05654092682672499 -0.11386570194579664 0.10651529257795547 0.26936605236431876 0.007634172612328508
0.01580082115816649 0.015257451631628945 0.015469972903202322 0.0124234868024542 0.015516782315765212 -0.014697601760708437 -0.01596692488896732 0.007193468762835829
0.027660041194344114 0.029432208340236098 0.028397693741384337 0.02847696423199833 0.029654766354180764 -0.02653321407819659 -0.01701071615277683 0.024295742420891553
-0.05112827610153808 -0.2780558390705543 0.008973958989134358 -0.19746670358317486 -0.02409911379449934 0.056529755193912984 0.08928181527201981 -0.25015361743407155
-0.1310583324024225 -0.1293648874837836 -0.12859759649089947 0.011266919301971677 -0.13139860331669476 0.12138039303974237 0.11350308267551776 -0.023130199149031326
-0.02230353330304026 -0.04265155570246071 -0.0515611470871682 -0.012390290725003878 0.07073688470547985 -0.0014732465046510368 -0.034646366472083946 -0.006748364929853227
0.10362808583007944 -0.14194461770267283 -0.12483011108788923 0.03020126603237283 -0.05350763181375218 -0.004392180159909832 -0.10418757650216771 0.06165016588370541
0.3225021978844348 -0.007691334051262295 -0.02165876793719422 -0.06874612166764775 -0.01182679565274165 -0.009226267986194678 0.19815282018779445 -0.13841911466812212
-0.10550856497158634 -0.10168302464011814 -0.06067072783101495 -0.04414656930576301 -0.3984470152513785 0.058863503095338346 -0.011570244109416558 -0.17696085613916576
0.12416376883848167 0.07184256630926765 0.11515816960370157 0.016391862231013368 0.1166159821280488 -0.08883900659944487 -0.0821023297637042 0.055675531341303465
-0.02616464962285738 0.004455181864976078 0.04472703376704362 -0.04532799233699781 0.023644741674867034 0.020417912367579946 0.018002827186384168 -0.045802388525197066
-0.3284929198382727 0.25964889351503245 0.191193678144716 -0.029414045520698248 0.3017751249626268 -0.003278133244047456 -0.21188015612949598 -0.2322511518776506
0.06666168710426608 -0.11763659556835246 0.15790342472844193 0.04729377600700917 -0.1277638677218175 0.014685836954845165 -0.09153256277004017 0.052833308256162934
00000000: 3702 6a97 7c72 7abf b95a 84d4 294c 7abf
00000010: 2f03 c96a bc83 79bf 9c71 0014 2eb0 653f
00000020: ac3a e7bc cd81 7abf 7e42 2a0c 9e33 793f
00000030: c039 fce7 8739 743f 213c 9f10 ba51 7dbf
00000040: 7716 b3af 9931 7bbf 3d2c f0b3 f8f6 7abf
00000050: 604d 87c3 87ff 79bf 65ca a1f9 f6eb 43bf
00000060: eba8 7df1 174c 7bbf 5b87 1dc4 710d 7a3f
00000070: 5f71 c869 5b2b 713f d687 cd5e 88d4 6abf
00000080: 2586 096a e3b5 b0bf 869c 0c8d 4ada 9abf
00000090: 74cc 1ae2 048b 99bf a905 6e46 23ad 903f
000000a0: f50b b843 c0ea 94bf 02e2 e008 ede7 a23f
000000b0: ec9b a4c3 7bde 9a3f 042f 6246 43df aebf
000000c0: b014 9eea 6b67 d5bf 2bf2 9d84 ee8b d63f
000000d0: f7d0 4cff 8f35 aebf e271 8dd2 bc99 93bf
000000e0: 57c0 1282 6c55 d33f c877 e97d 601c a4bf
000000f0: bece 536c 0934 cfbf a60b c234 528c c2bf
00000100: 0bf4 4707 1b7c 9a3f f697 5509 163b 9a3f
00000110: ca40 f157 f7f1 993f 0ed5 2ee6 1177 60bf
00000120: 426b 9f01 4d61 9a3f dd8d 83a8 ad88 99bf
00000130: bd6e 6d5d 5b63 97bf 1aa5 5665 0552 933f
00000140: ec18 81a3 6d17 7cbf b1dc f189 1744 7dbf
00000150: 2cef 26ac bbe3 7bbf f374 0630 bb24 7d3f
00000160: adae b2ff 2679 7dbf 1de9 36ec fd99 7e3f
00000170: 7cf6 37b5 80c5 6b3f ca8d 0a9c ebc1 7fbf
00000180: 1721 fbfc 8856 d5bf fb73 a9ee f958 673f
00000190: 779a ae07 7fbe bcbf 1a7c 8873 d61b ba3f
000001a0: bf83 ff22 8e4d dabf e374 8edb 44c7 72bf
000001b0: ca10 89c3 05df d2bf 86f8 5ae6 29bb b13f
000001c0: f5d3 83e1 3496 a8bf 96cc de43 77ca a8bf
000001d0: 7779 dfc6 3850 a8bf 7b07 274c 8f42 7c3f
000001e0: a9eb dacc a9dd a8bf 5407 9ae1 ad94 a73f
000001f0: 79ad b50e 7fc2 a43f 69d2 9ce0 05b4 a2bf
00000200: 842b 8a0b fa1a aabf a3f5 6c04 e635 abbf
00000210: da2c 61b8 c5d4 aabf 7af3 d08f b1cd 9bbf
00000220: 0acd 3ae8 9d36 abbf 16fc d5af 4cde a73f
00000230: 8367 3d44 a2bf a63f 963f 702b 1740 9dbf
00000240: ced0 0fe9 ee6c 5bbf 95ee 825e 1c19 60bf
00000250: be47 d381 4c22 60bf 4d84 22e1 a498 633f
00000260: 816b 4081 b25a 60bf 98a6 1cad 82e6 4d3f
00000270: 8433 e9d2 79ca 5f3f d9db 4344 38e1 683f
00000280: 5990 a32c 54a4 853f 3799 ef3c da3c 843f
00000290: 9607 89d0 c159 843f 37e8 11b9 8b06 8d3f
000002a0: b805 a629 3115 843f 4637 091a fd8f 89bf
000002b0: 7fc7 8560 40fa 83bf ab53 5baa 480f 923f
000002c0: f293 7f72 e113 d2bf a042 dddf cfdf 92bf
000002d0: a1c9 4be6 cc73 aabf a56e 36af eef2 ac3f
000002e0: 9b47 fe79 4d26 bdbf ba6c 2512 9644 bb3f
000002f0: feab 631c 4b3d d13f b744 3b9b 0245 7f3f
00000300: 9d40 7f28 172e 903f bea5 397e 4c3f 8f3f
00000310: d39a 839d b8ae 8f3f 818f 262c 7c71 893f
00000320: a8d2 ae44 43c7 8f3f 3b8f 22b7 c619 8ebf
00000330: 7bfb dc30 a259 90bf be80 4c11 e676 7d3f
00000340: 2ec7 57f1 e952 9c3f 86dc 1411 7a23 9e3f
00000350: feb1 9af7 4814 9d3f a85f 43b8 1029 9d3f
00000360: e79b a5ae d15d 9e3f f1fc e4da 852b 9bbf
00000370: c119 3bd6 416b 91bf 30e2 84ac fbe0 983f
00000380: d790 8343 7c2d aabf 8c45 d1b7 aacb d1bf
00000390: cee7 fd62 f060 823f 1426 f8c4 9646 c9bf
000003a0: 9a98 7026 70ad 98bf 7c13 9ed3 77f1 ac3f
000003b0: de88 b84c 2cdb b63f 69bf 7651 8402 d0bf
000003c0: a5b2 c4f9 84c6 c0bf 502d 7f54 078f c0bf
000003d0: 22e5 a2d3 e275 c0bf 8cda 6d4f 1c13 873f
000003e0: b11d fe5f abd1 c0bf c137 7b12 c912 bf3f
000003f0: 0627 16bc 890e bd3f b689 9463 71af 97bf
00000400: 64ba 7cc8 bcd6 96bf c02e bbb9 6cd6 a5bf
00000410: c19e f700 3966 aabf ca55 9dab 1460 89bf
00000420: 4d53 6efe cf1b b23f 2e6d 9c63 3e23 58bf
00000430: 5d7d d825 2bbd a1bf 1e97 cd6a 2ca4 7bbf
00000440: 7957 96c7 5e87 ba3f 6727 70c1 3d2b c2bf
00000450: 39b4 adbc ddf4 bfbf e099 a0a7 14ed 9e3f
00000460: 80f4 7331 5a65 abbf 01ba 51e2 88fd 71bf
00000470: 59ef b979 09ac babf 1ee8 864c 9c90 af3f
00000480: 2a50 3342 e0a3 d43f e18e 67c3 f280 7fbf
00000490: fcfc d84f b72d 96bf 1315 4a88 5899 b1bf
000004a0: 2629 5ca4 a538 88bf 5863 1eba 38e5 82bf
000004b0: 208b 2855 125d c93f a607 52b1 b7b7 c1bf
000004c0: 0038 00fc 9b02 bbbf 503e 6311 e607 babf
000004d0: f7aa b7cf 3b10 afbf 0236 cc0e 619a a6bf
000004e0: 0a62 ece8 2780 d9bf fae7 7169 5b23 ae3f
000004f0: 0b15 74e0 23b2 87bf b71a e540 a7a6 c6bf
00000500: e766 825e 32c9 bf3f df4e c240 4664 b23f
00000510: acab 507c 017b bd3f 149b cf40 07c9 903f
00000520: d04e 6e85 8bda bd3f 8f28 f433 27be b6bf
00000530: 3db1 4285 a804 b5bf 95bd 98d4 8081 ac3f
00000540: 0511 c4e9 e7ca 9abf 0e5e 86c6 983f 723f
00000550: a896 8d36 76e6 a63f 818a 5c09 3b35 a7bf
00000560: b41a ddc0 5336 983f 1f43 7ce7 6ee8 943f
00000570: cb15 0148 556f 923f 86bc 9621 6973 a7bf
00000580: 4d11 eb2a 0706 d5bf d7bc 8564 169e d03f
00000590: 4cb0 6ad1 0879 c83f dcc2 372e b71e 9ebf
000005a0: ac7d 1d9d 4850 d33f eb55 6762 beda 6abf
000005b0: 05b0 9f92 e31e cbbf 5eec e2de 67ba cdbf
000005c0: 554e 0286 bd10 b13f de62 c792 6e1d bebf
000005d0: 8249 91ee 2d36 c43f c647 82ca e336 a83f
000005e0: f5e2 bc00 915a c0bf 46cc 7bab 9b13 8e3f
000005f0: b7cb 9d93 ad6e b7bf be0c 33a6 f70c ab3f

gru.bias_ih_l0_reverse f8 [24]
-0.006922302939275663 -0.005079276682441444 -0.0320492546329672 0.1698596031023985 0.02611729551887164 -0.006196862996071841 0.07079122821294977 -0.05206006077356072
-0.07598884350176825 -0.194563765081145 -0.17816725796770375 -0.31482990305512976 -0.1729058385804932 -0.04152493133530006 0.02603442982254142 -0.16622125930762158
0.2468908614107079 0.1902980236484073 0.19353036751508926 -0.07725517989818895 0.17771274995555236 0.002202420142327939 0.09999500916317963 0.3312068015775625
00000000: 918b cb8b 8f5a 7cbf f092 d0f3 01ce 74bf
00000010: a700 0589 c268 a0bf 7240 1ea0 f5bd c53f
00000020: dc3e 7408 7ebe 9a3f 29a7 7ebe e161 79bf
00000030: c5ae 04ba 5f1f b23f ae82 e6c4 9da7 aabf
00000040: e771 b33d 0174 b3bf 6b4c 0128 77e7 c8bf
00000050: 6d3a 1849 2fce c6bf 2f2d 5b52 2c26 d4bf
00000060: 62ce fe4c c721 c6bf 5986 1b7c c142 a5bf
00000070: 389c a102 c5a8 9a3f 5926 50fc bc46 c5bf
00000080: 675a b8a7 1e9a cf3f a81b 0886 af5b c83f
00000090: 394d a163 9ac5 c83f 46fc 1bd7 fec6 b3bf
000000a0: de16 9298 4abf c63f c39a 774f cf0a 623f
000000b0: d27b 1ede 4599 b93f d141 3f03 7e32 d53f

gru.bias_hh_l0_reverse f8 [24]
-0.0069223037693543375 -0.005079276701267045 -0.020867077065081296 -0.0782079864969208 0.026117002656642345 -0.006196547951362643 0.12352161677575453 -0.052055432211105104
-0.10359497751883529 -0.18981663073980182 -0.17209595647221732 -0.14518109994779566 -0.16730709954707135 -0.04194367382376285 0.08301610478281422 -0.16614260085170002
0.06406791814775321 0.11230128516859844 0.013158002678560196 -0.35941989395759627 0.12303817718025434 -0.07542767598624187 -0.07216004513897516 -0.08814394102534338
00000000: 9371 d6c4 8f5a 7cbf e8c1 1bf5 01ce 74bf
00000010: e304 3bd6 2d5e 95bf 1550 4a48 7005 b4bf
00000020: 2e8a 1e61 6abe 9a3f 3684 c92c 8d61 79bf
00000030: 15a2 66d8 1c9f bf3f e207 da75 02a7 aabf
00000040: 1827 7950 3385 babf 74d6 a14e e94b c8bf
00000050: b837 6984 3d07 c6bf 9af4 2256 4b95 c2bf
00000060: a8bd 78ac 516a c5bf 00be b126 a479 a5bf
00000070: 0360 151f 8b40 b53f 0ab2 9026 2944 c5bf
00000080: 0ddb 2a4d c166 b03f fc0f 19eb c6bf bc3f
00000090: d813 7b39 95f2 8a3f 3719 854c bc00 d7bf
000000a0: a80d 2613 6e7f bf3f 56fe 9269 3a4f b3bf
000000b0: eb24 f3a9 1479 b2bf f75d 0bf0 9990 b6bf

fc.weight f8 [4, 16]
0.0004790840367636434 -0.3527643054801631 0.31975402152376403 0.10926207120008453 0.31978931046220566 -0.2935959057405104 0.23775560143095442 0.16955094860079872
-0.03274907344365571 0.34499281282154987 0.4825698899671511 0.13389975644355936 0.09513832171161542 0.004121860691521597 -0.15286787533016946 -0.02765210299352647
-0.03251930814362641 0.40791539351292305 0.2230376025265092 0.18065247614989216 0.26963062094847895 -0.43250054139195826 -0.4125319497183759 0.18949559470067998
0.19038780118395196 -0.04519136945395831 0.024580031006334564 0.17616989931531182 -0.37736628248386866 0.04941789113518786 -0.30574174835144585 -0.06647694579617032
-0.06261600575007951 -0.16780349319430904 0.001048707201881472 -0.3170677176636041 0.231464097704791 -0.45665764890619037 -0.3180525049405486 0.23261390173356378
0.15085293671793337 0.1115549310681149 0.3247533126006753 0.18109142986523352 -0.23978397507555116 0.0052773817539352496 -0.18203160842591204 -0.10983677970889547
-0.0736003845938825 -0.26472550556814006 0.06537766889139084 -0.17812881046808487 0.1712727571565398 0.10732386260549408 -0.01716376454782879 0.20397929307101495
-0.1791474241162036 -0.11776641066981948 0.025903312518679424 0.2596988589244313 0.6017876110456793 -0.00226062407942691 -0.42432201842791134 -0.1818657224691041
00000000: 5c7e 1a45 b265 3f3f e9f0 cebc b093 d6bf
00000010: 0561 4d92 d976 d43f d561 7f5e 99f8 bb3f
00000020: 85ea 8295 6d77 d43f 8847 597b 46ca d2bf
00000030: f41a 4b8a c66e ce3f ba83 9f71 d8b3 c53f
00000040: 1c61 d48e 7cc4 a0bf 5d1c 1bbc 5c14 d63f
00000050: ec5d dcd1 6ce2 de3f b108 6f91 a023 c13f
00000060: d903 592c fc5a b83f c269 e68d 15e2 703f
00000070: 7577 93ae 2c91 c3bf 195e 1738 d550 9cbf
00000080: c84b eee9 5ea6 a0bf 0612 ab2a 491b da3f
00000090: dd96 5004 7f8c cc3f 9eaa 80ce 9e1f c73f
000000a0: 3554 beca a041 d13f e4f7 31c0 16ae dbbf
000000b0: 581d 2668 ec66 dabf e7dc fc42 6441 c83f
000000c0: f13a d2a1 a05e c83f 227f bbbb 5223 a7bf
000000d0: e53c 3af5 812b 993f 01a8 0c3a bc8c c63f
000000e0: 7167 78e8 c426 d8bf 799d 8644 4d4d a93f
000000f0: 9e3e 8cd6 4591 d3bf 95ec 2114 a204 b1bf
00000100: ef19 e740 9a07 b0bf 6e49 b6b9 957a c5bf
00000110: 9c78 a6c8 982e 513f f4e1 7e65 d64a d4bf
00000120: 878c eb94 9da0 cd3f 374d e100 e139 ddbf
00000130: ae5a c8e4 f85a d4bf d832 45d6 4ac6 cd3f
00000140: 2ec3 da26 264f c33f 7a24 a52c dd8e bc3f
00000150: decd 381e c2c8 d43f 00b4 6d04 012e c73f
00000160: a4f5 86c5 3db1 cebf a5a2 aa60 bc9d 753f
00000170: 6c87 83ce cf4c c7bf ce66 bf60 431e bcbf
00000180: 67c2 cd8c 79d7 b2bf 3743 353f 43f1 d0bf
00000190: 37f9 c645 97bc b03f 86c8 b7c3 eccc c6bf
000001a0: 716f 5705 44ec c53f 1793 f89f 9379 bb3f
000001b0: 2bfd a2bd 6093 91bf 018e 6654 fe1b ca3f
000001c0: 36f1 de83 4dee c6bf fde8 6482 f025 bebf
000001d0: 8ad0 80e0 6586 9a3f 8fe4 78f6 e79e d03f
000001e0: 7d88 9217 d841 e33f 9b87 ab4f df84 62bf
000001f0: b9b7 078a 1728 dbbf da54 2241 6047 c7bf

fc.bias f8 [4]
0.21102967364925074 0.16093807037269697 0.15626206463858197 -0.09163592868524476
00000000: 1890 6735 0503 cb3f 664e 7762 9e99 c43f
00000010: f133 9d34 6500 c43f 9a7a d7c4 7375 b7bf
