dl_experiments/best_checkpoints/taxi_5min_GRU_cuda:0_checkpoint.pt (torch, 124350 bytes, 30 tensors)

gru.weight_ih_l0 f8 [48, 48]
000000 44 ca 87 87 5b 13 a5 bf 45 29 78 fc d3 90 a5 bf
       -0.041163311285249665 -0.042120575493827896
000010 4b d4 09 5e ee 8c a2 bf 15 de 28 b0 44 74 a2 bf
       -0.03623146913461336 -0.036043306831228396
000020 7a 3d 61 46 43 53 a3 bf 36 51 e4 41 78 a2 98 bf
       -0.03774461969498595 -0.0240572729317858
000030 22 2d e6 1f 0e 22 a2 bf c0 77 c7 7e f9 70 9a bf
       -0.03541607036012297 -0.025821588862406264
000040 db ef 2f 56 d1 12 99 bf 13 45 2b 56 63 5a 9b bf
       -0.0244858464102292 -0.026711990484561698
000050 d3 5a e8 72 9c 48 92 bf dd ec 2a 88 0d 51 95 bf
       -0.017855114472775945 -0.0208170046196131
000060 5d 28 14 0a 29 30 a2 bf 88 61 b8 a0 ab e6 9f bf
       -0.03552368400603776 -0.031153375324807026
000070 d6 c5 48 dd 7b 4c 98 bf f5 19 4e a8 f1 3e 9e bf
       -0.023729262715454023 -0.029536987206961702
000080 c5 90 c4 2c 3d c9 96 bf 00 1b 9f 6e fd 8c 92 bf
       -0.02225204072705435 -0.01811595904998864
000090 31 23 fd 16 7d 4c 95 bf e7 6d 26 94 a8 46 93 bf
       -0.020799593475462067 -0.018824228327145944
0000a0 74 e2 3a 8c 25 64 79 bf 8c 8e 17 45 9f 18 68 bf
       -0.006199022932997001 -0.0029414282550862033
0000b0 8c 04 6e 17 af 4b 6b bf 89 a6 31 72 56 e0 3f 3f
       -0.0033319873577402678 0.00048639402866133184
0000c0 32 3b 32 f5 b4 2d 9c bf 80 15 9d 37 dc 4f 89 bf
       -0.0275181078582662 -0.012359352538292567
0000d0 32 62 ca 7a 1f e3 84 bf f8 fa d8 da ce 8c 95 bf
       -0.010198827681322607 -0.02104495249499913
0000e0 2d f9 ad c2 e8 62 8e bf 96 20 c1 f6 f5 d1 8a bf
       -0.0148370918666357 -0.013095780938002382
0000f0 c4 ae aa 73 46 e0 9b bf a0 9d 41 f2 bf 3c 92 bf
       -0.027222729501473322 -0.017809867058898754
000100 c6 6a cc 06 84 db 90 bf a1 7c 51 19 5d 99 80 bf
       -0.016462386050174492 -0.008105017981675568
000110 17 3f a3 5a 3d e8 79 bf db 69 95 4f a8 0e 84 bf
       -0.006324996628066313 -0.009793581894588612
000120 f8 98 f3 75 54 9a a0 bf 7c c3 d1 35 b4 93 a1 bf
       -0.032427443884261054 -0.03433001667952504
000130 94 b8 0d 7e 40 0f 9f bf ad cf 2d 36 d4 30 a2 bf
       -0.030331618970585852 -0.03552878533710611
000140 ba 29 65 45 ff f1 98 bf 07 24 32 49 42 f7 93 bf
       -0.02436064587645046 -0.019497905461808098
000150 aa a4 6e a1 1c e4 9f bf e9 49 29 28 4a d5 93 bf
       -0.03114361510566669 -0.019368323041200872
000160 ed 16 37 45 f9 29 86 bf 2e 00 1e 03 1a 6d 96 bf
       -0.010822246002941205 -0.021900564613588518
000170 43 2f 29 67 2b 10 9f bf e0 be 2e 6e 2c 38 b2 bf
       -0.030335119410934707 -0.0711696404457558
000180 b6 37 c4 5e d4 95 a4 bf bc 36 04 98 20 95 a6 bf
       -0.040205608909772136 -0.04410650115651779
000190 62 88 a1 f1 c3 62 a0 bf 54 e6 6b ea f4 b1 a1 bf
       -0.03200352024647725 -0.03456082688894627
0001a0 5d c8 42 12 c4 13 a4 bf 12 16 5d cc f8 85 87 bf
       -0.03921330187712677 -0.01148599980991619
0001b0 f6 bc a0 73 63 bf a0 bf 5b bf f9 25 e6 05 94 bf
       -0.03271017824624238 -0.019553752963872167
0001c0 6f 75 c1 4a db cb 95 bf f0 1c a4 8e a4 d9 9a bf
       -0.021285463750577657 -0.02622086639987925
0001d0 44 98 f4 43 9f 33 84 bf a9 6b 7b 6e db a3 81 bf
       -0.009864086400352197 -0.008613313969751806
0001e0 f4 8e 25 d2 49 83 95 bf 9b 70 39 1d ab a5 93 bf
       -0.02100863785871261 -0.019186662348474753
0001f0 e8 71 39 d0 a2 ba 60 bf 2f f0 8d 3c 9b 24 94 bf
       -0.002042119974971824 -0.019670892306280215
000200 25 7a 91 30 91 dd 8a bf 29 4e 6f 2c 89 10 7a bf
       -0.013117918295560813 -0.006363426050444634
000210 7a 7b dd 27 b4 3a 7f bf ac 56 1a 19 09 f1 96 bf
       -0.007624343617719792 -0.022403852612646588
000220 b2 f7 58 c0 38 46 7d 3f 5a 05 b9 83 88 a7 86 3f
       0.0071470467424300955 0.0110617318342771
000230 22 ba 22 c0 19 ec 59 bf c4 12 f0 36 b9 fd 91 3f
       -0.0015821696729677666 0.017569440820824025
000240 16 ad a8 7f 35 cf a1 bf 62 80 be dc 17 15 62 3f
       -0.03478400405250619 0.002207323652285751
000250 d0 1d 40 b1 08 86 82 3f 3c e8 64 9e ad 2e 95 bf
       0.009044711980108838 -0.020685875694859343
000260 37 e2 5f d1 32 1d 74 bf ad 30 7f ea 98 13 72 bf
       -0.004910658366491342 -0.004413220718515171
000270 22 32 33 3b de 36 9c bf 88 25 43 63 6c ed 85 bf
       -0.027553055156021362 -0.01070675542759393
000280 06 bb 3b 33 e6 81 86 bf 47 5e 76 b3 8f bd 82 3f
       -0.010989950598256037 0.009150622047669489
000290 1d ca f1 6b dd 6d 5d bf 84 b0 7c ba 00 70 5b bf
       -0.0017962133713608282 -0.0016746527780453777
0002a0 e6 6c 82 97 f0 e3 a5 bf db a8 fb 8e e8 a0 ab bf
       -0.04275466775399099 -0.05396200890921118
0002b0 48 95 d6 1b f8 64 a0 bf a9 fd 21 f7 51 f9 aa bf
       -0.03202033366987195 -0.0526834119964364
0002c0 40 cd 65 c3 ed 55 a0 bf 79 9c a3 2d 54 bc 97 bf
       -0.03190558443284397 -0.02317935494002341
0002d0 76 43 48 36 59 8f aa bf 1c 39 52 0e ad a8 9c bf
       -0.05187491214395028 -0.027987197875114153
0002e0 db 10 be 42 5e f9 8a bf 0e 91 bc 4f 72 07 af bf
       -0.013170944606607218 -0.06060368750903154
0002f0 c0 7f ac 75 6c 37 b6 bf df 0d ce 4e 99 d4 c7 bf
       -0.0867831980981455 -0.18617550228019206
000300 de 0e 4b 03 1c 5f a6 bf 66 8d be b8 93 b1 a6 bf
       -0.04369437732887403 -0.04432355528049463
000310 3b 8b f4 c8 17 6d a4 bf 31 b4 1d a6 e5 0c a4 bf
       -0.03989481285159121 -0.03916089680465296
000320 91 6a b3 d9 38 5c a4 bf ed 76 8f 08 f1 19 a0 bf
       -0.03976609857064262 -0.031447918219539385
000330 9b 79 e5 4b b5 bf a3 bf 12 d0 bb 86 89 33 9f bf
       -0.03857199241132322 -0.030470036362160675
000340 12 bd a9 20 79 1d 9d bf 5d a4 72 38 0c 13 9d bf
       -0.02843274366244681 -0.028392973847676795
000350 b6 3b 3e bd 38 ae 96 bf 79 2b 81 e7 0a c1 99 bf
       -0.02214897780464372 -0.02515046155921705
000360 c1 1e 20 13 54 47 a2 bf 06 fd 4d f8 46 42 a0 bf
       -0.035700442633296976 -0.03175565510809446
000370 9d 59 7f 8c 00 e3 9b bf 95 11 36 ec e2 6e 9e bf
       -0.027233131957325452 -0.02971987311095033
000380 e1 9c ce f6 2c 96 98 bf 69 83 98 c7 28 65 95 bf
       -0.024010374606999178 -0.020893704588277915
000390 64 72 4c 8a cc 9b 97 bf 41 74 a3 8e 32 c7 93 bf
       -0.023055263463094625 -0.01931456561657208
0003a0 d7 f5 2a fe cb 0c 87 bf bf 45 4f 72 a3 71 82 bf
       -0.011254876798711884 -0.009005810666994017
0003b0 99 29 75 e2 72 a7 7f bf 9e e6 5a a0 7b cd 78 bf
       -0.0077280509643266266 -0.006055338779043544
0003c0 c9 c3 ba 45 6d 25 9a bf 1a db 49 1a f5 54 90 bf
       -0.025533397084192253 -0.015949086884997056
0003d0 96 2b 63 45 43 a0 8d bf c3 a3 23 09 50 9a 95 bf
       -0.014465833239588648 -0.021096468503774234
0003e0 78 a5 d5 61 eb 8d 91 bf b6 9e 00 96 8e 41 8e bf
       -0.017142942282054346 -0.014773477509222626
0003f0 4c 02 06 cd 70 56 99 bf 5f 91 d1 9c 0c 62 92 bf
       -0.02474380732883423 -0.017952153274010892
000400 2f 39 f7 7f dc 12 91 bf 2a 0e 9b d4 8e e7 86 bf
       -0.01667351275482892 -0.011183849204264257
000410 a7 54 dc d0 4f 27 82 bf 99 92 3a 9f 73 38 88 bf
       -0.008864043771192277 -0.011826422974374128
000420 46 51 19 cb c3 7c 9c bf 00 bd 43 72 9b 9e 9d bf
       -0.027819690009281993 -0.028925350999029042
000430 7a fb 1f f9 9b 83 9c bf d4 bb c5 71 53 7c 9f bf
       -0.02784579952276143 -0.03074770337974171
000440 3d 63 a0 19 54 45 97 bf d8 ec d3 21 e9 83 93 bf
       -0.02272540480052786 -0.019057886781394057
000450 51 87 61 fb cf 1f 9b bf 99 2a 46 2f af 50 92 bf
       -0.026488542287899822 -0.017885911236172978
000460 80 bf 7b 86 3d 50 87 bf d2 1f d5 ca 03 41 91 bf
       -0.011383515040023218 -0.016849574332155566
000470 b1 42 25 ad e2 61 96 bf 5f 57 df e4 2f 19 a9 bf
       -0.021857778375592832 -0.04902028721669071
000480 dc 20 b6 49 2b be 99 bf a1 23 d4 7e 4e e8 a0 bf
       -0.025139500020970526 -0.03302235887719652
000490 70 7e 5f 1f af d8 97 bf a8 f7 44 d1 08 7b 9b bf
       -0.02328752163873421 -0.02683652665404393
0004a0 8a 12 00 23 69 ff 9f bf d8 7c ff 91 ca 0d 03 3f
       -0.031247751961944327 3.634237714300056e-05
0004b0 82 5b da 4c 43 4e a0 bf c8 65 4a 49 24 4f 91 bf
       -0.03184709847589941 -0.016903464291862652
0004c0 1c 48 cd a0 f1 6d 99 bf 3f e8 7d dc b4 0b 99 bf
       -0.024833465041702238 -0.024458719213250154
0004d0 a6 35 52 95 47 e9 6a 3f b5 4c e8 8e ea 5e 76 bf
       0.0032850645171211444 -0.005461612933248696
0004e0 e8 d5 3e 43 e4 80 a3 bf 3e e6 21 83 53 fa a1 bf
       -0.038092740257905267 -0.03511296249139349
0004f0 76 d4 22 f9 66 40 89 bf 8c 7a 12 d6 a7 f4 a2 bf
       -0.012329868772534374 -0.037022824174745755
000500 6e e7 37 d1 ed d8 8d bf 98 fb 82 fd 34 8b 87 bf
       -0.014573915431345088 -0.011495985018312102
000510 38 e8 19 10 8e 8f 9f bf 18 26 af 82 ae 69 a4 bf
       -0.03082105611108707 -0.039868787243517
000520 13 36 b3 fa 03 36 7f bf 5b 24 c2 48 10 06 73 3f
       -0.007619872612122619 0.004644454584316805
000530 02 5e f8 98 d7 fd 77 3f 82 01 3e 39 47 b8 94 3f
       0.005857317140474107 0.020234215611254942
000540 64 5b 8b 84 59 94 b1 bf 5d dd 4f d5 c2 86 92 bf
       -0.06866988645502442 -0.01809219767525626
000550 e3 60 4e c9 21 1f 83 bf da 30 ad b9 57 62 a4 bf
       -0.009336723285557407 -0.03981279508170284
000560 32 e5 65 9e 09 a2 91 bf e7 32 5b 9e 0f a6 83 bf
       -0.017219686787460727 -0.009594079990529148
000570 70 01 82 5e bb 48 ac bf 69 7a 27 97 4a 0f 93 bf
       -0.05524240044269646 -0.018613019443245813
000580 c7 4e c9 e4 41 49 77 bf 64 bc 2e c8 1b e4 9a 3f
       -0.005685098073246748 0.02626078996007343
000590 db b3 4e f5 46 f6 99 3f 71 46 7d d6 79 d3 96 3f
       0.025353535387399134 0.02229109164847504
0005a0 fd e5 d1 ad 74 7b b0 bf bf a6 0f ff 1f 96 af bf
       -0.06438378566408427 -0.061692237744705995
0005b0 26 3d 63 06 5c bf 9c bf 0d d4 60 4f 0f 77 a6 bf
       -0.02807372845637448 -0.04387710422489741
0005c0 31 6a 0b fc 1b 48 80 3f 4c f5 34 9c 64 8b a0 3f
       0.007950037602701606 0.03231348425695532
0005d0 07 5f bd ff 29 5e 96 bf 13 65 75 4a 59 3a a3 3f
       -0.021843582376589257 0.037554540957623804
0005e0 81 8b a7 02 e1 ca ad 3f 33 43 1b 90 c3 08 8f bf
       0.05818846852687099 -0.015153434596329873
0005f0 8b ed a1 1a 76 45 b1 bf 9e 7a ec 12 c3 29 d1 bf
       -0.0674661459942653 -0.26817395065328664
000600 5e f7 b1 43 ba b3 a4 bf d0 85 d9 66 dc 79 a5 bf
       -0.04043371273381412 -0.04194535022248724
000610 0e 59 aa d4 09 67 a2 bf c2 98 e8 16 e7 67 a2 bf
       -0.03594237061513371 -0.035948964640100126
000620 42 35 0a 8e f9 17 a3 bf f1 7f f2 85 bf d6 97 bf
       -0.037292288388111064 -0.02328013663338874
000630 55 74 59 8a de 21 a2 bf ad f8 65 04 cf 4d 9a bf
       -0.03541465224109489 -0.025687441485836505
000640 fc 06 a0 86 61 1e 99 bf 47 55 36 1b c7 c8 9a bf
       -0.024529956666817107 -0.02615653136816334
000650 ac 2d 54 2f bf 5f 92 bf 65 32 8d 9f 4a b5 95 bf
       -0.017943370116922416 -0.021199384678129003
000660 0b a5 63 37 87 1b a2 bf 19 ab 45 a0 f7 d9 9f bf
       -0.03536627341402195 -0.031104916722522
000670 b0 21 65 df 4c 7e 98 bf 19 d7 09 62 46 23 9e bf
       -0.023919297347022528 -0.029431438192168622
000680 5c 8e fc 33 dd d7 96 bf 0a 38 97 18 69 e8 92 bf
       -0.02230783109474853 -0.018464700818917414
000690 47 64 ba 84 e0 96 95 bf 79 60 8a e9 c1 68 93 bf
       -0.02108336267574298 -0.018954305533583658
0006a0 f2 02 4c 4e 09 1e 7b bf 34 2c f0 e5 22 49 6b bf
       -0.006620441771475015 -0.0033307725530043134
0006b0 9f 8d 14 d2 6a 48 6d bf ae 88 bc 11 03 a5 14 bf
       -0.0035745703068116997 -7.875281556527183e-05
0006c0 14 a5 f4 f8 06 16 9c bf 5e 99 2f 33 cb 17 8a bf
       -0.027427777237936615 -0.012740695476122606
0006d0 1f 5f fe 25 b7 bc 85 bf 12 b3 5a 0e 56 c8 95 bf
       -0.010613852354978413 -0.0212720342885176
0006e0 f8 d6 c5 fe bb 34 8f bf e7 a7 99 1e d5 bc 8b bf
       -0.015237301552342583 -0.013543763157219458
0006f0 ad fe 89 72 7b 08 9c bf 13 95 0b c9 97 af 92 bf
       -0.02737610708800158 -0.018247958799198005
000700 47 58 ce 06 3c 4b 91 bf 68 f4 20 62 2f e0 81 bf
       -0.016888559260756855 -0.008728380376959957
000710 63 b9 1c 4a 6b 57 7c bf af 5c 27 fc 9e 2a 85 bf
       -0.006919306850063786 -0.01033519942295266
000720 3e 01 4a 29 03 8e a0 bf 0d 8b 99 82 82 87 a1 bf
       -0.03233346823708637 -0.034236982767444336
000730 dd 59 ca 2d f5 2d 9f bf da 8d fb f6 40 25 a2 bf
       -0.030448752326799656 -0.035440473698851796
000740 50 b6 69 25 c5 22 99 bf 93 1b c2 5f a4 54 94 bf
       -0.024546699913506054 -0.01985413393461106
000750 f4 3f 19 84 9f d5 9f bf fc ce a2 47 8b 22 94 bf
       -0.03108834499136033 -0.019663025138199494
000760 a6 53 62 9b 9f 0e 87 bf b5 7b 61 7c c3 5d 96 bf
       -0.011258360795446464 -0.021842054812051
000770 aa bb eb 2d f1 ae 9e bf 71 ac 57 57 ed d1 b1 bf
       -0.0299642261770107 -0.06960948355087894
000780 71 7e 07 24 9a 1e a6 bf 94 11 ca 2e 82 e9 a6 bf
       -0.04320222558794463 -0.044750278674686644
000790 e3 a4 96 9a 4e ad a3 bf 6b 8d 47 8a 8c bb a3 bf
       -0.03843160283151705 -0.03854026020033071
0007a0 83 e9 9b 7f 80 26 a4 bf 7a 98 56 4e 5f 0d 98 bf
       -0.03935624654509964 -0.023488511234653654
0007b0 89 02 74 3e c9 f1 a2 bf b8 b8 0c c1 56 b7 9a bf
       -0.037000931619336326 -0.02609000733644315
0007c0 56 9d cd ad 87 f0 98 bf cc 1e 3f 9f f0 31 9b bf
       -0.024355049117187853 -0.02655769321407213
0007d0 39 41 79 e1 81 e7 8f bf 64 b1 cc 07 5e 81 94 bf
       -0.015578283971223615 -0.020024747110413257
0007e0 c4 88 37 cf 96 82 a3 bf 69 0c 0e 64 ba 00 a1 bf
       -0.03810569076064632 -0.0332086798798848
0007f0 80 80 0e fd 8c 5c 97 bf d3 2e ac 4b 41 e2 9f bf
       -0.022813990540840212 -0.03113653206223328

gru.weight_hh_l0 f8 [48, 16]
000000 eb 93 de ef f5 c7 af 3f 0f a5 5c c8 ce 7e b5 bf
       0.06207245400518232 -0.08396618262908738
000010 48 f3 51 03 94 cf b2 bf f2 a9 03 0e 47 ec be bf
       -0.07347989159638957 -0.12079280941149032
000020 25 6d e0 02 bd 5e af bf 33 2c 94 a3 78 88 b0 3f
       -0.061269671059756704 0.0645823859560302
000030 0d d9 44 18 1c b3 b0 3f c2 1b d1 32 cb e1 b0 bf
       0.06523299782279342 -0.0659453391136671
000040 76 af 05 c8 4b 9f b0 3f e1 67 ee da 13 37 ac bf
       0.06493066438059522 -0.05510770843029867
000050 0a 2c 44 55 b9 a8 c5 3f 40 f4 a9 8b 27 b0 ad bf
       0.1692115465487805 -0.05798457698708903
000060 49 1c 86 5c 3c 58 af 3f 7e 6b 8b 61 c8 eb ae 3f
       0.06122006062928926 0.06039262953500833
000070 a3 e8 aa 0f 57 8c bf bf 52 ec 81 2b 8e 6d b0 bf
       -0.1232351697207457 -0.06417168199725268
000080 bf 2e e9 53 bb 3f c4 3f 56 42 38 a0 9b 88 c5 bf
       0.15819493863306452 -0.1682314426730211
000090 de 37 0f 70 94 4f c7 bf ac 6d 82 56 a5 00 d0 bf
       -0.1821160838284745 -0.25003941963378895
0000a0 da 47 26 08 c8 21 c4 bf 6b 6d 81 3a f2 56 c4 3f
       -0.1572809257309576 0.15890338761060305
0000b0 65 c9 ed 48 27 60 c4 3f 3f 08 b5 50 a9 82 c4 bf
       0.15918437062243665 -0.16023746910838274
0000c0 54 22 60 e6 8f d7 c3 3f de e3 c8 76 cf 7d c5 bf
       0.15501593350224374 -0.1679019289020109
0000d0 cf 92 88 68 0e ed ce 3f b9 54 fa 0a 50 0f c4 bf
       0.2416093836228783 -0.15671730552700128
0000e0 b7 99 38 e4 c3 a5 c3 3f df 5a 55 8d 5f 1a c4 3f
       0.15349625247581652 0.1570548477272586
0000f0 1a 9f 1b eb 01 e0 cb bf 72 18 63 e9 96 1d c4 bf
       -0.21777366618993527 -0.1571529998383912
000100 0a d8 2c db 47 b3 a3 3f 03 f5 6e 88 0d 5e ad bf
       0.0384771781013314 -0.057358191399069745
000110 db 6d 6a 12 78 fa a6 bf 7f 61 64 21 35 cc b4 bf
       -0.04487967705537318 -0.08124095978963018
000120 77 0a 57 c7 ac a0 a3 bf f7 f4 71 ff a3 f6 a4 3f
       -0.038335227330681336 0.040944218570965356
000130 8a a3 69 f7 60 fe a4 3f 74 21 bc 36 91 61 a5 bf
       0.041003256036510186 -0.04176000397825677
000140 06 92 ef 4d ae 19 a5 3f 57 ef fd a1 3e 25 9e bf
       0.041211554540300496 -0.029438952099993667
000150 52 3c 6d e3 72 33 c2 3f d1 ae 03 f0 01 b7 a1 bf
       0.14219509224719445 -0.034599361942893155
000160 c1 ee 6e ab f1 8c a3 3f 22 8e 6e 28 5d ea a2 3f
       0.03818469255153679 0.036944304643182116
000170 f7 87 c7 a0 6d 2a b6 bf cb fb da 5f c1 e9 a4 bf
       -0.08658490348128099 -0.040845911933039845
000180 ca 0e b8 07 6b c0 b6 3f 8d 7a 78 11 81 67 b8 bf
       0.08887356699420504 -0.09532934834030922
000190 59 e6 20 bc dc f3 bb bf 78 4b 39 6d 41 82 c9 bf
       -0.10918979256612128 -0.19928758462136975
0001a0 85 22 7c 3d 7e cc b6 bf 65 75 c1 23 d0 de b6 3f
       -0.08905781746956094 0.08933735726301036
0001b0 ae 4f a9 67 95 07 b7 3f 82 66 5a e2 6d 19 b7 bf
       0.08995946675105301 -0.09023176933478719
0001c0 46 05 38 23 f0 ae b5 3f 9f a3 f1 a3 3d 4f b9 bf
       0.08470059261164406 -0.09886536839043324
0001d0 62 fd e6 27 f3 c4 c0 3f 36 65 10 5a f1 fa b6 bf
       0.131010431750819 -0.08976658295468529
0001e0 f0 d3 8e bd 57 80 b5 3f 09 4b 60 db 8f b6 b6 3f
       0.08398960473898831 0.08872317415106691
0001f0 bc b3 49 61 43 18 c2 bf 81 0c 53 a0 98 d8 b6 bf
       -0.1413654542006081 -0.08924249567194133
000200 c5 3d 5c d9 58 26 af 3f f5 21 bf 30 0d ff b4 bf
       0.060839439900628935 -0.0820167774210246
000210 56 0f da a2 f2 6e b2 bf bc b0 13 04 7e 98 be bf
       -0.07200542903779925 -0.11951434707197256
000220 cc af 2a fc 91 ed ae bf 05 b8 f5 93 53 1b b0 3f
       -0.06040626719672523 0.06291696893978845
000230 90 21 d5 b2 df 6e b0 3f a5 b7 50 d0 0d a8 b0 bf
       0.06419180027035609 -0.06506429992506797
000240 76 f7 6c e9 db 67 b0 3f f4 58 bd 66 87 d8 ab bf
       0.06408476303928787 -0.05438635949274043
000250 66 39 c7 75 30 f4 c5 3f 81 08 09 46 4a 20 ad bf
       0.17151456595315578 -0.05688697915003705
000260 0a f5 4c 41 17 9f ae 3f 1e 80 c3 68 ff 2a ae 3f
       0.05980751678587566 0.05892179635861815
000270 64 16 a0 09 3b 63 bf bf 66 84 b0 99 b5 2c b0 bf
       -0.12260788903230374 -0.06318221094308427
000280 28 6e 98 fc 91 13 b3 3f cf 9c 7f a2 86 2c b8 bf
       0.07451736847763668 -0.0944294115757771
000290 0b d4 99 37 e5 ae b6 bf a5 99 aa fc fe d1 c2 bf
       -0.08860619170611998 -0.1470335706446352
0002a0 a6 2f 93 85 9b 08 b3 bf f4 72 2f 10 dd 72 b3 3f
       -0.0743500901327808 0.0759714283480653
0002b0 af a1 33 a4 69 9f b3 3f 93 b7 a2 fb b2 24 b4 bf
       0.07665119417982312 -0.0786849846215019
0002c0 83 9b 9c 41 47 9c b3 3f 78 13 9b a6 b8 33 b2 bf
       0.07660336829995455 -0.07110170428775386
0002d0 39 c4 3f 6d 0a 30 c6 3f 8c d8 c0 67 4f 57 b2 bf
       0.1733410867159664 -0.07164474757232336
0002e0 bf c0 41 a8 b5 b0 b2 3f 83 df fc 01 be 86 b2 3f
       0.0730088744910544 0.0723685030796997
0002f0 1a bd e6 7f 46 a3 c1 bf 43 13 57 48 3f 73 b3 bf
       -0.13779526944333825 -0.07597728267780916
000300 bd 9a 92 53 e4 d7 b1 3f e4 6a 36 7c a6 6b b7 bf
       0.06970049896572568 -0.0914863637212125
000310 3f 86 b1 85 30 f4 b4 bf 62 e4 83 aa 69 95 c0 bf
       -0.08185103668213232 -0.12955971551835704
000320 8f 6b 0c e1 5b fd b1 bf f9 57 71 8b 30 95 b2 3f
       -0.07027220005367794 0.07258895305980663
000330 c9 e7 e0 49 44 98 b2 3f 14 74 c5 21 38 0e b3 bf
       0.07263590625453199 -0.07443571876997651
000340 35 70 55 76 c6 b3 b2 3f b8 16 45 57 79 8d b0 bf
       0.07305565251357467 -0.06465872173893217
000350 f1 da a6 12 5d 69 c7 3f f2 0c 16 df aa ef b0 bf
       0.1829029408524643 -0.06615703531683773
000360 4f 15 fd b4 4f b5 b1 3f fc ad 7c 08 04 96 b1 3f
       0.06917284172694348 0.06869530875399471
000370 74 3f 07 cf c6 35 c1 bf f3 dd 3f db 80 65 b2 bf
       -0.13445363148502631 -0.0718613181378414
000380 51 b7 9d bd c9 b3 b2 3f 32 69 de 96 22 24 b8 bf
       0.07305584792422094 -0.09430137809105046
000390 e0 28 dc 48 8e d9 b5 bf 71 fd de 6c ad e0 c0 bf
       -0.085350888050161 -0.13185661140412777
0003a0 ba c2 b0 73 df 9d b2 bf af 9f c1 52 46 57 b3 3f
       -0.07272144865488431 0.07555045624178434
0003b0 e8 0c 4e c9 42 70 b3 3f 85 67 7d bb 5e c0 b3 bf
       0.07593171515150099 -0.07715408398999386
0003c0 77 60 f2 e5 e7 60 b3 3f 22 29 44 c7 da 52 b1 bf
       0.07569741596160094 -0.0676705109109759
0003d0 a7 de 45 8c 95 a5 c7 3f df 30 af ec db ba b1 bf
       0.1847407278944406 -0.06925749329019791
0003e0 df 11 67 a7 af 50 b2 3f e7 e1 39 4c 9b 4d b2 3f
       0.07154367291429463 0.07149668322552537
0003f0 18 15 63 05 26 9a c1 bf 36 f6 c4 9c 0f 23 b3 bf
       -0.1375167394927892 -0.07475373818757522
000400 96 b1 fc fd 8e ed b5 3f 90 a6 70 16 17 55 bb bf
       0.08565610600334703 -0.10676712320187165
000410 ee c9 37 dc 3d d5 b9 bf e6 b7 0f 25 51 56 c4 bf
       -0.10091005922712501 -0.15888418492926276
000420 69 46 32 d3 02 a4 b5 bf 9a c9 cd 84 95 6f b6 3f
       -0.08453385978853024 0.08764013759881664
000430 0f ea 66 8e 63 e0 b6 3f 38 70 36 36 34 13 b7 bf
       0.08936140276538417 -0.09013677905608197
000440 6a a0 29 a9 c0 66 b6 3f 31 fb ce 4e c2 73 b5 bf
       0.08750537996240984 -0.08379759239231245
000450 12 b0 24 e3 74 67 c8 3f a0 1a e3 ed 3e 7c b5 bf
       0.19065724459630978 -0.08392709071913851
000460 ff 36 e5 ea c0 78 b5 3f c7 dc 9d cc f2 a7 b5 3f
       0.08387380347013716 0.08459393973849948
000470 86 b0 bc a3 19 80 c3 bf c5 e5 cf 3f 35 68 b6 bf
       -0.15234680647825288 -0.08752758796608535
000480 96 c7 3b 9e de 05 91 3f c7 c2 10 2f 44 66 a0 bf
       0.0166239532545159 -0.03203023027925194
000490 87 80 1b fa 6c 4a 95 bf 9c 2f 24 7d a0 39 a9 bf
       -0.02079172398123366 -0.049267783428233985
0004a0 4d f0 43 05 28 0f 91 bf 12 7f 5c cc 1d 3a 93 3f
       -0.0166593793119179 0.018776383970474937
0004b0 cc 82 3b 6f b4 30 93 3f a8 f1 3f 72 df ec 93 bf
       0.018740481652346472 -0.019458285663846248
0004c0 c7 89 a5 a7 b3 1e 94 3f 04 51 32 6e 1f 00 81 bf
       0.01964836798414085 -0.008301015425140175
0004d0 9b 9a fd 2b d3 9f bb 3f d3 f7 70 b7 a1 5a 8b bf
       0.10790748428335421 -0.013356460009273185
0004e0 a3 3c 3b 61 a2 57 91 3f 68 92 be ce 88 ce 8f 3f
       0.01693586080983479 0.015530651864375147
0004f0 c6 3c 9f 14 bb 54 aa bf c8 7a f2 32 1d 25 93 bf
       -0.05142769457563072 -0.018696266398019273
000500 79 7d c3 6d 23 2f c0 3f cc 1c 81 af 35 04 c3 bf
       0.12643854960968406 -0.14856597013042572
000510 83 58 6c bd ed 52 c1 bf a9 d6 ac 75 ce 1f c4 bf
       -0.1353432822149366 -0.1572206568322845
000520 d1 42 52 35 dd 2b c0 bf ff 0f 17 56 bc 91 c0 3f
       -0.12633862594204584 0.12944750026338167
000530 b9 e9 31 b3 0f 94 c0 3f f8 f1 44 11 4e b6 c0 bf
       0.12951847314600487 -0.13056350558498742
000540 9b 12 a9 a6 24 ad c0 3f b4 e3 c6 16 ee e0 bd bf
       0.13028391015736393 -0.11671340995861962
000550 1f 92 94 98 c2 8c d0 3f 71 ba f8 9d 1f 1a bf bf
       0.2585913171808744 -0.12149236304024115
000560 c4 a3 3e b8 71 27 c0 3f fe 08 fa ad 26 e8 bf 3f
       0.12620374199221207 0.12463609454610844
000570 ba 10 f5 69 1f ee c8 bf 9b c5 dc 45 89 82 c0 bf
       -0.1947669284219325 -0.12898364936112902
000580 d6 e7 ed fd 35 4a a5 3f 14 77 d1 df ab dc af bf
       0.041581809279662416 -0.062230464049873785
000590 0d ff 12 a1 11 56 a9 bf 37 3d d5 3f 44 2f b6 bf
       -0.04948477832067342 -0.08665873106405263
0005a0 6c 37 90 6b d5 51 a5 bf 52 ec 66 1e 1c d5 a6 3f
       -0.04163996637372133 0.04459464903944678
0005b0 78 35 e7 06 9d d0 a6 3f 10 54 35 24 04 02 a7 bf
       0.04456034383074842 -0.04493725721355457
0005c0 13 f8 c2 64 a5 1d a7 3f 4a 24 f0 fa 3f e6 a0 bf
       0.04514805655479406 -0.03300666750153221
0005d0 f8 82 5c dd 6b 62 c3 3f 24 3f e3 98 4a 17 a3 bf
       0.15144108112965404 -0.037287074244544166
0005e0 7e ca 40 a7 0f 41 a5 3f 0b dc 55 4f 1b 88 a4 3f
       0.04151200215018934 0.04010091155480929
0005f0 20 dc 2d 2c 3c 68 b8 bf 6e 02 86 24 e3 b5 a6 bf
       -0.09534050062744415 -0.044356439789230304
000600 63 b9 0d ff 35 55 b1 3f 10 8e bc cd b2 05 b7 bf
       0.06770646550078178 -0.08993070147385418
000610 6d 46 a8 85 70 aa b4 bf f8 10 8d 53 d2 04 c1 bf
       -0.08072570098036076 -0.1329596431697906
000620 0a 6a 9c f3 01 65 b1 bf e1 81 2c e3 aa d8 b1 3f
       -0.06794750402006158 0.06971233412014712
000630 22 d4 35 42 e0 43 b2 3f fb 7b a6 46 95 6b b2 bf
       0.07134820572339653 -0.07195408797132068
000640 9b 80 69 6d 64 23 b2 3f e3 b7 2e 3e ba b3 af bf
       0.07085254355615904 -0.06191808709205284
000650 76 13 71 7c f1 77 c6 3f f9 37 d5 7b 09 5a b0 bf
       0.17553537918334045 -0.06387385628951837
000660 6f 58 43 56 06 1d b1 3f f4 53 cf 65 e3 fe b0 3f
       0.06684913259536683 0.06638928638069769
000670 ae 84 a9 de e0 c2 c0 bf 0e 86 97 9b 58 f0 b1 bf
       -0.1309472167222671 -0.07007364081029996
000680 d5 09 a9 0d 3f f0 ac 3f 86 43 c9 7d 5e bc b3 bf
       0.056520433824079376 -0.07709303446723767
000690 b3 19 45 bc 32 26 b1 bf eb 75 4a a2 93 c1 bc bf
       -0.06698910805162121 -0.11232874595813029
0006a0 f2 71 50 c1 ab 71 ac bf a7 b2 c7 39 95 55 ae 3f
       -0.055554740283898854 0.059246695807677434
0006b0 f4 4e f0 3b 8d 67 ae 3f 4b bb 57 06 c7 14 af bf
       0.059383786741959016 -0.0607053942911678
0006c0 9f 12 19 a7 09 92 ae 3f e5 66 21 a2 2c 32 a9 bf
       0.059707929275224496 -0.049210924903219135
0006d0 ca 8f 06 ca a5 1b c5 3f 13 02 ee 52 d6 f3 aa bf
       0.16490623821766653 -0.05264158022237466
0006e0 ba b0 f9 1f 78 85 ac 3f 22 f5 0a 3f 62 ee ab 3f
       0.05570578947376377 0.054553098865179686
0006f0 c3 d2 4a e3 6d c3 bd bf 61 a9 3b a8 11 dc ad bf
       -0.11626326369407551 -0.05831961802126063
000700 db 9e ef 93 50 21 bb 3f 1b 11 d6 cd 12 39 c0 bf
       0.10597709285468275 -0.1267417435702861
000710 68 d7 1f 70 18 74 be bf 08 c9 9f 62 e0 de c3 bf
       -0.11895897614871631 -0.15523915115006326
000720 fc f4 2f d3 0e 00 bb bf 99 cc fb e1 4e e1 bb 3f
       -0.10546963363590928 0.10890667931725985
000730 00 97 9a c9 69 c9 bb 3f 88 d1 5a c2 6d f9 bb bf
       0.10854207202882193 -0.10927473063458681
000740 9a ed 91 69 e5 f6 bb 3f f0 f7 b9 d9 e6 8b b9 bf
       0.10923608615296701 -0.09979098144137288
000750 5c db ac 24 40 6b cd 3f 71 1a fc 33 95 05 ba bf
       0.2298355273321374 -0.10164768714103346
000760 f8 08 13 2c 90 f9 ba 3f e4 90 0d e5 f3 aa ba 3f
       0.10537053180727074 0.104171031399861
000770 ad bd 19 04 84 57 c6 bf 81 84 d8 5c bb ee bb bf
       -0.17454576683256331 -0.10911150948278882
000780 ac 76 30 06 7b d7 b2 3f bd 18 e3 d8 a3 18 b8 bf
       0.07360047246080609 -0.0941259769925606
000790 62 69 d1 ec 66 6f b6 bf 76 de f2 e0 a3 84 c2 bf
       -0.08763736039819528 -0.14467285617660125
0007a0 41 45 5a 42 3b d2 b2 bf fa b5 d2 d8 46 4d b3 3f
       -0.07352037782608979 0.0753978995660062
0007b0 b5 f5 80 a7 86 86 b3 3f 73 e1 49 42 21 d1 b3 bf
       0.07627145375678064 -0.07740981930135664
0007c0 88 c5 d0 04 25 35 b3 3f c5 00 22 d1 3d eb b1 bf
       0.07502967231336843 -0.06999575000554888
0007d0 15 5a 1c e0 5f c1 c6 3f 6e 0b 23 74 64 39 b2 bf
       0.17777632182033246 -0.07118823848126762
0007e0 c0 6f 1a 46 ee 75 b2 3f 1b ab 41 ee 8a 24 b2 3f
       0.07211198054795798 0.07087009732064724
0007f0 6c 3c 64 50 fc 96 c1 bf 0a f0 11 a7 87 4e b3 bf
       -0.13742021489494805 -0.07541702107295137

gru.bias_ih_l0 f8 [48]
000000 f2 ca 42 e7 4f c8 b6 bf 9e 24 95 41 a0 d1 bc bf
       -0.0889940204240636 -0.1125736389268632
000010 1b e8 ad 58 3f d3 b5 bf 96 8f 05 26 2d 99 a2 bf
       -0.08525463023207218 -0.03632489289409972
000020 04 48 26 4b d9 be b6 bf ea 74 ba 03 a3 38 b5 bf
       -0.08884962162690618 -0.0828954586126717
000030 01 44 32 e0 87 0d b9 bf 1c 88 6a bf 54 2d ba bf
       -0.09786271308463769 -0.10225419686551657
000040 11 d2 d7 48 f9 ac b7 bf 73 53 05 f0 b8 f6 b0 bf
       -0.09248312023539308 -0.0662646852482121
000050 63 5d c1 f9 ce a9 c9 bf 53 ef 42 f5 04 1f b6 bf
       -0.2004946441181615 -0.0864108179839012
000060 5c 79 ac 0f 1a 53 b6 bf 9e fa 0f 7b 2d 02 b7 bf
       -0.08720553286227556 -0.08987697843984185
000070 9f 80 b2 dc f6 c0 c1 bf 23 c6 85 0a 91 0f b5 bf
       -0.13870130325540672 -0.08226877695940309
000080 7d 86 ec 80 f2 43 d5 bf 4a d2 90 6d f9 35 de bf
       -0.3322721728346563 -0.47204433154846426
000090 ea fe 09 cd bb 03 d4 bf 0c 4b 32 ec c7 27 e6 bf
       -0.31272788070053414 -0.6923560727321685
0000a0 52 5c cc 3d 98 f7 d4 bf 09 53 fd 61 59 7e d6 bf
       -0.3276119807719101 -0.3514617402009184
0000b0 44 b1 7f 89 97 1c d6 bf f7 b7 77 f5 ba a7 d6 bf
       -0.34549511363617946 -0.35398744555902745
0000c0 b8 f9 6a 15 b4 b2 d7 bf d2 d9 91 db ce 26 d0 bf
       -0.3702821931036868 -0.2523686546550411
0000d0 93 bd 28 2b 88 3a e4 bf 75 d4 ee 0a e3 fd d2 bf
       -0.6321450083686834 -0.29674602573078995
0000e0 c1 ef cf 3e 37 68 d5 bf 8a c7 dd db f1 cc d4 bf
       -0.33448582777031893 -0.32500883551903625
0000f0 2a fc e3 b0 97 66 de bf a2 05 fe 70 b5 72 d6 bf
       -0.4750117518851221 -0.3507512668075724
000100 69 81 e5 a3 ec 6e b0 3f 80 86 7c 67 02 79 ac bf
       0.06419257165317095 -0.055610728390331765
000110 34 b3 77 50 c8 5e b4 bf ee 45 e0 ac ac 68 c8 bf
       -0.0795712658361481 -0.19069441262449466
000120 f0 b4 c7 9e eb b4 b0 bf 1f 62 fb 14 62 25 b2 3f
       -0.06526062609164618 0.07088292133574513
000130 0a 8c 8b a2 a1 1f b0 3f 58 67 ec c3 59 13 b0 bf
       0.06298265665422789 -0.06279526742255592
000140 07 e9 90 8e 1a da b1 3f bd 78 b9 c3 2b 3d b0 bf
       0.06973424893013568 -0.06343339470319882
000150 97 14 28 be 2a 3f 9f 3f 9c 6a 18 f5 65 23 b0 bf
       0.030514400345073325 -0.06304013475202414
000160 d2 9c 5f 5a b6 97 b0 3f 1d 53 22 fa c4 dd b0 3f
       0.06481494623550368 0.06588393313206749
000170 c6 ac ed dc ce 99 a2 bf d1 98 21 eb 24 fd b1 bf
       -0.03632971236114595 -0.07026892414578191

gru.bias_hh_l0 f8 [48]
000000 a7 84 4c ad 70 1f b7 bf fe f2 21 0b 91 5b bc bf
       -0.09032348853044657 -0.11077219507019362
000010 40 c2 7d ff dd c6 b5 bf 82 2d 8d 6f 96 c8 a1 bf
       -0.08506572234706145 -0.03473348724090909
000020 df d3 a0 e6 46 77 b6 bf 45 47 54 59 8f 06 b5 bf
       -0.08775752192089169 -0.08213134699715592
000030 e2 55 c5 12 5f 7e b9 bf d4 ab ee b3 d4 43 ba bf
       -0.09958452423355582 -0.10259751694563529
000040 dd 5b 8e fb ad c9 b7 bf 15 f0 75 26 6e cb b0 bf
       -0.09292113677507481 -0.06560409964544107
000050 11 35 39 f9 a4 ac c9 bf 70 5c c1 fc 98 d8 b5 bf
       -0.20058118981470632 -0.08533626719268894
000060 6f 86 f2 7b e3 c8 b5 bf 9a 49 75 d3 3f 0d b7 bf
       -0.0850965669256085 -0.09004591858437153
000070 d9 38 f3 be 01 fd c1 bf fc 22 4f 61 23 c2 b5 bf
       -0.1405336553929775 -0.08499356389723894
000080 6f 6e 52 ba 25 5a d5 bf 20 45 87 b2 ed 17 de bf
       -0.33362715907580925 -0.4702104800645248
000090 cb 8c 6d d4 53 03 d4 bf ca 9d 55 52 b4 41 e6 bf
       -0.3127030920497417 -0.6955205543608198
0000a0 67 5b f5 3d 0f 0b d5 bf 9c da ae 68 ec 9e d6 bf
       -0.3288000207007173 -0.35344991896583067
0000b0 8c 1d 79 57 de 13 d6 bf b2 f0 3b 4b 30 80 d6 bf
       -0.34496267835898986 -0.3515740141590512
0000c0 62 01 d6 16 b8 a1 d7 bf f9 be e4 39 5b fa cf bf
       -0.36924555044244844 -0.24982776953537902
0000d0 b4 18 54 6c a6 27 e4 bf b8 89 1f 61 d6 07 d3 bf
       -0.6298400989333204 -0.2973533581227019
0000e0 00 25 d3 89 77 66 d5 bf 03 59 ff cc e7 ae d4 bf
       -0.33437908610774514 -0.3231753827980272
0000f0 a9 fc d6 03 d6 8a de bf 8e 60 8a 4d 7c 89 d6 bf
       -0.47722387671451344 -0.35214145252531004
000100 de 2b 5d 0e 64 13 9a bf 92 ac 4f 68 c4 fa 92 3f
       -0.025464595200258226 0.018534726015712773
000110 e0 93 ca 1a 27 da 98 3f b4 c6 e4 19 95 ee be bf
       0.024269686708652816 -0.12082797891778335
000120 34 b5 14 09 75 09 9d 3f 2a 76 a4 9c fe d9 9a bf
       0.028356388739827668 -0.0262222083193732
000130 b9 61 89 45 91 a3 98 bf 54 48 e0 e6 35 c9 96 3f
       -0.024061460370235575 0.022251932350691853
000140 8e 70 42 8a a2 18 9b bf 4d 03 98 63 22 71 a2 3f
       -0.02646116227025224 0.03601939645523675
000150 d0 18 ef 28 da c7 85 bf 70 e6 18 6b 82 ea 9c 3f
       -0.010635094045835208 0.028238332544992806
000160 95 ff d5 13 52 9a 9a bf b5 50 c1 f4 2e e3 9d bf
       -0.025979311428727298 -0.029186948479335856
000170 f2 d3 59 72 35 f4 92 3f eb a8 9e d2 e6 2e 9b 3f
       0.01850970755045362 0.026546103100977197

gru.weight_ih_l1 f8 [48, 16]
000000 5e a9 2b 29 7a 2d a2 3f dd 4f 67 ad 07 40 ab bf
       0.035503213430120736 -0.05322288505308823
000010 b0 3f b6 d6 f6 44 a4 bf 85 ec 33 44 62 46 a3 3f
       -0.039588655195188394 0.037646361184635636
000020 73 e4 59 d3 5b 4c a2 bf a9 8b 1a 83 4d 34 a1 3f
       -0.03573882060022351 0.03360216355692753
000030 95 12 e0 85 9a 36 a4 3f 35 f6 22 e7 9b c8 a4 bf
       0.03947909244746942 -0.040593025174058196
000040 f8 ba bf 58 fe 10 a3 3f 69 9e cb 66 57 a6 99 bf
       0.03723902543412366 -0.02504860463059658
000050 30 f1 ad 62 fe f2 89 bf e4 2b c6 6e 93 89 a0 bf
       -0.01267050493856256 -0.03229962088797558
000060 02 b3 1b a5 55 be a1 3f 0c 59 bf a9 72 8c a1 3f
       0.034655262379464716 0.03427465746033151
000070 a7 97 05 fc 24 b1 b2 bf d8 ee a2 49 ec a2 a1 bf
       -0.07301551010968287 -0.03444612883455783
000080 49 75 7e f3 b5 85 8e 3f 56 41 e6 9d 07 0c 98 bf
       0.014903470509859533 -0.023483389866272596
000090 a3 ae d9 6b 8d 38 94 bf d5 ad 9c e2 b1 b0 79 3f
       -0.019746980388318246 0.006272024978709341
0000a0 b3 6b 59 29 76 9c 8e bf 7d 45 a6 76 cd 27 90 3f
       -0.014946864258652192 0.01577683483771385
0000b0 13 32 58 ac b3 f4 90 3f f0 e1 3d 1c d7 7e 91 bf
       0.016558463472437234 -0.0170854197490104
0000c0 c7 a0 e1 78 dd 16 91 3f 92 c4 02 40 39 8e 80 bf
       0.016688786032688776 -0.008083770051913217
0000d0 65 d6 ab 48 14 a9 73 3f 15 a0 1f 36 5e ad 88 bf
       0.004799918397784352 -0.0120494232432549
0000e0 ec a2 26 1b 61 74 8e 3f a0 36 76 cf ef e2 8c 3f
       0.014870413437920026 0.0141047225177105
0000f0 5d 3e 9e 2d 42 6c a0 bf 97 ee a5 64 95 34 90 bf
       -0.03207594687330293 -0.01582559038932504
000100 2b 7f f0 45 0b 6e a1 3f 21 94 1d b7 c7 20 aa bf
       0.03404269436600623 -0.05103134260460985
000110 5c ca f5 7d f5 77 a3 bf 0d a3 1d 09 62 dd a2 3f
       -0.03802458918189153 0.03684526788021545
000120 e4 bf 70 a8 b1 87 a1 bf fd be 67 6f 99 a4 a0 3f
       -0.03423838788182801 0.03250579342772928
000130 a8 d4 12 cd 3b 54 a3 3f 7e 09 05 84 2f e5 a3 bf
       0.037752026351350054 -0.03885792242592155
000140 84 86 19 38 54 52 a2 3f ee fd 9f 06 ec 15 98 bf
       0.03578437027750872 -0.023521125702243788
000150 07 0e bd 18 1b 11 86 bf e7 72 36 a3 00 66 9f bf
       -0.010774814312418902 -0.03066254612132271
000160 53 38 ff 89 d4 fd a0 3f 97 1c f1 f5 90 c3 a0 3f
       0.03318657097371216 0.03274205209941632
000170 15 b9 82 dc 87 f6 b1 bf 9d 1b aa c1 03 fe a0 bf
       -0.07016801007805314 -0.033187978163417876
000180 9d f0 e5 c5 43 0a 98 3f 08 2b 75 ba b6 3b a2 bf
       0.023476656869647717 -0.03561183000655005
000190 57 6f 82 70 10 7e 9c bf 19 f6 9a 83 74 24 95 3f
       -0.02782464682296334 0.02064687779669869
0001a0 b5 12 ba 78 48 1b 98 bf fd 49 c1 8a aa f3 97 3f
       -0.02354157673700526 0.02339045020955587
0001b0 d8 cc 64 e4 c2 7c 9a 3f 75 4e 15 4c bc 44 9b bf
       0.0258665515804751 -0.026629392760993704
0001c0 0b eb 19 ca 73 e0 99 3f 2e 14 ae 0e 38 ab 8d bf
       0.0252702800848779 -0.014486730525968463
0001d0 ec ee e6 59 53 75 8c 3f 9b e1 1a 02 03 c6 94 bf
       0.013895655804723593 -0.020286604884604747
0001e0 51 eb 74 20 26 b1 97 3f 26 ab fd 0a f9 09 97 3f
       0.02313670704937049 0.022498980804282052
0001f0 ac 30 8e d4 64 9c a9 bf 55 65 e2 b9 5b 4d 98 bf
       -0.05002131552382258 -0.023732598515015486
000200 a5 95 f1 91 7c 43 a2 3f 5b fa 72 1b a1 4d ab bf
       0.03567113191165142 -0.05332663974831028
000210 ba 22 f2 ab f4 34 a4 bf 85 92 ea 41 a8 f5 a3 3f
       -0.039466520299418176 0.03898359112398445
000220 d5 b2 1f 8d 37 5b a2 bf 70 5f c3 92 9f 51 a1 3f
       -0.03585218045905029 0.033825861611773145
000230 f3 31 a9 5b 37 45 a4 3f 5e ad 03 90 a3 e6 a4 bf
       0.03959057802112289 -0.04082213528621524
000240 ce b6 21 35 62 28 a3 3f 00 58 93 df 65 97 99 bf
       0.03741747759418744 -0.024991599818200427
000250 97 6f 9d 2b 66 9e 90 bf 80 b6 d1 e3 76 8c a0 bf
       -0.01622924462513672 -0.032321658430061184
000260 ea 3b ff 31 29 ce a1 3f 68 fb 5e ee 17 9c a1 3f
       0.03477600798907317 0.03439402375032935
000270 18 d9 e6 2c 57 99 b2 bf 64 a6 fc 75 c6 bd a1 bf
       -0.07265229078516133 -0.03465099516172357
000280 ce 63 dc f8 6e fb 99 3f 2f 37 bb 75 cc b8 a3 bf
       0.025373205127013958 -0.038519276973245524
000290 a1 f2 71 a7 44 7b 9e bf 30 b7 21 72 c6 45 99 3f
       -0.029767105789221152 0.024680233684583885
0002a0 96 00 f2 a2 9b 15 9a bf b5 f2 43 da 16 bc 99 3f
       -0.02547305280722919 0.025131566116203447
0002b0 d6 03 2a ef 21 b2 9c 3f 20 18 27 b4 86 8c 9d bf
       0.028023271772784707 -0.02885637735905544
0002c0 86 af 5b 8d 3a e8 9b 3f e7 f2 09 34 61 5d 90 bf
       0.027253069761101333 -0.0159812152873994
0002d0 a8 af dd ac 0f 3e 83 3f ca fc f4 13 5e 9b 96 bf
       0.009395716155004966 -0.022077054946973353
0002e0 52 05 fa 65 40 93 99 3f 82 d7 40 f4 df ea 98 3f
       0.024975782608185178 0.024333476336515066
0002f0 d7 f7 c2 23 7b ab ab bf 8b 32 90 78 6f 10 9a bf
       -0.05404267131369494 -0.025453321202848527
000300 3a 02 da 07 86 eb a0 3f 4d b8 c8 09 28 5d a9 bf
       0.03304690214008983 -0.04953885192331651
000310 3b dc c1 fa 1f 1c a3 bf 3f 0b ee ec 7f 2c a2 3f
       -0.03732395111085692 0.035495755836584035
000320 0b 29 4a cb 60 01 a1 bf 4a b5 c8 0c f1 34 a0 3f
       -0.03321363908351501 0.0316539123635758
000330 26 72 6d 19 86 be a2 3f 8d 2d 3f 3b 5f 4f a3 bf
       0.036609831432290726 -0.037714935285829566
000340 7f 9c 75 e7 d9 c7 a1 3f 82 9e e1 2f 7b 50 97 bf
       0.034727868561099655 -0.022767948911136766
000350 ff 78 bd 82 55 06 7a bf 54 c0 81 ef 1a 65 9e bf
       -0.006353696848093059 -0.02968256079515215
000360 35 1b 4e 72 1e 84 a0 3f d8 49 7e 42 da 4a a0 3f
       0.03225798745466194 0.0318210798424336
000370 b3 51 18 b1 64 a5 b1 bf 2c c4 44 01 fa 8a a0 bf
       -0.06892995189293209 -0.03231030717359604
000380 84 ab bc 27 c5 fc 99 3f d8 b8 b6 8f 98 ad a4 bf
       0.02537830405269005 -0.04038693193739257
000390 e5 23 f8 24 af 69 9f bf de 38 61 b6 40 b1 79 bf
       -0.030676590567995893 -0.006272557051558018
0003a0 e7 5e fc 1d d7 0e 9a bf 41 e7 64 91 62 30 9b 3f
       -0.02544723625678005 0.026551761745600592
0003b0 e7 3b a7 10 1c a9 9c 3f 9d 65 84 27 11 80 9d bf
       0.027988852039751235 -0.028808849369942647
0003c0 78 0c 55 26 75 f7 9c 3f 33 f9 3c 82 d1 05 90 bf
       0.028287725891698007 -0.015647195409877312
0003d0 75 ad 84 1d 80 a3 95 3f a3 63 39 37 c6 e6 95 bf
       0.02113151722111924 -0.021388146515480277
0003e0 58 40 ed 4e 18 fc 99 3f 08 64 28 84 c6 c2 98 3f
       0.025375728432948413 0.024180509392042665
0003f0 ab 2a 4f b4 51 08 aa bf 44 99 7d 8a 84 4a 9b bf
       -0.050844720135122166 -0.02665145011214888
000400 ca c7 c5 a7 02 66 a9 3f c7 68 5a 3d 42 84 b4 bf
       0.049606402378131145 -0.0801431083477012
000410 0e 35 8f 0d 3c 45 aa bf f3 aa 6c 24 69 2e a1 bf
       -0.05130946794052181 -0.033557210632656174
000420 67 91 7f fc e4 71 a9 bf 31 b8 36 ae 65 27 aa 3f
       -0.049697070906207945 0.05108182670242945
000430 b7 6c 71 04 0b dd ab 3f 17 4b 92 4a 58 96 ac bf
       0.05442079953419337 -0.05583454046531793
000440 39 60 c3 90 86 5a ac 3f c9 05 0d ca 9a 37 a1 bf
       0.05537815587166545 -0.033627354778683456
000450 5a 22 b5 73 ba 8d b2 3f 72 d6 ea 40 82 60 a6 bf
       0.07247510266200533 -0.04370505373428281
000460 8e 8a 97 90 e0 87 a9 3f 3c f9 dc 7d 29 4f a8 3f
       0.04986478581465291 0.04747895871558902
000470 73 10 aa 70 17 6f b5 bf 3d bf d6 17 55 43 aa bf
       -0.08372637272447196 -0.05129495540620475
000480 91 1c 2d 61 ca ef 9f 3f d5 80 d2 e6 c7 13 a8 bf
       0.03118816583744583 -0.04702591602949872
000490 96 dd 5a ab df 27 a2 bf 2b 0c 3d 77 84 dc a1 3f
       -0.035460462252952116 0.034885539584614676
0004a0 9e 27 e1 20 3d 0c a0 bf 16 b2 da b7 6f e5 9e 3f
       -0.031343374503719476 0.030172105404448223
0004b0 6f 27 12 28 7a ae a1 3f b6 1c 75 01 31 31 a2 bf
       0.03453428019663717 -0.03553155081550001
0004c0 2e aa 0e e9 fa eb a0 3f 02 5f 7c 10 c1 66 95 bf
       0.03305038542687942 -0.020899788504805457
0004d0 32 45 32 eb ae 7c 74 bf 6d b6 9a 34 57 6f 9c bf
       -0.005001719738303921 -0.02776848085948418
0004e0 02 c0 b9 b1 82 3e 9f 3f b0 26 ad c6 86 b6 9e 3f
       0.0305118962264146 0.029993158222430594
0004f0 cd b8 f4 c3 bb 95 b0 bf 3e 38 dd e2 3f 6e 9f bf
       -0.06478475126343426 -0.030694006177604864
000500 63 3f 4e ef 6b c8 9f 3f f5 28 d1 fa 87 e3 a7 bf
       0.031037985306795145 -0.046657800071061496
000510 57 dd 12 80 a0 20 a2 bf 08 94 ea da 50 e3 a1 3f
       -0.035405173906321856 0.03493740722959876
000520 b3 86 80 c7 c0 f7 9f bf ca aa 23 80 10 bd 9e 3f
       -0.031218540360106583 0.030018098660472593
000530 cf f4 ea 36 52 9b a1 3f b5 55 98 e1 55 21 a2 bf
       0.03438813133605267 -0.03541057947965546
000540 5b 01 7d 38 8b da a0 3f a5 4f 3e a5 e6 65 95 bf
       0.03291735710672824 -0.020896533809334667
000550 44 6e 46 b8 23 c6 69 bf 49 4a 5a 37 cd 57 9c bf
       -0.0031462381031824044 -0.027678686622105073
000560 95 55 b4 77 d7 22 9f 3f ca d3 e9 b7 2d 97 9e 3f
       0.03040634792440285 0.029873575544531218
000570 77 c0 40 70 c4 95 b0 bf 41 a5 f8 dc cd 56 9f bf
       -0.064785268216612 -0.030604569065109336
000580 57 46 4c 87 42 ab 9a 3f 26 46 58 c2 29 28 a4 bf
       0.026043929584437766 -0.039368920301182705
000590 d4 22 26 d2 b1 34 9f bf c9 97 f2 12 4d e6 9a 3f
       -0.030474451495623736 0.026269153863402814
0005a0 86 74 29 34 97 be 9a bf 08 aa 3b 59 67 53 9a 3f
       -0.026117670592033203 0.025708784886697728
0005b0 39 c0 c4 d6 93 6c 9d 3f 0b 3d 92 be 71 47 9e bf
       0.0287345027765584 -0.029569413429780627
0005c0 4a 83 46 d0 8e 94 9c 3f 23 b9 3d fb 39 f5 90 bf
       0.027910453283428262 -0.016560464820423292
0005d0 cd ac 37 1b 75 c0 81 3f f9 64 d3 29 d6 4c 97 bf
       0.008667864697562777 -0.022754045775262608
0005e0 ad 74 d6 26 ea 36 9a 3f 0c 99 09 e2 d6 95 99 3f
       0.02560010778471582 0.02498565439818727
0005f0 2e 03 ec f9 11 3d ac bf da b4 d1 24 08 b1 9a bf
       -0.055153428800628 -0.026065947768462695
000600 4e 9b 30 52 a5 da 98 3f 3c 7e 92 19 48 d1 a3 bf
       0.024271567479583304 -0.03870606720124356
000610 2f b1 e0 bf 0f 3f 9e bf 4e f0 f1 0e 06 cf 46 bf
       -0.02953743561390459 -0.000696065862839665
000620 6b 34 9e f4 56 f0 98 bf 82 61 03 70 5a 10 9a 3f
       -0.02435432308225353 0.025453007780784194
000630 49 95 3c b6 3c 78 9b 3f 55 cf c4 91 fc 47 9c bf
       0.02682585584911593 -0.027618357083340445
000640 b8 fc e8 96 45 ca 9b 3f 00 95 58 29 d4 e7 8d bf
       0.027138793311902915 -0.014602334510593895
000650 e5 a4 60 02 92 00 8f 3f 3e a4 61 61 9a d1 94 bf
       0.015137806603961976 -0.02033082217568371
000660 79 1f 25 6d 76 df 98 3f 4f a3 04 55 34 a8 97 3f
       0.024289942180331068 0.0231025864497128
000670 3b ac 08 63 51 f7 a8 bf be 7a 7c 13 89 2f 9a bf
       -0.048761885966392936 -0.025571958364816842
000680 03 02 5e b9 98 7e a0 3f e4 1a 3d 7b dd b9 a8 bf
       0.03221585524352479 -0.04829303864840087
000690 5f 56 a6 b6 6b 98 a2 bf 68 17 ca 4c 89 dc a2 3f
       -0.03631912808047554 0.036838808654507116
0006a0 7c 07 6b 3a c0 90 a0 bf 3d d2 77 02 88 cb 9f 3f
       -0.032354361659158365 0.031049847746503757
0006b0 ba 95 7d 46 b4 43 a2 3f 0c ac fa 23 57 cf a2 bf
       0.03567279205780545 -0.0367381316585452
0006c0 24 c7 82 ac e6 6e a1 3f cb b4 da 20 8c 3e 96 bf
       0.034049233015492925 -0.021722974305409076
0006d0 ae 18 3d 31 ac 50 7c bf b3 90 8c b1 b2 79 9d bf
       -0.00691287291176061 -0.028784553610549945
0006e0 52 1d 40 a5 e8 1d a0 3f 2a 1c 5a d2 ef b2 9f 3f
       0.03147818581788421 0.030956027234904017
0006f0 55 a9 5e 58 d3 09 b1 bf 67 bd d3 3e 1b 2e a0 bf
       -0.06655617625680084 -0.03160176412518006
000700 7b 7c 2d 06 91 1b 8d 3f 82 7b 41 6d d1 36 96 bf
       0.014212735177066662 -0.02169348935455729
000710 08 4c 23 09 c5 fd 92 bf 09 64 82 f2 76 79 8f 3f
       -0.01854617946885287 0.015368394161031433
000720 03 f3 13 8c ec 32 8d bf 7b 26 f1 f4 9b 3f 8e 3f
       -0.014257286095465732 0.014769762432609959
000730 9f bd e3 2e 29 1f 90 3f f5 cd 47 f3 a3 9f 90 bf
       0.015743869292177966 -0.01623397991529703
000740 f8 6e 2f f7 8f 0e 90 3f bf 47 77 a9 c6 71 7e bf
       0.01568055101584684 -0.007432724021286973
000750 13 4a 83 f2 20 e1 70 3f d5 e2 fc 7e 4f b6 87 bf
       0.004120949459507378 -0.011578198492871486
000760 c1 8f 74 7e 6e e7 8c 3f c7 31 d2 c5 ab a1 8b 3f
       0.0141132957783795 0.013491956686515828
000770 ef 55 34 db 17 d9 9f bf c5 55 45 70 bf 6c 8e bf
       -0.03110158229272558 -0.014855857480749255
000780 70 ee 2b c5 7b 3e 9c 3f f6 e1 a2 44 0a 44 a5 bf
       0.027582105550193636 -0.04153472984166122
000790 5e 19 3c ce 7e 4a a0 bf 5f 6e 35 1e 6d af 9e 3f
       -0.03181835429681955 0.029966073006433166
0007a0 3b c9 15 4e 66 54 9c bf 7b fa 46 53 ae 9f 9b 3f
       -0.0276657090339054 0.02697632201465659
0007b0 fa 49 08 d9 9b 30 9f 3f c5 7f c4 d8 a0 09 a0 bf
       0.03045886528168216 -0.03132345815743024
0007c0 03 07 29 d5 32 0b 9e 3f 2e 4d c0 54 f3 66 92 bf
       0.02933959413554189 -0.017970850036431667
0007d0 cd 2a f0 f0 65 a3 79 3f 8c de ed 9e 9f e2 98 bf
       0.006259344299005942 -0.02430200011755672
0007e0 f1 99 c7 f9 86 b1 9b 3f fc 57 a2 a8 8f 1b 9b 3f
       0.027044400210707257 0.02647232500802231
0007f0 39 d8 50 5b fc ee ad bf 7f 24 09 0d 14 0a 9c bf
       -0.05846394171423736 -0.027382195754658497
