dl_experiments/best_checkpoints/wiki_en_15min_GRU_cuda:0_checkpoint.pt (torch, 125502 bytes, 30 tensors)

gru.weight_ih_l0 f8 [48, 48]
00000000: fd0b c816 5cfd 88bf c38f e64d 9440 b6bf
00000010: 03ac 0200 fca0 afbf 015e 02d4 c033 b5bf
00000020: c4e6 0542 62bd acbf 1fe7 fc69 6639 aebf
00000030: 239c 4af6 5f94 abbf 9997 6f59 6881 87bf
00000040: 430d 3a4b a9dd 97bf 9408 bff8 43d0 b7bf
00000050: e005 b6ca def5 afbf d6de 1a6e b23d a8bf
00000060: d961 e1d4 47ca 6abf 0d6d d149 aabd a03f
00000070: 1d65 5d35 67a3 adbf ecde 0753 8037 abbf
00000080: 2bca 0217 1f97 a1bf 7307 d971 2370 86bf
00000090: 6238 e8c3 aa16 743f 6f7c d074 11db a1bf
000000a0: eb17 57eb a966 aebf a2c3 f522 d6aa 8fbf
000000b0: bfdd 8d69 cd9f a5bf bce5 915e 375f 83bf
000000c0: 6fbd 255a 5ceb 8bbf 0220 80a9 9526 abbf
000000d0: 1863 3487 1546 a3bf 9f7f 9d5a a6a4 acbf
000000e0: 37dd 1a8c 67c0 99bf 0377 e8f3 c6f1 a7bf
000000f0: aef4 55e4 f1ad 64bf 67a0 6a5c 9e9c a0bf
00000100: 1de7 4926 8dfc 8c3f 3af4 56fa 2f9d 213f
00000110: 3132 2f79 54d1 893f ed84 6f48 787d 7d3f
00000120: e51f 0355 b013 7d3f 891f 3f6e 5487 a2bf
00000130: 0edf e38e e9aa 91bf e08e 4536 8ebb a7bf
00000140: 0404 33fd 300f 7fbf 89ff 4132 b2b7 7f3f
00000150: 0334 4393 8727 53bf 8ee5 97c2 7b56 a23f
00000160: a593 4d72 ec0b 8c3f cdfd bba8 a7bf a2bf
00000170: 1ebe c6f2 ee3f a4bf 5079 d418 65c4 b6bf
00000180: 019d a95b f2ba bdbf c11a 12da dc89 b7bf
00000190: 3d62 7854 8e4a b4bf 4fdc 317a 31b4 a7bf
000001a0: de2d 6d09 d34b 9bbf 7e91 806f f9ea 95bf
000001b0: aee0 3cc6 e39b 8abf 40ec 7830 3ce3 653f
000001c0: 732e 2607 c67f 43bf 4f60 f50d 9e1f 813f
000001d0: 2db6 991a 4d41 713f d011 73af 3371 5c3f
000001e0: 6482 aba5 1c41 4fbf 12b0 4952 b2d7 723f
000001f0: 26c5 38b6 d028 7d3f 6d55 a345 2137 80bf
00000200: fa88 271e fa62 7dbf be64 0d5e 0110 97bf
00000210: 35a4 25db d84d acbf dc82 883b 2587 a4bf
00000220: 9de4 5cb6 6c76 a1bf 0c61 e035 17b1 a6bf
00000230: c3df 8bcf 7aa7 a1bf ff60 8b07 1e17 a4bf
00000240: 4774 c12c df7e a8bf 1f3a e325 34c8 a9bf
00000250: d595 4e72 7880 a4bf b514 0350 935a 91bf
00000260: 4e04 812f 0b88 88bf f862 1d40 8788 943f
00000270: c487 7f12 309d 64bf 0333 5acd 43aa 96bf
00000280: 0297 ffe0 ce4d a4bf 3c50 b103 97f2 a3bf
00000290: d2a4 ba94 dea6 9ebf 912c 4ce0 b83f 9abf
000002a0: 0a21 a701 e325 a5bf 1fdc a4be 0fc1 a4bf
000002b0: eaca 3f4e 3cb7 a5bf 0caf a82a 5b4c a7bf
000002c0: 018a 5354 ff4f a9bf 5ac0 c40d eb67 a1bf
000002d0: 7a4c 5ba2 6343 a8bf bdbd 1d88 dec3 a7bf
000002e0: 25fe 058a f35d 9cbf 2cc3 ccb4 bc44 a7bf
000002f0: 361b 5a21 3c0e 9dbf bb78 b373 8241 843f
00000300: bd65 a9e8 774b a6bf cb10 9091 5da3 99bf
00000310: 8967 f54c fb1d 72bf 741b ca08 45a7 91bf
00000320: e198 73e7 3aed 93bf 8312 bb57 bd4f 66bf
00000330: 5a35 e605 3c45 6b3f 08e4 87db 47e0 9cbf
00000340: 5091 bf21 689d 85bf b8fa 726f 5d9e 93bf
00000350: 6d14 f44b a875 a9bf 3714 d652 76f2 a0bf
00000360: 769f ff0f 4935 a4bf b5d6 75a8 268a a8bf
00000370: e847 0d4b 6e9c a5bf 91e9 f2b5 87a8 5dbf
00000380: f350 a5f2 14d5 773f 6125 d120 78d1 853f
00000390: d446 721a fe50 903f f15e 1587 37a0 96bf
000003a0: 1b09 c922 a684 acbf 4d89 6307 40f5 a7bf
000003b0: d563 fff8 4940 a5bf 2e2b 7f53 ea47 a2bf
000003c0: 55f1 61a4 116c 91bf 868c 0152 38ef 98bf
000003d0: def3 e695 4231 7dbf a5a1 81e5 8958 96bf
000003e0: b82f e241 09c2 a2bf 5ae5 951e b684 a9bf
000003f0: c8c0 d9da f876 a0bf 2fb4 a6af 61b7 8dbf
00000400: 674d 0c26 d785 90bf eaeb be85 1aea 9ebf
00000410: 786f 66f0 ad73 99bf fe71 a94e 32bc a9bf
00000420: 0260 df78 11dd 9abf fca8 71af e8dd 87bf
00000430: 0160 b4ea f5a4 a1bf f3b2 e425 a296 81bf
00000440: 1800 62c8 1ae5 6dbf 9910 9492 ad4d a9bf
00000450: 2f24 dcde 3885 a5bf a5b0 9e93 6a55 a8bf
00000460: 456a 127e 4dde b0bf 6de9 5422 8c30 93bf
00000470: 4f8e d6bf e3db 8bbf 004b 2015 c4f7 a1bf
00000480: 6828 8b5b f29c 7ebf f3cc 4ac2 79b1 7abf
00000490: 2af3 0327 4c49 78bf 7c13 15bd e924 26bf
000004a0: 90de be22 ff51 3f3f 1425 4877 1980 2d3f
000004b0: d580 b210 3fac 60bf a1d2 8edb 27b8 69bf
000004c0: 284d 65be 3f51 67bf fa3c f9c5 7384 88bf
000004d0: f97e e45a 7c2f 8bbf 2840 088f 952c 91bf
000004e0: 5a9f 451d 2ae6 90bf 0be4 288c 9a73 91bf
000004f0: 0f6a 2e2b 2c04 96bf 6d89 5a60 0d08 89bf
00000500: ed0d cb16 cce3 87bf c2c2 2d86 a2d7 63bf
00000510: 3b0f 1ab2 44a6 723f fb68 ac1e 53cf 75bf
00000520: fb36 31db eb40 83bf 507a 3bf4 38f2 84bf
00000530: d00e bebe 92d7 90bf 6691 533d 6d49 8cbf
00000540: 6f41 6449 ff13 83bf 27f0 bfff 6e00 85bf
00000550: ce0f ec06 fd26 6cbf c441 d99e e53e 6dbf
00000560: e440 4af5 4817 78bf 935b aed1 dfe4 8fbf
00000570: f051 e65f b154 89bf 2b82 ec99 1274 7ebf
00000580: 888d 37a1 d67d 52bf ee35 0a10 e405 65bf
00000590: c67a 4ef8 1e56 35bf 7b1d c471 674c 81bf
000005a0: 7163 31ec 38fb 57bf f062 7ea8 5f04 7abf
000005b0: 0a85 9783 4e0c 52bf a6e0 8732 fe04 74bf
000005c0: d61b 8376 c4e0 81bf cd8d 8a2c 923c 84bf
000005d0: 99c4 e53d 0a3e 84bf 34c0 0785 e649 9abf
000005e0: b55f c37f 2113 95bf b069 b4e3 dda1 97bf
000005f0: 9938 c824 7dc0 99bf 2a79 6592 9d6d 9cbf
00000600: bb53 1ca5 f431 38bf 0e6e ead3 8fbd 37bf
00000610: 0706 9e8f d30b 39bf 161e 3ac5 f59d 39bf
00000620: 9c3c 7450 146b 3abf e0d2 0188 b6fa 3abf
00000630: 2edb 5627 b288 3bbf ba66 9a52 1ef1 3bbf
00000640: 564b eefb 5302 3cbf b6fe 53b4 5172 3bbf
00000650: 3757 0ce7 df94 3bbf 1acd f6e2 a92a 3cbf
00000660: ef4a f383 f48c 3bbf 9149 60e5 f7fe 3bbf
00000670: 76d3 e1fe fac9 3bbf f553 3ec3 5e56 3cbf
00000680: 904d 7dde 15d2 3cbf f1b9 c52a 3cda 3cbf
00000690: b65b 0e90 b400 3dbf 8c88 7d1a 148b 3dbf
000006a0: e807 e4ff 4d77 3dbf 4e0a dc12 dd6f 3dbf
000006b0: b709 416a 2554 3ebf 4c49 6d0f cd35 3ebf
000006c0: ba4b c326 c274 3ebf 3a43 8178 3848 3ebf
000006d0: 4054 8fc0 b31f 3ebf 55a6 e452 9e29 3ebf
000006e0: 401c ede5 d9dd 3ebf 4280 d9d1 64fa 3ebf
000006f0: 7e73 ffbb aeb0 3ebf 5028 3231 a1a3 3dbf
00000700: bc27 38e4 1d64 3dbf 7a10 b437 4f50 3cbf
00000710: e147 48e2 a130 3cbf f872 3411 eb8e 3bbf
00000720: c77d c05d a09c 3abf 4896 af25 725a 39bf
00000730: 051a 1b0c 80ba 38bf 8085 2853 5205 38bf
00000740: 4662 ca48 8e27 37bf f585 79eb 4ae8 36bf
00000750: f4ba 44e3 89ec 35bf b2dd 8fcb 9ad9 35bf
00000760: dcd1 6760 a092 35bf aba3 4722 6046 35bf
00000770: e47c a03a 1f78 34bf aace 081e eedc 33bf
00000780: bb5a 6588 a3fd 9c3f 2300 1e0a c8e6 be3f
00000790: c021 162f a3e4 c03f 4d75 fb5f 7de6 af3f
000007a0: 5ba8 6cfc b7b1 ba3f 0188 f412 ac9c 89bf
000007b0: 850b 4ff1 9e3f 90bf b4cb 8b5e 72a5 96bf
000007c0: b42a cfa5 bd2e 95bf 32f9 7fc8 5fed bebf
000007d0: 890b b87d 9036 85bf e97c 8a04 23bd b7bf
000007e0: 2879 7e56 2b6c b0bf 52c8 c79c 3d95 adbf
000007f0: 7d36 8350 c9c4 a7bf 639a 69e3 2a8e bfbf
-0.012201995320543441 -0.08692290212508084 -0.06177508831145675 -0.08282094169623379 -0.056132383880095144 -0.05903167766378047 -0.05386638528334966 -0.011477294186942365
-0.023306508270718906 -0.09302162955194354 -0.06242271637439578 -0.04734571069769593 -0.0032702830276713887 0.03269703055476656 -0.057887292160282856 -0.05315781606253531
-0.03435609012503379 -0.010956074630602086 0.004904429485135338 -0.03487448264081016 -0.059377012231877156 -0.015462563459296256 -0.042234820494680296 -0.009458954404396695
-0.013632508755761134 -0.053028752270677174 -0.037644074205848976 -0.05594367843764236 -0.025148027349783688 -0.04676648833650001 -0.0025243496372114515 -0.032444905072510015
0.014153578501680248 0.0001343842570075431 0.01260629648995701 0.007199735503463628 0.007098854825194655 -0.03618873449118982 -0.017253541323014203 -0.046352810025181546
-0.007582846988214879 0.007743545607922794 -0.0011690925576204332 0.03581606626898824 0.013694617498637937 -0.03661846098657016 -0.039550273071082595 -0.08893424850655163
-0.11613383043151161 -0.09194736789695936 -0.07926263391744555 -0.04629664055476523 -0.026656434488627194 -0.021404168539576933 -0.012992648589360858 0.002671830708803863
-0.0005950657780870574 0.008361086655597342 0.004212666690006678 0.0017359738101713103 -0.0009538068655637441 0.004600235527146184 0.007119002609713909 -0.007917652070697579
-0.007174469969387193 -0.022521993031976655 -0.055281426192614815 -0.040093577878229175 -0.0341066334353368 -0.04431984455749402 -0.03448089393162903 -0.039238871022179815
-0.047842954839076905 -0.05035555803771196 -0.04004265208576966 -0.01694708038191513 -0.011978232752996611 0.020052064216858206 -0.002516359225396921 -0.022133883866035663
-0.03965612885057902 -0.03896018905712181 -0.029933431461050493 -0.02563370579723007 -0.041304677917255075 -0.04053544237324779 -0.042413601447966645 -0.0455044259618643
-0.04943845657705382 -0.03399595778535121 -0.047389138764310126 -0.0464162388951723 -0.02770214586189303 -0.04544629771260697 -0.02837461427273099 0.009890574603954474
-0.043544528151595575 -0.02503725243515546 -0.00442312397293588 -0.017239645635096904 -0.019459648491555796 -0.002723569688756479 0.003328912003047674 -0.028199312948320482
-0.010554135827938765 -0.01915880196315342 -0.04972577979246116 -0.03309983979401248 -0.03946903534216421 -0.047929008544924136 -0.04220909753952623 -0.001810200243012792
0.005818445041161124 0.010653437139029167 0.015933962215575928 -0.022095553989259057 -0.05569953131318269 -0.0467929848689602 -0.04150611080667203 -0.0357049204754588
-0.017013812692753778 -0.02435005188489161 -0.0071270562170271095 -0.02182212317748768 -0.036636628429817575 -0.04984063266142398 -0.03215768500820243 -0.014509928868244952
-0.016135560700673148 -0.030189909375376724 -0.02485534457956315 -0.05026395044544428 -0.02623393345115233 -0.011653726438642036 -0.03446167459532035 -0.008588091641820372
-0.0036492846584792564 -0.0494207612446484 -0.0420320293470201 -0.04752667476654552 -0.06589207008293226 -0.018739881129684322 -0.013602999965605237 -0.03509342916381364
-0.007473894795746096 -0.006516910191453495 -0.005929276914909557 -0.00016894677404813072 0.0004779098405793625 0.0002250701032980104 -0.0020352584593440284 -0.0031395700902641798
-0.00284635972926996 -0.011971382598089598 -0.013274165653057933 -0.016771637778276866 -0.016503007923716374 -0.017042555622740745 -0.021500291953637837 -0.012222389700870829
-0.011664957471459092 -0.002422158651306767 0.004553097097985954 -0.005324673353948701 -0.009401171328274218 -0.010227627709750525 -0.016447346584313405 -0.013811925348314612
-0.009315485408053019 -0.010254733257163263 -0.003436559861599498 -0.003570030667823883 -0.005881581299618886 -0.015573261820277106 -0.01236857007897016 -0.007434914265815477
-0.0011286350244227045 -0.0025662855480905666 -0.00032556778051599474 -0.008446510466923787 -0.0014637046704335211 -0.0063518273017499766 -0.0011015669573384867 -0.004887574156320939
-0.008729491106704328 -0.009881154999056197 -0.009883956922495595 -0.025672532910846438 -0.02058079092316208 -0.023078410170549624 -0.025148349161150028 -0.02776190000565141
-0.00036918852593830945 -0.0003622509138183357 -0.000382174635539995 -0.0003908848786768627 -0.0004031109424013719 -0.0004116721756937513 -0.000420135016010392 -0.0004263590841247878
-0.00042738485711273555 -0.0004188012574814869 -0.00042086092348491165 -0.00042978904363196043 -0.0004203888856412615 -0.0004271846022457999 -0.0004240262777622164 -0.0004323941568540873
-0.00043976816094933816 -0.0004402539150508969 -0.0004425469233466055 -0.0004507946091419988 -0.0004496159962316102 -0.0004491724711074605 -0.0004627791734074476 -0.00046097046236072826
-0.0004647230150684429 -0.00046206835441347 -0.00045965326768044115 -0.0004602443249433809 -0.0004709870317367061 -0.0004726883069903245 -0.0004682947728705185 -0.00045225797038795246
-0.0004484723069430004 -0.0004320329096148056 -0.00043014480823544253 -0.0004205058950946107 -0.00040606417837981936 -0.00038686072156077613 -0.00037732721476083114 -0.00036652812846867805
-0.0003533098577377696 -0.0003495390805935133 -0.0003345333709771491 -0.0003334048192864216 -0.0003291741890330249 -0.000324629278365902 -0.00031233560969386024 -0.00030308545504740636
0.028311305236764932 0.12070894476892184 0.13197746085303486 0.06230537220629149 0.10427427208620214 -0.012505859688250355 -0.015867694357222035 -0.022115504284510215
-0.020686114545052717 -0.12080954213158604 -0.01035797961868014 -0.09272974835265625 -0.06415053235693746 -0.05777924097846267 -0.046423235967819367 -0.12326305439055711

gru.weight_hh_l0 f8 [48, 16]
00000000: d82e 9e25 a6b3 643f 62ae 0299 c4f8 abbf
00000010: cc5d 8246 6761 5fbf 94ab e589 f7b1 6fbf
00000020: e71b cbfb b28a 523f f872 aa44 d48d a73f
00000030: 2d66 2470 4caf a3bf f0bc 0cd5 e8e5 a43f
00000040: 1d2e d299 2dab 33bf bf36 562e f657 763f
00000050: 95bb d90f 2551 8ebf 1dbb 6250 3ac6 a9bf
00000060: 630b 90a5 b872 883f 6915 75f8 25a6 923f
00000070: 564b acdc f8ab 90bf c972 335b 07c6 81bf
00000080: ea63 310c 4de8 3d3f 710a f67d 61ed a13f
00000090: 1780 6b03 9473 9bbf fd45 1c61 678f 9d3f
000000a0: 4554 3522 9e32 243f 0808 e938 2820 7e3f
000000b0: bc13 d3a3 9aef 983f d690 8b6a 95d4 91bf
000000c0: afc1 b6dc f92a 8b3f 9bf3 2b5b 15f8 93bf
000000d0: b30e f197 4755 8ebf e946 8672 81f0 83bf
000000e0: 4231 001d 3381 6bbf c119 8a4d 1eaa 88bf
000000f0: 2592 5ae3 6020 57bf 0d29 e009 788c 79bf
00000100: ae56 2fea cfdf 933f d5db f2cc 2f6f 86bf
00000110: 2249 ffaf 13a8 973f 17ce a174 9085 94bf
00000120: 6714 7792 3b36 60bf e64f 00f5 921d 86bf
00000130: a0dd 64e0 8dff aebf 113b 2aa5 8855 913f
00000140: 10a5 00d4 90e0 8abf c341 5f2e 5ac4 7d3f
00000150: 51d9 c508 554b 923f 420e 7cec 76bb 7ebf
00000160: f66d e5a6 ea28 693f 142d a364 9d26 8cbf
00000170: e0e9 c786 a463 883f ee8b a646 d495 8e3f
00000180: 3d61 b5f2 1bad 8f3f e166 e37e 4eaf 9c3f
00000190: ef2f 55cd 1bc0 a0bf f4c4 217f 4bc7 9e3f
000001a0: 1785 6f65 c305 633f bba7 895e 1202 a73f
000001b0: a64b 13da bb20 9cbf fa7d 4982 887d 8bbf
000001c0: 07ca ee24 f599 953f 2e31 d6ae bba4 82bf
000001d0: c58c 6417 b676 9cbf 103c 341d 00ec 9bbf
000001e0: 57ed 3fc0 4c75 813f ee06 e550 7de5 88bf
000001f0: c73b 0960 1b06 99bf 8897 fed0 f7e5 763f
00000200: daa8 2210 53fd f03e 562f cb2d 2cad 4d3f
00000210: b418 ff79 1274 52bf 4ce9 9099 2799 503f
00000220: 03c1 0e8f 53d8 01bf b93b 7cce 43a2 393f
00000230: 64df 5af2 8831 293f a07f bbdc 0f0a 3cbf
00000240: b298 2423 0748 363f 5100 6cff 0f9f 163f
00000250: 0c39 372e d990 46bf 2938 4c7f 5fad 3dbf
00000260: c1a2 ec0e 5a5d fd3e 6052 1857 b377 20bf
00000270: f07c 58c4 7cd6 23bf 2736 425e 9257 fe3e
00000280: f3fb 4e17 7dcf 7fbf e9d1 fa87 37f2 c13f
00000290: 5fcf 998b 2e48 b3bf 59a2 47b9 e630 98bf
000002a0: 19dc 86bd ee6f 6a3f 6b4d c5e8 e48f b03f
000002b0: 7479 b03b 2b3e 833f 2ab5 d2b5 6031 b4bf
000002c0: 0368 2c92 ee09 9c3f 30bf fd22 7d1b 933f
000002d0: 7aab 90e7 d7a8 a03f 1c7a 25f6 726e 9d3f
000002e0: af76 bfa2 83dd 993f 5e38 ad94 c17b 8b3f
000002f0: 103a 3a3f 47fa 8fbf 5771 87de 69a7 80bf
00000300: 7877 9a93 d5ba 993f 158c deaf 7001 993f
00000310: d577 2833 1c38 b5bf d70f 4e77 37fd ae3f
00000320: 9a3e 6ff3 6785 5fbf 8c7c 5397 ee52 913f
00000330: b783 a52b 42cf 7ebf d558 5d4f bb09 9ebf
00000340: 1ca8 c60d 764f 9d3f 82d4 31bd 591a a3bf
00000350: 1a52 d387 bb3c a1bf 21e2 72d4 adfe 873f
00000360: 6d31 f96a 6778 8fbf 5c4f ac02 00d0 90bf
00000370: e47e 4224 d172 96bf 249d ec0c 1b88 61bf
00000380: d6de bf21 65e3 8c3f ff5b 5575 e6cc 803f
00000390: 5dfa 6b09 81e1 90bf 288c de28 2524 943f
000003a0: 0ec7 4ba7 f1f0 583f 03e2 5884 f330 aa3f
000003b0: 730a 21c6 1bdf 9dbf b058 5535 23e1 653f
000003c0: 2a6d 9cad 7e72 7e3f 4d89 652c 6d67 68bf
000003d0: a38a 648f 2fbf 8abf c925 85f6 9752 89bf
000003e0: 45ea 68b4 f184 713f 1856 bec8 df1b 8bbf
000003f0: b6ae 41ce 857e 8dbf 23e4 36a9 2403 643f
00000400: e2cd 5aa4 66a1 ae3f 8117 1042 5881 bf3f
00000410: 0866 6a95 f911 a1bf adea f6d3 40b2 833f
00000420: 65f5 4fe5 f0cc 8f3f 16fa b99c 8553 b53f
00000430: 6c5e 86f1 5613 c5bf f9cc b6c8 50c5 adbf
00000440: 24ea d7f4 942b 993f a36f f932 32d4 a6bf
00000450: d582 99ab 2564 6a3f aa12 e784 3594 c2bf
00000460: f43d 3dd8 41bf b1bf e5bb 9362 e1b0 973f
00000470: e958 6c9b 9fb5 bebf 528f 2bc6 3789 863f
00000480: 55eb 1139 5a99 b3bf 3407 5aea 5f71 c1bf
00000490: 80fa 2ca7 221b bf3f 1764 bd7e 8563 bebf
000004a0: f8f3 e44e 2b7f 6c3f d0e2 2a25 db73 ce3f
000004b0: d293 c01e fff8 a8bf 9709 a0ce 80d4 c23f
000004c0: 50fc 4183 a56a ba3f f4ff 16dd 429d 943f
000004d0: f33b 0d6b 4175 bdbf 5582 8765 72d8 b8bf
000004e0: e082 ca79 d067 bd3f 53e2 c577 4487 8bbf
000004f0: cd64 1ec0 888c c6bf 0730 3a35 2b1d a6bf
00000500: 90dd a95d ed78 8b3f 41b2 ef41 1f83 8c3f
00000510: 20e3 698d 6259 75bf 6692 cd1e 8f32 a83f
00000520: 9198 08d5 7805 513f 3fbc cb9f 66e6 9a3f
00000530: 2f66 6410 f532 9ebf 0bd7 cf29 813c 8cbf
00000540: 5e8e 51cd d171 953f 3cb4 ee88 cb1b 52bf
00000550: 608b 182c a476 87bf ebc4 ee9c ff00 9dbf
00000560: 1cef 2e25 fb65 5c3f 9d96 3e7d e513 983f
00000570: f89e 59b0 d863 97bf 06cc 4b7a 3c55 503f
00000580: 3b9f 45ba 5391 b3bf 399c 41a1 124b acbf
00000590: 69a6 0076 be70 9b3f dc0b de40 2e7d b13f
000005a0: 0634 47c7 4113 72bf 3896 b681 330d b13f
000005b0: 8941 230e 529b 833f d78e de66 005d 9b3f
000005c0: 9d22 09ee 851e 82bf 440e 2a07 27a6 af3f
000005d0: 1873 6507 7ec2 843f fc10 1a0f 7de1 a13f
000005e0: 77e8 97e6 abe8 8cbf 663f 766a 0706 99bf
000005f0: 224e 92d4 a1c0 933f f42f fba2 7a5d 66bf
00000600: 6783 cf49 3d8e 75bf beb2 875e 9710 7e3f
00000610: 6acd e8ce 59df 823f e1e6 7f1a 5321 83bf
00000620: 84bc 3380 a111 e73e 9d40 873e 53f0 73bf
00000630: 258b f8ad 0a6e 7c3f da35 871d ae0c 7c3f
00000640: 9474 a444 a014 84bf fe47 2104 52c3 8c3f
00000650: 1fd5 b66f c124 723f 3004 b774 81e7 6abf
00000660: 4a0a 45f1 5f58 8f3f b9ba 41ce 5c5c 93bf
00000670: d093 8ff0 b492 8f3f 9edd ccfb 5330 713f
00000680: 1c95 8a7f 0beb 763f 03de 64df 4132 7abf
00000690: d3a8 5bc0 8ae8 773f 9fcd 9655 6420 7cbf
000006a0: ee35 418b 28e1 563f 7a34 0291 a46a 79bf
000006b0: f538 4db1 402f 8bbf e988 9d81 bf2f 813f
000006c0: fee2 d9b7 6d49 69bf 700a b853 b8b9 51bf
000006d0: b3b7 d4db 8769 813f 678f 70fc 2464 593f
000006e0: 4eee 11a5 e709 79bf 0168 4499 4bff 923f
000006f0: cb64 1714 b369 55bf b3a6 6a65 816f 7cbf
00000700: 3946 ef9c 62c4 a6bf dcc5 814b 0a20 ac3f
00000710: 96ca 416b e232 97bf d85f a88c d5c7 a83f
00000720: 711a abe0 c7d1 7f3f 739a dd20 2564 c83f
00000730: 289a 3ed7 b4de c1bf 9938 3f71 8817 9e3f
00000740: 4eaa 2441 8247 b73f 10a9 57d2 ef6b 80bf
00000750: 2ddb f817 393d 9bbf 3b09 41d4 13b2 a53f
00000760: cd3e bb91 eff4 8dbf 168a bc38 5486 abbf
00000770: f719 9d4b 32df b43f 2cd7 0001 c8b4 83bf
00000780: 905b 0e39 cf0e 73bf 2e8c 91ed fac3 523f
00000790: 397f 3fef ee15 65bf 2c24 e876 f1c4 663f
000007a0: c91c 4547 e7a7 53bf f53c 001f 7241 4cbf
000007b0: b1c7 4fce 979f 6d3f 1af8 4e17 d57e 63bf
000007c0: f6ce f950 4e6b 39bf 0562 4021 6c72 753f
000007d0: 2bcd 0320 ae8d 66bf a1a7 0fe3 bc8d 63bf
000007e0: 1517 a497 5d53 603f a82c 4c03 aca3 38bf
000007f0: 00f9 214d 7b28 613f e5be 7d18 f932 3b3f
0.0025270695741193942 -0.05463232391170149 -0.0019153126286591713 -0.0038690409411876268 0.0011317012678533302 0.0460039457150056 -0.038446797074538665 0.04081657028870633
-0.0003001200037224554 0.005454980511229556 -0.014803208872050702 -0.05034048301000935 0.011937563469478446 0.018211930551179565 -0.016281021565258534 -0.008678491087658629
0.00045635109944935795 0.03501419699297948 -0.026808083256469297 0.028867354681159075 0.000154096415921375 0.007354886167890491 0.02435151696115033 -0.01741250479507602
0.013265564010766477 -0.019501050653150647 -0.014811095547094899 -0.009736071879874202 -0.0033575056368190534 -0.012043225041691199 -0.0014115282223566919 -0.006237477207841968
0.019408463161957705 -0.010954259340321496 0.023102100007073585 -0.02004075729241891 -0.0019789851682810336 -0.010798595525592657 -0.060543473855825924 0.016927847939366695
-0.013123637647441316 0.007267334241945314 0.01786549440427027 -0.007502998872726931 0.0030712683721227886 -0.013745526918134611 0.011908803332507156 0.014934214025577899
0.01546689829290015 0.02801249169792797 -0.032715672316584114 0.03005712474300011 0.0023220840771364204 0.044937681236504066 -0.027468619523300618 -0.013423029399915788
0.02109511411590328 -0.009103266022770198 -0.027796597650319627 -0.027267457754586444 0.008524512879367547 -0.012156466513832478 -0.024437358604980888 0.005590408356430994
1.6202496234165492e-05 0.0009056535451121654 -0.0011263065753026992 0.0010130774228530202 -3.403668404844582e-05 0.00039114146646651197 0.00019221111977229665 -0.0004278458334123717
0.00033998655557566503 8.629355566469708e-05 -0.0006886539890105527 -0.00045283872104640244 2.800431769426032e-05 -0.00012563766681296645 -0.00015135071787229044 2.8936459685760315e-05
-0.007766235958967182 0.14020437373768793 -0.07532015712950856 -0.02362404352052958 0.0032272017380949977 0.06469565089110112 0.00939592147738886 -0.07887844504394495
0.027381637260170077 0.018659549008076926 0.03253817273829092 0.028741642259200714 0.02525907212099437 0.013419639920950906 -0.015614086739586447 -0.008131816009090782
0.02512677873038835 0.02441955636426137 -0.08288742302872205 0.0605256398330593 -0.0019238963266054233 0.01691792296048482 -0.007521875837796558 -0.029333998412163737
0.02862343272287414 -0.03731041368966094 -0.03366647751832748 0.01171623043625042 -0.015366371109074984 -0.01641845718684408 -0.02192236694156592 -0.002140095551471115
0.014105596630528277 0.008203316169483442 -0.01648522968297993 0.01966913282343455 0.001522289266344182 0.051154718309081935 -0.029171403854216082 0.0026708305037273714
0.007433409535021066 -0.002979005078644159 -0.013059970439433249 -0.012364566050240182 0.004277176055036029 -0.013236759484963875 -0.014401479107810072 0.002442905047896919
0.05982514148982056 0.12306739437926063 -0.0333402628795732 0.009617334812778234 0.015527612684304424 0.08330569340066804 -0.1646526984520621 -0.05814602327463975
0.024580314106041126 -0.04458767769094087 0.003221582007242633 -0.14514798154245528 -0.06932460335996621 0.0231356827179602 -0.11995885414612285 0.011003909812138755
-0.07655872243223645 -0.13627242033913378 0.12150780278623508 -0.11870607704385382 0.0034786077368651434 0.2379106456262634 -0.04877469301599259 0.14711008156889413
0.10318979696784081 0.020131153816464534 -0.11507042754713818 -0.09705271700614422 0.11486533139624155 -0.013441595940762918 -0.17616376286313198 -0.04319129013774164
0.013414244099506673 0.013921970557896237 -0.005212197275448444 0.04726073504460686 0.0010389022828661036 0.02626953459087766 -0.029491261601924442 -0.013787278259751476
0.02094199958481934 -0.0011052596707756953 -0.01145675906724869 -0.028324121430789367 0.0017332985487276747 0.02351339890414882 -0.022841821445040517 0.0009968844034886639
-0.07643626496939941 -0.05526025980434963 0.02679727168302862 0.06831635554958332 -0.0044128961057596835 0.0666076842959108 0.009573594147156654 0.02672196033348836
-0.008847280813953967 0.0618145176167926 0.010136589623181133 0.03492346581791314 -0.014115660643245527 -0.024437061188620567 0.019289520835242276 -0.0027301211592654032
-0.00526260319472347 0.0073400414334911495 0.009215070368645956 -0.009340905424312708 1.1000094679107385e-05 -0.004867863819939225 0.006940881459317071 0.006848030222000168
-0.009804966063308641 0.014044419051206344 0.004429584132073643 -0.0032842186389818936 0.015305280256716309 -0.018907022560990614 0.01541653975614024 0.004196479855458261
0.005595250048519487 -0.006395585360500447 0.005837003705645399 -0.0068668288526398105 0.0013964553773065896 -0.006205218160301057 -0.013273721133057562 0.008391853468939963
-0.00308677129106305 -0.001081876761305136 0.008502065082747956 0.001549755210143078 -0.006112961637991866 0.018551999311149817 -0.0013069390118885412 -0.0069422773873754505
-0.044467050225318557 0.05493194743838689 -0.02265504626889 0.04839961378110019 0.007768421909253407 0.19055618386046866 -0.1396089602469186 0.029386646186872232
0.09093488779459699 -0.008018373114243832 -0.026600734794750714 0.04237424818031107 -0.014627334246511659 -0.05375922386726388 0.08153070779835746 -0.00962215664922502
-0.004652795280796776 0.0011453581303377913 -0.0025739351931263446 0.002779456720649628 -0.0011996992662533393 -0.0008622939330979173 0.0036161389311865845 -0.002379814332441843
-0.0003878656579907458 0.0052360748122954924 -0.002753105247501294 -0.0023869218061820107 0.0019928768134630606 -0.0003759665444682072 0.0020944984653957777 0.0004150255340311506

gru.bias_ih_l0 f8 [48]
00000000: 4d6b 3af5 0c82 c13f 1dca 96bb fd47 9dbf
00000010: 496c 8157 26d6 a23f 493f 2f01 8a3b 9cbf
00000020: 720e 521f 8912 5cbf 0fae f10e db52 bdbf
00000030: 40df a150 a619 983f 8b98 3d82 1190 6dbf
00000040: a627 e949 1701 c83f efa3 f8b0 977d b3bf
00000050: 9a62 538a 7339 85bf a25c e437 8c89 ae3f
00000060: 9321 c04e f423 943f 0cba 0acf 6b80 873f
00000070: 0292 9d1b df60 c13f e645 573f e360 69bf
00000080: f973 4a2f 5411 b73f 095a 3fa8 e991 c3bf
00000090: 6496 97c8 dad5 d1bf 3a5e 9e7c ab7c c6bf
000000a0: ed85 2171 69e6 31bf 9e8b f8ac f768 d4bf
000000b0: 5fc3 987a 6452 cabf dcc4 f8d1 f21b bfbf
000000c0: 3268 b70b 4216 d2bf 8ebf 6f8f 07df babf
000000d0: bff1 4967 f655 bcbf faa6 260e 8732 cbbf
000000e0: 777d 9012 caaa b2bf 213a 9cc8 20fd b5bf
000000f0: eec1 a5f6 81ba ccbf e599 53d0 d97d 813f
00000100: fa12 bbf8 49f9 d43f 6436 c870 bb29 ce3f
00000110: 2109 ee62 8b8c c8bf dca2 a463 6f15 c3bf
00000120: 857c 8752 f679 9d3f 6db1 7678 1d87 c4bf
00000130: 9253 5904 118a ba3f 5a58 5c53 a11a c13f
00000140: 1bf6 22c5 a509 a93f d915 8c2e 8dd4 cbbf
00000150: 3990 ff00 5718 b33f 21e6 d42b 2d63 a43f
00000160: ffdc 05b1 e6a0 6e3f b115 223f f91c ba3f
00000170: f1dd 605c cd6c b33f f9b5 6ba7 7d05 9c3f
0.1367813298610038 -0.028594936918759573 0.03679008310492599 -0.027570873567867058 -0.0017134036145599854 -0.11454552759976643 0.023535345717817124 -0.0036087362258739367
0.1875332938091649 -0.07613514013850396 -0.010363485964647357 0.05964315588260517 0.01966840487151129 0.011475412612836265 0.13576878403104337 -0.003097957461002154
0.09010816721497851 -0.15289040293892267 -0.27867765034748104 -0.17567962250608266 -0.00027313303247042295 -0.31890670673072374 -0.20563941942375671 -0.12152021051658174
-0.28260851997549985 -0.10496566058986742 -0.11068668386173551 -0.21247947874990541 -0.07291853860123419 -0.08589367768966173 -0.22444176238378993 0.00854082266819218
0.32771539011109463 0.23564856535851952 -0.19178907709653806 -0.14909164777170403 0.028785561358628548 -0.16037338621152789 0.10366922718215069 0.13362518854472932
0.0489017298836922 -0.21742405674755963 0.07459014677402899 0.039819156265775264 0.003738833016707965 0.1020046023496295 0.07587893967944816 0.027364695876647336

gru.bias_hh_l0 f8 [48]
00000000: 13ed add5 f6e7 bc3f b580 6934 09af 9fbf
00000010: d1b4 9c43 437f a23f 0b67 e054 a7b4 9bbf
00000020: baf8 f9fe cf0f 5cbf c9ec c7ec 7214 b9bf
00000030: b3bf 5732 135c b9bf 55c7 0bb4 9662 6ebf
00000040: ed0d c10a 05f9 c53f f295 62d5 4a97 b23f
00000050: 850f 448b b0c6 a23f e2ca dfc3 75dc bebf
00000060: 0d9f ae0a 69df 933f 11c8 b1dd 6780 873f
00000070: 7b22 4ec2 3233 85bf 4fe4 7fba d960 69bf
00000080: f27f 2c3e 5d38 b73f a630 1158 7e21 cabf
00000090: b22e dc5c 8159 d2bf 184d 750a 3ccb d1bf
000000a0: d318 1757 c5e6 31bf 6ab3 1ccb 37f7 d5bf
000000b0: e177 a321 970e c5bf 550f a696 f47f b5bf
000000c0: 7fed a22a b9c4 d2bf 9207 8f7d a429 adbf
000000d0: 42c6 efe4 7f8e b6bf 2502 cfa2 cfbd ccbf
000000e0: 06fc e57b 05c1 b2bf 299a aef0 52fd b5bf
000000f0: 7565 418e 1e1c c9bf fce6 7355 932c 813f
00000100: 41d7 0037 d44e d13f 60fd d545 ca4b 9b3f
00000110: 83cc 1776 689b aebf 1375 4b8f b200 93bf
00000120: a361 f0e4 41ee 27bf 4b37 1270 6bdc d23f
00000130: 5308 39e3 3d10 b73f 1aeb e731 25d8 94bf
00000140: d6dd 886c 2675 bfbf c43b 662c 5c29 c3bf
00000150: 6631 7a48 b40a c5bf 63f8 5b84 3ebf c63f
00000160: 7c4d 36f8 b7be 81bf 7438 003f 6680 69bf
00000170: 8dd5 8d62 9f23 c5bf 6aaa dac3 5a41 b2bf
0.11291449276716418 -0.030941146682722038 0.03612718773215707 -0.027056326442198613 -0.0017127543650583958 -0.09796827584061697 -0.09906120280334 -0.0037091201232834306
0.17166197800734953 0.07262103757474117 0.036672131538607856 -0.12055145294270234 0.019406930233940623 0.011475383236959432 -0.010351559214329278 -0.003097939730647904
0.09070379989543634 -0.20414714145807017 -0.2867129713856499 -0.27802945157346093 -0.00027315442920573563 -0.34321398577849627 -0.1645077623606417 -0.08398369481988983
-0.2932570377704095 -0.05695833237361038 -0.08811187114022181 -0.2245425744022366 -0.0732577731596252 -0.08589666725183832 -0.19617063470904453 0.00838580231219365
0.2704363381520701 0.02665630389446727 -0.05977941934170252 -0.018557348247545024 -0.00018257669805233937 0.2947033495373616 0.09009157941275818 -0.02035577885724669
-0.12288131856700288 -0.1496997086328219 -0.16438916720324953 0.17771131003241 -0.008664548170407065 -0.003112983416946819 -0.1651496154042146 -0.07130973130794308

gru.weight_ih_l1 f8 [48, 16]
00000000: d06f f88b ed75 8dbf b097 5ed7 cd49 56bf
00000010: 8131 499e fa1b 89bf 2d39 3d8b 6a71 8dbf
00000020: 12be 0884 4344 3b3f 242f ce77 2a70 94bf
00000030: 3c05 4155 a65f 533f 492a e659 ae49 a03f
00000040: de9f 9e27 973d 82bf 58ae 71c5 8d9e 64bf
00000050: a308 44bb cf21 933f ca97 3e5e ef03 6c3f
00000060: f862 41af b543 413f 1cc8 35e3 fdb9 7d3f
00000070: ee80 3536 cbd9 883f 5c15 1019 0b2b 44bf
00000080: a3e6 3417 738d b73f 794b 6b20 0d50 993f
00000090: dd27 ee80 0b18 87bf f30e 58d9 0cdd 883f
000000a0: e4fd 7e05 d7bf 823f ca74 de33 e9e5 b73f
000000b0: b66b b0f5 bf98 a23f d55f f2ce 6208 8bbf
000000c0: 574a db7d 986b 973f 1c20 3b16 a1cf acbf
000000d0: 01d8 be43 ed00 aabf 1871 2f59 41e6 a6bf
000000e0: d791 1970 dafb 9fbf 43f0 fb0d b5f6 a3bf
000000f0: 78db 5289 0350 9ebf 0234 6e02 8883 6d3f
00000100: 72f3 28ba fe71 983f f770 dc7c 6e40 a1bf
00000110: 70f1 6abb 055b 85bf 9af1 ea63 a4d7 4ebf
00000120: e9bd f205 167d 1e3f 5a96 ffce 9114 9c3f
00000130: 4507 2050 8088 a0bf 94da ae32 2a3f 7e3f
00000140: b9d5 0b13 1946 55bf f6b0 633c da60 533f
00000150: adf0 2c44 67fd 493f bcfa a0ee aa40 81bf
00000160: 03fe b0e9 9987 733f 33b3 d787 77bf 763f
00000170: 5516 e785 ae26 91bf 193c 2e74 83fa 663f
00000180: e04d 65bb 1a41 7fbf 5c74 89de db24 9e3f
00000190: f681 af39 71ba 8bbf e2bb 88fb 14c3 b03f
000001a0: e104 5064 0b91 54bf 2ca5 acae 6f82 2c3f
000001b0: ca8f 9807 95f5 a63f 6c9e 2044 017f 97bf
000001c0: 1bdf 7035 e44d 8a3f 7d29 e902 19db 1bbf
000001d0: a6a7 9ee2 a851 abbf 0870 fd31 0e84 8bbf
000001e0: 1852 447e 1b9f 7c3f c4e5 6600 434c 723f
000001f0: ff93 95d6 1ac7 76bf 600a 7736 8ca6 69bf
00000200: 845a 78a5 8721 853f 2390 b06a 93a8 71bf
00000210: 7dbc 4f8f e48d 903f 9634 1eef 6417 97bf
00000220: ea8b 9eb5 681e 6c3f 7315 21a6 380f 843f
00000230: ba41 e07d 0990 97bf 2e0a 89d2 a82f 823f
00000240: 67c9 f44e 3d8f 70bf 94bf 77a6 5b82 633f
00000250: 13f7 8b4c b61f 793f 21c2 876f 5d2d 6abf
00000260: e5ef 0d71 be7e 723f 3fab c7f7 3dad 50bf
00000270: 063c 348d d839 40bf 43c7 0fbd b318 47bf
00000280: c79c 4a7f 951c 77bf 5c22 09fd d379 873f
00000290: 5450 5a79 4544 7abf 7ab4 bc2a 06d7 7c3f
000002a0: 3fc3 953b b93b 5abf 90ab 2ac3 de73 5a3f
000002b0: 5b52 0e98 f756 8c3f 4849 d25b 5659 76bf
000002c0: d47b 4214 f04a 2ebf afbc 8a20 dad3 703f
000002d0: 5268 5784 b733 70bf 5672 92d7 4b6d 6abf
000002e0: f8e8 1b19 6d7c 783f e0ff cb0f 11be 87bf
000002f0: 3221 7d56 9c93 743f 56d4 9765 b2d5 27bf
00000300: 664e aadd 8d08 a23f 713b 8adc a562 a6bf
00000310: e709 545a 30bd 9f3f 40db ce3f 7bdc 91bf
00000320: 212c c0fe 9c2f 623f 9ebd 9dfa a386 853f
00000330: dc8a 8168 d84b 99bf 37eb dcac 10db 953f
00000340: e3be cd24 1706 8dbf 2392 8ed9 12c4 9abf
00000350: 05c5 3eae e282 9b3f 2625 bcc1 2041 993f
00000360: fc95 91b2 1639 78bf 0fcf 57b0 7039 793f
00000370: 8d55 8988 0507 6ebf d127 0cbd 9a61 76bf
00000380: 8f85 2c6b e30d 483f a098 b623 be72 b43f
00000390: 02b2 93da fd28 c7bf efc9 1956 3d11 96bf
000003a0: dd63 e62b 3c26 623f 7026 05c2 33cd b03f
000003b0: 549b 2ee7 b925 94bf f3ad 7bf6 207f a03f
000003c0: 7425 abfe 60b6 b1bf 76d9 c0c6 67bd 913f
000003d0: 624e a232 c174 a6bf 855c 032e 758b afbf
000003e0: c982 304d 0338 6f3f f117 42b8 5e00 9d3f
000003f0: 4410 1063 1c21 77bf ea1a 5424 c40b 91bf
00000400: 1028 6a11 1d5c 6b3f 089e 7fae e745 ad3f
00000410: 704c dd8c 67ca acbf 77be 5b74 ff36 a63f
00000420: e4c4 4b81 a695 663f 9c4b 8506 1816 773f
00000430: 9620 4a03 004c a13f 02fe b8ea 674f 97bf
00000440: f810 410f 430b 933f 31df f3a2 39fe 83bf
00000450: 3079 9344 4f68 a0bf d39b 5f32 18ac 97bf
00000460: ce64 b00c 7771 4f3f 241c 11b2 bb01 643f
00000470: 7c81 7e68 7fa5 77bf bd7b 0b32 c7c0 6f3f
00000480: c6ad 456c 0908 b73f 22be 05c5 8637 d33f
00000490: 8371 60ae f2f7 b53f 67cd c519 d614 bc3f
000004a0: 9cff 36e2 2356 723f 94d9 fc24 4f8f b13f
000004b0: fdcc 2eb3 56f9 d33f 76f8 6c5c d3ae c33f
000004c0: 3aa2 1f4b c7bc a1bf bbae 42c1 73db a3bf
000004d0: 29d6 8a26 d0e9 cebf c4f7 a844 4290 bbbf
000004e0: 1f57 3f0e 1a9a 943f 5d1c 4271 36ad b63f
000004f0: 7873 855c a3b9 c2bf 6001 0f58 7763 733f
00000500: a98d ca8d 5f1b ba3f 3c0c cf3f fe0c 4cbf
00000510: 15d9 aded 67fc 9c3f 8344 68c0 7884 a83f
00000520: 0407 4888 fb53 803f 3910 3817 b69c c73f
00000530: 7d55 32f2 9a7b 9cbf 7fd0 260e 3b64 7a3f
00000540: dadf 8df4 b41d 743f d11c 3239 1cf0 9cbf
00000550: 0a00 8cbf 3b6d a2bf 3492 6c38 169f a3bf
00000560: 37e3 81b1 8864 91bf 8e26 8ab1 5529 a1bf
00000570: 5c93 f706 5e24 b3bf 784f f2a6 b5ff 883f
00000580: 9729 189f 78a8 5cbf 5a01 78de c24f 8b3f
00000590: 1f00 ec16 e1f3 4bbf c37c dac5 3ac3 5cbf
000005a0: 2b28 16f7 a51a 57bf 7523 afd1 8bb6 83bf
000005b0: 8fbc 651a 860d 6f3f 46ca 1eee d37c 723f
000005c0: 00a4 9744 973b 78bf 296e 6825 11ec 7a3f
000005d0: afb9 5ce9 f24b 923f e718 7f14 4a72 64bf
000005e0: b93e ddd4 b0ef 21bf 5e3d bba5 ba99 5c3f
000005f0: ce2a 5ca1 bd14 823f 75f2 e1e8 74a7 40bf
00000600: 0573 a4ea c9de ae3f f25f ea5a e16b 99bf
00000610: c069 aaaa bd0d 913f e2a7 58c2 ebcf 94bf
00000620: 30ee 3748 0871 7d3f f106 a91f 696a a53f
00000630: 32d6 336a f0c9 a3bf c6fd a593 1333 973f
00000640: 1d02 0241 afe2 6f3f 2eff 024d b396 a1bf
00000650: 22ed 35d4 0011 913f e11c 397c f8db 75bf
00000660: 720d 8ed3 4ce8 4bbf bfaa 9b9f b778 67bf
00000670: 0f1c 4fe8 35be 98bf af3a 736e ebc1 7b3f
00000680: 8c0f 1ff7 714f 8c3f 99f3 5b14 668b a93f
00000690: f299 f216 da7d 9abf 4f6b 930e a268 903f
000006a0: 7fa4 c778 aed1 6f3f bbe9 e2a8 107d 723f
000006b0: 9f67 1a0e ba2f 903f 2ffb c870 030a 203f
000006c0: c7c3 56aa 64e8 7c3f b2fb 758a 22f7 88bf
000006d0: 5a93 8191 2669 7cbf 4881 c09c 92ec 8fbf
000006e0: d97c 8db7 397f 1b3f f58b 0a98 6f5c 53bf
000006f0: 1a5c 982e 593f 72bf 928b fa94 627d 773f
00000700: acce 93ee 0923 6fbf 79cb 1965 0b86 88bf
00000710: 17cc ada4 67b6 b43f 9fbb 3f8e 4df9 b6bf
00000720: a099 8ffa b018 50bf effa e1fa 6151 963f
00000730: 72b4 995a 1a0a 933f 385a 0115 4349 a53f
00000740: 8971 84ce 201d 80bf be63 00ce 2a01 7e3f
00000750: cb36 66a1 b92a a63f 4294 9b57 bae1 9d3f
00000760: 8cf1 9f81 7099 7e3f ba84 f2c0 df92 8bbf
00000770: d96f 94d1 1d01 84bf a386 ac92 7d6a 723f
00000780: 4172 c1da f57e 723f 5ffe 9d35 10af 35bf
00000790: 0343 9c9b 3574 993f d33d 01be 24c2 833f
000007a0: 9809 e373 77a1 6a3f 340d cbb7 db96 793f
000007b0: 808e 61aa c045 513f 918a 08e5 e0fa 58bf
000007c0: 6dd9 3a1b f541 65bf 1260 0770 54bc 76bf
000007d0: 9a3e 7f59 e7d0 753f e988 0c1b 7be0 893f
000007e0: 8922 2430 67bb 573f 0428 3dee 867f 56bf
000007f0: 7854 9aba 19f9 61bf 3170 b784 cee8 5d3f
-0.014385085901316957 -0.0013603696984118945 -0.012260396914961504 -0.014376480459443808 0.00041605614026971147 -0.019959128916112637 0.0011824726434642293 0.031812141870507356
-0.008906536957354601 -0.0025170105905567945 0.018683667950434423 0.0034198451193842893 0.0005268704540056504 0.007257453678322558 0.012134158698870991 -0.0006154827298138587
0.09200209919517958 0.024719433883386686 -0.011276330825939535 0.012140369780361015 0.00915496812365197 0.09335191265423073 0.036321638814306764 -0.013199588718904845
0.022871382409741816 -0.05627158542989738 -0.05078832103701814 -0.04472545827568036 -0.03123418149188403 -0.03899160190300723 -0.029602103478022695 0.003602758067648982
0.023872356521894962 -0.033694699041207636 -0.010427517683063242 -0.0009412338912038632 0.00011630484503898749 0.027422216662577582 -0.0322914216813062 0.0073844574316611795
-0.0012984509341412555 0.0011827594003604425 0.0007931474905045387 -0.008424125106214368 0.0047679912777876 0.005553690830748792 -0.016749121592303535 0.0028050010163904846
-0.007630447790080791 0.029437480409218217 -0.013539204190181824 0.06547671452493334 -0.0012552844284530673 0.00021751035031884172 0.04484239309047629 -0.022945422919433175
0.01284387863243768 -0.00010626163632668734 -0.053357389129203 -0.013435469532559821 0.006987674136571552 0.004467260098345919 -0.005560974919124994 -0.0031311739473676575
0.01031785939907804 -0.004311157080369585 0.016166278121030764 -0.022550179571727634 0.0034324689012961056 0.009794657297002662 -0.02301039534364844 0.008879965710666484
-0.004042853818918202 0.002381495479987403 0.006133758645544568 -0.0031954598346077977 0.004515403664182548 -0.0010178666262798534 -0.0004951770191911071 -0.0007048490170957561
-0.005642494176448304 0.01146283737138381 -0.006412764914461706 0.007041000451676211 -0.0016011532701123014 0.0016145396627204912 0.013837751701239734 -0.005456292475303499
-0.00023111515668447372 0.004108287867594359 -0.003955571044082689 -0.0032259446421234834 0.00597803703726129 -0.011592992109854039 0.005023585028375787 -0.0001818447370138
0.0352215130889391 -0.043721373721487995 0.030995135796738096 -0.01744263245538069 0.0022199693976339284 0.010510712705324828 -0.024703389528791017 0.021343479681699775
-0.014171772776279073 -0.026138586548443265 0.026866475949366215 0.02466250593628163 -0.005913818990938232 0.006158294859677018 -0.003665457541766676 -0.00546417660440031
0.000734077495824591 0.07987583515077512 -0.18093846485807324 -0.021550138836070983 0.0022154975151349302 0.06563113676852494 -0.019675163970215806 0.032219915474197246
-0.06918913094991358 0.017324086671771842 -0.04385951750842022 -0.061610853068196504 0.003810888717922321 0.028321723934389757 -0.005646811377122477 -0.016646446912114955
0.0033398215994724437 0.05717395787342744 -0.05623172373329843 0.04338835044279404 0.0027569057514190577 0.005636304711816555 0.033782959367330154 -0.022763847066242356
0.018597648435631137 -0.009762239728373952 -0.032045819398023645 -0.023117425989678097 0.0009595710083686539 0.002442232697407858 -0.005773065269665142 0.003876103452383954
0.089966381963385 0.30026406517478865 0.0858146358227199 0.10969293717589822 0.004476680918230527 0.06859297421474359 0.3120934247810537 0.15377275479289992
-0.03464339057956463 -0.038783662167899156 -0.24151040918302272 -0.1076699655177143 0.020119101638406463 0.08858051552862052 -0.14629022615090626 0.004733530223291232
0.10198018275928313 -0.000856041093009081 0.028306602365284556 0.04788567875596874 0.007972683998562775 0.18446994909038653 -0.02781526664019428 0.006443243679701393
0.004911143166161447 -0.028259697905494378 -0.03598963463991829 -0.038323110950191724 -0.016985069116773856 -0.03351848404151979 -0.07477367086501147 0.012206477315238592
-0.001749151033780016 0.013335726179321373 -0.0008530472822201352 -0.0017555307344208494 -0.001410162043927086 -0.009625522934486356 0.0037906283570730624 0.004513576366593391
-0.005916205301653044 0.006572787262963988 0.017867846959399077 -0.0024959036709076734 -0.0001368430479779992 0.001745636246528757 0.00882862232858397 -0.0005082436416753005
0.060293493168705616 -0.02482559316067063 0.016653979817968567 -0.02032440541930914 0.007187874175993467 0.04182747374990282 -0.03865004822175101 0.022655778776877765
0.0038922713211493446 -0.03435287776073746 0.01666642470580116 -0.005336733479970963 -0.0008516669396247247 -0.0028651796718482665 -0.024163095764176797 0.0067767330685472435
0.013823404649776959 0.04989165304684846 -0.025870711947073084 0.016024143352164896 0.003884163632609516 0.004513802601815826 0.015807063208377433 0.00012236873625856004
0.00705756494919369 -0.012190122461786721 -0.006936216981647226 -0.015587945374193737 0.00010489263321521464 -0.0011817064079557825 -0.004454944960818908 0.00573481091092533
-0.003800887487722301 -0.011974419615602848 0.08090827723008008 -0.08974156115412633 -0.0009824493702069517 0.021794825494448607 0.018593227176485212 0.04157457000171799
-0.00786805753937682 0.007325331884225626 0.0432947167893026 0.02918139610018878 0.007470550039212386 -0.013463733745370344 -0.009767754515046011 0.004496088523212957
0.00451561009330398 -0.00033086915720301717 0.024857366202073027 0.009647643135536043 0.0032508214054313804 0.006247385285578933 0.0010542279719850944 -0.0015246578442506301
-0.0025949275239682186 -0.005550699076103187 0.0053261792272249146 0.012635194552391886 0.0014484889694036682 -0.0013731782609789365 -0.0021939756887357463 0.0018255249768719501
