dl_experiments/best_checkpoints/wiki_en_5min_CNN_cuda:0_checkpoint.pt (torch, 80091 bytes, 12 tensors)

block_1.0.weight f8 [16, 1, 3]
0	0xbf805b6731c50e4e	-0.007986837583877773
1	0xbfbf6691052786c7	-0.12265879035796977
2	0xbfb0e9d802d53dd9	-0.06606817311443737
3	0xbe20f64161f379a7	-1.9746291404157055e-09
4	0xbe141ee2981658a4	-1.1711756845142822e-09
5	0xbe1ecc59f85aab70	-1.7926939667254422e-09
6	0x3fb7f638fa843d44	0.0936008082974143
7	0x3fd15301efa6cb05	0.270691379580214
8	0xbfb6e318d115daf5	-0.08940272431014391
9	0xbf9fc660bb81b7bb	-0.03103018898439534
10	0xbfbd8c168b0022f6	-0.11541882413451873
11	0xbfb3f54fb20142e5	-0.07796190353225148
12	0xbfad49cd415e6042	-0.057203687886783885
13	0xbfc568790d0de228	-0.16725075852788618
14	0xbfc9273628965ee8	-0.196509141748485
15	0xbfba8960e728c797	-0.1036587299684285
16	0xbf8db11574f9a075	-0.01449791682462396
17	0x3fcc5627968bdd5d	0.22137923098464798
18	0xbf0281619e56c93d	-3.52962413602436e-05
19	0xbefeb717c287c1ed	-2.9292303368623767e-05
20	0xbf0203e58495f1c1	-3.436130698284161e-05
21	0xbfb217951f112ad5	-0.07067234047387257
22	0x3fbaabf8179815c4	0.10418654037501712
23	0x3fb3212e60907d2a	0.07472505433587587
24	0x3fb9676f7d530ea5	0.09923455056837811
25	0x3fbe9c4cfbf9d74d	0.11957245971447357
26	0xbfd22ac097c885a0	-0.28385939428889095
27	0xbbca59b0eeeefddf	-1.1159809868213657e-20
28	0xbba8fc330dfe9b14	-2.645406082206462e-21
29	0xbbc738ca9fd03861	-9.834832550690964e-21
30	0xbfc2745e379a7fc1	-0.1441762706281207
31	0x3f956b4dd7532728	0.02091714503038769
32	0x3fcd53e113599f6c	0.2291222900851112
33	0xbf9bd40641bc48c5	-0.027175996553588506
34	0xbf9bd6fbab2890cb	-0.02718728286903697
35	0xbf9bd8bb9fde6b60	-0.02719395793210866
36	0x3faf2863a92ef30e	0.0608550209067059
37	0xbfc755573b55f12a	-0.18229189297915954
38	0xbfae7fee02599fdd	-0.059569776331784154
39	0x3fca12015063751a	0.20367447304935454
40	0xbfa4385fec30c60e	-0.03949260481057247
41	0xbfce3ed68d62952b	-0.23629266646927624
42	0xb94aa567e50e465a	-1.0263710756160331e-32
43	0xb92aad96f706b942	-2.5690061180169293e-33
44	0xb9519fc07cd2646e	-1.3577059523083517e-32
45	0xbe66f157802c5d09	-4.2734185986913987e-08
46	0xbe5f70dc17375e8b	-2.9281581116274234e-08
47	0xbe664e976de31776	-4.155002185502762e-08

block_1.0.bias f8 [16]
0	0x3fa9708b1d526eef	0.04968676312384256
1	0xbefcb1634c45d095	-2.7363702217412194e-05
2	0xbfc3fd64355dac9a	-0.15617039304502073
3	0x3fae28b4d007c469	0.05890431441719885
4	0x3fb212058efbd9ba	0.07058748951735697
5	0xbfa05cf80c73f3b5	-0.031959296722539866
6	0xbf5da7cd1706cf18	-0.0018100264388580308
7	0xbfa0f7f46ad86c2e	-0.033141744654323055
8	0x3f982c9b1aa67cc3	0.02360765791092657
9	0xbe509c6f18124056	-1.5470264628852603e-08
10	0xbfa12e7062bab553	-0.033557426502151565
11	0xbf9af78010ddfd2d	-0.02633476355503921
12	0x3fa8c9556f8c01ac	0.048411054483952526
13	0x3f9515b005007b50	0.02059054403809607
14	0xbd1eef9221c05f6d	-2.7476530868272664e-14
15	0xbf314756a6c88f84	-0.0002636515189655619

fc.weight f8 [1, 3056]
0	0x3f7ce654961f7ee2	0.007055597701736112
1	0xbf9af4d939f711b3	-0.026324648058805255
2	0xbf88bb63b5f65ee1	-0.012076167097617442
3	0xbf82d2ef05becbc8	-0.009191386568863438
4	0xbf8c40ebc96032fa	-0.013795702059746773
5	0xbf776fbe4ba2d982	-0.005721801129928374
6	0xbf72f6087fe3e4ed	-0.004629166795205847
7	0xbf8ed241e0722dea	-0.015049471532868137
8	0xbf7e26300c65da2d	-0.0073606373683703765
9	0x3f981b7f18180b49	0.023542390676094347
10	0x3f84c5d5f3f71a56	0.010142966754654353
11	0xbfa0c4811dab8fc8	-0.03274920928177455
12	0x3f905ad50441331f	0.015971496948895877
13	0xbf90857d6e916786	-0.016134223817381187
14	0xbf56423f562cdae4	-0.0013585680505465098
15	0xbfa854f1a0a7389d	-0.0475230702028153
16	0xbf91787cf79a875b	-0.01706118832829105
17	0xbf8e68e8dcf91f1d	-0.014848536723675526
18	0xbf8d9405e2638af5	-0.014442487689341624
19	0xbf8344a570566d69	-0.00940827607228441
20	0x3f6aebca0b4116d3	0.003286261193383358
21	0xbf96be7ebdd093ce	-0.02221105607545209
22	0xbf9a3dd1fc31a52f	-0.025626450555511212
23	0xbf9728b9d44f187d	-0.022616294463454246
24	0xbfa53cb9b77194c1	-0.04147892345717131
25	0xbf7b221480d53438	-0.006624298182328174
26	0x3f852e4b9fae688c	0.010342207727991125
27	0xbfa9cb7acda6b802	-0.05038055191413095
28	0xbf9727dbb5d59fb5	-0.022612984631819894
29	0xbf9c9b73553f4d4f	-0.02793674667175355
30	0xbfa01daeedb12f9b	-0.03147646571650783
31	0xbf8dd2a93d531527	-0.014561960395790564
32	0xbf97cba30a933925	-0.023237750549747766
33	0xbf9a9577b379eb18	-0.025960798577652516
34	0xbf81977defd14b2a	-0.00858972919573871
35	0xbf97fee703e1bfca	-0.02343331299965693
36	0xbf7dbbd7f9c29e5e	-0.007259219794071818
37	0xbf9e763127f4f62b	-0.029747741760038842
38	0xbfa9c06344bae54a	-0.05029592718114857
39	0xbf9f35838edeebe7	-0.030477576823368848
40	0xbf834cf010584b1c	-0.009424090861136096
41	0xbfa5954bc44a015c	-0.042154662810392124
42	0xbf94effa07132be1	-0.020446688348595535
43	0xbfa0dae1d8a380d6	-0.03291993875041192
44	0xbf9f438b59cf3c1a	-0.030531098705804373
45	0xbf84539510f2fe02	-0.009925045566318683
46	0xbfa2c194d4a72436	-0.03663315864429999
47	0xbf950505b64cd48d	-0.020526971103397563
48	0xbf928979e84550a3	-0.018102555085832816
49	0xbf89f0bfc379bcbc	-0.012666223671855874
50	0xbf9073fe72db68a8	-0.016067481766051245
51	0xbf92ee66e39459ac	-0.0184875561145305
52	0xbf97f8d31b4e6ca6	-0.023410128156325392
53	0x3f522b93a351659b	0.0011090223099671007
54	0x3f819401ac4f53ad	0.008583081313114105
55	0x3f98145f16ff4cfa	0.023515210894243112
56	0xbf509a0c83cb345d	-0.00101329061651547
57	0x3f778f47d47bd45f	0.005751877389902209
58	0x3f8fcc73799e9904	0.015526678227456354
59	0x3fa01566eb486e2e	0.03141328451257795
60	0x3f9508b753bbce94	0.020541061864561685
61	0x3f9d96ec462a91d6	0.028896037848100985
62	0x3fa435feb609115f	0.03947444889175488
63	0x3fab39360e993e49	0.053170861513191676
64	0x3facf5fa404fc6ee	0.05656415972761218
65	0x3f9aa26bd07816b1	0.026010212515777457
66	0xbf686762997e2154	-0.002978985383325897
67	0xbf6a7b6926040741	-0.003232674949800535
68	0x3f9548042c910f77	0.020782532901889774
69	0x3f9fe63820c6b5a2	0.031151654243947065
70	0x3f994051931b0513	0.024659418681726452
71	0x3fa1a4b3b0342523	0.03445970083164187
72	0x3f8ad8f75f3aceaf	0.013109142869644456
73	0x3f8690e0f7d34814	0.011018521845844766
74	0xbf79435bd1514c01	-0.006167753851587855
75	0xbf9124e126298894	-0.016742246584165857
76	0xbf97cda3bda9d661	-0.023245390368592193
77	0xbf9688a3cdd6e7d0	-0.022005614698833942
78	0xbfa764223c83f027	-0.04568583477700399
79	0xbf8175afb7533e00	-0.008525250227108039
80	0xbf868101eaa978b9	-0.010988249753776424
81	0x3f81b1953c6b2f30	0.008639493852932029
82	0xbf97556e179826c5	-0.022786827268680882
83	0x3f7be7a1abf41d28	0.006812697916081668
84	0xbf986b9e40a7bea4	-0.023848030754321528
85	0xbf982d8ebdd6bcba	-0.023611288391916153
86	0xbf8d23f564ba1d87	-0.014228741775936594
87	0xbf778bc5e79070dc	-0.005748532356872196
88	0xbf95ac65171346dd	-0.02116544679012732
89	0x3f9dfa68766ed38b	0.02927554343087339
90	0x3f93f45fa77b94f1	0.019486898991904537
91	0x3f960d31ff219c7e	0.02153471107194748
92	0xbf8ac87fc9a338e1	-0.013077734318724445
93	0x3f94f2a5a9a14647	0.02045687530364251
94	0x3fa4be856adaee3c	0.04051606110939729
95	0x3fa5bef94aad6c1c	0.042472639432809184
96	0xbf7cf187b40f8a5c	-0.007066278544672313
97	0xbf74f4dc431278a1	-0.0051163295730970735
98	0x3f7b3cb0baf47a60	0.006649675705630104
99	0xbf8952cc757bed62	-0.012364957175569461
100	0x3f7dc47db12093f0	0.007267466529843766
101	0x3f964b7aadb21784	0.021772305347006263
102	0x3f818e90c2e821c0	0.008572703311998775
103	0x3f5d1821085c990c	0.0017757723412131247
104	0x3f81af53c62e9da4	0.008635191426789764
105	0x3f3a2758458d88b2	0.00039907364912584585
106	0xbf9322abcaafc309	-0.01868694710350652
107	0xbfa15b26d90d863b	-0.033898557658869476
108	0xbf8e4a37f533b2d8	-0.014789998217076869
109	0xbf6061ce3ace25b1	-0.001999762337111043
110	0x3f9a8b46ece6e74a	0.02592192479071479
111	0x3fa135a77f234896	0.03361247469878596
112	0x3f8bde052dbeb83a	0.013607063730742042
113	0x3fa4926226af5466	0.04017931673266943
114	0x3f8d4180b38cb7eb	0.014285092811032704
115	0x3f9684fd2b65c5d6	0.021991687558914418
116	0x3f899392519c7492	0.01248850165898777
117	0x3f7f5378949eccf5	0.007647963540807758
118	0x3f7f849fec1f0301	0.007694840141937887
119	0xbfa1ea0856806174	-0.03498865180899005
120	0x3f6e6b09cdea0c4e	0.0037131492129574345
121	0xbf50f6a3cdc0ec12	-0.0010353660245658908
122	0x3f910b8753c98309	0.01664554070373739
123	0x3f871e8bcd570da6	0.011288730815869407
124	0xbf7644c46c70eee0	-0.005436675338440472
125	0xbf8ef730ab8e72ab	-0.015119915233122802
126	0xbf3bd257a5857a68	-0.00042452468689716536
127	0xbf811874959fce99	-0.008347426239175436
128	0xbf3387f0b7b9bd17	-0.00029801966568406127
129	0xbf90b0451f1fdb03	-0.01629741671055297
130	0x3f724562fdaa0504	0.004460703547580328
131	0xbf75d65e7df10e7c	-0.005331391438690877
132	0x3f941d42d734790a	0.01964287222391995
133	0x3f852ca2893f1aa3	0.010339040578299324
134	0x3f8bf30fc6e871f4	0.013647197015466773
135	0x3f99ce8d3b64321c	0.02520199465748095
136	0x3f8464f5a1e6bc39	0.00995818996747576
137	0x3f9447d9c5ed74fd	0.019805338578739107
138	0x3f8bed064c13bc55	0.013635682293594945
139	0x3f8456280e17888c	0.009929955415774815
140	0x3f98051709c9268c	0.023456916782640877
141	0x3f0cca6f37a4abe9	5.491401585041423e-05
142	0xbf8e6c4a191a85bf	-0.014854983225918937
143	0xbf75594d0056ef1f	-0.005212116991454767
144	0xbf988b3c684c94ce	-0.023968643060602805
145	0xbf8b1e2b38efe0e7	-0.01324113624103558
146	0x3f684c6b5277d468	0.002966127027088695
147	0x3f8d7e1018b0898e	0.014400602105585827
148	0xbf8af4c22684e903	-0.013162152100097751
149	0xbf87e222e219e661	-0.011661789441166083
150	0xbf3693ec15624f58	-0.00034451020963754053
151	0x3f905179dd207a28	0.015935806390297597
152	0xbf810786b53bee70	-0.008315136342836399
153	0x3f52c07ec45bc20e	0.0011445272406797077
154	0x3f9b9841f9d3c20d	0.026948004601708365
155	0x3f2ed024756f87aa	0.00023508496334928342
156	0xbf63db748bb767e1	-0.0024239803585546092
157	0x3f945bb1974cd2a4	0.01988103376352747
158	0xbf7d76b3aa67a202	-0.007193281001015796
159	0xbf931d95a70819ce	-0.01866754371624229
160	0xbf83079ecca20ea5	-0.009291878337769186
161	0x3f941313b2138653	0.019604022735512604
162	0xbf93af39efdc11d2	-0.01922312284934142
163	0x3f8a7e3909bc0f9c	0.012936063394142931
164	0x3f8b8c5c9e23db31	0.013451312614490259
165	0xbf8949524b43b6a5	-0.012346880838289673
166	0xbf818e1a4453bed1	-0.008571820459536113
167	0xbf8ded4264aef39c	-0.0146126925445687
168	0xbf8641e7894fbd4f	-0.010867890241540805
169	0xbf7ec7d43dfc8fb7	-0.007514790602531399
170	0xbf6f28f58c1a2b0f	-0.0038037105412674975
171	0xbf87ba25b11219da	-0.011585516420621046
172	0xbf73aa4b39a00909	-0.004801076744117568
173	0x3f79fae660766fa2	0.0063427924245863816
174	0xbf7d873b82fc1675	-0.007209045855920961
175	0xbf96848eddea2c5c	-0.021990043921089927
176	0xbf99b13f2e226af0	-0.025090205374548924
177	0xbf832c4a42bbb658	-0.009361820375001148
178	0xbf7f73259d19e87f	-0.007678172043251163
179	0xbf98e6e343b767e6	-0.024318266876299698
180	0xbfa023737d178ab6	-0.03152047063828915
181	0xbfb00e53fe3a8419	-0.06271862942459484
182	0xbfb0f759fb5cc52f	-0.06627428423668812
183	0xbfaf36d77504b4d3	-0.060965283426733706
184	0xbfaae3398850008d	-0.052514837159834384
185	0xbfb2d9ffc093046a	-0.07363890124817521
186	0xbfb992503f0c45bd	-0.09988881625419928
187	0xbfb90c6628005c97	-0.09784544445607178
188	0xbfbdd85bdea02789	-0.11658262429423706
189	0xbfc1f32fe88cc317	-0.14023398261044726
190	0xbfbaa311c5993c54	-0.1040507419031525
191	0xa882f01cbebdbc74	-1.5380283751651676e-113
192	0x24af6703c2940f69	5.5301227212205254e-132
193	0x2676e329510563dc	2.1639004742165847e-123
194	0x286e2f0ae822d794	6.128370220304674e-114
195	0xa1e2f6346e0cc9d4	-1.8981487068561648e-145
196	0xa6970a973c552a02	-8.713849984375114e-123
197	0x1a40b22a297ef8d4	3.143430910289603e-182
198	0xa9a490dc9f8ad4b9	-4.3784316694752645e-108
199	0x1d0ba0b67014c1e0	9.150787908768382e-169
200	0x27f57688c8e22608	3.404494266408027e-116
201	0x289d4b496f7f7c64	4.758188466467329e-113
202	0x26678fde99a7a352	1.1138424483006003e-123
203	0x26b681b1088533ac	3.404644784420059e-122
204	0x28389d98c17b87c7	6.247299184641029e-115
205	0xa508e5826796529f	-2.8060186360783218e-130
206	0x29d06ba66cf3b1a6	2.796714579240267e-107
207	0xa355a92a24325247	-1.8189320741405024e-138
208	0x9e67d31db126b72a	-3.309781107999948e-162
209	0x28d4ebfb2e507390	5.43726748201941e-112
210	0x210febb7deaa214a	1.9503186881052996e-149
211	0xa482184007c99015	-7.966433893768533e-133
212	0x25f0c0209f11ac4b	6.186279507138446e-126
213	0x27605b35ebede6d4	5.067299386353854e-119
214	0xa996682eedf5bbe8	-2.385199043458211e-108
215	0x25e92cd5625b6d5e	4.648828921617658e-126
216	0xa360e2afc7f8308e	-2.835866536448132e-138
217	0xa704da84ba973d8e	-1.009467942994116e-120
218	0x24f5b7b603a096ff	1.2238667659291351e-130
219	0x28671b788eed985f	4.6916003634314355e-114
220	0xa901bb6f0a683cc1	-3.6866620282629605e-111
221	0xa235571612cb7d84	-6.835970360733136e-144
222	0x2560baeed90fddaf	1.2067940920026428e-128
223	0x25cdbb100327e58b	1.3725151907370962e-126
224	0x9f7faeba91f8faab	-5.769021882359149e-157
225	0x2333b5e85c1aeec4	4.137912900304559e-139
226	0xa478bdd43d844b19	-5.446384503840298e-133
227	0xa22100e132e461a2	-2.7233833838449847e-144
228	0x263e9e9089432433	1.8093324823686236e-124
229	0xa6fd70f28ded3467	-7.125859830674199e-121
230	0xa9a59c9677b47b0b	-4.601081349738241e-108
231	0x9e736e02fd060af4	-5.398451155734199e-162
232	0x25e02644d01fbd1e	2.982157456033244e-126
233	0xa975d9ec16c745a7	-5.815111370077156e-109
234	0x1de7cbb3c450f073	1.291311683281546e-164
235	0xa1fd3b2ed9aa084b	-5.852325859399911e-145
236	0x25a181d2a2750c41	2.020535839926997e-127
237	0xa1fbcc82d2932899	-5.5655650082312594e-145
238	0xa092a456e7d117a1	-8.898433471897851e-152
239	0xa627a12015596d02	-6.98143059863653e-125
240	0xa537440d0910004d	-2.0977817835422453e-129
241	0x27f014bf0678377e	2.550796483270258e-116
242	0xa5ade0bf988324b5	-3.4482778624520005e-127
243	0x205f9c59561231c9	9.430546239215877e-153
244	0x2822ae7d6c8fcf1e	2.3706408788300583e-115
245	0xa4779c4891fc36f9	-5.197407687839566e-133
246	0x205e3de1b873d651	9.022123714713332e-153
247	0x22622479c545a636	4.649313108827201e-143
248	0xa2c90cf141047b95	-4.1085579411508625e-141
249	0xa313220d446ec41a	-1.0041658121281356e-139
250	0xa5a88c2ae6dfa696	-2.833085202448155e-127
251	0x2321ea543c3719a0	1.8805169863807817e-139
252	0x26490cf79867b927	2.960539437520818e-124
253	0xa0855b846aae65b5	-5.097325828161995e-152
254	0xa342f58941838fcc	-7.960316059331252e-139
255	0x26606764730c8323	7.754580011381827e-124

fc.bias f8 [1]
0	0x3fd461f101e7ae01	0.3184778708079819

exp_avg f8 [16, 1, 3]
0	0x3f93ce417f6c1b60	0.019341491129149957
1	0x3f9008ce37baca99	0.01565859046122373
2	0x3f9051834eed5f38	0.015935947124801703
3	0xbd830b7d8f660fea	-2.165152710160807e-12
4	0xbd76a9c88348ad00	-1.2882546703248246e-12
5	0xbd814ce56b5f5acf	-1.9668250004762973e-12
6	0xbf9a608db165ac98	-0.02575894732710235
7	0xbf9bf87b86602ba5	-0.027315073086395043
8	0xbf9815eb3c48f98e	-0.023521113924510888
9	0x3f8f1b778f96ff11	0.015189107961191025
10	0x3f8a06a0575b1e66	0.012707951227084634
11	0x3f846d72d8104369	0.009974381655440916
12	0x3f50ffb46a54a4f0	0.0010375272625629504
13	0x3f44f902d08150e7	0.0006400359861893607
14	0xbf24de9bef1807a3	-0.00015922215929725395
15	0xbfa68754b89fadca	-0.04400124314983207
16	0xbfa6d3a9dd906815	-0.0445836146320319
17	0xbfa72f6d6df7ac48	-0.04528371779800772
18	0xbe6399b28149da58	-3.650855276854247e-08
19	0xbe60488fd8f101f1	-3.033027972570278e-08
20	0xbe63155abd621f72	-3.554563192490393e-08
21	0xbf9c6f7a12fa68b7	-0.027769000442824345
22	0xbf9c84ab1407b68e	-0.027849839303533623
23	0xbf9d7e75d1130c6d	-0.028802719961060697
24	0xbf6724d635f30dc0	-0.0028251823237910034
25	0xbf4cede14f6b4340	-0.0008828497073754896
26	0xbf5b43d36e0bb287	-0.001664120172956947
27	0xbb31c826b913aaec	-1.470879401938097e-23
28	0xbb1115b5a7aceb32	-3.533054470311279e-24
29	0xbb2f6029cbb5d3e1	-1.2976659627648268e-23
30	0xbfa79c7f799a4b9a	-0.046115859598237566
31	0xbfa8b41061bdd883	-0.04824877923140127
32	0xbfa90ff21ab8c7b4	-0.048949781190813196
33	0x3f3e7aa54d731c23	0.00046507392603384513
34	0x3f3df75ea2a6b740	0.0004572492640829602
35	0x3f3f44073d789364	0.00047707726250428005
36	0x3f986c5de5e98b31	0.02385088649533457
37	0x3f94c481dabf6562	0.020280865646645004
38	0x3f93490d7c278158	0.018833361342218552
39	0x3f83ce57b82ef76a	0.00967091112931558
40	0x3f7aacec1e712208	0.006512567843920632
41	0x3f7f01f3f5137418	0.007570221861183966
42	0xb8bc45945880d46a	-2.126933446755375e-35
43	0xb89e7111efb81179	-5.725443647424257e-36
44	0xb8c25079b43c60b4	-2.755638177114332e-35
45	0xbdc958e641e021d5	-4.6106403620744676e-11
46	0xbdc1683ed869e20c	-3.166352861476835e-11
47	0xbdc8a6537d14abae	-4.4837563900519925e-11

exp_avg_sq f8 [16, 1, 3]
0	0x3f69b5917a49e573	0.003138336311448492
1	0x3f6417e4ef72797e	0.0024527999299401295
2	0x3f62b4e74f957b47	0.0022835271635552076
3	0x3e503338040a900c	1.5087494145208407e-08
4	0x3e4e8c3679156019	1.4224884189548081e-08
5	0x3e50053f257d7d1f	1.4920248452853804e-08
6	0x3f8d3dbac651067a	0.01427789609636253
7	0x3f8f8ea3313036c0	0.015408778132065648
8	0x3f8a066d3d94fe08	0.012707570497354062
9	0x3f65fd1ef497503c	0.0026841740225141113
10	0x3f628f76c5a951a7	0.0022656745689266402
11	0x3f5fa4776adb0294	0.0019313017068471093
12	0x3f3e3d428f372e56	0.00046141505228256463
13	0x3f3a6e903f701a0e	0.00040331861185941085
14	0x3f30c7b79982ef95	0.0002560446969359584
15	0x3f92eacff042b1d7	0.018473862685526612
16	0x3f92fc30dbfcc04a	0.018540156771621498
17	0x3f94d08943922980	0.020326752423480254
18	0x3e799fa5050e8fc2	9.545539226982337e-08
19	0x3e782b75e66a6b90	9.003940136047634e-08
20	0x3e7974e2e17fa4ee	9.48331763114508e-08
21	0x3f90a26dfa85a226	0.016244619765901323
22	0x3f92dcec416c1d96	0.018420878880559842
23	0x3f91c8e319a5dde7	0.01736788600962127
24	0x3f63cd0a2e7a61ba	0.0024171065195554816
25	0x3f644f05db1fcae6	0.0024790872930621098
26	0x3f5e34ff2be7ca2f	0.0018436901005968278
27	0x3e27fd89b0cd9174	2.7928480694980377e-09
28	0x3e26a87602f7f36f	2.637744265847052e-09
29	0x3e27df7ecdee6c3b	2.7791863111646592e-09
30	0x3f919a0131276032	0.01718904364119584
31	0x3f9220265fa2ea63	0.017700767123395866
32	0x3f937e2dcf0d6e33	0.019036021959762017
33	0x3eb52e41ad797d4f	1.2624674833523681e-06
34	0x3eb47f997ccdc2fc	1.221801983333238e-06
35	0x3eb63d62721fabf4	1.325594390251146e-06
36	0x3f6ac6bfd40db7c7	0.0032685991904406217
37	0x3f63aba2b7d615d6	0.0024011781776518233
38	0x3f63346b269f784e	0.002344331053776328
39	0x3f643c673b401614	0.002470208763045498
40	0x3f6128dad43fbf88	0.0020946763997855035
41	0x3f5e4bf5cd4f4a69	0.0018491650018758415
42	0x3e168cd0a76b1e5e	1.312586176619002e-09
43	0x3e1609dbba138ee7	1.2828100598313826e-09
44	0x3e16bd6aab405699	1.323636905814917e-09
45	0x3e56c7dc567aecf6	2.1216185612803375e-08
46	0x3e559f0dd6a90e0f	2.0136409354408234e-08
47	0x3e56ad17e24e1014	2.1118806387273194e-08

exp_avg f8 [16]
0	0x3fb5e5668cbf0d5f	0.0855316251391307
1	0xbe5e7f7abbd44c1d	-2.840344469786018e-08
2	0xbfa7cb46af326587	-0.046472748648009925
3	0x3fb34893ba5a4787	0.07532618808389034
4	0x3f82ed6129098edd	0.009241828026638138
5	0xbfb62cfd900805c5	-0.08662400022878732
6	0xbebec45b002c8938	-1.8338569140537998e-06
7	0xbfaa512fe037ae0b	-0.05140065776853583
8	0xbf8672c5d0679bf4	-0.010961099073893955
9	0xbdb25e83c8973ce7	-1.6706688581970375e-11
10	0xbfbdbdd8e8a6f9eb	-0.11617808990465732
11	0x3f5482b8026d2218	0.0012518689124637657
12	0x3fb7fedfc959d0d3	0.09373282113830621
13	0x3f939f6fa14fd5bb	0.01916288778371265
14	0xbc8280c74ac36175	-3.209765952204597e-17
15	0xbe922ddc544e909e	-2.708903433185254e-07

exp_avg_sq f8 [16]
0	0x3fb45dafbb91a27d	0.07955454186743256
1	0x3e7537c26987455e	7.904250266053175e-08
2	0x3fa3d6b247234a03	0.03874737852460799
3	0x3fb3d8c0d8970a11	0.07752614295808537
4	0x3f985ff1606155bc	0.023803493030148934
5	0x3fb62e80b729b322	0.08664707633733973
6	0x3ea42842f4c67e37	6.00733508760533e-07
7	0x3fb5190bd7186eae	0.0824134254584645
8	0x3faf9ed6f95be685	0.061758726062135096
9	0x3e5649728caee055	2.075629694137718e-08
10	0x3fb4aba57a6b4c9e	0.0807441161990021
11	0x3ee2520c1b282a16	8.735893833229857e-06
12	0x3fb4b2ac54522138	0.08085133608449702
13	0x3fa90d2775b934ee	0.048928483124294306
14	0x3e3b1eaf9281252e	6.314335977759455e-09
15	0x3e838c8206250066	1.45650349623122e-07

exp_avg f8 [1, 3056]
0	0xbf59f0880cf2d08b	-0.0015832260722108717
1	0xbf510a45339a4589	-0.0010400462910279149
2	0xbf551bedc3fe7219	-0.0012883970193576842
3	0xbf52051ea8e3edfb	-0.0010998534594922605
4	0xbf4feefbc8388509	-0.0009745339779706773
5	0xbf54c70982731858	-0.001268157278717227
6	0xbf57802b50b09746	-0.0014343665122935208
7	0xbf51ccdfe84e3da1	-0.001086443576443809
8	0xbf3ab88ea0bae1a8	-0.00040772897839815936
9	0xbf61824a9473f9c3	-0.002137323058945402
10	0xbf4a17016b82c1ce	-0.0007961995061319062
11	0xbf53ed855fa4fae6	-0.0012162973858519887
12	0xbf549c213d952511	-0.0012579273810209882
13	0xbf4e0a3aea7b89ae	-0.000916746871521481
14	0xbf4fc72103098fc4	-0.000969782942842994
15	0xbf51ea20eb85061d	-0.001093418262897556
16	0xbf454f23ca7724fa	-0.0006503033409269992
17	0xbf3d2decd4092c13	-0.00044524223270475774
18	0xbf211f188242f6ad	-0.00013062643222909922
19	0xbf5138eb85cf0e50	-0.001051168444278345
20	0xbf0a037e00ce35c9	-4.9617083369129e-05
21	0xbf53239369404142	-0.0011681499063379151
22	0xbf2f2c0391510608	-0.0002378229479820667
23	0xbf3f1045801e91d9	-0.00047399231709224565
24	0xbf5919131d8e2df7	-0.001531857173378335
25	0xbf54797e0bfd3caa	-0.0012496691633321713
26	0xbf2d9564a8b103ac	-0.00022570470568619488
27	0xbf5b5ca3a6b4962b	-0.001670036140077778
28	0x3f2cd63859305ceb	0.0002200073036824132
29	0xbf3a2675252d5d98	-0.0003990207671242473
30	0x3f3c298fa567b598	0.00042972332940290894
31	0xbf36b042cc4d287c	-0.00034619932948898985
32	0xbf400bec2b3729b7	-0.0004897025268573639
33	0xbf38e8ae4502e0d6	-0.0003800797903852465
34	0xbf54e6b297c88c46	-0.0012757057257963985
35	0x3ef9ee4915c457f7	2.4729540528310692e-05
36	0xbf45931025683e22	-0.0006584004248128587
37	0xbf3b16381334a1b5	-0.0004133116628559878
38	0xbf49186fb262b1c8	-0.00076585248895849
39	0xbf4e6bd89b287297	-0.0009283836028007472
40	0xbf53779f9cf9c524	-0.00118818843102659
41	0xbf3feb797eab2122	-0.0004870578401719052
42	0xbf5293f2b89ce692	-0.0011339063953087797
43	0xbf53930ce8c9815a	-0.0011947275226234706
44	0xbf41523b40cda783	-0.000528601581760699
45	0xbf5026e9916204e4	-0.000985839933065607
46	0xbf430d14b9e31e01	-0.0005813933564917108
47	0xbf271bf95e357e24	-0.00017630976717962585
48	0xbf110df622ede9bb	-6.50578956377439e-05
49	0xbf2c5dc89b501111	-0.0002164180165494874
50	0xbf41b9ad8a402cf2	-0.0005409333575711313
51	0xbf3f756d3e55822b	-0.0004800216396088376
52	0xbf38794eef26f87a	-0.0003734414778157124
53	0xbf39761a5cf3f800	-0.00038850921278299477
54	0xbf27094fa244adf6	-0.0001757535657217338
55	0xbf4d1d8799930003	-0.0008885299786456361
56	0xbf16d1046988355d	-8.703793935912114e-05
57	0x3f294aab666eef7a	0.0001929601887392626
58	0xbee5cb350b74f861	-1.0392083238938169e-05
59	0xbf364426dd0d6789	-0.0003397555238301366
60	0xbf3783c9f2de1923	-0.0003588073767492197
61	0xbf479d03560fcb39	-0.0007206217088636453
62	0xbf2d1534a7a99731	-0.0002218844200171876
63	0xbf25980357d75f35	-0.00016474762735074205
64	0xbf419327bd9edcc1	-0.0005363410993969518
65	0xbf1c04aedd855372	-0.00010688130658327385
66	0xbf4ce0f076093ae7	-0.0008813070417746622
67	0x3f32ae70fa02b621	0.0002850557157313156
68	0xbf21d5735e07f258	-0.00013606103222220628
69	0xbf43dd7e503cbfd9	-0.0006062380566387262
70	0xbf3adde674f91deb	-0.000409954799554828
71	0xbf35593f73c2abba	-0.0003257541573115603
72	0xbf3e69d89c5cc871	-0.00046407259320625007
73	0xbf4a76b47e8d3a88	-0.0008076077766448623
74	0xbf38faa843c9215f	-0.0003811512758926851
75	0xbf29508e3cda1d91	-0.00019313560772025705
76	0xbf47edf24a4115c0	-0.000730269723597736
77	0xbf4ba97dbd4c3f82	-0.0008441795313007679
78	0xbf4e9b432caa9bdd	-0.0009340360641844032
79	0xbf341d6607f84aeb	-0.0003069280719227146
80	0xbf2e3ce531fc84ec	-0.00023069665712064453
81	0xbf407d18617c41cf	-0.0005031937643896147
82	0xbf27991db8c91d63	-0.00018003928961916456
83	0xbf34834beee40414	-0.00031300166928366455
84	0xbf4467cb4673b255	-0.000622724776716386
85	0xbf3c8febe7f67226	-0.0004358244841229673
86	0x3efac37c9c88fe4b	2.5523777170242863e-05
87	0xbf51308b9672fe0f	-0.0010491717492157081
88	0xbf31c5211bb20cb7	-0.00027114923768340897
89	0xbf3002c647234d0c	-0.0002443059994565323
90	0xbf0912eacd664e8e	-4.782465991861911e-05
91	0xbf3517b5def5a6fe	-0.00032184782226939146
92	0xbf4119bf48636e05	-0.0005218681333433733
93	0xbf31834629dce887	-0.0002672239587472387
94	0xbf2d4e3064dddb7c	-0.00022358265635677086
95	0xbf10733337866c53	-6.275177100294295e-05
96	0xbf491d510f003f95	-0.0007664342683728504
97	0xbf44ce44bfb5866b	-0.0006349406898317871
98	0xbf322bd4cea967f4	-0.00027727075090455623
99	0xbf30fd40736b65b0	-0.00025923560626280994
100	0xbf030b856d52597b	-3.632546364789026e-05
101	0xbf35ff1a4e163466	-0.0003356398793464332
102	0x3f22210cdb43093c	0.0001383140748939057
103	0xbf456f833f5ad557	-0.0006541624886355163
104	0x3ebf1d68ce323355	1.854591396707746e-06
105	0xbf1b87de24177fb0	-0.00010502141324009065
106	0xbf44d56a07ac57bc	-0.0006357925152282655
107	0xbf48ba7161f04760	-0.0007546476007311669
108	0xbf53dc5ea89ac93e	-0.00121220821385444
109	0xbf4c4709f95d0319	-0.0008629606915989434
110	0xbf536616bc99b76d	-0.0011840078390394596
111	0xbf51732159df0125	-0.00106504685344084
112	0xbf45b17df1205861	-0.0006620278311426747
113	0xbf52d677906b89ba	-0.0011497657412112687
114	0x3f19e238bf26f867	9.873839716243033e-05
115	0xbf51e7632639ec06	-0.0010927646880236632
116	0xbf459c833f3f816c	-0.0006595269064711257
117	0xbf4ecf433c4a64f7	-0.0009402349756612295
118	0xbf5adcf8af21e65e	-0.0016395977550288858
119	0xbf54257b791e6498	-0.0012296396057307809
120	0x3eed264e00ab40a8	1.3899625647268162e-05
121	0xbf51c07979bff072	-0.0010834871563920848
122	0xbf53a89031ddae8a	-0.0011998565819010564
123	0xbf53dedcb2e2fa28	-0.0012128024350627296
124	0xbf4f8f398af7f046	-0.0009631186457563854
125	0xbf57cebae9136e01	-0.001453096894968975
126	0x3f34978707b8d5b7	0.0003142075217711054
127	0xbf427377f95f80e9	-0.0005630813418484845
128	0xbf275aef7bc1b494	-0.00017818616277357326
129	0xbf4ff0a2b55642ea	-0.0009747309183457374
130	0x3f2293bc1b8b45c6	0.0001417319415595709
131	0xbf4ffd25d3958338	-0.0009762224864680929
132	0xbf4db4d4fe08baed	-0.00090656662002239
133	0x3f2f8c99847e0dc3	0.00024070142739783363
134	0xbf48f07f864246cd	-0.000761091487691179
135	0xbf398352574e3f78	-0.0003892971065448873
136	0xbf5a2c02e0914cca	-0.0015974071595977074
137	0xbf488094c92cc576	-0.0007477499478680111
138	0x3f4307a5ad704d3f	0.0005807455989973799
139	0x3f2192bff7aa0bca	0.0001340731940509806
140	0xbf3b7c7b9ba9c237	-0.0004194070603836005
141	0xbf4d3412ad863a34	-0.0008912173462237217
142	0xbf4746903a04dac1	-0.0007103161079048058
143	0x3f233bde5f15e6bc	0.00014674272055597247
144	0x3f267e5a7044f06f	0.00017161230074147794
145	0xbf4180d7f12f72dc	-0.0005341581730778605
146	0xbf4107368c498c9c	-0.0005196586940424855
147	0xbf2c7a85a180f118	-0.0002172744868874719
148	0xbf0060fb0ad7dcea	-3.124014015648011e-05
149	0xbf436bda82bb85e8	-0.0005926911303186207
150	0xbf50337db1558f08	-0.000988838907994118
151	0xbf346d3312ad0622	-0.00031168457887895313
152	0xbf5a2fa5d9c4cef6	-0.0015982741961808023
153	0xbf495708364d6a76	-0.000773314485381717
154	0xbf5e7523805a9c9e	-0.0018589827244939526
155	0xbf512eabc682749d	-0.0010487248892226194
156	0xbf638864f844f158	-0.002384373861927507
157	0x3f325f865ba57b1a	0.0002803519270368357
158	0x3ef690018e520b03	2.151729940581393e-05
159	0xbf3a17a3dda3a32d	-0.0003981375754294355
160	0xbf575be36c960474	-0.0014257164897062665
161	0xbf61a3c007fc74f0	-0.0021532774552627185
162	0xbf4ec27e3c4ed04d	-0.0009387127289444214
163	0x3efc05789cc78469	2.672326245256978e-05
164	0xbf5bd922b435006f	-0.0016997183709719606
165	0xbf59b8c734ece474	-0.0015699334505383774
166	0xbf4a9e08e2d8e706	-0.0008122962369221116
167	0xbf4974223985e287	-0.0007767836678303643
168	0xbf56e25db946f1f9	-0.0013967433234106637
169	0x3ef6571c717496b4	2.13053491197243e-05
170	0x3f51e39349b2e716	0.001091855846239336
171	0xbf6027446174fca4	-0.001971849018132925
172	0xbf62ee22543e6e4b	-0.002310816811542248
173	0xbf33fd3ea79187ba	-0.00030501155521822263
174	0xbf264043027c6ebc	-0.00016976182927740623
175	0xbf5a39ce10ce0ed8	-0.0016006958350950808
176	0xbf62440a20674db2	-0.0022297094139760104
177	0xbf56dbca4f72440f	-0.0013951755225074557
178	0xbf5068212ef49875	-0.0010013889366944616
179	0xbf47e8df64bc89bb	-0.0007296648777564344
180	0xbf4a1d0e4345faa6	-0.0007969207422745164
181	0xbf588f8b7733d501	-0.0014990674943054507
182	0xbf487b4e2c57dd1a	-0.0007471210198549988
183	0x3f423bafaefc1833	0.0005564315633541705
184	0xbf5a607a01d6278e	-0.0016099158741291505
185	0xbf434a75b36a49b9	-0.0005887102805266976
186	0xbf5d1e43fa9522d0	-0.0017772353988495977
187	0xbf1642d52893e024	-8.49192239406054e-05
188	0x3f4da7ffb720375b	0.0009050367937122149
189	0x3f191dc88e92e8a9	9.581123926497244e-05
190	0xbf5a8d4786f561c6	-0.001620597697032365
191	0x27ee598c35a8c409	2.407063006475952e-116
192	0x23fb7a9d005e189f	2.3628830262880584e-135
193	0x25d056aaeb4daa94	1.508534414255566e-126
194	0x27ba0b312b262f43	2.5819314084326266e-117
195	0x21336e4316c757df	9.49753379249585e-149
196	0x25e84d8f93ad609d	4.487776427403758e-126
197	0x998d0d047157e425	-1.3353389397025703e-185
198	0xa918097aa07f5821	-9.994989970125352e-111
199	0x1c46a1482774cf1d	1.8299414143838056e-172
200	0xa755b7bef9c86233	-3.364160531857394e-119
201	0x2800975d57618040	5.263459157063912e-116
202	0x25f64791ed336644	8.228271889349876e-126
203	0x2633e46a9bd95f4a	1.1754543027157835e-124
204	0x276aa9c24f5dab13	8.26043100225687e-119
205	0x2443ddcf4c3d71fa	5.466534376755508e-134
206	0x29374ba695459dea	3.8746620552362143e-110
207	0x22a1005444701c9d	6.970979723590299e-142
208	0x9d91a5af66b6518b	-2.992667025048045e-166
209	0x283ee8811d92d602	7.84432650267944e-115
210	0x208b293555284cb5	6.482424613125112e-152
211	0xa3d82a06164d7051	-5.19461766722318e-136
212	0xa54fb6b4d60ae12b	-5.718982125278795e-129
213	0xa6e1362a8f00c30f	-2.082920382584843e-121
214	0xa911edcc53c9a0c8	-7.455130085501004e-111
215	0xa5e8e2a0a4bbe777	-4.595302157447519e-126
216	0xa2d94d099c4f1a0c	-8.299243115759982e-141
217	0xa62179a516c2119a	-5.163133438357063e-125
218	0x246e14401d9716f0	3.3106770259510555e-133
219	0xa7c13857c3e2f97f	-3.414342562392592e-117
220	0x286568914a218565	4.346675514186689e-114
221	0xa14db29213fba2cf	-2.9031711794020944e-148
222	0xa4aa0cab64584aa5	-4.5874478594644416e-132
223	0x2544c7ed47f1b3b2	3.7474648378198975e-129
224	0x1eb08ed5b1534c26	7.360864843229508e-161
225	0x22b1134713d60ec0	1.4002657728417452e-141
226	0xa3b346395dd85ac9	-1.0358595659871546e-136
227	0xa181da20062b11b6	-2.7922882671537614e-147
228	0x25cab3904e579c15	1.232668231254098e-126
229	0xa65414d581d03d73	-4.7465210510805106e-124
230	0xa9189f3ccd692b30	-1.023824011868242e-110
231	0x9de31667c1235ec4	-1.0358142961183464e-164
232	0xa537d63cad6ac215	-2.1492700171199338e-129
233	0xa8dd99fe6a126416	-7.693003009294749e-112
234	0x9d69f7aef66314ef	-5.504562164015013e-167
235	0xa161efe4ef0c2e61	-7.013972395319972e-148
236	0xa51a464919e052c5	-5.922665659936825e-130
237	0x2155203ca892e3ce	4.130454928130191e-148
238	0xa00ed39674da25ca	-2.8739331118071136e-154
239	0xa5812d61cda4f49e	-4.956168748501341e-128
240	0x2499a169dc63d77f	2.256832671337585e-132
241	0xa755511c2da69766	-3.3020563033788483e-119
242	0xa50b7cc444ba78a9	-3.0980260961881696e-130
243	0x1fbd3c3e27be53bf	8.51746107058916e-156
244	0x27800169f46dfa08	1.983451485814994e-118
245	0xa3e111480e7a00c3	-7.338072900140261e-136
246	0x9f8ff73ab8fa4fa5	-1.1641180617365851e-156
247	0xa1e1835da81ac475	-1.7531388614145706e-145
248	0xa233e937b2d62d38	-6.378158209083382e-144
249	0xa2781ce350c0bbaa	-1.2358634615038248e-142
250	0x252a62b69f9dcd5b	1.189539416173393e-129
251	0x226b3d8756846307	6.980791925881219e-143
252	0x2595d8363ef9051e	1.2605657442368246e-127
253	0x1fbd19df9068c98c	8.478346779670066e-156
254	0xa291253a1d0eafaa	-3.5150388757575925e-142
255	0xa5e007423d406778	-2.959789084019272e-126

exp_avg_sq f8 [1, 3056]
0	0x3ee6d7f0c275efaa	1.0892637944285986e-05
1	0x3ee478f870f308be	9.7620682296722e-06
2	0x3ee4f4490bc061eb	9.99176005937824e-06
3	0x3ee4881cfe8b46b1	9.79027386574806e-06
4	0x3ee5456867d3b42e	1.0142862488094354e-05
5	0x3ee59f36178459ed	1.0310134471097773e-05
6	0x3ee5975c15bde181	1.0295509745836914e-05
7	0x3ee4556fb9f2b1ea	9.695880918003105e-06
8	0x3ee48b91c6ad0112	9.79671150036545e-06
9	0x3ee43a69bd195822	9.645545932784246e-06
10	0x3ee569741c59d5ef	1.0210002879799749e-05
11	0x3ee43d0d7817ec3c	9.650462518875668e-06
12	0x3ee416d969bf55cf	9.579303245669822e-06
13	0x3ee43f43475858f7	9.654579325374115e-06
14	0x3ee4a723198bae38	9.848060288550957e-06
15	0x3ee31734c9b4f11c	9.103130926939799e-06
16	0x3ee35c6d455f8819	9.232064410672661e-06
17	0x3ee3972a7e80c893	9.341474609046273e-06
18	0x3ee3e04956d55c02	9.477672132147608e-06
19	0x3ee271e7f47dbf41	8.795235444586057e-06
20	0x3ee24a7c6f8ef428	8.7218099781243e-06
21	0x3ee24140daff5a32	8.704612667926029e-06
22	0x3ee23a4a0839ca8b	8.69164092096488e-06
23	0x3ee14799bd5e995d	8.239598098769183e-06
24	0x3ee0c20f5c452e4a	7.9908594520429e-06
25	0x3ee0a3dd55a0e8a3	7.93461611091714e-06
26	0x3ee0e612b9bd24b0	8.057939161825546e-06
27	0x3ee172c939315db9	8.320037329464081e-06
28	0x3ee054d9e2033de8	7.787442030253924e-06
29	0x3ee0f9624452ed8b	8.093908159137786e-06
30	0x3ee089e966a508e2	7.88627513215564e-06
31	0x3ee097062becc957	7.910698852951646e-06
32	0x3eddf4dca22cd9a8	7.142184162137201e-06
33	0x3edf2af1be235c0a	7.430970955200041e-06
34	0x3eddc5f5baff0fbc	7.098503303330032e-06
35	0x3edc799c057f5f93	6.788977849191043e-06
36	0x3edb2ee5bc1a1d31	6.48097824441163e-06
37	0x3edb1b5118f0f17f	6.4627423759757354e-06
38	0x3edaa692920c5a02	6.354015824403069e-06
39	0x3edbf492eeb50a45	6.665078881087367e-06
40	0x3eda5b957c101d24	6.284177232813372e-06
41	0x3eda08bc3533d798	6.2070183333064e-06
42	0x3ed9d6da437a0721	6.160561546787893e-06
43	0x3ed845803fe0e411	5.786773725141075e-06
44	0x3ed7f662bc292601	5.713091868539325e-06
45	0x3ed5cb610ba7e54b	5.196201693363527e-06
46	0x3ed6f01a7e3c229c	5.468822539496942e-06
47	0x3ed54602e5156876	5.0719932727876255e-06
48	0x3ed5cf83951908d4	5.200052628108991e-06
49	0x3ed4d7bff0d2a836	4.969304211824681e-06
50	0x3ed611c34590254b	5.261751618420889e-06
51	0x3ed45406e7ae5287	4.8466277985560675e-06
52	0x3ed550052645e3a6	5.081314700888198e-06
53	0x3ed345103154a601	4.594273169269883e-06
54	0x3ed37f1f0df96f08	4.648343945836337e-06
55	0x3ed44f4d5d121ffc	4.842227512409644e-06
56	0x3ed3d99d6df4c4c7	4.732622726864514e-06
57	0x3ed4439bcdbe3639	4.831337005029679e-06
58	0x3ed423b3065055fe	4.801619160073928e-06
59	0x3ed5178d5c535535	5.028724847385304e-06
60	0x3ed4d995ef38a790	4.971014039104301e-06
61	0x3ed4a797208b867f	4.924452249284471e-06
62	0x3ed47554330a61df	4.877642638810981e-06
63	0x3ed5df39b79017d9	5.214685068649258e-06
64	0x3ed429c9d25132cd	4.807290030117619e-06
65	0x3ed3d5cafc5c362f	4.72906316929598e-06
66	0x3ed4f9e1dacf2d35	5.001092557809039e-06
67	0x3ed5d739f9e83c56	5.207235430861639e-06
68	0x3ed47232c29980c9	4.874727019904716e-06
69	0x3ed5895fe0a456d8	5.134730154195923e-06
70	0x3ed4cd011a740643	4.959296723729104e-06
71	0x3ed651339ee496fa	5.320833663701716e-06
72	0x3ed6bdec36120211	5.4220880382209775e-06
73	0x3ed622e2ad1869e7	5.277698350814801e-06
74	0x3ed62a20af50f9a1	5.284443195084649e-06
75	0x3ed6da45cdbfe5c2	5.448491005915906e-06
76	0x3ed71b79608bec48	5.5092145962955515e-06
77	0x3ed63a5cc2d7c0b6	5.299562912494825e-06
78	0x3ed4a9c03b761d29	4.926464434069295e-06
79	0x3ed586e801c854ff	5.1324314225460474e-06
80	0x3ed77db30fdb0dfb	5.600694064692136e-06
81	0x3ed507a65da1f40b	5.0139146542368e-06
82	0x3ed47c97cb608708	4.884407806245298e-06
83	0x3ed592889d7523d5	5.143260259751202e-06
84	0x3ed579d0c2d8e546	5.1202396611991e-06
85	0x3ed4e14e9d745a0c	4.9782051612296955e-06
86	0x3ed559ccd470fc08	5.090423036923336e-06
87	0x3ed4cd597a8d29ed	4.959618231501693e-06
88	0x3ed5981c5bb33fdf	5.148454359019089e-06
89	0x3ed464e26bd5a37e	4.862327555123982e-06
90	0x3ed3f1180ea071e4	4.754489262761834e-06
91	0x3ed4bdaab328a376	4.945012551029666e-06
92	0x3ed4df1e587dc45f	4.9761669130714045e-06
93	0x3ed4eeb3f5a54c1c	4.990681043831452e-06
94	0x3ed48ded8c77c6b7	4.90055226219789e-06
95	0x3ed4e8a910c2c62e	4.985053475946252e-06
96	0x3ed4143f21f95e37	4.787227708989318e-06
97	0x3ed45aa2c324297a	4.852782739437457e-06
98	0x3ed51c3e3cb39b5e	5.0330936105295545e-06
99	0x3ed66c461a7a48f2	5.346046613079744e-06
100	0x3ed55ae4c6216d6b	5.09144146762105e-06
101	0x3ed5f083a7bea886	5.230786538060655e-06
102	0x3ed64c669b9f7e1c	5.316362541279574e-06
103	0x3ed49e532610bb65	4.9158230420027765e-06
104	0x3ed5cd5683a07b64	5.1980260256369034e-06
105	0x3ed707d4796cdf40	5.490919554422384e-06
106	0x3ed61d7aaa9013ec	5.272663352155916e-06
107	0x3ed6292755b792b3	5.283536065080088e-06
108	0x3ed6cf87b04394c8	5.438486145180675e-06
109	0x3ed72d70e268c7ad	5.5259475062896515e-06
110	0x3ed8c5fcb01d3db4	5.906435719029769e-06
111	0x3ed862f47cf611b5	5.814204953384315e-06
112	0x3ed8e718bec1e66b	5.937271435491058e-06
113	0x3ed9509d0f0a19cf	6.035541659904543e-06
114	0x3ed988180abecdc9	6.087211811878426e-06
115	0x3edad5757369a5ce	6.397682048667068e-06
116	0x3edb45959c3eb4a9	6.5021071726071136e-06
117	0x3edb8a8b6a813483	6.566331343616234e-06
118	0x3edc6da15ac89a49	6.777821380177389e-06
119	0x3ede4e9c86d517a7	7.2257699746443245e-06
120	0x3edcd991877a4e3e	6.87834664571705e-06
121	0x3ede9e62baa142dc	7.300065513929986e-06
122	0x3edf032f0994ba9a	7.393941041030023e-06
123	0x3ee03f5a6b92ee6d	7.747399069272393e-06
124	0x3ee0515968adb7f5	7.780919323709788e-06
125	0x3ee0ebf87d971bc7	8.068924148297685e-06
126	0x3ee2b5785c533f12	8.921083358620226e-06
127	0x3ee2acfaa4d2d48a	8.905267487294725e-06
128	0x3ee39cf96d48c0cb	9.35229346862888e-06
129	0x3ee472cae10dc97d	9.750560850928188e-06
130	0x3ee5a7645f54efbb	1.0325372367440849e-05
131	0x3ee4f0a5b711f136	9.984983736049083e-06
132	0x3ee67e248dd06cd3	1.0725376734346825e-05
133	0x3ee68aae8afe580f	1.0748732478121246e-05
134	0x3ee9624bc6c1fa6c	1.2104019525558197e-05
135	0x3ee9b0edebcdfa26	1.2250485605267108e-05
136	0x3eeb4bc4b2b5f8ec	1.3015732824636345e-05
137	0x3eecec2fc9f77201	1.3791372395149418e-05
138	0x3eed5205f88de884	1.3981057934254555e-05
139	0x3ef08daa4f15a396	1.5786533315606867e-05
140	0x3ef1111c0dc48c4d	1.6276201550213376e-05
141	0x3ef14ecb4197e2e6	1.6505993789525402e-05
142	0x3ef0ea372b9cd432	1.6131309826767668e-05
143	0x3ef249b6ba2fc9be	1.744074291915877e-05
144	0x3ef3f5aba74712b6	1.9035006020978316e-05
145	0x3ef524c0f3a9d1fb	2.0164078913658176e-05
146	0x3ef6bfa90f1ee41d	2.1694825541127797e-05
147	0x3ef774ebd3a9c534	2.2370074683701963e-05
148	0x3ef6a635d378f047	2.160001642280442e-05
149	0x3ef7c05e859b7924	2.26511404893766e-05
150	0x3efa929757142e57	2.534162689919595e-05
151	0x3efc2bf61f1414d7	2.6866649879959993e-05
152	0x3efb95b828d79b2f	2.630695467145254e-05
153	0x3efb0967cad7261a	2.5784244533066677e-05
154	0x3efa03c0c89a710a	2.480951346815842e-05
155	0x3efc2dc29d8b5004	2.6873350949710453e-05
156	0x3efc942375494977	2.725473980753334e-05
157	0x3efdee5d0d0894f1	2.8544528335801412e-05
158	0x3efd4d1146b0297a	2.7943653929476846e-05
159	0x3f01206e0a9a3acd	3.266654796362442e-05
160	0x3efef2036de0c527	2.9511799646002618e-05
161	0x3f006ed4c32706ee	3.1343334188983305e-05
162	0x3f013124c9ef4256	3.279107590226499e-05
163	0x3f0137d03b65ab90	3.284076904005236e-05
164	0x3f03a872b3331b98	3.749465977303314e-05
165	0x3f035bb6867b0018	3.6922939043560084e-05
166	0x3f02a6f1cdc9099c	3.557610918793476e-05
167	0x3f042ba7789f0626	3.8472221674645376e-05
168	0x3f0361cc421505c4	3.696827503541945e-05
169	0x3f05a71dc440e94d	4.129943457127864e-05
170	0x3f03c2cd4fa8918a	3.769101200060399e-05
171	0x3f050426af4ec75a	4.008524948718893e-05
172	0x3f05f318cc3e1e90	4.1865534085747396e-05
173	0x3f056efceb3764a6	4.0881246061005586e-05
174	0x3f0462920e247728	3.888138032180486e-05
175	0x3f06e2b1941fc140	4.365066935452461e-05
176	0x3f05f8010b60b949	4.1902095674439264e-05
177	0x3f0778ef69eec71d	4.477005608495412e-05
178	0x3f080aa387c9e9f3	4.585563235522455e-05
179	0x3f0876a5950b04dd	4.666035477419461e-05
180	0x3f09793fffd04294	4.858709869648873e-05
181	0x3f0bae00b90e0a24	5.2794835148102065e-05
182	0x3f0baa505b06b65a	5.276735044233419e-05
183	0x3f0c45902b220d42	5.392404763517957e-05
184	0x3f0d57e86536cc27	5.596807445886641e-05
185	0x3f0ac2fc1cc2d2a3	5.104381452395348e-05
186	0x3f0b7ca5b9d0672b	5.242710833659592e-05
187	0x3f105ffacff10d42	6.246536575909171e-05
188	0x3f0e9570f4ec0dcd	5.83338829667452e-05
189	0x3f0d4c60213b7975	5.588215222273016e-05
190	0x3f1b92577dcce582	0.00010517748837637032
191	0x3dc376255dbb2cb7	3.540027621421773e-11
192	0x3db0f95b43d0d4ef	1.5437807489377813e-11
193	0x3db8584c3ef52b0e	2.2141569771101232e-11
194	0x3dc2c26fbacead45	3.41233632937848e-11
195	0x3da1e0fff2ee4718	8.13038489969282e-12
196	0x3db9278cd916ac52	2.2877878036484312e-11
197	0x3d75399349d23c27	1.2064960908492367e-12
198	0x3dc8e7143cbb31ce	4.529766110071171e-11
199	0x3d85c0a887c02c66	2.472981073871484e-12
200	0x3dc122c34b34df74	3.1169824881591864e-11
201	0x3dc3a4efd1274fb8	3.5732745013064404e-11
202	0x3db94fd1764c487f	2.302093879554669e-11
203	0x3dbb22c04719ce69	2.4679817602589787e-11
204	0x3dc1e38059b8f24c	3.2539314311861e-11
205	0x3db2278964192312	1.6511367148649426e-11
206	0x3dc9aa0184d1de76	4.668269989536585e-11
207	0x3da896f641a76caa	1.1182098694640823e-11
208	0x3d8f58822bb3ee45	3.5635976300308403e-12
209	0x3dc4aa220ec94263	3.758865601439991e-11
210	0x3d9e6ccfaccd471c	6.917854050045615e-12
211	0x3db0f20d724b1af6	1.5411858545734627e-11
212	0x3db8a19bf4a5ce9c	2.2402024064324886e-11
213	0x3dbf2c73f41b747d	2.835226433550623e-11
214	0x3dc8e0ec36286a5f	4.5253917600856835e-11
215	0x3db8ba8a0baf58d8	2.2490593354967025e-11
216	0x3da9afe19d3b7fde	1.1681111731978306e-11
217	0x3dbb74b183bb0702	2.497093524418072e-11
218	0x3db1f0096614db2f	1.631419164698972e-11
219	0x3dc2ee155e98bd3c	3.443349409821037e-11
220	0x3dc595f879ef6853	3.9264382753737525e-11
221	0x3da312f02014b795	8.673840294044209e-12
222	0x3db3c2fef2c2bc36	1.7973163905559188e-11
223	0x3db5b239547418c3	1.973256738419659e-11
224	0x3d948be252c2bb37	4.6717155258303165e-12
225	0x3da8498ba3095b48	1.1044579395918518e-11
226	0x3db003f425863965	1.456596158382546e-11
227	0x3da2f479a9f8e1fc	8.619727598038053e-12
228	0x3db8329ccd83582a	2.2007684602273846e-11
229	0x3dbb4b9996370aa1	2.4824941918485484e-11
230	0x3dc8e7ac0c798821	4.530187471622558e-11
231	0x3d90055f63d2c1f5	3.6427506495082544e-12
232	0x3db58fdcf4e56829	1.9610493182462984e-11
233	0x3dc7a12a2ee5d536	4.298190090497231e-11
234	0x3d8cb65a1748ee39	3.2642119752953162e-12
235	0x3da29f9c8d4fe6c8	8.46897935114256e-12
236	0x3db4b68d2dbc696d	1.88384471724338e-11
237	0x3da1e506bbb715a0	8.13753740268595e-12
238	0x3d9ac5279747759b	6.086824068850714e-12
239	0x3db6c55f6fb8176c	2.071009247987481e-11
240	0x3db29ae83c7de5fa	1.6921245464485928e-11
241	0x3dc125f05dab6154	3.1192392166321085e-11
242	0x3db54e01e80cd8c2	1.9376526861431337e-11
243	0x3d9ad2e4b30b62e9	6.0990264900712555e-12
244	0x3dc1c58853a8309d	3.2326372878119906e-11
245	0x3db03ade0b8fe8e0	1.4761054117415868e-11
246	0x3d98fc15c3899612	5.680864680814541e-12
247	0x3da43eae61eddd2d	9.206291163686473e-12
248	0x3da63231f400b599	1.0093606180981874e-11
249	0x3da70749def897de	1.0472136151162351e-11
250	0x3db52bf0d2a73b2b	1.925549751402917e-11
251	0x3da71ec61fddd1f3	1.0513854540306458e-11
252	0x3db75535644b0d63	2.122109976313301e-11
253	0x3d9b0523aa99024e	6.14365387173893e-12
254	0x3da7f86825ea9253	1.0900448239249185e-11
255	0x3db8b2ccd1dd8b96	2.2463098322916297e-11

exp_avg f8 [1]
0	0xbfbb68007a861d2a	-0.10705569258981443

exp_avg_sq f8 [1]
0	0x3fb764c2328530af	0.09138120397000436
