dl_experiments/best_checkpoints/wiki_de_5min_CNN_cuda:0_checkpoint.pt (torch, 313947 bytes, 12 tensors)

block_1.0.weight f8 [64, 1, 9]
0	0x3fbad1382358fcb9	0.10475493300417583
1	0x3fb17e59535141d1	0.06833418163410633
2	0x3fb992346d9d847c	0.09988715816645483
3	0x3fba750f6e70de7d	0.10334869810400878
4	0xbf541e6089d4c847	-0.0012279455907671254
5	0x3fa05c284a081f6c	0.03195310500819812
6	0xbfb8d052e58c4177	-0.09692876915165081
7	0xbfafc3e1a77f9c54	-0.062041331955520335
8	0xbfb53fb4bfd1d88d	-0.08300332720850374
9	0xbc93fbd00dd23a52	-6.933219068976391e-17
10	0xbc942b13f9ffbabb	-6.997275525697782e-17
11	0xbc931b1f467ef88c	-6.628706602489482e-17
12	0xbc955dc08b97e9aa	-7.412896427914778e-17
13	0xbc93c9d460df4306	-6.865479326472377e-17
14	0xbc8cf93371f7389e	-5.0260908700818835e-17
15	0xbc858cd3c880c483	-3.7383475751457866e-17
16	0xbc81c7ee62878853	-3.084508553888342e-17
17	0xbc7e3376e5b28cc8	-2.619522045296887e-17
18	0xbf73d3ea94bd4d27	-0.00484077103813555
19	0xbf73b25613ba5a6d	-0.004808746565365324
20	0xbf73b50968b99db1	-0.004811321977832448
21	0xbf73a407890e8aec	-0.004795102534361755
22	0xbf7373042efdc53e	-0.004748360006361195
23	0xbf734fb87236db7c	-0.004714699261447627
24	0xbf72cb68eb330e43	-0.0045885179890237686
25	0xbf72d5aafe5c9ace	-0.004598300880195706
26	0xbf72ddf22518aebb	-0.0046061953340019125
27	0x3fa7324987e06ef9	0.04530553611422578
28	0xbfb3876d7c0c08d7	-0.07628521231166317
29	0xbfbdc91b4c69fb99	-0.11634989371849115
30	0xbfa7944e6609d823	-0.04605336185061073
31	0xbf92a9556d333513	-0.01822408179287034
32	0xbfaf9ebf78db4552	-0.061758025649064976
33	0xbf9f3cfe4c464d94	-0.030506108670648027
34	0xbfaf2adf7f9ba0b4	-0.060873970343722134
35	0x3fa45ba8f86f3f44	0.039761810614094034
36	0xbc76d47c45ba0e2b	-1.98018869061418e-17
37	0xbc6f675dc82ebb75	-1.361921632292796e-17
38	0xbc74f5b2ff71af51	-1.8179696064611317e-17
39	0xbc80f3cae9500ba6	-2.940757868453628e-17
40	0xbc814568a64ac28b	-2.996063132976168e-17
41	0xbc7d1312d1380608	-2.5218113950032064e-17
42	0xbc80125d2257e32e	-2.788001360055154e-17
43	0xbc83a7652add83a4	-3.409405994099795e-17
44	0xbc76cd2e791ed5f6	-1.9777140319204863e-17
45	0xbfbdd86b48a0cd6f	-0.11658354304454631
46	0xbfb5e6a60beb18e7	-0.08555066863036452
47	0xbfb75091d6762287	-0.09107314573169321
48	0xbfb97b53484a62d1	-0.09953804507166387
49	0xbf906797cc9e68ab	-0.016020175804080477
50	0x3fab7798c529eb34	0.053646825855102526
51	0x3f2bc7fa73a568d4	0.00021195347091912972
52	0xbf5b2b8f0c6c60a4	-0.0016583344419754198
53	0xbfb56da2f64e51c8	-0.08370417130783558
54	0xbfb44671a226654b	-0.07919988831271955
55	0xbfa8aa00b05d7f8a	-0.0481720176019272
56	0x3fa3ada7973c65b7	0.038434254847924114
57	0xbfb15e3e52dff446	-0.067844290955649
58	0xbfa7fe5a74c469ac	-0.046862437013447916
59	0x3fae5beca3f5b587	0.05929507733786026
60	0x3f9d2e64c634e6d6	0.02849729022748345
61	0xbfb03fe99125b654	-0.06347522538791256
62	0xbfb1fec25e37cd72	-0.07029356765979403
63	0xad90891ecbc7005b	-3.246997373017078e-89
64	0x2df3f050f0174d18	2.505756512304273e-87
65	0xae1637368f6fd217	-1.1167624317378307e-86
66	0xae4077ca000f3d11	-6.6226248135204e-86
67	0x362e48561271d9be	1.0360085333381845e-47
68	0x364ca63453ea0b78	3.920520542287016e-47
69	0xb51ac92fb97968f7	-6.991442063988953e-53
70	0xb5545def100bf617	-8.505626443222149e-52
71	0xb5605ff7ed923226	-1.3676935289574875e-51
72	0x3fa28ecfc9c821c0	0.03624581659466086
73	0xbf8d0ea1647f5c2f	-0.014188061599197692
74	0x3fad211eb18794da	0.05689330975637015
75	0x3fb55be05fc2474e	0.08343317354072363
76	0x3fa0492ec19629cd	0.03180833924405455
77	0x3f97d79df357fd74	0.023283451058885032
78	0xbf8599fb2d2c2409	-0.010547602001240735
79	0xbfb2b974b8876928	-0.07314233307935025
80	0xbfc4b306630ba7a2	-0.16171340786177973
81	0xbf3107c61dc16ae5	-0.00025986277410587475
82	0xbf3134273258999c	-0.00026250798177542846
83	0xbf31771c3dddeba7	-0.00026649894231639066
84	0xbf31d817b5d993bf	-0.0002722795378303187
85	0xbf31e4e4ac71185c	-0.00027304251529292555
86	0xbf30fadc41f37a58	-0.0002590930689176144
87	0xbf3107245780db8e	-0.0002598251080629326
88	0xbf30ac635ef2f0d1	-0.0002544157604906896
89	0xbf2f75d271ed1809	-0.000240022601213308
90	0xbf94161ff7b86087	-0.019615649695055495
91	0xbf940e6c29afbb79	-0.019586267513598685
92	0xbf9418b3bd95559d	-0.01962548107743133
93	0xbf9423fdec7a0b83	-0.019668548162836707
94	0xbf94290236081f86	-0.01968768553527369
95	0xbf942799185ad8cf	-0.01968230448866209
96	0xbf94201128c545a1	-0.01965357600540119
97	0xbf942cdbefb5af7d	-0.01970237398693041
98	0xbf942e06f45a4a8c	-0.019706829704385018
99	0x3fb6c187952f57fa	0.08889052765093189
100	0xbfb04966326e99e7	-0.06361998301745296
101	0xbfc16bf66933f455	-0.1361072553335442
102	0xbf92e50678d42a50	-0.018451787113955398
103	0x3fb02b046d3c2b79	0.06315639178153089
104	0xbfa9c7382e6d51ef	-0.05034804884659027
105	0xbfc55bf00c82ff44	-0.16686821566508503
106	0x3fba45ddc9bf6693	0.10262857604484514
107	0x3f95e6c365e494bf	0.021388104528473614
108	0x3fa6ec4729ffbd17	0.04477140796358919
109	0x3fb88880e178d32e	0.0958328772038157
110	0xbf9653fcba6a167e	-0.02180476081641424
111	0x3f9ec1b5c0e4e70c	0.030035819910359016
112	0x3f82e87eaa8c50cc	0.009232511119570928
113	0x3fbd1d90ea99abdb	0.11373239257379401
114	0x3f6ac75d7fb4c3cf	0.003268892874665564
115	0xbfb110e7426355e6	-0.06666417475511074
116	0xbfc837b2124fafaf	-0.18919969457726668
117	0x3fb2517f68433b24	0.07155605597948217
118	0x3fb5f78271546c60	0.08580794588890361
119	0x3fa82aa75d2fced6	0.047200422406516715
120	0x3fabf649dddcb8e9	0.05461340745238081
121	0x3fb647879e72016a	0.0870289575414113
122	0xbf941357ed86f99c	-0.019605039474976146
123	0x3fb19ed120c72fa5	0.06882960367437237
124	0xbf852beb25a7313b	-0.010337674223500506
125	0xbfaaf6d89a64af0b	-0.05266453633006848
126	0x386115351d7ce478	4.016156788377541e-37
127	0x385b322ddc47517b	3.196875879431448e-37
128	0x385653368fae878e	2.6242971671695725e-37
129	0x38509324fb989507	1.9483563856306298e-37
130	0x3823839b3aeedb9b	2.867337433843792e-38
131	0xb7e8b8e2aff5a643	-2.2703763272796604e-39
132	0xb7dd994962f1dd46	-1.3591091416132278e-39
133	0xb77428721a261e27	-1.4462649301514512e-41
134	0x37817cd586885aa1	2.509352290809346e-41
135	0xbef3be62f7b31776	-1.8829057336209686e-05
136	0xbef3a061f5146bc5	-1.8717283926421796e-05
137	0xbef3f5a4506104ab	-1.9034899217955255e-05
138	0xbef358f99c07ca9c	-1.8451269854178652e-05
139	0xbef2a75e3db7bf10	-1.778963256343554e-05
140	0xbef224f4d2a19d84	-1.7303810786376616e-05
141	0xbef1456b413d4963	-1.6471069172860157e-05
142	0xbef06ed8d3390902	-1.5671726215645873e-05
143	0xbef01f8bfc190ead	-1.537631010807446e-05
144	0xbfa1beb28475eba5	-0.03465803019476902
145	0xbf6c7499153a8018	-0.003473566999517185
146	0xbfb4996f29291c76	-0.08046622042557935
147	0xbfb24bd76902ec42	-0.07146974862819014
148	0x3fb40bdb97c3e63a	0.0783059354324899
149	0xbf7452ac5a39bd73	-0.0049616558568311596
150	0xbf9fb290d3a3be3a	-0.03095461169954048
151	0xbf9ab1c429e9f4f6	-0.026068749483319352
152	0xbfa8411f0f0e1c3a	-0.0473718362691717
153	0xbf40526206b2e845	-0.0004981020587344695
154	0xbf360232e55f530a	-0.0003358244188096804
155	0xbf3646e13cc7db17	-0.0003399181266838121
156	0xbf362e55961b16d5	-0.00033845510015982394
157	0xbf36cbe77c14db8f	-0.0003478469989945326
158	0xbf42802686ec3049	-0.0005645931358642188
159	0xbf3de80ac4ace53f	-0.0004563356675820369
160	0xbf412c6bebff2ac7	-0.0005240942918985574
161	0xbf3f3e674dc75633	-0.0004767420012091489
162	0xbf7d780b48a42bf0	-0.007194561078232006
163	0x3fb57db6120f7aeb	0.08394945088319232
164	0x3f9bb84fdf84df52	0.02707028199912937
165	0x3f8c441e3c5612cb	0.013801799980464399
166	0x3fb941fcf8f5ee7e	0.09866314962521902
167	0x3fbd44fd546c2ef3	0.11433394728754447
168	0xbf9d66956a8ca5fa	-0.02871163809610342
169	0xbfc46c5fa2ee909e	-0.1595572991910829
170	0xbfc1bd7548e4672b	-0.13859430369557776
171	0xbfae8c24dd401f53	-0.059662963874926554
172	0xbfa9a1274c0ebccd	-0.05005762866437067
173	0xbfadfcf360b49c86	-0.05857048564421867
174	0xbfb4c59645124ecf	-0.08113993822399411
175	0xbfad86b9d812d370	-0.05766850245109978
176	0xbfb3ce932f3f9ef1	-0.07737083343056007
177	0xbfaeb8fd23e4fe9b	-0.06000510275998502
178	0x3f7fa446b65fd4c3	0.007725025387107456
179	0xbeeaa2d066989153	-1.2701030942593191e-05
180	0xbf871be3a4db5916	-0.011283663242846614
181	0xbf871273de8aa01b	-0.011265664318969517
182	0xbf873e50a92003e5	-0.011349325333869184
183	0xbf876f7cb92a9b38	-0.011443113709288619
184	0xbf876e1a4abc80da	-0.011440472989818696
185	0xbf879ddbe5a32f46	-0.011531560845831412
186	0xbf87d07a268cc765	-0.011628107358408088
187	0xbf87db7605aef4bf	-0.011649057434505726
188	0xbf87e615eaaa8fbd	-0.011669322227426332
189	0xbf1d7b8e3899f6a4	-0.0001124673418874908
190	0xbf1da1816ad6f645	-0.00011303284073612651
191	0xbf1dc502b7d562bd	-0.00011356190767254199
192	0xbf1de32a7c9efdfc	-0.00011401125735143591
193	0xbf1d622c97e72f41	-0.00011208913017596041
194	0xbf1c135af6049677	-0.00010709994012766422
195	0xbf1b41d2f772eafd	-0.00010397768152163238
196	0xbf1a22406ecebce0	-9.969251887186363e-05
197	0xbf194cefea743fa4	-9.651388483100529e-05
198	0x3fb158e7abbaebb0	0.06776283209448652
199	0xbf904a0d3f49928d	-0.01590748499656285
200	0x3fb1b72a5f98f229	0.06920113405153273
201	0x3fa2e3ab5a6a85f2	0.036893229281542164
202	0x3fb62ea80f765938	0.08664942147729426
203	0xbf8d57eaa3b6d6cd	-0.014327843781625127
204	0x3fae37852a3a9c5f	0.05901733532419295
205	0xbfbafe01aede9c58	-0.10543833274151504
206	0xbfc74e68af02845d	-0.18208035035516704
207	0x3e03c2b96141c287	5.751103504135395e-10
208	0xbdcc15be51c48a7d	-5.108619969843651e-11
209	0xbe0846ac21abcf26	-7.065264513563152e-10
210	0xbe162c88f8cdbbcb	-1.2906946372919182e-09
211	0xbe17f692962a5846	-1.3948403202089838e-09
212	0xbe1a04385b164ddc	-1.5143587324653788e-09
213	0xbe1e890172d622b8	-1.777381307537196e-09
214	0xbe1e5507209c66ff	-1.7655629202075841e-09
215	0xbe213932894cd800	-2.005070840611709e-09
216	0xbfb5b10931a4c76e	-0.08473260366443267
217	0xbf7473f808e880f5	-0.0049934090480123665
218	0xbfb2b4a57c120369	-0.07306894568502077
219	0xbfb31a670a1c7798	-0.07462162014823404
220	0xbfa3dd6abce6d012	-0.03879865222862135
221	0xbf8cb1481ec73c71	-0.014010013045576227
222	0xbf97780c9f75d240	-0.02291888926761687
223	0xbf91456e4c73e6b0	-0.016866420189194542
224	0xbf81f5de3b155509	-0.008769737413482763
225	0x3af7a4b20a6813e4	1.2223321160985744e-24
226	0x3add75bc4d42f841	3.80760341504103e-25
227	0xbb03f79b1ca3e5ca	-2.064561183720944e-24
228	0xbb02e5f2283c1cce	-1.9540307983039815e-24
229	0xbb030567a4cc7e6b	-1.9667369597283265e-24
230	0xbb02eb917995de2f	-1.9563016413510315e-24
231	0xbb03312ea9255875	-1.9844185148488808e-24
232	0xbb034f4d3399bf4d	-1.996583603300322e-24
233	0xbb01ba28c32f9174	-1.8329479151990564e-24
234	0xbfa0c65344758aba	-0.03276310167963943
235	0x3f908e2ead3a00f4	0.016167382548247525
236	0x3f9053cfdc8a6852	0.015944717250569625
237	0x3fb2d4011f2f2bbd	0.07354743014654637
238	0x3fb77d3b4dd9e408	0.09175463343298429
239	0x3fb5eebf3821d531	0.08567423935331388
240	0xbf792c909b025101	-0.006146015992403387
241	0xbfc39d10dcde771c	-0.153230769964403
242	0xbfaa9beeea13f2a3	-0.05197092635532854
243	0xbfb79497f75caa26	-0.09211110867605807
244	0xbfa9baa834098019	-0.05025220523089064
245	0xbf9611c9b1a09556	-0.021552230326183995
246	0x3fb019d01f3bb7b5	0.06289387476473858
247	0xbf9555729f3f4741	-0.020833769769360137
248	0xbf995d05c13ffd03	-0.02476891510013691
249	0xbfb29c96899eaddd	-0.07270184383258234
250	0xbf8628e4106e22d4	-0.010820180655870905
251	0x3f981df187fa8a41	0.02355172531555128
252	0xbf96fe476fbbce74	-0.02245437259166612
253	0xbf9722d8d9f1dc69	-0.02259386854390436
254	0xbf973987d3de6daf	-0.02268039923329262
255	0xbf974fb83ce4065c	-0.022765043941950544

block_1.0.bias f8 [64]
0	0xbfc03c1a95fdd65a	-0.1268342239742875
1	0xbdf0255062af9287	-2.349516993164262e-10
2	0xbf7cba79e7f9eee7	-0.007013775058677152
3	0x3fc2c73d0dfca8a8	0.14670527632671804
4	0xbdde1e2b6510b5de	-1.0956809874874855e-10
5	0x3fa68768617ca198	0.04400182905220901
6	0x3fb3f2cad7431f8b	0.07792346721100622
7	0xba95b131af652302	-1.752279084336489e-26
8	0xbfaff5f87062c059	-0.06242348071953136
9	0xbf677de8ced2a485	-0.002867655470784105
10	0xbf96bf3fd53a9dd8	-0.02221393336244923
11	0x3f88e9aff530ec6c	0.012164473219050197
12	0xbf9cbce669779e5d	-0.028064346492014603
13	0xbfcee28a53623bec	-0.2412884623667816
14	0xba5f633d5bdff94d	-1.5846716125293142e-27
15	0xbf49b0908711761d	-0.0007839875889989499
16	0x3fa0f82ecd355a9c	0.03314348463998337
17	0xbf65985d5ca725d9	-0.0026361297106844814
18	0xbf8358bb6b5dab84	-0.009446586813018028
19	0x3fab62037cd605f3	0.05348215960385607
20	0xbf908c4367bd7888	-0.01616006203345724
21	0xbf65104e3b0e13ac	-0.002571251673034477
22	0xbf9657dc8e1bdc76	-0.02181954018939477
23	0xbe642b0c3fbf8a10	-3.756611730001418e-08
24	0x3fac8655a13a5699	0.05571239083398644
25	0xbb00909f92b7af23	-1.712774123910555e-24
26	0xbfb0e422f0da8c66	-0.06598108654229548
27	0x3fab21954fc41a6b	0.05299059485155485
28	0xbf99827bdf27e2f8	-0.02491181897673564
29	0xbf9b48637c2a963c	-0.026643328145516273
30	0xbf72fe785b086822	-0.004637212885905158
31	0x3f90e7b621fc352e	0.016508909057894865
32	0xbd73cf37136c98d0	-1.1260359622821954e-12
33	0x3fa1357c8b8825ce	0.03361119464177485
34	0xbdf7e64c9217fdc6	-3.477850386964972e-10
35	0x3f9eab838c6fc8d1	0.029951148459027636
36	0x3f91ffa92cda31f0	0.01757683120972503
37	0x3f996690583f87e9	0.02480531252502508
38	0xbfad6c5ff91fea84	-0.05746745983193072
39	0x3fb13c6184e366e5	0.06732758993475903
40	0xbe0a68fb38c02a52	-7.686345878364742e-10
41	0xbf639936ccfa1be0	-0.002392394096947012
42	0xbfae55b7ebc7222a	-0.05924772980830924
43	0xbe0d7e1bcff955e9	-8.583479759841902e-10
44	0x3fb63454e072364b	0.0867360160793506
45	0xbf92d3fde24e3460	-0.01838680928954195
46	0xbdf1341a1a57be18	-2.5034421267141507e-10
47	0xbfad18a4f9e606a2	-0.05682864714164039
48	0xbfa2c445303475f9	-0.03665367330016162
49	0xbfa17b12d58eed54	-0.03414210183060598
50	0x3f9ba38e8509c0bf	0.02699110686302286
51	0xbf84c4802df20343	-0.01014042034353369
52	0xbfb207b87cbacbec	-0.07043030781896648
53	0x3f9567ba48bf757d	0.02090350216882574
54	0xbf4a87501e84c321	-0.0008095875937553545
55	0xbf95d4069565cf9a	-0.021316626423370268
56	0xbf70f6231f064ff5	-0.00414098471846457
57	0x3fa4a4f36537a747	0.04032097445072096
58	0xbfaf5784d79562a5	-0.0612145913280007
59	0xbf3f13727ed0b505	-0.000474181607219418
60	0xbe949df6e1269e14	-3.072179605386523e-07
61	0xbf9bbc7909eafdbf	-0.027086154203741716
62	0x3fa793af862160bc	0.04604862701734322
63	0xbf99d0942544a629	-0.025209727072399133

fc.weight f8 [1, 12224]
0	0x9835b996464f1f86	-4.7616946892843464e-192
1	0x18142bb6ddc34d1f	1.1052614575299596e-192
2	0xb93f685128d69031	-6.048862237996034e-33
3	0xbf783536973fd740	-0.005910123105413778
4	0x3f46c84e9d5254c6	0.0006952651844069006
5	0xbf7d474a36634a7f	-0.007148065464394392
6	0xbf82a912617ff27c	-0.009111541367013525
7	0xbf80eba7279adc07	-0.008261972328325496
8	0x3f8ee39e0862780b	0.015082583075408015
9	0x3f90f5089b471411	0.01655972907771647
10	0x3f92da35b66cbf61	0.018410529383970146
11	0x3f95efb62ad8ceac	0.02142223965183969
12	0x3f92b79b34207964	0.018278527313776563
13	0x3f76f5044e9a18ae	0.005604760002489479
14	0x3f5956fbb55eba39	0.0015466173258392847
15	0x3f55a67518cae3f5	0.0013214248203168276
16	0xbf8106ce6747291f	-0.008313763167184405
17	0xbf95550c5e60f74d	-0.020832246075080097
18	0xbf2f4bed25961a25	-0.00023877401217138705
19	0xbf9261a49334d77f	-0.0179506029937424
20	0xbf9260d811e78e16	-0.017947555630497623
21	0xbf9af7d9c18a0ae5	-0.02633610004205424
22	0xbfa0fc057d629c75	-0.03317277103024533
23	0xbf954713426cbf16	-0.020778942994353754
24	0xbf8b71a1e2fd5cb5	-0.01340033029525354
25	0xbf87db704a02ab05	-0.011649014719599568
26	0xbf91d5b79bac6f0e	-0.01741682899147095
27	0xbf8fe28c661a1c9e	-0.015568825593858467
28	0xbf83d84d046cce0f	-0.009689904878178472
29	0xbf8ad7e755a841b5	-0.013107116033126734
30	0x3f8cd469be55d8a5	0.014077020760606304
31	0x3f8034cd46da82ef	0.007913211560038628
32	0xbf569ae343e9a046	-0.0013797015559706845
33	0x3f82243aef0d858a	0.008858166141808583
34	0x3f81ad78340734df	0.008631648147366664
35	0x3f85c24ccc8b4101	0.010624504081903742
36	0x3f870e30030f70f5	0.011257529347794984
37	0x3f7fe970611059e3	0.007790984135701315
38	0x3f80a831ebd9e74b	0.008133306512934665
39	0x3f8597dcdf454322	0.010543561519314407
40	0xbf89c3c23275b439	-0.012580411114607159
41	0xbf940af1ae7766dc	-0.01957299830778579
42	0xbf912333f2a3cbd5	-0.01673585098701465
43	0xbf951e60d239bc15	-0.0206236961661795
44	0xbf704d32775edf0e	-0.003979870923948926
45	0x3f8a98bdb72090b4	0.012986642981623532
46	0x3f916ffbf4f2c17f	0.017028748345809582
47	0x3f814c3d0978ab96	0.008446194507163256
48	0xbf6049fa5591d04f	-0.001988400396436808
49	0xbf8653b0c8ab9567	-0.010901814578981385
50	0xbf861ae9fc9b90b6	-0.010793521901583208
51	0xbf74a6e3ed37d6ea	-0.005041971529399206
52	0x3f52ca8a2de605a8	0.0011469220549716694
53	0x3f7f253bb37deacd	0.00760386772878503
54	0x3f8f2f2dbcb76329	0.015226704904237902
55	0x3f892a0462da0334	0.01228717257186105
56	0x3f8339f375fed42b	0.009387876547274207
57	0x3f8a70a1698066f0	0.012910138160850931
58	0x3f91d8f96ddfa5a1	0.017429253893998745
59	0x3f91976925c1ed31	0.01717914860681197
60	0x3f9666733c6c2cd9	0.021875191271686887
61	0xbf17dc298c1d7cdf	-9.10187109446239e-05
62	0xbf71e82d326d852f	-0.0043718114382909476
63	0xbf74d1a07457fe1c	-0.005082728171600628
64	0xbf86d7d06e9b0d5e	-0.011153820395867594
65	0xbf911eb91b3a8b35	-0.01671876171770777
66	0x3f5a8d33e6efa6df	0.0016205794197454088
67	0x3f8782ed8e61b6d8	0.011480194003719843
68	0x3f70acd3a6fa4269	0.004071070448518379
69	0x3f7e161423c63061	0.007345274611349679
70	0x3f7ae2ff03001052	0.00656413663819329
71	0xbf3953776aff812c	-0.00038644471623962523
72	0xbf7683bc17503f4f	-0.005496725779280911
73	0x3f705c0ee07e252b	0.003994043457973088
74	0x3f3c597e4b99e0b7	0.0004325803125548965
75	0xbf8ad0302cf406a4	-0.01309239995180473
76	0xbf9fc1769772e617	-0.031011441224768257
77	0xbfa1fb4f0ab1e190	-0.03512045865585656
78	0xbf90f3dbdb37031a	-0.016555247549834375
79	0x3f96d5aad6df2a7c	0.022299451222162578
80	0x3fa19491fb35f347	0.03433662597215075
81	0x3fa321c728f4ff6a	0.037367080449711335
82	0x3f9be16cb10657af	0.027227114014372663
83	0xbf81f414c6b44845	-0.008766329111072344
84	0xbf9f9828e14c185d	-0.030853880644848498
85	0xbf7b544d40c1b96f	-0.0066721933072656356
86	0xbf97a34b7cec499c	-0.023083858012861933
87	0xbf89b8ccaf81a42f	-0.012559508424788117
88	0xbfa16ad96de9be30	-0.03401832071983468
89	0xbf9432dbf610b89a	-0.019725262540469225
90	0xbf45353ccac1df5b	-0.0006472155414618362
91	0xbf7bcd4d53132f81	-0.0067875881661158
92	0xbf820b985f802f39	-0.00881117860264845
93	0xbf9aed1c24fef011	-0.02629512763790848
94	0xbf9160f87ea243a1	-0.01697147629653595
95	0xbf644798b7a09d6e	-0.0024755461463603
96	0x3f43f2916d6ba619	0.0006087503523676845
97	0x3f6e6d543a624a75	0.0037142415122358116
98	0x3fa42a5d52177743	0.039385715743021986
99	0xbf9c3daefbeb42dc	-0.02757905399886594
100	0xbf421a7953f7829a	-0.0005524723455288705
101	0xbf9125b94340e11b	-0.016745466928314117
102	0xbf7cc6791703b993	-0.007025216109680338
103	0x3fa18868b0407466	0.03424384261618556
104	0x3f777ab25de88508	0.005732247109820017
105	0xbf838457d7c88ff8	-0.009529768250168033
106	0xbf97de61505d6977	-0.02330925038345685
107	0xbfa8a25e49e2dbfc	-0.04811377193384911
108	0xbf9ed902d4798a9e	-0.030124706476622458
109	0xbfa4021ca8fce29a	-0.03907861292686228
110	0xbf898f9ef044385a	-0.012480966288901541
111	0xbf5f6ecc68577afe	-0.0019185062568493612
112	0xbf92bb10797134b8	-0.018291718876117996
113	0xbf7c1ecf4bbd9fd4	-0.006865319966756506
114	0xbf99701c09b8b847	-0.024841726392132803
115	0xbf79a1f5df956995	-0.006257973139634739
116	0xbfa1589b589051b7	-0.03387914138889719
117	0xbfa1f434c3f52817	-0.03506626979886123
118	0xbf98e385630e56c6	-0.02430542389955439
119	0xbf9c1c048db84975	-0.027450629377264463
120	0xbf860a03d5d66764	-0.010761289561560701
121	0x3f7d1fac42175de5	0.007110283740494582
122	0x3fa1271465e93c98	0.03350127929717778
123	0x3f1b584420b3abf2	0.00010431209391341382
124	0xbf8a933156551462	-0.012976060340074539
125	0x3f7519da47f9cf3b	0.005151608143581228
126	0xbf9b8b5ea316d176	-0.026898840622111085
127	0xbfa1db9fd9e6deee	-0.03487872633871612
128	0xbf860ccae69f3604	-0.010766587412855529
129	0x3f9f7bd664cddfb9	0.03074583997974376
130	0x3f97298fd863591f	0.022619483549385252
131	0x3fa138ab6d389f4f	0.033635480005897216
132	0x3f7e069667af34e6	0.007330501098249819
133	0x3f92a52d985e13e4	0.0182082294700371
134	0xbf6319bb8a6024b4	-0.002331606187912694
135	0xbf9cdcfbac270d37	-0.028186733610494143
136	0x3f95d8aee854c807	0.02133439343487711
137	0x3f98342e8de43965	0.02363655797039978
138	0x3f7f574a3bdd5076	0.00765160558315269
139	0x3f9ceb66a1743831	0.02824173317372231
140	0x3fa41065b20c4401	0.03918760107456621
141	0x3fa58cf34ea363a7	0.04209099135341115
142	0x3fa118f867a9f78a	0.03339363351277232
143	0x3f6a338b23fddae2	0.0031984059896176123
144	0xbf83783dcc477d57	-0.009506686016662753
145	0x3f8268c2f4903626	0.008988879288177886
146	0xbfa05d424cb1285a	-0.03196150957281026
147	0xbfb0e164f02b6964	-0.06593924392237721
148	0xbfb0a35f14989365	-0.06499284985382088
149	0xbf9e80ccdb195348	-0.029788208840119595
150	0xbf73099d004e9d2f	-0.004647839818893203
151	0x3f8693a2fafcb549	0.011023782047767343
152	0x3f992f793a37a462	0.024595159700684717
153	0x3f9a82addae0f774	0.02588912628583935
154	0x3f6a0d4231e0a512	0.0031801503055432024
155	0xbf9155e9d728c7d0	-0.016929296262055804
156	0xbf983a5ed2209a11	-0.02366016538158006
157	0xbf4dddc9895c8829	-0.0009114488663934983
158	0xbf712b08978bfd67	-0.004191430628224558
159	0xbf725f3471d1cfcc	-0.004485325681446949
160	0x3f8e8b630b98b030	0.01491429690494081
161	0x3f710285554c2ca8	0.004152794678485318
162	0x3f8e2b65c95fb026	0.014731211860599624
163	0x3f8d2550ce45ff03	0.01423133019920853
164	0x3f989a07c971b45e	0.024025079412627874
165	0x3f965fa02ec18dfc	0.02184915814758702
166	0x3f9201d4ff277d20	0.01758511359537096
167	0x3f7c1a0c0bcf2f7c	0.006860777907558343
168	0xbf8ccb795e7af2d8	-0.014059971042450867
169	0xbfa057682769a9e0	-0.03191686135399485
170	0xbf8663d8d6d7aadc	-0.010932630592795638
171	0xbf6f7b41a8f13535	-0.0038429529591101027
172	0x3f9753dc93e6264e	0.022780844237365643
173	0xbf671e6f16d66348	-0.002822129222021994
174	0xbf9119eff5f5c1f8	-0.016700505625921708
175	0xbf9e9dfae69cf22d	-0.029899521184448986
176	0xbfa279cf0ba984bf	-0.03608557717667215
177	0xbfa345151eab4475	-0.03763643264176945
178	0xbfa0833dfe549d99	-0.03225129823322987
179	0xbf95e66eca024d41	-0.02138684375729594
180	0xbf9ce69d61481041	-0.028223475515929634
181	0xbf929a9e570eccc2	-0.01816794782980647
182	0xbfa097b8f0567aab	-0.0324075501805415
183	0xbfa6aae8334b7b39	-0.0442726671806128
184	0xbf9eb93a789f4443	-0.03000346528262222
185	0xbfa034d9913312ac	-0.03165321252303008
186	0xbf9e8743da59f90e	-0.029812870218386904
187	0x3fa27d5583afa790	0.0361124728440948
188	0x3fba762d2fb03e4c	0.10336573042172253
189	0x3fb1980961dc1b32	0.06872614516406086
190	0x3faf60c550649d37	0.06128517729149013
191	0xa583ae27ad936f41	-5.678366371713005e-128
192	0xa48808ccc45f9c25	-1.0581439296221192e-132
193	0x28e2d8f6728833d7	9.796379729642838e-112
194	0xabe2c9d1f2a8e76b	-2.748781869429702e-97
195	0xacbc82369916c13e	-3.4167872513816394e-93
196	0x275409e7184353ac	3.1040655897029713e-119
197	0x2a5c4cc0e7f758e6	1.2339147848818878e-104
198	0xae2fee5c3267288f	-3.2102958373066753e-86
199	0xaa385a756e8b3abe	-2.654607484549878e-105
200	0x2a94db9aca0ff05a	1.4550926171532668e-103
201	0xacd4fd58bac6f1e7	-1.0062507889100818e-92
202	0x2bf88f0933341ae6	7.186002805162697e-97
203	0xaa799bebfb90410f	-4.4663762831576385e-104
204	0x2878cdf878ab75b4	1.0072410018324694e-113
205	0xa815e6f85f1cb1f8	-1.3896644779735898e-115
206	0x2c10c068fca099a5	1.960639471367781e-96
207	0x294ffe3a3a792993	1.064259630822124e-109
208	0x2812b05e8caf590a	1.1857862400772018e-115
209	0xaae86c80afc18559	-5.452371009278949e-102
210	0xa9f3135874da04ac	-1.2995680727786654e-106
211	0xa92cc2fe6a3aa0d9	-2.3919168043905073e-110
212	0x27bbde0b581e0d89	2.7627242327919373e-117
213	0x29b3060465ee15ff	8.100131864839621e-108
214	0x2910adadcbdfaab8	6.935165883010642e-111
215	0x2c4f87880ab4f571	2.9522107628240438e-95
216	0x2c9a65f642df359f	7.909647676034196e-94
217	0x2e11ca1bcf16994a	8.942617963696746e-87
218	0xa5a70a816a570108	-2.6592175500451382e-127
219	0xab156b5bf9895e8e	-3.825323800518092e-101
220	0x2ce3966544cfd5fe	1.8780621780595157e-92
221	0xad4b775d7a6bc744	-1.6854310891741928e-90
222	0xa98c405e5c328b72	-1.5036687022830209e-108
223	0x2c90974ed83ed49e	4.971130343626177e-94
224	0x2a4fe243b16871c9	6.950918825700571e-105
225	0xaba0211120f4c877	-1.474834817152094e-98
226	0xa600c1a7f821f75f	-1.2376969789225304e-125
227	0xaa64316b6d48a07e	-1.7608944965967362e-104
228	0xa5a175272c471653	-2.014823938842348e-127
229	0x2b85cc6cc1ffaf7a	4.983090019231596e-99
230	0xae3de8751a2f59d2	-6.013802422539945e-86
231	0x26e73426236d37fe	2.80807774724913e-121
232	0x297884c2d7ce4ba4	6.524950369206756e-109
233	0xa4ce2c3cfab182be	-2.1254338664367211e-131
234	0xa77df274dad19eea	-1.8555660823552286e-118
235	0xa9cf02d4259794a0	-2.6408760762020298e-107
236	0x20daad622c1fd002	2.037434760840024e-150
237	0xa9d024e70aadd479	-2.7496457650301886e-107
238	0x2aeb722c7938c03f	6.1270355043689405e-102
239	0x25b9ce5f15ce0630	5.956688097822071e-127
240	0xab3466366f855a42	-1.4572566409108486e-100
241	0x245198de9cf9bd3f	9.684209836066253e-134
242	0xa3d2ce8587b9b68a	-4.042919955145052e-136
243	0x2b0a79dc4b2ac4c8	2.364199559469098e-101
244	0xa9d0033348138b69	-2.727223489457028e-107
245	0x2a8bf0e337d59301	9.746146565181178e-104
246	0x2091737c2da83d17	8.330006469022484e-152
247	0x24120b7f3e5c4130	6.206641765911098e-135
248	0xa1615fcad8bb96e8	-6.79386132356246e-148
249	0x2b3c404574f2ad2b	2.0181628232950757e-100
250	0x24907d954306b355	1.4520356830462854e-132
251	0x2c392d07ab514e8a	1.1786540765213054e-95
252	0x24a30368be0a97fc	3.3483419272400854e-132
253	0xa890975f8346183c	-2.694896470283025e-113
254	0xaa3dfdd66804d10e	-3.2691923838285108e-105
255	0xac31904de6398deb	-8.22275058502596e-96

fc.bias f8 [1]
0	0x3fc6689f1342f43e	0.17506779137139178

exp_avg f8 [64, 1, 9]
0	0x3f5994ad50dc52b4	0.0015613262689317233
1	0x3f55607a70248a0c	0.0013047404941707334
2	0x3f535c85aea7cba7	0.0011817269793225978
3	0x3f517d6ca7c06d53	0.0010675011717527674
4	0x3f55d2f7515da51e	0.0013320365155443169
5	0x3f56d87874cf444f	0.0013943840342458718
6	0x3f43b67a2b111f8b	0.0006015869640885058
7	0xbf5d2667b681090e	-0.0017791760274268906
8	0xbf6be001c59bd5b3	-0.0034027132613753896
9	0xbbf9522f00a6c7b9	-8.579098566371533e-20
10	0xbbf98c4ae92e168a	-8.65600520982142e-20
11	0xbbf835a506e655a0	-8.202514378931696e-20
12	0xbbfb0cb7634dbce8	-9.164785791354588e-20
13	0xbbf912bcc56391f5	-8.495128197642297e-20
14	0xbbf26651f3b1666e	-6.234056777725042e-20
15	0xbbeb6ea6f26e96d7	-4.6472013569581657e-20
16	0xbbe6ab93d6bb5209	-3.840485430046348e-20
17	0xbbe34706f659c736	-3.2657270555021813e-20
18	0xbed4723091d7ddc4	-4.874719051077074e-06
19	0xbed44f5e10427310	-4.842288266496101e-06
20	0xbed451e9f753263f	-4.84465987433399e-06
21	0xbed4400eb44c4fa8	-4.828029720699909e-06
22	0xbed40d7902d11319	-4.7809190109645905e-06
23	0xbed3e93b8c7fe503	-4.747167800183948e-06
24	0xbed360e9c166e086	-4.620210367560609e-06
25	0xbed36ba3a80d5588	-4.630199897122883e-06
26	0xbed3744f8457ac99	-4.638275702610562e-06
27	0x3f7be20a4aa7d687	0.00680736560979301
28	0x3f7b4bb6c02d9a18	0.006664003248124682
29	0x3f7beec8111642d5	0.006819516669012334
30	0x3f7f5ae4130536ce	0.007655039706447387
31	0x3f800faeb5a0f9f6	0.007842411916610264
32	0x3f8034c6656ae498	0.007913160295503638
33	0x3f80abe4fcb75329	0.008140362703593933
34	0x3f8101dba985faac	0.008304325209562556
35	0x3f81aa023eef969e	0.008625047250414849
36	0xbbdd6110d75e7d3b	-2.4885119216559184e-20
37	0xbbd44291fab53f06	-1.7160921365394313e-20
38	0xbbdb02cd78047148	-2.2879162642994e-20
39	0xbbe5bf78b6ae52b5	-3.684243613402069e-20
40	0xbbe628af518d8afc	-3.753867935391978e-20
41	0xbbe2ad39daee856d	-3.1639499590849035e-20
42	0xbbe49fbf080c0d7f	-3.493842967616817e-20
43	0xbbe92ce333b2c57c	-4.2648687971000863e-20
44	0xbbdd590afa6ae433	-2.4858573658269395e-20
45	0xbf2ea1f162f31179	-0.00023370811093149558
46	0xbf13f97177f1c34a	-7.619624192202221e-05
47	0xbf0e33883c44106d	-5.7604403567197055e-05
48	0xbf240cac0761f612	-0.0001529655452862521
49	0x3f4f45453972eae9	0.0009543025979817629
50	0x3f4dbd4660b581c8	0.0009075730935528764
51	0x3f51b6c9a557b732	0.001081177634996999
52	0x3f50349bb90d7849	0.0009891052943298442
53	0x3f53c9f662ab8799	0.001207819567462276
54	0xbf413471c43e27b3	-0.0005250506878706679
55	0xbf104e21044a149c	-6.219936865122167e-05
56	0x3f41ae29ddfd17ba	0.0005395607404146054
57	0x3f534c9c7a95b20a	0.0011779335130440737
58	0x3f5f71f7da43462d	0.0019192619738998093
59	0x3f61c35f735068e0	0.002168356348659292
60	0x3f654c3d5a62ba6a	0.0025998304655197495
61	0x3f658b99ada8b3bd	0.002630043175733536
62	0x3f6847c57cebf81f	0.0029639107882522132
63	0xacf22e57c252a9b5	-3.4864202679960535e-92
64	0x2d566a4ec56c2df4	2.750965706210085e-90
65	0x2d9290b11ba2fd60	3.6455325617459844e-89
66	0xad84b6781d27d072	-2.0336185058217242e-89
67	0x357721701fad2728	3.8639185729685433e-51
68	0xb5a93403f02e9971	-3.368109184835294e-50
69	0xb4c300f3c3cf199d	-1.5500632016627025e-54
70	0xb4a95fd58e8c6186	-5.1742304651091086e-55
71	0xb4d17f2bc5fa7034	-2.854292428881786e-54
72	0x3f7783a87ec41583	0.005740793403906766
73	0x3f7735b6dd60e26b	0.00566646033808436
74	0x3f7746d07c1943e0	0.005682768243404163
75	0x3f778ee45523aa83	0.005751506733057912
76	0x3f768e11319ff0ac	0.005506579555000151
77	0x3f71323cd4b2c774	0.004198300953406665
78	0x3f6648a9565b99cf	0.0027201945657566516
79	0x3f57e83826690092	0.001459173997901107
80	0xbf253664dfe71a6d	-0.00016183835391654928
81	0xbe91dbc6c9ebf943	-2.661124173657578e-07
82	0xbe920a0f1b8c8757	-2.6880641317189824e-07
83	0xbe924fd3743d0c91	-2.728673857874435e-07
84	0xbe92b518b1517231	-2.787621025729591e-07
85	0xbe92c27b930d4ae8	-2.795412852768957e-07
86	0xbe91cdab64169f1b	-2.6529128057749785e-07
87	0xbe91db3d7b6366a2	-2.6608119742047336e-07
88	0xbe917c9ad17cae09	-2.6057269185655813e-07
89	0xbe907fef9e676d8a	-2.4586543503703167e-07
90	0xbef4961d731c3721	-1.9632708421694144e-05
91	0xbef48e2fe1ef4593	-1.9603174333420575e-05
92	0xbef498b0c6076fc4	-1.964230284721959e-05
93	0xbef4a43cf7029b48	-1.968532109288969e-05
94	0xbef4a95f77cbd0b4	-1.970444963013468e-05
95	0xbef4a7f039efdc9f	-1.969910556095784e-05
96	0xbef4a03d194784ea	-1.967042187967376e-05
97	0xbef4ad5d3ce470e4	-1.9719318339204368e-05
98	0xbef4ae93128c2d9b	-1.9723827025903284e-05
99	0x3f4f0e0a39c9cd87	0.0009477186136578754
100	0x3f500dd8bd86273a	0.0009798637966888638
101	0x3f50dc94cf2f5f78	0.0010291531768782097
102	0x3f63633652e35ab4	0.0023666440020904903
103	0x3f719ec9c02c3f89	0.00430182274682512
104	0x3f70b382179b34c6	0.004077442333892017
105	0x3f71cc4ff93a381e	0.004345238110216724
106	0x3f70b0af50b791d1	0.0040747497800776725
107	0x3f719412c533e85b	0.004291604348731405
108	0xbf6356d7b3c6b00f	-0.0023607457098560112
109	0xbf5f10c7e5017bef	-0.0018960907073262109
110	0xbf5b91233715694d	-0.0016825527094029458
111	0xbf58b0c4545ba0d8	-0.0015069882660388358
112	0xbf588b6e00eb19f8	-0.0014980863813193173
113	0xbf627c82e926af87	-0.002256637272884224
114	0xbf716085567f9d09	-0.004242440081703388
115	0xbf750574ff7d0bb7	-0.005132157348103065
116	0xbf7a1399615be7c9	-0.006366347448187378
117	0x3f5e42182d2f4a06	0.0018468128298435595
118	0x3f5ccace3b2c06b3	0.0017573369956952855
119	0x3f5c6f7224055c6c	0.0017355551390972014
120	0x3f5c1ffbed04311d	0.001716609975178924
121	0x3f600eaa4ade40e0	0.0019601179146278985
122	0x3f6035b1fbfad070	0.0019787288909701092
123	0x3f61058f236ee8c7	0.0020778461143581037
124	0x3f57280f583ad28a	0.0014133596277307336
125	0x3f536d12630137e3	0.0011856727178556285
126	0xb78d48f0d64bc2da	-4.202180635196073e-41
127	0x37bad7ae568e6722	3.0813683341382245e-40
128	0x37badd1b06f63dd5	3.083800793990059e-40
129	0x37b7a2bcd6665bb4	2.7132445990551752e-40
130	0x379893f9679443f4	7.053547068414955e-41
131	0x374f720b3962c545	2.8201285192221446e-42
132	0xb74491603b008b20	-1.8445907907961546e-42
133	0xb70ae03ef968bd1f	-1.5064497100659471e-43
134	0x36dbdf829bcfbce0	1.9529256780104092e-44
135	0xbe552d63fc4f2188	-1.9722903993829888e-08
136	0xbe550d676fae1ad2	-1.9606537708943647e-08
137	0xbe556841bd7a602b	-1.9937058086562648e-08
138	0xbe54c14ab3af786f	-1.9329642979872354e-08
139	0xbe5404025c8c514f	-1.8641036966699813e-08
140	0xbe5378ff9de20347	-1.813531890675693e-08
141	0xbe528aa12b27cc17	-1.7268137761675568e-08
142	0xbe51a5bfbccedea1	-1.6435475025838006e-08
143	0xbe515129f667c34c	-1.6127756375124077e-08
144	0xbf2e031a63600384	-0.00022897431489357298
145	0x3f14745bece56e28	7.80278307720919e-05
146	0x3efe3ad0e7defdee	2.88293363082097e-05
147	0x3ef4bb69a28cadbe	1.9771652804907154e-05
148	0x3f57487f2bd53d68	0.0014210931688756982
149	0x3f540ded9de8c447	0.0012240238644489908
150	0x3f563b80f14150c4	0.0013569602206376244
151	0x3f554979ae0ebe6f	0.0012992561607737781
152	0x3f570c45d053ee88	0.0014067346358492012
153	0xbea0f331752f7bdc	-5.05148572190499e-07
154	0xbe96dac604ccb2aa	-3.405598405944243e-07
155	0xbe9721f331a3275f	-3.447028561585692e-07
156	0xbe97084d9af11015	-3.4321001413464426e-07
157	0xbe97abf1e4b21db2	-3.5273521765312453e-07
158	0xbea33674bd696c63	-5.725836399005326e-07
159	0xbe9f0fecae1f841d	-4.628629267627723e-07
160	0xbea1d6e2839b6422	-5.316553661440733e-07
161	0xbea03ab8698b4e09	-4.836731078657399e-07
162	0xbf5ece04fded2670	-0.0018801735638639648
163	0xbf5f0fb47e00cba6	-0.0018958342188965887
164	0xbf61ca09ce5b4277	-0.0021715346837043975
165	0xbf615e75315e617e	-0.0021202362940579414
166	0xbf5cf14d41787c2b	-0.0017665152025825397
167	0xbf60151d0b31e0e9	-0.001963192678484761
168	0xbf68276f88012805	-0.002948491892344587
169	0xbf6a6f12c28f9d27	-0.003226791992790762
170	0xbf72a93f5e78b95e	-0.004555938277503861
171	0xbf3ba1edd2706e26	-0.0004216390247522038
172	0xbf3f093e4d625d12	-0.00047357340862093464
173	0xbf3887278715e2a3	-0.0003742667677993172
174	0xbf2e02f9a28d576f	-0.00022897050191755415
175	0xbf221a36b3119463	-0.00013811032980296225
176	0xbf30ccc93b62e373	-0.00025634682550506395
177	0xbf1f738dc5ebd7b2	-0.00011997750105394061
178	0xbf1fb6a3657b3d44	-0.00012097713749458389
179	0x3f0053276156f468	3.11371224301714e-05
180	0xbee7cbb37a2a1379	-1.134667747249863e-05
181	0xbee7c1ced52ac350	-1.132825005831372e-05
182	0xbee7eec8b0bb82a2	-1.1412024398750363e-05
183	0xbee82144cde7cfe1	-1.1506059704104124e-05
184	0xbee81fcb545883d1	-1.150331321314756e-05
185	0xbee850ee296df184	-1.159483626422191e-05
186	0xbee8850670a40aac	-1.1691870458912144e-05
187	0xbee8905d3df19ff2	-1.1712991122972392e-05
188	0xbee89b5a3f03f2ec	-1.1733458422197186e-05
189	0xbe7f21baa5a28ae0	-1.1597482210910649e-07
190	0xbe7f49707adc3180	-1.1655268280733162e-07
191	0xbe7f6e3a0aaefe30	-1.1708800921796183e-07
192	0xbe7f8d3d262ac967	-1.1753929522287613e-07
193	0xbe7f0540dff654bc	-1.1556044653687324e-07
194	0xbe7da55b49a189dc	-1.1043967376856086e-07
195	0xbe7cca50cba82f94	-1.0725220792750534e-07
196	0xbe7b9c4df0818a4e	-1.0285736718041263e-07
197	0xbe7abc359073af66	-9.959635259890634e-08
198	0x3f6bb75df3c3e953	0.003383334637075888
199	0x3f67b69c31b02cdd	0.0028946924844653736
200	0x3f686478c01e96f9	0.0029775961310914948
201	0x3f6b40911ba40ce1	0.0033266863002850843
202	0x3f6ab2b62b5bed9d	0.0032590444560562496
203	0x3f639194d40700a3	0.002388754539623576
204	0x3f513d69bfba8167	0.0010522396759498843
205	0xbf2489073f7dcabc	-0.0001566716525719015
206	0xbf5c3fdd9ba7e9d6	-0.0017242111340452968
207	0xbdc0fa83e991398e	-3.0883848599955325e-11
208	0xbdc171307f8a53fa	-3.1727079247269815e-11
209	0xbdc1b61be504955f	-3.2216781870075494e-11
210	0xbdc1f42f8b69a3a9	-3.265786376273832e-11
211	0xbdc20dce2a9886ab	-3.283990208629747e-11
212	0xbdc244c523f8b378	-3.323045007257516e-11
213	0xbdc284ed77c416f1	-3.368631673150269e-11
214	0xbdc28fb56180fdd0	-3.376291970653987e-11
215	0xbdc2a5f5bda33d8d	-3.3921025454411483e-11
216	0xbf53448b7bd0f110	-0.0011760103364074105
217	0xbf4fd02662cede14	-0.0009708583289613237
218	0xbf4bad61b92a755f	-0.0008446433224268793
219	0xbf478e50df8beaee	-0.0007188696755230076
220	0xbf4080811c3c71c0	-0.0005036001607297488
221	0xbf3a383cfeab65d1	-0.0004000805771916224
222	0xbf2943622f6eaace	-0.00019274304915247457
223	0xbf20a3d313052322	-0.00012695266333142505
224	0xbeee3d9d739e6bb3	-1.441988171162708e-05
225	0xba5fb660392fcbbc	-1.601067334945881e-27
226	0xba625fc16ba59090	-1.855304430085855e-27
227	0xba60f764917636c0	-1.713166405549179e-27
228	0xba5ebb31b09e6f4c	-1.5515304650634612e-27
229	0xba5f00baecc1b507	-1.5652440376100333e-27
230	0xba5e604bd26c7d19	-1.5336040108690197e-27
231	0xba5f4d1435253c99	-1.580301175752336e-27
232	0xba5f2d963068cccb	-1.5740904226155506e-27
233	0xba5c815dd038794a	-1.43915177753444e-27
234	0x3f76fece50795432	0.005614095607218638
235	0x3f76e2b5ceb969fa	0.005587301431285935
236	0x3f772e05cd0c58f1	0.005659125003850672
237	0x3f776181c9b6c0e0	0.005708224281463198
238	0x3f76604d5308ad64	0.005462934540030193
239	0x3f7076af97ce7062	0.004019437704212066
240	0x3f5fc1f787c7c188	0.0019383351601583738
241	0x3f307ea077deb1e9	0.0002516881721657248
242	0xbf1bf4701f0351b6	-0.0001066392358127281
243	0xbf51611c7839abeb	-0.0010607507728319597
244	0xbf2c004130f037e4	-0.00021363063612550505
245	0x3f514a8b91b1b795	0.0010553706149738263
246	0x3f69cc843718ace6	0.0031492788628121214
247	0x3f6e3fcdc283bf70	0.003692533373502664
248	0x3f70b40ca6682354	0.004077958501974194
249	0x3f71ba5f53903a69	0.004328129166437302
250	0x3f7192cabbf56123	0.004290382318991956
251	0x3f71a6d632d19261	0.004309498513155847
252	0xbef79d0d96f3cdb4	-2.2519577609748326e-05
253	0xbef7c273dd5f0b76	-2.265890164899637e-05
254	0xbef7d9a6a6f4b1f8	-2.2745322380378672e-05
255	0xbef7f0596ae98f80	-2.2829880146693193e-05

exp_avg_sq f8 [64, 1, 9]
0	0x3f4643b8f56e12ba	0.0006794598692612876
1	0x3f461a2790cd7d42	0.0006745045844630886
2	0x3f45ebcd5078335b	0.0006689789306065606
3	0x3f4581f6779d01d1	0.00065636190922907
4	0x3f44eb2b535add67	0.0006383859206015419
5	0x3f423d320fe7f044	0.0005566114849098265
6	0x3f3c9a8842321843	0.0004364569342175698
7	0x3f39060fe2872f4d	0.00038183105291688253
8	0x3f37fbbf72df3831	0.0003659574894044919
9	0x3e30eeee1dc9c1c0	3.942595996732532e-09
10	0x3e30f6c33399b647	3.949719490365344e-09
11	0x3e30ee2bf372bea9	3.941906182694823e-09
12	0x3e3107b308963258	3.965123459941179e-09
13	0x3e30ef6fdc15efc7	3.943056937706496e-09
14	0x3e30ab9f38030221	3.8813795512592124e-09
15	0x3e306e417f4543ca	3.825567408279962e-09
16	0x3e3043d6a68ad0d5	3.7869890354459566e-09
17	0x3e30221a082bc16c	3.756305602272138e-09
18	0x3ec15a3071718084	2.068555555775953e-06
19	0x3ec189d13c7f3671	2.0907341173662847e-06
20	0x3ec1c4f6621e9e56	2.1182757032505856e-06
21	0x3ec216aeab1aad80	2.1563294801595838e-06
22	0x3ec223f26f2f72ed	2.1625063424249005e-06
23	0x3ec1fc6700b99b68	2.1440919278250274e-06
24	0x3ec1e1d293772e39	2.1317147475880137e-06
25	0x3ec1ba826948247d	2.1134081384972118e-06
26	0x3ec1973a3e1a8cb8	2.0969787194055534e-06
27	0x3f5bff23cd8346be	0.0017087793003622144
28	0x3f5bacdc4301297b	0.0016891623490829777
29	0x3f5c7a3cede4bd81	0.0017381281864564393
30	0x3f5f457b91f1ca4d	0.0019086558093276585
31	0x3f601ea8991608c6	0.001967744152978931
32	0x3f5ff8251dd328af	0.0019512522188045824
33	0x3f5fff61d3c21c0f	0.0019529776900826278
34	0x3f5fd6b8c0f6f0aa	0.0019432834850326244
35	0x3f60141f45e499e0	0.0019627199937019973
36	0x3e2eb79a0a2f5baf	3.575952049646119e-09
37	0x3e2e3c460352cdbe	3.5198688639010703e-09
38	0x3e2e74e12dd88710	3.545610345918957e-09
39	0x3e2f4c472a3f513f	3.6435621897877126e-09
40	0x3e2f47e3300475a2	3.6415656047382445e-09
41	0x3e2f061b1bc0d74d	3.6116516149520635e-09
42	0x3e2f3e9ed12f53bf	3.6373514282821957e-09
43	0x3e2f97a900784d4c	3.6778420341854846e-09
44	0x3e2eaefa8e34da4c	3.5720307698276495e-09
45	0x3f020b079ac23314	3.441445309801928e-05
46	0x3f0285384b4c43b8	3.532484098490253e-05
47	0x3f01f7b5ad39b99d	3.427050765202335e-05
48	0x3f00b7c8ebf87fb5	3.188688196709093e-05
49	0x3ef0a0d35fbf8a0c	1.585791140702214e-05
50	0x3ef0e1ccbe1ad58f	1.6099958776568493e-05
51	0x3ef0f140ecc9532c	1.6157528806753894e-05
52	0x3ef2c8a27999cbf6	1.7913560077475293e-05
53	0x3ef456a7e2ca5159	1.9396304355172092e-05
54	0x3f3f5ce08dad8230	0.00047855837117619354
55	0x3f4024b8e2e3a6c6	0.0004926588788098589
56	0x3f4186c6c754d50d	0.0005348654364413522
57	0x3f42567fb33383c0	0.0005596278700999921
58	0x3f4447a4e0847d84	0.0006188921989042505
59	0x3f4438a9690e700c	0.000617106170568872
60	0x3f44203926cabfe1	0.0006141928730212209
61	0x3f441980647af3cb	0.000613391582156114
62	0x3f4416e92db56101	0.0006130827490933578
63	0x3dda581a2ffbc641	9.583945789401598e-11
64	0x3ddd55ff0028d1b2	1.0672346343459096e-10
65	0x3ddf1d6867c4a3e0	1.1319525346743744e-10
66	0x3ddeb71ee4d11017	1.1174166557687248e-10
67	0x3e06a6bb65a4e11b	6.592395061165085e-10
68	0x3e06e0d4eb62d3ef	6.658446769399722e-10
69	0x3e03ad32e3b0f34b	5.726632010455638e-10
70	0x3e032d049f7482de	5.580907393427958e-10
71	0x3e029c3508734d45	5.416276462930042e-10
72	0x3f41469f323da305	0.0005272176099256626
73	0x3f4120f2d2b1eef7	0.0005227265986742215
74	0x3f4116b7dbde5f7f	0.0005215070484494293
75	0x3f4106857dc53891	0.0005195762455885313
76	0x3f40d8e4fdcc1b93	0.0005141370889710665
77	0x3f3a8260ef32f6ab	0.00040449968873788417
78	0x3f2ea5f12447ce75	0.00023382729172248857
79	0x3f2071d0a1b8b33a	0.00012546226285916636
80	0x3f1926f21b65a500	9.594776824929999e-05
81	0x3e89277d08763ab9	1.874137789234325e-07
82	0x3e89447eca49fe82	1.8825798977008633e-07
83	0x3e89769240b29146	1.8971539392677226e-07
84	0x3e89a4d1bdc9cb9e	1.910613879500037e-07
85	0x3e89a89b0eac4313	1.911715864157497e-07
86	0x3e896904f24a06af	1.8932097946640724e-07
87	0x3e891908b076f810	1.8699309854529506e-07
88	0x3e88db2f3ff7b3fe	1.8519304488488607e-07
89	0x3e88942db2600df2	1.8312649635597324e-07
90	0x3f213a6fc3e2fc14	0.00013144125290939833
91	0x3f217c7f57f1a574	0.00013341001974546583
92	0x3f21bbe6015ad994	0.00013529951745789844
93	0x3f21ea5d0cf0110e	0.0001366842829783128
94	0x3f21f81d996c959c	0.00013709412879696077
95	0x3f21e16c24b52db1	0.00013641781911598102
96	0x3f21bbe2ce851a95	0.0001352991450948761
97	0x3f219da0edddb10a	0.00013439740626653595
98	0x3f2183a28adfe3ee	0.00013362273369901763
99	0x3f102b80f5768625	6.168341257375332e-05
100	0x3f0bc5c8c33b071e	5.2972020424769806e-05
101	0x3f08f0d7c5f52601	4.757078635948473e-05
102	0x3f01e7f0b5f99d77	3.415301648318052e-05
103	0x3f0ec98e366fb327	5.8722164616975465e-05
104	0x3f0fe7da10cf81ed	6.085523828125773e-05
105	0x3f1038d83ed6c2b8	6.18822084195264e-05
106	0x3f10be4410bb35c8	6.387033880202793e-05
107	0x3f136bc678efd8aa	7.408522490934497e-05
108	0x3f42468c58cffcab	0.0005577264106476817
109	0x3f4222e6dac930ed	0.0005534770221600462
110	0x3f418f3de781433d	0.0005358745829743061
111	0x3f416efbede11146	0.0005320291636583894
112	0x3f413e53cdd98125	0.0005262288284022849
113	0x3f3c63e94d906888	0.0004332012736668685
114	0x3f3386aefc55336e	0.00029794475661475736
115	0x3f2dc8a38edc4c0d	0.0002272319465466969
116	0x3f2b2f808de3f1fc	0.0002074093271814541
117	0x3f63d1a472699dba	0.0024193012098298857
118	0x3f641d390cdb3c16	0.0024553407919039134
119	0x3f641634b99d55e3	0.002451994875552131
120	0x3f6419973d061d2e	0.0024536088823797963
121	0x3f64246183cee5ad	0.0024587540233056066
122	0x3f64043db112e16e	0.002443428508368032
123	0x3f63f2565ae864ec	0.0024348913787092166
124	0x3f629e4ecd51e502	0.002272752676216628
125	0x3f617f882b2a71b1	0.0021360072654046038
126	0x3e0e90ffad6f9fa6	8.89599361945988e-10
127	0x3e0e0db524161ea4	8.74673285339309e-10
128	0x3e0ddceee42a038a	8.691282765776265e-10
129	0x3e0da1851b9c6655	8.623737758807073e-10
130	0x3e0ca6d268f176d6	8.338727086318671e-10
131	0x3e0b9fcfa0100b5f	8.039718336604633e-10
132	0x3e0aae6539056d31	7.765260535648421e-10
133	0x3e0966f61b11e654	7.393011117703976e-10
134	0x3e089b0a7c0e5dec	7.161180469036227e-10
135	0x3e6c21b16af4f2e7	5.239921329689772e-08
136	0x3e6c1722e082250f	5.2322402467150694e-08
137	0x3e6c3702b596bc6b	5.2554318851073815e-08
138	0x3e6bfcda427eff15	5.213116366321377e-08
139	0x3e6bb75c5b9bd5a4	5.1625544240510984e-08
140	0x3e6b8326d80aa367	5.124567348708318e-08
141	0x3e6b29710344168f	5.059294530717842e-08
142	0x3e6ad09f9f7e6c0b	4.994670982292738e-08
143	0x3e6aadc5221f6b85	4.969311741240094e-08
144	0x3f0d3ce234ba8e8b	5.576672864762458e-05
145	0x3f0be89026ab75ca	5.323114313225302e-05
146	0x3f09ea35a9bf64c9	4.942871348107833e-05
147	0x3f074e4d5630c7aa	4.4452414634923415e-05
148	0x3efd81c3cd0b8c31	2.8139966903217322e-05
149	0x3efea5c831f4c440	2.9227815614156017e-05
150	0x3effc73563616305	3.0306013478617454e-05
151	0x3effd4eba7629520	3.035709456668701e-05
152	0x3effb0d6c5b2b346	3.0222680248814868e-05
153	0x3ea184bf6814aa15	5.220933447004943e-07
154	0x3ea1a12ea9e673bd	5.254035675864861e-07
155	0x3ea1b0a8336df712	5.272050661445449e-07
156	0x3ea1c1c72c15a5f3	5.291982107361609e-07
157	0x3ea1bf511edbdf02	5.289116964115543e-07
158	0x3ea18113a8c48610	5.216659970977677e-07
159	0x3ea12575ddc9c7a2	5.110004469134609e-07
160	0x3ea0dcbc8561f4ec	5.025342584421883e-07
161	0x3ea09c84158c6294	4.950580133360546e-07
162	0x3f452b21afcff38b	0.0006460108266988935
163	0x3f45330e1456f258	0.0006469553706476934
164	0x3f449072ae32d5e2	0.0006275711024474296
165	0x3f442b14d9ed5293	0.0006154872715834085
166	0x3f44088633519f9f	0.0006113677287773351
167	0x3f420ac170efb891	0.0005505985772040913
168	0x3f3d5a6206bcdbda	0.00044789212437329267
169	0x3f3896ef2395bf27	0.00037520731310446354
170	0x3f36ee9b8b1c260c	0.00034991548010107685
171	0x3f03ecb257d31b0f	3.8003151510637466e-05
172	0x3f03b10cfce97b4a	3.755875478782826e-05
173	0x3f02c80d6af0c3e2	3.5822782017531715e-05
174	0x3f019d8e0249705a	3.3598800915441484e-05
175	0x3f011c5d48367d75	3.263625788040961e-05
176	0x3efeda8cc57f87ac	2.9424391271855026e-05
177	0x3efcb90938b185a7	2.7392193754476786e-05
178	0x3efc65dbf474fbbd	2.708233594472439e-05
179	0x3ef8f5684e1a6887	2.3802397555707413e-05
180	0x3ecb37b1322c3e8e	3.2445845062968424e-06
181	0x3ecb8023ca33f0ae	3.2783205640135636e-06
182	0x3ecbce74e3806328	3.3147896623227738e-06
183	0x3ecc0b49d4feae6c	3.343116681228146e-06
184	0x3ecc1fefc4a3a694	3.3527317430018437e-06
185	0x3ecc2e9d0c8463c0	3.359566196914067e-06
186	0x3ecc380aa1f26ebe	3.3639564801078044e-06
187	0x3ecc2b966e020ad6	3.358157172840335e-06
188	0x3ecc1748ee4efd70	3.348702977551132e-06
189	0x3e7eb6d2ac24d6bb	1.1441913286700556e-07
190	0x3e7ecd0dc3e98940	1.1474263404137608e-07
191	0x3e7ef830c92fda04	1.1537035708706798e-07
192	0x3e7f2b3330a717f1	1.1611264142457258e-07
193	0x3e7f1f3ec864bd50	1.1593867741266665e-07
194	0x3e7eb86670027ce4	1.1444208425575435e-07
195	0x3e7e27757f6e2636	1.1233291262297452e-07
196	0x3e7db3bb5c643652	1.1064886171562402e-07
197	0x3e7d5de2ce468a0e	1.0939963918666785e-07
198	0x3f43c589c942298e	0.0006033823760998468
199	0x3f4359ff9912aa7c	0.0005905626332112913
200	0x3f433151f921dcb0	0.0005857134112962261
201	0x3f42ce8e2b41f501	0.000573939722485456
202	0x3f428e3bfd9ebb74	0.0005662720607143416
203	0x3f3e5ac0935b2d1d	0.0004631729274080109
204	0x3f358dfd7b729e27	0.000328897843653727
205	0x3f2e3d7a1bcfef0b	0.00023071399291995533
206	0x3f290527bdefb120	0.00019088850146376738
207	0x3dddb2b28f04f987	1.0804082954228068e-10
208	0x3dde383374dfa036	1.0993802848842434e-10
209	0x3ddec51d598db278	1.1194053183385271e-10
210	0x3ddf44c165c756a4	1.1375441686239458e-10
211	0x3ddf5a87373aa1dc	1.1406382592551486e-10
212	0x3ddf71ca4d62cdc2	1.1439439963561312e-10
213	0x3ddfa8967cbe9153	1.151731203343127e-10
214	0x3ddfa4dd3b31abe0	1.1512020399321727e-10
215	0x3ddfd92ecafe6c71	1.1586369602327151e-10
216	0x3f0e61752096ef64	5.7946574155447514e-05
217	0x3f0caed8194efb4a	5.470845204723922e-05
218	0x3f0ab7eb3d28e5ca	5.096136705557868e-05
219	0x3f08a16fe0ae5f75	4.69791667320742e-05
220	0x3f01c169cd12c119	3.3865968029347066e-05
221	0x3f00bedd36fb9a44	3.19396266357697e-05
222	0x3f0010dd1369ae86	3.064322156806375e-05
223	0x3effe24a7d1956b1	3.0406903368826707e-05
224	0x3eff0702387c490e	2.9590013155341792e-05
225	0x3db6901f5aaad7ce	2.052090933526092e-11
226	0x3dbe3dada788c3ba	2.750396652693459e-11
227	0x3def262f7eea3b54	2.266399840868508e-10
228	0x3df1e7d9f6dc25f0	2.605617864352305e-10
229	0x3df1c442a0f47b75	2.585386635290961e-10
230	0x3df2abb186add6bf	2.7169411744633506e-10
231	0x3df1bb17b4946eca	2.580175418631435e-10
232	0x3df2564430def1e0	2.668381495544976e-10
233	0x3df28ebf464b7ff9	2.70048711079504e-10
234	0x3f39affd7e9a952c	0.0003919595606965583
235	0x3f39a0b4cd079b8d	0.00039104856571586176
236	0x3f3996501141477f	0.00039042906542362943
237	0x3f39a192f40d3d6e	0.0003911002896090564
238	0x3f399e65b3ea1b10	0.00039091093996328295
239	0x3f3007517160adbd	0.0002445768199119366
240	0x3f1397a760a0d0bd	7.473906603722414e-05
241	0x3eed88f8855e8e80	1.4083405556259603e-05
242	0x3eec8a8788267e55	1.3609471584185405e-05
243	0x3f1bf2a833386fd1	0.00010661269771400298
244	0x3f1ac5f78efd8ecf	0.00010213206746595013
245	0x3f15230845287d7e	8.06306646059431e-05
246	0x3f217e514f5fe4d2	0.00013346426538854997
247	0x3f22d7060a47edd0	0.00014373730404303045
248	0x3f230e98908cf0d0	0.00014539348947007489
249	0x3f2382d0505523ab	0.0001488570489221163
250	0x3f2476994dc65937	0.0001561224115788713
251	0x3f25f86a56029932	0.0001676206402454
252	0x3ee8e9aec165aaf7	1.1879359629947998e-05
253	0x3ee95abab57f3327	1.2089925505076572e-05
254	0x3ee9a252cc30e64f	1.2223279901235578e-05
255	0x3ee9e4c74a4da836	1.234706207649617e-05
