dl_experiments/best_checkpoints/wiki_en_15min_CNN_cuda:0_checkpoint.pt (torch, 222865 bytes, 18 tensors)

block_1.0.weight f8 [32, 1, 7]
0	0xbf1ea687e7409500	-0.00011692242134183142
1	0xbf126f6474afc91b	-7.032442697133374e-05
2	0xbf02a10c0ed6f2a7	-3.553216979976697e-05
3	0xbf07d491239262db	-4.545276574069941e-05
4	0xbf026343d6fd20b5	-3.507185726775564e-05
5	0xbf23b32e17d41f33	-0.0001502984777419447
6	0xbf131c3b48f641fc	-7.289993140192208e-05
7	0xbfb7f0126f94880e	-0.09350695823789598
8	0xbfaa534445c55966	-0.05141652442641735
9	0xbfc0e500d78bd4ae	-0.13198862576215248
10	0xbfcefd3392d49c92	-0.2421020953126783
11	0xbfce386918f757f8	-0.23609651297618917
12	0xbfcaec6172ef6066	-0.2103387652593966
13	0xbfba08f3cf6a6667	-0.1016991025338939
14	0xbf25feb473170367	-0.00016780808213747863
15	0xbf22f814a3b03fdb	-0.00014472248025798506
16	0xbf233c928770a29b	-0.0001467636936649711
17	0xbf2e2d599f713f88	-0.00023023337391458684
18	0xbf13860862bb29c8	-7.447649175699241e-05
19	0x3eecb97051c38759	1.3696847013414526e-05
20	0xbf18adf74b4dbc70	-9.414502967585044e-05
21	0x3fb19b69c1e60670	0.0687776659379098
22	0x3fa1334103a10707	0.03359416169452172
23	0x3fafec2764cc826f	0.06234858613448046
24	0x3fbb39eb4b3773ab	0.10635252558081613
25	0xbfbb8b3ec7a3cf19	-0.10759346364994506
26	0xbf9878b480e0b7ce	-0.023897953382565444
27	0xbfceac28d50e3015	-0.23962889102074372
28	0xbe27989f785b5c00	-2.7469572752352772e-09
29	0xbe336a71b0ee50ed	-4.5205925798669545e-09
30	0xbe3c79987dee21a7	-6.62984864133466e-09
31	0xbe440b5f1a972241	-9.333910383223688e-09
32	0xbe46f3eaa84a2dbb	-1.0688230086812753e-08
33	0xbe4034c73e2fc78e	-7.546583751978328e-09
34	0xbe2530cf94164692	-2.466918364634018e-09
35	0xbf8b4e34046e7e5a	-0.0133327545025274
36	0xbf8d2c9ea44154e9	-0.014245261562033611
37	0xbf8e72d4fdd61310	-0.014867462154833727
38	0xbf9103ddad962af7	-0.016616309852490265
39	0xbf8b2d6aa64dd8ba	-0.013270219040105825
40	0xbf8a81eff6fac8b6	-0.012943148350448613
41	0xbf88e9fbf5634904	-0.012165039468901025
42	0xbfbddba842aaa581	-0.11663295390703433
43	0xbfb7e2f00e87a78a	-0.09330654482587711
44	0xbfc5365d15dd70fd	-0.16572154586436474
45	0xbfc6e4b3a040b56a	-0.1788544208988399
46	0xbfc32f48161652d9	-0.1498804195258774
47	0xbfc1528be5212b9b	-0.13533161819426884
48	0xbfb2f77cf6d5d526	-0.07408886934520761
49	0xbfb6c47aea5ff651	-0.0889355489925603
50	0xbfb6a0b02835571f	-0.08838940602921895
51	0xbfafb3f99d104816	-0.06191997568397782
52	0xbfc18753dfca7fa3	-0.13694237162871756
53	0xbfb9b2c734241c06	-0.10038418791747014
54	0xbfb37aa7b839a752	-0.07609031913457656
55	0x3fa2f4cea1e0600c	0.0370239803889377
56	0xbfb675b318af2616	-0.08773345329895962
57	0xbfabb5739ec1c6f5	-0.05411874115897134
58	0x3f91eddaacd30c9c	0.017508904264798106
59	0x3fb0dcc5f73354d9	0.0658687332646254
60	0x3fdd9eff782fb504	0.46282946335743724
61	0x3fe24cbced8b126f	0.5718674315945246
62	0xbff2096ab08704ac	-1.1272990127184057
63	0xbfba8368a5aab75d	-0.10356763882256588
64	0xbfaab7b5d1393450	-0.05218284777638671
65	0xbfb2ab125fa37517	-0.07292284808086823
66	0xbfbbbb56567e7b3a	-0.10832728969260766
67	0xbfb46fa75687f5b8	-0.0798286997087051
68	0xbfa8baa9683ef667	-0.048299116111121525
69	0xbfa17c48a3ada527	-0.03415133474374903
70	0xbfaeedfe97275692	-0.06040950389039525
71	0xbfb6c67f9e29244f	-0.08896634684892145
72	0xbfc3786669ff11a2	-0.15211181808093693
73	0x3f78e979b4ca9ece	0.006082034506711144
74	0xbfaef560db8d06b9	-0.06046583824219227
75	0xbfa17ef8a6771123	-0.03417183906597845
76	0xbf844cc5acdbb72a	-0.009912056291308941
77	0xbfbaa5d3e0ab74ef	-0.10409282908536331
78	0xbfacebd8144c8c91	-0.056486847379596423
79	0xbf9196c7b6cf4734	-0.017176743061845204
80	0x3fad602521e7fa0b	0.05737415350812477
81	0x3fba5eca9cae4511	0.10300890279019749
82	0x3fc949ee5e13aed5	0.19756869882200215
83	0x3fc6e102a9105c0a	0.17874177222321946
84	0x3fd115eab6855b17	0.266962698214614
85	0x3fcd0fb5b887a651	0.22704192648170587
86	0x3fc56625d8183dde	0.16717980433939678
87	0xbfc9a18ab06f0bef	-0.2002423631184622
88	0xbfcde9c07cd54cd5	-0.23369604201670904
89	0xbfd0b1d641373853	-0.26085430496903433
90	0xbfc0cef39dc60bd8	-0.131315662420177
91	0x3fa70e53e495c96c	0.04503118672700421
92	0x3fb62425f90aa772	0.08648907976262679
93	0xbfa6d8407bed6716	-0.04461862099442564
94	0xbfc768fe10c87394	-0.1828916150997456
95	0xbfc52b2626fc8034	-0.16537930396680312
96	0xbfc05bdca77ec7db	-0.12780340364912388
97	0xbfb887404da0c913	-0.0958137692948962
98	0xbf31fa458ae4c7df	-0.0002743167668938211
99	0xbf1941517d9f8198	-9.63407505021385e-05
100	0xbf4371e48101bf53	-0.0005934110395297932
101	0xbf35c8a048226b8a	-0.00033239281777646594
102	0xbed70bfae4c20fb7	-5.494784613205927e-06
103	0x3f2ae6c6da1cfd55	0.00020524194138180998
104	0xbeddc0e10c877c44	-7.093771451554288e-06
105	0x3db247ffd56d2572	1.6626697708864295e-11
106	0xbd94443759224499	-4.608061668975655e-12
107	0xbd894de75d270905	-2.876767164547573e-12
108	0xbd8d62e87c320a32	-3.3408423339198244e-12
109	0x3da0ae0cf093edb6	7.585133491841497e-12
110	0xbd9d6a167fd30179	-6.688061560516386e-12
111	0x3d62c43094c20515	5.33372209717305e-13
112	0xbee5a1d53d7d7474	-1.0315017717916197e-05
113	0xbee552905a778062	-1.0167367533620186e-05
114	0xbee4d380ba685d1f	-9.930697911149506e-06
115	0xbee41f1c1761c567	-9.594689555055947e-06
116	0xbedd5132428bace9	-6.989758767099476e-06
117	0xbed30c18ab528f07	-4.541218619955528e-06
118	0xbec139b9fbd14258	-2.0534389180498534e-06
119	0xbf5196e3a971c462	-0.0010735724697748185
120	0xbf53f4250bc3295f	-0.0012178766037772221
121	0xbf54264f06ce153a	-0.0012298366302457412
122	0xbf618c22034e492b	-0.002142015868636401
123	0xbf3a039711ee4dfa	-0.00039694250329455583
124	0xbf51a3abdebe72f7	-0.0010766199511415533
125	0xbf3355cf84f966b8	-0.0002950317038759964
126	0x3b38328ffdbbee1d	2.0015710838470163e-23
127	0x3b521dee78c87dee	5.994386006846992e-23
128	0x3b30cef1d7435e37	1.3903564160955763e-23
129	0xbb3fcee431a244d1	-2.6311101100028228e-23
130	0x3b3009da99e5d081	1.3266729503838984e-23
131	0x3ae5c251f9f18d76	5.624586049520707e-25
132	0xbb20e54979683d0d	-6.987878041772382e-24
133	0xbfafe637025a1566	-0.06230327514371474
134	0xbfb4714678e2368b	-0.0798534436346136
135	0xbf903b4d2e1bf9b0	-0.01585121721199706
136	0xbfc16cc035926e35	-0.1361313115674975
137	0xbfccf984f6d7fa5c	-0.226364727524884
138	0xbfd00d5699a74c14	-0.25081410413003025
139	0xbfb756f2987e3250	-0.09117046568844356
140	0xbe67f638c48e76c4	-4.46323374432844e-08
141	0xbe67cb08655e3114	-4.431809645576838e-08
142	0xbe6b01a15e0c62a1	-5.0303281323536004e-08
143	0xbe713284c3722ef3	-6.406507756429678e-08
144	0xbe71a9b77cd220fc	-6.57996388088868e-08
145	0xbe60363dd85fc92d	-3.019698184549429e-08
146	0xbe288ba10597766f	-2.85746363787067e-09
147	0xbf4d561fcbadef99	-0.0008952765705170118
148	0xbf551509437bff01	-0.0012867536988209751
149	0xbf55a4c2898e42b9	-0.0013210201052268734
150	0xbf547f64872a0536	-0.001251075908527644
151	0xbf51c3926ffadc5c	-0.0010842256596512922
152	0xbf54fa2f1ece182d	-0.0012803516540045399
153	0xbf4f73ffeffcf893	-0.0009598731703375378
154	0xbf64c95c387fca7f	-0.0025374222932382224
155	0xbf6c749e01ebf46d	-0.003473576172267337
156	0x3f451ed30a951bc4	0.0006445436930925187
157	0xbf66e8a6490b7ab0	-0.002796482826269063
158	0xbf77aed2fc8f72fb	-0.005781959692254142
159	0xbf4aab6c54c016d6	-0.0008138922653421986
160	0xbf77b8c25d850946	-0.005791434516427002
161	0xbe94ea3fd5e30daf	-3.116583310420107e-07
162	0xbe9f277a6b0cd83f	-4.642339304529616e-07
163	0xbe8c6406bf682cb0	-2.1152740688232002e-07
164	0xbe9baebe070ad49d	-4.125026924859891e-07
165	0xbea7a0bdcdb98804	-7.041661790991535e-07
166	0x3e851274005131bf	1.56999249297647e-07
167	0xbe6d098248bc3017	-5.4085895843670605e-08
168	0xbf78d81cbf28c245	-0.006065475742204789
169	0xbf810dc86f877463	-0.008327070144270537
170	0xbf84a75eaef01bda	-0.010084857667619507
171	0xbf86e085ae4ae772	-0.011170429593551499
172	0xbf85ae77d17b2a23	-0.010586677627903168
173	0xbf7e92ad9f004584	-0.007464101989186903
174	0xbf6695c6523dd97e	-0.0027569650136982085
175	0xbedcff130e6f0cb9	-6.913276798084494e-06
176	0x3e9facec7d4ed3b2	4.7200148616958667e-07
177	0xbed4b5238912fb31	-4.937070245235665e-06
178	0x3e8ccba3ca550294	2.145429551046221e-07
179	0x3e968e9fdc8942b9	3.361273824042271e-07
180	0xbea875900bf640e9	-7.28941834825619e-07
181	0xbec2e9ff621bf7cd	-2.254730831262818e-06
182	0xbf78c728fefccb75	-0.006049308911132968
183	0xbf77c47d69758a1b	-0.005802621736935377
184	0xbf768737f02b3648	-0.005500048168597234
185	0xbf751d8fc9887804	-0.005155145329380776
186	0xbf738757eb3315fe	-0.004767745430574786
187	0xbf71ea29bdcf9b74	-0.004373705914054383
188	0xbf708262d2944f61	-0.004030595803914711
189	0xbfb1461ff51d99e9	-0.06747627004879288
190	0xbfaf9532642a2178	-0.06168515656196666
191	0xbfa7d77c44d648e2	-0.04656589832588211
192	0xbf9aa87a7121bccd	-0.026033318667427353
193	0xbfb23eb744e3c908	-0.07126946861152217
194	0xbfa59ae41db084ea	-0.042197350143632864
195	0xbf97881d9e1d6895	-0.02298017766529677
196	0xbf6389bf9711ede4	-0.002385019492576511
197	0xbf644e7a44965ffd	-0.002478827290087081
198	0xbf6418b7f8c0d73a	-0.0024531930157775357
199	0xbf640dac9c756c16	-0.002447926646409036
200	0xbf65007141fdc8d8	-0.0025636875215520986
201	0xbf63db62e4914672	-0.002423947477418414
202	0xbf611559aa641a0f	-0.0020853759079984056
203	0xbfb2a17cb7b5f202	-0.07277659878850076
204	0xbfaf3ab77ed82e12	-0.060994848474447264
205	0xbfb211f0fe386c3c	-0.07058626371910831
206	0xbfb305cb2affb543	-0.07430715369965406
207	0xbfb4a63ecd9f4a35	-0.08066170234750632
208	0xbfb05caf187e3873	-0.06391424510931802
209	0xbfa3cb7630224c35	-0.03866166436741773
210	0x3fa6237078e679f3	0.04323913074334831
211	0x3f9053365bedd611	0.015942429886726176
212	0xbfaebae11811cd07	-0.06001952570741236
213	0xbfc46779d958b965	-0.15940783608079837
214	0xbfc7208e4004bdb9	-0.18068102003006262
215	0xbfce0b57da7c275a	-0.23472116630756085
216	0xbfb9b9692e8e74b8	-0.10048539530403644
217	0xbfa9c0d7f46bd407	-0.05029940470368648
218	0x3f959d56df4f28dc	0.02110801446887299
219	0x3fbc6fd7579f6f1e	0.11108156098583463
220	0x3fb3eaaed4da809b	0.07779972740763912
221	0x3fc8c0e10e23ff84	0.19338620367488712
222	0x3fb4dbc434089a3f	0.0814783694300809
223	0x3fa1a785c326bc08	0.03448122031419848

block_1.0.bias f8 [32]
0	0xbf75590296b726de	-0.005211839782939013
1	0x3fc3e955dca8fbde	0.15555833124559987
2	0xbf26bed7ad105236	-0.00017353422893563877
3	0x3fb153b381f41a61	0.06768342898076575
4	0xbeeb02a28935f923	-1.2879511166682754e-05
5	0xbfa39457cbf5493b	-0.038241141936526245
6	0x3fc068133ed99f30	0.12817612236835307
7	0x3fd3fa30404611a0	0.31214529301385063
8	0xbfa30933aaeb2087	-0.03717957936675114
9	0x3fb195f2c9774859	0.06869428080179442
10	0x3fac4cc7a3025198	0.055273283623282043
11	0xbfc386b88519e3b0	-0.1525488519580711
12	0x3fb054b9c0d77e33	0.06379281004000674
13	0x3faf9f99beba62a4	0.06176453068946344
14	0xbf8115a16a85d5be	-0.008342038214986466
15	0xbf386a5b0037c29f	-0.00037255021763286407
16	0xbf71f0be42b51f80	-0.004379981236816266
17	0xbf8bc189f5c1b713	-0.013552739918135914
18	0xbd8228ff676f0b0b	-2.064569702763901e-12
19	0x3fcdaebbf2b8923b	0.2318949637566606
20	0xbf47db11279182a7	-0.0007280191195030054
21	0xbf808b2c8b99987d	-0.00807795334840144
22	0xbf8c004b074ca0f1	-0.013672434005983254
23	0xbeffc880b8ea1e00	-3.0310835024608893e-05
24	0xbfb1e8c25c465e1f	-0.06995787384800466
25	0xbf5f1ab4b8922715	-0.0018984570363351262
26	0xbfa3405ff376e4ae	-0.03760051581361644
27	0x3fa6c03a15b54621	0.04443532481185409
28	0xbf90c2612d79f834	-0.016366499329244458
29	0x3faec837ffc6f775	0.06012129781036794
30	0x3fb9b0e1d33ba00d	0.10035525710156908
31	0x3fc1d8254038e3c6	0.1394087375245176

block_2.0.weight f8 [32, 32, 3]
0	0x3a97db94194bf0b2	1.9272119651571182e-26
1	0xba9093ea13270ee4	-1.3391432478258475e-26
2	0x3aa42126270b415a	3.25209424889531e-26
3	0x3ba236f7220c90d9	1.9285572727631164e-21
4	0xbbce84647e183ca9	-1.292451930845918e-20
5	0x3be92db80e029c33	4.265419008642455e-20
6	0x3a73c6965b7738a4	3.993677226393827e-27
7	0x3a761123f2d5fa31	4.456386028700587e-27
8	0x3a4bb41c24eb0a9d	6.9933603323434475e-28
9	0xbe89dde0bb170ba5	-1.9272201039034328e-07
10	0xbe88de059f981c23	-1.8527562399580836e-07
11	0xbe94295097ef36c9	-3.004280628133224e-07
12	0xba64e0628e4d9792	-2.107988188113777e-27
13	0x3a765a912daf7e91	4.514309465341231e-27
14	0x3a6c8c1bd9806bff	2.882540656804803e-27
15	0x3a55392771c82890	1.0715007114234288e-27
16	0xba44c1bf03385471	-5.239758240487555e-28
17	0x3a65803460c02f53	2.1710259121511387e-27
18	0x3adfa15e254bfaaa	4.088125989364474e-25
19	0x3ada15961bafb5c2	3.3713195651903174e-25
20	0x3afe2f1713319ede	1.5604734258949224e-24
21	0xbf33cf94478821a1	-0.0003022896776490262
22	0xbf49be89758dbbd1	-0.000785653227564848
23	0xbf47c9994c83a17d	-0.000725936749430153
24	0xba728516130845cf	-3.74005757348002e-27
25	0xba56be00fc1b68d7	-1.1481878062062958e-27
26	0x3a5c614e42d844ba	1.4328289092756767e-27
27	0xbe1b8306dbae05f7	-1.6013988873845396e-09
28	0xbe2b184dec357245	-3.154266044252777e-09
29	0xbe169383a817db76	-1.314109404949833e-09
30	0xbd9a32a84481f422	-5.956708278048503e-12
31	0xbda1e58e8f7c0822	-8.138479893382043e-12
32	0xbd9518fc68b1934e	-4.797039185876157e-12
33	0xbb3b3f2c81028ff1	-2.2538002236564018e-23
34	0xbb38d4e3a12099ba	-2.054021673304239e-23
35	0x3b25c99104c698e9	9.011044642101104e-24
36	0x3ad7e541dcf37263	3.0884256726730455e-25
37	0xbae55329b34bf8f4	-5.512345831439602e-25
38	0xbae540691a661613	-5.49341081394771e-25
39	0xba9821d2be0d971c	-1.9493772846769298e-26
40	0xba743b8c077d8a1f	-4.0859421266094385e-27
41	0xba90b1b10c37aa39	-1.348539287372693e-26
42	0x3a657ad81f29126f	2.168911616687013e-27
43	0x3a67f5c8f1d7901d	2.4193515701851844e-27
44	0x3a3cc5147c5b27da	3.631264808495499e-28
45	0x3a5a7e2c4c6fbcf7	1.3375477911869032e-27
46	0xba79509f39735972	-5.112309313946254e-27
47	0x3a3b8a1dba073047	3.475975615118199e-28
48	0x3a63d0fa45fafd28	2.000936862808728e-27
49	0x3a4ff143a597ea43	8.06340509367565e-28
50	0x3a6b51a72d05f541	2.7585097303198088e-27
51	0xba64b7a411e6bdcf	-2.09191747994195e-27
52	0x3a56b913c3441bd9	1.1472161960926286e-27
53	0xbaab391447ff9d0f	-4.398107315915003e-26
54	0xba66dc738a9b6367	-2.308385028442014e-27
55	0xba71776a177e6368	-3.527324027756891e-27
56	0xba767c7e76e125dd	-4.54107306888867e-27
57	0x3c58df005d26390e	5.39305997909472e-18
58	0xbca2b871a79deae4	-1.298994539288541e-16
59	0x3cb042644337d1cd	2.256437035193785e-16
60	0xba4195181cd8d8f6	-4.438421546679374e-28
61	0xba70d6227fbb3ae3	-3.4000968096019424e-27
62	0xba34b9a57994b9ce	-2.615885631987725e-28
63	0xba73c66228fbd6c2	-3.993516381367936e-27
64	0x3a316e7c53f66733	2.200175296411937e-28
65	0x3a6666da80487791	2.262000869526612e-27
66	0xba78d1133819331b	-5.011692554399759e-27
67	0x3a7add982768bc8c	5.425465305737484e-27
68	0xba8703584413173c	-9.29490316602204e-27
69	0xba5b16f50899e2fb	-1.367679146218227e-27
70	0x3a564be1cb0d5c9d	1.1256812412570445e-27
71	0x3a5e14961b1eacf9	1.5186728799578713e-27
72	0xba532e73a7c23b01	-9.68415858766747e-28
73	0xba3af6005c2d3b1e	-3.402949423357431e-28
74	0x3a644e9b220fe3d8	2.0504885129861427e-27
75	0x3a5c56df6b1b7264	1.4307713668833929e-27
76	0xba669b2094990b06	-2.2826192274041983e-27
77	0xba57f1da1618f9bc	-1.2089001296134736e-27
78	0xba5451b26cfe8705	-1.0258538462182945e-27
79	0x3a5ec0342111cb74	1.5525184203327334e-27
80	0x3a6371542c062c32	1.963210050095236e-27
81	0xbb047cbabd2c8125	-2.1183293546638195e-24
82	0x3ad7830bef7dfaac	3.0388419633111415e-25
83	0xbafc2384b0a1262f	-1.4547389395997026e-24
84	0xba401ac1fa282291	-4.065352987050644e-28
85	0x3a6048fb9de21f39	1.6443738034389023e-27
86	0xba674710c3c8d153	-2.3504368973440535e-27
87	0x3b6b71ff0baa06e4	1.816177468701812e-22
88	0xbb65324c82a44acc	-1.4026653818399976e-22
89	0xbb6f3ad21cc9a369	-2.0666127270926126e-22
90	0xbc495eca5debb33e	-2.750650767650507e-18
91	0xbca3613a7c02ed57	-1.3447436672130926e-16
92	0x3ca884cb2459f160	1.701328293585738e-16
93	0xbf7e3ea9acdd1d6b	-0.0073839786471759745
94	0xbf7b6594db7ca281	-0.006688672517875306
95	0xbf703d0a5059092b	-0.003964462555418084
96	0x3a6be48601801bf2	2.8164399003594134e-27
97	0xba5003d366872aaf	-8.085480696465003e-28
98	0xba4b1755485d5b62	-6.838766469047815e-28
99	0x3b0cf5d5e34ac534	2.9944243114276864e-24
100	0xbb089b0321cf5120	-2.5441507806320287e-24
101	0x3b13a763e5d6b530	4.064324657206113e-24
102	0xba3496276c10e4cb	-2.598386530837696e-28
103	0xba6b2c4f331de64e	-2.743780254779186e-27
104	0xba7737f83cb5f80a	-4.688965299510272e-27
105	0xbda4ae4899df8020	-9.404536878883352e-12
106	0xbdb448acf18d0346	-1.8448089494331942e-11
107	0xbdb65b3023c705b9	-2.0332848457088467e-11
108	0x3a63686f404c69e4	1.9597018981305197e-27
109	0x3a65ff0ff788584e	2.2210624795917213e-27
110	0xba6891b80e43dd0b	-2.4808566992101825e-27
111	0x3a45519be7cc1767	5.381617975718699e-28
112	0xba40fccb06919df3	-4.288241046270184e-28
113	0xba47958873f02f3b	-5.953467203413394e-28
114	0xbaf4da00a5459bc1	-1.078001024373245e-24
115	0x3af6922d3e1b325a	1.1668934975743072e-24
116	0xbae861d15d935c25	-6.302625365546687e-25
117	0xbec9195a8e9d12d4	-2.9920384933288954e-06
118	0xbecba2f4d625d4a2	-3.2945333014408772e-06
119	0xbec8c0166ca29cd7	-2.9504707060482764e-06
120	0xba796336dc96fcb6	-5.126976078631606e-27
121	0x3a74546e8ad44518	4.105572785535817e-27
122	0xba3a95d412fb6696	-3.3555324774712785e-28
123	0x3aedfb874ca120f3	7.750303194665232e-25
124	0x3af41b98280a7d14	1.039548402511534e-24
125	0xbae8da4c88d2b4c1	-6.4242802163777525e-25
126	0xbaea5dd3c1f1d54d	-6.815583715596508e-25
127	0x3afb71fece44feee	1.4188884582364104e-24
128	0x3afdef3dba73a446	1.5475792209413612e-24
129	0x3b1412d43fc8303f	4.151113087191477e-24
130	0x3b0932753722b6fb	2.605319186653089e-24
131	0x3b1010bdf09d03b9	3.3222464919159686e-24
132	0x3b388ed04e4dd5c7	2.031379063707815e-23
133	0xbb4a984eed171c9e	-4.3997661205890244e-23
134	0xbb4dbed8a28d1240	-4.920979038518291e-23
135	0x3ab412ebc93f4805	6.486230244975383e-26
136	0xbae40aa4475fd308	-5.180624213680959e-25
137	0x3adbabe0b5021337	3.5764443032181205e-25
138	0x3a454ed75d45602b	5.378888774606344e-28
139	0xba53f5425c641cb2	-1.0076237137733106e-27
140	0x3a38a060d40a5c5b	3.1082984510606584e-28
141	0x3a4d49b1a2dc028e	7.39329698768883e-28
142	0xba5274feb843dbc2	-9.318409580508957e-28
143	0x3a420dc0d7b7ae51	4.557400606637762e-28
144	0xba49f08945d63383	-6.548074268925387e-28
145	0xba50e942ec459350	-8.537962702304942e-28
146	0x3a6184dcf1e40039	1.7689665690019847e-27
147	0xba26f8580de8e7f9	-1.4496167065839754e-28
148	0xba747c93e13811da	-4.137242276677276e-27
149	0x3a7b79593764444f	5.548333665596399e-27
150	0x3a6807a43f4a1b80	2.4263947769256403e-27
151	0x3a3211044085e4ec	2.2803092432915486e-28
152	0x3a5348a6e8fdd9d4	9.735829399246436e-28
153	0xbb334617e105809f	-1.5942915232481824e-23
154	0x3b4229d9ee8c20fc	3.004895971458084e-23
155	0xbb36fdce7d639ec0	-1.9018066833621848e-23
156	0x3a4c29745271da37	7.109070888410454e-28
157	0xba5115032d18b53c	-8.624246314561942e-28
158	0xba118d37c9e6985c	-5.538318686383026e-29
159	0x3a72598fed57557d	3.7057231814845204e-27
160	0xba6cff09b553c1da	-2.9278722077466328e-27
161	0x3a73035b62a2d50c	3.839667628398992e-27
162	0xba53e87815542395	-1.005101302072525e-27
163	0x3a64f38aee5eb3a6	2.115544574652827e-27
164	0xba4a0d5d22cff532	-6.576500467916118e-28
165	0x3a6633850446eee9	2.2417532068733447e-27
166	0x3a645325572c54f2	2.0522791771132557e-27
167	0xba72bb78c59a61b1	-3.782960197644306e-27
168	0xba63875beeab1f86	-1.9718994767333522e-27
169	0xba511236b82cfadd	-8.618726932743498e-28
170	0xba5c04002e3cdccb	-1.4144277422029238e-27
171	0xba5a6f68b1c5c4fc	-1.3346360900581024e-27
172	0xba729bd88bfcc6eb	-3.758011777993617e-27
173	0x3a68bee3eba81af7	2.4986736540197854e-27
174	0xba32185703d286e7	-2.2839199052763138e-28
175	0xb9f7631d9024fb9f	-1.8449223975716776e-29
176	0x3a6ab044b9a7b943	2.694854740195365e-27
177	0xbaf2a4d1391b64e7	-9.638627732707023e-25
178	0xbaf5b3f9f72b7de0	-1.1220205041131228e-24
179	0x3af670c750fab941	1.1601487949920579e-24
180	0xba7615801861f66e	-4.459825421162662e-27
181	0xba6591902fe02289	-2.1778726841325433e-27
182	0xba62108045c4ec99	-1.8240440480055947e-27
183	0xbb010b84c78d308f	-1.7624111554035734e-24
184	0x3afeca6bd52de702	1.5918422886940293e-24
185	0xbaff469ae8856494	-1.6169210253333095e-24
186	0xbaf6d97593241f21	-1.1812888934066824e-24
187	0x3b021ffbf3718453	1.8740746870423456e-24
188	0xbb17209a040db837	-4.782623904604188e-24
189	0xbf558e28aa7bfb13	-0.0013156315926036762
190	0xbf56708cbbadb51f	-0.0013696073862903902
191	0xbf560cac87864c6b	-0.0013457951409676882
192	0xba50d5e1ed650864	-8.49974458227897e-28
193	0xba435747eae8d6f0	-4.882339943764401e-28
194	0x3a345df8a2afe6ec	2.5706862913712564e-28
195	0xbdb653107742d166	-2.0303987184101968e-11
196	0xbdd04aac786bf26e	-5.926883819269093e-11
197	0xbdc6a5b937308177	-4.119530315715682e-11
198	0xbbf29c7e26a76557	-6.305753686465677e-20
199	0x3bca13e3b2320a8a	1.104433262898665e-20
200	0x3bedf4184d2d7274	5.074319567485114e-20
201	0xbc26fc92d41ec521	-6.230534595889129e-19
202	0x3c631ffe6012ec74	8.294135868076946e-18
203	0x3c368c6f21549b1e	1.2223604676325765e-18
204	0x3a62c9915d388cd6	1.8970400155303493e-27
205	0x3a53cf4a8520e3dc	1.0001358207392291e-27
206	0xba5cdad42e8c8ee1	-1.4567951204283499e-27
207	0x3a4bbd8a9057a260	7.002660338454524e-28
208	0x3a6197761175f09e	1.7763022409796405e-27
209	0xba312ab84d4772da	-2.166764213456274e-28
210	0xbd9a1508a1899e6e	-5.930397253155706e-12
211	0x3daf43f6aae36f55	1.4217895385560404e-11
212	0xbdb79852e57a1102	-2.1459541038518715e-11
213	0xbdc5c67bdc1d40fd	-3.960908989190599e-11
214	0x3dcf808aee50a118	5.7302022319288966e-11
215	0xbddd4e3f49592b84	-1.0661334518085463e-10
216	0x3b3fcc6052a5e100	2.6302974304981726e-23
217	0x3b1883f611d7f0d3	5.069681091657216e-24
218	0x3b6ce3445d491279	1.9116317272211286e-22
219	0xbde70e4618630d72	-1.6775271119555918e-10
220	0x3df8405f65397353	3.529051263235494e-10
221	0x3df27d4023a32bea	2.6905414323342705e-10
222	0x3b52b27b9e201098	6.18638412802346e-23
223	0xbb5bfc575b70da62	-9.259694022869923e-23
224	0xbb3ee68ef4baed7f	-2.5560392816287877e-23
225	0xba66cd8ac8597f4c	-2.302504380363669e-27
226	0x3a37fe3ea21b7789	3.0283604271334347e-28
227	0xba675eaa6bb63747	-2.359745542255184e-27
228	0x3c042034c9dcc26d	1.3637776271347447e-19
229	0x3bc3d57ab2d5d01f	8.399984860820086e-21
230	0xbbf6b7545fc87a25	-7.696524623339538e-20
231	0xba16c0f84955bb5e	-7.179829693352715e-29
232	0xbacabc1dd2d4bbfc	-1.7276978996056946e-25
233	0xbacfc2cd9e174a67	-2.0525032855742481e-25
234	0x3ae3df56496b8361	5.136897685222935e-25
235	0x3ad2a802e7fd668d	2.411269528824045e-25
236	0x3a93f7af6c78987d	1.612963461056845e-26
237	0x3a4238f34946d508	4.599996181936532e-28
238	0x3a6f62d27b6fb843	3.169178555409303e-27
239	0x3a48167d750acdbf	6.080628670532369e-28
240	0xba637c3e83834016	-1.9675154152596966e-27
241	0x3a3b94153def93e2	3.480889654770096e-28
242	0x3a72dbb76fc166a2	3.8083968469971065e-27
243	0xba22c2768e397593	-1.1838985607529209e-28
244	0xba3e255391e49140	-3.804935703255226e-28
245	0xba36f751c7367c08	-2.8987282876577113e-28
246	0xba78197ad6f66d90	-4.866861453351855e-27
247	0x3a5d624ff18ece6e	1.4835145185660308e-27
248	0xba5c58a4d0a85cac	-1.431120650981585e-27
249	0x3cd8fda6042913ca	1.387268880713e-15
250	0xbd206f3818b93e32	-2.919344715449272e-14
251	0xbd2f2472a58c81e4	-5.531996970630704e-14
252	0xba540789544b0474	-1.0112282598881147e-27
253	0x3a11af71e15c4f14	5.58050662304499e-29
254	0x3a439780d8dd0344	4.945668100666724e-28
255	0xba0d166609275e81	-4.5891974392400516e-29

block_2.0.bias f8 [32]
0	0xbf955063c9c059d5	-0.020814475239683567
1	0xbf8cbde666889052	-0.014034080509255063
2	0xbf200a0145b9e649	-0.00012236848384698993
3	0xbf96f0e66fe024d5	-0.022403336122839363
4	0x3fa3f93605c2372f	0.039010704234085807
5	0xbf2caab7041cd1c2	-0.00021871074755498541
6	0xbf7bd91f3a106b7d	-0.006798860530603854
7	0xbf90a48b91c72635	-0.016252690098360573
8	0xbfb30db06c7170ca	-0.07442762992417609
9	0xbfa1b22a0db61e84	-0.03456241052032019
10	0xbeb501ff5a6880f5	-1.2521626132703209e-06
11	0xbf2ef70202bf6fe8	-0.00023624324364745976
12	0xbf5ac70fece45cbb	-0.001634374191388051
13	0xbfaf6f4c767d8d3e	-0.061396016563572506
14	0xbf71b21a66f6dce1	-0.004320243009195952
15	0xbf821efb72863ec2	-0.008848156387812781
16	0x3f83f737aefd4db5	0.009748873737101297
17	0xbfa62a64ef3b0026	-0.043292192652643544
18	0xbf8bd5c293db53d4	-0.013591308724622587
19	0xbfb16c7d2c204396	-0.06806166007323919
20	0x3f863f8b56d57180	0.01086338862176528
21	0xbf9ef98d573ef37d	-0.030248840761248886
22	0xbfb2017578f6f23c	-0.07033476069677475
23	0x3fa0c3b1a3662512	0.03274302596680391
24	0xbf9422f052bcc9af	-0.01966453080167135
25	0xbfb1af3ffa17338b	-0.06908035140732076
26	0xbf8ae7d73da815d1	-0.013137513703450761
27	0xbf85cb5a53174150	-0.01064177099297639
28	0x3fa77c0b9fc3c32b	0.045868266346479857
29	0xbf41bc328a04c206	-0.0005412337086792569
30	0xbf9eb3ec228522e9	-0.0299832244939208
31	0xbfb674892f439e9a	-0.08771569637212409

fc.weight f8 [4, 1408]
0	0xbb810530db0ff33f	-4.505229737766765e-22
1	0xbbe13ba96ea3e18e	-2.919392917518252e-20
2	0x3bb3b3ba12abb6a9	4.172073063176797e-21
3	0x3bcbf45af92f542c	1.1839196828537806e-20
4	0xbb9c93d280065ded	-1.5128765858306696e-21
5	0xbb9394935fc03d98	-1.0365763553199771e-21
6	0x3bb4fcc6ad06d007	4.444256207042759e-21
7	0x3b948f6e14e2e78e	1.0884518141646967e-21
8	0x3b8f54e70d94f773	8.293418856698536e-22
9	0x3b625240156e407e	1.2124012932874818e-22
10	0xbb6ac9f0e20898ca	-1.7727361859516466e-22
11	0x3b62def8f3b10df9	1.248777114271937e-22
12	0xbb70c4cbd71469b6	-2.2193236450886903e-22
13	0xbb69a860126e4fc0	-1.6978852151902225e-22
14	0x3b6cc763b3546d97	1.9044255382471638e-22
15	0x3b8cbb42e1c1f931	7.605161890365098e-22
16	0x3b95196042d7d0f6	1.1169783812015721e-21
17	0x3ba25674e1789333	1.94158172869152e-21
18	0x3b94fd33b0d3c5f0	1.1111521132521521e-21
19	0x3b9c26edbacb2947	1.4903579100063147e-21
20	0x3b9e8cb5777f83c8	1.6172846852463182e-21
21	0x3b9a09bac759f4cd	1.3784405743120114e-21
22	0xbb554870874f5f60	-7.041943088374705e-23
23	0xbb8821c0a1cf2add	-6.387646339399127e-22
24	0xbb9d92dbc68656e3	-1.565616842481464e-21
25	0xbba7bf97fafe3d13	-2.5144610095014205e-21
26	0xbba0a34128e3fac0	-1.7615863856509935e-21
27	0xbba2cf2e4e436a00	-1.991512135640663e-21
28	0xbb9b88e4df8ed493	-1.4576771216761462e-21
29	0xbb939ca400d471a0	-1.0382441495176015e-21
30	0xbb7d603a82ccfeb7	-3.8878670409025096e-22
31	0xbb707c5fc4cca4e5	-2.1818822690542183e-22
32	0xbb4d46916118511c	-4.8432509814470747e-23
33	0xbb51b71296f3d58c	-5.861443975551447e-23
34	0x3b446d942ad8de02	3.379536076279939e-23
35	0x3b5d5f6a601dce4e	9.718616786591397e-23
36	0x3b71787cfdce4dd1	2.312222230266788e-22
37	0x3b77254dfaa49e61	3.063310683347035e-22
38	0x3b6a3959945966a7	1.7353602809402313e-22
39	0x3b634df6b6963b5d	1.2774676812701078e-22
40	0x3b7ba3855ea7fcf9	3.657958609199715e-22
41	0x3b5371c5ebdac852	6.433620979548416e-23
42	0xbb427553f5f049f5	-3.0536716296556153e-23
43	0xbb26e7e9fe0cb7e9	-9.473664065548007e-24
44	0xbb115d61889b23ee	-3.5909501669067605e-24
45	0x3b16c1579d061a3f	4.705673986525542e-24
46	0x3b13bdcb4dcd3a63	4.0824224078144235e-24
47	0x3b0f6501ca730115	3.2461212741853237e-24
48	0x3b0c3bdaf7554164	2.9193075218226675e-24
49	0x3b0e83923ac34d8e	3.155068485247507e-24
50	0x3b115b66ac8c44f5	3.5893508000092195e-24
51	0x3b13d86669f93fcb	4.1039144815624506e-24
52	0x3b15efdfce22c6fc	4.536467083151526e-24
53	0x3b16ef49bb4bf660	4.7427886875365604e-24
54	0x3b16f807feb65da5	4.749851401321996e-24
55	0x3b168fc2eff3cd29	4.6656229628184806e-24
56	0x3b16dfdb453ca9fb	4.7303232300351824e-24
57	0x3b16ef0f8e0c2888	4.7426051140666705e-24
58	0x3b170df4adcdf436	4.767561909099663e-24
59	0x3b16f8b97f263ce6	4.750411497951148e-24
60	0x3b16f70cb66abe90	4.749058493863597e-24
61	0x3b16b6a001c97ac5	4.697016691232063e-24
62	0x3b16b125b91f4a06	4.692591863612695e-24
63	0x3b16f4e0e82b5fcc	4.747304680456805e-24
64	0x3b16db36c3047490	4.72657295793351e-24
65	0x3b15ce605fb1cc42	4.509407792808004e-24
66	0x3b12b1192036515d	3.865371500974405e-24
67	0x3b0aaa8f8342ac8f	2.7572258671616222e-24
68	0x3af98781934f27a6	1.3198349569868325e-24
69	0xbad38d51934c24f4	-2.527040130675445e-25
70	0xbb03000d9001d11e	-1.9645753527092343e-24
71	0xbb11b065b6d13c6d	-3.6580102243361765e-24
72	0xbb184f99a5b673fa	-5.0273841925477356e-24
73	0xbb1bc1c3a497e10c	-5.73999063342843e-24
74	0xbb1c1a030111ce84	-5.811276400125974e-24
75	0xbb1a839340502935	-5.4829595817974325e-24
76	0xbb1834261767d070	-5.005209136152328e-24
77	0xbb13bc64db75e785	-4.0812913496351764e-24
78	0xbb075a4fc3e89724	-2.414620819005259e-24
79	0x3a9c526f703c2141	2.2878339835954856e-26
80	0x3b0a7d946780dfc1	2.7390582294484694e-24
81	0x3b17eb06f3ffc407	4.94614195059494e-24
82	0x3b1dab765a60cca0	6.1355655973009005e-24
83	0x3b1f050bba42dd29	6.4147257208469116e-24
84	0x3b1dcc511a77c18e	6.162105245840579e-24
85	0x3b1ec7e82fe3cec4	6.3653381671783376e-24
86	0x3b2290e0afbc0761	7.678688031189537e-24
87	0xbb123133c2f5b6b7	-3.762057971958964e-24
88	0xbebed03c9a6e731c	-1.8366232354745333e-06
89	0x3eabe0014277b154	8.30740309374444e-07
90	0xbe8336d2bf93e0a9	-1.4315659749970368e-07
91	0xbe8429cc9a423dd6	-1.5022812960674694e-07
92	0x3e942049135e11b4	2.9990248450624935e-07
93	0x3e722fdb48a973bd	6.775163023096604e-08
94	0x3e82a6daa24e8781	1.3896654240974865e-07
95	0x3ea40b8c0d94af3f	5.973907050474719e-07
96	0x3e74e0ba326f8b86	7.777601905528069e-08
97	0xbe92d2de0f5deeca	-2.804950008856054e-07
98	0xbe83120106d40d30	-1.4208501700899766e-07
99	0x3eb8ca55fac4fd4c	1.4776214625893047e-06
100	0x3ea9bf2c86571344	7.673136336807888e-07
101	0x3e9ffb222aa5488b	4.7655388848045825e-07
102	0xbea765c53384fb86	-6.973010391665876e-07
103	0xbeb0344b38c63814	-9.658499236816922e-07
104	0xbeab59238d42ccbf	-8.150398351974827e-07
105	0xbe969437dd04ac6a	-3.364529819356362e-07
106	0xbe77d2f30732dfb4	-8.87513936118025e-08
107	0x3ed35feae51973ca	4.619283190257634e-06
108	0x3e8dc2cbf8d07a16	2.2173616934322865e-07
109	0x3eb028ba44c314dc	9.631569524587641e-07
110	0x3ebd80b2abcdb361	1.7584995212996487e-06
111	0x3ed3664e2f67a19c	4.625232341550283e-06
112	0x3ed59e7dc6cc2cbb	5.154396700356152e-06
113	0x3ed23b1c9bc12e02	4.346586532543146e-06
114	0x3ec65d896467458f	2.6661607847941946e-06
115	0x3ed843eb63ebcf64	5.785300855921112e-06
116	0x3ed6f896e0bb8eb1	5.47672562920306e-06
117	0xbe81eb41f41f6c68	-1.3350676836176762e-07
118	0x3ede035edf17a6e8	7.155696481112138e-06
119	0x3ec3964925d1ad88	2.3349587495080053e-06
120	0x3ee4a46d44000ebe	9.843011980598958e-06
121	0x3ee2bfb9db616873	8.940186358486813e-06
122	0x3ee527ce473b5af2	1.008772435488528e-05
123	0x3ed8c2027f786682	5.902731565332632e-06
124	0x3ed4c1225db2b498	4.948241861741112e-06
125	0x3ec254a64de8785c	2.1851852658591507e-06
126	0x3ee748740b286968	1.1102209417625158e-05
127	0xbec0796e839a4d1c	-1.963894672504829e-06
128	0x3ec64e64f8501a52	2.65910961383683e-06
129	0x3ec3dc326c5db6e6	2.3675137041299767e-06
130	0x3e476dac9c765b35	1.0909705929272018e-08
131	0xbcf1711595d2f6fb	-3.872843293790994e-15
132	0xbd00d59cc793b7eb	-7.475985837862104e-15
133	0xbd00020910a2d76e	-7.10895823127905e-15
134	0xbcfab105dfad6b96	-5.926702656679749e-15
135	0xbce0f8641e5a11ff	-1.884079302351873e-15
136	0xbcb7d5da7e03a59a	-3.307821402488694e-16
137	0xbce023dcae3414fe	-1.7919095170935403e-15
138	0xbcee83d6fa421989	-3.3878454538849984e-15
139	0xbcf79080ebd5a344	-5.232362805658961e-15
140	0xbcfbb621a3fde23e	-6.1531781480512926e-15
141	0xbcfeb69a07934a93	-6.819719856619348e-15
142	0xbcfccd0143072b1e	-6.395062369428504e-15
143	0xbd003a8023a98c34	-7.206909624918749e-15
144	0xbd004023afb2a129	-7.21669147997004e-15
145	0xbcfe2fa2653abdad	-6.702654366546919e-15
146	0xbcfdb8acf65fa701	-6.599474122011487e-15
147	0xbcfeaba3d0ce44d3	-6.810212033949494e-15
148	0xbd0033ea4261592e	-7.195485657624117e-15
149	0xbd00660cdffad849	-7.282456396011175e-15
150	0xbcfadca120e7b3f7	-5.964525235121532e-15
151	0xbcf838626f889250	-5.377976288576776e-15
152	0xbcf662614ec60f70	-4.970312450017969e-15
153	0xbcf1016406eada92	-3.7759645501934175e-15
154	0xbce07393386ee205	-1.8264795404642464e-15
155	0xbce3749b25e0d966	-2.159993558462451e-15
156	0xbcef5dd781b3a315	-3.482388779615666e-15
157	0xbce8f2eaa7e05e41	-2.7698835517293674e-15
158	0xbcca1ac496bdfd03	-7.245471502655995e-16
159	0xbcd0b4ff3dc7a1af	-9.274258957234004e-16
160	0xbcce4665a5c8a492	-8.402997331063285e-16
161	0xbcd4b94f6c937346	-1.1504057798577282e-15
162	0x3cce8b551071c668	8.477737047717077e-16
163	0x3ce471092a81a365	2.2694675153234648e-15
164	0x3cf54d79b33e4cbd	4.730135893463332e-15
165	0x3cf44f54d8bf4b9e	4.509701147497924e-15
166	0x3cfae4e0d1fbabd9	5.9716799249359785e-15
167	0x3cfafb08bf8aaa4f	5.990897164372994e-15
168	0x3d0004ad627f5522	7.113541152308187e-15
169	0x3d00543d82954c23	7.251560938169652e-15
170	0x3cfef7fb7a3e9df4	6.876428536006897e-15
171	0x3cf81494d089239d	5.346921956412299e-15
172	0x3cfbbbcdf8bc97c9	6.158098836999121e-15
173	0x3cffce10cc60fe32	7.062116185742143e-15
174	0x3ce5372a4ec5d088	2.3553924715491683e-15
175	0xbcfdad2e6ee432cd	-6.5895044451956575e-15
176	0xbf67b5c6de9ecaad	-0.0028942951366500353
177	0x3f8fec50174604c0	0.015587449751139792
178	0x3f9795e59bda8b3f	0.023032748830370094
179	0x3f74bf5e5419c369	0.005065315695547004
180	0xbf9c83949da9c9f7	-0.02784568989086186
181	0x3f6c128c8c588d17	0.003426813610319389
182	0xbf81309b7c0cd852	-0.008393492434702807
183	0x3f6bb893a20f5ee7	0.0033839114625883074
184	0xbf9a51e51dc36a26	-0.025703029576883328
185	0xbfa50d5c8b76de3a	-0.04111756517835059
186	0xbf8537e8d9ec9727	-0.010360545301931602
187	0xbfa6173e07401981	-0.043146074662263174
188	0xbfa05c25892644bf	-0.03195302294910495
189	0xbfa85bc5d0e380d6	-0.04757517027769757
190	0xbfa350fb06c647c1	-0.03772720773407868
191	0xbf7e4615950bb1b3	-0.007391056352144809
192	0xbf9577e8340cc24d	-0.020965221573705773
193	0xbf8d95d2f4e46d6c	-0.01444592294551824
194	0xbf98ce2e42617814	-0.024224016954001185
195	0xbf89a3c094135f88	-0.012519363898192429
196	0xbfadf71668d69fa3	-0.058525753305104254
197	0xbf9228e99f24a53d	-0.017734194124533465
198	0xbf68f0ce6864faaf	-0.003044512882439086
199	0xbf74d200561d4409	-0.005083085359573588
200	0xbfa6cf3b7c9b3e29	-0.04454980751108579
201	0xbf9631102e4b7d14	-0.021671536279311246
202	0xbf89a063323189d6	-0.012512946099552485
203	0xbfa9969bf1a66228	-0.049977181671412574
204	0xbf9db62f0ad7a3fc	-0.029015288388027458
205	0xbf86fb1d6a1c77eb	-0.011221151161915762
206	0xbf89267842147d6f	-0.012280406490900756
207	0xbfae177d1b4d8459	-0.058772954542981544
208	0xbf983b13ebc14efb	-0.02366286398348814
209	0xbf9cd0f70323ca5f	-0.028140887800825683
210	0xbfa43e173c18263d	-0.03953621491025359
211	0xbf92d9805cff5a2c	-0.018407827068438617
212	0xbfa15772f4781d2e	-0.03387030824893099
213	0xbfa7be91c00799d0	-0.046375803652881964
214	0xbf569daf8e23c967	-0.0013803686529710536
215	0xbfa5c35cf08e517b	-0.04250612675164952
216	0x3fa26c433fc3e545	0.03598222878822325
217	0x3fbbac2680404698	0.10809555655603231
218	0x3fc3ddab36d2a750	0.1552022950830243
219	0x3fc544dab774f988	0.16616376836641344
220	0x3f552244ffd11cb2	0.0012899087735307843
221	0xbf4a9c85dd5b3c2a	-0.0008121160160160558
222	0xbf4a49d08a156357	-0.0008022564181074759
223	0x3f5b748cee15c636	0.0016757370252346144
224	0x3f33b09a42a21b10	0.00030044332618965695
225	0xbf11a16da06ca5ef	-6.725532157916108e-05
226	0x3f5f6a7c26ea81bc	0.0019174778387097543
227	0xbf380dc79bf36feb	-0.00036703227301670857
228	0xbf46ab739f73a60e	-0.0006918253483522722
229	0x3f47f6132ceab2dc	0.0007312387113721191
230	0x3f5c339e87404147	0.0017212913635412262
231	0x3f37788f843f6969	0.00035813812087117383
232	0x3f2f469826552c8c	0.00023861510559650514
233	0x3f5de48d1a69c54e	0.0018245103798587184
234	0x3f21ddec3d16c5f6	0.0001363135220749237
235	0x3f594702f35ced80	0.0015428093733607928
236	0x3f580ba340a08b96	0.0014676183950619085
237	0xbef3f5cd922cfa51	-1.9035499586589965e-05
238	0xbf11708ec108bb8a	-6.65270929480611e-05
239	0x3f46bc39e4c2c065	0.0006938250239923004
240	0xbf41eb665c9a7ea2	-0.0005468606770655147
241	0x3f5159779b4f80c2	0.0010589283021929384
242	0x3f4528565b09710a	0.0006456777246728617
243	0xbee19d2b5b796bc8	-8.398982443915795e-06
244	0x3f213cfc5b01c2d8	0.0001315172244207494
245	0x3f49c9638980f8eb	0.0007869468709101023
246	0x3f3a8b45058ee32c	0.0004050296316183029
247	0x3f33cae6c21fddc5	0.00030201085803535323
248	0x3f3e438b13585f49	0.00046178956412877954
249	0xbf28f2ed6a380668	-0.00019034526950183488
250	0x3f037b68644e50d3	3.715908363868957e-05
251	0xbf2bddebc897c951	-0.00021260741441115697
252	0x3ee8adef35fd31a8	1.1768069896022523e-05
253	0xbf09619bce4195d3	-4.841095668054918e-05
254	0xbf34a9f4badab1b2	-0.0003153059468370647
255	0xbf3105ccae6e4b89	-0.0002597450933816072

fc.bias f8 [4]
0	0x3fc57f691a2bec6e	0.16795076158436778
1	0x3fc33fb76430c823	0.15038196937672507
2	0x3fc45ca2c601c298	0.15907702129654377
3	0x3fc5bf695652a074	0.16990391459444576

exp_avg f8 [32, 1, 7]
0	0xbe81620e40c02c1c	-1.2951366590326832e-07
1	0xbe74d9ab0c2bc133	-7.767329450090548e-08
2	0xbe650b4a620eac38	-3.919769776065289e-08
3	0xbe6aea17a4f1dd2d	-5.0132019973590083e-08
4	0xbe64c5965ca23513	-3.8690540175425875e-08
5	0xbe8643556fadcc49	-1.6587244274952546e-07
6	0xbe759be8570d546d	-8.049985013071514e-08
7	0x3f107190d078f588	6.272741676923408e-05
8	0x3f1bbe7db889464e	0.00010583536471500088
9	0x3ef8198f90c87228	2.2983405005049456e-05
10	0xbf103c3963d8b6be	-6.193256646077735e-05
11	0x3ec5d2d223b4130d	2.6015661923638027e-06
12	0x3f16f5035d361c78	8.757432015303764e-05
13	0x3f0473faaccc37df	3.901108502733763e-05
14	0xbe89824d7988f662	-1.90056820741362e-07
15	0xbe85e5463dbd1c40	-1.631349552061289e-07
16	0xbe861d890b126892	-1.6477236422925228e-07
17	0xbe9151254111420e	-2.580430314468655e-07
18	0xbe766971b22801d5	-8.349080053011225e-08
19	0x3e508a07112e7322	1.540330269897107e-08
20	0xbe7cbf4c53aa48cd	-1.0709188284278545e-07
21	0xbf6fb91fb0132ebc	-0.0038724535848809454
22	0xbf6e43dd10157bd4	-0.003694469226203515
23	0xbf6d23719a54763a	-0.0035569399648369944
24	0xbf6c79164e2a9999	-0.0034757075930713197
25	0xbf6e0e4076c0f03e	-0.0036689051685510335
26	0xbf6d10cea1ea6557	-0.0035480533400230985
27	0xbf6d9a17fb5c57ae	-0.0036135166545916064
28	0xbd9132d2fbfa54de	-3.910493402316618e-12
29	0xbd9be88e804c64e7	-6.345641030572621e-12
30	0xbda43dccb21efc7b	-9.20472514726956e-12
31	0xbdac3c3e6ba93628	-1.2839940364763834e-11
32	0xbdb01d341d7c3da9	-1.4655667168420248e-11
33	0xbda6f855dd7c4f53	-1.0445574025034126e-11
34	0xbd8f0b18dc123219	-3.5292200753014942e-12
35	0xbeeca8d1ec698303	-1.366589220913725e-05
36	0xbeee9d2afff2171e	-1.4597862899156133e-05
37	0xbeeff31a279a1b34	-1.5234764976013866e-05
38	0xbef1db2c43dd3d93	-1.7028946096173786e-05
39	0xbeec87a066c6f730	-1.3604064599155927e-05
40	0xbeebd6f29a95edab	-1.327497450875108e-05
41	0xbeea2eee56592512	-1.2485181922222122e-05
42	0x3f17760d4e027ad8	8.949714856719014e-05
43	0x3f1c0faac2fdace1	0.00010704498049356497
44	0x3f0e31a4600bed68	5.759032138105241e-05
45	0x3f01a7af92c57718	3.3674283573799184e-05
46	0x3f143cd43151f67e	7.720036622235225e-05
47	0x3f213be13f08534a	0.00013148426616340698
48	0x3f194f85e6bad515	9.655241745572627e-05
49	0x3f6051dd69fcc6f4	0.0019921612255523417
50	0x3f670e6599511724	0.0028144821504011586
51	0x3f6f6673be8af9c1	0.003833032668210751
52	0x3f70978cd4030e94	0.004050779447598924
53	0x3f70fdfd8fb6b641	0.0041484741918061405
54	0x3f73efb2fa128fe0	0.004867266777328155
55	0x3f757af8a3b53974	0.005244227645859179
56	0x3f8d55100a4b2a2b	0.014322400392662157
57	0x3f8e23f28990863b	0.01471700174630818
58	0x3f8cffdea4552c14	0.014159907712970855
59	0x3f8a40725a91c7dc	0.012818234814606137
60	0x3f87735805d96a11	0.011450469664102266
61	0x3f7ce1f30248f9d1	0.0070514194999859595
62	0xbf1445cba6ea50b0	-7.733397954218474e-05
63	0x3efbc4c3273ca95c	2.6482203295299724e-05
64	0x3f11df9fd7cf68e5	6.818211654949535e-05
65	0x3f0b7de5553947e7	5.243641012654659e-05
66	0x3ef232ee60ac9ab1	1.7355871061354003e-05
67	0x3f13d351bce82a8f	7.562815083176688e-05
68	0x3f138a75c43252ce	7.454246319788945e-05
69	0x3f101b03c3bc2dfe	6.143770673022045e-05
70	0x3f1ed67d09cc0b92	0.0001176370446494392
71	0x3f16b91d42cf1499	8.668175787736528e-05
72	0x3ef5019bf4df086b	2.003315540100756e-05
73	0x3f25c911ca4125ef	0.0001662096229913391
74	0x3f1a93d137a1c321	0.00010138477765210238
75	0x3f1a05af059a87e0	9.926682232699836e-05
76	0x3f1835fe27351e35	9.235728957889755e-05
77	0x3f783382c4566422	0.0059084995349616715
78	0x3f76ecb5baa2a1e9	0.005596837882116714
79	0x3f74f53323585dec	0.0051166532116648615
80	0x3f733601d0e29355	0.00469017705305393
81	0x3f722d57c84e4f72	0.00443777360932872
82	0x3f717d83382b954c	0.00427008874496455
83	0x3f7022ff85f4a22a	0.0039396268250944475
84	0xbf5324597ebea8a3	-0.0011683343864015503
85	0xbf53c0dc93a1642c	-0.0012056497639803083
86	0xbf45d01d075ba906	-0.0006656781904131055
87	0xbf42a04ad0ec1cd8	-0.0005684247315408631
88	0x3f4219892080b5ac	0.0005523604932073287
89	0x3f5db1857745b420	0.0018123439195634264
90	0x3f6adda17673143d	0.0032795098846656588
91	0xbf28299f0952aaeb	-0.0001843458782436394
92	0xbf24d3f3d67a3bfd	-0.00015890456710507253
93	0xbf340819aff6e334	-0.0003056585992129879
94	0xbf3a745f333363bf	-0.0004036648198968949
95	0xbf23f0efcaddcb27	-0.0001521389689816629
96	0xbf06386bd05a9b12	-4.2382040232260884e-05
97	0xbf13d84ec0a37e72	-7.570248286325481e-05
98	0xbe94742245e903ac	-3.047831053406223e-07
99	0xbe7c8eacdf422185	-1.0638432696071209e-07
100	0xbea5eac8f826db5c	-6.531813457254015e-07
101	0xbe987c8c65c0f318	-3.648775412956245e-07
102	0xbe39dd1d2ef2664a	-6.021868100653989e-09
103	0x3e8e25a661e3897d	2.2461317512104302e-07
104	0xbe40a7e4a9ce49c0	-7.755976577811597e-09
105	0x3d0c2fc917276b23	1.2517392521032557e-14
106	0xbd13324c298c702a	-1.7049894513527776e-14
107	0x3d022fc9f0ead830	8.076506186680677e-15
108	0xbd08dbc3c51f1ab5	-1.1039372066800834e-14
109	0x3cdcc935480ee436	1.5979422929758248e-15
110	0xbcf0bcebfd3aebbf	-3.716577247985998e-15
111	0xbce435db638ce19e	-2.243802794506645e-15
112	0xbe49ccfb92bbedb1	-1.201439355597288e-08
113	0xbe4974934db5f0ee	-1.1853581608231788e-08
114	0xbe48e97c94872485	-1.1600580621881656e-08
115	0xbe481c03d39299da	-1.1226829787288064e-08
116	0xbe41a4482cf0261a	-8.215068984465151e-09
117	0xbe37222ee33e92ff	-5.386194202378493e-09
118	0xbe253ef0abb07e2b	-2.4733436110967536e-09
119	0xbeb306c4c499d9c0	-1.1340641940228794e-06
120	0xbeb5914e1e85394d	-1.285529032630015e-06
121	0xbeb5c64b23b25e2b	-1.2978663466496321e-06
122	0xbec2f71cf65640de	-2.2608382319115158e-06
123	0xbe9c21afea77bf4e	-4.191933648802884e-07
124	0xbeb317f89b10bb87	-1.1380694611253313e-06
125	0xbe94f49e54e413b8	-3.122618935788476e-07
126	0xbab521a7bfddadf6	-6.827944886918057e-26
127	0x3aa38de39310a30c	3.159160078893892e-26
128	0x3ab063ef710805c5	5.296014933724991e-26
129	0xba9efa9e85fc1185	-2.5024621865096127e-26
130	0x3a5532fbedecbbd2	1.0702838972774425e-27
131	0x3a8c1c56318c8796	1.1353817356708931e-26
132	0xba8186e54488d225	-7.079073013013191e-27
133	0xbf65ce02821a5377	-0.002661709689002863
134	0xbf677757d0c24f84	-0.0028645243783759784
135	0xbf674d30cb5e228f	-0.002844424535343677
136	0xbf681a8829cd082e	-0.0029423388899951974
137	0xbf65d2dab8d84dc2	-0.0026640197672891117
138	0xbf6163246da362b3	-0.002122470044110558
139	0xbf5933b6f9f64c3f	-0.0015382086638495854
140	0xbdd0ad107269c196	-6.066705176700557e-11
141	0xbdd0909d22e6300d	-6.026274681075114e-11
142	0xbdd2be649e5d2624	-6.818926637835125e-11
143	0xbdd7b4cb571ece87	-8.624275406675784e-11
144	0xbdd85556d6361742	-8.852423442966888e-11
145	0xbdc6d33999fb776e	-4.15186108130662e-11
146	0xbd92982cdff96cbf	-4.227884968856476e-12
147	0xbeafe37122cabfe8	-9.503497203269098e-07
148	0xbeb6e8c63e58fce5	-1.3654991958404454e-06
149	0xbeb784553cbf6bf7	-1.4017179976652769e-06
150	0xbeb645c088560723	-1.3275426068163881e-06
151	0xbeb34e85e11ac3a8	-1.1507708034647663e-06
152	0xbeb6cf4e9b405380	-1.3595696204450082e-06
153	0xbeb11cb102688c7c	-1.0199592083224957e-06
154	0xbec5e4c38bd380c8	-2.609921550531054e-06
155	0xbecdf790bfd31a69	-3.5723510324076936e-06
156	0x3ea63de6e1b0950d	6.62857419957018e-07
157	0xbec820aff3f4a1fe	-2.8762441669669898e-06
158	0xbed8f3b579aae224	-5.9490174872324976e-06
159	0xbeac1e93c57cbe1a	-8.3802468517873e-07
160	0xbed90ae00639e45e	-5.970592699016789e-06
161	0xbdfaa6a01454cad5	-3.8782134823974257e-10
162	0xbe03f67703f26f5c	-5.809925942204039e-10
163	0xbdf21c251e3fd20e	-2.635343317261727e-10
164	0xbe01973e0e4ab846	-5.119593885838975e-10
165	0xbe0e28ff99eef2e5	-8.777758969912594e-10
166	0x3deaab1101852c8f	1.9403689831979652e-10
167	0xbdd3061d41b3d6fd	-6.920848653337794e-11
168	0xbedc4c664b09226a	-6.746872870674016e-06
169	0xbee33a18a25d6a7f	-9.168118662185698e-06
170	0xbee7243790773e31	-1.1034714147677753e-05
171	0xbee98d5adf217051	-1.2184223099058615e-05
172	0xbee8447c3d1f0488	-1.1571655622934796e-05
173	0xbee14e9b75722d25	-8.252649122539462e-06
174	0xbeca684c4228c12a	-3.1480090154843584e-06
175	0xbe41bf1e1d3cc3f9	-8.263882834629458e-09
176	0x3e036959cad4c194	5.649497724342207e-10
177	0xbe39884b9db94ab0	-5.944726013171141e-09
178	0x3df1b14b76dac2df	2.574606004558458e-10
179	0x3dfbc5833c8f11de	4.0412900505117295e-10
180	0xbe0e4bb07a5c36a0	-8.817197984931922e-10
181	0xbe27d272a5bae840	-2.7732530003689745e-09
182	0xbeda93213fad5086	-6.335908433314471e-06
183	0xbed97f7d7c02e2fb	-6.07919895417234e-06
184	0xbed82f22cbe234b7	-5.765944648084327e-06
185	0xbed6b0458ff2fc93	-5.40937457954508e-06
186	0xbed50241f2a5ce4b	-5.008892723135418e-06
187	0xbed34c7858761df3	-4.60117133316934e-06
188	0xbed1cfa61d2c67dc	-4.246503936733742e-06
189	0x3eae4fbe91852161	9.03353142547375e-07
190	0x3ec152ca2a8f0c05	2.0651098861803316e-06
191	0x3ee53e7bbc7f0b6f	1.0129964621690653e-05
192	0x3efe7098c307d291	2.9029684982933573e-05
193	0xbee412cb328b2207	-9.571749232676665e-06
194	0xbee105af50b7d0de	-8.11682050192618e-06
195	0x3ed7ef0fc8f08f3d	5.7062708398758224e-06
196	0xbec5176a9c70b05a	-2.5142992146256724e-06
197	0xbec5e7ad0b50f41e	-2.6112776035079217e-06
198	0xbec5ab9ba1b96678	-2.583306253173275e-06
199	0xbec59f470500790e	-2.57756440903625e-06
200	0xbec6a6dadf2bf52f	-2.7003022692306186e-06
201	0xbec56e521da65f5c	-2.554767189976506e-06
202	0xbec274fbf17a9ef9	-2.2002422033934595e-06
203	0x3f09fca525364487	4.9566068493275355e-05
204	0x3f0c3bd708649248	5.3851604251674084e-05
205	0x3f01e9b21290e60d	3.416609462942805e-05
206	0x3ef40a824fe0f45c	1.9112635520669336e-05
207	0x3ee66717ff94238e	1.068244454184729e-05
208	0x3efde0c974e35976	2.849395178191593e-05
209	0x3f07746a42126f09	4.473637842147659e-05
210	0xbf3e9bdafc001a02	-0.00046705337808852787
211	0xbf407e026427355a	-0.0005033027339835059
212	0xbf42571ff25d5bea	-0.000559702490799616
213	0xbf432da8eb9ef5fd	-0.0005852770620930478
214	0xbf2c546164513254	-0.00021613777986075283
215	0xbf077ec7e301e196	-4.4813609179908374e-05
216	0xbeeb98ffabe7d4ce	-1.3159585589209851e-05
217	0xbf206ad0fe6f2064	-0.0001252536887632632
218	0xbf5105c963c10086	-0.0010389773078856314
219	0xbf5908b074252ccf	-0.0015279505901897754
220	0xbf5dbb88c777cc59	-0.0018147311910723578
221	0xbf5f7e39d2d2fb27	-0.0019221844370773207
222	0xbf63f66531f0fe00	-0.002436826368949374
223	0xbf6864fb97816989	-0.0029778398421004865
