dl_experiments/best_checkpoints/wiki_de_15min_CNN_cuda:0_checkpoint.pt (torch, 333457 bytes, 18 tensors)

block_1.0.weight f8 [64, 1, 7]
00000000: 27a1 8545 7548 c4bd 2f26 2fba fdb3 cbbd
00000010: 71b0 6b5d 8b67 c6bd 9765 9c0e 197e b5bd
00000020: 6fa7 a15b f3b1 96bd b1f3 c18a 5469 52bd
00000030: 0557 11f9 cc59 34bd 370e 0edd a3c1 833f
00000040: c055 b04b b2ec 9e3f 28a2 f19f e76b b4bf
00000050: 1a32 82b4 c3aa c5bf 2359 108a b87a a2bf
00000060: 9396 1388 36d3 a5bf 5b13 65ff 0073 bb3f
00000070: 21be bd4f af54 b33f 34a8 8183 fa7c 93bf
00000080: 221a 5481 55e9 7d3f 79ec 9f23 abc0 9a3f
00000090: 6af1 74a9 44cd babf 6518 e393 9051 b13f
000000a0: 3452 5169 9fa9 a3bf 8789 9eb8 6c7a 85bf
000000b0: 023d af5a 5765 86bf 5143 7b14 6930 87bf
000000c0: e545 a4cf fae4 87bf a8d8 6d68 1223 88bf
000000d0: 274c 83fc 4467 87bf e52d 7110 4b15 86bf
000000e0: e541 0f45 a575 70be a9fb e600 359b 75be
000000f0: 74b9 0d55 7af4 78be 42e4 e246 f8dc 7bbe
00000100: 40fa 2476 2e41 7cbe 56cb f331 7358 78be
00000110: 9f62 faee 1cda 6cbe 078a e42f 36c1 9eb3
00000120: 1b76 8990 b86d f1b2 ff81 e559 3890 2233
00000130: 8d40 c2c8 afac dab3 a464 e34e df17 e533
00000140: 2c97 f0ae d9da 6d33 3803 2372 b865 15b3
00000150: 1f81 29d7 42d4 63b3 11dc 184d 6946 e5b2
00000160: f83d 50c6 11d2 68b3 e054 475c 9a16 4fb3
00000170: c319 f57a 9266 f232 f496 3e38 d014 a4b2
00000180: 7100 0a87 a5e3 e9b2 e0e3 0075 4688 703f
00000190: 8f0d a5ad 56b7 b1bf 7b08 58fd 055f aebf
000001a0: 2804 5999 45ca b83f a069 a525 7c93 c13f
000001b0: 3efb f91c 86c1 97bf 6994 423a fde5 bcbf
000001c0: 5e56 d433 9be9 acbf 16a2 1d32 a004 c5bf
000001d0: 5fe4 17ba deec b2bf 034b 17f4 c578 a03f
000001e0: e7fd 82b9 aa05 ae3f e437 366c 715b c03f
000001f0: fc87 0e86 9ec6 bf3f ddb6 563d addc 77bf
00000200: 7751 117c 06d1 67bf a22f d665 3dad 65bf
00000210: 9f15 eed3 aaf1 69bf 6ad7 fc37 91cb 72bf
00000220: 0772 21e3 59b7 73bf a944 6ecd 7722 6cbf
00000230: 52f3 e1b3 0bde 1dbe c835 d009 ee16 0abe
00000240: 56a5 42ed 8f60 05be de40 893b 70a5 ddbd
00000250: cfab 1ba4 a067 b63d 16c2 f836 1165 8cbd
00000260: 550f 72fa bdd7 7a3d 5f04 dc42 4a85 b8bf
00000270: f081 667a 8cc2 653f 92bc c693 833c ab3f
00000280: f1c5 b767 9c8a b73f 950f 6055 09a2 b9bf
00000290: f5bd dbcc 37b8 c3bf 837b 4587 74d1 a9bf
000002a0: 8b7c 2796 1925 ac3f a4dc 75de f27c bdbf
000002b0: 68f6 f6aa a1f1 b8bf 2fc5 26e4 5628 c0bf
000002c0: 5f71 1d9e 0be4 afbf eb0e 817e 4e95 b13f
000002d0: 15cb f181 c8cf c43f 6445 082b 3114 7dbf
000002e0: b466 7609 621d 74bf bf8f 5b64 fc4f 7bbf
000002f0: 0335 6088 2d9e 77bf 58bb 1bfd 2400 87bf
00000300: ca33 c4b2 8cc5 88bf e61f e6f8 b00a 87bf
00000310: 9585 75ce ac16 8abf ef0b 6faa 6f35 b9bf
00000320: 2614 1aa3 01ed aebf 62fd e036 9750 b3bf
00000330: 8064 9809 abcd b73f 44e0 616f 8e9b 5ebf
00000340: 769d 407a b8a6 ca3f 08eb 1f95 d0ce 84bf
00000350: 9f67 3c9f ad68 85bf 2c49 4bd9 49a2 86bf
00000360: ea18 6648 9b94 85bf 0595 6f59 f165 85bf
00000370: 0dd3 c62d e35d 82bf 1893 51d6 4ff9 7fbf
00000380: 5461 b184 efb5 acbf 6562 c3c7 03bb b7bf
00000390: 43c1 0676 7fc7 bbbf e10f d34f 732f 78bf
000003a0: aebe fa48 2331 c2bf ad35 2716 bc89 b5bf
000003b0: 267d dcbb 8f17 88bf 10f0 a7ae dc4c 71bf
000003c0: 1029 4655 8fe0 c53f f381 69bd 2ef8 bc3f
000003d0: 9d84 0ac2 83d8 81bf 7bdd 8648 0602 6d3f
000003e0: 363e efa3 73fc c4bf 4bce 53b0 1f3f c2bf
000003f0: f13f 4644 91be 93bf 97bb 8248 9d90 b4bf
00000400: 68f0 23b8 cc00 b5bf 175b c035 7ff0 a63f
00000410: e876 e2fb fbe9 bcbf 5fc4 72ca dbeb 9fbf
00000420: f744 43da 9a9a a3bf 71de 2d69 e56b b2bf
00000430: 1d30 4b28 969f b3bf 3e39 140f d567 8e3f
00000440: 5d0e 87aa 3519 adbf 277e ecd8 4de3 b3bf
00000450: 03df db35 c075 acbf 5e7d b1a3 1850 a4bf
00000460: 396f 50fe bb7d c3bf f977 d957 2826 bdbf
00000470: e009 a74c 1ffe abbf 7862 a2dd ad0b 923f
00000480: d9ff e24e 0c30 b9bf f35e 537d 240d ac3f
00000490: 5da2 885d e4dc 943f ff99 b275 a235 9ebf
000004a0: 0b54 6534 6172 7a3f 5566 30d4 2bf2 c1bf
000004b0: 04a3 454d bcba 91bf 4c83 17fa 5463 aebf
000004c0: c283 220b 6d83 9fbf f735 517e 7fc0 c13f
000004d0: 231d 750a 9b72 44bf 7ac8 8863 62f1 39bf
000004e0: 0b5c da2c 93a0 36bf b539 e681 7b25 40bf
000004f0: 4aca db5a 33ed 32bf 32cb db84 56f3 40bf
00000500: 16ac 9ece 1735 3bbf eb87 556c c393 a2bf
00000510: 7999 accd 244f b1bf c238 a3d1 b572 8f3f
00000520: cedc be34 b0d8 a5bf f82d e6b0 4dd5 a2bf
00000530: 791f 893d 6357 96bf 163e 7db1 8f64 b5bf
00000540: 911d c500 808b bd3f e8fa 2219 287c a93f
00000550: c2fb 9761 2eed aa3f b7a1 e0db 2d66 8e3f
00000560: 84fb 0726 cf52 c0bf 5a52 b7d8 a036 bbbf
00000570: 339b c51e a52a 9fbf 2e10 4ca4 fc0a babf
00000580: 11e3 3868 ead2 aebf 38d0 498b 8d4e b1bf
00000590: 10ba c779 b2d4 ae3f 3e52 2133 30fa c93f
000005a0: 479e f796 89d0 b33f 0f23 b293 5263 bcbf
000005b0: f0e2 4bb2 9f3a 38bf 1e0c 911b 02fa 3bbf
000005c0: 7574 5679 8b75 3bbf f4db 450d 13b7 38bf
000005d0: cf8c b0e1 55d7 39bf 484a 126a 355d 30bf
000005e0: 49f3 2e68 044e 24bf a417 9cd5 1cf9 e6b5
000005f0: 2932 f620 7634 bb35 abc2 3e41 0901 4db5
00000600: 2cb0 c820 083b a035 2f93 9dab a69b 6a35
00000610: be90 ee9c 7bf6 3c36 67c0 8d6b bf86 c233
00000620: 15aa 4df4 d778 733f 932e 3141 f5f1 b43f
00000630: 7889 4b58 4d42 b2bf 4b9c fd8a 37ef aebf
00000640: 0829 1804 1117 b4bf 7fbc b009 21a3 ac3f
00000650: 3f6a c380 990d ba3f 2a7f cfda ef6c b8bf
00000660: 9fa0 abd9 4b49 9bbf a259 684a 75b9 a3bf
00000670: 534e af1b 6741 c03f 44b0 6e48 663e a73f
00000680: 29b9 e874 ec5e b93f 4bf8 ea0e 6fbb ba3f
00000690: 8020 fc28 8e46 303f 4a84 4982 0bad 353f
000006a0: 7829 e2a4 03c1 233f 3527 8f76 7406 3c3f
000006b0: 35e0 505e 44e9 2ebf f295 2716 fd5f 14bf
000006c0: adb0 eebc 0ee3 323f 97f8 dd56 4809 84bf
000006d0: 2fd4 ce0c e7b8 83bf f2c5 3089 d05c 83bf
000006e0: 1e7c c1ff db28 83bf 68b6 5e0f 72cb 82bf
000006f0: 9804 0b07 28e3 81bf 29d3 2acb fdad 80bf
00000700: fe9d b156 5ca5 94bf a860 a800 a58b bebf
00000710: 949d c872 107d 90bf e2c2 353c 650c a43f
00000720: b685 a64e cad1 c13f ecfe 33d1 be0a b63f
00000730: 62df c8b5 dbe8 bbbf 7e2c de5d 234d c73f
00000740: ba19 74b0 23df c13f 94fd 2884 ac95 a8bf
00000750: 2f3e acd4 678a bbbf 3940 743e a644 c2bf
00000760: ccc3 4a3d 7c37 c1bf a9d1 0de9 7e4c b9bf
00000770: 305d 80ee 4201 af3f 48c2 07a5 61bc ac3f
00000780: 6967 11ac cb29 ac3f 247b debb 6beb a43f
00000790: 1e54 6c85 476c cfbf ec8c de1a b38e a3bf
000007a0: 9658 f56a 038d a6bf f0c9 77a0 2268 74bf
000007b0: 98d9 753b 4f0f 89bf 4c29 6e65 4544 bcbf
000007c0: 138d a2ff 1b0e c4bf 05e3 ae15 c166 95bf
000007d0: 8afa ddfd 8457 983f f986 c705 d079 b33f
000007e0: 4104 23dc 39f2 c23f 424b 87a5 b5f9 923f
000007f0: 3f1a b33f 9e55 963f 3f28 8636 3701 78bf
-3.6894633780600716e-11 -5.039162773950831e-11 -4.075349404954068e-11 -1.954737839751539e-11 -5.160272757485217e-12 -2.616423878816957e-13 -7.230050829520907e-14 0.00964668291431457
0.0301998003670485 -0.07977149634246727 -0.16927381814856873 -0.036092535832880544 -0.04262705241289413 0.10722357020592936 0.07551093766027651 -0.01903144290592014
0.00730260277237574 0.026125597047194724 -0.10469464432839506 0.06765082941555674 -0.03840349350563024 -0.010487412819035992 -0.010935480551693025 -0.011322804391427662
-0.011667212926599066 -0.01178564435188563 -0.011427439647752348 -0.010782801093362113 -6.1316613355533e-08 -8.048965602964254e-08 -9.296458826160393e-08 -1.0379837231650933e-07
-1.0525664387738132e-07 -9.069408378799469e-08 -5.374104527811811e-08 -4.784679345466081e-60 -2.647910849702293e-63 2.2562514054239383e-62 -6.639847092933374e-59 1.0501089939304576e-58
5.805856243009867e-61 -1.3003516505054684e-62 -3.8561584902850296e-61 -1.616148993141649e-63 -4.826839740432808e-61 -1.5114290733712073e-61 2.795597333682266e-63 -9.534168263928075e-65
-1.9666646002258252e-63 0.0040362121799768225 -0.06920377482770433 -0.05931872098518994 0.09683642381516278 0.1373133834666307 -0.0231991725145193 -0.11288435623517191
-0.05646977431949261 -0.16420366713579487 -0.07392684977811957 0.03217142681719134 0.05863698496386487 0.12779062064913582 0.1241244389807718 -0.005825688092426976
-0.002907288232146306 -0.002646083753182497 -0.0031669937592961462 -0.004588668118051456 -0.004813529130924816 -0.0034344043628569865 -1.7385095164947733e-09 -7.593064125602938e-10
-6.221582923507651e-10 -1.0785240659244968e-10 2.0377042290287527e-11 -3.2281143292020033e-12 1.5258332603508873e-12 -0.09578384525595272 0.002656244632092568 0.05319605997953504
0.09195878536390702 -0.10012873014789954 -0.1540593862805363 -0.05042614127409364 0.054970550135970596 -0.11518781596338329 -0.09743700431769187 -0.12623106136519754
-0.062286723185681174 0.0686844881866439 0.16259104103991065 -0.00709933477675526 -0.004910834271322596 -0.006668077379547498 -0.0057660845395848285 -0.011230744337323337
-0.012095545964735072 -0.011250860782425275 -0.012738561678534302 -0.0984716216180883 -0.06040196529378532 -0.07544846620384285 0.09298199638614513 -0.0018681422202728873
0.20821290940623854 -0.01016009287922294 -0.010453564092632038 -0.011051728194989417 -0.010537350794731688 -0.010448346654764249 -0.008968138536923154 -0.007806121696465572
-0.05607555861269256 -0.09269736887962095 -0.1085128462934835 -0.005904627262854207 -0.14212456763697418 -0.08413291493271542 -0.011763689919063024 -0.004223691978491942
0.1709155241372362 0.11316196560210993 -0.008713750228084566 0.003541004440389348 -0.16395421509376867 -0.14255138501867956 -0.01928164462293575 -0.08033164043693684
-0.08204345222105902 0.044803595839928594 -0.11294531726386092 -0.031173166495765844 -0.03828891672459094 -0.07195886438227618 -0.07665384753926259 0.014846481821703447
-0.056832959238388915 -0.07768713518134317 -0.05558586747605256 -0.03967358587464774 -0.1522746078270474 -0.11386348862421859 -0.054673174006456327 0.017622677471623466
-0.09838940549798227 0.05478776960234013 0.02037388630756919 -0.029501474794097145 0.006456737237688702 -0.1402029787139322 -0.017313902107534154 -0.05935159256819719
-0.030774787716499004 0.13868707340081673 -0.0006240136180303595 -0.0003958573538823739 -0.00034526436943721543 -0.0004927495063372008 -0.0002887964609349687 -0.000517289395899878
-0.00041515189388502524 -0.03628359506070907 -0.0676138879904097 0.015355511150485394 -0.042668825567881194 -0.03678362640775029 -0.02181773245891303 -0.08356569369538422
0.11540985125349425 0.04977536494106066 0.05259079877213636 0.014843328735950274 -0.12752713543883598 -0.1063023118106882 -0.03043611526791352 -0.10173014651451304
-0.06020290872806389 -0.06760487223238065 0.06021650063108919 0.2029476403864851 0.07740077911113828 -0.11089054208617831 -0.00036970518912897345 -0.00042688895661430356
-0.00041899352194169705 -0.00037712302334774674 -0.0003943047210574592 -0.0002496962934596431 -0.00015491298480965258 -4.912134470428402e-49 7.271237016737413e-50 -6.05632769705876e-52
2.169027779563013e-50 2.2224048535555335e-51 1.9817168140720358e-47 2.3057962197858257e-59 0.004753917285464944 0.08181698648075501 -0.07132419019356984 -0.0604188306013432
-0.0784769663806949 0.05593207591334081 0.10177001374851445 -0.09541224567464882 -0.02664679065756614 -0.03852430852218737 0.12699593402668316 0.045397945730059536
0.09910467008805725 0.10442251314359045 0.00024834604936119914 0.000330748853491218 0.00015071076854085061 0.00042763083780227316 -0.00023583373618563252 -7.772428720150668e-05
0.0002881918889510265 -0.009783330107662897 -0.009630017355315072 -0.009454373537752556 -0.009355276815936672 -0.009177104085974011 -0.008734047617851723 -0.008144362223313788
-0.020162051001902263 -0.11931830659921394 -0.016102082258070263 0.03915706977830326 0.13921479072909698 0.08610146148202674 -0.10902188480474487 0.18204156955139078
0.1396221744145814 -0.048016921170069754 -0.10758065168578733 -0.14272001313702434 -0.13450577729011426 -0.09882348241609996 0.06055649911302863 0.05612473620920305
0.055006375078575705 0.04085861843417707 -0.24549192442705786 -0.038198086767147504 -0.04404459648746799 -0.00498212362389204 -0.012236231805883332 -0.11041673399282564
-0.1566805837838748 -0.020899788807329695 0.02377136039239728 0.07607746258829796 0.14801715134493246 0.01853069136434305 0.02181098235885259 -0.0058605343587121985

block_1.0.bias f8 [64]
00000000: 2f32 39f0 531d 82bd 7756 0086 6531 c33f
00000010: 2e97 66e6 18c3 a03f 3690 9a41 f284 8abf
00000020: 09a4 5f26 2b2d f0be 881b 2561 e648 b3bb
00000030: 76b4 6e8e 8ff6 75bb 04be 69f4 baf8 6fbf
00000040: b5d7 5e57 a83d 8a3f e842 e26c b240 7bbf
00000050: 1389 9a11 c845 f1be 6143 4e45 c1bc c33f
00000060: 0f0d 419b db29 c23f 7d1e a9de 321f 86bf
00000070: 9654 5bbb 04c6 703f 42b2 863f c828 8ebf
00000080: 558f e1ac ffd6 d03f 27ae 4404 b981 7d3f
00000090: 85be cdbe 8b44 b53f d1b0 dbd4 233c b53f
000000a0: 1013 9fcb f99d ca3f 5a3c d301 f063 bb3f
000000b0: e909 144b f5a7 63bf b93a 790e 8ade bd3f
000000c0: 7dd5 17c5 624e 8f3f 40ed 3504 d5f2 423f
000000d0: 5fe4 33f6 8b5e 5cbf 324d 8a40 5a81 d1ba
000000e0: 5051 0137 a7b2 9a3f 2837 262a 04e1 bbbf
000000f0: 543d cf14 f601 72bf af25 d569 1518 91bf
00000100: 2bd6 82c2 71c9 683f 4a65 47ac e14c b33f
00000110: 3976 e549 7e37 a43f 61f2 7111 791c c73f
00000120: aa93 fb6e 17d2 a83f 3c4f d940 e1d9 84bf
00000130: 265b 57c5 cf12 babb a647 d2f8 5139 903f
00000140: 3332 f483 d22d b43f e534 96ee e69e 603f
00000150: 0cf3 4a60 2039 b23f 717f 264d 826c 3fbf
00000160: 0a0f 4126 515c b03f 7955 1035 dbfb 43bf
00000170: adb0 7a32 45d7 c23f 77fa 45fd 6612 813f
00000180: 51dd 3697 528c 6bbf 0140 779d 1a83 b63f
00000190: dbc0 f605 ac7c b53f 2eb2 2f84 68a1 8cbf
000001a0: 7512 c654 288a 9d3f 062e 9cb0 5697 723f
000001b0: 89ec 03b5 7a9c c33f ffdf 5a71 bd81 c33f
000001c0: 53bc 8941 0e38 7f3f 4263 0f17 aa08 c33f
000001d0: 2b28 7940 65fd be3f e19c a35e 03b8 883f
000001e0: d696 fad6 8229 a2bd 6d04 2327 e1a6 7cbf
000001f0: 0d88 a8d8 4f14 dbbd 16b6 bca9 9686 b73f
-2.0593872759404715e-12 0.1499449638655965 0.032738474011507854 -0.0129488874693565 -1.5427055039572038e-05 -4.083707899785003e-21 -2.9067957871522286e-22 -0.0039027835330711653
0.012812915006957451 -0.00665349671739144 -1.6472419793197678e-05 0.15419784435337205 0.14190239983336325 -0.01080169431692401 0.004095095142209312 -0.014726223410286402
0.26312248118323583 0.007203791352633305 0.08307717712681935 0.08294891306622111 0.20794603769731923 0.10699367565688203 -0.002399424637247839 0.1166769299827405
0.015286227836422079 0.0005782642478346159 -0.0017315260709536357 -2.2625048493326277e-25 0.026072132808921566 -0.10890222577128539 -0.004396401648548338 -0.01669343431902853
0.003025743662955068 0.07539186912562915 0.03948588039450524 0.18055642463504554 0.04847787122506671 -0.010181197921305 -5.521274752048897e-21 0.01584365922150934
0.0788241932061247 0.002028895415327458 0.07118418074510319 -0.00047949010072478095 0.06390864547671185 -0.0006098575923966641 0.14719452824409043 0.008335880855836237
-0.0033628094767796175 0.08793798775081997 0.08393359323122544 -0.013979736837392922 0.0288473417035839 0.004538859016757884 0.15321287001265585 0.1523968509188762
0.007621818244486783 0.14870191694242335 0.12105400871328757 0.012069727254539976 -8.259190829593059e-12 -0.006995086196355788 -9.85140772470131e-11 0.09189740795110199

block_2.0.weight f8 [32, 64, 5]
00000000: 5605 650b 3a61 55b6 90b4 0ffd 0462 6d36
00000010: 6f5a 369e 31b4 5eb6 2dee a15b 9f50 41b6
00000020: d09c 18c0 5f1b 30b6 1eee 6119 77b0 1cbf
00000030: 1d87 f036 a160 61bf 76b3 449a 4352 703f
00000040: 5d2f d154 bff1 69bf c5cb ea81 bc52 6f3f
00000050: a5c1 123c b8c3 49bf b40f b262 d21c 5d3f
00000060: f849 ed40 d249 76bf fdc2 5a53 54c7 633f
00000070: f5f2 48ef bd51 75bf a94a 9436 6706 9034
00000080: 2ef3 c1c6 3189 f532 324f 14eb 4ef6 bd35
00000090: a126 7041 cb55 c635 42c8 871b 036f bfb5
000000a0: 9404 ec49 52a1 6eb4 c855 80a5 bf4c c1b4
000000b0: 262f a5f4 7af8 b5b4 fd6b a0bd 3196 8834
000000c0: 9522 fb76 f42d e034 4825 a2a1 c58e e0b3
000000d0: 0394 5935 7ffd 06b3 05f0 1017 cbc8 c1b3
000000e0: ecfb e12c 9f00 c4b2 f29b a352 8807 d6b2
000000f0: 9885 856f a089 0eb3 db8c 9b47 2024 e232
00000100: b296 ac50 5f09 7fb3 a0ab 01d5 7c09 2633
00000110: b745 8a9f 42f1 c2b2 ae8d 2673 186e 45bc
00000120: 48bd 942c 3564 03bb e4c5 1b7d 8512 75bd
00000130: c208 cd47 bb5a e3bb c542 3956 bbce 53bc
00000140: 0291 22c9 7995 15bf 7fd9 7658 3e11 febe
00000150: 88aa dd39 bed5 21bf b131 30c5 448a 2a3f
00000160: ed06 c990 c6b3 113f 14f1 1828 2715 ea32
00000170: f55a 0417 0195 d6b7 77e1 730f cc53 38b3
00000180: 6dab 8d72 ee28 b6b7 5143 acfe 4db8 1533
00000190: ca95 0a76 27de 0133 ba2c 6585 b431 ec32
000001a0: b7b7 b509 8a08 09b3 8d42 cc66 5077 fd32
000001b0: e340 36c2 b791 edb2 7e3b 9fe2 f4c6 cb3e
000001c0: 3e5c e760 529a e9be 380b 8b46 5114 ea3e
000001d0: b463 a8d9 3f19 13bf 6324 f3b3 3429 e2be
000001e0: 41bd ada4 aea6 1b3f 59d0 13e1 a8e4 343f
000001f0: e509 2148 1a81 5e3f c39d 2fa9 4784 643f
00000200: 1779 13bb 8204 4dbf d41e 9c27 b65f d0b2
00000210: 0e6e bd4b 6607 d4b2 2774 89f2 72a2 80b3
00000220: 59a8 eb8f 9fef c3b2 9734 304a 16b2 deb2
00000230: cf2f 2c46 0ae8 70be 85b0 6f55 9912 8f3e
00000240: c750 7d62 6f80 c33e a8ef a1ca e769 a33e
00000250: 5940 ce90 30f8 96be 8dc5 55f4 0208 d3b2
00000260: 77a4 a1c8 a085 0b33 5287 ed40 d814 5133
00000270: 1364 600f 7106 b4b2 8d28 88cc 3c2c e4b2
00000280: c92a 5297 6997 4cbf 9cdb 0ead ae86 17bf
00000290: efe1 dedc 8c38 39bf 4514 8a7b 274c 44bf
000002a0: b8b8 1793 635a 56bf de19 85e6 f2b7 35be
000002b0: 2e64 99a5 66c7 22be 9a9f 4924 0ae7 2fbe
000002c0: 8e6c 0dae e843 73be b571 96fa 8ef5 62be
000002d0: 74ba 3ded e97c 1cbe d410 52e1 f1e1 49be
000002e0: 34a5 79ce 57bc 6c3e 8617 4e5a 7faf 59be
000002f0: ff5a 28b9 df88 40be 4207 fb32 84aa b2bb
00000300: 30dc 6696 ac6b 39bd 2585 7fb7 13ea 803c
00000310: 26df 5963 048d 2ebd 2b3a e97c f9a8 16bc
00000320: f6c1 2df0 f9ba 63bf 2d0e 8754 4593 443f
00000330: cea2 77aa f2f4 3dbf f44c 334f 4037 6d3f
00000340: f464 3846 dc48 73bf a2a8 5dc4 a48d 4abf
00000350: b983 f322 1562 2abf 91af 0867 0b14 673f
00000360: e652 8988 a817 1f3f 6c71 5e32 1710 6c3f
00000370: 72e5 1736 490b c135 8dd8 b10a daf5 a0b5
00000380: 967b 362f 18ef 93b5 c549 3311 4f59 d2b5
00000390: 64c4 297d 3306 dc35 758c 9c88 2e25 51bf
000003a0: 171a 2a34 cddf 6dbf fdc0 2dad 4689 6dbf
000003b0: 716b 4e43 3fc5 733f e5bf 7ea2 80c7 743f
000003c0: df18 f169 ddaf 4f3f 08d5 3595 006c 173f
000003d0: 2c99 5ba0 a0f2 453f 7942 40f5 be1a 07bf
000003e0: 661d 8433 8358 06bf b2cb f0c5 8369 113f
000003f0: 873c 5c1a 4497 0b3f 3328 b2bf e1d9 1f3f
00000400: 05d0 a3be 3190 223f 26dd da1b debf 1fbf
00000410: eeb7 38bc 08ee c436 4b0b 15b1 2bfa f536
00000420: 9f24 15e5 3b09 e7b6 0f25 1535 913d f236
00000430: ee86 7bd5 aacb dab6 f232 39b8 61df 3233
00000440: 1427 770f 3459 d533 de51 7ca1 2636 d332
00000450: ccb6 54f9 b54c 1433 b593 0989 c257 6033
00000460: 3551 5eb2 9b9d 02bf fb4b 77c4 b185 16bf
00000470: 78c8 09c6 cc25 32bf 21f9 c4b6 c13b 40bf
00000480: 6e22 3b10 4960 f6be 8bdc 0fa0 5071 473e
00000490: 1e67 a1ba 3abd 9dbe ea93 cda5 3a96 a8be
000004a0: c253 7477 3bdb 5bbe bc7b 2741 066d 86be
000004b0: 561a aea4 3250 df34 78b3 ef49 0174 0534
000004c0: cfbf 2cd5 b7b8 c2b5 6c56 52e4 909b b2b3
000004d0: 7eb2 e731 ff7b 4234 aad2 a4c6 5cea cdb2
000004e0: 11e5 1a03 52eb 5833 6f5f df8f df82 e632
000004f0: f31b 8ded eaf7 9233 9c78 5c0b bb87 e732
00000500: 10dc b39e 9d7e 3b3f e693 a71b 893e 24bf
00000510: 3c3a 40ae 11c9 39bf f23d 6a17 d895 543f
00000520: 8be4 be47 b295 213f 3639 02aa 8548 8bbe
00000530: 81b6 88ce 942a b5be 1ce8 7a63 1e5b c3be
00000540: 856a 9512 a387 98be 3f89 4a8d bb35 dabe
00000550: 4957 708c a5f3 113f 1093 0d5a 313d 083f
00000560: b9e7 f5d4 e1c2 313f dc88 59ed 58ff 273f
00000570: 7e27 0304 3aa1 20bf 2137 b7d8 bd1f 83bf
00000580: bca5 dc30 330b 773f dc71 f71b 8f81 7abf
00000590: 3cbf ebf6 cfa1 7e3f c4b5 f221 116b 863f
000005a0: d534 4244 35e9 223a 3e1d bf62 cc52 933a
000005b0: 9f4b dea6 69c1 ceba 8a46 988c fd06 c0ba
000005c0: 7ab0 471a a505 49bb 632a 6602 5d8b d3b3
000005d0: 92bb 100d cc53 b1b3 97c7 3271 6e71 1233
000005e0: 6bde 066e 8ea4 2433 7f9a 6c25 b619 e332
000005f0: 9a97 1500 90a4 cbb2 59cc ed63 16c6 dbb2
00000600: a5b9 29c3 42aa bab3 b15f 1a25 10ad 9fb3
00000610: 3a72 2229 39f7 c133 d440 1be5 b053 bdbe
00000620: 5396 5b87 934a b9be a025 13b4 8b5e f7be
00000630: 9991 79a5 ca26 fbbe b3a4 fba9 12ff ccbe
00000640: 7973 8745 f41e 5abf dd13 b638 5eca 62bf
00000650: c5ed d329 41ee 76bf ec3f c987 1a13 733f
00000660: 7be2 1bf3 4925 77bf 8a52 99a6 4e64 0abf
00000670: 3fb9 63be 334b 15bf 9550 4a95 27a9 043f
00000680: 527b babe 8149 073f c9a5 80b9 1e9d 303f
00000690: b409 1684 01e4 173e 2d6d 75dd f1c6 3fbe
000006a0: 2c27 0927 7546 08be 134a 43a1 d38f 83be
000006b0: 9424 c288 34e2 93be 8e53 70e0 6449 153f
000006c0: 87b2 9f67 92be 4f3f 04ad c23c f2fe 183f
000006d0: 217c 9ca0 fe01 36bf 5ea8 5271 aca0 2ebf
000006e0: 0666 2b33 d913 293f a2ca 1d38 083a f33e
000006f0: 6035 63e1 49aa fbbe d721 1b7a 43ec 233f
00000700: 8a7f 2363 35ea d6be e74e 42da d0ed 41b4
00000710: 812a e136 27f6 43b4 997d 54e8 5ea2 20b4
00000720: 122e 5f4f 262f fe35 56f7 06e9 5cec 1eb6
00000730: 9b53 b809 60e9 283f 5796 8d1a e1cf 303f
00000740: 58a3 2f05 18cf 53bf d9f4 1674 e105 4cbf
00000750: 6632 a017 f72f 4ebf 7190 0849 3a08 34bf
00000760: f1af bb9c 5661 40bf 0f98 4dab a155 5a3f
00000770: b628 7d90 366f 51bf 6322 24b7 4ee2 58bf
00000780: aacc c815 a6cd 15b3 2e96 2c73 a3cb a3b3
00000790: 2d29 0f04 6f2f 0fb3 8efe d66e 4d62 dd32
000007a0: ca41 f8e6 6777 2733 16e6 8074 35fd 5dbe
000007b0: de91 bfce c6e5 3a3e d693 e8b2 9473 77be
000007c0: 5633 c6a3 575d b9be cde3 f997 da92 87be
000007d0: c762 a1d4 36e8 643a 4e0f 8235 33cb 183a
000007e0: 9a09 ae3b f45b 993b 08c0 81a6 89ba 4dbb
000007f0: 9239 c8e6 f7a1 28bb 683c f689 faa0 28b3
-5.851458908518979e-47 1.6083670585521426e-46 -8.403379463036834e-47 -2.3694713939298366e-47 -1.1020808580275625e-47 -0.00010944106029058722 -0.002121271965294448 0.003984703133295455
-0.0031670319499762915 0.003823631457032547 -0.0007862710555369036 0.00177689118825784 -0.0054414952308712225 0.002414383600659041 -0.005204908306549729 1.6338763291968393e-55
3.2719319557219184e-63 8.00817549675045e-50 1.1939310886921794e-49 -8.401472682167904e-50 -3.9037330498079004e-56 -1.411080720305306e-54 -8.960314063069422e-55 1.2534037532480914e-55
5.278811929596072e-54 -8.24310715634634e-59 -6.985766825690387e-63 -2.2134454993541493e-59 -3.7986883593101785e-64 -8.367275470680452e-64 -9.279100494612772e-63 1.378081685392702e-63
-1.207133138797691e-60 2.67845639660788e-62 -3.5973811868090356e-64 -2.3234518231312555e-18 -2.0050275271684164e-24 -1.1978243819608177e-12 -3.278766312344584e-20 -4.295076888092373e-18
-8.233600445578876e-05 -2.8674466674616282e-05 -0.00013606974692533338 0.00020248498421472424 6.752871940654175e-05 1.981354944955877e-63 -1.0369167856942556e-39 -5.913646937234281e-62
-2.5438304347874015e-40 1.3199562413734416e-62 5.429273820327144e-63 2.1417565099989888e-63 -7.606589778272883e-63 4.4767531103538757e-63 -2.2462115079514346e-63 3.311297196418661e-06
-1.2208375690754316e-05 1.2435610373789244e-05 -7.28554936490062e-05 -8.659820763050845e-06 0.0001054805845066469 0.0003188049605136238 0.0018618351609950231 0.00250448223367858
-0.0008855474790399356 -6.219168893246616e-64 -7.60743284325197e-64 -1.2939645151309584e-60 -3.786078179465864e-64 -1.1658905956365779e-63 -6.298127312400859e-08 2.3150929948036457e-07
2.324783753874114e-06 5.785731407438332e-07 -3.422720887208802e-07 -7.22851806927827e-64 8.362779821047289e-63 1.660905739087965e-61 -1.901502886548176e-64 -1.5324177186747953e-63
-0.0008725419599085678 -8.97449601911918e-05 -0.0003848403838407057 -0.0006194298540128726 -0.0013643238456740158 -5.056744002972596e-09 -2.1861528531840262e-09 -3.7139396300538944e-09
-7.176872031165741e-08 -3.5314286005191656e-08 -1.6582166099993408e-09 -1.205252346038658e-08 5.3524439822003283e-08 -2.3921520448113933e-08 -7.699552805263646e-09 -3.952696125247091e-21
-9.031212125295145e-14 2.9341743191962865e-17 -5.426920816187846e-14 -3.0710103627515294e-19 -0.002408493195098278 0.0006279076124475251 -0.00045710491619259115 0.003566384891749425
-0.004708157011486625 -0.000810342266715187 -0.00020128734602223116 0.0028171751694312038 0.00011860815187365487 0.003425641351851796 9.110966243586926e-50 -2.2665523572016944e-50
-1.331969805935531e-50 -1.9616877098862615e-49 2.9960861874365636e-49 -0.0010464624815049982 -0.0036467559705812935 -0.0036054973983753445 0.004826781388056798 0.005073072890738194
0.0009670096513978674 8.934739644480074e-05 0.0006697925861914081 -4.406829125980656e-05 -4.262113947289363e-05 6.642214565104226e-05 5.262543281336304e-05 0.00012150230752375271
0.0001416264270300839 -0.00012111466545660209 7.332231432621926e-45 6.15933150080888e-44 -3.2280409757421074e-44 5.112076069655633e-44 -1.8774299377488114e-44 4.587671240202445e-62
5.3140693768782485e-59 7.296974229652464e-64 1.233642994896814e-62 3.178174047673159e-61 -3.550654791620521e-05 -8.591554170971065e-05 -0.0002769112525477023 -0.0004954048031675964
-2.133952604202671e-05 1.0916328287479098e-08 -4.431482759685676e-07 -7.327447054504401e-07 -2.5943271944850635e-08 -1.6708580170742583e-07 5.10821596542114e-54 4.272103904417667e-58
-1.000766233894576e-49 -1.157958745897718e-59 5.889457744990994e-57 -5.681288988153512e-64 2.423010745965593e-61 1.71005480395632e-63 2.9510205034916136e-60 1.787460699823418e-63
0.0004195341886794055 -0.00015445159608798372 -0.0003934543767635556 0.0012564287441455516 0.00013416100762045734 -2.0327634775826796e-07 -1.2616117662888186e-06 -2.3074069551406084e-06
-3.6552298129036186e-07 -6.248925463000272e-06 6.848047188187408e-05 4.62322889294484e-05 0.0002710152957302553 0.00018308601891010065 -0.00012687524031767741 -0.009337886024606558
0.005625915493319974 -0.006471213360296404 0.007478535043205 0.010946401451600425 1.1934499320835742e-28 1.5609343397500844e-26 -1.9875287909248895e-25 -1.0357403974421572e-25
-4.139551014732048e-23 -4.865000994955449e-59 -1.0782825376267195e-59 1.120816796397645e-62 2.5089931491605773e-62 1.450955840207604e-63 -5.249685831099537e-64 -1.0549112058826564e-63
-1.6593720777203245e-59 -4.92801009275132e-60 2.236018497038159e-59 -1.7480205269267584e-06 -1.507479763623687e-06 -2.228671951768279e-05 -2.5893716467344228e-05 -3.456637685296342e-06
-0.0015942941155266661 -0.0022937622322296417 -0.005598310989849369 0.004656890520507755 -0.0056507958085992805 -5.03384115516969e-05 -8.122924154794086e-05 3.940727279885915e-05
4.4416687015705545e-05 0.00025350570786261385 1.390618745454894e-09 -7.398689181574396e-09 -7.065020357559133e-10 -1.4574693863471612e-07 -2.9628893894650566e-07 8.12022991428364e-05
0.000968762861928222 9.535172938750577e-05 -0.0003358122490783617 -0.00023367028248816568 0.00019132639280065882 1.8335998454197874e-05 -2.63835809953169e-05 0.00015199969953118175
-5.4633324444163356e-06 -5.712498806990162e-57 -6.360112263695895e-57 -1.324995306380578e-57 1.2908033056516359e-48 -5.2896438683729786e-48 0.00019006059015738434 0.00025653119751320924
-0.0012090429852326858 -0.0008551932189032842 -0.0009212452416718752 -0.0003056661890090745 -0.0004998848830530795 0.0016073302078551987 -0.0010641129355968676 -0.0015187996583013944
-1.3250231006913055e-62 -6.159373371068822e-60 -9.475904390171491e-63 1.1160708239377954e-63 2.8521864698260903e-62 -2.7929522944586995e-08 6.262577328224321e-09 -8.73635996675461e-08
-1.5118490771265443e-06 -1.7563736419751495e-07 2.1110762622677764e-27 7.823528070938906e-29 1.342504628967112e-21 -4.9181947140741925e-23 -1.0187841357560474e-23 -2.9934676037029823e-62

block_2.0.bias f8 [32]
00000000: 4d9d 0cb1 234b 8dbf f5b7 ca83 b9d1 73bf
00000010: d67a 0ce2 2a26 5d3f abf8 f169 b99e 79bf
00000020: 06a6 abec bea8 0abf 8722 a43e 61a6 74bf
00000030: 6c80 c47d 3ae2 7bbf f076 2273 2ab1 98bf
00000040: ccd4 8371 3d09 95bf 8a52 8273 ff45 b43f
00000050: 2377 3952 a44a ad3f ada2 a355 f832 b23f
00000060: 6fc3 4c4b 9663 963f 0bc9 4c2b 9642 84bf
00000070: 7593 acb4 a64c 9d3f 8a51 febf 8174 9a3f
00000080: b2dd ef79 ad0e a73f ee94 2b2b ad88 98bf
00000090: f4d5 1bad 0073 93be 34a0 57c6 d400 7cbf
000000a0: ace2 3ba0 16bb 9bbf c3ac 48b1 b6b3 3bbf
000000b0: 0b81 b0f5 3b58 b43f b3fb e4fd 44b2 0cbf
000000c0: 4e08 d836 ec18 a43f b411 c96a 1657 a0bf
000000d0: 2ab6 67b3 65c1 a53f f58e 8dcb 8eb3 74bf
000000e0: ae28 745e a206 983f 2c0d 63e3 6e7b 88bf
000000f0: 21bd 0929 c0bf 633f 01e7 2fab 2fae 9d3f
-0.014303473320593918 -0.004838680903658234 0.0017791193751645526 -0.006254886887402981 -5.0848318627515944e-05 -0.00504148470123112 -0.006807545167504352 -0.024113333966503114
-0.020543060353664086 0.0791930825237818 0.0572100973483727 0.07109024134445958 0.0218642695865045 -0.009892628857049354 0.028612713601563883 0.025835063308095076
0.04503385652054294 -0.0239588792418503 -2.898160974395955e-07 -0.006836730147803439 -0.027080873041060258 -0.0004226990725181951 0.07947134731557896 -5.473397298993241e-05
0.039252645201501055 -0.03191442540677106 0.04249112906459758 -0.005054052155944557 0.023462807669638756 -0.01195418006353196 0.0024107697611765043 0.028984780143196612

fc.weight f8 [4, 704]
00000000: fa86 9e17 5a9f 7b3f b564 f513 6e6c 6f3f
00000010: 721b c9d9 5b6e 83bf 437f 27ec 1e58 66bf
00000020: 3f46 84c4 53d2 823f 1f22 cd15 1137 65bf
00000030: 9a1c 964d 234d 803f 8b04 207b 77d7 7cbf
00000040: c583 7a24 ddb6 7fbf ed84 2bb5 a177 79bf
00000050: 15ab bb67 841c 883f 02e1 c0e8 2542 82bf
00000060: 295f 97fe d253 783f 363e aac2 aaa4 563f
00000070: 47e0 5c62 2847 683f 4ca2 64b2 8aec 853f
00000080: c39f b603 0ab0 873f 38e9 6963 50dc 813f
00000090: e03a c0cd 6643 8a3f f765 10c1 b02a 65bf
000000a0: 97d0 9c90 a089 73bf b7a0 bcd1 ec0a 54bf
000000b0: c3fe f962 304a 5cbf f6c1 bb4c 7535 e03e
000000c0: fc24 933c a049 cebe aefe 9d7d ac2f 033f
000000d0: 9a4a 2374 1793 1a3f 2f9b 0da2 e1e8 2e3f
000000e0: 8c99 35bd 124b f33e 96bd 27f3 2504 163f
000000f0: 3cce c6a8 5bac 0f3f 52b2 8df0 ecea 01bf
00000100: 2653 6f26 76ab 01bf bf69 9a03 6acf 0e3f
00000110: 496f 5452 9003 f0be b8d1 da59 fcc7 10bf
00000120: 01fb da96 0c4c 2abf 300d f567 5223 043f
00000130: 77ec bb52 e7b6 023f ca89 e690 ebef 103f
00000140: 5ab9 ac3b 33f4 0d3f 707d e138 d323 e43e
00000150: f3cd 412a 55fc 30be ec3a 4091 6a0e 0f3d
00000160: 9207 c0a5 3159 6cbf 8f70 576d 33fa 44bf
00000170: b52a 1188 a46e 71bf 657c 6784 8ee0 283f
00000180: 1ff3 11f5 8ab1 843f 7c55 7b0e 88dc 8e3f
00000190: 07dd 0847 d64a 863f 7b3c 7a63 ed4c 8bbf
000001a0: ee7c 75f4 07c2 893f c7b8 afcf f319 383f
000001b0: f084 5f98 b4f5 913f ce54 8366 0dbd 7d3f
000001c0: f0f8 45e0 3c88 933f 4e3b 1411 b3ee a93f
000001d0: 60e6 d01c 5052 b33f 1fc3 98f2 b875 b53f
000001e0: b44b 1226 50dd bf3f a6b9 33df f173 c03f
000001f0: 69b0 fcdf 4dc2 b43f cb0b a622 fd76 b33f
00000200: a864 472e f377 ac3f 57d1 6bf6 e5fd a83f
00000210: c7aa 1864 e812 77bf 44a1 7cff bc0a 74be
00000220: 04ff 0bfb da1c 873e 61b8 418a 7064 e1be
00000230: 9a9f 4bef 91f5 263f 20bf aff1 6792 ec3e
00000240: baca 0abf 74a2 c2be 3fcc d387 cecf bcbe
00000250: 7a92 1506 3382 003f 6d74 2b7b 6146 d0be
00000260: aba9 0f88 0b8f d7be 5916 dddd e597 b0be
00000270: 6994 9338 7f72 a73e 4114 463a 7c74 d23e
00000280: 1236 394f 3ce1 d23e 9b2a c38d 765c 2c3e
00000290: 8abe a5be ff48 62be ccec 5dc2 3632 c93e
000002a0: 7073 f16b a9a1 d7be 2ad6 936b 1f50 89be
000002b0: b58e f9a3 0faf 583e 06d4 bc2c f2e9 003c
000002c0: 472d 605a d7db 29bc 0ddf ae9d 8bbe 58be
000002d0: da1b a1b7 887d 87be 3c55 321d 5c92 51ba
000002e0: 749c 335a 13ff 69be aade ec45 2424 ab3a
000002f0: 22ec 868a 6fbc 16bc ebb8 6e00 69d1 9dbb
00000300: 9dd0 ac33 1644 1abb 9161 b7a3 3426 6cba
00000310: 0f7c 30da 635a 173c c36d 75d6 f255 abb8
00000320: 02ff c239 9a4e 4ab8 78ef 777b fc42 bdb7
00000330: cd5a f5d6 2641 4138 d01e 92e6 05d5 8c3a
00000340: 0758 2681 4036 6cb9 ebf3 39b0 6b95 62b9
00000350: 6c9f 3e14 59b9 9538 2f6d 404b a192 4f3c
00000360: 248d 73af c1e4 37be 7652 36ef ae21 e4b5
00000370: bff3 aa67 9659 63bf 32f5 bb8f eda4 693f
00000380: a3ca 8fc4 78ae 653f b456 2def d611 803f
00000390: 7bfe cb68 c8ba 523f 11c1 52e8 e6d2 67bf
000003a0: 90dd 099d ed4c 63bf 4c4e 962f f598 65bf
000003b0: 9b73 6e3f beea 32bf be68 f401 4c7c 383f
000003c0: aa0c 5534 73f2 1fbf 1af8 7ae1 6cce 793f
000003d0: d101 dfb3 044b 47bf 6a5f c2e5 6a39 7d3f
000003e0: cc67 148f ad75 653f d5ac 44c5 391c 6dbf
000003f0: 92e0 2084 b1f6 663f 6b97 1ed9 f83e 67bf
00000400: fc83 56de bcdb 5fbf a302 3737 baec 7b3f
00000410: 72e4 fce3 6316 683f 20bb e707 a7d5 6cbf
00000420: db12 5cb0 c979 573e 0e1e 1b00 bc64 f43e
00000430: 828c 5682 8ac6 413f 4545 9eb5 a999 253f
00000440: d2d8 4df3 3cda 053f 51b4 8914 6f5f 08bf
00000450: 71f7 0bc6 cae5 003f fe7d 6ed3 4737 2f3f
00000460: a119 99a1 48d5 36bf aeda 62a7 9991 b4be
00000470: ca72 4cf4 18c2 32bf cbda 6a8a c599 13bf
00000480: 47d8 efe9 5fa1 283f 566f bbc1 ac3a 2e3f
00000490: be43 701a cbc7 023f 318b 41f0 fea1 133f
000004a0: e11e 0443 4d39 40bf 3c39 eeb5 13a8 46bf
000004b0: 4f47 1533 4a80 d6be ef9c c146 a25b 213f
000004c0: 77fa fb71 c674 a7be dadd f0ca 0dd7 5ebf
000004d0: ba04 f560 e29d ab3f 9e45 84d2 d8bd 8abf
000004e0: e844 3569 2d0d 883f 166c e03d 7c18 79bf
000004f0: 7ec1 a40e 8df2 74bf 258a e2b1 3ffa 933f
00000500: 82cd a9d7 4098 84bf 90ad 1b22 2720 743f
00000510: 2732 de3f f773 963f 6ea4 cd94 aea2 90bf
00000520: e5e2 4c2d 8614 74bf d007 46d0 6d7a 8ebf
00000530: 4ddb 978d 756d 89bf 638d df1c 6d66 773f
00000540: 4b2a 3960 757d 85bf 153c f71c e9c4 a13f
00000550: c08f 1cc3 775d 90bf 7c02 64e7 99fe 903f
00000560: 55a9 f069 c3dc 6b3f d1f3 0c31 5ced 92bf
00000570: 000b 591c 4490 9e3f 2f15 fff7 f93d 6fbf
00000580: ae2b 0a05 13b7 5e3f 6899 8371 fd32 35bf
00000590: d7b9 56e0 d561 24bf 1d17 da87 2e39 e43e
000005a0: 916b 9dc9 9ed5 103f 968c 8072 7310 b13e
000005b0: 11f2 38bf ac1c ee3e 289a 06e2 21ec d2be
000005c0: 0cf5 8963 67e2 c4be 1a16 94a3 d540 c7be
000005d0: 2ca3 a281 350c a93e 734b 1dcc b59a ea3e
000005e0: 7e76 a9be a095 033f dddf 0ca0 4c8f 053f
000005f0: a99e e819 a867 193f a46d 828d e260 e23e
00000600: 3880 2808 07fb 0a3f 13eb 84f0 cb56 013f
00000610: 2232 29c0 926a 0bbf c0c0 cdb9 4eb0 bebe
00000620: 66df 98bb c564 123f 143c b81b 39cf 093f
00000630: a83b 509b aecc 7dbf b195 92d5 6462 8abf
00000640: 6f2b 543a 7aba 823f 41e1 68d3 526f 6c3f
00000650: f82d ad73 22a1 793f 23ff 6417 be6f 893f
00000660: 25a9 79e9 3595 953f ace6 3660 e123 8f3f
00000670: 00c3 41cd 7b92 9f3f 812c fc93 d00e a23f
00000680: c17d c814 7237 a43f e49f d948 e3e9 a83f
00000690: 1c4c 5f83 1a9f a33f 8284 66a3 aff2 a43f
000006a0: ac93 2036 6ef7 ad3f ff07 0c4e 527b ae3f
000006b0: 737e 23a3 3060 b23f 88d2 1a21 a9f9 af3f
000006c0: 1261 4f29 4897 b23f b97c 5e70 3774 b53f
000006d0: 6905 6f79 7d83 96bf cb1d 6ef1 7c86 9ebf
000006e0: 202a 0631 2b31 333f 7bf8 d664 78cb 553f
000006f0: 7375 0ff3 a37d 72bf 3b68 de95 aaf7 80bf
00000700: 02ef 9024 d6b5 5bbf b1b9 eeb1 faed 743f
00000710: 6a4b 2bf0 4a76 883f 9691 d067 dfe8 803f
00000720: 83cb deec 70f9 943f 0746 6287 2a0e 9d3f
00000730: 23bc bdcc 5f1d 963f 7487 185e 9316 a13f
00000740: 11a4 aa8c d68a a23f 9de9 9758 047b ac3f
00000750: 6998 ce4b 0e21 ab3f 3501 0f11 f8ff b03f
00000760: 295f 6e74 d9bc b03f 3754 b23a 5ba0 b23f
00000770: c609 b80a 5b62 b43f 94d1 7ab1 4b6b b83f
00000780: 5da8 2e52 5a4d 74bf 6657 f7e8 8b42 88bf
00000790: 6237 aec4 319a 443f 5416 0e0f 02ac 6ebf
000007a0: 0c18 652e f171 73bf c29e 6a9f 3daf 883f
000007b0: c6a3 1977 7d91 793f 1e3f f0cb 81c2 7f3f
000007c0: fecb 1e7c b088 983f f31a 8a70 e70f 873f
000007d0: 07ba db03 f573 893f 40a3 d592 0b37 7a3f
000007e0: 0e5e fd0d 34f1 9a3f 2354 8831 6b1f a03f
000007f0: f3b1 1cdc 4fa7 ad3f a135 88f1 2f3b ac3f
0.006743766711140737 0.003835883136770047 -0.009487836440838147 -0.0027275661425249244 0.009190229830468797 -0.0025897344297940573 0.007959628873108127 -0.007041422579278432
-0.007742751920575002 -0.006217605276760835 0.011773142257387495 -0.008915229955264174 0.00593931598401535 0.0013820331174975282 0.0029636181597219344 0.010705073899388705
0.011566236723254414 0.008720996888986407 0.012823870805758586 -0.002583832953416683 -0.004769923407185093 -0.0012233078659367577 -0.0017266724134116652 7.728968192095305e-06
-3.6105634292111907e-06 3.659482145135e-05 0.00010137396478463804 0.00023582224187209666 1.8399481473885214e-05 8.398515345907904e-05 6.041197511610612e-05 -3.417525846924743e-05
-3.3702414661418344e-05 5.876581458360034e-05 -1.527206508909689e-05 -6.40151760887335e-05 -0.00020063069989891688 3.8410141309808805e-05 3.569501344987622e-05 6.461024552221261e-05
5.713254309679351e-05 9.603472587992322e-06 -3.9547855304057465e-09 1.3791773762714174e-14 -0.0034604997326832055 -0.0006401778325044893 -0.004255907727449927 0.0001897977801510214
0.010104261020609294 0.015069067899655002 0.01088492779045548 -0.013330320928871089 0.012577116153521275 0.0003677578203554851 0.017538854408376048 0.007260372491335333
0.01907439345222256 0.05064925750240566 0.07547474578395841 0.08382755205890334 0.12447071961859885 0.12853835485971138 0.08108984678682564 0.07603437515176308
0.05560264530112963 0.04881209023543203 -0.005633266236638241 -7.466206841374128e-08 1.7220315619986159e-07 -8.293315041121322e-06 0.00017516523771310134 1.3624142914253244e-05
-2.2214167006648883e-06 -1.7173138354114858e-06 3.148763858965439e-05 -3.880244480139727e-06 -5.616848398818528e-06 -9.89040806102616e-07 6.987826150188484e-07 4.400019779975346e-06
4.501301407678416e-06 3.301676361216816e-09 -3.405875033640078e-08 3.003614909622559e-06 -5.6341866062321015e-06 -1.885963934256048e-07 2.298861034726506e-08 1.1461271617865242e-19
-7.009029526601796e-19 -2.3044941826094233e-08 -1.750168754940745e-07 -8.871450500033428e-28 -4.8422047949259865e-08 4.384893875788191e-26 -3.0813130072700234e-19 -1.5785522235936026e-21
-5.431674000850957e-24 -2.842346945528827e-27 3.164933338900367e-19 -1.028256128608931e-35 -1.5461888921498923e-37 -3.3590744131157275e-40 1.0141282989555186e-37 1.164520104854137e-26
-4.346734792569267e-32 -2.8632684071279136e-32 4.085833197500443e-36 3.4231269783143634e-18 -5.563157704660154e-09 -4.3045571724051675e-49 -0.002362054595634849 0.003130401599149701
0.0026466711756197455 0.007846526311975445 0.0011431653139765397 -0.0029081830894811607 -0.0023560181510295444 -0.0026364125048503936 -0.0002886499855153047 0.00037361961035887656
-0.00012186840202326141 0.0063003781467028345 -0.0007108471834201218 0.00713483578524419 0.0026195897886624794 -0.003553498109018708 0.0028031794654702147 -0.0028376446070578674
-0.0019444794100780252 0.0068175577211497 0.0029403639781802543 -0.0035198461839550804 2.1863480823539767e-08 1.9448751124055397e-05 0.0005424667657972922 0.00016479679726137168
4.168032174949186e-05 -4.6487405204278236e-05 3.222966257075591e-05 0.0002381587198358875 -0.00034840605949106913 -1.225993086202057e-06 -0.00028622731433517996 -7.477062409120686e-05
0.00018791480849217527 0.00023063048217053056 3.5820852012708845e-05 7.489317437285311e-05 -0.000495112157325086 -0.0006914230578887524 -5.364687966151668e-06 0.00013243060982690661
-6.990478347011662e-07 -0.0018823275274949453 0.05393893655355826 -0.013057416843852473 0.011743883870311625 -0.006126866645014514 -0.005114127163594493 0.01950931094382659
-0.01005602510597359 0.004913475860785069 0.021926749489965893 -0.01624558242057044 -0.004902385834434785 -0.014881952208046473 -0.012415808089810599 0.005712915632077073
-0.010493199347498058 0.03470543364129967 -0.01598155144087321 0.016596226451840654 0.003401166598924347 -0.01848358201390338 0.029847206335271714 -0.0038137323572039676
0.001874703000938931 -0.0003234738119445497 -0.0001555036143776184 9.643252492762576e-06 6.421834623663985e-05 1.0171092501641438e-06 1.4358525709850586e-05 -4.511449816757672e-06
-2.4896133051221296e-06 -2.7720045890935e-06 7.464793754424589e-07 1.2685936215872076e-05 3.735443882100802e-05 4.1121984401148766e-05 9.691203602157451e-05 8.763531170344705e-06
5.146136483724677e-05 3.3071612110599284e-05 -5.2292445634625576e-05 -1.8291891372389642e-06 7.016617646449022e-05 4.922764807357302e-05 -0.007275278146166388 -0.01288298393985596
0.009144740014127099 0.0034710519496707064 0.006257185533125924 0.01242016323942569 0.021077005744168837 0.015205155132991997 0.030832228091131064 0.035269277634221836
0.03948551658345024 0.048659422533830626 0.038323238884594185 0.040914047905297415 0.05852837000592301 0.059534618403645816 0.07178024275662569 0.0624516346846678
0.07262087830111266 0.08380457394968034 -0.02198597005531636 -0.029809906230665633 0.00029284767608631253 0.001330249378369368 -0.004514351298863561 -0.008284886072761668
-0.0016913024176252183 0.005109767224821858 0.011944375471477382 0.008256669383691666 0.020482792336860022 0.028374351990867932 0.02159642874852009 0.03337536357527329
0.03621550051804701 0.05562604505026345 0.052986571077142504 0.06640577713460945 0.06538161366040342 0.07275934393904114 0.07962578784648774 0.0953872021007725
-0.004956581894399373 -0.011845677420676725 0.000628732968253703 -0.003744129201040983 -0.004747335542850461 0.01205299513578895 0.006242265795301577 0.007753855722526541
0.023958928657247462 0.01126080333893984 0.012428201847311205 0.006400151452319147 0.026310742715706374 0.0314897058453101 0.05791711389460721 0.055139063104529436

fc.bias f8 [4]
00000000: ee4f 2702 a596 b53f ece5 6413 d051 b43f
00000010: 9ce6 bb40 3490 b53f cb8f 322b 36f0 b63f
0.08432990362717849 0.07937336419572433 0.08423163013858431 0.08960283808352114
