dl_experiments/best_checkpoints/wiki_de_5min_GRU_cuda:0_checkpoint.pt (torch, 493374 bytes, 30 tensors)

gru.weight_ih_l0 f8 [48, 192]
0	0xbf8d5e6874348232	-0.014340225263880322
1	0x3f7437e970ee6aab	0.00493613422340881
2	0x3f85085508c24a72	0.010269798593332189
3	0x3f86bd59151f20e6	0.01110334010799403
4	0x3f91d95e0fe3d6ed	0.017430753440712477
5	0x3f67b2b192d2d677	0.002892824958133751
6	0xbf77d757e14747e6	-0.005820601731516084
7	0x3f89a840271dd349	0.012527943795910839
8	0x3f91db948ecece6a	0.017439194885538724
9	0x3f904a38a767aaba	0.015908131806933602
10	0xbf71d00e1b67346b	-0.004348807435644901
11	0x3f575bdc2f5ba107	0.0014257097477017881
12	0x3f8990511f9376b2	0.012482293869136771
13	0x3f94c2ceefa53b8f	0.020274384857937696
14	0xbf69f5d5b286fa5c	-0.0031689809586333117
15	0x3f6999631d4e8193	0.0031248985128089018
16	0x3f8e0d4860e67f85	0.014673772294201868
17	0x3f7f14d835f30b0c	0.0075882383090995036
18	0xbf3b9df24208312c	-0.000421401638988755
19	0xbf760acc8903734d	-0.005381392446193467
20	0x3f8a5e796e7d914c	0.012875508007433333
21	0x3f3cef1caa2b66e7	0.0004414982778776347
22	0x3f802d98a09dbc9a	0.007899467851272757
23	0x3f951a7a4ab3b468	0.020608816918798928
24	0x3f8ca4805d7a1076	0.013985636570630993
25	0x3f91092ad9df6bef	0.01663653330602338
26	0x3f932e67beed17e7	0.01873170950718608
27	0x3fa2fba5ff93d213	0.03707617516366581
28	0x3f9204ecab496924	0.017596910433305926
29	0x3f9dca202144d092	0.02909136012131392
30	0x3f8c40df032af12a	0.013795606884166551
31	0x3f9e575d944346b0	0.029630148100131037
32	0x3f8cc1800aa54bad	0.014040947270279458
33	0x3f88ed466d62bad1	0.01217131635016014
34	0x3f97a003c977b638	0.023071345492942735
35	0x3f9ad01b0f4c9951	0.02618448525313372
36	0x3f74db6067d6fe23	0.005092026314229811
37	0x3f9f8d63cc615455	0.03081279692590429
38	0x3f7869b4d6fd1e7b	0.005960184483974391
39	0x3fa0bfe038a94e4c	0.032713896671933
40	0x3f6000eabd4e2d2a	0.0019535622363428167
41	0x3f9a494d4731ee96	0.025670249433899693
42	0x3f99a28aada0bd5f	0.025034109923749322
43	0x3f991de646aca8e7	0.02452812010157226
44	0x3f9869a84ceefbb6	0.02384055108609192
45	0x3f948018de234563	0.02001990180798908
46	0x3f8c45a6d9d677e5	0.013804725191956588
47	0x3f9d1025370c8df9	0.028381902203490104
48	0x3fa4484f6c97c945	0.03961418343159776
49	0x3fa85856e7d8479c	0.047548976708767315
50	0x3fa2b163c8c93742	0.03650962663651437
51	0x3f9df583899aa787	0.029256873391808404
52	0x3fa2dbd7fb149885	0.03683352413126876
53	0x3fa5eebdc2d2aeeb	0.04283707621774887
54	0x3f920c913f9c3b61	0.017626065738166278
55	0x3f91277148781d1d	0.016752023742836564
56	0x3f98053435c6ce64	0.023457351476919533
57	0x3fa1168caee9792a	0.03337516436725914
58	0x3fa09139b9e02fd0	0.032357982578190225
59	0x3fa128b1515ffdf5	0.03351358526560581
60	0x3f9d67d8a9de5d80	0.02871645485683194
61	0x3fa1d9eed78c89ee	0.034865821659213356
62	0x3fa17c5b24ac73a5	0.034151886202585836
63	0x3f99a621eedb0a4f	0.025047807887640435
64	0x3f84cbf631568351	0.010154651051210857
65	0x3fa3c278d1b57c0f	0.03859307823108093
66	0x3f9517f5902aeed6	0.020599209713266863
67	0x3fa28f8499edd56d	0.03625120524422241
68	0x3f91fb18a2c585e3	0.017559418616093125
69	0x3f98492cf61f577f	0.023716642877694035
70	0x3fa0d8925f819130	0.03290231147619449
71	0x3f966f85030c335c	0.02190978842832024
72	0x3f9ade90e7daf37b	0.02623964705593405
73	0x3f9853c780bfad1c	0.02375709269828717
74	0x3f97693e009ac45a	0.022862404620074585
75	0x3f99f4759839fdc8	0.02534660092942234
76	0x3f99130c8c59a3f7	0.024486728731435616
77	0x3f904fc8b2e41617	0.015929351729047605
78	0x3f93fe730529f8a3	0.0195253345395875
79	0x3f8cc8703c7d861c	0.014054180952089594
80	0x3fa02184f2f285ae	0.03150573220888063
81	0x3f9703df71b6ae09	0.02247571116974537
82	0x3fa4cacd04cd77dd	0.04060974773049939
83	0x3f925c36e48d9464	0.01792989511468014
84	0x3f9955122d6768d5	0.024738582631336953
85	0x3fa9e0f1b39beaeb	0.05054431264394118
86	0x3fa297fe7ad879b8	0.03631587266521613
87	0x3fa1730db23ec0bf	0.0340809135517488
88	0x3f904f12e793b572	0.01592664278444062
89	0x3f9a785cae52f04c	0.0258497697256959
90	0x3f9c4235c7fa28f2	0.02759632142127883
91	0xbf7c66ea85cb931e	-0.006934085945179884
92	0x3fa1ab55ee67ccd7	0.034510312416296145
93	0x3f97421ebe30a6ed	0.022713165624884835
94	0x3f89a6eddf13334f	0.012525423402985373
95	0x3fa42ca11b7f6d1e	0.03940299473443985
96	0x3f9eca98979b2a2b	0.030069717648794885
97	0x3f8147ece61c3f09	0.008437968037042791
98	0x3f9e0fde90410b17	0.02935741191346172
99	0x3f7c50f783c211fd	0.0069131535093487325
100	0x3f7ebdad6d57221b	0.007505109262134125
101	0x3f9a30341e96ef7f	0.025574507109680674
102	0x3f7a55d51c8af87a	0.006429512469081295
103	0x3f9deaf7cdfda3bd	0.029216644237212586
104	0x3f9770ccecf39d5e	0.022891237223033094
105	0x3f98e3395ca2273a	0.024304291037459104
106	0x3fa218b1cda483da	0.03534465441976638
107	0x3f99223dd2506621	0.02454468341975347
108	0x3f90c72bf8ec2dd4	0.016384779994991508
109	0x3f94e5fd5f0bb148	0.020408591199996523
110	0x3fa045c51db9b7c8	0.03178230274066568
111	0x3fa2c6e5a75a3575	0.03667371433139525
112	0x3fa035ec150e3bde	0.03166139370943431
113	0x3fa026af4ec5f9b5	0.031545141569029246
114	0x3fa39813d127d284	0.038269633561786726
115	0x3fa8019bdd95e121	0.04688727455044473
116	0x3fa6737f038d2fcd	0.04384991567948724
117	0x3fa4daee6de06b0a	0.0407328137518644
118	0x3f95e2f066e5f19d	0.021373516350182354
119	0x3fa271c3243153eb	0.036024187248280125
120	0x3fa52c52214cc009	0.04135376602641833
121	0x3f9a645dd456057a	0.025773492894136642
122	0x3f9bb9f93fd47275	0.027076620598665408
123	0x3f8b3c97dd9e7fe9	0.01329916615560474
124	0x3f9d27a4a527df00	0.028471539097124854
125	0x3f9bd2904ff889f6	0.02717042434790958
126	0x3fa42f47cec47411	0.03942322157875123
127	0x3fa19cd869398f88	0.034399760098295096
128	0x3f93efca379eb66c	0.019469413418553946
129	0x3fa25e35e3622c18	0.03587501907994567
130	0x3f95d555201b5325	0.021321611485137688
131	0x3fa5aca3255a72d5	0.042332742986422346
132	0x3fa00834344e9ffe	0.03131259096636539
133	0x3f912760154df1d6	0.01675176744491743
134	0x3f9878a08597da46	0.023897655633812208
135	0x3fa1f69d325a97e3	0.035084640881265526
136	0x3f9a420bc636597e	0.025642570469778907
137	0x3f9c9ebc2912b79f	0.027949275977043105
138	0x3fa3c106676787a6	0.03858203899632366
139	0x3f9d1165eb9eb9eb	0.028386681085686687
140	0x3fa2a9ebdddb20de	0.036452647048976536
141	0x3f9b1831d175fb77	0.026459482583500695
142	0x3f9f2efa559de62f	0.0304526438480705
143	0x3f9aa891251ee8c3	0.026033656969709506
144	0x3f91963828a56f20	0.017174603920792397
145	0x3fa2466e4b493ce1	0.03569359463710398
146	0x3f9d97cfbb444231	0.028899427227829292
147	0x3f9eb6dfd2f5e35f	0.029994485140807266
148	0x3fa2744d18db83c9	0.036043557438240344
149	0x3f99511326bd63cc	0.024723338355531685
150	0x3fa249b9b433f2b4	0.035718730208804145
151	0x3fa519c21c17b8e9	0.04121214478424113
152	0x3f9343c59ad73693	0.018813216758465656
153	0x3f9ee4b974f4bbf1	0.03016938949911813
154	0x3f9bd55794b9d364	0.027181023075587687
155	0x3f9ff4cffa3666fd	0.031207322737464505
156	0x3f9bf8dd706b9dae	0.027316532122225894
157	0x3f9e53a2105dedb1	0.029615909813839717
158	0x3f9b8349a0fc4c3a	0.02686800999715564
159	0x3fa00bcff160e90c	0.03134012052074028
160	0x3f9bb65dcb16371b	0.027062860031541108
161	0x3fa028b79c2ff098	0.03156064778883766
162	0x3fa14e871752eb7a	0.033802243802219814
163	0x3f99a822a11ea7e3	0.02505544765850932
164	0x3f9805f2818eea78	0.023460187108620606
165	0x3f9a8650115d5bbf	0.025902987537246732
166	0x3f9e56a7f567f6db	0.029627441743278787
167	0x3fa18657d38c5d86	0.034228081296698895
168	0x3f9759856cbda0e2	0.022802433740623303
169	0x3f9f358d04845b31	0.03047771778173142
170	0x3f99446fa7c36b17	0.02467512570806737
171	0x3f993df9f64db09c	0.02465048375908961
172	0x3f95b60814296d95	0.021202207785206168
173	0x3fa1bc04b6e0bfc5	0.03463759167095718
174	0x3f9c60eeb45e9473	0.027713517912748075
175	0x3f99097a40bc1911	0.024450216485115087
176	0x3f994f2c3bb3122a	0.02471608271004492
177	0x3f94e75114036c21	0.020413653227347454
178	0x3f9a5d8963010901	0.025747439067580483
179	0x3f96c7553fc005a8	0.02224477006530426
180	0x3f992491133a4215	0.02455355338912753
181	0x3f96dc905ec570b5	0.022325759682062258
182	0x3f8fec2b90a2aaef	0.015587177611754181
183	0x3f97132ea0c60000	0.022534111559707526
184	0x3f973c7adb2dcff3	0.0226916500354974
185	0x3f901f777533937a	0.015745035675439813
186	0x3f9b209e303e1060	0.026491615004048064
187	0x3f9932d999c061e1	0.024608039864775114
188	0x3f984798c847c113	0.023710620140208038
189	0x3f956cc4d53d89b2	0.02092273284450536
190	0x3f9434d8352bc980	0.019732836003592436
191	0x3f975680202e7f0c	0.02279091068669374
192	0xbfb9adf2466fb05f	-0.10031046123157371
193	0xbf62658b010473c7	-0.002245685093056757
194	0xbf75d0490f3466df	-0.005325589550261716
195	0xbf9243db6c5c65b5	-0.01783697937853442
196	0xbf6c95c92c10c02d	-0.0034893921988654792
197	0x3f7fe4d8557df3c3	0.0077866030259174405
198	0xbf86faeb87a8dfbd	-0.011220779492859262
199	0xbf94cc6fa5e41afe	-0.02031111192720924
200	0xbfa0982ee2dad1f1	-0.03241106528495042
201	0x3f82756f779acb51	0.009013052785439209
202	0xbfa33aa3f44ce26a	-0.03755676610166321
203	0xbfaa7127b114ec2d	-0.05164455448763081
204	0xbf85ddbef2360212	-0.010676852957431957
205	0x3f7a8b4ea1c5b424	0.006480509906720253
206	0xbfa16ee057ce3805	-0.03404904434056281
207	0x3f70785672e16089	0.004021012964663958
208	0x3f9b4a3e694553c6	0.026650405097217854
209	0xbfa02a5776135644	-0.03157304111816164
210	0x3f8a9173f34887b5	0.012972741949002978
211	0x3f907c47dc6c34b9	0.016099093273670848
212	0x3f97eb748ea2d023	0.02335912819462761
213	0xbf739189bcb87edb	-0.004777467761897215
214	0xbf9b860bfcce9ea5	-0.026878535561677314
215	0xbfa0f78a90addc3d	-0.03313859001257711
216	0xbf970d320f4ef1d3	-0.02251127451357766
217	0xbf9fea1920e531b8	-0.031166451103943976
218	0xbf85dc6779d17ca2	-0.010674293904399616
219	0x3f7747bdf708f097	0.0056836529261624835
220	0x3f68abe65d8d9d2c	0.0030116557431260262
221	0x3f7688be0b0cd33f	0.005501501422988052
222	0xbf87bbc041265772	-0.01158857535191846
223	0x3f8a5f73193f6312	0.012877368171687862
224	0x3f8ae244a873df5d	0.013126884833112912
225	0x3f9233bda20588b7	0.017775500310911876
226	0x3f86d1de653df6bb	0.011142480339681673
227	0x3f933ac5a8bb94d7	0.018778885291699545
228	0xbf9137094f3744a5	-0.016811509571031853
229	0x3f87599b1477092c	0.011401378213922252
230	0xbf8b08502c573245	-0.013199449875991873
231	0x3f7b0cdd306e7a9e	0.006604064960724769
232	0x3f57079d560851bb	0.0014056240544323268
233	0xbf9bc53fbf6da02d	-0.027119632777072567
234	0xbf8301f165e1bfdc	-0.009281049653708288
235	0x3f80dad5198739c2	0.008229889718589404
236	0xbf8944116085e04e	-0.012336860426089082
237	0xbfa17837cc569797	-0.034120315259584526
238	0xbf933cd6db074771	-0.018786770933565792
239	0x3f8fdd5ee9e1717c	0.015558949959250105
240	0xbf7f3e37699c56db	-0.007627693610421561
241	0xbf93d215281d50ba	-0.019356089185138294
242	0xbf3802ca7438b5c8	-0.00036637728428242896
243	0x3f68824e63290fff	0.002991822338374916
244	0xbfa2bc5a721d0b3d	-0.03659327166544422
245	0xbf96a81570e295aa	-0.022125563635787472
246	0xbfa7fc919a2b6489	-0.0468488217063135
247	0xbfa2193d81dedc49	-0.03534881792386863
248	0xbf8c95460464151f	-0.013956591614724232
249	0xbf9d16a2ad65017b	-0.028406659920848547
250	0xbfa41b175585ddd3	-0.03926918906193646
251	0xbfaa2638a83fbc23	-0.05107285550899856
252	0xbfa05f1ebf1cd532	-0.03197570879857849
253	0xbf8d469f15e090cf	-0.014294855933322385
254	0xbf852a5227e6540f	-0.010334627001421763
255	0xbfa9ac7a028b031b	-0.05014401703875234

gru.weight_hh_l0 f8 [48, 16]
0	0xbfa0d1c242453380	-0.03285033282245475
1	0x3fadd892ebe68a27	0.05829295282025653
2	0x3f804f063b6a5fe6	0.007963226974695158
3	0x3fb8685ddfe4812a	0.09534250942352132
4	0xbf937e6cb5cd877e	-0.019036959263196256
5	0x3f6073dfd51cfd8d	0.0020083781936645674
6	0xbfa8fd4acd3e8117	-0.04880746608182756
7	0x3fb0db1b49a3822e	0.06584330127544355
8	0xbfb19146ac866ecb	-0.06862298690833339
9	0xbf90c4f7a5bbb1d8	-0.016376370897818265
10	0x3fb442c24370905d	0.07914365908124084
11	0xbfb3a830ceb8baba	-0.07678513571657222
12	0xbfb8133c28a7b222	-0.09404350273661824
13	0xbf9c711f6cf65e3d	-0.027775279069457637
14	0xbf812f60a16f0168	-0.00839114658981606
15	0xbf5e1709419bea5d	-0.0018365469354068222
16	0xbfad064daf9b341d	-0.05668871658927108
17	0x3fa61d414384f89d	0.04319194745265629
18	0xbfa2a647b18fef1c	-0.036424866128042604
19	0x3faee439272bef0a	0.060334955245677405
20	0xbf870fbe0af79828	-0.011260494908992127
21	0x3f8447cc5271488e	0.00990256907076439
22	0x3fb0c3ea75b580fa	0.065489438760327
23	0x3f9f6b792550315f	0.03068341531984353
24	0xbfb66d9171961551	-0.0876093771276676
25	0x3fb8ea40c07b6afe	0.09732441615362217
26	0xbfba80f53cfedc09	-0.10353024233960197
27	0x3fa5e8d767aa258f	0.04279206409871527
28	0xbf6097a7b6230632	-0.002025439797848327
29	0x3f8116a1e89f123b	0.008343949233570949
30	0x3fab33d8d97d6a0a	0.05312993674188611
31	0x3fa6034ff4953622	0.04299402104025442
32	0xbf67c148e7366133	-0.0028997825517757202
33	0x3f750cb69a41fd0e	0.005139077464377152
34	0xbf75415db2f6f71c	-0.005189291011843424
35	0x3f759c7d191e4acb	0.005276192345166473
36	0xbf759cb0359f6fc1	-0.005276382749766329
37	0x3f35d985d289ac58	0.0003333999361873666
38	0xbf750bcdb5330ed5	-0.0051382098637906175
39	0x3f759ddb2cb5e0b7	0.00527749648187397
40	0xbf75a25e44a8d65c	-0.005281799540673395
41	0xbf75bbb6798f7ceb	-0.005305969993940378
42	0x3f74e7c41c23d0b6	0.0051038418334778315
43	0xbf7739e4ac748a1a	-0.005670445686777126
44	0xbf7417e7b61d8e37	-0.004905610201464897
45	0xbf733f3f4cbb51c8	-0.004698989166815833
46	0x3f51c8f98edb2ec2	0.0010855137910991551
47	0xbf759fdc099c32f4	-0.00527940704502038
48	0xbf73d9b95cae8bc1	-0.004846309729063359
49	0x3f864de059602ce1	0.01089072487595505
50	0xbf86ce995fc2c81a	-0.011136244044198707
51	0x3f86f632dbc9a051	0.01121177418936284
52	0xbf86f6a60924b25b	-0.01121263232615737
53	0x3f1feca9a1774d3b	0.00012178216308394035
54	0xbf865f37e9f1d2b7	-0.010923802210734619
55	0x3f86f65b422eb9ea	0.011212075192671162
56	0xbf86f9ee4691fad5	-0.011218892601616496
57	0xbf871f5c4e61e402	-0.01129028429225976
58	0x3f86339dc06f037e	0.010840637621983392
59	0xbf8859841d459f0b	-0.01188948835688521
60	0xbf852eed95bbf849	-0.010343414432551283
61	0xbf84b9619d569844	-0.010119211782534283
62	0x3f61a01ed37392a2	0.0021515466756788096
63	0xbf86f9cb1ec8fe64	-0.011218630673396741
64	0xbf735057b354327d	-0.00471529253014735
65	0x3f8581efaf3686f4	0.010501740011764828
66	0xbf85fdfef29f94d9	-0.01073836496284246
67	0x3f8622a4f86979a4	0.010808266478474611
68	0xbf8623199131ee52	-0.010809135192395267
69	0x3f198598a14fa71d	9.735817032177322e-05
70	0xbf859277aaa68b1b	-0.010533270736066627
71	0x3f8622bdcc3ceec7	0.010808451457357105
72	0xbf862640640fe932	-0.010815146497396986
73	0xbf864c357a195750	-0.010887544430413648
74	0x3f8568d34b23aebd	0.010453844767162374
75	0xbf8791f95a83b3f0	-0.011508892130644072
76	0xbf8467532ad30144	-0.009962701553718596
77	0xbf83ee121d1c71af	-0.00973142768230492
78	0x3f62c0506f3cdf7f	0.0022889681803483493
79	0xbf86264715c1024c	-0.010815196372392276
80	0xbf3c86938ba9f070	-0.00043526746927802836
81	0xbf42a035a63cb660	-0.0005684148750099809
82	0x3f4275aad3c53234	0.0005633434407542105
83	0xbf42ac4afe4c6ec6	-0.0005698553255543907
84	0x3f42bd4d3183bf38	0.0005718829079608195
85	0xbeeaa0205554d50b	-1.2696024593065425e-05
86	0x3f426c9da2efaf06	0.0005622644147229301
87	0xbf42c8b3997e4811	-0.0005732418967332472
88	0x3f42be6901d3acfe	0.0005720150690228518
89	0x3f4282fe129f0703	0.0005649319257303446
90	0xbf426843b49a83c8	-0.000561745700185517
91	0x3f41a0db1a3f5bdd	0.0005379743420189615
92	0x3f41df9092d9e0e6	0.0005454498220407694
93	0x3f4348ca6c3dfe9c	0.0005885113136940459
94	0x3f5153d2b07f8be8	0.001057582618152914
95	0x3f42b7e73ef4a630	0.000571239388510841
96	0x3f7ec8bf5616b7a4	0.0075156663964842975
97	0xbf95da84554ea2db	-0.021341388422714807
98	0x3f96c90243572b9c	0.022251162872446537
99	0xbf97485583e82008	-0.0227368699798092
100	0x3f9747b1d22f342d	0.022734430745732382
101	0x3f42c5977ecc27ef	0.0005728711817891678
102	0x3f96309d8edb1928	0.021669828266362462
103	0xbf974a2a23023281	-0.022743852984194127
104	0x3f974bdcb8c34b65	0.02275032880499896
105	0x3f96fef5b8765854	0.022456969627079396
106	0xbf96079dbc13a226	-0.021513428310671177
107	0x3f9752e315c84140	0.02277712650726582
108	0x3f94c7f1f71f9d03	0.020293980320187376
109	0x3f968ecdfe5740c0	0.02202913155434838
110	0x3f81adc8502b544a	0.00863224501282835
111	0x3f974461f868d848	0.02272179678603717
112	0xbf75bf26dea966e2	-0.005309249720619498
113	0x3f8687a2d455eb38	0.011000892739266285
114	0xbf86ecb8a7712a8c	-0.011193697557378778
115	0x3f8711ed1a3de401	0.011264660228095026
116	0xbf8712b1147c3f5d	-0.011266120374358196
117	0xbf32bb1805c4c988	-0.00028580986488004794
118	0xbf868e90c6fc9735	-0.011014109680739995
119	0x3f8711e506c63f07	0.011264600056875474
120	0xbf87162b96af6de3	-0.011272755180406107
121	0xbf8746680507888f	-0.01136475816105456
122	0x3f866bde93f0ef9f	0.010947932138257786
123	0xbf88fe574f5a01de	-0.012203867062681558
124	0xbf855d6e301606ab	-0.010432110636205158
125	0xbf8484834667944e	-0.010018373094633184
126	0x3f68d22a91269385	0.003029902590429181
127	0xbf87163110414105	-0.01127279597145093
128	0xbf792ccb7722abc6	-0.0061462352625011926
129	0x3f8b3896ce3a3e76	0.013291528862537687
130	0xbf8bd88b54bd1087	-0.013596619151606383
131	0x3f8c0808bf847e42	0.013687198967601625
132	0xbf8c0deb86a50f5b	-0.013698425337345268
133	0xbf446d37819dab4a	-0.0006233712222017765
134	0xbf8b7060f848f832	-0.013397939278657931
135	0x3f8c0a50ecfdae1e	0.01369155143011996
136	0xbf8c0e6a11d71a46	-0.013699368161622105
137	0xbf8c3c374cbc7616	-0.013786727933218262
138	0x3f8b44ae1b561d82	0.01331459065364871
139	0xbf8d9984e1bd0cd9	-0.014452970637313477
140	0xbf8a557df39b113b	-0.01285837554622359
141	0xbf893b3d600dbd04	-0.012320022100281942
142	0x3f5cb424d62c3b9e	0.0017519340260070192
143	0xbf8c14404696f77f	-0.013710500864245521
144	0xbf62861b090babb1	-0.002261212161433567
145	0x3f7d75432f2db34e	0.007191908301007311
146	0xbf818503a2168266	-0.008554485687285406
147	0x3f824c87d045ae2e	0.008935032885992813
148	0xbf822fcd96b160df	-0.008880239640504715
149	0x3f66aec4d581cd4b	0.0027688831724447575
150	0xbf8092ee2a9f3dae	-0.00809274737903717
151	0x3f8225867eb4553b	0.008860636464798169
152	0xbf822926b7be3bac	-0.008867552263635968
153	0xbf81128bbf032c61	-0.008336154715285983
154	0x3f80004fe52a3d84	0.007813095265446497
155	0xbf74a2910aef50a4	-0.005037848065473725
156	0xbf801c5f7ed7288c	-0.007866617258418772
157	0xbf84707b1c4b6ed8	-0.009980165291771412
158	0xbf8810e72761d46f	-0.01175098980841424
159	0xbf824e0a40c54c56	-0.0089379120842407
160	0x3f8a3691b2f56298	0.01279939486873731
161	0xbf81145746ec80ef	-0.008339578487323666
162	0x3f6a387b3df935a0	0.003200760562129104
163	0xbf803d0405bb97d1	-0.007928878235769961
164	0x3f83688d29fffa6e	0.009476759762035072
165	0x3f4b51f2f6d8508d	0.0008337437008685431
166	0x3f7a93dc7f543ced	0.00648866779125899
167	0xbf74c1133a37e1f7	-0.005066943270769723
168	0x3f82f27c51b4a113	0.009251567119080073
169	0x3f7a598f4643f314	0.0064330670031693855
170	0xbf793d6c97c914b6	-0.0061620942984223406
171	0x3f8a23d87ce05d2a	0.012763682661939574
172	0x3f89830712aa4a27	0.012456946618191257
173	0x3f81e42093132ee2	0.008735899437304299
174	0x3ef4e4d2a5a2eef9	1.9925917833714887e-05
175	0x3f82d4afe9e4bd63	0.009194731068957912
176	0x3fada223d5a5d851	0.057877654867227186
177	0xbf9302c373e1dcbe	-0.01856522936620019
178	0xbf6d004d187e99f3	-0.0035401826643977007
179	0xbfa513becbb52616	-0.04116626965203467
180	0xbfb429a890e1a372	-0.07876065766471443
181	0xbf7a5fe29417b4a2	-0.006439099380697007
182	0x3fc22c60caa1e0c8	0.14197931188733137
183	0x3fae029eaa65e579	0.058613737392941574
184	0xbfbebef2efe6825c	-0.12010115010208139
185	0xbfa478a85addcd4e	-0.039983044712153956
186	0x3fbc7fb7be65dd51	0.11132381819139893
187	0x3fb092ae443e0f7d	0.06473817030024338
188	0x3f9329c43dd1e5de	0.018714014313877196
189	0xbf97a1ca9002e23e	-0.023078122176885645
190	0xbfae1c08c1970c07	-0.05880763400229943
191	0xbfb56dac2d2c2120	-0.08370472052422828
192	0x3f810ec6861ab026	0.00832896324876493
193	0xbf9fe627f6597812	-0.031151413355807796
194	0x3fa114c3387496a8	0.033361530915766935
195	0xbfa183b23105a84e	-0.034207886203902235
196	0x3fa17cf2794d9ae8	0.03415639620543748
197	0x3f6027a1b7dedfe1	0.0019720228728736665
198	0x3fa0bf230f86bfcc	0.03270825924425899
199	0xbfa183bd634027a1	-0.03420821987681611
200	0x3fa17fd65a3e8abc	0.03417844630827946
201	0x3fa10bd01294a1d6	0.03329324938596627
202	0xbfa0885e3b559844	-0.032290405981982434
203	0x3fa0b1676ad1fd90	0.03260348490675391
204	0x3fa028e7e3180d1f	0.031562086554936856
205	0x3f9fec2f710406a9	0.031174412987644704
206	0x3f960930e70b6878	0.021519435979691498
207	0x3fa0ecdb9c5a8b00	0.033057082019942285
208	0xbf87987d1d23760c	-0.011521317912804661
209	0xbfa6b6a71fd515cd	-0.04436228049830113
210	0xbfd36e2e477611fb	-0.3035999009955785
211	0x3fbc23ebf37d8c53	0.1099231214007415
212	0xbfd2af5b32ad8ded	-0.2919528956319642
213	0x3fa0153af5b2dcf8	0.03141197442294613
214	0xbfd386fa0162c5cc	-0.30511331687293075
215	0xbfa115ae73b8334a	-0.03336854136077834
216	0xbf7a424897be7cd1	-0.006410869183951466
217	0x3fb11d2528a65b28	0.06685096971919491
218	0x3fd3f6ea9cf2103a	0.31194558455195287
219	0xbfd1ed752abfdab2	-0.2801182668185148
220	0xbfb559d36cb0862f	-0.0834018841128674
221	0x3fb04953f95fc7be	0.06361889684902075
222	0x3fa4c17e26e83fd7	0.04053873276654912
223	0xbfca9274f9d43a59	-0.20759451101953877
224	0xbfb7fbee0748557c	-0.09368789365574587
225	0xbfada3bb872f1cfb	-0.0578898050803733
226	0x3fbc5ecc8de7bb74	0.11082151855928918
227	0xbfb43540453f437c	-0.07893754664043046
228	0xbf8b1c19c65c7cbc	-0.013237191549306686
229	0x3fa42b80afefbc5f	0.039394399143809926
230	0xbfc82d0c49f9bbba	-0.18887475597463582
231	0x3f1023dbad712454	6.156948380566077e-05
232	0xbf9f863a97e01216	-0.030785480041247558
233	0x3fb4532a08d40052	0.07939398494272723
234	0x3fc746094e942742	0.18182483994342574
235	0xbfc3bec88715598d	-0.15425974460476902
236	0xbfd0dc6d1c85abf7	-0.2634537485634491
237	0x3f8a08c3e125670e	0.012712030704892931
238	0x3fc3aa8a8122836c	0.15364199929629352
239	0xbf8b28d7dfd38d83	-0.013261496084345797
240	0xbf7569b99d189c34	-0.005227780392977489
241	0x3f886e83572a41af	0.011929536912504838
242	0xbf8916ae4ea193a5	-0.012250291609413664
243	0x3f89480c814bfa5b	0.012344453521561485
244	0xbf894855932b9580	-0.012344997934131241
245	0xbf206ce687956a46	-0.00012531580049819825
246	0xbf88b4f4e9d8676a	-0.012063897501366678
247	0x3f8947dc456c1447	0.012344094151112496
248	0xbf894c045d0e1c71	-0.012352022256676616
249	0xbf8971916273c19a	-0.012423644845029714
250	0x3f8888c9c23c7135	0.011979652633777075
251	0xbf8a6c77656a334c	-0.012902195722995245
252	0xbf87b06e19d8f5cf	-0.011566982425501941
253	0xbf86e4bb0be24bc1	-0.011178456592721877
254	0x3f556b21c2b13569	0.0013072805111450042
255	0xbf894b8745fd5c50	-0.012351090262809589

gru.bias_ih_l0 f8 [48]
0	0x3faf7fcc7b4f80de	0.06152190213447438
1	0xbf43b63b4776a42c	-0.0006015576790804381
2	0x3f75e26080823af0	0.005342843018424345
3	0x3f87321e248337d1	0.011326060761714192
4	0x3f86507c187ffa7f	0.01089569997566042
5	0xbf4283ca283808a6	-0.0005650269599189086
6	0xbf9955b6da48c7dd	-0.024741036484733903
7	0x3f8764078ae5ef8a	0.011421259809814694
8	0x3f8c5a5d2e620b19	0.013844230630871078
9	0x3f82e0aabe68679c	0.009217580734048707
10	0xbf75b84f189ff9c9	-0.005302723855491861
11	0xbfb2bff4b37af29d	-0.0732415140327682
12	0xbf9f9d673155eaf0	-0.030873882662016905
13	0x3fa1a40679f0900a	0.034454538712708496
14	0x3fc1e2e9607d396d	0.13973729335198062
15	0x3f897ce535c6baae	0.012445250228521356
16	0x3f9f167f08396ffb	0.030359253766036414
17	0xbfad82a7c2662d0d	-0.057637445907937936
18	0xbfa131baa3158837	-0.03358252754948448
19	0xbfb59d0a3bdc3ed1	-0.08442748986658023
20	0xbfb58c629c659b10	-0.08417335813792826
21	0x3fa75fd7b692cf6f	0.045653096234132266
22	0xbfaf55d9805f3858	-0.06120185558357666
23	0xbfb5dc1a993a9895	-0.08538976899089541
24	0xbfb28af2cdf7d7bf	-0.07243268517035427
25	0xbfa2f12fdcdeff5c	-0.036996360503961795
26	0xbfa00052f9a9f372	-0.031252472855135674
27	0x3fa0420986278ecb	0.03175382387760591
28	0xbf96d8c54ddf83d3	-0.02231128967094149
29	0xbfb2e573052a1c97	-0.07381361843191524
30	0xbfb7c1a5d3182a02	-0.09279858020469336
31	0xbfb49de2b155f06d	-0.08053414182171688
32	0x3fc4822bbd9ed5aa	0.16022249945460248
33	0xbfa9177f9138c20d	-0.04900740287519421
34	0xbfb140f85419b824	-0.06739761403306993
35	0x3fb1abcef3175251	0.06902783808556846
36	0xbfbd3c93503dc04d	-0.11420555790914584
37	0xbf700a26bf39f4df	-0.00391593108690566
38	0xbfcac3b47be69378	-0.20909744310224787
39	0x3fc588c3db9d1a52	0.16823623870205268
40	0xbfb8687de132f31a	-0.09534441707633015
41	0x3fab880bedfadde8	0.05377232818630856
42	0x3fc1b13c83b0cd8b	0.1382213252087293
43	0xbfc2c3eb82fc8239	-0.1466040029126974
44	0xbfce23ab7da902b3	-0.23546355853797749
45	0xbfc3ab491746bb3d	-0.15366471897638148
46	0xbfd2b6280db52173	-0.29236794794680704
47	0xbfb2ff5c6d7a56c2	-0.07420900032806357

gru.bias_hh_l0 f8 [48]
0	0x3fb420faf67e3804	0.07862823980232753
1	0x3f41ee61180fe4ca	0.0005472158519516321
2	0x3f75e260810d769d	0.005342843026338831
3	0x3f87321e9e2caaf1	0.011326064302541879
4	0x3f86507c34477732	0.010895700784142901
5	0xbf4283768fc58252	-0.0005649880327319257
6	0xbf9955b6884d6ec2	-0.024741031712763435
7	0x3f8763f5de5ff785	0.011421128128855216
8	0x3f8c5f88dea7daf3	0.013854092879211665
9	0x3f82b44d855a5dbc	0.009132962829695106
10	0xbf768d25d887a8c4	-0.005505702815279349
11	0xbfb7c612f5c1c291	-0.09286612033771237
12	0xbf9fafca17de9cfc	-0.03094402094543812
13	0x3fcf7ad60a6e4d97	0.24593616017646688
14	0xbfb38ea24fab99c4	-0.07639517254901934
15	0x3f897ce02b48b9df	0.012445212670255166
16	0x3f99db3b591b9470	0.02525036555643506
17	0xbfad40b1667e303c	-0.057134193192809296
18	0xbfa136cb2147a058	-0.03362116605040971
19	0xbfb61a927610af49	-0.08634295828295281
20	0xbfb457bf96fd8a9b	-0.07946393429078073
21	0x3fa75fd85f095374	0.045653115845801034
22	0xbfa85c2cc052b8cc	-0.0475782379884194
23	0xbfb7b9f6e8f2cb61	-0.09268134295670684
24	0xbfb5a91771bf1be5	-0.08461138274206766
25	0xbfa7dd256575c620	-0.04660908568883948
26	0xbfa1501ba651c478	-0.033814300587331425
27	0x3f84c688f2b3e6ce	0.010144300371837469
28	0xbfb21c8da534ea4f	-0.07074818881384569
29	0xbfb3720847f5633a	-0.07595874554443763
30	0xbfa883891be20f70	-0.04787853684777488
31	0xbfb4a79253be40ab	-0.08068193954955187
32	0x3fb2f99b6cb896a8	0.07412120251009446
33	0x3fb26db1d159836d	0.07198630677295421
34	0xbf9f192a53d1fe95	-0.030369435659393835
35	0x3fa8e24834fc99ab	0.04860139509974045
36	0xbfa3ac2aa4e393ba	-0.03842290175251813
37	0x3f7a4807a9f09aac	0.006416349350763777
38	0xbfb5ecacd5367ca9	-0.08564262586013406
39	0x3fad0caa58503d24	0.056737254410217625
40	0xbfa75da05681216a	-0.04563618713342772
41	0x3f9a19c7c577dd26	0.025488969256881287
42	0x3fa52401e485ba8d	0.04129033960895354
43	0xbfb20a8f766ca3db	-0.07047363892765139
44	0xbfb4daf4291a8230	-0.08146596911911597
45	0xbfd186502965bbb1	-0.2738228229781568
46	0xbfc7a39c65adb25e	-0.18468050923128748
47	0xbfa4c7169ccc6539	-0.04058142341654975

gru.weight_ih_l0_reverse f8 [48, 192]
0	0xbfa1f94f5e35ace9	-0.03510520958919889
1	0xbf99212b9924a817	-0.024540597173803826
2	0xbf9d9935f3493c2b	-0.02890476510429722
3	0xbf9f7d521054681a	-0.030751497503935445
4	0xbf9eb3c9cced173d	-0.029982712872217866
5	0xbf9f74661e84043f	-0.030717464077501196
6	0xbfa02553c7e55bfc	-0.03153478446136401
7	0xbf9e34677d8e6eb5	-0.02949678138575847
8	0xbf9ffdaaa48a11e3	-0.031241098683055923
9	0xbf9d1be9b34d4e2a	-0.02842679173347854
10	0xbf9ed92138663f80	-0.030125159327837547
11	0xbfa288187e54ad35	-0.03619457761882431
12	0xbf9cf4cfd0e01056	-0.02827763283131931
13	0xbf9b53d69dec3ee1	-0.026687005413861157
14	0xbf9f3f8c52c6a54d	-0.030515854408496513
15	0xbfa2348667a8014a	-0.035556984094002944
16	0xbf9ccf9081ab308f	-0.028135545648908574
17	0xbf9c7778343817bd	-0.027799490153505014
18	0xbfa055029af8ba47	-0.031898576180868825
19	0xbfa1688db2c27b17	-0.03400080496907359
20	0xbf9b94ab4a86c075	-0.026934315131882564
21	0xbfa15422be28aac9	-0.0338450295569906
22	0xbf9d8bdbea172af5	-0.02885383240008373
23	0xbf9d0b2bbf229bf4	-0.028362926045385664
24	0xbfa136d16833efaa	-0.03362135312087784
25	0xbfa088df4d68bbff	-0.03229425258574991
26	0xbf9c4832807e3b2d	-0.02761916074046693
27	0xbf9ed5e491fca81e	-0.03011281147988864
28	0xbfa1449166a8610f	-0.03372625711580401
29	0xbf9f7a601251cafe	-0.030740262144216317
30	0xbfa2b24d6d19796f	-0.036516589706240825
31	0xbfa1cfda53c94687	-0.03478891632825048
32	0xbfa0b06284d9efd0	-0.03259570953102264
33	0xbf9f865740a73f4d	-0.03078590709793554
34	0xbf9d0e451bebf2b6	-0.028374748067096354
35	0xbfa0cccb94578cc1	-0.03281246362510038
36	0xbfa2679014f07361	-0.03594637160879333
37	0xbf9be3303e597a1d	-0.027233842664253872
38	0xbfa19a94051930f0	-0.0343824630950581
39	0xbf9dd5e6aec0a175	-0.029136280456584857
40	0xbfa179a6d051b7ec	-0.034131253175345794
41	0xbf9f144b28a1300e	-0.030350851397358318
42	0xbf9f853ac5e9d19b	-0.0307816680237508
43	0xbf9f92f423c5ce70	-0.030834021266356648
44	0xbfa2ee8f4c087b71	-0.036976316481960654
45	0xbfa2d7d258e1e069	-0.03680283865918527
46	0xbfa1b02dd66f55f4	-0.03454726450551596
47	0xbf9db4191d6b3330	-0.02900733224923896
48	0xbf9d3e47499a624d	-0.028557885997175615
49	0xbf9bfa64b62a839a	-0.0273223625359865
50	0xbf9e5d02ca2fc69c	-0.02965168341683598
51	0xbf9f290b2ebd54e6	-0.03043000672126519
52	0xbfa0ba6b9645681d	-0.03267227372516877
53	0xbf9e81b2a97deb4e	-0.029791633219683526
54	0xbfa1c2b156a146d3	-0.03468851263518293
55	0xbfa2c6ad43781115	-0.03667203377338716
56	0xbfa354c0ff7f057a	-0.037755995930193145
57	0xbfa20d87da71b95d	-0.03525948087268447
58	0xbfa1d0ae11094e22	-0.03479522664988745
59	0xbfa3f50b3fb95e85	-0.03897891190416395
60	0xbfa0be5525742a16	-0.032702122518532814
61	0xbfa1361ad6241b3c	-0.033615912094367734
62	0xbf99dff471514b4a	-0.025268382469515495
63	0xbf9f2663656c35e3	-0.03041987711462991
64	0xbfa48309c66f6f7f	-0.040062242005403974
65	0xbfa0f4c61fba9257	-0.0331174768191757
66	0xbfa4aaf9e6cbffd5	-0.04036694471687922
67	0xbfa212ec27c4f8b0	-0.035300617079415786
68	0xbfa39412f0dfb944	-0.038239089873842974
69	0xbfa35a079ab86346	-0.03779624713587863
70	0xbfa077097ccb9724	-0.03215818069820234
71	0xbfa3461e9505f7a5	-0.037644344035455725
72	0xbfa1a807c512fece	-0.03448509483996319
73	0xbfa1726db1212aec	-0.03407614505029763
74	0xbf9ec7b86d8584a4	-0.03005874794451259
75	0xbfa2b43e1b0cf452	-0.036531391908717695
76	0xbfa16b4bf42d18db	-0.034021733814869136
77	0xbfa3e0713a865ca4	-0.03882173385061918
78	0xbfa37e2f5ba6ed52	-0.038072090089793634
79	0xbfa5581fd5352541	-0.041687960411375354
80	0xbfa2bce1a6471a3d	-0.036597301051689325
81	0xbfa2195b0138c763	-0.035349697016853886
82	0xbfa0047c4c8084dc	-0.0312842219721092
83	0xbfa3503b60dc6784	-0.03772149617562007
84	0xbfa2b057656b6e18	-0.036501628046348766
85	0xbfa0e3e11afac38a	-0.032988581221963534
86	0xbfa25a7efe6434a0	-0.03584668021549331
87	0xbf9feafa4aa8a3cc	-0.031169806296165878
88	0xbfa3f807fd90df12	-0.03900170297896301
89	0xbfa22a30e14989d2	-0.035478141308675895
90	0xbfa22d176777f64a	-0.03550027025265175
91	0xbfa5ab4045e17c8a	-0.04232216694867315
92	0xbfa38573693786da	-0.038127523988590276
93	0xbfa1eaa96d26a0fa	-0.03499345261963245
94	0xbfa196160ed56f66	-0.034348191557653604
95	0xbfa226a46cd02040	-0.035451067240558576
96	0xbfa4da59ff3453ac	-0.040728390124207564
97	0xbfa41fd0bed8e7e4	-0.039305232331073886
98	0xbfa191ca9c7025c9	-0.03431542548794259
99	0xbfa20ec88236d544	-0.03526903714684207
100	0xbfa0746b407c6093	-0.0321382061212613
101	0xbfa2dc7b8d3cd9e8	-0.036838398924760984
102	0xbfa13c1d9e377a95	-0.033661771358073946
103	0xbfa1bb68f6835236	-0.03463294991675918
104	0xbfa22bea10bc2b68	-0.03549128965649723
105	0xbf9faf695f1b6ffd	-0.03094257967937607
106	0xbf9c38b8486d16e6	-0.027560119076290322
107	0xbfa3827294689054	-0.03810461103083243
108	0xbf9fe74d8f1824f4	-0.0311557882869566
109	0xbfa0e8c8ede37d6b	-0.03302600768960925
110	0xbf9e32d2cd489a26	-0.02949075105621026
111	0xbf9bd033880e6b5a	-0.02716141240999135
112	0xbfa11b76f8a2faec	-0.03341266427150011
113	0xbfa105594017ce64	-0.033243931840755164
114	0xbf9cd02e1e4babaa	-0.02813789424810024
115	0xbf9849f6fe37e800	-0.023719653383501793
116	0xbf9fbed3feba6591	-0.031001388952608237
117	0xbf985c357dce55a6	-0.023789249232853436
118	0xbf9e144deccd56af	-0.029374330118420996
119	0xbf971e86df88c14f	-0.02257738818497162
120	0xbf9692af304c50f1	-0.022043931315310187
121	0xbf98639f6adfddbb	-0.02381753053484002
122	0xbf9cc53d17c26428	-0.0280961557151366
123	0xbf9d5b5843fa4033	-0.028668765210170654
124	0xbf9aa65204042b57	-0.026025086875090277
125	0xbf9947283fa2cd8f	-0.024685505756406875
126	0xbf955fc2dfd86722	-0.02087311259501868
127	0xbf98a96399ce15e7	-0.024083668005479366
128	0xbf9bb3e179ef6b56	-0.027053378169380103
129	0xbf92ab7e1d149036	-0.018232317471430025
130	0xbf99a98dcd3eb930	-0.025060859348451092
131	0xbf92c680aaa8b55b	-0.01833535234088877
132	0xbf944ecbcfbc8554	-0.01983183341429158
133	0xbf94f14c6c6a5bf2	-0.02045173083987701
134	0xbf98b973b5fc5423	-0.024144943220637437
135	0xbf93d0dadffff5d8	-0.019351406022897283
136	0xbf9709fd015b44e0	-0.022499039848132507
137	0xbf970520bedd5d8c	-0.02248049893327457
138	0xbf9211e9fa4bb294	-0.017646461393200655
139	0xbf991fd31e01e684	-0.024535464006908217
140	0xbf9435a2732b16fc	-0.019735849646870016
141	0xbf9812d702e503ce	-0.0235093684689252
142	0xbf93c62fcb0ae7c5	-0.019310709731804616
143	0xbf978b9214c14407	-0.022993357197552935
144	0xbf9aadd7238419de	-0.026053773443914234
145	0xbf96439ac11f95ea	-0.021742265736881018
146	0xbf95c587f49198a7	-0.021261333753863323
147	0xbf9a21b597b23e6d	-0.02551921594982647
148	0xbf9851b9f913900e	-0.0237492616914921
149	0xbf97d5d09f8e5db2	-0.02327657674649481
150	0xbf95da408e4e2ee8	-0.021340378461487314
151	0xbf91d43bb096d87f	-0.017411167767669596
152	0xbf9dbb709be1b0f1	-0.02903533889222926
153	0xbf95d600f0ad91fa	-0.02132417172414767
154	0xbf9a909be387b2c5	-0.0259422643302283
155	0xbf99036573b36c78	-0.024427018343754686
156	0xbf9a5a4f48086cf1	-0.0257351291385079
157	0xbf98e3bc211f9a15	-0.024306239625639565
158	0xbf975598b932a951	-0.022787462524015926
159	0xbf9a33c006baf934	-0.0255880359752549
160	0xbf9ce371a759b01f	-0.028211379851583836
161	0xbf96179a378cf5bd	-0.021574411049405152
162	0xbf985eee7126a398	-0.02379963460558407
163	0xbf9a62704b99bb4f	-0.025766138662614065
164	0xbf9ba61633ab1108	-0.027000758079126747
165	0xbf9b3c726da22407	-0.026597774449815172
166	0xbf97d1c4b741c1cf	-0.023261140523062992
167	0xbf9891911c413740	-0.0239927934165316
168	0xbf9cdf03640b0bf2	-0.028194478016995768
169	0xbf99d29209524810	-0.025217325037893146
170	0xbfa00e42043c5455	-0.03135877896981102
171	0xbf9858bb65bab3d8	-0.02377598579794324
172	0xbfa0660fe2f48e6e	-0.03202867169809741
173	0xbf99b19d73a87cae	-0.02509161013051358
174	0xbf9f77c5a68c79fc	-0.030730331697776933
175	0xbf99b7d4a14f0116	-0.025115320535179363
176	0xbf9c01509e8188bf	-0.027348766016424216
177	0xbf9f83739d5fa5c9	-0.030774885635684677
178	0xbf9bbf40edddf827	-0.027096762197736404
179	0xbf9e08d5d13e2da1	-0.029330578704998115
180	0xbf999ddd399627de	-0.025016266479305098
181	0xbfa0709e7f2d5066	-0.032109215759789575
182	0xbfa0d8787cab716e	-0.03290154001089972
183	0xbfa0199a7e652974	-0.03144533913526262
184	0xbf9f61a0a3d91e2e	-0.030645856857772262
185	0xbfa0303500723d3d	-0.03161779051253653
186	0xbf9d350407538bd6	-0.02852255148617274
187	0xbfa0a6474d4a0fca	-0.03251860445473616
188	0xbfa0727234dec883	-0.032123154596221525
189	0xbf9be542e5b32ccd	-0.027241750020760947
190	0xbfa197b5fe5398ac	-0.0343605874020779
191	0xbfa0c61a9453c335	-0.032761412245128
192	0xbf6c49f39201d9f6	-0.003453231547662523
193	0xbf6d4b2ccbec955e	-0.0035758852894953027
194	0xbf6d166b43fcc926	-0.0035507292776851994
195	0xbf6ccd8b5a87891b	-0.0035159799337957215
196	0xbf6d932162304440	-0.0036101963064614495
197	0xbf6e7cfafd11d113	-0.0037217046852281526
198	0xbf6ef2f957c6212e	-0.0037779684045668093
199	0xbf6ff57103851c23	-0.0039012152957727127
200	0xbf6e7c3bd1613ade	-0.003721348602119575
201	0xbf703d14c98af47f	-0.003964501571940392
202	0xbf70ba98e681f6ac	-0.004084203021305004
203	0xbf70592c63fc62af	-0.00399129238191935
204	0xbf71208abcb44641	-0.004181425039193666
205	0xbf71e6ca4dcdcd38	-0.004370489358609668
206	0xbf710d839614be78	-0.004163278588108825
207	0xbf7104ca11ee238e	-0.004154958091825102
208	0xbf7263e56114e8c4	-0.004489799511526896
209	0xbf70d98aa5aa55a8	-0.004113713827469757
210	0xbf71d3cd5ba00648	-0.004352380923593531
211	0xbf728d0487761bb9	-0.00452901620099671
212	0xbf72a75dfc05e6cb	-0.004554144980255702
213	0xbf734c8ba4bfa520	-0.004711671335806217
214	0xbf732368605ba668	-0.0046724393084588214
215	0xbf73a3e3703bfd47	-0.004794968062696476
216	0xbf73ae0112dc7880	-0.004804615205811769
217	0xbf73430b934a6ff3	-0.004702611175755311
218	0xbf73a7d15962a7bc	-0.004798715372240577
219	0xbf74a2dd7f5f3b62	-0.005038132881920317
220	0xbf72b5326179327d	-0.004567333984209496
221	0xbf732ea05b848a6a	-0.004683138271760793
222	0xbf72069efeb8db00	-0.004400845598459879
223	0xbf73923d951091df	-0.004778137737080772
224	0xbf733fb8eae52386	-0.004699442228521705
225	0xbf73a8a67b0064b6	-0.00479950934825373
226	0xbf73d4403c30d5df	-0.004841090124548113
227	0xbf73224528685dc2	-0.0046713544347975495
228	0xbf735ff7c33f3ac2	-0.004730193922979966
229	0xbf7337e61d8fc214	-0.0046919812093482345
230	0xbf726873951167be	-0.004494143956515316
231	0xbf7322068fca3589	-0.004671121245917739
232	0xbf7382094e0f36e7	-0.0047626841996597285
233	0xbf72e3cdf41d630d	-0.004611782556673172
234	0xbf745c7e9e983c5c	-0.004971022231543189
235	0xbf72a097f10ef0db	-0.004547685167320926
236	0xbf72b54b0dafabea	-0.004567425897202585
237	0xbf71b09fb18a5755	-0.004318832209397734
238	0xbf7194bfe310d745	-0.004292249258517182
239	0xbf72d769e578f7d7	-0.004599965722773511
240	0xbf7162b17bb4f8b4	-0.004244511884563252
241	0xbf719baedd570212	-0.004298861565474004
242	0xbf7278b07cfc0189	-0.00450962963782365
243	0xbf71178fcf39c7fb	-0.0041728608663209555
244	0xbf70ffff96432e9c	-0.004150389086315844
245	0xbf70d2fd8df4bb44	-0.004107466170622246
246	0xbf6e57406d1d5163	-0.003703714210965868
247	0xbf707f35450a34d9	-0.004027565083231732
248	0xbf6f99221feba2b0	-0.0038571993348920017
249	0xbf6f0a394d3bf051	-0.003789054791807835
250	0xbf7057d5706cfb35	-0.00399001478837029
251	0xbf6cfc5d91b252ff	-0.0035383059999481987
252	0xbf6d90b8f8534fd6	-0.0036090481467940623
253	0xbf6d7a7b7c5f709e	-0.0035984432060854462
254	0xbf6dd3fb53d276f9	-0.003641119836699566
255	0xbf6c7ce277b061ed	-0.0034775183862729626

gru.weight_hh_l0_reverse f8 [48, 16]
0	0x3f4635518387e380	0.0006777427689136223
1	0xbfaeb6e1a4e8399a	-0.05998902452494122
2	0x3fa212bbbbeeb333	0.03529917401406237
3	0xbfa70964c9a53017	-0.044993543257618444
4	0xbf9599a394709315	-0.021093898711245524
5	0x3fa2c405132d0ef0	0.03665176257211822
6	0x3f66f06ca40ca9bc	0.0028001901522618205
7	0x3fab6828474f86db	0.05352903242579795
8	0xbfa762fb27a13fc5	-0.045677040660506964
9	0x3fa8dc5edb0b0f58	0.0485562937151644
10	0x3fb1594a0f61c768	0.06776869655166495
11	0xbfae22e6adf0b409	-0.05886002419752152
12	0xbf95a5de724ae02f	-0.02114055225931127
13	0xbfac10d4212dfe11	-0.054815892267466755
14	0xbf48d7496160b94e	-0.0007580860426566278
15	0xbf63fb50b861a36d	-0.0024391724173721736
16	0x3f50c00448e9685b	0.0010223428577291946
17	0xbf783c6099cbe950	-0.005916955324887077
18	0x3f7604dd09b7ca60	0.005375731877836104
19	0xbf78473ce3b06a0d	-0.005927312707195498
20	0xbf660056d407319d	-0.002685708605190308
21	0x3f77aa8be8fe07de	0.005777880214624857
22	0x3f24c8921fa00518	0.0001585653661209461
23	0x3f778c4ed19ccdc6	0.005749042402203702
24	0xbf7848498b8385d0	-0.005928313527165455
25	0x3f7847f71f586b87	0.005928006479304033
26	0x3f783b12c033bf9d	0.005915711636802626
27	0xbf78630b04c12f0c	-0.005953829804706389
28	0xbf77d51dc4545a45	-0.0058184778947834625
29	0xbf780277ce7a394e	-0.005861728662820488
30	0xbf12e00a82eab1ba	-7.200302273230918e-05
31	0xbf355f08b7781f62	-0.00032609904107560293
32	0xbf8ad094dada67f5	-0.013093150071018281
33	0xbf986b6866c72ce2	-0.023847228310654674
34	0x3f97d90dd26ffb02	0.023288932770806355
35	0xbf9be8904c65d114	-0.027254347479769583
36	0xbf62e08fcc3379ce	-0.0023043449924522235
37	0x3f9a9ba478405b48	0.025984353866159965
38	0x3f5069eee592cce2	0.0010018189407617274
39	0x3f97cd83e8df3d13	0.023244916046505425
40	0xbf99f179c7f41aa3	-0.025335219220347437
41	0x3f9c5daf824cddc2	0.027701132133385327
42	0x3f997ed07bbb3681	0.02489782099910665
43	0xbf99ba44ba8ad6cf	-0.025124620328560717
44	0xbf9915681f4df790	-0.024495722685507426
45	0xbf9a3b689cdbc80b	-0.025617250989803646
46	0x3f676e5604ad4cd4	0.0028602294964144934
47	0x3f52b0fc338bbe09	0.0011408293632334551
48	0x3f60353cb67696bc	0.001978510455688502
49	0x3f88f7586a1ce866	0.012190523851689682
50	0xbf8759dac19fa0f6	-0.011401852640077408
51	0x3f88dedce5bb4c6b	0.012143827210286248
52	0x3f623f505eecf4c4	0.002227456068253449
53	0xbf8814ed461ee2d3	-0.011758664801037188
54	0x3f35396d21bbd197	0.0003238574442854468
55	0xbf88c3b0ed0906f9	-0.012092001184217592
56	0x3f88e69ce7bf527e	0.01215860922085565
57	0xbf88af53736b3137	-0.012053157768058582
58	0xbf88b84ca55b5541	-0.012070273205078254
59	0x3f88f2cda1384f82	0.01218186043028147
60	0x3f88cb558e51a0f6	0.012106579213835716
61	0x3f889a7a22ffe842	0.012013391678909472
62	0xbf27229db3a5d424	-0.00017650771207980518
63	0x3f419cce0a6d18ba	0.0005374914224851792
64	0x3fbff69635a4770a	0.12485636529569547
65	0x3fba672fa4b9a9c8	0.1031369950448272
66	0x3f9fc1d59ff1869f	0.031012857329534623
67	0xbfb5977cfab66d3d	-0.08434277649796669
68	0xbfb6441ea8a38463	-0.08697692505985936
69	0x3fb428934ebdd414	0.07874413177872014
70	0xbf75206388cf9fd8	-0.005157841497727099
71	0xbfb1082f17057bf8	-0.06653112709089715
72	0x3fb514192b576886	0.08233792598858444
73	0x3fbd6c517891545a	0.11493405526683045
74	0xbfb54dc6ccc8d63a	-0.08321802615758936
75	0xbfb7fe15897844a3	-0.09372076612659667
76	0xbfa80565181b4437	-0.04691615981358448
77	0xbfb6bd4bf69a1468	-0.08882593889764367
78	0xbf7e1a06340f0670	-0.007349037391522026
79	0xbf79017af375bbaa	-0.006104927327540569
80	0xbf705af2baa75cd8	-0.003992984924898489
81	0xbf807663ded6e80c	-0.008038311231633365
82	0x3f9b7542fa7f3724	0.02681450513755758
83	0xbfa54fe09796bac6	-0.04162504053544107
84	0xbf746fa5d1eed999	-0.004989288076947673
85	0x3f86bdbcd5f1d31b	0.011104083327361949
86	0x3f2c4d1ae66dd114	0.0002159209572841844
87	0x3fa21acd990d1fcf	0.035360741551414436
88	0xbf9554f32e5c6621	-0.020831870751044094
89	0x3fa29e9284ed6076	0.036366060949775056
90	0x3f9bcd042c207478	0.027149262612614383
91	0xbf97d55f46f4f0a0	-0.0232748877581207
92	0xbf940fb8cfff9e0a	-0.019591224379750506
93	0xbf98a37859741158	-0.02406108900051271
94	0x3f56f32bfcd9d28a	0.0014007501189584903
95	0x3f4ac885abc5c072	0.0008173611345636668
96	0xbf57cc2d9ff5edda	-0.0014524884753360696
97	0xbf358a8d0de357d2	-0.000328692853043375
98	0x3f3a0110af7229a5	0.00039679200512723396
99	0xbf35fc92dcf357b3	-0.0003354891350232328
100	0x3f52673b91c2f0dc	0.0011232454044565665
101	0x3f374042a224e3ac	0.0003547823599948051
102	0xbf220b7cd9655557	-0.00013767146146885054
103	0x3f35135e37e3243b	0.0003215889954729133
104	0xbf35d050b6654918	-0.00033285112876514774
105	0x3f3594de84e67c04	0.0003293078670142948
106	0x3f35a5b7aa776bf2	0.0003303120997465984
107	0xbf35dd2de167e36f	-0.00033361787919221944
108	0xbf35762558380999	-0.0003274766133644302
109	0xbf354971150f3be5	-0.00032481203839734705
110	0x3f39c3655c1d8035	0.0003931162319670307
111	0x3f22cb547ac01ecd	0.00014338880771468666
112	0xbf5b8ec89cf5d551	-0.0016819914925155397
113	0xbf8cde05f8d76c49	-0.014095350891628071
114	0x3f8a84063f5d7169	0.01294712906717939
115	0xbf8d10d15d8448bd	-0.014192233721164954
116	0xbf707376ffe44c8b	-0.004016365854357616
117	0x3f8becc9ff54e376	0.013635233025171205
118	0xbf1844d179b26898	-9.257820640798593e-05
119	0x3f8c4d6cac9426d8	0.013819550530132771
120	0xbf8d0bf72b092c32	-0.014182978630875896
121	0x3f8d0a15182389e8	0.014179386901052873
122	0x3f8d018b11aedc31	0.014163099743980197
123	0xbf8d0229d715a09f	-0.0141642826808524
124	0xbf8c73cb1bd6221a	-0.013892733370782163
125	0xbf8d007168549441	-0.014161001202021352
126	0xbf33987ef7a95a7b	-0.0002990064601013154
127	0xbf32b7587e7890d8	-0.0002855864572402062
128	0x3f805e8ca19615ad	0.0079928385555473
129	0x3f92c5149fdd7347	0.018329927689922056
130	0xbf937456d7c642e4	-0.018998486442401666
131	0x3f93f349f69300f8	0.0194827610728234
132	0x3f54aef3062556e4	0.0012624142915078013
133	0xbf936281f8b3f4df	-0.01893046455824254
134	0x3f26c4a36c8f07ab	0.0001737069599397322
135	0xbf93d90035661696	-0.01938247991485883
136	0x3f93848d3dc2edbb	0.01906033219777979
137	0xbf92d8e3ed179451	-0.018405495973542966
138	0xbf93d40dad3b4e0d	-0.019363607118817728
139	0x3f944d61fa3d7ca0	0.01982644166798464
140	0x3f926bf7ed138a38	0.017989991993895255
141	0x3f93b0da30aad771	0.019229325504702858
142	0xbf4914497de8d9b3	-0.000765357861218166
143	0xbf4aa1468f9586cb	-0.000812682584335722
144	0x3f588da819209f34	0.0014986173232589108
145	0x3f96ee9db9d0ca2f	0.022394623247416753
146	0xbf957be43b334116	-0.02098042117432993
147	0x3f96e1ac27971aeb	0.022345247188947075
148	0x3f76d75af9ec704b	0.005576472641021078
149	0xbf95e0b4b395d157	-0.021364997349750805
150	0x3f3255011f161bf7	0.0002797248590344354
151	0xbf96cf341f32f542	-0.02227479401039046
152	0x3f96e78af4f4c7cb	0.022367640686930017
153	0xbf969b1f749aa1f1	-0.02207612179941693
154	0xbf96bbd217ded9d9	-0.022200854021969228
155	0x3f96eeb4f57f018b	0.022394969447988394
156	0x3f96b16bdf75c145	0.022161183847346128
157	0x3f96a7226604bc25	0.02212194202109798
158	0x3f545649b70ff084	0.0012412757753273171
159	0x3f49b2fe348eb777	0.0007842770802335271
160	0xbf4230f9dc89dc06	-0.0005551548029661963
161	0x3f7563805b3a686d	0.005221845047026813
162	0xbf7364ea102ccc92	-0.004734911259947643
163	0x3f751d8e20028d85	0.005155139137204561
164	0x3f63d3cb84efe1dd	0.0024203276620904227
165	0xbf742abdd01db7d2	-0.004923573929643115
166	0xbed6224a9049618a	-5.2771449686395695e-06
167	0xbf7554ba7aa77cf2	-0.005207756456427891
168	0x3f7526ff5e055480	0.005164144066232557
169	0xbf74f3310038ccbb	-0.005114737901340034
170	0xbf74ed91c6b59438	-0.005109376371682343
171	0x3f753fa07a3cacfa	0.005187632432164019
172	0x3f752b9e67f476b3	0.005168551229216045
173	0x3f74ca921b40d2dd	0.005075999000884149
174	0x3f3ffb94677e5f7a	0.00048801777983830503
175	0x3f48ea0c55bc298b	0.0007603225926414032
176	0xbf76b8ce47948ae0	-0.005547338275649877
177	0x3f91448e36290216	0.01686308103148989
178	0x3f3e1682e8cd43af	0.00045910545377575
179	0x3fadf3e772b508b2	0.05850146556123671
180	0x3f8560560a62c1f5	0.010437652770947084
181	0xbf9c0a8523ec8eb5	-0.0273838809181501
182	0x3f50f6f9522fbd64	0.0010354456687727493
183	0xbfa0022e91e9cc93	-0.03126664668243353
184	0x3f9b00e6c8546eec	0.026370626427804675
185	0x3f94a11734ffaa94	0.020145762071403242
186	0xbf74f85b624241f4	-0.005119664161739913
187	0x3fabf25fbee3366e	0.05458354191942481
188	0xbf50b8e13d3bd279	-0.0010206412889008072
189	0xbf39c98fc2740779	-0.00039348373179858665
190	0xbf6c5128b2bac0e7	-0.003456668366048732
191	0xbf5d2a1761d9fa6b	-0.0017800548879730825
192	0x3f7f3fc65fe5f8ec	0.007629179859917051
193	0x3fa2099ad58d2e7b	0.03522952896909445
194	0x3faa4e61cb6588e9	0.05137925727719212
195	0x3fb68f8f024b9e12	0.08812803083457535
196	0xbf998ddd270f11c0	-0.02495523024460211
197	0x3f705949546c56af	0.00399140018887116
198	0xbf457a881416cd06	-0.0006554760404270672
199	0x3fb025d282329063	0.0630771224846867
200	0x3fb2d3d23e77b4ad	0.073544636011962
201	0x3fadccc933112b62	0.05820301769616411
202	0x3fba3626205841d3	0.10238874711672645
203	0x3fae193e7228d93d	0.05878634589719176
204	0xbf787c11b253c2cd	-0.005977696540171618
205	0xbfa73566959f0b0a	-0.045329290165247185
206	0x3f57e92c8b2fdb39	0.0014594016072330808
207	0x3f46a401c6564227	0.0006909378686704202
208	0x3f45fd0daa995cbe	0.0006710354547959858
209	0x3f822a80fa6c59bb	0.008870132105170172
210	0xbf80ddb3f7243613	-0.008235364894541275
211	0x3f821b6aec001f04	0.008841357543146973
212	0x3f60aaacd745210e	0.0020345092581558538
213	0xbf816afee91ebf4a	-0.008504859437237795
214	0x3f15165c7f881c25	8.044185222654038e-05
215	0xbf82030259d59890	-0.00879480206158359
216	0x3f82213f0b0fac26	0.008852474713384306
217	0xbf81f82ec293f00a	-0.008774152100606631
218	0xbf81fd7d9bda0e79	-0.008784276312560057
219	0x3f82289e073b85e5	0.008866533847540612
220	0x3f81ffd44551b52f	0.008788736691907132
221	0x3f81e788292ea426	0.008742393261700409
222	0x3f477fe5447cd0eb	0.0007171506376608938
223	0x3f5079799ba83f9f	0.001005524404380488
224	0xbf53871bd9a70507	-0.0011918804144531185
225	0xbf675c0a95330b60	-0.0028515059180746344
226	0x3f66a2fda27613f1	0.002763266925912771
227	0xbf67753681285a07	-0.0028635086575932197
228	0xbf365a42ec3acb1d	-0.0003410733590768921
229	0x3f66ae9446192c2c	0.0027687927220419097
230	0x3f34da43be5d07f2	0.00031818536659866594
231	0x3f66df3e27fd9763	0.002791997336248396
232	0xbf6782fe202ca2be	-0.002870079364033578
233	0x3f6754c6e29fb87f	0.002848041961434566
234	0x3f676bd8e7b0bbdd	0.002859042780549255
235	0xbf678289e7fccecd	-0.00286986288838329
236	0xbf66fc10a9be4068	-0.0028057408762336873
237	0xbf673f8af3d232f2	-0.002837916747529306
238	0xbf33428cbf405d6e	-0.00029388366897494563
239	0xbf2295dc41c74784	-0.00014179528888163759
240	0x3f43ed0f23dfeaf2	0.0006080936361735052
241	0xbeffd3db02b861c2	-3.0353127085632063e-05
242	0xbf231dbec1e66018	-0.00014584497052960786
243	0xbf05b1d5c3cd7157	-4.137929543077356e-05
244	0xbf1b40f4fb20cbc6	-0.00010396476025746536
245	0xbed524c0bce3d446	-5.041018950037679e-06
246	0x3ed06091383b94f0	3.904632538830432e-06
247	0x3f16521d0ac0a07b	8.514692552863579e-05
248	0xbf0783b4a1248fc6	-4.4850301622184225e-05
249	0x3ef2c23dd3f6dc0b	1.788974372881825e-05
250	0x3f070beecca31d34	4.395792491745446e-05
251	0xbeef8911de864496	-1.5037264305547184e-05
252	0xbf143326dbb059cb	-7.70561663759668e-05
253	0xbf152edd5985ff9b	-8.080698024137552e-05
254	0xbf28462330e556c5	-0.00018519572808866326
255	0x3ee43912083cecb9	9.643045138943396e-06
