dl_experiments/best_checkpoints/wiki_de_1h_GRU_cuda:0_checkpoint.pt (torch, 128766 bytes, 30 tensors)

gru.weight_ih_l0 f8 [48, 48]
0	0xbf4d29196cdbc47c	-0.0008899091860411624
1	0xbf4b0721bee63f71	-0.0008248247884683324
2	0xbf4724cb596f3f25	-0.0007062905232206636
3	0xbf42ed3ee4d01962	-0.0005775982950815656
4	0xbf413291877d726b	-0.0005248270599441223
5	0xbf41d078baf49b28	-0.0005436505797760992
6	0xbf43625a2c67db58	-0.000591558485040315
7	0xbf46e61da33f5461	-0.0006988186564692683
8	0xbf48640f92207f19	-0.000744350054677742
9	0xbf4b0e40fd77f4f4	-0.0008256738028077624
10	0xbf4e2ef9b21f36e0	-0.0009211272447317807
11	0xbf5016a795b63ee6	-0.0009819637842589045
12	0xbf50583c4d25d63d	-0.0009975994949774768
13	0xbf503f9f3a184d8b	-0.0009917311621208981
14	0xbf5042fc2081dcf5	-0.0009925329377702939
15	0xbf501315e95cc1d2	-0.0009811128597442165
16	0xbf507add1ae6f953	-0.0010058554868091665
17	0xbf50927273bd5f67	-0.0010114782043810445
18	0xbf50a7441e2a300c	-0.001016441842383922
19	0xbf4f968bfaa47624	-0.000963991498142473
20	0xbf4dfc2c6e59c1f5	-0.0009150711964150392
21	0xbf4c0536823f4380	-0.0008551136165754064
22	0xbf4bdda2277f681e	-0.0008503953713401324
23	0xbf4c0339cc0dfdd5	-0.000854876729235283
24	0xbf4bd53d683d33ff	-0.0008493947829976144
25	0xbf4a64ff77e3123e	-0.000805496921906519
26	0xbf471af4cb30c70e	-0.0007051177293588577
27	0xbf4284fcaeb8369f	-0.0005651696969281756
28	0xbf409fc02e02b1b4	-0.000507325017698393
29	0xbf41c97d2b401c15	-0.0005428181816576916
30	0xbf44a3ac3e9b3d2f	-0.0006298628843185767
31	0xbf4574ac6d9485c8	-0.000654777711279469
32	0xbf483909d8bc4eec	-0.0007392213896957023
33	0xbf4afc2b4ae63e45	-0.0008235179318933436
34	0xbf4e0b5d484a916e	-0.0009168820839318534
35	0xbf5008189a10c6ee	-0.000978492760861756
36	0xbf5034c17e69be54	-0.0009891404712582168
37	0xbf4f91187e952184	-0.0009633416749830624
38	0xbf4f5280d136f954	-0.0009558800688223381
39	0xbf4fd90e5b0124d3	-0.0009719200225017051
40	0xbf505106ad16861b	-0.000995880622533091
41	0xbf50d8bc1671c8b2	-0.0010282360833824664
42	0xbf5077237c106664	-0.001004967358545627
43	0xbf4fc467a62bacea	-0.0009694582080021195
44	0xbf4daaf5094b2c7c	-0.0009053894487690696
45	0xbf4c8256adcfd396	-0.000870029758174173
46	0xbf4d982f11e1456a	-0.0009031514962406899
47	0xbf4e5d1dfb4bfc24	-0.0009266277689618002
48	0xbf7593ebce9f7c22	-0.005268021699492061
49	0xbf8240baeffb8215	-0.008912525604899671
50	0xbf848a4d180a13ec	-0.010029413505671735
51	0xbf81a5325aafe5a9	-0.008615868942785836
52	0xbf6e2068d7c10a4f	-0.0036775634489754415
53	0x3f630b0b738a09cb	0.0023246024759952847
54	0x3f740ec22ac191e4	0.004896887268931203
55	0x3f7403a3fe4df388	0.004886284445885354
56	0x3f5bfd433ff0cfb2	0.001708331750489994
57	0xbf4452b18d9ad915	-0.0006202094038687845
58	0x3f36ef85517bc13e	0.0003499699100606607
59	0x3f5512ee6cb716b0	0.0012862518659501436
60	0x3f554452d2d48564	0.00129802788007568
61	0x3f445b1df11f8d47	0.0006212135506270888
62	0xbf2942117613dc81	-0.00019270384931477719
63	0x3f3cfa110c66f259	0.00044215122434446624
64	0x3f56fbe4b2e4117f	0.0014028294932027783
65	0x3f62ba569303681b	0.0022861185935712076
66	0x3f5fb6bde92fc9ed	0.001935658893441268
67	0x3f5229995d12104b	0.0011085508051858091
68	0x3f3202e376dd8f20	0.000274830373078171
69	0x3f32dc80bdc390da	0.00028780119988726165
70	0x3f441fc660cd8211	0.0006141394274941666
71	0xbf37504b8cec2277	-0.00035573811048598226
72	0xbf6881fab0e99741	-0.002991666441903102
73	0xbf79c7a8bd55d436	-0.006293925417925774
74	0xbf7ca8c268ea95b3	-0.006996879018207935
75	0xbf78f1c6c524ac8d	-0.006089950986544979
76	0xbf624d47ed38a252	-0.0022341160599988275
77	0x3f6db2b34b062509	0.0036252500360133316
78	0x3f7955d13578775e	0.006185357305666132
79	0x3f7831596f3c1b17	0.00590643821101968
80	0x3f61815d91429bb5	0.0021368815888140554
81	0xbf40046f4ccb2b4d	-0.0004888099152478925
82	0xbf47d67cc9c1b1b0	-0.0007274731938316428
83	0x3f57cd1c415a5091	0.0014527107172499813
84	0x3f663816db2e84a2	0.0027122923288094994
85	0x3f5f6d9f91450f2f	0.001918226077649753
86	0x3f5bdbb1717013e1	0.0017003281443532736
87	0x3f62ec9a7b125262	0.0023100869371524427
88	0x3f691c5115c2d0f4	0.003065260285518895
89	0x3f702d112f9f3c15	0.003949229367164815
90	0x3f683fff5c310303	0.0029602038862609494
91	0x3f5ed91a1c40cda0	0.0018828158363362948
92	0x3f4202cf311de2b1	0.0005496513060584044
93	0x3f1d9d6673af8267	0.00011297166649582858
94	0x3f05851897c41a14	4.104596425418355e-05
95	0xbf553bbb22daf727	-0.0012959792615414108
96	0xbefa62abb1613cd8	-2.5163109136192057e-05
97	0xbefcd03318c979dc	-2.747848479811044e-05
98	0xbefe2a7f9e1bcb7b	-2.876854876538878e-05
99	0xbefd7fb291a79ca3	-2.8132265564109607e-05
100	0xbefaefcc1c313fe9	-2.568884680115283e-05
101	0xbef894d60e8ffded	-2.3442641495561722e-05
102	0xbefc18420e12df5a	-2.679324905294155e-05
103	0xbefb43ce41aaf7d2	-2.60018024202875e-05
104	0xbef58018fc15f343	-2.050436137811534e-05
105	0xbeeee2ad9c94bdea	-1.4727335740787534e-05
106	0xbee5f9cb53db6efa	-1.0478858367183708e-05
107	0xbedaee82c5778603	-6.421013572817296e-06
108	0xbeca60f62d5dcce8	-3.1445928056428434e-06
109	0xbea60b2c397e0939	-6.569517720797226e-07
110	0xbed071339abfea34	-3.9201244526007515e-06
111	0xbedc9aba6461ad1e	-6.819821981900245e-06
112	0xbee00994c3bc8be2	-7.647240742486174e-06
113	0xbed8c3f2a063dd8e	-5.904536470639235e-06
114	0xbec88820bf6bcf46	-2.9244124520824605e-06
115	0xbec84d0a2d8220d5	-2.896897381591497e-06
116	0xbed2a264c32bed78	-4.4427752523516835e-06
117	0xbee22d2e208568c2	-8.667223497727995e-06
118	0xbeee462a542f847f	-1.4435807889458814e-05
119	0xbef5c6be37db8cf0	-2.0767536162658148e-05
120	0xbef9e5b4ffb21d9d	-2.469758326786657e-05
121	0xbefc876e7e535f73	-2.7207402941125746e-05
122	0xbefc90481e0b3036	-2.724037210803683e-05
123	0xbefc965360cbfccc	-2.7262887715370773e-05
124	0xbefb0e150ab9d4ed	-2.5801666807064137e-05
125	0xbefaa6200b5b1db9	-2.5414396722903932e-05
126	0xbefe0cdebd0d44aa	-2.865817424730204e-05
127	0xbefe184d4fdadeea	-2.870076149605233e-05
128	0xbef9775f05731834	-2.428655019739313e-05
129	0xbef550a82be1bcc6	-2.032763108455735e-05
130	0xbef3b8ba024ed5f2	-1.8807972214060103e-05
131	0xbef0b1037b0e946c	-1.5918216096051324e-05
132	0xbee5c7477b911073	-1.038476681192882e-05
133	0xbed8720759e26ed1	-5.8282434151309335e-06
134	0xbed634df5089b529	-5.294449927901049e-06
135	0xbed9e64178bfaf5a	-6.1749068542663025e-06
136	0xbed0e70770fd7e35	-4.029859851900241e-06
137	0xbebc40345ad24985	-1.6838788312918294e-06
138	0x3e8ae2d288c37f18	2.0031649617442773e-07
139	0x3eb77c5f63755379	1.399864584990613e-06
140	0xbec3b4431548ff05	-2.3489175567102996e-06
141	0xbee589c4728122fc	-1.027019204981457e-05
142	0xbef52e6936177463	-2.020005502411207e-05
143	0xbefd658c469f6a7f	-2.8034850778494658e-05
144	0xbf94abed1daf0dd8	-0.020187096535449672
145	0xbf96ba55680e14c9	-0.022195181346906154
146	0xbf957bcc0b53435f	-0.020980060759771543
147	0xbf8e1410ad9f714e	-0.014686708735034994
148	0xbf83d131aed10743	-0.009676349780537335
149	0xbf826acde8271a32	-0.00899277558063458
150	0xbf8b34102e8d3603	-0.013282896443025832
151	0xbf92cfc2786df76c	-0.018370665169178776
152	0xbf95e0f88764e957	-0.021366008056454912
153	0xbf9846176243c26e	-0.023704877255058703
154	0xbf99b401a1700813	-0.025100732305880124
155	0xbf9aef6a16672d7c	-0.02630391847359935
156	0xbf9b20d8e182f137	-0.026492489589814396
157	0xbf9b82b7671c6f62	-0.02686583105888419
158	0xbf9be5efdbda12cc	-0.02724432734841535
159	0xbf9b0b42b16bfa7e	-0.026410142973868116
160	0xbf9a8b783dbacaa2	-0.02592265965240393
161	0xbf9cb23a47cfc8ed	-0.028023634560619227
162	0xbfa115bb2f39214e	-0.033368920816942635
163	0xbfa4bd1cfd6b1cb7	-0.0405053195332185
164	0xbfa533fda806df80	-0.041412283669557404
165	0xbfa24dd79581c91c	-0.03575013828312221
166	0xbf9bef1013e283d8	-0.027279139722512585
167	0xbf945b1fb3dc676e	-0.01987885985645426
168	0xbf9219268388f1d1	-0.017674066332107167
169	0xbf93a09c474e8ab0	-0.01916736779424849
170	0xbf93e3a551583eb6	-0.019423087205778976
171	0xbf8a4d5a7a24aa84	-0.012842852451816052
172	0xbf7aa56799097325	-0.006505398444087961
173	0xbf77d0bf096697bd	-0.005814310300058465
174	0xbf8934836fc153e5	-0.012307192657468444
175	0xbf928266e1461c07	-0.01807556867563778
176	0xbf95b27978a3517e	-0.021188638675839304
177	0xbf992d2cd3efdb0a	-0.02458639186439896
178	0xbf9a23205ceb0ede	-0.0255246216500059
179	0xbf9bf5457ae2ca6e	-0.027302823663101376
180	0xbf9d2cc7b6a3f944	-0.028491135141842663
181	0xbf9d9afe03c8b7de	-0.028911560994110512
182	0xbf9de5ecce50b87f	-0.02919740685700178
183	0xbf9d020ee40e9f5a	-0.028328163785459416
184	0xbf9c1a918d1f73de	-0.02744510101171104
185	0xbf9f534c08ed9456	-0.030591190380978205
186	0xbfa255115cbc5bb5	-0.035805265970501855
187	0xbfa5aac0e6d5fbc3	-0.04231837098904336
188	0xbfa56cc507a3f998	-0.041845471556359815
189	0xbfa27e1cd379ceca	-0.03611841279498902
190	0xbf9a5b2f9ec19ea2	-0.025738472046582424
191	0xbf95452a0c0720b4	-0.02077165316021086
192	0xbf9a3504a3c910ff	-0.025592873093288834
193	0xbf998f4f17ef8047	-0.02496074279395113
194	0xbf946115aa12c579	-0.019901598458721168
195	0xbf88009837ce62f1	-0.011719884112424835
196	0xbf66ce2f8e487048	-0.0027838639091566676
197	0x3f73c4f73ff4e370	0.0048265131184103
198	0x3f8487475a71ad4e	0.010023648688920386
199	0x3f8486f06196747c	0.010023000696316446
200	0x3f5bbc1a5fe04025	0.0016927964748028126
201	0xbf83221cff65112f	-0.009342409652739107
202	0xbf9308272ba8ba94	-0.01858578876470547
203	0xbf950405341c5887	-0.020523148828111928
204	0xbf950c66eabad2ab	-0.02055512244870054
205	0xbf9829a4037f2bf9	-0.02359634658186491
206	0xbf9d4dfa46354acf	-0.0286177735664051
207	0xbfa0c47020bb5878	-0.03274870299871763
208	0xbf9f01d60dde5d5a	-0.03028044185302057
209	0xbf99a78154107a38	-0.02505304408634343
210	0xbf96e141e64ece77	-0.02234366386592376
211	0xbf968c4e9ea94c66	-0.02201960414306505
212	0xbf92cd988b5b454a	-0.018362411027572002
213	0xbf8eb925fbb80919	-0.015001579994536262
214	0xbf926f04f5e53641	-0.018001630314122833
215	0xbf9842d69920d772	-0.023692467781266165
216	0xbf9db2e9f6bbde15	-0.029002814945640127
217	0xbf9cbc64baadcf26	-0.028062414068201445
218	0xbf962a6d3a31f885	-0.021646219899132752
219	0xbf8b35aeebf3ca84	-0.013285986495678921
220	0xbf80f3661d9229fe	-0.008276746537622334
221	0xbf74421ab65cf0ae	-0.00494585451616218
222	0xbf587cc9de963bbe	-0.0014945956594123312
223	0xbf721299fd9a3cfb	-0.004412271047512957
224	0xbf87a35c4d59bb00	-0.011542054281759473
225	0xbf92f90639e234c6	-0.018528077395377783
226	0xbf958d95dd1ac168	-0.021047917957447565
227	0xbf911bde37af0ad5	-0.016707870625178273
228	0xbf872bf0498cb66a	-0.011314275021130988
229	0xbf868a26f35a3e53	-0.011005691815881102
230	0xbf905cc7a0697f0e	-0.015978926816727905
231	0xbf919dc593321ee1	-0.017203414067380577
232	0xbf87b69ad797abab	-0.011578759865150298
233	0xbf81a7f3e0134020	-0.00862112548421129
234	0xbf86d41284be8581	-0.011146683383972402
235	0xbf91883d1e54cef0	-0.01712127206447084
236	0xbf94ecdb48b46a25	-0.020434786140962075
237	0xbf961232fc4951b4	-0.021553799293842338
238	0xbfa0b8e328f40e08	-0.03266057848852816
239	0xbfad3828b9a5e555	-0.057069084798920734
240	0x3f716209b8fb814e	0.00424388692746931
241	0x3f6fe2a8ffe2024d	0.0038922596714317304
242	0x3f6a9e7d96764455	0.003249402321394738
243	0x3f63b3ec60fc1324	0.0024051300787299047
244	0x3f60edcf66d5365e	0.002066521722247568
245	0x3f617c4011a5348a	0.002134442457793433
246	0x3f627bcbcd729083	0.002256296207251708
247	0x3f59f9a57c0417f7	0.0015853992518386464
248	0x3f5cc736f6bdd03d	0.0017564808613004378
249	0x3f5863535872915f	0.00148852481087499
250	0x3f4da1011fa3e940	0.0009042029844572932
251	0x3f32a4791bfb55f7	0.00028446156282532726
252	0x3f3a375b6d93db2e	0.0004000280583364321
253	0x3f43c99ffea1ffde	0.000603869554893773
254	0x3f5051b886552215	0.0009960462569599305
255	0x3f552cfc29e82529	0.001292463544475384

gru.weight_hh_l0 f8 [48, 16]
0	0x3f1afb34873181d0	0.00010292537790369057
1	0x3f4c8215341a953d	0.0008699992688049673
2	0x3eed9ac3e0211869	1.4116550122744193e-05
3	0xbf121595e53cb38e	-6.898620023028224e-05
4	0x3f44c7914fac6ab2	0.0006341418769325229
5	0xbf3d12b8ed4b7b8c	-0.00044362082307530175
6	0xbf038a6f8f872732	-3.7271050988231516e-05
7	0xbf2aedce41bf3086	-0.0002054514196728788
8	0xbec2df2b02b581a7	-2.2496879147767117e-06
9	0x3f331f19c3792729	0.0002917707347235171
10	0xbee2c0ff705da1a7	-8.942555279126846e-06
11	0x3f385bdc5c457163	0.00037168626683638776
12	0xbf4952386baed7c4	-0.0007727408877744525
13	0xbf21c71a45da1685	-0.00013563342774973813
14	0xbf372e143e7a2f4d	-0.00035369867553280006
15	0x3f0061dc7b1a03fb	3.124670128063636e-05
16	0x3f5c0a687aa657f2	0.001711465864536074
17	0x3f9465e0736bf34c	0.019919879002361626
18	0x3f4e696681373bc3	0.0009280920516462277
19	0x3f681bf0dd72dbd9	0.0029430107493584154
20	0x3f900f10eee97804	0.015682472784071436
21	0xbf84a14be841eb2f	-0.010073273683010335
22	0x3f841857d626f3ed	0.009812055800347575
23	0xbf6fab6a6299b995	-0.0038659169993515243
24	0xbf428cf53f6639ba	-0.000566119909125188
25	0x3f807aa04737ce2a	0.008046390698814927
26	0xbf4faf1d1c51dfb0	-0.0009669201032371701
27	0x3f828d2e528aac06	0.009058343786213296
28	0xbf88b3b7abc9f770	-0.012061533861238621
29	0xbf60451118dd8ed0	-0.0019860586098035884
30	0x3f88d142a2d047d8	0.01211788234107651
31	0x3f6be58322e5c94f	0.003405338407156545
32	0x3eec082e89239908	1.336668018265794e-05
33	0x3ee7064065cbdcb3	1.0978899064080461e-05
34	0x3ebd17e0bf4af2a9	1.7340942097119878e-06
35	0xbef74a13ce3860aa	-2.2210468968081897e-05
36	0x3f00e9635c0b1662	3.225645514741135e-05
37	0x3ee528ccaca1a30a	1.0089575330067476e-05
38	0xbf1000b167333338	-6.104548247094505e-05
39	0x3f167e8e00ecb205	8.580915185225225e-05
40	0xbecdcfa7dea2f933	-3.5537666366040453e-06
41	0xbeeb9f148c206639	-1.3170913352000747e-05
42	0xbebec72a70696cb8	-1.8345112394933067e-06
43	0xbee6dec04968aebd	-1.0905323773866834e-05
44	0xbf1a3fb15926e5cc	-0.00010013122508824925
45	0xbee170424456eafe	-8.3153301016956e-06
46	0x3ef713d38b731db8	2.200836817392384e-05
47	0x3ee17de4a90b6d5e	8.340726055980598e-06
48	0x3f73e26c6caa8e33	0.004854606183161847
49	0x3fa2412c49f49d5b	0.035653480556272675
50	0x3f2ee5a4be6c0ade	0.00023572574647098046
51	0x3f6752e4f0e0d783	0.002847144270186898
52	0x3f8dd8e8e38c1fcf	0.014573878711885783
53	0xbfa5a9355301cccd	-0.042306581862158056
54	0xbf5160e04b862159	-0.00106069473085498
55	0x3f7617401086ae3d	0.005393266918342796
56	0xbf2b5805a6fd5e3f	-0.0002086169147286088
57	0x3fa36eef936bbfdc	0.037955748315539245
58	0x3ed1ff5a68fa29b7	4.2909320111618714e-06
59	0x3fa356e0d9745f51	0.03777220396494719
60	0xbf7e68ef7ee67ea6	-0.007424293069931009
61	0xbf81c0a5653d3ee1	-0.00866822447974819
62	0x3f86693debc14095	0.010942920453232122
63	0x3f5c0326da808f56	0.0017097358159014662
64	0xbf5ea29a55b5d6c9	-0.0018698222328032302
65	0x3f944292f977c75c	0.019785210110007653
66	0xbf31c02041f0bc4e	-0.0002708510164123921
67	0x3f96e6344c73a530	0.022362534681552748
68	0x3f97c166c06a2952	0.023198705190716602
69	0xbf98660401d8f382	-0.02382665883327518
70	0xbf8cf930bce150f7	-0.014147167934574585
71	0x3f8d32cf0224a428	0.014257066014197475
72	0x3f285c1c547188b1	0.0001858505804391334
73	0x3f8a737f061c4df1	0.012915603994350074
74	0x3f51a1d1110ff21e	0.001076177755975689
75	0x3f9608a01bd9fa29	0.021517278385085135
76	0xbfa46bbed8f1a54f	-0.039884532911694685
77	0x3f678d6d7f7ca35a	0.0028750551827169514
78	0x3f712c1bf2083baf	0.0041924563997914185
79	0xbf643f5f583e3c37	-0.002471624584309075
80	0xbf07332f8f6e2052	-4.4250382351285756e-05
81	0xbf42d1a5f455dc11	-0.0005743084263220029
82	0xbf23f8f4ad6cf58d	-0.0001523779562492663
83	0xbf5a09726ab4e1c0	-0.0015891663886816593
84	0x3f71bc2251b4c5a6	0.004329809245335358
85	0x3f590b409526d160	0.00152856165787537
86	0x3f79aba3faac8f46	0.006267204803211806
87	0xbf61da3aef38b0b2	-0.0021792555869720393
88	0x3f23fb3efefa6851	0.00015244621271365497
89	0xbf56b2a5e0892378	-0.0013853664296609985
90	0xbf038ddf3af5cb4c	-3.729665274478672e-05
91	0xbf5add37c26ea794	-0.0016396564985634342
92	0x3f69bc1112144d47	0.003141434994753975
93	0xbf29a3f7dd1b7243	-0.00019562149696285462
94	0xbf656fea6c2eb393	-0.0026168421331562246
95	0x3f2cf558af26f5cf	0.00022093494005829973
96	0xbf5533e9a9efcad8	-0.0012941152451701379
97	0x3fa8b4be858e2382	0.04825396900475366
98	0xbf4197d07585411d	-0.0005368965021635173
99	0x3f913b0bb1819a98	0.0168268038836695
100	0x3f86d0f15907680c	0.011140714196631783
101	0xbfaca42218d94c4c	-0.05593973687486961
102	0x3f81b1c291b7d1a4	0.008639831611596822
103	0x3f72197f6bfe4bbf	0.004418847791288038
104	0x3f21358982c40c52	0.0001312952384822952
105	0x3fa73d38612ce45a	0.045388948309160695
106	0x3f5605ae44c1e7d6	0.0013441278306616142
107	0x3faa5fa46a048166	0.05151094240341329
108	0xbf9627398dffb4be	-0.02163400582496843
109	0x3f43ed5e1fd0d84f	0.0006081304160321463
110	0x3f6721e5a2bf045a	0.00282378054359404
111	0xbf553517799b9177	-0.001294396328767792
112	0xbf5183c541468bbd	-0.0010690141981306433
113	0x3fa5501b62631b52	0.041626792678974525
114	0xbf3215712b6a64f7	-0.0002759362500142771
115	0xbf6418fec5ba33c8	-0.0024533248923206165
116	0xbf8ac9c4f1627f0b	-0.013080156914213178
117	0xbfa0d725407b02b4	-0.03289143001666642
118	0x3f9559fc25880437	0.020851077833871492
119	0x3f9221e633308a65	0.017707440256467772
120	0xbf1471d4d7317245	-7.799016548077586e-05
121	0x3fa33d8664b46e08	0.03757877330118836
122	0xbf0dbf8aab8e7bd2	-5.674020707790269e-05
123	0x3f9f80551ee5e8d9	0.030762987147206686
124	0xbf8b02c35b324e44	-0.013188863964649696
125	0x3f5b08e295584347	0.0016500675895978077
126	0x3fa6a07ab26a4d8d	0.04419310977859956
127	0xbf4ef9ef8fff4d3b	-0.0009453220118253233
128	0x3ee31037fe728c87	9.090115737747532e-06
129	0xbee84e2917d43768	-1.158967711003727e-05
130	0xbe9109cc1d434a8c	-2.538900194640592e-07
131	0x3eb2d8f54dab602b	1.1233981271254697e-06
132	0xbeed045ab583724e	-1.3836388163595726e-05
133	0x3ee771fcd0b313ab	1.117957301345083e-05
134	0x3eb3d97315c865d7	1.183117169684081e-06
135	0xbecb7e167c168ad0	-3.277365039537412e-06
136	0xbea9e0c52db9883d	-7.712247582331867e-07
137	0x3eb17b0d54a31fbd	1.0419292544739386e-06
138	0xbeb844c39c91f20e	-1.4465218660934188e-06
139	0xbedf866bfd9dc883	-7.516166044984243e-06
140	0xbf05821e30fe752b	-4.1023775451546424e-05
141	0xbeb5e7081a906de6	-1.3054887892997759e-06
142	0x3ec5e1b24732a4d4	2.6084931562154706e-06
143	0x3ed114629cd32f3b	4.072101046758397e-06
144	0xbf66ed6adc698e71	-0.002798756325590728
145	0x3f92049be44b30e8	0.017595706757490698
146	0xbf41336f1c5d7a12	-0.0005249302418908772
147	0x3f895cb9a6e5c9ca	0.012383890538988935
148	0x3f966d337eebdec2	0.02190094434896995
149	0xbf7c3d3d2a33df91	-0.006894339490138083
150	0xbf716077187a1ddc	-0.00424238702510801
151	0xbf84268221d15843	-0.009839073807750625
152	0x3f4293733cc42506	0.0005668938333950608
153	0x3f6661079c1877a5	0.00273181425360654
154	0x3f3ac2d5dc495699	0.00040834160998790833
155	0x3f75662da68928a5	0.0052243979667513695
156	0xbf9071cd6d8647ff	-0.01605912190422742
157	0x3f65401fbcfb6ae8	0.0025940532576503757
158	0xbf858739ec05c088	-0.010511829867681635
159	0xbf5be546bcaebe26	-0.0017026129523677407
160	0x3effd691440ba715	3.0363229828112607e-05
161	0x3f33b63fb28412ad	0.0003007798682264456
162	0x3ed67ca3948b83cb	5.361287840983376e-06
163	0xbf10da5b4180c59e	-6.428892118106328e-05
164	0xbf1673805a67c109	-8.56444445174223e-05
165	0xbf32f5d04e9c630e	-0.00028930984136503544
166	0x3f20d6fd13492623	0.00012847747133752735
167	0x3f2b42cfa06fbb40	0.00020798477655100713
168	0xbee9d1c4bf48a5cb	-1.2311653315571783e-05
169	0x3f2d694856b0ce14	0.00022439010658247048
170	0x3ec1bb166f681df7	2.113677392448972e-06
171	0x3f302d42989fd4b9	0.000246838339648402
172	0xbf38a6170e8557c2	-0.0003761106768441735
173	0xbf0a695a29d3a687	-5.037599951569516e-05
174	0x3f0a405b6c3ef08b	5.007056236602897e-05
175	0x3ef9ae34e9bc9637	2.449082840807177e-05
176	0xbf38af5f8e45d355	-0.0003766639986431582
177	0x3f5ec467263073d8	0.001877880794160838
178	0xbef3b809ea193c9d	-1.88054097008365e-05
179	0x3f693230476dbf3d	0.003075689597089508
180	0x3f68ecb02efbc0f5	0.003042549236731524
181	0xbf709b1128db7c4b	-0.004054133443530959
182	0xbf5131eb46943587	-0.0010494992841957056
183	0xbf771f49cc97447e	-0.005645073202189653
184	0x3f1f4dac2288d124	0.00011941302421620122
185	0x3f64e0102b1257d7	0.002548247889147408
186	0xbee6394afa951bfd	-1.0597133796820183e-05
187	0x3f70217b5fab366c	0.0039381808553123725
188	0x3f6e16fb3730d90a	0.0036730677179789327
189	0xbf331f945b251445	-0.00029179927800654745
190	0xbf78a6f6a32a8068	-0.006018603732314977
191	0xbf34889cc9da64da	-0.00031331851810418936
192	0x3f45c86ea0f94c90	0.0006647625140864411
193	0x3fa9e558af9ecaf3	0.05057789939691828
194	0x3f35e89feba3ed75	0.0003343000822863742
195	0xbf954bd533534d7f	-0.020797091729787717
196	0x3f97a2566daf2ba5	0.023080206341358118
197	0xbfa6aa391f184f9a	-0.04426744942261891
198	0x3faf97a13a005d15	0.06170371850037718
199	0xbf8fb1671936a727	-0.015475087601618377
200	0x3f4637ab4e229e54	0.0006780229998825751
201	0x3fa2bcf07c5a72d7	0.03659774320587921
202	0xbf5127ff288f8f70	-0.0010471336156507548
203	0x3fa3d5bc659aac8d	0.038740050700050245
204	0x3f7620ea3df9b019	0.005402483947914782
205	0xbf61c1aeadea1802	-0.002167550249683182
206	0xbf95c044ce1c05ff	-0.02124125965111112
207	0xbf63dfb665d86990	-0.002426010366218985
208	0x3f071a278ce780f2	4.4063884718560905e-05
209	0x3f4c0f15885c46bd	0.0008562903537685168
210	0x3ef2652286f49c7b	1.7542894451907654e-05
211	0xbef3a83609ea27fe	-1.874644714886658e-05
212	0x3f4fc7828f851d0e	0.0009698283675242685
213	0xbf4dfd0a30a903c0	-0.0009151744610066334
214	0xbf380f413caf61ba	-0.0003671201963562316
215	0xbf37d85f4272e812	-0.0003638489310550118
216	0xbee6285fb29b8872	-1.0565619578743245e-05
217	0x3f49b91d4c5635d1	0.0007850068147249816
218	0xbef26a5244f438ca	-1.7562215643578812e-05
219	0x3f4ab2a03de9ce71	0.0008147509032156564
220	0xbf5402a9dbec12bf	-0.0012213381557454742
221	0xbf158ca88d6bdf97	-8.22046161877962e-05
222	0xbf3e2c5cd4e5cced	-0.00046040789029362547
223	0x3f1908123c60d987	9.548770239651258e-05
224	0xbf4f674d36a5927b	-0.0009583594340197421
225	0x3fae1231634ad82c	0.05873255097451166
226	0xbf43fcc8938cbbeb	-0.0006099681259906763
227	0x3f7e381adac4d97e	0.007377724552773633
228	0x3f95d51e45abb746	0.02132079410778622
229	0xbfa5179cedee8855	-0.04119577793541455
230	0x3f8b62c546decaee	0.013371983742989948
231	0xbf8a41dd52fbb467	-0.012820939154574341
232	0x3f4d5672be8b8588	0.0008953151965124676
233	0x3fa1fe7092f73cbb	0.03514434618011238
234	0x3f60a8a25bff3eda	0.002033536060458957
235	0x3fa0d8100e20210d	0.032898427700333334
236	0xbf9670eb86cf6c95	-0.021915130713619908
237	0xbf5cc72c700149d4	-0.0017564710579064296
238	0x3f94350d3226f687	0.01973362558941585
239	0xbf70034f2c9175db	-0.003909405969435532
240	0xbed19c9b8c4f6470	-4.198968047008496e-06
241	0xbf0c36dee45cc1fc	-5.3814580083137e-05
242	0x3eb35b0d0ee8f8b4	1.1536877157071676e-06
243	0xbf0229df799deb6a	-3.464425317552848e-05
244	0xbf00a3a3fbb848c7	-3.173679530389796e-05
245	0x3f0a295689f5da87	4.9899056871295865e-05
246	0x3ec7d11ab63b0cda	2.83918545726653e-06
247	0xbefc4cec9cf653ab	-2.6989446096320886e-05
248	0x3e8cb033411b5e22	2.1374435781625016e-07
249	0xbf0a0a02b3c9ff0c	-4.966564890640347e-05
250	0xbebaf1cf5475cb64	-1.6060215147466818e-06
251	0xbf000badcb1b0b18	-3.060459256467289e-05
252	0xbf04964cb94950e1	-3.926679270152708e-05
253	0x3ede23078072bb10	7.185180954368304e-06
254	0xbf0921b85112e705	-4.793494930184324e-05
255	0xbecb91d123ac9a04	-3.286552126796672e-06

gru.bias_ih_l0 f8 [48]
0	0xbefe2fa0d6be9182	-2.8787658649458068e-05
1	0xbf926ff749f0074d	-0.01800524128703467
2	0x3edbcad971325b2a	6.6262198458375615e-06
3	0xbfa7a22419435aed	-0.04615891273868109
4	0xbf990465e0f08a64	-0.02443083939955172
5	0x3f64a3563d127769	0.0025192913386282057
6	0xbfb047dff1ce3843	-0.06359672215896332
7	0xbfa4cc5642846895	-0.04062146722772401
8	0x3eccb94f6a0ef45b	3.424151899327058e-06
9	0xbf78381d6c8392d7	-0.005912890374223343
10	0xbf329c966ff7ec0e	-0.0002839915541412171
11	0xbf720e51188b624c	-0.00440818479611289
12	0xbfa757dcc4cfb18e	-0.04559221174699522
13	0xbf509142e0a9a658	-0.0010111954785777724
14	0xbfa63232e7585e4d	-0.043351736774806506
15	0x3ef8c6d7063edf7c	2.362892008964068e-05
16	0x3f37664027f11734	0.00035704675969260307
17	0xbfc7bb98fd7cf8ba	-0.1854125249610144
18	0xbeec59f640c53d7b	-1.3519007574429604e-05
19	0xbfc32105d0dfb9a7	-0.1494452733890743
20	0xbfcd6fde538c2b3a	-0.22997645453900778
21	0xbfa54b8df99d562f	-0.04159206077626398
22	0xbfc9797d5eaae2ac	-0.19902007219731865
23	0xbfc48373f5c2a31c	-0.16026162624373164
24	0x3f17a4edc9a92a26	9.019566861315966e-05
25	0xbfc12ea24762cd42	-0.13423565374032803
26	0x3f024b17c4a5e389	3.4891760679784416e-05
27	0xbfb0a9ab953ad5b4	-0.06508896249109491
28	0xbfc8285a6eb999f4	-0.18873148352140812
29	0x3f4b5cfee0f4a4ae	0.0008350605511725695
30	0xbfcc86bfbe3bb269	-0.22286221302728684
31	0xbf2e685a395494d8	-0.00023199178091563052
32	0x3f4f7dba41d10b51	0.0009610328157879465
33	0xbfc13fcb9f91104a	-0.1347593812116677
34	0xbf834bae0ca9747d	-0.009421691666995574
35	0x3fbd7ea7d5ded989	0.11521386119316025
36	0xbfc808e4935228d8	-0.18777138894467416
37	0x3fbb9a3b1fea9022	0.10782212762075052
38	0x3fd13748cc5b8644	0.26899929005421463
39	0xbfc52b6bd10354a3	-0.16538760858262433
40	0xbf5846288f95701b	-0.0014815708257947039
41	0x3fb207fa36391079	0.07043422530938583
42	0x3f734c67aafd6863	0.004711537316177769
43	0xbfb29fec54003133	-0.07275273371505335
44	0xbfd480c121ab4591	-0.32035854614249454
45	0x3f7186e4e034c703	0.004279035612215545
46	0xbfce0b295f8f8b4c	-0.23471562543917412
47	0xbf5c0e7776969088	-0.0017124334939149517

gru.bias_hh_l0 f8 [48]
0	0xbf02f35c8cfabf21	-3.614546005559065e-05
1	0xbf92724dcd964132	-0.01801415984442762
2	0x3edbcaf35e4fb13c	6.626314164908793e-06
3	0xbfa7a2334f60cc47	-0.04615936607333331
4	0xbf99044f00f587f0	-0.0244304985366241
5	0x3f64a05675f9cbf2	0.002517861241182023
6	0xbfb047edef4c68f8	-0.06359755604026762
7	0xbfa4cc57b26c8f50	-0.0406215100577173
8	0x3ecbf9c04b4172dc	3.334950259099819e-06
9	0xbf7837ba8f128234	-0.005912522073373828
10	0xbf329fb5c464af73	-0.0002841776626094562
11	0xbf72147680217caf	-0.004414046185132011
12	0xbfa757ddb0e79ce7	-0.045592239231888425
13	0xbf508b3dcba359e5	-0.001009760234003226
14	0xbfa6317feb427ebe	-0.04334640261481358
15	0x3ef85fb241139346	2.3244680112183344e-05
16	0x3f37641bb1c7fa7f	0.0003569190610334463
17	0xbfc7bb9901bdcade	-0.185412526941568
18	0xbeec4d3325651318	-1.3495236242841389e-05
19	0xbfc32105d02a4e24	-0.1494452730590733
20	0xbfcd6fde53134a56	-0.2299764543191311
21	0xbfa54b0afed9b89e	-0.04158815728156749
22	0xbfc9797ddbed9e99	-0.19902013052636816
23	0xbfc48373c8ca1e67	-0.16026160530258268
24	0x3f17a30f76f6c2a9	9.016782654814683e-05
25	0xbfc12ea2fa1dc65c	-0.13423573696813917
26	0x3f0223fbe3005952	3.460037658002908e-05
27	0xbfb0a9a2c8426acc	-0.06508843793055091
28	0xbfc8285b354b0c71	-0.18873157598690996
29	0x3f4b5c9c1d3fc444	0.000835014560378274
30	0xbfcc86bf87626693	-0.22286218748631778
31	0xbf2e2579fcbe7958	-0.000229998723054468
32	0x3f4764f1383bedc9	0.000713937552489546
33	0xbf8d2813ff414cb0	-0.014236599185244309
34	0xbf591d23c024b3cb	-0.001532826340347559
35	0xbf81a5345c3fee16	-0.008615883889425507
36	0x3f9bf4849fdbc5d1	0.027299949891078704
37	0x3fa5e25e2b17bfb3	0.0427426745990255
38	0xbf807cbf854546c8	-0.008050438170048038
39	0x3f9fe5d5aa7e2f7e	0.031150187045156034
40	0x3f4c4433f7822858	0.0008626226181303138
41	0xbf9a3251eacc6939	-0.02558258052440829
42	0xbf2f62e490cababc	-0.00023945846659985902
43	0xbfa10b145b9db40c	-0.03328765505180095
44	0x3fb15a3e537d7053	0.06778325594263039
45	0xbf6215e0915dc256	-0.002207697495514342
46	0x3fb02e26483dd5e2	0.06320418609342185
47	0xbf59d216268c2cda	-0.0015759674371931738

gru.weight_ih_l1 f8 [48, 16]
0	0x3f3b47540f26dbc9	0.00041623880602109344
1	0xbf774b4c9ffda3a0	-0.00568704539896539
2	0x3f25f02d67a90d3c	0.00016737512835805237
3	0x3f50b540953aaf62	0.0010197764103549657
4	0x3f19ae81b5a9d467	9.796778378208666e-05
5	0x3f76e0d25f510426	0.005585500494874862
6	0xbf345c06a38e6d6c	-0.0003106609543068381
7	0x3f5c27d8e781f43e	0.0017184847074809407
8	0xbf265b333febeaa5	-0.00017056465727434858
9	0xbf7219781fefb618	-0.004418820607481354
10	0xbf42b38791c7c9bb	-0.0005707179985264191
11	0xbf780097f0d8653d	-0.0058599410235953804
12	0x3f462d7759e19f8f	0.0006768067139661815
13	0xbf2ef469acd7eca5	-0.0002361659048089926
14	0x3f66b3ff9be5c95c	0.0027713768351357703
15	0x3f1fc914596d0d4e	0.00012125193312067137
16	0xbf0d1ff6da2096a3	-5.5551262690562286e-05
17	0x3f532d01fde4e92c	0.0011703986597938016
18	0xbeedbb7e3ce6ed13	-1.4177510732396711e-05
19	0x3f21e9955addd0ab	0.0001366610353518196
20	0xbf42bb327632eb28	-0.0005716320414629094
21	0xbf54fc94260471ab	-0.0012809225809809848
22	0x3f4fb620e9068ff4	0.0009677563376055951
23	0x3f304f3775ba4a62	0.00024886230469537394
24	0xbed0b46e50666202	-3.982736649276333e-06
25	0x3f534796a6bab779	0.001176735992810289
26	0x3f0bda7a7bea8123	5.312620441100455e-05
27	0x3f52e93acdefbed5	0.0011542391073326348
28	0x3f2ee94b8034c906	0.00023583456650439638
29	0x3f18d1a31edacb31	9.467657192878118e-05
30	0x3f46ee5803fb4284	0.0006997995150986457
31	0x3f079d5f98ca77e8	4.504154194261129e-05
32	0x3ef9844f6ce866d1	2.4334752021549028e-05
33	0x3f345310c648d266	0.0003101268723953221
34	0x3ea7f5a4838d8ea3	7.140499810151328e-07
35	0x3efa62093ff7ca64	2.5160745279204774e-05
36	0x3f2bd823e1489626	0.00021243513096284964
37	0xbf392251b5328931	-0.00038351530856507986
38	0x3f0f984bee925b0b	6.0262505777666514e-05
39	0xbf1ffe43ef87e37b	-0.00012204446455389526
40	0xbeb29b86cc9d27b6	-1.1090949549479745e-06
41	0x3f35e5382603f272	0.0003340971070569305
42	0x3e7e38bd7c2f087f	1.1258438718713646e-07
43	0x3f370947b82ef1e5	0.00035150528872998486
44	0xbf25cff6358b0a0b	-0.00016641502840826524
45	0xbf06698efc550151	-4.274814231530983e-05
46	0xbf282a2e9316864a	-0.0001843625882829595
47	0xbe9de9402d258804	-4.457106516278901e-07
48	0xbf6c2646b7d3fed9	-0.0034362202846976828
49	0x3f90d021dc14a167	0.016418961579945626
50	0xbf2ed448deee5917	-0.00023520841156416596
51	0x3f8dfc3a4fc2dbbc	0.014641242560498806
52	0x3f91d4f5bb4c77e4	0.017413940007024467
53	0xbf5a3f3ae84da1a2	-0.0016019892948070176
54	0x3f67d097aeb6b888	0.002907081847033647
55	0x3f906df1a3c19bc6	0.016044402713671045
56	0x3f5318f5db97383f	0.0011656189875455384
57	0x3f7224d13b60c8f8	0.004429642975127594
58	0xbf4b2564fa720a3b	-0.0008284323747747632
59	0xbf5dbb50aa0bea01	-0.0018146789299736679
60	0xbf2a20edd324cf43	-0.00019934561857725728
61	0x3f606a2e1350af2d	0.0020037555609827757
62	0x3f9ae0404d44bcd6	0.026246075359435427
63	0xbf79cc4ee48ca931	-0.006298359084022474
64	0x3edeafed5b99deeb	7.316402326311187e-06
65	0x3f71f40e925bebae	0.004383141442072009
66	0x3eef1d1ca9dc922d	1.4836177168194964e-05
67	0x3f5583252cd5d812	0.0013130057371575393
68	0x3f4bc9bf3b807d1e	0.000848024726113925
69	0xbf7599927f6b0146	-0.005273411041969494
70	0x3f44afecf29765a3	0.0006313235255063675
71	0xbf666bb3ac7dabb3	-0.0027369031194459325
72	0x3f0376ab8a08f0f4	3.712378498163692e-05
73	0x3f730aeb994ea117	0.004649086292296787
74	0xbefe666d4a04dd8b	-2.899179946888384e-05
75	0x3f73995e3a214a07	0.004784935068601565
76	0xbf6048d869b131c2	-0.001987860375754575
77	0xbf40e4365f7db34e	-0.0005154862874242412
78	0xbf61e39f45c3f990	-0.002183734015601853
79	0xbf1e5174a3d02404	-0.00011565470136089279
80	0xbf544e95c47aabad	-0.00123943925602064
81	0xbf8beddba29ba333	-0.013637271785641758
82	0xbf4158afa83ab1ff	-0.0005293710423380226
83	0xbf9224ec84ae153f	-0.01771897849859738
84	0x3f820344af33fb8a	0.008795296284459093
85	0x3f92b89ebfa79d14	0.01828239483611778
86	0xbf7f6e4b17924ed2	-0.007673543289587763
87	0x3fa1648fa8cb4e5f	0.033970345835453435
88	0x3f48b14f1926440c	0.0007535587522388156
89	0xbf8a0620fdba0295	-0.01270700239479198
90	0x3f42fe3dfc16cc1a	0.0005796244296817383
91	0xbf915b92ef07e424	-0.01695088943413138
92	0xbf96aced6842ea50	-0.02214404057370195
93	0x3f5792e408ae6bd1	0.0014388300794283446
94	0x3f84e580cc02e275	0.010203367448739823
95	0xbf5283af138d6501	-0.001130028698943797
96	0x3f4d9ce6759b7966	0.0009037137308174736
97	0xbf91bb5e4dabdc99	-0.017316316118890816
98	0x3f31aeba88fdc6c7	0.0002698140533460122
99	0x3f9671e649b0faa4	0.021918867347489837
100	0xbf962775f42add5c	-0.02163490584163462
101	0x3fa0662ac07a23dc	0.03202947234701245
102	0x3fa3d3f8b7a22d63	0.03872658959979949
103	0x3f4947334e849545	0.0007714272042319911
104	0xbf4f9820d70db3d6	-0.0009641800262279964
105	0xbf9b596b2fcb63b3	-0.026708292762893836
106	0xbf48699e4d2e66b2	-0.0007450125652781108
107	0xbf9fcabf4a93f803	-0.03104685681045539
108	0x3f960dc73e78a500	0.021536935031837068
109	0x3f56129655a114ee	0.0013472049818273285
110	0xbf950826fd1e76d2	-0.02053891105571532
111	0x3f7a560282166f51	0.0064296815848157865
112	0x3f64403673e49916	0.00247202525419533
113	0x3f92b36a487ab946	0.018262539552489153
114	0x3f347db1bb2ad65c	0.0003126677430985486
115	0x3fabc48d529d478e	0.054233948073160496
116	0xbfa04e14c571b666	-0.03184571180541411
117	0xbf89289007f1d3af	-0.012284398310137805
118	0x3fb1c231971e87b8	0.0693694108909132
119	0x3fa473a700580db0	0.039944857398974576
120	0xbf54fbd54774acfd	-0.0012807448200174425
121	0x3fa45cba920b3e31	0.03976996453058879
122	0x3f2f19cc2bd2a5f3	0.0002372800571824176
123	0x3f8bc3f7f04d964e	0.013557374020545822
124	0xbfa861dda99fae22	-0.04762165732958247
125	0xbf6934c7a9fcda15	-0.003076925247934579
126	0x3fb690bcbb4653c1	0.08814601490151032
127	0xbf7a842971f9e6ec	-0.006473695655239569
128	0x3f32987ca57ea3d2	0.00028374713064721363
129	0x3f6ba1042e164661	0.0033726770058784415
130	0x3f039a736560aac2	3.7390371901165686e-05
131	0x3f3a0e6dee2db108	0.0003975885758140817
132	0x3f41e582cec985f9	0.0005461586675432054
133	0xbf70c1b3e02739ea	-0.004090979231888595
134	0x3f4412d54325638c	0.0006125966377040644
135	0xbf546afd6b7e6644	-0.0012462115100561203
136	0xbf062f672cde0f2e	-4.231485000530246e-05
137	0x3f6d41f3f8e1c341	0.0035714879114085167
138	0xbefdc605104d8460	-2.8394236341159804e-05
139	0x3f6e5f566aba2d89	0.003707569869055131
140	0xbf5082a706aa9db8	-0.0010077124704056372
141	0xbf3a977e7cdd6d21	-0.0004057582672111916
142	0xbf548b758e08ee30	-0.0012539527889562467
143	0x3f1e3f7d2b7c3c1d	0.00011538697696898731
144	0xbf919e4f95d22e9f	-0.01720547058043442
145	0x3fb0aa565c4dd732	0.06509914163129052
146	0xbf55b4f7b1c315e8	-0.0013248843088587928
147	0x3f86543e84aab1ec	0.010902870582264655
148	0xbf681b144e34fa48	-0.0029425999252048786
149	0xbfa1e29d53ceba63	-0.03493205688515812
150	0x3fa226c3c973d9fa	0.03545200189721594
151	0x3f86ab8cc6d2b165	0.011069392984005952
152	0x3f69644c80aba36f	0.0030995840255524858
153	0x3fa36751ab1b4fa3	0.03789763654427183
154	0x3f720f6246965885	0.004409202470375577
155	0x3f9a4ee97c45c023	0.025691650590886305
156	0xbfa3bc4d9ff48e91	-0.038546014571946625
157	0x3f8ebb9155920b3d	0.01500619451895135
158	0x3f8ae561e1598170	0.013132824601769427
159	0xbf8bd85c4538112b	-0.013596268522640806
160	0x3f71960494b03b3b	0.004293458837323179
161	0x3f9c99f57e1554a4	0.027931056805148416
162	0x3f583ab5e948300c	0.0014788414456488068
163	0x3fb0239a6ac57268	0.06304326159210805
164	0xbfb3e2732ac52564	-0.0776741008204645
165	0xbf716df68cee70ec	-0.004255259597723642
166	0x3fbe68eb74303240	0.11878844820621115
167	0x3f9a315566519a59	0.02557881772045287
168	0xbf70376be76339c9	-0.003959104060597026
169	0x3f93c4ef6cf01c32	0.019305935882609933
170	0xbf0eae0c109aabcb	-5.851721114188238e-05
171	0x3f4727cdf6d11ec2	0.0007066493686886598
172	0x3f716dc0eae8f19a	0.004255059799615069
173	0xbf7ec7e63cd4f0fa	-0.007514857640952716
174	0x3fb303444f5e79e1	0.07426859796257858
175	0xbf42f15542e947b6	-0.000578085547952015
176	0xbf633da82f415913	-0.0023487362723627696
177	0xbf7fc9fa7d80e9d7	-0.007760981061489556
178	0x3f1fb44f33dc3adb	0.00012094243444614064
179	0x3f7725b1dce2381a	0.005651182915370279
180	0x3f4ea07299405672	0.0009346541942274035
181	0x3f817fed2e80df44	0.008544781667395925
182	0x3f510c779987a8ea	0.0010405700651241975
183	0x3f88b01537e9f38c	0.0120546014488754
184	0x3f1c6e8b44e52f3a	0.00010845875769865685
185	0xbf68dc1672902a74	-0.003034633486554578
186	0xbf2f75ef1b427a12	-0.00024002593784629205
187	0xbf804e372c3cf276	-0.00796168426278963
188	0xbf7176db768f83ae	-0.004263741758195145
189	0x3f6f1e004a2bfdc0	0.0037984853419172626
190	0x3f85f019815d41b3	0.010711859951386104
191	0xbf45a512fd1ce180	-0.0006605475157135804
192	0x3f0ad7e60bab584c	5.119963448911631e-05
193	0x3f5b03b09e6dca11	0.0016488289636212886
194	0x3ee5fece5965d278	1.0488193578275478e-05
195	0x3f0d80bcfa6eeace	5.627228465906118e-05
196	0x3f4103bd03e8e6ed	0.0005192444730887903
197	0xbf5f6c2d3be8d8d0	-0.0019178811777585299
198	0x3f29df2ca8277d3f	0.00019738597991556837
199	0xbf4489d957d03c5e	-0.0006267844433994853
200	0xbec605cd9d0d8afa	-2.6253066853094386e-06
201	0x3f5b1c4c0d5596d4	0.0016546957679905343
202	0xbeb70d58b6bbdbfd	-1.3740143129362021e-06
203	0x3f5ced4c89237211	0.0017655608576695495
204	0xbf3d3b92b71ced11	-0.0004460557166685179
205	0xbf12da82da366ca3	-7.192062053322733e-05
206	0xbf4650755e5abf84	-0.0006809781159144855
207	0xbe87397aa7f811d1	-1.730362164527141e-07
208	0xbf53484d60accb80	-0.001176906169985087
209	0x3f8cb65e76c195f9	0.01401971626200814
210	0xbf35d455e8ec68e5	-0.00033309075745226033
211	0xbfa3ac7087b32502	-0.03842498451701638
212	0x3f9a5b699033569f	0.025739335466673393
213	0xbf20383df08dd278	-0.00012374645327963333
214	0xbf90c33c129376a3	-0.016369761117735703
215	0x3f93e0c911c57c56	0.019412175855333245
216	0x3f7016479000d6ea	0.003927497426095642
217	0x3f77cba96c870259	0.005809461414572136
218	0x3f2d724ea6c9cdba	0.00022465906240008525
219	0xbf555acc96b0495c	-0.001303386491376366
220	0xbfb6947e34cbfede	-0.08820332325921806
221	0xbf86b86359d1fb68	-0.011093879870029702
222	0xbf1c13a12fa592bc	-0.00010710402776721145
223	0xbf84dce2940087fd	-0.010186929837860953
224	0x3f6c47283c680d63	0.003451899133553192
225	0xbf244d91f8eb3c8c	-0.00015489966286572445
226	0xbf47438b7cf6d639	-0.0007099562735024052
227	0xbf6bb28434245fee	-0.0033810217002034825
228	0xbfaf95853c6a789b	-0.06168762552737058
229	0x3f48cab678f7c59f	0.0007565871218828019
230	0x3fae717ca8b9acd7	0.059459586712216676
231	0x3faec0a27642d872	0.06006343549363259
232	0xbf557e940a423e7c	-0.001311916895279013
233	0x3f827d8f2a92e831	0.009028547751189194
234	0x3f60ae797103b4f5	0.0020363208678789665
235	0xbf67d409232c7a85	-0.0029087236847680797
236	0xbf8d9f8b49d30da0	-0.014464462461893757
237	0xbf44079d569c6d14	-0.0006112592938935257
238	0x3fb47e7d749b9a84	0.08005508515234722
239	0x3f53c571dd926632	0.0012067424743577135
240	0x3f194a44584f818b	9.647409576941082e-05
241	0x3f63e8b545191338	0.0024302997997288876
242	0xbee7589b52dba480	-1.1132297540199796e-05
243	0xbf36a99e290a4c91	-0.0003458033689096108
244	0x3f5cafc4087a3aa4	0.001750890196408208
245	0xbf66326ddce3c111	-0.0027095933684152603
246	0xbf539e97661baff0	-0.0011974791054241117
247	0xbf324ae0e755a41d	-0.0002791213113000917
248	0xbe9265966fa9d4fb	-2.7413408046986205e-07
249	0x3f62241cf8ebf3ab	0.0022144857279031336
250	0x3ed57186b9b15bca	5.1125197400780115e-06
251	0x3f6460193d23b6dc	0.0024872296281647065
252	0xbf46f5f1490bb597	-0.0007007053519296089
253	0xbf24bf834a09b29a	-0.0001582954182767396
254	0xbf57f51863e100e4	-0.0014622438607290672
255	0xbf18ef19ffb3e6d3	-9.511562523192443e-05

gru.weight_hh_l1 f8 [48, 16]
0	0x3f4578ed712d3e96	0.0006552848229634696
1	0xbf11b7b42a18ce78	-6.758725296479053e-05
2	0xbefe3df7a76d9375	-2.8841076040636794e-05
3	0x3f793b9dc5ce90da	0.006160370158714035
4	0x3f22781d7f018f83	0.00014090881404904215
5	0xbf652d02ec9f9d64	-0.0025849396815719617
6	0x3f644962acbe8cf5	0.0024763991586539366
7	0xbf634f93c28dab28	-0.002357281297397224
8	0x3f138ddad727c819	7.459304996596006e-05
9	0xbf5e47f1d5d68b6f	-0.0018482076332950422
10	0x3f4fa473d4ab4d08	0.0009656491832522882
11	0x3f61a61443a19328	0.0021543880257460964
12	0x3f188d41e78b6576	9.365763424841974e-05
13	0xbf62816ed9e924cb	-0.002258984094883764
14	0x3f31deff3c887e40	0.0002726910720713717
15	0xbeb5964b8f97edc5	-1.286690859080408e-06
16	0x3f01aab56a0df2e9	3.369680530960156e-05
17	0xbe91dea4c7de33ff	-2.6627930781940003e-07
18	0xbee1f2887cb47896	-8.557984890130825e-06
19	0xbf537779001ded82	-0.0011881524701199135
20	0xbecbcfc0691dc037	-3.315392697204901e-06
21	0x3f1ed92fcf169ba6	0.00011767725279430863
22	0xbf11210deda6d234	-6.534240257034183e-05
23	0x3ef2598ee782110f	1.749976806354839e-05
24	0x3f0118144c6b426d	3.260433145658025e-05
25	0xbf43904d7d9c411e	-0.0005970362064733647
26	0x3f327d206db7eae7	0.0002821163340908498
27	0xbf0f627689fd8651	-5.986141445536427e-05
28	0x3f1030c1ae3613de	6.176168567691108e-05
29	0x3f3b632eb56fb17f	0.00041789903974522724
30	0xbf1de821eafa0381	-0.00011408526438040462
31	0x3f065307d2646444	4.258029575705165e-05
32	0xbec564b16fd6e30f	-2.5502839650883554e-06
33	0xbee74a43c920293a	-1.1105583585209304e-05
34	0x3ee4f5b4b64a2ef2	9.994406078981763e-06
35	0xbf36bd2d0ba4c8e9	-0.0003469691252063882
36	0xbefe39b11b1a5ec1	-2.8825148268822905e-05
37	0x3efcb103ccfb2f1f	2.736231254977996e-05
38	0xbed3232d43323a2c	-4.562713957002986e-06
39	0xbf0a9b672c2334c0	-5.0748907158040726e-05
40	0x3ef99b22697a9949	2.4419778667316987e-05
41	0x3f34aec562c384f3	0.00031559294690282276
42	0xbf1686c59d0e528c	-8.593159806331347e-05
43	0xbefaa4c2e1d878e5	-2.5409315744900295e-05
44	0x3f0750ccb96b609e	4.447102326360471e-05
45	0x3ee851a6af900427	1.1596178852714825e-05
46	0x3f0bef06939e087c	5.3279293253730994e-05
47	0xbed9996f8e910261	-6.10336267309382e-06
48	0x3f70f2d5ef320b77	0.004137836152156341
49	0xbf68957aaf7e315f	-0.003000964756159671
50	0x3f5a53c1648f55d3	0.0016068829156571276
51	0xbf944b1c07918c7a	-0.01981776996798288
52	0xbf811508bfdfb40d	-0.008340900760197579
53	0xbf88edb2894c5247	-0.012172121825224326
54	0x3f83c200a76aba61	0.009647374257238885
55	0xbf9911a3555b6fc9	-0.02448134621123169
56	0xbf505e5c93a1fce8	-0.0009990600651972829
57	0x3f959cfe15b2652e	0.021106691431303996
58	0xbf77328cc84974eb	-0.005663442546020673
59	0x3f6d90ecef0a8287	0.003609144936789047
60	0xbf77538bd1aad966	-0.005694910209675141
61	0xbf963203ac60be73	-0.021675164600479534
62	0x3f9829ff15dd2807	0.02359770365664107
63	0xbf84e6a36261e267	-0.010205532493487724
64	0xbf3198fb5e98aa7f	-0.00026851784659479705
65	0xbf307b8317900ea2	-0.0002515025185518637
66	0x3f2d92c9c9ac125a	0.00022562707166441897
67	0xbf73266dbb3e156e	-0.004675320280403168
68	0xbf43e11bbed46abd	-0.000606668994495983
69	0x3f41b2b8108489b8	0.000540103793387473
70	0xbf37da9674dbaef6	-0.000363980991876941
71	0xbf61a9d9d4de308c	-0.0021561865350517347
72	0x3f454e7c674429f0	0.0006502253950498287
73	0x3f50912483e99a08	0.001011167201477316
74	0xbf6052faa07b8e3d	-0.001992692475924844
75	0xbf3854b277852cd6	-0.00037125928021870586
76	0x3f42f04d7843e7fc	0.0005779627104225411
77	0x3f66e9877aaeb692	0.00279690228258895
78	0x3f659faef2be0a85	0.0026396195370932984
79	0xbf26afdedb5cd2f6	-0.00017308803006135077
80	0x3f66989d2618c473	0.002758318835525625
81	0xbf617778153afb63	-0.002132162606215558
82	0xbf33a62a1a54769c	-0.00029982116605418454
83	0x3f8d97099737e538	0.014448237349813028
84	0x3f6c22782322b74e	0.0034344049864420195
85	0xbf87a6130d7f1e5c	-0.011547230576879723
86	0x3f682218b8471476	0.002945946007658902
87	0xbfa0b243f80de839	-0.032610057859486515
88	0xbf40d888ea2682b3	-0.0005140942123951969
89	0xbf93374e9701b741	-0.01876566692992943
90	0xbf9125700a6f6bc7	-0.01674437583629265
91	0x3f786eaa977da2f7	0.005964914678636238
92	0xbf75c92f3064e675	-0.0053188174554691285
93	0xbf92e440adf60df2	-0.018448839776750554
94	0x3f927ee0833ec0c7	0.01806212235504814
95	0xbf659fc0628fa888	-0.0026396520156498106
96	0x3f6ab8fd492889f0	0.003262037943629219
97	0xbf635bb499a1c10e	-0.0023630645128421895
98	0xbf676e51144ecc82	-0.002860220296918182
99	0x3f9f24b79fb3335d	0.030413502809824567
100	0x3f726ea1ada612f4	0.00450003772346429
101	0xbf8d4adca34c2465	-0.014302943929140175
102	0x3f8711e1bb61b772	0.011264575510917505
103	0xbf7bee1e256fa4ad	-0.00681888366578069
104	0x3f2d9d4f5794569f	0.00022594064265806389
105	0xbee5d5d48cbe9eb2	-1.0411870242268407e-05
106	0x3f6bbaf3d0ce403b	0.0033850442909582313
107	0x3f804622da98c6b0	0.007946274086040844
108	0x3f620adf56dadaa8	0.002202449998402873
109	0xbfa3eb7ee40a0ae5	-0.0389060643547248
110	0x3f842f912e7743f0	0.009856352072263846
111	0x3f7b65bb0e760ab6	0.0066888148206795586
112	0x3f6291641922d63f	0.002266593460343441
113	0xbf53ecbbe7c7bce5	-0.0012161097539509721
114	0x3f41ab4cb40c1d47	0.0005392193344001894
115	0xbf78c8aad5c8ea53	-0.006050746273610646
116	0x3f59631490f884c1	0.0015495014994331565
117	0xbf75a75f5ec93069	-0.0052865720177345055
118	0x3f74bede9843bb3b	0.005064839850304643
119	0xbf85adf94098a38d	-0.010585734638043376
120	0x3f5b582ca69c061e	0.0016689716380259355
121	0xbf67bfa6ba934cb1	-0.002899003641326191
122	0x3f985120a812a444	0.023746977098799485
123	0x3f80ecacabbccfc3	0.00826392077542682
124	0xbf53079d668594be	-0.0011614834894200644
125	0xbfa9ff4de4405c1f	-0.05077594195625345
126	0xbf7200321908ba9d	-0.004394717878808988
127	0xbf7115933115fa9f	-0.004170966117611612
128	0xbf20365af3428df0	-0.00012369022590973068
129	0xbf06b3b3b422209e	-4.3300553913162525e-05
130	0x3f0627c09056095a	4.225784690971525e-05
131	0xbf6e98b17f854b83	-0.0037349192390733767
132	0xbf277c7ead91dc85	-0.00017918630945576802
133	0x3f3349202e490559	0.00029427562393287903
134	0x3f2493bd939f54d9	0.00015699090164270657
135	0x3f32e1d119c363fa	0.0002881179332355207
136	0x3f3b5449090c4920	0.00041701109971471924
137	0x3f4ea648c96ed64e	0.0009353499798325311
138	0xbf39c42da7017329	-0.00039316286620820706
139	0xbf2fcf7e532d12d3	-0.00024269501735764992
140	0x3f35f46df587c71e	0.00033500370548643517
141	0xbf26590ee482c514	-0.00017050082010920036
142	0xbf2ea70ee6a49077	-0.00023386055847496635
143	0x3f29e5d0d5f5ffa0	0.00019758390679313915
144	0x3f5ccfe4ce35d050	0.001758550112609409
145	0xbf7d10e6b39c8dfb	-0.0070961963445230715
146	0x3f620c690d8cc3f4	0.0022031833472273502
147	0xbf9ddfcca1820e2e	-0.0291740392281225
148	0xbf7c407eaf877b24	-0.006897444597113975
149	0xbf5f1b7750fa8387	-0.001898638267370441
150	0xbf748c18cdc16bbb	-0.005016419305401361
151	0xbf8305851b314092	-0.009287872211786206
152	0xbf770a6956340f2b	-0.005625163528069336
153	0xbf8b097e8b71ff7c	-0.013201702719243029
154	0xbfa15a539e2d97a6	-0.03389226251492454
155	0xbf734d821ad7a0fe	-0.00471258947570896
156	0xbf6f660943bba2d9	-0.0038328343342651614
157	0xbf87292da9bcd40d	-0.011309010260086816
158	0x3f9ffb42e54bb687	0.03123192333708016
159	0xbf803fc78a6447de	-0.007934149657135178
160	0x3f767bcd1963755a	0.00548915974488059
161	0x3f3fb3ab53d3e9b0	0.00048373158263328563
162	0x3f6ace03efcc9191	0.003272063912293351
163	0xbf6e7d35a4e04b76	-0.0037218139396001894
164	0xbf892018b7718f46	-0.012268250559095539
165	0xbf6239fc9594dbfa	-0.002224915817943704
166	0x3f947bb046755439	0.02000308446925578
167	0xbf6a9a6171ff6663	-0.00324744255338487
168	0x3f754266e9abfd48	0.005190279009865968
169	0x3f86f8830d18fd6b	0.011216186368186517
170	0x3f89c6fe05aacb61	0.012586578891704727
171	0x3f770ba736ebaf02	0.005626347715160797
172	0x3f75c626ef0b8f61	0.005315925679244633
173	0x3f7e31d650704910	0.007371747174163681
174	0x3f860891e1c0cf68	0.010758533193530886
175	0xbf6cada16d3fd976	-0.0035007622591322575
176	0x3f58d9a981e36b72	0.0015167384477112436
177	0x3f585587b4d99e57	0.0014852357156999363
178	0xbf4483274de5e5da	-0.000625986281917064
179	0x3f7b1599ac43cdf4	0.006612396511843855
180	0x3f658a636a7b42a2	0.00262946526695658
181	0xbf762ef84dfd145e	-0.005415887775432086
182	0x3f6946b457b0f2cc	0.0030854723277385695
183	0xbf80e641b7f33948	-0.008251679826937988
184	0xbf61e0442b469fa2	-0.0021821338106810676
185	0xbf849971a4806668	-0.010058296044053353
186	0x3f52515a5dca1727	0.0011180288776428489
187	0x3f6c6a38b75b876f	0.0034686191309995433
188	0xbf628bff6a30743b	-0.0022640217371319416
189	0xbf92f7c9cea2f7ee	-0.018523362385842228
190	0xbf6d75e5793fb7e1	-0.003596256437950793
191	0xbf341374d5fe4927	-0.0003063354724811722
192	0xbf167b0bc337eb13	-8.575686734239541e-05
193	0xbf06c51f131057be	-4.3430338685520705e-05
194	0x3ef6946a5d96310f	2.1533725747911267e-05
195	0xbf5c924386715e9d	-0.0017438563752615662
196	0xbf085be74c85324c	-4.646110170600636e-05
197	0x3f256797955a00ec	0.00016330457099301228
198	0x3f00780e3579e88f	3.141206132979787e-05
199	0xbf353fd7916f505d	-0.00032423985379393343
200	0x3f1b2fca77ad8ec5	0.00010370896590710794
201	0x3f52efd8c53e3a6e	0.0011558167361475319
202	0xbf33defcfaa21cf2	-0.00030320812459945425
203	0xbf20871dd8b63ae3	-0.0001260971006158052
204	0x3f2f2debd2cb134d	0.00023787978843450367
205	0x3f058bf61f7ef5f8	4.1097115115001166e-05
206	0x3f35abb6b3340ee9	0.00033066950273073645
207	0x3f0dc278eb03a881	5.676204216505197e-05
208	0x3f78498f57da08b3	0.005929527220020758
209	0xbf8463bfa2fb59c4	-0.009955880318938244
210	0x3f8021c2cd608b75	0.007876893894779727
211	0x3f7c46dede5af738	0.006903524952290678
212	0xbf97ca0b33bfe523	-0.023231673272651975
213	0xbf69428668f613a0	-0.0030834794230849144
214	0x3f73b58eb467ec41	0.004811818542743985
215	0x3f8cbf2a6df6bcf3	0.01403649471362065
216	0x3f8deed19e327076	0.014615667000093629
217	0xbfa00745f08dadcc	-0.03130549012606884
218	0xbf807391c0a27b12	-0.008032931033367361
219	0xbf77663bedaa1b30	-0.005712732405874374
220	0x3f66046cdbc8d461	0.0026876569884515676
221	0xbf93db1dbae54459	-0.019390549213600703
222	0x3f7a0aab61238465	0.006357831431359794
223	0xbf978baf7430f8e6	-0.022993794886354467
224	0xbf662f1a2326f20c	-0.002708006905974841
225	0xbf3a6e35df9b8de8	-0.0004032975699443651
226	0x3f6a412ef774f432	0.003204910022445628
227	0x3f02139f6e8c047e	3.4478476498741605e-05
228	0xbf86fbcb0e499fcd	-0.011222444890520844
229	0xbf2da0ec7f505a70	-0.00022604834489988205
230	0xbf6b1928d989ce80	-0.00330789545506055
231	0xbf97d3688a11dd43	-0.023267396380530114
232	0x3f7706e1f45f93d4	0.005621798167315856
233	0xbf83a2a96ac69fab	-0.009587596484223434
234	0xbf9759190b7f0518	-0.022800818754835722
235	0xbf304f2a5b424a40	-0.0002488592538238167
236	0x3f71a334886d21c8	0.004306035238933643
237	0xbf61972eb01bf9ac	-0.002147284686429182
238	0xbf67854991396ef9	-0.0028711735592831214
239	0xbf794fc621d18fc6	-0.00617959399560059
240	0x3f0ac068674ba572	5.102461446943985e-05
241	0xbf076a8749521988	-4.466271745067184e-05
242	0x3ef78b7bd3a41270	2.2454126544795732e-05
243	0xbf640abac786aded	-0.002446522525323172
244	0xbf22b80af374fb53	-0.00014281400374646178
245	0x3f2950b3515fd3d3	0.0001931399244196318
246	0x3f2af081a97d4ed7	0.00020553190983695652
247	0x3f35112f2715a43d	0.000321458827861113
248	0x3f2680c18f03b564	0.0001716839101456965
249	0xbf3fcee349b98f0b	-0.0004853539373696903
250	0x3f414155619ee876	0.0005265871907263037
251	0xbf22bf9f2076884c	-0.00014303986993719137
252	0x3f06130de66b282d	4.2103635498572406e-05
253	0xbf56206df29b4e53	-0.0013505052287897848
254	0xbf24db39a9c48e1b	-0.0001591213121027037
255	0xbf10f2b1c1f3c836	-6.465158411453415e-05
