dl_experiments/best_checkpoints/wiki_en_1h_GRU_cuda:0_checkpoint.pt (torch, 42126 bytes, 54 tensors)

gru.weight_ih_l0 f8 [12, 24]
00000000: 91d0 4493 8f8f b3bf 2813 106f fa95 acbf
00000010: 28fe 0cac 057d adbf b0fe 4c0d e419 b1bf
00000020: 0f25 2834 afa5 b2bf a99d d72f 9a23 b4bf
00000030: 3f1e 9b9b ef44 babf 9b28 1e7a 8366 bebf
00000040: cabe 6598 4c53 b9bf 890c 1051 af40 b0bf
00000050: dc76 ed61 c4c7 73bf 50b3 b9f9 2e89 b03f
00000060: 61f4 01d8 bcf5 bc3f ef5b 5cbc 2970 bd3f
00000070: 307c 0575 0290 bb3f d66f b0fa eb1a b83f
00000080: dca1 9647 cdf4 a53f 9c5b e12a fbec 8dbf
00000090: e98c 5035 ad1e b9bf 90df 7bfb dbf0 c5bf
000000a0: ebc9 b588 c009 ccbf 43c8 b88d 6de2 c8bf
000000b0: 3d59 0ff6 e3d4 c4bf 0d25 8f68 57d6 b8bf
000000c0: b4cf bbb7 5358 b8bf 40b4 a647 180f b6bf
000000d0: d38c 3bbf f883 b8bf ba5a fa0c 70b2 bcbf
000000e0: 33cb 5ce2 7575 c1bf b745 6e95 5f4a c1bf
000000f0: 06ae 35f3 624e c0bf 9c8a 7319 cbcd bfbf
00000100: b534 07da d7eb c0bf f697 598c 2f22 c3bf
00000110: a280 6a10 af24 bdbf d221 5079 6975 b5bf
00000120: 5efd 2962 192e b2bf 3616 dc00 b504 b3bf
00000130: 5cb8 a7c7 e79e b4bf 3b90 e355 f4d4 b3bf
00000140: ffa8 f765 ae2f b0bf 9291 da0e b9b1 a9bf
00000150: d086 6717 b26e a7bf 8c11 4b99 e7b2 aebf
00000160: 67a2 4268 0108 b6bf c42b 24ea a816 b9bf
00000170: 38cc bad7 d81b b9bf dc72 c0ea ac9e b8bf
00000180: 8db5 f3e5 395c ccbf f900 d7b8 12cd c0bf
00000190: ba4a 8c59 bd4c 99bf ef2b 9dd6 d888 933f
000001a0: 788e 1330 43ce a13f 032a 636f 581b b4bf
000001b0: 823d 9b34 0682 c0bf 326d 9d68 5f79 c0bf
000001c0: e327 70c6 36d0 bebf d332 7180 2314 c2bf
000001d0: d670 ec19 1f8b c2bf 801e fd65 8662 c5bf
000001e0: 2084 19d2 4013 cebf 809a a38c 2549 c3bf
000001f0: 60a7 3afe d557 75bf 56d8 36e5 bfb8 b43f
00000200: 1115 1925 6cbe c53f c2d4 6831 3565 bf3f
00000210: bc45 a85b 6fa0 9a3f 23db 853e 17c9 b6bf
00000220: a8b4 1db2 c6fb cbbf 28f9 39df 0e91 cbbf
00000230: c564 5808 f647 c4bf 033b 510c 217b c9bf
00000240: b2bb ef98 2831 cb3f 34e4 1c35 ad23 d2bf
00000250: 56e3 3353 67e2 d0bf f205 a3ba f479 cbbf
00000260: 55d4 9fcd 3294 cabf 160e 02c6 4359 d4bf
00000270: 3a91 8c3b d802 d9bf c872 aaa7 cd1c d5bf
00000280: b691 032a ab64 cdbf 4416 c91d f030 c13f
00000290: 274b 8e86 6d5d a13f 5d72 2873 886b cbbf
000002a0: 8106 8fa7 d61b debf ef03 83c5 6ed8 c4bf
000002b0: b62c 2b6a 6ff3 b2bf a70a 3376 1187 c2bf
000002c0: 37db 36a3 0abd a03f a674 6a64 2ce6 cabf
000002d0: 108b 8ff6 8836 c5bf 2680 7d13 cf7d c3bf
000002e0: 4265 03c6 f894 b9bf 34cd ae75 6bc9 c1bf
000002f0: 2e67 7731 ae2d bcbf 4691 070e 39eb e9bf
00000300: c2ac 2a8b 7666 b1bf 7ca8 13ec c5a7 923f
00000310: 47ac 2a6f b526 b13f ceea e37f e410 a03f
00000320: 0bc6 cd86 09d5 9fbf c386 59c8 6d15 babf
00000330: 2c73 55cc bcc7 c2bf 5af0 88b3 705d cdbf
00000340: efdb dafa bd6c d1bf 0318 4d7c fc4b d1bf
00000350: 27e4 1178 a6d9 c2bf d450 f123 6e81 643f
00000360: 9acb d16a bfc4 ba3f f4fa 51b3 521c c73f
00000370: d5c1 8131 d614 d03f e0d0 b1fd 1147 d23f
00000380: 2b2a a190 0449 c23f 6bdc a6e7 e453 b8bf
00000390: 44b7 5690 ae91 d5bf aa59 69ad c8cb dfbf
000003a0: eb3a 6d9c 8a5b dcbf de1d 75ed 279a d4bf
000003b0: 22b4 6b6f 07c8 cabf 2aea 5207 426f b8bf
000003c0: 5abd 6622 9488 d5bf 4974 50f9 6568 d0bf
000003d0: 13e3 3a18 7319 cdbf a398 d280 2fb8 cebf
000003e0: bb98 b29a e36e d1bf ad05 1eeb 39e9 d0bf
000003f0: 0780 ebd8 1f21 cdbf 6d78 9b1d cb86 c1bf
00000400: 0474 3ec4 72ab 98bf 5742 e676 08b5 803f
00000410: 142d f3df 062e afbf 65ee b307 ab5f c9bf
00000420: b78c d085 53aa d4bf 38f2 b0ef 3a01 d5bf
00000430: 00c7 08ee 1eee d2bf 70e1 ff82 3d90 cdbf
00000440: 893c f41a a237 c7bf a757 171a 7443 c9bf
00000450: 719a cb79 a9c0 c4bf 5bb1 1247 7c93 c0bf
00000460: ff3f 3804 7f36 b8bf f7b5 6c7e 6073 c0bf
00000470: 78dc 1977 622e c7bf a815 0f1b 7916 cabf
00000480: 9074 c2b7 1291 c0bf 49b2 5051 1f0e a4bf
00000490: d235 33f6 c82c a6bf ac4d 1643 b48f b1bf
000004a0: 22f8 16b7 400f bfbf 056c 9f49 e112 c5bf
000004b0: 8c24 f2c6 a40e c6bf 567d 4003 df9e c2bf
000004c0: fc6d de7d 9a1f c0bf db5b 9d86 ae59 c8bf
000004d0: 6e90 0060 261e d1bf bdf6 8b27 7bcd d1bf
000004e0: 3596 d31a 314e cdbf 7796 022e 11b9 c1bf
000004f0: b8b2 62c9 d87c b7bf 34ff b7aa ae85 babf
00000500: 2578 49c9 099a c6bf 56b2 376e fe6e c8bf
00000510: 4033 961b 988a c6bf a12b bcc9 f6d9 c9bf
00000520: 1640 9207 085f cebf e544 f250 3ca9 d1bf
00000530: 6c80 c331 48f1 d0bf dff8 609b eadc c7bf
00000540: f19f f832 4133 cbbf 1ec6 7dcc 0330 d2bf
00000550: e188 d10e afaf dabf cd24 97ee a352 dbbf
00000560: 02ad 3877 36b9 d9bf 4012 973f 6ed7 d6bf
00000570: f636 d735 525f d5bf 4aa6 628e 5a50 d0bf
00000580: eb0f cabf 7b6b d3bf a5bd f263 702f cfbf
00000590: efcc 9143 0112 b0bf 2422 aa7f 0f25 6f3f
000005a0: d533 0c4f 6e03 bb3f 50f6 e740 52ee b43f
000005b0: 064b 5e42 354e 8b3f b1b6 f4dc dd77 b4bf
000005c0: 526d 563b 7e81 c0bf de73 38b5 0e16 a23f
000005d0: de0d a88c 24f0 bf3f 1e14 57be 1452 c33f
000005e0: 2503 b739 5862 bf3f 933a 0d21 f133 66bf
000005f0: b680 699a 4fa1 92bf 45a4 4f9d ed67 823f
00000600: 9b3b c797 939c e93f 3fa1 ac6b e583 df3f
00000610: 6caf 92c5 91b3 db3f 23ce 0918 7ad0 c63f
00000620: 96fa 0ae5 d1eb d0bf 929b 85da 2f0a e4bf
00000630: 09ac b3f0 2cb2 acbf 710b 75b2 b32c c33f
00000640: e697 46eb 43cb c13f e365 2bef 972e bdbf
00000650: 350a a858 a2d0 933f 55a1 2b18 0d16 713f
00000660: 3cbe d4ea 6463 cdbf f91b 9efb a31c 7bbf
00000670: b407 76da 20e9 c63f b0f0 10e1 5203 d33f
00000680: ef39 dc49 4f74 a2bf 8a78 704d 4931 d5bf
00000690: f5dc e186 139c d1bf dda7 8d10 77c2 ddbf
000006a0: 0dc7 d5d3 608a d4bf 4334 1649 54cd c1bf
000006b0: 182e 1d7d 87e1 d6bf 49cc 6970 20d5 d73f
000006c0: 9a1b a43f e48c b6bf 107f d7f5 d4f1 d33f
000006d0: 4e56 4406 3fd9 dd3f 5a50 c08d e872 d03f
000006e0: 1aef c56d 9d41 b9bf ce60 abb8 2761 c93f
000006f0: 1b79 6afb 0f39 de3f 9ab5 340b fdc1 d03f
00000700: 8bb3 23c0 c660 cebf 54d8 ebac 0574 e2bf
00000710: 3c13 6d8a 4009 dabf 3df8 d4ce f5fb d03f
00000720: 4015 88bf c01b e63f 97e5 f647 149b da3f
00000730: a1e7 08e9 ea4e a6bf 0ecf 5f65 c0f4 d5bf
00000740: 13a2 ad46 48be d5bf 74cd 695d b182 e5bf
00000750: 2ffe 01cb 7c13 e1bf 75f2 aa0f e439 d7bf
00000760: 5353 0abe 5470 debf c1f8 5b2a f032 d9bf
00000770: 243f 3ab1 24c5 d5bf 3a12 8eba 9215 96bf
00000780: 82f4 7a2a eaa9 e13f 46ba 6a36 1aff d23f
00000790: fdc9 f1b6 226a a9bf c143 98db 9086 ebbf
000007a0: b29b c089 44df f2bf b99a 8fdb 46bb e9bf
000007b0: d2c2 6c1a a9ed abbf b341 9f94 7a92 c93f
000007c0: d006 6367 20d3 cd3f 602c a1c6 fd5b b8bf
000007d0: e4b6 781e 8edc 7b3f c4e5 9586 2093 b73f
000007e0: 1206 295a f3ff c23f dd85 fe5e 7b1a d33f
000007f0: 3d73 2a5f 93c4 d3bf cbf9 84b3 3373 dbbf
-0.07640931458883161 -0.05583174329516388 -0.05759446835736198 -0.06680131268239609 -0.07284064315185311 -0.07866824787162464 -0.10261437939618022 -0.1187517331256082
-0.09892729492798505 -0.06348701218671428 -0.004829184645897402 0.064593254058946 0.113124659286727 0.11499272202159692 0.10766616208046353 0.09416079397527652
0.04288331507570195 -0.014612161871054678 -0.09812433768870545 -0.17141294269071894 -0.21904761004732562 -0.19441003246316954 -0.16274690165182362 -0.09702059080804677
-0.09509776340183757 -0.0861678290300043 -0.09576372784390523 -0.11209774319500357 -0.13639710953574422 -0.13508219524787332 -0.12739216685746174 -0.12423390742655233
-0.13219736238389648 -0.14948076584840891 -0.11384100104123943 -0.08382281505340153 -0.07101591726858689 -0.07429057379712209 -0.0805497038306568 -0.07746817681214761
-0.06322755803526901 -0.050184042990880987 -0.045766415936453364 -0.05995868440871552 -0.08605965419213533 -0.09800201145496518 -0.09808116213643892 -0.09617119532817803
-0.2215645191967436 -0.1312583353556034 -0.024706801024033644 0.019076717471118994 0.0347767826258662 -0.07854225844781841 -0.12896802490875464 -0.12870400055076342
-0.12036459297829043 -0.14123958369818598 -0.1448706509189665 -0.16706924419326086 -0.23496256121419012 -0.15066975943701166 -0.005210719976881467 0.08094405504275079
0.16987373172211354 0.12263805824553045 0.026002635926550374 -0.08900590206563357 -0.21862109849044953 -0.21536432170609854 -0.15844607741818187 -0.19907010175162307
0.21243770091629482 -0.2834275263481374 -0.2638185799146887 -0.21465930092931235 -0.20764765777826946 -0.3179482873603957 -0.39079862418499867 -0.3298830163346733
-0.22963466216527956 0.1343059678494446 0.033915922808907255 -0.21421914694737412 -0.4704491268458711 -0.16285500187043975 -0.07402702657707291 -0.14474695464567341
0.032692272590273345 -0.21014933493726068 -0.16572677649590917 -0.1522768826644107 -0.09992937883670996 -0.13895934339743976 -0.1100720282333014 -0.8099637292876103
-0.0679697122347305 0.018218128713592283 0.06699689830809162 0.03137888013039501 -0.031086109974642933 -0.10188947812414555 -0.1467205045436456 -0.22941406980851548
-0.2722620916132987 -0.27026283396514844 -0.14726715910708885 0.0025031233958917407 0.10456463201425806 0.18055185085173486 0.2512717708077877 0.28558778548109665
0.1428533273886655 -0.09503012328683418 -0.33701671691493496 -0.4968129819366377 -0.4430872466663646 -0.3219089335366031 -0.20922940197434153 -0.09544766119771766
-0.33646109923843925 -0.25637196871850115 -0.22733915980440908 -0.23999589719932599 -0.2723931322783632 -0.26423500023528385 -0.22757337657731133 -0.13692606874150517
-0.024091523387699723 0.008157793167613265 -0.060898032033572275 -0.1982320582973102 -0.3228958899291671 -0.32820008666365963 -0.2957837414315776 -0.23096436401807408
-0.18138529125323924 -0.19737101816161592 -0.16212957808530207 -0.1295008990322327 -0.09458154538174311 -0.12852102444723787 -0.18110304656486043 -0.20381082364307912
-0.12942728016506466 -0.03917024486176907 -0.04331043248530943 -0.06859900129193502 -0.12132648916210134 -0.16463867277965974 -0.17232188905862633 -0.14547336252960957
-0.12596446176472387 -0.19023686955435334 -0.2674652040025255 -0.2781665693472453 -0.2289487248410055 -0.13846029993617368 -0.09174876133574628 -0.10360232990205703
-0.1765758736464146 -0.19088726407734907 -0.17610455843932904 -0.20196423387855325 -0.23727512712184823 -0.275954321908172 -0.2647266851399823 -0.18642933451514573
-0.212501668823506 -0.2841805932031053 -0.41697288939589155 -0.4269189672455241 -0.40192948954309327 -0.3568988438603675 -0.33394294031027927 -0.25490440277880977
-0.30343526582168917 -0.24363522415431507 -0.0627747335400277 0.003801851530912852 0.10552110128283172 0.08176149448987613 0.013332763755703702 -0.07995401997024022
-0.1289518155798342 0.03532453500904585 0.1247580378913464 0.15094241422608062 0.12259436997466062 -0.0027103147080319106 -0.018193477439468274 0.00898728977513675
0.800363346521283 0.49242530360290354 0.4328350476669047 0.17823721097703168 -0.26439330451459264 -0.626243521500202 -0.05604687155013017 0.1498016950009418
0.13901566494058598 -0.11399221028423016 0.019350563679845407 0.004171420240460873 -0.22959577051504876 -0.006619110639696218 0.17898951212924674 0.29707786540144365
-0.03604362274755945 -0.33113319933352925 -0.27515113994691315 -0.4649942075399148 -0.32094593703287516 -0.13907865112961035 -0.35751521318590695 0.37238322236880045
-0.08808733514534453 0.3116352463530214 0.46638465511327787 0.2570134529389684 -0.09865745477685231 0.19827744023382937 0.4722328143342495 0.2618401154930666
-0.23732838041123858 -0.5766628625267551 -0.4068147041146408 0.26537842939785944 0.6908878079272327 0.4157152846124403 -0.04357084364569564 -0.34306344890431795
-0.3397389116494491 -0.6722037147978157 -0.5336288418765828 -0.3629083779340257 -0.4756061416494976 -0.3937340177216236 -0.3401576739060934 -0.021566670071040607
0.551991541833232 0.29682021440649853 -0.04963787539681517 -0.8601764954529402 -1.1795087223961045 -0.8041109360027213 -0.05454758117264692 0.19978267914713185
0.23300557182488157 -0.09515367602686942 0.006802134659251034 0.09208873067645756 0.1484359922633734 0.29849132801800043 -0.30887302678620526 -0.428906369506788

gru.weight_hh_l0 f8 [12, 4]
00000000: cb1b 2d14 334c a3bf 095f 2e59 0f60 633f
00000010: 7704 50b1 3e41 b13f b24f d59c 32d4 97bf
00000020: bb08 e747 8204 81bf f06d 1389 943f a0bf
00000030: f101 b6ab c7d8 a03f f508 2538 6c57 a0bf
00000040: b376 8bf1 36e6 b33f fb5c 9323 d8ed bb3f
00000050: 1438 c826 291b c33f ccde 5543 784a 893f
00000060: d62f 7813 f658 813f 23d1 754a eb2c cc3f
00000070: afa0 143c 92f5 e03f 47fb 3da2 4537 a73f
00000080: d3cc 7fa2 2a8c c33f 9c46 8dc2 bddb c33f
00000090: 91d2 2994 dd6b 693f 039f 9643 5f67 99bf
000000a0: b258 0926 29ec a8bf 8ea5 d56b 6fd3 b5bf
000000b0: d755 0f81 9a8c bb3f faf1 af2a 8662 9ebf
000000c0: 2ddd 5fee cd28 aabf a142 1bc4 3746 d13f
000000d0: 6488 ae92 d8de bf3f 4eed 716b 1cc5 bfbf
000000e0: 6764 654b 4f73 c4bf 21e9 acdb 50bb a13f
000000f0: a01e 1baf 0936 d03f 3af7 5027 c327 c4bf
00000100: 290c b363 3140 e8bf 31ac 6ab7 5fc4 b8bf
00000110: bc7a 4ce7 bed7 b9bf c1b4 c139 61e5 aa3f
00000120: f037 00af 6bab 4ebf f891 f089 7e32 d7bf
00000130: de6a cb98 694b bb3f 4360 4347 b0c8 8d3f
00000140: c0c4 b3ce bf8f b8bf 9e6f 7ace 97c1 b43f
00000150: 5b2c 1f7c 3690 babf 3ed6 59f7 9e40 cfbf
00000160: 58e4 5a7e 5382 acbf 104b f278 12d7 c23f
00000170: d0c4 abfa 8941 d03f 2b92 c93e 751e e0bf
-0.03769073125163621 0.0023651408932429158 0.06740180806083794 -0.02327040750726867 -0.00830938131264635 -0.03173507855691671 0.03290389987069265 -0.031916982511136206
0.07773154637421946 0.10909796589418257 0.14926638024957184 0.01234907107821872 0.008470461339150786 0.22012082229378746 0.5299769566963927 0.045343566946931584
0.1527150433972567 0.15514347076036905 0.003103192111036109 -0.024808395862833354 -0.048676763432625406 -0.08525749571494698 0.10761418963314583 -0.029672714572358296
-0.05109256300777996 0.2699107565977475 0.12449410992715709 -0.12410142539186106 -0.1597689741272774 0.03463223153672091 0.2532982072848231 -0.1574634496664034
-0.7578360507253638 -0.09674642780252964 -0.10094826838438115 0.05253127889668852 -0.0009359622763456237 -0.3624569270198488 0.10661945324265384 0.014542939352779288
-0.09594343944970074 0.08107899466489107 -0.1037630131751696 -0.24415957524949933 -0.05568180959148411 0.14718848138417018 0.2540001819571218 -0.5037180162731308

gru.bias_ih_l0 f8 [12]
00000000: aeb7 7c18 af8a a03f 28e5 60fb 990d b0bf
00000010: a8f4 8e37 73ba 8dbf 9167 36bd a6f3 bf3f
00000020: 1ffc 694c 6826 bcbf f6ed ef07 ad32 c7bf
00000030: 0a5b ff63 9ab5 e4bf 93b9 0182 3d2c e2bf
00000040: f9ad 7aad 72a9 aa3f 8f37 b562 0863 a93f
00000050: 3c6c 2558 a04b dcbf 42d2 09d6 5322 e1bf
0.03230807470241302 -0.06270754229708031 -0.014515781529434627 0.12481157416769252 -0.10996105065895322 -0.18123400580940058 -0.6471683457446897 -0.5679004229730701
0.05207403533617234 0.04958368496828235 -0.44211586578393614 -0.5354403667866523

gru.bias_hh_l0 f8 [12]
00000000: 8a05 7ae6 618b 9f3f e839 7250 7011 aebf
00000010: ff8a 3069 518e a9bf ddd5 ffde eb88 cf3f
00000020: 7fff 524b f880 bcbf 9292 1165 8c96 c7bf
00000030: 1649 238f dbad e4bf fce2 0ae4 7e5f e3bf
00000040: 0bbc f980 e8b6 a4bf 9c23 482f 5840 b33f
00000050: 9540 452a 5075 dabf 0f3f f68c d5e9 dfbf
0.030805139248064196 -0.05872679693230848 -0.049913925257234475 0.2463660086502121 -0.11134292448968884 -0.1842818730830414 -0.6462228580151386 -0.6054071859317385
-0.04045797895820876 0.07520056871739061 -0.41341022613506456 -0.498647105844598

gru.weight_ih_l0_reverse f8 [12, 24]
00000000: 3074 adac 7ee6 b3bf a878 3f17 94ee c5bf
00000010: e8f7 e56f f428 cfbf 8090 f633 993f d0bf
00000020: 8bfc 8866 14bf cbbf 9971 a755 5757 c6bf
00000030: 763d bb87 11c6 bebf bf04 684a b5d8 b8bf
00000040: f6cf a078 b9ae b4bf c4fd 1072 4617 acbf
00000050: ad40 70fa 99c8 a3bf a77c 3cca 0b9b 9cbf
00000060: 9d34 32da 727b a7bf b988 9f5c 82fd a3bf
00000070: 75dd 299d 8139 9dbf f397 6498 74ac a9bf
00000080: 0a8c 4672 0e8d b7bf e5d8 ec61 791d c1bf
00000090: cb44 7cb6 f425 c1bf b266 b070 a174 b6bf
000000a0: 4255 5a6c 6b42 b4bf b8cd 7405 916d b7bf
000000b0: 6e39 be4e c0cb b7bf f524 86b3 ba3b bdbf
000000c0: 0218 114e d30a c13f 6c4f 9b3d 8551 bd3f
000000d0: e9cb 6568 8005 b83f 6c7d 8dc2 c827 ab3f
000000e0: 7379 852d 7f2f c3bf d21d 58f7 9d94 c7bf
000000f0: f37c 84fd 2a02 c5bf 2610 f2c5 76fb c1bf
00000100: bf58 7c5d 9560 cdbf 40ef 9b57 eb7d d0bf
00000110: 0211 209b 8a93 cdbf be8e 74f0 84f1 d2bf
00000120: 982f 12d1 394e d5bf 7b66 1327 4ec0 d5bf
00000130: 6672 88c6 d556 d4bf 01ee b751 1c7e c3bf
00000140: 3457 4eb1 9a23 a73f cbb7 be52 8207 ca3f
00000150: c9c2 445a 0b82 db3f 1043 e49c 7f7b db3f
00000160: 6fc5 abe1 aba1 d53f e570 d2b2 5d11 7ebf
00000170: b30d 2179 1cde c1bf 4013 1226 8624 e1bf
00000180: f49e a109 4b5f b7bf e79d bbd2 89f9 b8bf
00000190: e27e 347b c4a5 babf f67c bb56 fea9 b7bf
000001a0: 7a49 74b2 b2da b1bf 7f58 5199 8ece a5bf
000001b0: 46e8 1a17 76bf a0bf 2ded a1ab 3560 a3bf
000001c0: 0a58 d4e5 0417 a6bf eb20 8d20 e175 aebf
000001d0: c879 f611 9656 b2bf d292 a89b 68ac b7bf
000001e0: ab77 1665 2b83 bdbf df65 04dc a20b bfbf
000001f0: 6d5a 1aa5 24f2 c0bf be2f b255 f0c7 c1bf
00000200: cc71 4c5d c2e9 c1bf d3f0 34f9 7e1f c1bf
00000210: a153 7e30 542f bebf a57b 4d58 f93f bdbf
00000220: 3e7d b46e 42f9 bdbf e665 6c54 0341 bdbf
00000230: ccab c68c ed06 babf c64d 8428 e8a6 babf
00000240: 47c8 4252 57a8 adbf 18cc 8375 566f b8bf
00000250: 535a 674b c697 babf 18cb c93c c7c3 b8bf
00000260: 90e2 52a7 1888 b4bf 3995 d164 088f b3bf
00000270: 12ed 63f0 095a b8bf cba7 68be 759b b9bf
00000280: 5043 5ef8 9e91 b5bf 1644 b9e3 a0e1 acbf
00000290: 2256 86d7 9648 8ebf f306 d74c 52e7 65bf
000002a0: 2bc2 0a77 b6cb a9bf 2349 2be3 33da b4bf
000002b0: 2549 8048 c7ab b0bf eb7c 1048 35c9 a2bf
000002c0: 7746 024c ca87 a2bf 9410 5891 91b8 b0bf
000002d0: eb00 3fc6 1ece b0bf 8647 7b6a 9072 b6bf
000002e0: 00eb cd9e a4fa b2bf 11e2 3618 756b aebf
000002f0: 7da8 ec13 b73a a0bf ec8c 8903 c3b1 a1bf
00000300: e976 4847 92c0 cabf 0a18 13ed 84ef cebf
00000310: 7220 2575 44ec cfbf e6fe 5b36 5c5b cdbf
00000320: e74b 07c6 743c cdbf ab57 cd75 f33a cebf
00000330: 06b8 6f84 f31f c4bf 59eb 72c0 aead a6bf
00000340: 88d9 9d33 47f5 a5bf a07d 059a c810 a3bf
00000350: 15ce 4e8d f6e3 9dbf 8527 17d1 bc27 b9bf
00000360: 1c1e 10e3 55e2 b3bf 4e68 a361 e479 c6bf
00000370: 2599 6691 ea11 d5bf d78e 5f69 27a1 d4bf
00000380: 2c82 ced5 7717 c4bf ab0c 76ab e456 a23f
00000390: 1432 e1f7 d78f b03f a470 fad5 8ab3 ad3f
000003a0: 2ef9 d1ee c154 443f 7897 0a20 3ad9 b6bf
000003b0: 2823 243a 4427 c5bf bc1c 4739 c13d d2bf
000003c0: 2139 8963 cd75 c63f 9d72 ce44 90d9 ce3f
000003d0: 9d8a 6918 77db d13f 073d 6510 5b17 c23f
000003e0: e6d0 4385 5bf2 983f 43bd 66c8 a5e3 b2bf
000003f0: 8159 462f b11d cdbf 8dd7 39ed 72c4 d9bf
00000400: 9a31 7dab fa4a ddbf d4b3 d933 a98a d9bf
00000410: d847 6015 b87c d7bf 516a 84b3 07b8 cfbf
00000420: d9b2 02a7 d9cb c1bf 71dc 9339 e086 cbbf
00000430: 7fa9 6b41 d1a7 d3bf f37d 751a b0b9 d5bf
00000440: 38aa a8eb 5a14 d6bf d1fd 9b58 24c8 ccbf
00000450: f767 7ebd f1ba b2bf d91c 673a b681 a63f
00000460: 04ef c5ce c334 c33f 9a17 07a9 69c1 b43f
00000470: e562 af5e 3cb6 a6bf 3ec3 d301 70e7 b9bf
00000480: 434f 9761 72ef d7bf a6c3 dcfa e145 d2bf
00000490: a267 09d5 eedd cbbf f25d aa66 adc5 c7bf
000004a0: b708 35bd 0454 ccbf 528c e04e 8eb3 c6bf
000004b0: 90a0 ffd4 5192 c5bf 9530 bcd2 f2c7 c5bf
000004c0: 7b6e 8deb 966a c6bf db54 be92 53b4 c6bf
000004d0: 1c12 fa40 9d25 c4bf 4f6f 4218 904b c7bf
000004e0: d0a0 a12f 229c cbbf 7e24 b3e4 4c4e cdbf
000004f0: eff6 472e 30a3 c9bf 6b0f f241 a200 c2bf
00000500: 26f6 0fc5 9745 c2bf b1ed fd3f 4dbe bebf
00000510: bc04 926f cd6d b4bf ae1e 6706 7e23 bfbf
00000520: d100 61f7 5472 c8bf a862 e0a1 c6e3 cdbf
00000530: 5a98 6a3c 6b39 d0bf cf1d 0d3e 8180 d3bf
00000540: bae5 4731 290a c2bf 942b 2128 729d b6bf
00000550: 2ef4 9125 44f8 b7bf 8bb0 6f72 8faf c1bf
00000560: c3cb 777d e47f cbbf a839 60f0 0d65 d3bf
00000570: ede7 c47f 58e0 d2bf 31e5 ec3b 0545 c6bf
00000580: 3093 b056 8c85 b1bf 45f7 9637 408b b3bf
00000590: c276 40f6 1c52 a5bf eb40 6341 bcb1 b0bf
000005a0: 40d6 5ed2 b83f b5bf 7d72 3b84 b515 b7bf
000005b0: 9c61 d902 40d7 c3bf 0ce4 3cf0 962d d0bf
000005c0: 7955 b344 1e09 d4bf 24fd 5291 d182 d3bf
000005d0: 79c5 1c62 e295 cebf f9b3 73c9 7136 c6bf
000005e0: 5200 0fc2 6f64 c0bf f299 1459 c435 b7bf
000005f0: 1fc6 c543 5a2b a7bf a8e7 453c 7377 9d3f
00000600: ea04 b858 5869 e63f 5425 535a 8a6d a7bf
00000610: 1efc 95fb 9641 e4bf 5813 2bf0 3e5d f1bf
00000620: b43b 53ae b888 e9bf 3205 7155 9287 ddbf
00000630: 35b3 5f8b aaf0 d4bf 4cd4 4d81 3e4b d6bf
00000640: fa9f d65f 0fe3 95bf b483 9323 c514 e13f
00000650: e437 7f09 ffec e23f 463f 35fc 7e0e e43f
00000660: 0f29 4342 2669 e33f c7fe 2231 e669 d23f
00000670: bd1e 9f05 b888 e43f 5ec3 a8c0 0434 d63f
00000680: 2f94 1075 7854 993f 7d5e 94a3 7f91 babf
00000690: cc9b fca8 002d c0bf 91dd a01d cbb8 92bf
000006a0: f5e4 961d 2248 d3bf 357f edd2 833b d3bf
000006b0: 2f18 479c 2913 d2bf 34d6 1254 b905 c6bf
000006c0: 544c c07f 6988 dd3f 25f4 383b 0710 e23f
000006d0: 381f 19ee aa02 cb3f 1d84 b1a3 cb1b a9bf
000006e0: 1abd c129 3df8 b43f 2fee 2399 f39c d4bf
000006f0: 8c02 1d07 e2a1 d0bf b736 5c93 1c28 debf
00000700: d340 0527 02a5 eabf 2a8d 8966 535d e8bf
00000710: b1b4 c99a f188 e6bf 9159 a281 a8dc e3bf
00000720: 1af6 298a 3932 e0bf ac38 8d3a 294d ddbf
00000730: c90f 4d98 58b6 d5bf f56f d7d5 ca54 c23f
00000740: 20f8 5d22 e6ef cf3f 1893 45cf 4036 e93f
00000750: a0cd 5c6d a001 ee3f fd10 bed2 b812 e23f
00000760: 2a2a ee54 f8f7 ea3f 32c8 4718 774d c03f
00000770: 7cb0 9522 8c3c cbbf 90d9 fa02 cf85 dfbf
00000780: fb81 8b04 e87e cc3f 1cfa 891c 8d6a ea3f
00000790: 39d9 3c8d 1d7b ed3f b229 709d 1d92 e53f
000007a0: ff77 e1f1 822a a2bf 9ac0 5a76 3444 eebf
000007b0: 9fce 03d8 3a31 f0bf ed81 f5cd bbc3 f2bf
000007c0: 4cf8 3826 bf86 e2bf c4ea ed63 b599 b3bf
000007d0: d90e 2a15 09bc db3f e663 fac7 6a11 db3f
000007e0: 0258 45df 44c2 85bf bc12 6c4c 4feb b6bf
000007f0: b9cf 68a1 8948 9fbf a0c6 afd9 b6b6 c73f
-0.07773582187424277 -0.17134333739426677 -0.24343734229836334 -0.2538817412808001 -0.2167687893542943 -0.17454044039085373 -0.12020978511576694 -0.09705670420227629
-0.08079108424209366 -0.05486507551585931 -0.038639842816452365 -0.027935203760645646 -0.04586371339346693 -0.039043496901073955 -0.02853968164205641 -0.05014385566964554
-0.09199610032969488 -0.13371197968962814 -0.13397082243367317 -0.08771714211652684 -0.0791384830029829 -0.0915156019516904 -0.0929527466052826 -0.11419264681730452
0.13314286529401903 0.11452515367574073 0.09383394764681409 0.053037904500110894 -0.14988698694919442 -0.1842229325995804 -0.16412865999971124 -0.14048657098112577
-0.22950999321682805 -0.2576855044896895 -0.23106510710216105 -0.29599116785014334 -0.33289952675908685 -0.33986238304132826 -0.3177999914931092 -0.15228609075698787
0.045193514007378616 0.20335415878565608 0.42981227698605246 0.4294127494950297 0.33799263990575573 -0.0073407802675797594 -0.13959079660899718 -0.5357084983412292
-0.09129780755176481 -0.09755765337796839 -0.10409191139160215 -0.09243764512529026 -0.06974331719201202 -0.04259153005175253 -0.03271073371929893 -0.03784339637874221
-0.043144372039179826 -0.05949309847216163 -0.0716337007383806 -0.09247449684387313 -0.11528273790324188 -0.12127130385888261 -0.13238962232272247 -0.13891414818169595
-0.13994626575084934 -0.13377368133831755 -0.11790968116686297 -0.11425741582705358 -0.11708464815864247 -0.11427326975935834 -0.10166821181216718 -0.10410929669551824
-0.05792496565972321 -0.09544887894644238 -0.10387839642440015 -0.09673733934486639 -0.08020166478207558 -0.0764012571467746 -0.09512388342766467 -0.10002838038113208
-0.08425324977566828 -0.05640890865164054 -0.014786890461247874 -0.0026737792420313765 -0.05038232997083399 -0.08145450874443276 -0.06512113113447933 -0.036691346213268826
-0.03619224717944019 -0.06531629370153019 -0.06564514484398713 -0.08768560981414283 -0.07413700940189116 -0.059413584905488766 -0.03169796102732023 -0.03455933969669353
-0.20900181275003796 -0.2416845471945524 -0.2493978092190932 -0.22935059217706238 -0.22840747517929502 -0.2361740422444972 -0.15722507444974115 -0.04429384326200276
-0.04288694863400894 -0.03723742370743399 -0.029189922690148935 -0.09826259712931858 -0.0776723555901459 -0.17559485213752385 -0.32921852301878324 -0.32233605661734316
-0.15696618976382248 0.03581919281989462 0.06469487954854741 0.05801042425193373 0.0006204554498621445 -0.08925212175617314 -0.16526081885265254 -0.2850192126611082
0.17547004089505783 0.24101451263131404 0.27902009376536246 0.14133775997695627 0.024362020500988367 -0.07378612654314502 -0.2274686318239212 -0.4026152912768957
-0.4577013659188879 -0.3990881925918164 -0.3669872483015957 -0.2478036524342593 -0.13903351454555127 -0.21505358516126052 -0.307117761504422 -0.3394584902179922
-0.34499238027152357 -0.22485784842136394 -0.07316504360497321 0.0439583727161847 0.1500477561602268 0.081076244131593 -0.04435909896682747 -0.10118770641908001
-0.3739896729505185 -0.2855153035953272 -0.21771035577949954 -0.1857201339050643 -0.22131404150610987 -0.17735461093352228 -0.16852782154387969 -0.17016444482613183
-0.17512785436234765 -0.17737812676629158 -0.15739789650628289 -0.1819934957937854 -0.21570231748342517 -0.22895203749638776 -0.20029260883159547 -0.1406443426131959
-0.1427488052576546 -0.12009127437879986 -0.07980045293699595 -0.12163531929320001 -0.190989132681358 -0.23351366905332793 -0.25350457096135914 -0.30471831378642106
-0.1409350863103052 -0.08833993415571079 -0.09363199155082277 -0.13817017638882975 -0.21484047056546104 -0.30304287409026154 -0.2949429748292676 -0.1739813368419987
-0.06844403377961039 -0.07634354931994121 -0.04164209848407331 -0.06521202656154272 -0.08300356994626501 -0.09017500379872874 -0.15500641001814308 -0.2527825685570526
-0.31305653294597097 -0.30485953513921715 -0.23894910612720446 -0.17353651367685055 -0.128065080409217 -0.09066416907135258 -0.04525262906362237 0.028775978616500858
0.7003595097341109 -0.045757602239585055 -0.6330065645014462 -1.0852651006291207 -0.7979396252429667 -0.4613996347798831 -0.3271890984604398 -0.3483425390944077
-0.021373977875242624 0.5337854094360552 0.5914302049147833 0.6267695356309353 0.6065856260477477 0.2877135734415614 0.641689311008086 0.3469249612272075
0.02473629202372168 -0.1037826322902848 -0.1263733697062136 -0.018283055957196096 -0.3012776650389946 -0.30050750349436167 -0.28241958867545497 -0.17204968075900384
0.46145093417834926 0.5644565731705639 0.21101891160855657 -0.04904018758021087 0.08191282529309199 -0.32207956271278965 -0.25988054937992255 -0.4711982192101049
-0.8326426279181994 -0.7613923075372544 -0.704216768570083 -0.6206858188550531 -0.5061309526933571 -0.45783453672346286 -0.33925452111384097 0.14321265641672168
0.2495086353118845 0.7878727005268926 0.9376985679613661 0.5647853962005055 0.8427697809978032 0.12736405072752316 -0.2127852600928043 -0.4925420312023556
0.22262287351533402 0.8255067403222855 0.9212787397907852 0.6740863871539686 -0.03548058703084677 -0.9458257972346644 -1.0120190084534568 -1.1727865262292838
-0.5789485689672431 -0.07656415643388487 0.4333517748529921 0.42293805626974146 -0.010624445022283883 -0.08952804199004566 -0.03055014655747332 0.18526349667768205

gru.weight_hh_l0_reverse f8 [12, 4]
00000000: f03f a287 93e5 903f 93df 5594 fd8c a63f
00000010: fe59 53ed 2579 bb3f a87e 250a d531 a03f
00000020: 4c33 0949 ccfd cb3f 2f02 89a8 1b8f c13f
00000030: cf20 6067 973d d93f 8e77 00c8 b747 a5bf
00000040: 2954 5aa3 01bc a03f 2660 d5fb e5c2 a73f
00000050: 7189 2704 d07f b43f 6d0a 2079 0263 b43f
00000060: 40d2 30cc 1600 9b3f 1d18 0d8e 77b4 943f
00000070: cc3c cb30 b829 613f d12c 6230 0720 aebf
00000080: fd44 ec2b fabb d33f 2296 eb59 4522 cebf
00000090: 61ac 10d5 b968 a23f 900f c668 d61d c93f
000000a0: 8dbf fd61 aee5 bf3f fca1 7f7f 77dd a8bf
000000b0: d815 88e5 1f1d a33f 5e20 7e28 2453 b03f
000000c0: a976 b441 b944 c33f b6bc 81c6 6c68 333f
000000d0: 8615 1966 5397 6e3f 5f3d d385 89b5 bb3f
000000e0: 14a4 2f1d bfb2 aa3f eaf3 244a e665 c03f
000000f0: abc7 a425 abbe a53f 1d72 b4d3 5846 a73f
00000100: bc86 7f2a 49ef cfbf a3bb 207b 5b97 b1bf
00000110: f037 1605 a403 bd3f 16c5 64c8 647b c0bf
00000120: ec52 aee1 34de cebf 6959 19bc 1aa7 cfbf
00000130: f770 18a0 e3eb 903f b2ac a90a a507 bebf
00000140: 769a 743d c6cd b43f 0db6 6c41 4e8f b13f
00000150: 8bba b9b4 3bc1 bcbf bc43 f702 556f aebf
00000160: 93ff c031 a071 b7bf 2a28 51f2 9641 a4bf
00000170: 3bee 0d1a 7f17 8f3f 5be0 0c07 b9ac e0bf
0.016500764039449167 0.04404442249045739 0.10731732410508951 0.031630189407903686 0.21868279997070272 0.1371798108030062 0.3943842420126317 -0.041562789119992435
0.032684374990971606 0.04640883158816704 0.08007526494433194 0.0796357675281258 0.026367527211009767 0.020219677014459692 0.002095088717716109 -0.05883810487383701
0.3083482197699395 -0.23542086496961284 0.03595524526493744 0.19622306934263323 0.12459840671885854 -0.04856465751055691 0.03733157803439341 0.06376863468733648
0.1505347796273118 0.00029614120149452515 0.003734267128296667 0.10823878781524375 0.05214497786784747 0.12810972805337367 0.04247031054036595 0.04545857986724775
-0.24948992323975527 -0.06871577983905168 0.1133368027132915 -0.12876567635388686 -0.24115620631768964 -0.24728712257883537 0.016524845739795926 -0.11730414877245002
0.08126486778619743 0.06859292123109402 -0.11232350504153936 -0.059443146335645264 -0.09157754149145907 -0.03956290920230317 0.015181534750573813 -0.5210843217564717

gru.bias_ih_l0_reverse f8 [12]
00000000: c47b 79ae d7b5 c4bf c09e 7217 f09d 6bbf
00000010: b888 9ad1 d793 cfbf 1f4c bdee a36d b5bf
00000020: 9491 9928 61c9 eabf ed7b 2ce6 ca91 ebbf
00000030: da89 7685 238d e6bf 53b0 5319 c8e8 cfbf
00000040: 82b5 12db a561 8abf c28c 37a7 a191 a8bf
00000050: 1f9e fb69 4f24 dcbf 0f64 2051 0fd5 a6bf
-0.16179939288391954 -0.003371209076778431 -0.24669931158593328 -0.08370422915076901 -0.8370824616400108 -0.8615469451505057 -0.7047288519573229 -0.24929143177667132
-0.012881561039047144 -0.047986079847555554 -0.4397161993969991 -0.04459426751436279

gru.bias_hh_l0_reverse f8 [12]
00000000: a9dd 3237 1b8e c4bf cf12 46b2 960a c1bf
00000010: e030 8dc6 b12f d0bf 594a 22b8 48b0 b2bf
00000020: 12a3 a728 8f7e e9bf daaa cd13 0027 f0bf
00000030: b2ff 6579 a891 e6bf ee7f 5224 79cc cfbf
00000040: 1b63 5910 102e c03f ed01 cdde ee8b e63f
00000050: 2d5a fcca 18cf b0bf f219 da1a 5ac8 8f3f
-0.16058674044846313 -0.13313564018985466 -0.2529110373477703 -0.07300238128144922 -0.7966991228141487 -1.00952155814837 -0.7052805300772802 -0.2484275271754081
0.12640572355555765 0.7045816756800015 -0.06566004710871516 0.015518859810311068

gru.weight_ih_l1 f8 [12, 8]
00000000: 63ab 63db d764 cbbf 2e73 ed45 2b6d dabf
00000010: e5f6 a304 ec99 bdbf 7f9a a7ad cb3c c9bf
00000020: 6c99 c088 549a e13f ba84 45ec 1b56 c03f
00000030: 6a01 99d0 9d8b aabf 778c 6f30 8818 d2bf
00000040: 6511 cfa8 906f b53f d595 d940 aa19 c23f
00000050: d1de 4b1d 40d8 6e3f 3114 d739 1a03 acbf
00000060: d706 7abc b74a c33f 2df5 ecaa 45c3 d4bf
00000070: dc48 5ec8 f49d c63f 3815 82c0 18f1 b0bf
00000080: d2d8 a7dd efec c13f e586 09b1 2086 d03f
00000090: 33c5 3d4d 4e6a b23f 375e 9cd0 d819 903f
000000a0: c6b5 d114 76ab cbbf 9cd1 eb6f f5d7 dabf
000000b0: 3c30 db5d 5980 cbbf d1d6 44a9 8f2f 91bf
000000c0: 3f46 e843 9548 a3bf 85f9 c3e3 93e1 c0bf
000000d0: c6f4 95d0 17ce cabf aca3 5304 8638 c8bf
000000e0: 1570 0340 ac8c dc3f d09f 882c b413 a0bf
000000f0: b553 2473 e19a ca3f 1869 4599 e5a7 c3bf
00000100: 4532 7e87 ae7a c2bf e36a 11e3 874a d2bf
00000110: 7784 868f 6aa5 c7bf efc5 c13f 71eb c9bf
00000120: b04c 4a3a 2fe7 d83f 9dab 6a03 0ee1 c33f
00000130: 21c6 0557 6f1c 59bf 151e e4e9 c772 d3bf
00000140: c9ef e695 55f9 c3bf 636a 0ef3 e377 dc3f
00000150: 8388 89b2 25e3 d13f 5656 dc7d e97c b73f
00000160: 4b02 4dac 8745 b7bf c12c da02 41c2 c0bf
00000170: 5179 5ad7 2a64 91bf 5c8d b7b1 eeae 993f
00000180: 6518 e1bf 4be2 db3f f271 33b6 28c9 c13f
00000190: 3dbf e0f8 6089 de3f aafb 64a6 5d1d cebf
000001a0: e8bf 4d24 0741 c5bf 235d 5c2b 2338 d6bf
000001b0: c208 4bb7 d700 cebf fefc 0c59 b54b afbf
000001c0: 5a2e 6c76 1b02 c0bf 79d2 00bd 533c a33f
000001d0: 76bc dba0 fbe8 97bf f713 93d4 167c c8bf
000001e0: 9bc3 5656 a819 d93f 7f8b 2c43 3b09 cb3f
000001f0: 505a 4776 5e69 c93f 0342 d2a2 28f8 b6bf
00000200: 780c ee1e 6476 d93f 3c98 4bfc 1e44 d0bf
00000210: 60fa e2c4 559f d13f 40ee c9dc 1a0f d3bf
00000220: d902 8566 35f8 d2bf 2fa7 1748 7afe c8bf
00000230: 2a2d 13eb e32a b53f f66e 621b e41f e9bf
00000240: c552 a8ec 7edc d3bf 2445 5eb4 30f1 c0bf
00000250: 4ff2 af92 87a9 c5bf f1ec 3fb5 e2ab b9bf
00000260: b354 a198 86fb b93f e976 7bf6 f8b3 d0bf
00000270: 9b2b fc0e fe0a e23f efcf 8681 29ed cdbf
00000280: 4aa5 d411 509b 8d3f 95dd accc 9044 d13f
00000290: 9c92 18b0 13a5 d0bf 2949 cde1 30ad c93f
000002a0: 8de1 9ed9 1f88 ab3f 223e 796d f680 bd3f
000002b0: 6ce6 9600 8583 da3f 98f0 a7d9 c785 e0bf
000002c0: f642 a039 05c8 d83f 3df0 8f8a 177e c83f
000002d0: 837f abb4 5cb9 e03f 1f93 c8a4 dbed d53f
000002e0: cfd8 6042 f8fd d83f f24f 755e a701 cc3f
000002f0: 4d13 5d5c 442c d6bf 2607 84be b5ef a73f
-0.21401498997087307 -0.4129131491552468 -0.11562991250317685 -0.1971678350375505 0.5500891371673737 0.12762784039208502 -0.051846439088424415 -0.28274731378605317
0.08373359795866049 0.14140823523045634 0.0037652256236205624 -0.05471116977745572 0.15071770384752511 -0.32441846553759285 0.17669544013603555 -0.06617884349733039
0.14004324267415896 0.25818650521078573 0.07193459878705681 0.01572359822520594 -0.2161700822502281 -0.4194310753803394 -0.21485440333197114 -0.016782993990281995
-0.0376631398577385 -0.13188408490527706 -0.20941446003772607 -0.18922496043458403 0.44608598948775696 -0.03140032809852722 0.20785158273852536 -0.1535613058466161
-0.14436895004145547 -0.28579899954426774 -0.18473560340956727 -0.2024976311982267 0.38911038105397733 0.15530562559919484 -0.001532658319856835 -0.30388067093778776
-0.15604657954633996 0.44481753097503524 0.2794889682319381 0.09174975703020868 -0.09090469318926712 -0.13092816008825106 -0.01698367061055112 0.025081376645073802
0.43568700540743627 0.1389513864186394 0.47713493637546717 -0.23527117371301404 -0.16604699394838396 -0.34717635378315687 -0.23440071534975543 -0.06112448417706594
-0.12506430895187998 0.03756963426750288 -0.023349696820272624 -0.19128690127959633 0.3921910136369264 0.21121922283154146 0.19852810645416463 -0.0897241017830837
0.39785101910110354 -0.25415777815067364 0.2753500387879395 -0.29779693185239253 -0.29639945041348664 -0.19526604194771255 0.08268570412763113 -0.7851429495671869
-0.31033299552045107 -0.13236054236453143 -0.16923613226380715 -0.10027901577989319 0.1014942286140748 -0.26098465033088175 0.5638418476749963 -0.23380011391202468
0.014456391853473822 0.26980991351907707 -0.260075494736421 0.20059786820872574 0.053772921862619595 0.1152490632314245 0.4142773156887418 -0.5163306475729028
0.38720827701131044 0.1913480211804898 0.5226272133549944 0.34264269916666196 0.3905010841584841 0.2188004695150308 -0.3464518453586621 0.04675071669227142

gru.weight_hh_l1 f8 [12, 4]
00000000: ae5c 6889 b2d0 78bf 79c6 147e e49a b73f
00000010: 24fe a1e0 24c8 b13f 0190 da04 71c7 823f
00000020: 1243 0c94 ecf0 a4bf e9a5 59eb 8ec0 bbbf
00000030: 07d8 e963 578f a13f 76a3 1ef8 a689 80bf
00000040: 0e38 a2e7 0b2f 9c3f 0eb3 848a 60b7 b3bf
00000050: 0949 46ff 0b5f bfbf 0862 926d 126b afbf
00000060: 5ce2 bcf5 0c09 a43f d49e b6c4 9fad b83f
00000070: 9986 58b3 72af a43f 30d6 0f71 06dd a83f
00000080: e622 53e1 4495 b0bf 1539 004e 686b b1bf
00000090: 58b5 169e 96dc a7bf 215d 0a49 52ad afbf
000000a0: 3279 1dbb ccac a93f bb00 84da 18e9 ce3f
000000b0: 75c7 f89d 961c c63f c34a 1256 3235 cdbf
000000c0: 177f 54e8 e8ef 8bbf fc63 25e1 44ff 99bf
000000d0: c506 e458 57a1 c3bf 039e 0537 5ddb 9dbf
000000e0: 9498 29c0 7daf c1bf cdb8 e31d 23d2 c0bf
000000f0: c487 a891 c210 a03f 7319 8647 5980 b23f
00000100: 6ad7 8041 0133 f2bf 6d6e 83a6 2737 7ebf
00000110: 0d62 42d7 0ab3 a8bf 3485 9845 9d37 593f
00000120: 674b ea4d 4369 c6bf 68ce 1d5b 4c7f e5bf
00000130: 0f2d 94d6 828b a03f 03eb 798b 34a9 b63f
00000140: eda5 4d71 9c86 9e3f ee1b 1b89 d911 82bf
00000150: 7e01 02cc 1593 eebf a74a 6e2f b8fd 91bf
00000160: 2516 10e0 bbb3 84bf a767 a157 3098 ad3f
00000170: 695a 587d 9081 913f cc4d 5cf8 d1aa efbf
-0.006058404359030307 0.0922072227301899 0.06946020588110763 0.009169466934800143 -0.040900605270627235 -0.10840695615629382 0.034296732851473215 -0.008075050780307551
0.0275232181671115 -0.07701686269565419 -0.12254405004776826 -0.06136376941248406 0.03913155078629835 0.09639929344723025 0.040401062386320415 0.048561288167473626
-0.0647776651486641 -0.06804515747373714 -0.046604830549180576 -0.06186921254737344 0.05014648231621023 0.24148855848034664 0.17274744714228132 -0.22818593218524627
-0.013641185369635473 -0.025387836686920892 -0.15336124267928689 -0.029157120211861464 -0.1381680668156987 -0.1314128776497853 0.0313778689199036 0.07227094646632341
-1.1374523695680758 -0.007376818546812919 -0.04824098470379932 0.0015391383989327824 -0.1750873690076233 -0.6717893390291012 0.03231438512201567 0.08851936726743408
0.029810375609860818 -0.008823108193054065 -0.955454729512027 -0.017569425482700265 -0.010108440184931908 0.057801733681756055 0.017095811510524337 -0.9896020746986607

gru.bias_ih_l1 f8 [12]
00000000: d9c2 8f98 136c b03f ed19 bae2 4e95 cb3f
00000010: c82c 0433 ed5b c63f a63e 8f37 79c5 b43f
00000020: 3635 cc4c 8a92 d1bf d539 66d3 6915 d7bf
00000030: 441c a465 30aa bebf f538 79c6 a352 d3bf
00000040: e31a 59ca 537c c3bf 1961 400c 8d86 d43f
00000050: 62cd 30d3 969b cbbf 2c6d 9c94 7f9a da3f
0.06414911722800855 0.21549402304317714 0.17468037596731834 0.08113820654329604 -0.27456910609983554 -0.3606819691130146 -0.11978437882872678 -0.3019189298837682
-0.15223166828419385 0.3207123393672347 -0.21568570434611006 0.41567983162686306

gru.bias_hh_l1 f8 [12]
00000000: 2584 080a 25c8 b73f 0801 a547 74bb cb3f
00000010: 9615 6369 6e5e c53f 769a 724f 294c 973f
00000020: 93de 04b8 17a9 d1bf 77f9 bc57 7a7f e0bf
00000030: e948 548d bee1 c1bf 5047 2c1e 2b29 d2bf
00000040: 4924 80d9 adf5 ca3f c443 fe4c 48a2 de3f
00000050: 335a b132 a524 cf3f 4f9f 5aa4 ecef cfbf
0.09289771552040856 0.21665814874905487 0.16694431444026908 0.022751470064259448 -0.27594559641463795 -0.515561267245899 -0.13970167065469433 -0.2837627215059131
0.2106225311293051 0.4786549331557206 0.24330582595094227 -0.2495094110975011

gru.weight_ih_l1_reverse f8 [12, 8]
00000000: 3fbc 439b 92ce b1bf 14c1 7daa 5307 d9bf
00000010: eec8 b7b8 4eb5 d33f 931a 937f 7c72 e8bf
00000020: 6cb0 24e4 a584 cf3f f04c 9b57 e9cf fc3f
00000030: 7f36 6afe ff3c d4bf 8b0c f58c fe9e a73f
00000040: 4097 4dfd 8bf5 d0bf ec95 45ce a1ad d9bf
00000050: edb4 3b6c 06e7 be3f b23c e15a b2e9 a6bf
00000060: 2730 985a 067f c73f ac74 b1f3 2d2b d7bf
00000070: 18cd 6472 ee6a c1bf 76ca c225 5be3 babf
00000080: bbc4 4453 3d42 de3f 76fc 8572 fa0d d93f
00000090: cab2 4a41 01de d43f 5da6 ecb1 891d c93f
000000a0: c0f4 dff0 0aa6 ddbf 766a 9b03 4f9e bf3f
000000b0: c521 6849 1709 e33f 4868 26c1 2aee d23f
000000c0: 73a4 9b1a 0832 e13f 470f 1dd8 6b3c cd3f
000000d0: 4e82 538d 2120 d53f 7b12 e5c0 de46 b33f
000000e0: 3975 2435 22b4 c03f 4cbb e44c e321 e73f
000000f0: b3ad 0393 7ffe f13f 7210 d265 712e c03f
00000100: e44e ffd2 b8ca c13f dc23 2ebd 3d21 aabf
00000110: 6a0f f5dd 9a3c c2bf 98e1 1d6d 08aa d7bf
00000120: c76d 7067 cb95 9b3f 6c00 bd63 8fc4 f93f
00000130: 7211 1d8f eaa3 7d3f 00b1 b60c e91c c83f
00000140: 2263 4f5d 2dc0 cbbf be9d 5254 0885 c3bf
00000150: 2ca1 8d6c 8869 c73f 9100 6672 481d c7bf
00000160: f1bc 0d9d 69cd af3f 1a93 8f6f 9419 c4bf
00000170: 3b1a 13ad 7974 d0bf 3728 f802 de00 babf
00000180: 85d6 83c2 c95a e93f 2cfa d927 c1dc dfbf
00000190: 888b f74b 8696 cebf dcea 1995 be29 d6bf
000001a0: 39e9 34eb b08d ca3f b34c ade9 4344 e83f
000001b0: 4ea5 6cf8 d6f6 f23f 0c1b a9a5 b178 df3f
000001c0: 0ef2 426c 2d0a da3f 7571 db57 fefb e73f
000001d0: 49be 5a9e 9e32 d73f 85cf ac21 688b dbbf
000001e0: 85b1 5da0 c36e e1bf a823 e217 c09f da3f
000001f0: f822 c881 0ca8 d63f aee5 bce4 c043 b43f
00000200: d0e1 e3ae aa78 d7bf 778b 433d 93cc d6bf
00000210: 2c7d de89 9bd3 c8bf c879 3447 bebf eabf
00000220: 83cc 0710 514c e13f a7f9 d359 11ba dbbf
00000230: 0375 7134 6f40 b9bf 95b4 0fff c148 c43f
00000240: 6ef4 e0de 6d04 dbbf 1541 3152 8f9b d43f
00000250: a196 801a bc81 cebf 5ffe 4818 f398 e0bf
00000260: 3d47 3f63 16db d3bf 4557 3dcb f2ae d33f
00000270: fa46 8508 3e0f e4bf 0d5f d654 fb3c d4bf
00000280: a46b 40fc e813 d63f 9917 9678 6a8f d1bf
00000290: 48a1 103d a228 d7bf 3459 b738 4049 ddbf
000002a0: 9ee8 1ad3 b6c8 ea3f 196b 30f5 5e3f eb3f
000002b0: 1f75 9641 a59a e53f 33b6 43ef 7720 b5bf
000002c0: 8844 8b05 c21a 633f 166e 9815 da25 e03f
000002d0: d9a3 dd90 24b0 d3bf f047 8ea2 7a2f e5bf
000002e0: ccd9 8583 e5b5 ac3f 26a8 5398 c346 d83f
000002f0: 7065 3c94 a9b4 cfbf 41a4 0c84 92f4 c73f
-0.0695582989753669 -0.39107219361814427 0.30794113196237916 -0.7639753810588722 0.24623559608278656 1.8007596418508989 -0.31622314305500504 0.04613490553540441
-0.26498698937063025 -0.4012226595280868 0.12071266310131863 -0.044751714318971195 0.1835639898639567 -0.36201046751177546 -0.13607578836090606 -0.10503167793175713
0.47279294139577716 0.39147816833423776 0.32605010391379763 0.1962139242908049 -0.4632594444554563 0.12350934827865409 0.594859736797894 0.2957865606528043
0.5373573798834869 0.22840641071717924 0.33008612443339735 0.07530014237733866 0.1304972419247095 0.7228867055726851 1.1246333830593869 0.12641732665736388
0.13899908354380053 -0.0510348599846748 -0.14247451627499724 -0.3697529855340007 0.026938608349252904 1.6104883094813216 0.007236400839080269 0.1883822738722145
-0.21680228286893405 -0.1524973308307675 0.18290810871554564 -0.18058114610540035 0.06211404840620983 -0.1570306343775421 -0.25710908796137105 -0.10157573292249898
0.7923325347062052 -0.49784878627534357 -0.23896864613842816 -0.34629787979762994 0.20744906887723305 0.75833316459684 1.1852636055067083 0.49174157312192857
0.40687118122494403 0.7495109287224709 0.36246457542708704 -0.4303837136133029 -0.544771016325783 0.41600038845404663 0.35400688814165404 0.07915883621617212
-0.3667399127876054 -0.3562362764625315 -0.19395775062455678 -0.8359061613771752 0.5405659974188811 -0.43323167583721517 -0.09863944082595215 0.15847039179007952
-0.42214533582211444 0.3219946196231985 -0.23833419126565494 -0.5186706041640256 -0.31024703685863014 0.3075530037652821 -0.6268606344621894 -0.316222031449329
0.3449652160067507 -0.2743784120178759 -0.3618550869309911 -0.45759587801639445 0.8370012400767057 0.8514857090807225 0.6751276284227606 -0.08252667991083555
0.0023320950971102462 0.5046205922876108 -0.30762590548562013 -0.6620457816045455 0.056075260453258474 0.3793190944257979 -0.24770087946016472 0.1871512551090593

gru.weight_hh_l1_reverse f8 [12, 4]
00000000: 7660 8904 dfac e2bf ef18 1feb d6ff d63f
00000010: 3ebf 96aa 2c1e d83f 1fcd 6091 d08c c83f
00000020: 8139 a5e2 616f c7bf 1444 97cb a4d6 d13f
00000030: 74b8 1d15 87e0 c23f 57fd 803d 3359 bb3f
00000040: 33fa 1603 586b b5bf de8f 37f7 4186 c2bf
00000050: 9934 3ed6 17e4 e13f f725 b0e3 0de9 933f
00000060: f3bb 71ae 2851 b83f d582 8a54 be7f d0bf
00000070: 63aa 1632 e4e8 e33f 8f7c 6957 16b7 c8bf
00000080: cf7d 0a1e d342 dcbf 4d9e e634 4c3c cd3f
00000090: 68f5 14ae 0ebd cb3f ecc1 ed05 b39c 89bf
000000a0: 1bd2 db81 2c7c b3bf 5b1f 4a99 517f d23f
000000b0: 5ed7 bd9f 18c1 8ebf ed61 9cc5 2835 b73f
000000c0: 920a e3a2 7897 b03f 512f 9e19 a31b 82bf
000000d0: 49f6 3c96 e770 e23f 70c1 2f21 4a04 b03f
000000e0: dff5 6026 818b 973f 8c5c 277e 4880 b3bf
000000f0: 5a87 9e60 7bf4 c3bf 813f 1bea b9b3 c53f
00000100: f7c0 9b61 ba4f f9bf 6ccd face e74a 58bf
00000110: 71d4 c783 c490 a93f d5a9 ee93 9f19 c2bf
00000120: 16ac 771a 075c 923f 2d0f a4cb 2ad1 eabf
00000130: 9f89 6333 0c50 bb3f f740 a97c 8796 663f
00000140: 4327 8bd5 29c1 c23f 76a4 25a0 98c8 a2bf
00000150: 9288 01fd 3961 e6bf 389e ba92 94b6 e3bf
00000160: 5386 2019 51a5 8fbf 8e5f 9887 1ed8 bebf
00000170: 1889 77a6 9a40 f0bf 92e2 34bc 6eaf d9bf
-0.5836024368864077 0.35936520539361444 0.3768417039782327 0.19179732416669368 -0.1830866200129542 0.27872581369325755 0.1474770405870377 0.10682983638343067
-0.08366918635781743 -0.14472221919197542 0.5590933975633049 0.01944371893117666 0.09498838671582614 -0.2577968431087759 0.6221791246692415 -0.19308738010565604
-0.4415786546105353 0.22840263922738516 0.2167070722588662 -0.01250591146319465 -0.07611349268319893 0.28902091951066716 -0.015016739249158636 0.09065489601596939
0.06481126763086767 -0.00884177610330253 0.5762823042238746 0.0625654536268081 0.022993104903653246 -0.07617619590688401 -0.15589849679696038 0.16954730921724706
-1.5819648564175262 -0.001482702613356003 0.04993261440896724 -0.14140696261649902 0.01792918299717535 -0.8380331017837982 0.10669018034562903 0.0027573248128548405
0.14651987959796928 -0.036686677502822215 -0.6993684712908979 -0.6160376420784308 -0.015452035502735805 -0.12048521814756283 -1.015772485982387 -0.40133255366848986

gru.bias_ih_l1_reverse f8 [12]
00000000: dc4d f2cf a609 d5bf 0521 8dec 0659 973f
00000010: 795d 76e1 044b d4bf 18a2 4e6c 161e c9bf
00000020: e253 d9ba fe5a e1bf 8e0a 4822 e807 e3bf
00000030: c5c0 7ced 8923 d8bf 65a4 acc8 bd55 e1bf
00000040: ae25 83ba ac94 c3bf 23ef d8c0 d328 c53f
00000050: 4aca 3894 8d8a c83f 16fb 3410 0912 ac3f
-0.3287140875556511 0.02280054873270478 -0.3170788003712555 -0.19623070038257207 -0.5423577927964482 -0.5947151822623071 -0.3771691149913859 -0.5417164725705673
-0.15297469241185752 0.16530844608666326 0.19172830331224794 0.05482509920920202

gru.bias_hh_l1_reverse f8 [12]
00000000: e464 d619 bbc2 d1bf 3396 cfc9 3ee2 a53f
00000010: b2b8 fd95 0028 c3bf c72c 0997 fff2 d3bf
00000020: 580d 1306 f9d6 e5bf a824 1790 5d2c dbbf
00000030: 8e29 e970 c3f9 dcbf 6dd2 317c 028c e4bf
00000040: 037b 3bd6 9127 d03f 651e 7553 b53b debf
00000050: d99a cdf8 411c d9bf 0b92 8af8 2f68 d0bf
-0.27751042864981756 0.04274173940192973 -0.14965827297004847 -0.3117064452132578 -0.6824917906418859 -0.4245828539975016 -0.45274435068554275 -0.6420910287548175
0.25241514130713955 -0.47239430570741653 -0.3923497132986263 -0.25635909339533275

fc.weight f8 [12, 8]
00000000: 1850 337a 02eb ccbf 229c 98e4 3888 b53f
00000010: a434 ff76 1e3e c6bf 8378 65c3 c719 cb3f
00000020: e372 7553 a6da d7bf f898 42f1 1df6 d1bf
00000030: 82cb 8f41 c811 aabf 8ac8 4993 d444 c4bf
00000040: ca9e 38a0 4a54 813f 8201 b4f8 ef77 c33f
00000050: e495 8b1b 80b7 b53f 01a3 610d 42d0 cf3f
00000060: 7b54 3859 8b19 d9bf e062 1cf1 2e54 c6bf
00000070: 06c8 fcd6 19cc c0bf cdfc 2d74 c000 c1bf
00000080: 05d3 8a49 a06c c93f 7e84 4069 7073 d43f
00000090: 856f 7a2f 9389 b33f be91 493f d128 b23f
000000a0: 61b5 9934 7ab3 dabf aa27 ec6b 627d aebf
000000b0: 540f f705 10a5 c5bf dfe2 69a8 afa5 c3bf
000000c0: 6281 68fc f903 c13f a908 af97 be32 d53f
000000d0: 8bb6 b60f e720 b0bf d015 d55f 9701 ccbf
000000e0: 4098 0502 a2bf d7bf 1e0c 60fa a03e 9c3f
000000f0: 580c 2ec3 2ded cabf 6fd6 5277 fce9 c8bf
00000100: 053a 2655 dacc bebf 24e2 74cf 63cc e13f
00000110: ddc3 992a 2305 d0bf 9622 4639 18b2 d0bf
00000120: fac5 cbce c097 d5bf d693 f2ae c2e1 c43f
00000130: 0a86 86db b421 d1bf 2963 be98 d88a cfbf
00000140: 6d3a e891 bd6e d3bf f217 57df e840 d63f
00000150: bfa8 12f7 9a44 c4bf 4ae6 75ae e580 c3bf
00000160: bd8f cb0b bbe4 c5bf e812 7ff4 7852 ca3f
00000170: afe8 60bb e9cd d5bf cd28 e40c 2aca d1bf
00000180: 9289 8f07 76f9 c9bf fc7d 7143 2bce b73f
00000190: 5b6a fabf 071d ab3f 143e de60 15d3 a63f
000001a0: 014b df6d 8add 483f dc5e c98b 3f8f cb3f
000001b0: 8975 16b0 b370 d8bf bd18 a23c c05a d3bf
000001c0: 0c91 4435 c875 ae3f 00ef c2c4 c6bf cc3f
000001d0: be79 18d8 fa9f 833f 59d3 a946 1685 d13f
000001e0: 2d63 3c93 1230 ae3f 0009 6802 de31 cb3f
000001f0: aed1 0d2d 6e10 dabf 912a 39cf 2a46 d3bf
00000200: 7eb3 e942 22d4 d43f 64b0 2ade e5f4 b33f
00000210: 7170 2ea7 c1f3 a1bf 6358 69e4 3d7d c23f
00000220: b084 7416 5809 c53f db39 67db 153f b33f
00000230: 90c4 920a 30a1 d8bf 5c9a 20f7 02ac d3bf
00000240: 3f3e 3ca0 634a d23f 8d19 ec73 6c69 a23f
00000250: 2412 4317 d4c5 aebf 7d08 b987 5983 b6bf
00000260: 569e d949 d8d4 d03f 9f40 fb4e c6f1 c1bf
00000270: 93b5 4d56 af1c d7bf b31b 55ad afd4 d2bf
00000280: f1df 57a5 308b bf3f d471 11d1 5cf0 b7bf
00000290: 774f f458 e592 c53f 4141 64e9 2dae ccbf
000002a0: ebc3 4284 929e d63f cef9 da10 0311 d4bf
000002b0: b9c6 2596 75b7 d2bf aaa1 70ed 0e2b ccbf
000002c0: 6440 347a 5aff ccbf 5b2f acb0 9367 bd3f
000002d0: 2d56 a89e 6f5c d73f 1bad 7935 f6ed 9bbf
000002e0: 23a5 da1a f4ab d53f 0bac ec5c 82ae d0bf
000002f0: f916 5171 735a cfbf c7c0 ece4 c77d c4bf
-0.2259219261819687 0.08410983639679206 -0.17377072153468476 0.21172425309027085 -0.3727203192736807 -0.28064678726731485 -0.05091691780389508 -0.15835053626830514
0.008461554541170275 0.1520976986285057 0.08483124420634841 0.24854303029430727 -0.3921841021813816 -0.17444407246582383 -0.13122866628106084 -0.13283544228395386
0.19862750616962202 0.3195458438731932 0.07631797703873928 0.0709353236684995 -0.4172044290233626 -0.05955035750783051 -0.16909981051696354 -0.15349384043999856
0.13293385338421176 0.3312221986090074 -0.06300205358157933 -0.2187985628062692 -0.3710713405365631 0.02758265999001363 -0.21036312132136703 -0.19464069200846576
-0.12031330660668267 0.5561999370466464 -0.25031356010646083 -0.2608700331989352 -0.337387277554711 0.16313966314660772 -0.2676822799495261 -0.2464247461146212
-0.3036340641855649 0.34771177111213014 -0.1583436685953696 -0.15237113016682918 -0.17104280544219633 0.2056418603734962 -0.3406929330700547 -0.27796412714873214
-0.20292544717001398 0.09298963924947395 0.052955858406865196 0.04457918937179897 0.0007588315891048082 0.21530908895032652 -0.3818787784201381 -0.3024139968987461
0.05949235582582632 0.2246025524854005 0.009582481116976346 0.2737479868003923 0.0589605145198163 0.2124593269109667 -0.4072528305034905 -0.3011576675095649
0.3254476216741792 0.0779555957221319 -0.035062839181791434 0.14444707539468302 0.16434765907709936 0.07518135649227224 -0.38483811409521085 -0.30737375386744303
0.2857903542326063 0.03596056857172689 -0.06010306152305514 -0.08794173778099608 0.2629910203163254 -0.14019087654606197 -0.3611257880027889 -0.29423133780477
0.12321762119961456 -0.09351139167978967 0.16854540675614846 -0.22406553169322233 0.35342848697751944 -0.3135383286097778 -0.2924474684033203 -0.2200640353560293
-0.2265427681636566 0.1148617082910141 0.36501684659865213 -0.027274939550278803 0.33862021086186384 -0.26065119814546794 -0.24494784386677518 -0.16008852651567038

fc.bias f8 [12]
00000000: a1f3 3ed1 3d99 d43f aeb5 ac04 75d0 d23f
00000010: 5948 14da 91e8 ca3f e530 1888 ec77 c73f
00000020: db0f 86bf df8a b13f 9397 178b 7b0d c03f
00000030: 2347 f393 c6df cd3f 129d 94d5 6353 c63f
00000040: e928 22c3 8142 ce3f 6d3d 57a7 4c13 d13f
00000050: 8f03 492f 27a6 d63f 29fc 749e 4838 d23f
0.32185311731501015 0.29397321182735936 0.21022246502303935 0.18334728856314722 0.06852529931899147 0.12541145602807244 0.23339159225593517 0.1744198601602212
0.2364046290206894 0.26680294362900875 0.353891178299869 0.28468528246225105
